Results/Complete Sherlock Holmes/LSTM/ASGD/2/100/model.pt (torch, 690367 bytes, 10 tensors)

rnn.weight_ih f4 [400, 100]
000000 0f e5 63 be 00 62 dc be b7 43 56 bf 0f 5d 8b 3e
       -0.22255348 -0.43043518 -0.83697075 0.27219436
000010 f2 34 10 3d 43 35 b2 be ea 91 fa be 5a c4 bc be
       0.035206743 -0.3480626 -0.4893945 -0.36868554
000020 79 e3 2b bf 95 20 72 bf d2 7f b9 bf 11 cf 73 3f
       -0.6714397 -0.94580966 -1.4492133 0.95237833
000030 98 eb 9f bf ca ca f9 be ef 63 2a bd 0f e3 15 3f
       -1.2493773 -0.48787528 -0.04159921 0.5854959
000040 17 77 a3 be 64 0f 66 bf 7a 5b 30 bf 1f 50 e1 be
       -0.31926796 -0.89867234 -0.6888958 -0.4400644
000050 2f 90 ce 3e c6 32 1b 40 ff 42 23 3f 30 75 91 bf
       0.40344378 2.424974 0.637741 -1.1363888
000060 a9 37 62 bf f7 4e fe bc 78 52 a7 bf 24 f1 ac 3f
       -0.8836618 -0.031043513 -1.3072042 1.351109
000070 5a 1d fa be 8a a2 41 bf 0e 19 82 be 45 e9 66 3f
       -0.48850518 -0.7563864 -0.2540974 0.9019969
000080 b3 df f4 3d 87 d9 89 bf 6e e2 55 be e0 c2 9d 3f
       0.1195673 -1.0769509 -0.20887157 1.2325096
000090 fd c9 a5 3e fc fa 15 40 63 65 d5 be 88 59 08 3d
       0.32380667 2.3434439 -0.41678914 0.03328851
0000a0 b8 4d 04 3e 4a 88 b5 3f 8e a6 3e bf 7d b7 cc be
       0.12920272 1.4182217 -0.7447289 -0.3998374
0000b0 f9 54 43 bf da 1c 13 3f b7 f8 84 bf 23 79 5b bf
       -0.76301533 0.574659 -1.0388402 -0.85731715
0000c0 0b e1 ab 3f 2f 38 58 bf 60 ab f1 3e 76 41 99 3f
       1.3428053 -0.8446073 0.4720106 1.1973102
0000d0 77 5a 07 bf bf de 47 bf 0f b0 77 bf 37 07 67 3e
       -0.52872413 -0.7807426 -0.9675302 0.22561346
0000e0 d7 fd bb bf ab 3f 11 3f 9f 03 07 3f c7 db f7 3d
       -1.4686841 0.56737775 0.527399 0.12102466
0000f0 5c 6f f5 bd f1 e3 d3 3d 93 e8 a8 bf fe 03 a1 3f
       -0.11984131 0.10346211 -1.3195976 1.2579343
000100 b4 fc 97 bc 10 b3 b8 bd c2 d4 09 3d 88 d1 73 bf
       -0.018553115 -0.090185285 0.033650167 -0.95241594
000110 bc cb 1c 3e 56 5a 15 3f af 37 b4 bd df a4 1c 3d
       0.15312093 0.58340967 -0.08799683 0.03824317
000120 40 23 1b 3c d5 c6 f0 bf 64 87 0b 3f cf 16 7b 3c
       0.0094688535 -1.8810679 0.54503465 0.015325262
000130 05 f2 f5 3d 3e 34 9c 3f 43 a7 17 3f ce 85 25 3d
       0.12009052 1.2203443 0.59239596 0.04041081
000140 83 6c 7f bd 16 56 01 bd 07 42 d2 3e 63 8e 9f bd
       -0.062359344 -0.03157624 0.41066 -0.0779083
000150 e7 b8 f8 3e 03 3c 1e bd 1a dc 3a 3f 89 18 a7 3d
       0.4857857 -0.03863145 0.729921 0.081589766
000160 78 a1 ad 3c 2e f7 13 3e 7f 3f 89 3d fd 8b 5e bd
       0.021195158 0.1444976 0.06701564 -0.054332722
000170 ae 51 3b 3d 2c 31 f4 3c f1 38 dc be 28 8d 89 bc
       0.045732193 0.029808603 -0.43012193 -0.016790941
000180 9b 64 9a 3f 87 e9 bd bd 7a 33 2c bd ca e3 04 bd
       1.2061952 -0.092730574 -0.04204128 -0.0324438
000190 af d0 ca 3e 8b f8 39 be 27 2e 17 3f eb 44 a8 be
       0.39612338 -0.18161218 0.590548 -0.3286508
0001a0 1a a6 14 3e 3d 25 3d 3d 31 14 a3 3e 16 3f 8d bd
       0.14516488 0.04617809 0.31851342 -0.06896798
0001b0 11 c1 a1 3e d0 57 cd bc b1 bf b7 be cd fe 8c 3f
       0.3159261 -0.025066286 -0.35888436 1.1015259
0001c0 c8 be 05 3f f4 08 47 bf 45 da 13 bf f9 4a 3c 3e
       0.52244234 -0.77748036 -0.5775493 0.18387975
0001d0 34 f6 5e be 67 31 e9 3f ea 05 19 be 60 90 65 bd
       -0.21773607 1.8218201 -0.14943662 -0.05604589
0001e0 66 ee ba 3d aa 98 5f 3f 28 4d 10 bf 9d dd a4 3d
       0.09127502 0.8734232 -0.5636773 0.08050082
0001f0 35 f8 93 bf 7a a6 05 3f f1 fd 71 bf 13 29 21 3f
       -1.1560122 0.5220715 -0.9452811 0.629533
000200 79 83 43 bf b7 3a 4b 3e fe 3f 20 3f ef e6 3f bf
       -0.76372486 0.19846617 0.62597644 -0.7496175
000210 23 52 7b bf 89 56 2c 3f f9 76 0f bf 54 77 3f bf
       -0.98172206 0.6731954 -0.5604091 -0.74791455
000220 0f 5a 29 be 9c cd 1b 3f c3 3f f6 3e c0 b6 86 be
       -0.16538261 0.6086061 0.4809552 -0.26311302
000230 54 22 db 3a 00 d0 06 3e ce 80 3c 3d 9f 10 01 bf
       0.0016718605 0.13165283 0.046021275 -0.50415987
000240 33 d7 14 40 74 03 88 be 33 4f 20 bd ef 50 08 3f
       2.3256347 -0.26565135 -0.03913803 0.53248495
000250 e5 67 30 3e ee a9 1f bf 5c 37 0a 3f b2 66 21 3e
       0.17227133 -0.6236867 0.5399072 0.15761831
000260 9b 8e f1 bd 48 25 91 be 98 ba e1 bd dc de a4 be
       -0.11794778 -0.28348756 -0.11021918 -0.32201278
000270 ba 9b c8 bd ae 18 1d be a0 92 26 3f 68 24 c3 3d
       -0.097953275 -0.15341446 0.6506748 0.09528428
000280 28 ea 93 bd f6 25 1a 3e dd ac 86 be 8f 39 f2 be
       -0.07222396 0.15053543 -0.2630376 -0.4730954
000290 67 db bc bd 62 34 2f 3d 79 1a b5 3d 61 40 b8 bd
       -0.09221535 0.042774566 0.0884294 -0.08996654
0002a0 46 da 1a bf 49 9a 95 bc 1c 13 92 3d 74 63 69 3e
       -0.6048931 -0.018262045 0.07132551 0.22791845
0002b0 50 14 f4 bb e8 7a 3a 3f 69 f1 fb 3c 58 ad 65 be
       -0.0074487105 0.7284379 0.030754762 -0.22429407
0002c0 00 7f 20 bd c5 b6 02 bf fb 9d 7a bf 4a eb c1 bd
       -0.039183617 -0.51060134 -0.9789731 -0.09468706
0002d0 34 9e a7 bc bc 5c eb 3c 41 3a f2 be e9 45 83 3d
       -0.02046118 0.028730743 -0.4731007 0.06409819
0002e0 8d f0 cd bd 1e 9a a6 bd 4c 40 4b 3e d8 8a 96 3c
       -0.10055647 -0.08134864 0.19848746 0.018376753
0002f0 1f 69 cc 3d c1 df 02 3c 82 ec 3c 3d 40 b6 7c bb
       0.09980988 0.007987917 0.04612399 -0.0038560778
000300 90 a8 3a bd 65 02 c4 bd 37 4d 79 3e d8 9e d2 bc
       -0.04557091 -0.09570769 0.24345861 -0.025710508
000310 9a fd 90 3e 40 87 6a 3b f9 4c ae 3d 27 ab c5 bd
       0.28318483 0.0035786182 0.08510775 -0.09651785
000320 cb 93 34 3e 28 63 9f 3c 8c dd 5f be 36 34 86 3e
       0.17634504 0.019456461 -0.21861857 0.2621171
000330 16 be e6 3e 1f bc 78 3e f6 5e 5b 3e c2 5e c0 3e
       0.450669 0.24290513 0.21422943 0.37572294
000340 41 3d 08 3f 4d b7 4c 3d bf 9b 3c bd 7f 15 2c bf
       0.53218466 0.049979497 -0.04604697 -0.672203
000350 b1 d1 14 bf db 40 1f bf 71 b5 4e 3d d3 24 31 3c
       -0.58132464 -0.62208337 0.050466005 0.010812002
000360 4f c6 9c 3f 8c b5 9c bf 9c 67 a2 3e 65 f2 e0 3c
       1.2248019 -1.2242904 0.31719673 0.027459333
000370 aa 10 fb bd 19 06 ed 3e 8d ea b3 bf 91 ad ce 3e
       -0.12259038 0.46293715 -1.4055954 0.40366796
000380 c6 63 97 bf 43 1b ca bd 5b 81 fa 3d 13 40 07 3f
       -1.1827323 -0.09868481 0.12231704 0.52832144
000390 b9 18 a7 be 5c 3c b3 3f 14 c6 2a bf d0 57 58 bf
       -0.3263605 1.4002795 -0.66708493 -0.8450899
0003a0 74 4e 92 bd 73 8b 94 3e 85 5f 53 3b 54 dc 4d be
       -0.0714387 0.2901264 0.003225298 -0.2010358
0003b0 00 7b 79 3d a0 9c 7d 3f 8a 13 99 3e fe 5e 2c bf
       0.060908318 0.99067116 0.2989772 -0.67332447
0003c0 98 ea ee 3c df f1 f3 bd de c5 54 bf 03 ab 6d bf
       0.029164597 -0.119113676 -0.8311442 -0.9283907
0003d0 63 df c0 be 18 ce 3d be 43 14 a7 bd 89 3f bf 3d
       -0.3767043 -0.1853565 -0.081581615 0.0933829
0003e0 a2 f5 39 bf e1 20 77 be 88 5b 27 3f e1 90 25 bf
       -0.7264043 -0.24133636 0.6537404 -0.6467419
0003f0 01 8a 9a 3e 64 f1 ab be 71 98 08 bf 2a dd d0 be
       0.30183414 -0.33582604 -0.5335761 -0.40793735

rnn.weight_hh f4 [400, 100]
000000 51 80 d7 bf 9f 7b 60 bf 19 b1 8a 3e 3a 37 d1 be
       -1.6836034 -0.8768863 0.2708824 -0.40862447
000010 ed 29 d4 3f 5b 55 48 bf 2c 7b 5b 3e 4e e9 3c bf
       1.6575295 -0.7825524 0.21433705 -0.73793495
000020 2d d2 24 3f 99 7a c1 bf 51 c0 79 bf 16 93 00 c0
       0.643832 -1.5115539 -0.97559077 -2.0089774
000030 70 96 ec bf fc 5a 9d bf 9b 61 ea 3f 47 51 82 bf
       -1.848341 -1.2293391 1.8311037 -1.0181054
000040 75 d2 15 3e 5b 9e c1 bc f1 98 64 be 8b 83 0e 40
       0.14631064 -0.02363508 -0.22323968 2.2267787
000050 a1 bc 5c bf ec fc 71 bf c4 43 57 3e f7 d3 96 bf
       -0.86225325 -0.94526553 0.21021944 -1.1783437
000060 f9 fe 6a be 78 cb 97 3e bb 4a 1e 3f 0a c5 ef be
       -0.22948827 0.29647422 0.6183278 -0.46830016
000070 bf 4b 7d 3f e8 b2 ad be fa 93 05 3e da 0c 25 40
       0.98943704 -0.33925557 0.1304473 2.5789094
000080 82 9f b6 3f a3 0a 6c 3e d6 ef 27 bf cf 9d 9f bf
       1.4267428 0.23050933 -0.65600336 -1.2470034
000090 ba 5d 1a 3f c9 e5 24 3f d6 3b 1c c0 5e 5d 9b 3f
       0.60299265 0.64413124 -2.441152 1.2137868
0000a0 a2 a0 c6 bf 57 c6 05 bf ea 86 9b be dd 5e 1d 3f
       -1.5517771 -0.5225577 -0.3037637 0.61472875
0000b0 d6 78 95 be 37 68 43 3f d8 1c 22 bf 4c 08 8d 3e
       -0.29193753 0.76330894 -0.6332526 0.27545393
0000c0 b0 43 58 bf b1 19 33 bf 52 83 3a 3f 17 7a 54 3f
       -0.8447828 -0.69961077 0.7285663 0.82998794
0000d0 aa e2 ba 3e 36 b4 ad 3f a5 be 38 bf ff 87 a8 be
       0.36501056 1.3570621 -0.721659 -0.32916257
0000e0 05 9e 5c 3f c0 27 d7 be 65 13 62 bf c7 f6 33 bf
       0.8617862 -0.42022514 -0.88310844 -0.7029843
0000f0 d0 a2 17 3f e2 e6 bd 3f 8a f0 9b bd f8 f2 c4 3d
       0.5923281 1.4836085 -0.076142386 0.09616655
000100 8e b2 ae bc f2 38 0a be 0c 87 34 bf b6 73 a6 3f
       -0.021325376 -0.13498285 -0.70518565 1.3004062
000110 bb 07 0c 40 b7 02 2b bf ca 08 9e 3e 95 81 d4 3e
       2.1879718 -0.6680102 0.3086608 0.41505113
000120 9f ed a2 be 25 d3 53 be 20 c5 0e bf 0a e5 1d 3d
       -0.31821916 -0.20686014 -0.5576954 0.038548507
000130 7d bd 40 3e c0 4b 41 3f 6c 87 3f be 2f 51 25 3f
       0.18822284 0.7550621 -0.18704003 0.64577
000140 65 f3 09 bd 62 f7 01 3f 49 d4 a8 bf eb 9c 8d 3f
       -0.033679385 0.507681 -1.3189784 1.1063513
000150 5c 92 ed 3e b7 68 f0 3e f7 62 19 3f e2 ed 3e bf
       0.46400726 0.4695489 0.59916633 -0.7458173
000160 9a 1d b5 3d 76 24 8b bf 69 13 a3 bd a5 3b e0 be
       0.08843537 -1.0870502 -0.079626866 -0.43795505
000170 7b b4 13 3f 33 d7 ad 3f a7 57 0a 3f 4c 9b d6 be
       0.57697266 1.3581299 0.54039997 -0.41915357
000180 9e bd 90 bf af 26 57 3e 05 c2 87 3e 92 c7 80 bd
       -1.1307867 0.2101085 0.26515213 -0.06288065
000190 bc ea 6c be b8 b6 14 3e 7d a6 79 bd e9 bf 24 3d
       -0.23136419 0.14522827 -0.06094979 0.040222082
0001a0 25 18 f2 be bb b2 b4 bd f4 ca cd be 89 5a 6c 3f
       -0.47284046 -0.08823153 -0.40193903 0.92325646
0001b0 4b c4 3a 3f 5f 87 25 be 7e 57 11 bf 9e 79 18 bf
       0.7295577 -0.16164921 -0.5677413 -0.59560573
0001c0 42 82 24 bf 0f ed cd be 51 01 ab bd fa bd ba be
       -0.6426126 -0.40219924 -0.083498605 -0.36473066
0001d0 b5 a1 70 3f f2 c4 51 bd 53 10 2a 3f 39 94 a4 bd
       0.93996745 -0.051213212 0.6643116 -0.08036084
0001e0 ae e1 fd be 49 6d ab bf 7b 0b 4e 3f 96 bc b6 be
       -0.49586242 -1.3392726 0.8048627 -0.35690755
0001f0 ed 4e 13 3f de 3c 89 3f 40 2d bf bd bd 61 01 be
       0.57542306 1.07217 -0.09334803 -0.1263494
000200 d4 4c 0a 3f b6 94 97 be 6e 39 37 bf 81 f5 2e bf
       0.5402348 -0.29605645 -0.71572006 -0.6834336
000210 c5 42 b1 3e f4 fd 70 be 26 41 a5 bf 7f fe 5e be
       0.34621254 -0.23534375 -1.2910507 -0.2177677
000220 03 34 8f be 17 c4 33 3f 85 32 8e 3d 9d 06 33 bf
       -0.2796937 0.70221084 0.069432296 -0.69931966
000230 65 9a 9e bf 9a eb 86 bf 67 11 25 be 52 f4 10 bf
       -1.2390867 -1.054065 -0.1611992 -0.56622803
000240 0d aa 0c 3f 0f ff 6d bf 8e bf 4b 3f 15 9e 8a 3e
       0.54946977 -0.92967314 0.79589164 0.27073732
000250 2c 19 c7 3e 96 3d 05 3f 6e 62 58 3e 74 a7 89 be
       0.38886392 0.520471 0.21131298 -0.2688557
000260 14 60 a1 bf 0e 6a 0a bf 5a 21 81 bf 3b 92 a1 bf
       -1.2607446 -0.54068077 -1.0088303 -1.2622751
000270 fc e7 42 be d5 42 dc 3e 2e 68 40 bf e0 60 93 be
       -0.19033808 0.4301974 -0.75158966 -0.28784847
000280 6e 32 06 bf cd b6 0f 3f 30 34 a2 3e 40 4d 85 3e
       -0.524207 0.56138307 0.3168044 0.260355
000290 a8 0d da 3d 98 0d 9b bf 69 8b 4a bf 71 5c f4 bd
       0.10647136 -1.2113523 -0.79118973 -0.11931694
0002a0 c0 3e 8c bf a9 41 3e 3f 5a 3d fa be e4 6f 25 3f
       -1.095665 0.7431894 -0.48874933 0.64623857
0002b0 b1 7d e6 3e e2 10 25 bf 49 ca fe 3d df fa d2 3d
       0.4501777 -0.64478886 0.124409266 0.10301756
0002c0 b2 de 85 3f 29 8d 8b bf 8f 31 ac 3e 5a 38 76 be
       1.0458586 -1.0902454 0.3363156 -0.24044934
0002d0 32 a2 4e 3f bd 9d dc bf db 46 3b bf a7 0d cd bd
       0.8071624 -1.7235638 -0.7315499 -0.100123696
0002e0 79 89 b2 3e 8b 83 ef 3b c8 21 8d 3e 4c b8 99 be
       0.34870508 0.0073093823 0.27564836 -0.3002342
0002f0 b4 0e 10 bf 7e 94 88 bf b2 bf c7 bd e7 75 60 be
       -0.56272435 -1.0670316 -0.0975336 -0.21919976
000300 36 a1 ba be 09 57 ad bf fc 5c 98 3f a3 ed 7e 3f
       -0.3645112 -1.3542186 1.1903377 0.99581355
000310 8d 0e 42 3d fb ea ca be ee 7a 4d 3e 7e c1 28 3f
       0.047377158 -0.396324 0.20066425 0.65920246
000320 6f 62 f5 3e 49 ec 27 3f e2 6d de 3d 08 1c 90 be
       0.4792666 0.6559492 0.10860802 -0.28146386
000330 36 b9 38 be 66 41 5c 3e 3d c9 ad be 29 05 6d 3e
       -0.18039402 0.21509323 -0.33942595 0.231465
000340 d3 b1 11 3e 0f 6f 90 bf f9 0b 66 3d f6 1d 3a 3f
       0.14227991 -1.1283892 0.05616376 0.72701967
000350 82 bb 02 bf 63 ba e0 be 00 ec 2e 3f 2d 44 2b bf
       -0.51067364 -0.43892202 0.6832886 -0.66900903
000360 4a 98 d0 3d 9b e9 92 be 79 b6 36 3f 83 8c f4 3e
       0.10185297 -0.28693852 0.7137218 0.47763452
000370 2b ab a1 be 7c ff ce be 9e ce cc 3e bb d6 36 bc
       -0.31575903 -0.40429294 0.40001386 -0.011159594
000380 02 4a 37 3f 83 0a 68 3e 3c 0e 5c bf cc 87 5f bf
       0.715973 0.2266026 -0.8595922 -0.87316585
000390 38 7e 8f 3f ad 15 ea be fb d9 a4 3d f6 63 23 3d
       1.1210394 -0.45719662 0.08049389 0.039890252
0003a0 38 89 58 3f 0a b3 88 bf 35 ab f6 be e3 c1 4a be
       0.8458438 -1.0679638 -0.48177496 -0.19800524
0003b0 c2 75 10 bf a6 1b bd 3e ac c6 c1 be 52 ae 0d bf
       -0.56429684 0.36935157 -0.37846887 -0.55344117
0003c0 80 0c 64 bf cf 32 d7 bd 33 2b 9c be ee 99 a1 be
       -0.89081573 -0.10507738 -0.30501708 -0.31562752
0003d0 72 a9 9e be 5d a1 b8 be 9c 23 06 bf 9b ca 43 bf
       -0.30988652 -0.3606061 -0.52398086 -0.76481026
0003e0 c8 b7 01 3f af cf f7 3e c5 bd f5 3d 55 3b 80 be
       0.5067105 0.48400638 0.11999086 -0.25045267
0003f0 c4 7d fc 3d 40 49 90 3f 46 e5 36 bf 15 50 d7 bd
       0.123286754 1.1272354 -0.71443594 -0.10513321

rnn.bias_ih f4 [400]
000000 2b ef c2 be 1f bf 20 bf 19 44 76 bd 7d 98 02 bf
       -0.38073096 -0.6279163 -0.060123537 -0.5101393
000010 51 37 97 3f 52 85 19 bd 2f b5 48 bd 41 b5 b9 bd
       1.1813756 -0.03748066 -0.049000915 -0.090677746
000020 dd 11 03 bf 36 8d 4b 3e 2d df bf be 5f c6 55 3f
       -0.5119913 0.19878086 -0.37474957 0.83505815
000030 2c 73 85 bc 75 f6 56 3f 68 85 eb be 04 4e 08 bf
       -0.01629027 0.83969814 -0.46000218 -0.5324404
000040 03 fe 0e 3f c1 1b e0 3c a3 ac 15 3f 62 02 54 bf
       0.5585634 0.027356984 0.5846655 -0.82816136
000050 c2 41 1a 3e a8 89 18 3e 3b 44 56 be d2 a5 18 bf
       0.15064147 0.14896262 -0.20924465 -0.5962802
000060 10 f2 6a 3f 21 df 1c be 28 ec 68 be 8b 8e 67 bf
       0.9177561 -0.15319492 -0.22746336 -0.9045188
000070 20 2c e7 be 38 00 00 bf 97 e3 3f be ec f2 2c bf
       -0.45150852 -0.50000334 -0.18739162 -0.6755817
000080 5c 83 5e 3f a1 b3 6b bd 88 ad ef be 63 51 69 3f
       0.8691919 -0.057544354 -0.4681208 0.9113981
000090 e0 34 17 3e f0 fb d6 be c0 a5 2b 3f bb 73 6a be
       0.14766264 -0.41989088 0.6704979 -0.2289571
0000a0 60 f2 4b bf 9d 32 b2 3f 7f ea 6f bf 81 b0 40 bf
       -0.7966671 1.3921696 -0.9371719 -0.75269324
0000b0 d7 61 7f b9 28 9d 3e be c1 86 ab be b6 d1 9c 3d
       -0.00024355143 -0.18614638 -0.33501247 0.07657187
0000c0 fe 8e b4 3f 6a 0c 13 bf ae d3 20 bf cf 67 62 3c
       1.4106138 -0.5744082 -0.62823 0.013818695
0000d0 69 6a 22 bf 66 a2 52 3f 01 1e 53 be e2 ed a1 3d
       -0.6344362 0.8227905 -0.20616914 0.07906701
0000e0 cc ac 99 bf c1 51 bb 3e ba ee 13 3f 8e cc 93 3e
       -1.2005858 0.3658581 0.5778614 0.28867
0000f0 88 04 25 3f a2 f7 8a 3f f8 5a b7 3f 6f 45 0a 3d
       0.6446004 1.0856822 1.4324636 0.033757623
000100 24 bf 55 be 4b b1 c0 3f a9 3e b8 be 6b ad 11 bf
       -0.20873696 1.5054106 -0.35985306 -0.5690524
000110 f1 c1 4b bf 6c fc 36 3e fe e2 d3 be 41 72 51 3f
       -0.79592806 0.17869729 -0.4138412 0.8181496
000120 df bf 1a bf 2d 59 32 be 0e 97 5e 3e 29 7c 56 be
       -0.6044902 -0.1741683 0.2173731 -0.20945801
000130 1a 01 9b be 0e e7 a6 be ff 3f 16 be 8c 99 41 be
       -0.30274278 -0.32598156 -0.1467285 -0.1890623
000140 9d 0a 6f 3f 8e f6 17 bf 43 b3 32 bf 6b 91 71 3e
       0.9337557 -0.5936059 -0.6980478 0.23590629
000150 78 de 18 bf 9c 47 6f be 71 79 01 3f 96 de 6b be
       -0.5971446 -0.2336716 0.5057593 -0.23034129
000160 5a 2f 08 3f c1 d4 db bd 35 f0 d9 3e 1c d6 1a 3f
       0.5319725 -0.10733939 0.42566076 0.60482955
000170 53 40 5c be 73 47 17 bf 59 f1 55 be 62 7c 8e 3e
       -0.21508913 -0.590934 -0.20892848 0.27829272
000180 cf 82 d1 be 62 3d 6d be 8c 36 08 bf 41 e9 78 3b
       -0.40920112 -0.23167947 -0.5320823 0.0037980827
000190 4b 13 2b be 1e a0 1d 3f b2 ee 84 3e 63 cf b7 3e
       -0.16706578 0.61572444 0.2596336 0.3590041
0001a0 b1 bc b3 be 5c 61 94 be 77 1d 8d 3d 06 06 1a be
       -0.35104898 -0.2898053 0.068903856 -0.1504136
0001b0 84 ed 8e 3e 2f 09 20 3e 40 63 80 3e b0 1c a1 be
       0.27915585 0.15628503 0.25075722 -0.314672
0001c0 24 7e 99 3e d2 b1 3c 3f 45 71 6d 3e e9 ba 1b 3f
       0.2997905 0.7370883 0.2318774 0.6083208
0001d0 4a b4 66 3e fc cd fb 3e 04 af e6 3e fd 57 27 3e
       0.22529712 0.4918059 0.450554 0.16342159
0001e0 3f 27 12 3e 2b 26 ff bd 8c 87 0a be 7f a4 1f 3d
       0.14272784 -0.12458452 -0.1352827 0.038975235
0001f0 7d 58 6e 3e f5 bb 2c bd d2 1f 06 3c 4e 49 11 be
       0.23275943 -0.042171437 0.0081862975 -0.1418812
000200 95 b5 b9 3e d2 30 1e 3e dc 26 0d 3f cd 03 b5 3e
       0.3627135 0.15448311 0.5513742 0.35354462
000210 67 02 76 3f 80 d6 c1 3e f7 f8 9b 3e 09 d9 60 3e
       0.96097416 0.37858963 0.30463383 0.21957792
000220 29 31 9c 3c a4 7e fd 3d 2d fe 39 3f 6a 6d 49 3e
       0.01906641 0.123776704 0.72653466 0.19670644
000230 fe 3e 83 bd f2 10 82 3e f8 63 cc 3e 33 ff e8 3e
       -0.06408499 0.25403553 0.3992002 0.45507202
000240 e7 af c5 3e 61 8e 69 be ab b2 f3 3d fa c4 91 3e
       0.38610765 -0.2280822 0.118993126 0.28470594
000250 86 bb 34 3e 9f 9a 1c 3d 1a 93 a2 3e 35 6a d3 be
       0.1764966 0.038233396 0.31752855 -0.41291967
000260 a5 10 20 bc b8 6b 8b be a0 dc b7 be 12 68 69 be
       -0.009769593 -0.2723062 -0.3591051 -0.22793606
000270 e6 50 9d 3e 96 df 89 be db 12 28 3f 46 d0 d5 bc
       0.30725783 -0.26928395 0.6565377 -0.02610029
000280 3c 8b 0d 3e 56 62 e0 bd 39 5b 68 3f ca dd e0 b9
       0.13822645 -0.10956256 0.90764195 -0.00042889855
000290 7f c5 37 3f 0f 89 11 be 70 be f5 3e 73 00 b9 bd
       0.7178573 -0.1421244 0.47996855 -0.09033289
0002a0 07 b2 ba 3e 11 83 24 bf 1f 85 5c 3e 00 ad 37 3f
       0.3646395 -0.6426249 0.21535157 0.7174835
0002b0 04 83 01 3f f6 8d b8 be b9 63 be 3e 10 56 b2 bd
       0.5059054 -0.36045808 0.37185457 -0.08707821
0002c0 13 7f 13 3f 2c e2 b9 3e d3 5a b2 be 08 87 d3 3c
       0.57615775 0.36305368 -0.34834918 0.025821224
0002d0 db 73 0c 3e 32 9c f2 3e 28 df 07 3f b3 20 ce bd
       0.1371607 0.47384793 0.53074884 -0.10064831
0002e0 59 7c b7 3d ac 14 f8 bc 4d e6 7e be 09 ae 9f 3e
       0.08959264 -0.030283295 -0.2489254 0.31187466
0002f0 da cb 29 be c9 96 89 3d 57 52 09 3f 2a 75 31 3f
       -0.1658167 0.06718213 0.53641266 0.69319403
000300 f1 7b 81 3e 66 c1 69 be 8f 06 1c bf 94 91 bd 3c
       0.25289872 -0.22827682 -0.6094751 0.023140706
000310 00 86 62 be ca 4b 52 be 2e b7 92 be 23 9c 1a 3c
       -0.2212143 -0.20536724 -0.2865538 0.00943664
000320 e8 17 f0 3c f8 99 03 be bf 48 b2 3e b7 a6 a8 be
       0.029308274 -0.12851703 0.34821126 -0.32939693
000330 61 3f 6c be 25 f6 b1 3d e4 34 7b bf 23 2f d4 bd
       -0.23071052 0.086895265 -0.9812758 -0.10360553
000340 3a 72 b8 3e 89 4e 49 be 56 d1 37 bf e2 5d 3b 3c
       0.36024648 -0.19658865 -0.71803796 0.011435958
000350 14 c2 08 be 5a 40 89 bf bb f6 26 3f f8 6b df be
       -0.13355285 -1.0722764 0.6522023 -0.4363706
000360 2b 3d f9 3e b9 71 19 bf 11 0a d3 3e c1 e7 eb 3c
       0.4867948 -0.5993915 0.41218618 0.028797032
000370 05 36 4d bf 9c 9a d0 3d 15 b5 b9 bb 3f 4a bf be
       -0.8016055 0.101857394 -0.0056673386 -0.37361333
000380 a3 be 12 3f ed bd d3 3e a0 9d 86 bc fc 5e b2 be
       0.5732214 0.4135584 -0.016432583 -0.34838092
000390 65 fe ee 3e 63 48 20 bf df d5 37 be d8 22 61 3e
       0.46678463 -0.62610453 -0.17952679 0.21985948
0003a0 81 25 82 3f cc 3a 1b bf ed 86 69 be 09 cf 45 bf
       1.0167695 -0.6063659 -0.22805376 -0.77269036
0003b0 c4 e4 fd be ce a8 de 3e d0 8b 8d bf b6 a5 9b be
       -0.49588597 0.43488163 -1.1058292 -0.30399865
0003c0 a9 55 9f be 88 ee ba bf 14 75 9f 3c 77 7c e5 be
       -0.3112004 -1.4604044 0.019465007 -0.44821522
0003d0 00 8d 39 3f a4 6c 26 be ae 4c 4c 3e 08 1e 51 bf
       0.72480774 -0.1625238 0.19951126 -0.8168645
0003e0 8f 4a 88 3f 67 85 8a bc 83 29 d8 3e 04 d0 f5 3d
       1.0647753 -0.016909314 0.4221917 0.120025665
0003f0 99 18 23 3c 8e e0 4f 3d 51 35 d6 be b0 3a 51 3e
       0.009954595 0.05075126 -0.41837552 0.20432544

rnn.bias_hh f4 [400]
000000 2c 22 9d be ea 1e 2c bf 0b 91 8a bd 26 0c 13 bf
       -0.30690134 -0.6723467 -0.06765946 -0.5744041
000010 f9 9d 98 3f ea 84 13 3e c3 39 94 3d a3 ac ad 3d
       1.192321 0.14406171 0.0723758 0.084801935
000020 79 76 f7 be bb bb 3f 3e 1c b0 c3 be 12 ab 56 3f
       -0.48332575 0.18723957 -0.38220298 0.8385478
000030 65 1c 27 be 1c 9f 5f 3f 5e b6 d4 be a1 e7 16 bf
       -0.16319425 0.87352157 -0.41545385 -0.5894719
000040 b8 15 05 3f 2f 8c 8c 3c d9 33 14 3f c8 f4 50 bf
       0.51986265 0.017156688 0.57891613 -0.81623507
000050 39 25 62 3e 5c 18 8f 3e 49 f8 9a be a0 fa 06 bf
       0.22084512 0.27948272 -0.30267552 -0.52726173
000060 ee 87 70 3f c3 4a 46 be 60 aa a2 be bf 2a 4e bf
       0.9395741 -0.19364457 -0.3177061 -0.80533975
000070 e7 7d 02 bf d1 cc 07 bf ae d6 47 be c6 10 3f bf
       -0.5097336 -0.530469 -0.19515488 -0.7463497
000080 67 0a 7e 3f e0 be ee bd f2 de 01 bf e5 df 6d 3f
       0.9923462 -0.116575 -0.5073081 0.9291976
000090 69 1e f7 3d 79 92 af be aa aa 26 3f b9 ee 77 bd
       0.12066347 -0.34291437 0.6510416 -0.060530398
0000a0 25 62 4e bf 28 e7 c1 3f 56 fd 7c bf b0 ea 36 bf
       -0.80618507 1.5148668 -0.9882406 -0.71451855
0000b0 8a 38 00 be 13 de bf be 9b 13 b0 be 99 73 28 3e
       -0.12521568 -0.37474117 -0.34389958 0.16450347
0000c0 42 e6 a9 3f e3 32 1c bf 4f 0c 06 bf 1a 18 a6 3d
       1.3273394 -0.61015147 -0.5236253 0.08110066
0000d0 91 83 27 bf 23 77 62 3f 41 03 33 be 6a dd 36 3e
       -0.6543513 0.8846304 -0.1748171 0.178579
0000e0 63 55 90 bf 5d 2e c7 3e 2d 10 11 3f fc d2 5c 3e
       -1.1276058 0.3890256 0.5666531 0.21564859
0000f0 cf 00 fc 3e 39 0e 71 3f 16 45 b6 3f de 7c c6 bc
       0.49219367 0.9416233 1.4239833 -0.024229463
000100 03 27 b8 be b9 52 c2 3f 64 e2 09 bf c0 8b 25 bf
       -0.35967264 1.5181495 -0.5386107 -0.64666367
000110 ad 88 3a bf be 0d 0a 3e 38 8d d4 be 0b 90 39 3f
       -0.728648 0.13481805 -0.4151399 0.7248542
000120 a4 e8 35 bf 8f c4 87 be de 43 41 3e ac c1 31 be
       -0.71058106 -0.2651715 0.18873546 -0.17359036
000130 ae 93 b3 be fa e2 76 be bd b2 8f be 82 4a 82 be
       -0.35073608 -0.24110022 -0.28066054 -0.2544747
000140 95 89 89 3f ee 54 08 bf b4 02 44 bf 2d ce b1 3e
       1.0745112 -0.5325459 -0.76566625 0.34727612
000150 00 b8 14 bf 30 bf a3 be 88 11 ef 3e fe 5f 92 bd
       -0.5809326 -0.31981802 0.46693063 -0.07147215
000160 44 f4 15 3f 35 17 bd bd 22 e5 dd 3e 39 af d9 3e
       0.58575845 -0.09232942 0.43338877 0.42516497
000170 96 76 7a be d6 04 2a bf 00 f3 1d be d6 c1 98 3e
       -0.244593 -0.6641363 -0.15424728 0.29835385
000180 0d 94 e4 be 81 0b 61 be e3 1e de be 48 bd 59 3d
       -0.44644204 -0.21977045 -0.4338294 0.05315903
000190 8e 47 27 be b9 6a 19 3f 8f a5 6d 3e f5 88 46 3e
       -0.1633589 0.5992847 0.23207687 0.19388182
0001a0 55 11 88 be 9f 85 8a be a1 0a 4f 3c ac 7b 48 be
       -0.26575723 -0.2705507 0.0126368115 -0.19578427
0001b0 07 04 02 3e 7a 71 25 bc de 91 88 3e 2f c2 ac be
       0.12696849 -0.010097856 0.26673788 -0.337419
0001c0 b8 ca 9f 3e c7 9e 5b 3f 3e e8 a3 3e d5 25 f6 3e
       0.3120935 0.8578915 0.32013124 0.4807574
0001d0 d2 90 1a 3d 1a ec 04 3f 5a d3 fc 3e 8c 13 3b 3e
       0.037735768 0.5192276 0.49379998 0.18269175
0001e0 8c 74 02 3e 87 70 18 bd a9 bb 31 be be a5 f1 bd
       0.12739772 -0.03721669 -0.17356743 -0.11799191
0001f0 3e 77 6a 3e 13 1c a7 bd 73 bf 6d 3d 76 dd 9a bd
       0.2289705 -0.081596516 0.05804391 -0.075617716
000200 33 13 a6 3e d5 54 84 3e 4f 6a 07 3f 1a 1d aa 3e
       0.32436523 0.25845972 0.5289659 0.33225328
000210 e2 13 4d 3f 1d 26 9e 3e 98 c0 ab 3e 88 0b 8d 3e
       0.80108464 0.30888453 0.33545375 0.2754786
000220 9f d2 b0 3c 55 8a 82 3e 86 21 30 3f 1f 11 28 3e
       0.021584807 0.25496164 0.6880115 0.16412781
000230 76 62 02 be 2c 26 95 3e 37 d1 9e 3e 50 94 b0 3e
       -0.12732872 0.29130685 0.31018993 0.34488153
000240 ed 04 bb 3e 72 2c 47 bd c9 a7 cc bc 2d ce 72 3e
       0.36527196 -0.04862637 -0.02498235 0.23711462
000250 11 c3 3e 3e 74 fe 89 3d bb f0 ab 3e 3c fb b4 be
       0.186291 0.06737986 0.335821 -0.35347927
000260 60 cf 72 bd fe 69 97 be 72 ab fd be 14 02 10 be
       -0.0592798 -0.29573053 -0.49544865 -0.14063293
000270 c2 60 a0 3e f5 f4 96 be d4 a4 56 3f eb df d4 3b
       0.3132382 -0.29483762 0.8384526 0.0064964197
000280 67 5a d7 3c dc 8e b7 bc dd d5 49 3f b5 e6 28 bc
       0.026288224 -0.022406988 0.78841954 -0.010308911
000290 e4 c8 2d 3f 5e 05 39 bc 51 3f dd 3e f5 c5 bc 3c
       0.6788466 -0.011292784 0.4321237 0.023043612
0002a0 55 66 95 3e 29 f4 0b bf 8f cd 57 3e bd e8 43 3f
       0.29179636 -0.54669434 0.21074508 0.76527005
0002b0 0f a6 c8 3e e9 50 71 be 90 8d 06 3f 2e ba ed 3c
       0.39189193 -0.23566021 0.5255976 0.029019441
0002c0 7c 59 30 3f 2d 3d c8 3e 31 46 5b be 72 25 d9 bd
       0.6888654 0.39109173 -0.21413495 -0.10602845
0002d0 14 bd 7b 3e 82 43 b3 3e 7c 47 12 3f 64 2d 86 bd
       0.24583846 0.35012442 0.57140326 -0.06551626
0002e0 c9 48 2b 3e 30 46 6e bc a7 80 68 be 80 0b 82 3e
       0.16726984 -0.014543101 -0.22705327 0.253994
0002f0 54 c1 1e be ec d7 4b 3d 67 1d e6 3e 84 58 41 3f
       -0.15503436 0.049766466 0.44944307 0.7552569
000300 83 4d 18 3e 1b 40 4c be bf 6a 1e bf 99 d1 04 3d
       0.14873318 -0.1994633 -0.6188163 0.03242645
000310 fc ff 4a be 8d 3f 7a be 08 a7 88 be ac bd 0b 3d
       -0.19824213 -0.24438305 -0.26689935 0.034116432
000320 08 d5 c1 3b 6d 5d 84 bd ac 85 cc 3e 96 45 76 be
       0.005915288 -0.06463132 0.39945734 -0.24049982
000330 f3 27 99 be 36 1d 45 bd c4 a8 86 bf 97 03 12 be
       -0.2991329 -0.04812356 -1.0520253 -0.14259182
000340 0e ea 8a 3e 53 5b 20 be 58 88 5f bf a3 97 d0 3c
       0.27131695 -0.15659837 -0.8731742 0.025462931
000350 9f c3 fe bd d3 b1 7a bf ab 51 17 3f 4a ae 14 bf
       -0.124396555 -0.9792759 0.5910899 -0.58078444
000360 11 9e 0c 3f 26 79 2e bf a0 6f 9a 3e a8 6b 2b 3e
       0.5492869 -0.6815361 0.30163288 0.16740286
000370 44 1f 60 bf ce cb b0 3d 3d a0 7b 3d 9d 7e ae be
       -0.8754771 0.08632623 0.061432112 -0.34080973
000380 24 5c 2a 3f 3f 38 cb 3e 5c ec 36 be fc c3 c9 be
       0.66546845 0.3969135 -0.17863601 -0.39407337
000390 f3 5b 11 3f 45 13 26 bf 27 1e 9e be da 23 22 3e
       0.5678093 -0.6487315 -0.3088238 0.15833989
0003a0 01 07 7c 3f 78 bc 1b bf 52 f2 4f be fb 12 53 bf
       0.9844819 -0.60834455 -0.20307282 -0.82450837
0003b0 ba 8c 20 bf bc af 02 3f ea 77 8b bf 2e 83 b6 be
       -0.6271473 0.510494 -1.089597 -0.35646957
0003c0 7d 66 35 be 5c c1 c4 bf 3a dd a1 3d 6b 17 fa be
       -0.17714877 -1.5371509 0.07903524 -0.48845991
0003d0 2c f1 45 3f ce e3 3b be d2 ad 77 3e 8c 50 52 bf
       0.77321124 -0.1834862 0.24187401 -0.82154155
0003e0 bb c0 8a 3f 72 b4 43 3d d2 c9 dd 3e b3 c3 c8 3d
       1.0840067 0.047779508 0.4331804 0.09802952
0003f0 3e b5 80 3d 34 a3 23 bd b6 f3 05 bf 9c 26 2a 3e
       0.06284569 -0.039950565 -0.52325 0.16616291

rnn2.weight_ih f4 [400, 100]
000000 a2 2c 8b bf 87 fd 46 3e 3f e2 ac 3e 8e e9 ff 3c
       -1.0872996 0.1943265 0.33766362 0.031239297
000010 71 a9 80 3f b5 ba 0a bf a5 3e 0a bf ec cd 1d be
       1.005171 -0.5419114 -0.5400184 -0.15410584
000020 54 e5 d3 3d 0c 14 47 bf 2d 30 5f be 99 11 a2 3f
       0.10346475 -0.77764964 -0.21795721 1.266162
000030 80 25 85 bf b6 58 3f be bd 02 c8 be 87 27 19 3f
       -1.0402069 -0.18686184 -0.3906459 0.5982594
000040 3a 1d 59 3e 93 28 b3 bd 59 8d fd 3d 53 f5 20 3e
       0.21202555 -0.08747973 0.123804756 0.15718584
000050 37 0c 3a bf dc f9 71 3e 59 7a 5c 3e 61 1c fd 3e
       -0.7267489 0.2363047 0.21531047 0.49435714
000060 e0 7c 0c bf bd a8 7c be c0 61 d4 3c af 3f 96 3e
       -0.54878044 -0.24673744 0.025925517 0.29345462
000070 3f 0c 34 bf 52 65 6f bf 48 b3 16 bf b3 38 2c bf
       -0.70331186 -0.9351398 -0.5886731 -0.67274016
000080 30 4f c2 3e c2 ab 1c 3f 1e 2f 79 bf 06 65 48 3e
       0.3795104 0.6119958 -0.9733752 0.19569787
000090 c2 fc 95 bd 4a 0f 7a 3f 12 85 17 bf 29 31 6d 3f
       -0.073236 0.9767958 -0.59187424 0.9265314
0000a0 4f 80 73 3f 78 50 01 bf fe ea d5 bd 20 e7 ae be
       0.9511766 -0.5051341 -0.10445212 -0.3416071
0000b0 e4 ef a6 3e 20 ff b8 3e 8e c3 e2 bc a9 bc 21 3f
       0.32604897 0.36132145 -0.027681138 0.631785
0000c0 51 f1 9f 3e 93 17 99 be c1 7c dc 3e 37 10 b3 3e
       0.31238797 -0.29900798 0.4306393 0.34973308
0000d0 d1 db 2c be 76 db 3b 3e 2a 07 58 3f cd 82 2b 3e
       -0.16880728 0.18345436 0.8438593 0.16749115
0000e0 bc d4 ca 39 c9 57 bd 3e 44 fb 1f bf 9c f9 0f c0
       0.00038686942 0.36981037 -0.62492776 -2.24961
0000f0 9b 0c 53 3e 3c 85 3e 3f 5c 15 f7 bd c5 7f 71 3f
       0.20610277 0.7442205 -0.12064621 0.94335586
000100 dd 84 4a be ed 2c da 3e 6e 5b 34 be 48 f0 75 bd
       -0.19777246 0.426124 -0.17613003 -0.060043603
000110 0d 65 d2 3e 70 f1 12 be 72 e3 94 be 93 60 13 3f
       0.4109272 -0.14349914 -0.29079777 0.57569236
000120 b4 c2 80 3d c6 93 82 bf e9 1d 01 3f 9a 4c 93 3e
       0.06287137 -1.0201347 0.50436264 0.2876938
000130 0f 65 e0 be 26 f9 3c 39 18 fc 62 3f 94 b1 68 3f
       -0.43827102 0.00018021892 0.88665915 0.9089596
000140 3b 45 3b bd 2a b9 97 bd 42 c0 5e bd 30 bb 19 bf
       -0.04572032 -0.07408364 -0.05438257 -0.6005125
000150 3e 24 3d bf 8d b0 c3 bc 31 7f 0a 3f 81 e1 2a 3f
       -0.73883426 -0.023887897 0.5410033 0.6675034
000160 eb 56 07 40 36 ef 8b be 69 17 8f 3e 9c 7b 99 3d
       2.11468 -0.2733094 0.27947548 0.0749428
000170 c4 da 23 3d 97 04 9a be 09 94 30 bf d1 b9 68 3e
       0.040003553 -0.30081627 -0.68975884 0.22727133
000180 70 55 9a 3e 2e 83 78 3f 42 32 ef be 71 02 13 be
       0.3014331 0.97075164 -0.4671803 -0.143564
000190 38 6f 9c bd 37 84 62 bf e7 88 91 3f 0a 6c 1b 3f
       -0.07638401 -0.88482994 1.1369904 0.6071173
0001a0 25 10 d9 3e 23 b0 a2 3e db b6 64 be bc c8 90 bf
       0.4239513 0.31775007 -0.22335379 -1.1311259
0001b0 88 da 45 3f b1 40 2c bf aa 13 3a 3f 9b bd 45 3f
       0.7728658 -0.6728621 0.72686255 0.7724244
0001c0 95 a3 82 bd 46 35 e9 bc d1 fe 00 3e de 3c 04 be
       -0.06378857 -0.028467786 0.12597205 -0.12913844
0001d0 48 4e 4d 3f 70 cc d3 3e 8f 30 09 3f ed 08 61 3e
       0.8019757 0.4136691 0.5358972 0.21976061
0001e0 04 e9 2f 3d 3d 67 92 3f 70 a4 4d 3f 6b 72 2d 3e
       0.04294683 1.1437756 0.80329037 0.16938178
0001f0 93 38 52 bf d4 6d 99 3e 67 dc 5e 3f cb 0a e7 3e
       -0.82117575 0.29966605 0.8705506 0.45125422
000200 49 c5 92 be 18 8b 91 3d 85 1f 1c bf 58 8a e5 3e
       -0.28666142 0.07106608 -0.60985595 0.4483211
000210 8b 7d 0d bf 52 98 bd 3e 21 b3 d9 3d 89 04 e9 bd
       -0.5526969 0.37030274 0.10629869 -0.11377818
000220 cf b4 06 bf 98 b1 b2 3e 65 b1 af 3e f8 0d 16 3f
       -0.5261964 0.34901118 0.3431503 0.58615065
000230 a9 fa c8 3e 07 5d 95 bf 29 28 a0 be 92 a0 58 bf
       0.3925374 -1.1669015 -0.3128064 -0.8462001
000240 e1 4e a3 bf e3 a4 7a 3f ea a0 a2 be 64 5d 10 bf
       -1.2758447 0.9790785 -0.31763393 -0.563925
000250 68 7a 05 bf c9 8d 8b bf 17 bd 23 bf e5 72 06 3f
       -0.521399 -1.0902644 -0.63960403 0.52519065
000260 b2 27 98 3e 1c f2 5a 3f 88 1a ab bf f0 43 bd 3f
       0.29717785 0.8552568 -1.3367472 1.4786358
000270 ef 42 c8 be 7d 83 6f be c2 10 88 bf 15 43 54 3d
       -0.39113566 -0.23390003 -1.0630114 0.051821787
000280 3d f0 8d bf 81 8d 1c 3f 7e 3c 65 3e e5 56 52 3e
       -1.108894 0.6115342 0.22386357 0.2054096
000290 8f cd 59 3e f0 bc 76 bf ea 62 1a 3f e6 8c 10 3f
       0.2126982 -0.96382046 0.6030718 0.56464994
0002a0 77 16 f5 be 05 1f 15 3f c4 8a d0 be cb 12 30 3f
       -0.47868702 0.5825046 -0.4073087 0.68778676
0002b0 9e 38 6e 3e 67 2c bc bf 68 a6 d8 be b4 73 4c 3e
       0.23263785 -1.470105 -0.42314458 0.19966012
0002c0 2d af 69 3f 64 a2 b2 3e a2 a5 7c bd 23 13 60 3f
       0.9128292 0.3488952 -0.061681397 0.875292
0002d0 ee d2 46 3f 49 94 35 bf b8 1f 7f bf d1 60 41 3f
       0.77665603 -0.7092939 -0.99657774 0.75538355
0002e0 b4 f3 9c 3d 5c 84 29 3f 42 31 b7 3d 10 fc 43 3f
       0.0766367 0.6621759 0.08944942 0.7655649
0002f0 00 ee e6 be 2c 9d 2e bb f3 20 a0 be e5 30 27 3e
       -0.45103455 -0.0026643975 -0.31275138 0.16327246
000300 86 20 b6 be ab 9f fd bd 90 d4 27 3e af 99 a8 3e
       -0.35571688 -0.1238397 0.1638968 0.3292975
000310 0c 25 ac be 43 a7 47 3e 3b a4 34 bf 85 88 41 3f
       -0.33622015 0.19497399 -0.70563096 0.7559894
000320 ce b5 37 be 12 2d c7 3e 52 d5 06 3f 02 86 dc 3e
       -0.17940447 0.38901573 0.5266925 0.4307099
000330 4c 4d 18 3f ee 68 df 3e 9d c5 47 3f ff 9f b6 be
       0.59492946 0.43634742 0.7803591 -0.35668942
000340 1c 18 b2 be c6 52 49 bf 9e 5b a3 3e 2e 94 c0 bd
       -0.3478402 -0.7864193 0.31905836 -0.09403263
000350 39 00 65 bc f0 20 9a be a1 b1 31 3e 09 32 33 bf
       -0.013977104 -0.30103254 0.17352916 -0.6999822
000360 ac e3 11 bf 78 88 3f bf 2e 13 2e 3f 5a 5f 1f bf
       -0.56988025 -0.7481761 0.67998016 -0.6225487
000370 af 30 af bf 17 65 c6 be b2 99 1f be c9 aa de be
       -1.3686732 -0.38749 -0.15585974 -0.43489674
000380 0d 2a 85 bd 79 6f 53 bd 81 35 3c 3d 52 54 4a 3f
       -0.06502161 -0.05161998 0.045949463 0.7903491
000390 50 df 94 3e 73 0e 37 bf 3d 45 46 3f 8a 43 1b 3f
       0.29076624 -0.7150642 0.774494 0.6064993
0003a0 84 0f b0 3e 31 ec 64 3f e5 f9 fd be 0c 4c 0d bf
       0.34386837 0.894229 -0.49604717 -0.55194163
0003b0 7b 8b 0b bf f4 bd 93 3e 1d 86 f8 bd 23 41 00 bf
       -0.54509705 0.2885586 -0.12134955 -0.5009939
0003c0 f0 04 54 bd 3f c5 25 bf e1 36 e0 3e f8 41 7c bc
       -0.05176252 -0.647541 0.4379187 -0.015396588
0003d0 38 71 43 bf 5d 42 a5 be ff b1 5a bf e6 41 8e 3e
       -0.76344633 -0.32277194 -0.8542785 0.27784652
0003e0 ef cc 63 3b 40 9e cb be f1 62 2b bf 1c 99 52 3d
       0.00347596 -0.39769173 -0.6694785 0.051415548
0003f0 7d 1b 63 3e 7f 03 63 3f fc da 5a 3f 79 59 c1 bc
       0.22178455 0.8867721 0.85490394 -0.023602234

rnn2.weight_hh f4 [400, 100]
000000 f8 c2 ac be 9a f2 fb 3e 33 c7 69 3f 60 67 a8 3e
       -0.337425 0.49208528 0.9131958 0.3289137
000010 af 0d 42 3d 79 71 05 be ec fa a7 3e e9 b1 99 bf
       0.04737633 -0.13031568 0.32808626 -1.2007419
000020 9e 89 27 3f ad f0 3a 3b cc 9d ad bf c8 da 90 bf
       0.6544436 0.0028524802 -1.3563781 -1.1316767
000030 08 5a 98 3d 20 c1 8e 3d 22 4f 1e bf 94 ed fb 3e
       0.07439047 0.069704294 -0.618395 0.49204695
000040 cf 12 f0 3e c8 83 1f bf 1f cc f9 3d ef 86 eb bd
       0.4688935 -0.6231046 0.12197136 -0.11500346
000050 14 ee 0f be b9 f5 8b be b9 7f 9c be dd 20 47 3f
       -0.14055663 -0.2733591 -0.30566195 0.7778452
000060 6c fa 73 bf ac c5 dc be f0 2c 7d bd 83 70 1e 3d
       -0.9530399 -0.43119562 -0.061810434 0.03868152
000070 71 74 19 3e 4e b1 27 3f 3c 0a 56 3e 3e 3c a8 be
       0.14985825 0.6550492 0.20902342 -0.3285846
000080 f2 0f 63 3f fa 0a 3a 3f 43 d9 9e 3e 4e 7b 82 3e
       0.88696206 0.72673 0.31025133 0.254847
000090 6a 30 05 bc 74 8a 3f bf 1b d8 46 3e dc 5d 99 3f
       -0.008129219 -0.7482064 0.19418375 1.1981769
0000a0 4f 7d 08 bf 22 6e bc 3e 6c 2e d2 3d 21 ab 87 3e
       -0.53316206 0.36802775 0.102627605 0.26497748
0000b0 1c 81 d1 be cb 3c c9 be 8f e0 37 be f9 1c 97 be
       -0.40918815 -0.39304194 -0.17956756 -0.29514292
0000c0 9a cd 92 3a 19 4c d8 3e e6 c3 38 be 68 4c 25 3e
       0.001120019 0.42245558 -0.1804348 0.16142428
0000d0 7d 1b 43 bf 71 b8 4a be 9a 3d 08 bf 1d 2b 73 3f
       -0.7621382 -0.19796921 -0.53218997 0.9498766
0000e0 03 1c f8 3d 71 4e 0a 3f 57 04 b6 be 70 8d 51 3f
       0.12114718 0.5402594 -0.35550186 0.8185644
0000f0 c6 e1 5d be 0a 77 80 3f f5 c4 43 bf 8c 1a 02 3f
       -0.21668157 1.0036328 -0.7647241 0.5082176
000100 7e 11 29 3e a2 68 6b 3f 14 29 f1 3d 23 76 d7 3e
       0.16510579 0.9195653 0.11775413 0.4208232
000110 e8 7c 32 bf 6f 3b 74 3f 95 f9 45 3e 25 ea 86 3f
       -0.6972184 0.9540319 0.19333489 1.0540205
000120 e9 7f fa bd 77 21 7f 3e d5 2e 88 3e 5c 92 c7 be
       -0.12231428 0.2491511 0.2659823 -0.3897885
000130 3b c7 1e bf 76 38 db 3e 81 78 ea be 15 78 4d 3f
       -0.6202275 0.42816514 -0.45795062 0.80261356
000140 a8 2e 51 3f 3a 0a 24 3f 8b c9 94 bf c9 5e 97 be
       0.81711817 0.64078104 -1.1624006 -0.29564503
000150 a0 46 38 3f 8b 36 22 bf 7f 0d 5d bf e3 f7 45 be
       0.71982765 -0.63364476 -0.8634872 -0.19332843
000160 65 f3 14 bf 51 f1 f4 be 41 b1 55 bf 6c 15 14 3f
       -0.5818389 -0.4784036 -0.83473593 0.5784519
000170 74 a1 60 3f b0 8a c8 3e 48 01 13 bf 22 3b 68 be
       0.8774636 0.3916831 -0.5742383 -0.22678807
000180 59 92 da bc c7 a8 04 3f 28 80 06 3e 78 b6 60 bf
       -0.026681112 0.51820034 0.13134825 -0.87778425
000190 1e 9c 4c bf e0 2f 09 3f 2e 72 91 3e 86 06 32 3f
       -0.79925716 0.53588676 0.28407425 0.69541204
0001a0 38 bb a1 3e ce 10 6c 3e 82 e0 45 bd 30 cf 2c 3e
       0.3158815 0.23053285 -0.04830981 0.16875911
0001b0 60 ea 04 bf 0b 76 70 be 03 05 59 be a8 1f 74 3f
       -0.5192013 -0.2348253 -0.21193318 0.95360804
0001c0 4d a8 90 3d b2 b8 78 3f ef fc e2 bd b9 92 76 be
       0.07063351 0.9715682 -0.110833995 -0.24079408
0001d0 8c 31 f6 be e3 7a 0d bf 8a 28 01 be 77 11 4a bf
       -0.48084676 -0.55265635 -0.1261312 -0.789329
0001e0 db bd 46 bd d2 c7 07 3e 70 5c 8f be f9 fb f7 bd
       -0.048520904 0.13259819 -0.28000212 -0.12108607
0001f0 82 e3 a3 be 7d f8 0e bf d8 a8 1d bf f5 b0 56 3e
       -0.32009512 -0.55847913 -0.6158576 0.20965941
000200 14 a3 bf 3f da eb 7d 3e 71 2d 4d bf 2a 96 e9 3e
       1.4971642 0.24797001 -0.80147463 0.4562238
000210 ab 9a 58 3e 9a 6f 64 3f ab c0 03 3f 67 93 11 be
       0.21152751 0.8923279 0.51465863 -0.14216386
000220 b7 5d d0 be 0e 68 61 bf ae 2c f5 3e ae a1 77 bf
       -0.406965 -0.880494 0.4788565 -0.9673108
000230 3e 19 97 3e 9e 64 5b 3e 92 5e 04 bf 6c 36 cd be
       0.29511446 0.21425101 -0.517068 -0.40080583
000240 06 09 e2 be 1e 7f b7 3e 40 2a 0c 3f 9b 1e b1 be
       -0.4414751 0.3583917 0.5475197 -0.34593663
000250 ea 7f 75 3f 2b f4 0c bf 6e c7 62 bf 65 ee 7d bf
       0.95898306 -0.5506007 -0.88585556 -0.99191886
000260 a7 ca 1e 3e 00 ed 54 3e 27 ae 68 3e 39 4e 4a 3f
       0.15506993 0.20793533 0.22722684 0.7902561
000270 89 96 fd 3d d2 30 90 3a fb 44 e6 3e 1c d3 0b bd
       0.12382228 0.0011000878 0.44974503 -0.034136876
000280 29 1c b0 3e 0d a8 be bb 14 d9 c9 3e 6a 51 af bd
       0.34396484 -0.005818373 0.3942343 -0.085604504
000290 8f 19 cc be e6 49 ab bd fc a8 9a be 70 2c 0d bf
       -0.3986325 -0.083637044 -0.3020705 -0.5514593
0002a0 d6 c5 fd be 07 8b 67 3f 18 8e c5 3e 1b 05 f1 bd
       -0.49565 0.90446514 0.3858497 -0.11768552
0002b0 63 05 7c be 3a 13 0e bf 23 28 73 3e 09 85 b6 3e
       -0.2461143 -0.5549809 0.2374578 0.35648373
0002c0 16 46 99 3e 3e a2 15 3f 1f 28 af 3b 09 97 70 bf
       0.29936284 0.58450687 0.005345359 -0.9398046
0002d0 d2 72 36 3e 95 1f fa 3b 83 ec 22 3e 97 7a 70 bf
       0.17817238 0.0076331594 0.15910535 -0.9393706
0002e0 0f 37 84 be f8 81 ed be 0a ac 10 bf d5 11 0b bf
       -0.25823256 -0.4638822 -0.5651251 -0.54324085
0002f0 e2 49 95 3f e9 b7 87 be e2 40 5b 3e 1c 3c 2f bf
       1.1663172 -0.265075 0.2141147 -0.68451095
000300 8d 45 82 bf de 9b c9 3e bf 4b cf 3e f7 68 fb 3e
       -1.0177475 0.3937673 0.40487477 0.4910352
000310 f9 89 14 be b7 31 c7 be 35 ef f4 3e 34 3c 60 3e
       -0.14505757 -0.38905117 0.4783875 0.21897966
000320 97 7c 57 3e 9e 1e 83 bf 84 fc 10 bf 5a c8 bf 3f
       0.21043621 -1.0243719 -0.5663531 1.4983017
000330 73 70 a4 be f6 65 10 be f2 91 37 bf 34 18 2b bf
       -0.32117042 -0.14101395 -0.7170707 -0.66833806
000340 a1 9f 14 bf 54 e2 05 bf a2 b6 f1 3e a2 74 68 3e
       -0.58056074 -0.52298474 0.4720965 0.22700742
000350 b3 3b 00 3f e3 5b 6f bf 31 4c f2 3e fa 06 86 3e
       0.50091094 -0.93499583 0.47323754 0.26177198
000360 03 79 01 3e 0e 9a d3 3e 0f 41 9b be 16 6e c9 be
       0.12643819 0.41328472 -0.30323073 -0.393418
000370 ea fd 20 bf c6 79 94 be 11 98 a8 be 08 bb 9b 3f
       -0.6288744 -0.28999156 -0.32928517 1.2166452
000380 38 04 34 3e 4b a8 33 be 93 4c 7d 3f a9 0b 18 bf
       0.17579734 -0.17544667 0.9894497 -0.5939279
000390 5b 0c b8 3e 89 43 fd be ab ef 4e be de 44 2d 3f
       0.35946926 -0.49465588 -0.20208614 0.6768321
0003a0 23 9a 8e bf 91 b5 5c be 80 fc 64 3e 60 a7 dd be
       -1.1140789 -0.21553637 0.22361946 -0.4329176
0003b0 93 90 3d 3e 32 1f 84 3e ce 60 2a bf 47 d6 14 3f
       0.18512182 0.2580505 -0.6655396 0.5813946
0003c0 27 0f fd 3e 71 15 c8 3e 74 37 d0 be 16 f0 59 be
       0.49425623 0.39078858 -0.40667307 -0.21282992
0003d0 eb 03 ef 3d 6f 18 26 3f e6 7e d1 3e ad 0e 5e 3e
       0.11670669 0.6488103 0.40917128 0.21685286
0003e0 7f 6e 33 be 4d 8e 11 3f 6b 94 8e be 36 69 f3 bd
       -0.1752262 0.5685776 -0.2784761 -0.11885302
0003f0 c9 c6 b3 be 2c 6f a3 3e 79 85 c9 be e1 de 6d 3e
       -0.351126 0.31920755 -0.39359644 0.23229553

rnn2.bias_ih f4 [400]
000000 31 62 9c 3d ba e2 17 be cd 52 85 be 6d 98 81 be
       0.07635916 -0.14832583 -0.26039734 -0.25311604
000010 bf 2d 0e bd 1f d1 1c 3e a2 7a a3 be c9 20 ae be
       -0.034711596 0.15314148 -0.319295 -0.34009388
000020 e3 5b 8a be c8 8f ff 3e d2 03 e6 3d 0f b3 04 be
       -0.2702323 0.49914384 0.112311974 -0.1295893
000030 05 74 b3 3d 50 a5 e6 3e 44 53 e1 bb 51 92 58 be
       0.08762363 0.45047998 -0.006876381 -0.21149565
000040 32 b5 b7 3e a1 c1 f0 bd f4 79 01 3f d2 ff 71 3f
       0.3588043 -0.11755682 0.5057671 0.94530976
000050 c8 f5 e7 3e e5 e3 19 3e 40 a9 0f 3d ae f4 b4 bd
       0.45304704 0.15028341 0.03507352 -0.088357314
000060 03 26 30 3f 20 b3 5b bd 01 97 b6 3e f9 0a 00 3e
       0.68808 -0.053637624 0.35662082 0.12504186
000070 f8 1e 64 be 93 37 09 3f 00 b9 5f 3d 77 4e c4 3e
       -0.22277439 0.53600425 0.05461979 0.38341114
000080 7d 2b 25 bc 0f 39 e0 3d 46 61 74 3d e0 ca 9b bd
       -0.010081169 0.10948383 0.05966308 -0.07607055
000090 d9 41 bd be a1 1d 21 be 2c 2d 93 be 31 38 df be
       -0.369643 -0.15733959 -0.287454 -0.43597558
0000a0 a0 f5 0a bf 82 0d 21 be 1b f4 53 be de 72 40 bd
       -0.54281044 -0.15727809 -0.20698588 -0.046984546
0000b0 43 c6 af bd e0 07 98 3d c8 28 f4 3c 36 4e ea 3d
       -0.08582737 0.07423377 0.029804602 0.11440699
0000c0 d0 a5 1d 3e a4 84 a8 3d 24 bc 52 3e 1e 19 94 be
       0.15395284 0.08228424 0.20579582 -0.28925413
0000d0 63 39 47 bc dd 92 af 3d cd 21 8f be f0 bd a4 be
       -0.012159678 0.08572934 -0.27955475 -0.3217616
0000e0 c5 60 26 3d c2 ae fc bc a6 c3 fc bd d9 e0 4b be
       0.04061963 -0.03084505 -0.123420045 -0.19909991
0000f0 ae 51 4a 3d 18 01 7c be 78 1f 9d be be 95 d9 3e
       0.049394302 -0.24609792 -0.3068807 0.42497057
000100 9a dd 16 3e b8 3f 38 be a3 7a f3 3d 84 9c a1 3e
       0.14732972 -0.17993057 0.118886255 0.31564724
000110 7d 50 ac 3e 69 15 95 be 11 30 a2 be cf 9b 87 3c
       0.33655158 -0.29117897 -0.31677297 0.016553788
000120 10 5f bd be 2a ce 19 be 02 70 26 3e e3 91 a1 bc
       -0.3698659 -0.15020052 0.16253665 -0.019722885
000130 64 8a 36 3e 6e bc 7b 3d 59 12 d5 3e 54 6e c1 3e
       0.1782623 0.061458997 0.4161556 0.37779486
000140 30 1a a4 be b9 97 28 3e ff 92 18 bc 93 26 ae be
       -0.3205123 0.16464128 -0.00931239 -0.34013805
000150 f7 69 78 be 05 46 3e be 05 83 8f 3c bc 44 84 be
       -0.24259172 -0.18581398 0.01751853 -0.2583369
000160 48 94 52 3e 8d 8e 6c 3f 06 c1 30 3f 93 ae 27 be
       0.20564377 0.92405015 0.6904453 -0.16375189
000170 49 68 c0 bd f0 ea ca 3e 50 24 8c be eb f9 11 3f
       -0.09394891 0.39632368 -0.27371454 0.5702197
000180 7c 5f 0c 3e a8 1e b3 3e b8 22 af bd e1 1a 4e be
       0.137083 0.34984326 -0.08551544 -0.20127441
000190 1e 9d d7 3e d8 dc 82 3d 6f f2 1e 3f 88 00 cc 3e
       0.42112058 0.06389779 0.62088674 0.39844155
0001a0 38 4e ca 3d 21 69 2f 3d e3 72 aa 3e 93 a0 9c 3e
       0.098782 0.042824868 0.33290777 0.30591258
0001b0 88 0b 08 3f 4b eb ee 3e 10 23 c1 3e e5 07 cd be
       0.53142595 0.4666389 0.37722063 -0.40045086
0001c0 45 84 0b be 7f f7 6e 3e ca fb 3f be bc 13 a0 bd
       -0.13624676 0.233366 -0.18748394 -0.07816264
0001d0 ff f0 8c 3e 50 7a cc be 6d 61 4d 3e 76 75 9a 3e
       0.27527615 -0.39937067 0.20056696 0.3016774
0001e0 61 9f 09 3f 1d 53 05 bf e4 8b 3b 3e f1 be 75 be
       0.5375882 -0.52079946 0.18315083 -0.2399862
0001f0 b5 4d 02 3f 6b 82 dc 3e 3c eb d8 be f0 ca 95 be
       0.5089982 0.4306825 -0.4236697 -0.29256392
000200 e7 73 03 3f 8f e1 04 be 72 f5 1c 3f a1 f2 b2 3e
       0.5134873 -0.12976669 0.6131202 0.34950736
000210 9c 5e 09 be 8b 9c c9 be 11 27 cc 3e 40 9d a2 be
       -0.13414997 -0.39377245 0.39873555 -0.31760597
000220 b7 08 17 3f d1 19 20 be ac 8d 52 be 60 cd 55 3c
       0.5899767 -0.15634848 -0.20561856 0.0130494535
000230 f4 62 b7 3e 43 72 b3 be 68 20 06 3f f9 f1 3e 3e
       0.35817683 -0.35048112 0.523932 0.18646993
000240 0f 69 ac 3e e0 d1 ef 3e d8 94 ae be cf 51 c2 3c
       0.33673903 0.4683981 -0.34097934 0.02372065
000250 6f 37 3b 3e 24 a6 a0 3d e2 17 02 3f f1 f6 7e 3e
       0.18282865 0.07844189 0.5081769 0.24898888
000260 34 34 bd be d3 5b 97 3e 30 7c 01 be f7 1e 32 3f
       -0.3695389 0.29562244 -0.1264503 0.695785
000270 bc 7f 1f be f3 58 cd be df c8 39 3e e3 49 9a 3e
       -0.1557607 -0.40106925 0.18143032 0.30134496
000280 92 e5 15 be 8f 87 f6 be bd a4 b7 be 2f 18 81 3c
       -0.14638355 -0.48150298 -0.35867873 0.015758602
000290 f2 60 02 3c ae 6c 87 bd c8 31 88 3e 4b 1b 88 3e
       0.007957684 -0.06612526 0.2660048 0.26583323
0002a0 95 a0 83 38 a0 21 20 3f 0a 36 90 3e d0 0b 08 bf
       6.2764775e-05 0.6255131 0.2816623 -0.53143024
0002b0 a7 c8 16 bf 9a 37 8f 3d f1 de 40 bd 2e fd 26 be
       -0.5889992 0.06993027 -0.047087613 -0.16307518
0002c0 0c 9e 58 3e 08 6f 5c be 89 b1 91 bd 7b 31 24 3f
       0.2115404 -0.2152673 -0.0711394 0.64138
0002d0 62 6a d4 be 71 68 e8 bd 87 97 78 be 83 f8 06 3e
       -0.41487414 -0.113480456 -0.24276553 0.13180737
0002e0 00 f6 eb bd 4b 0b 83 3c 28 74 9f 3c da 7c 1a 3f
       -0.1152153 0.015996596 0.019464567 0.6034676
0002f0 bd 11 d0 3e 07 6f 02 3e eb be 97 3e 92 71 0c 3e
       0.40638533 0.12737666 0.29637846 0.13715199
000300 94 60 1a be a0 2d 53 be 0c 6d 97 be 2b 8d df 3d
       -0.15075904 -0.20622873 -0.29575384 0.109155975
000310 cc f5 e7 be 8d 99 68 3d 91 03 8e be 13 38 25 bf
       -0.45304716 0.056787062 -0.27737096 -0.6453869
000320 04 c7 e3 be 03 1a f2 be aa 8b b4 3e f9 34 a4 3e
       -0.44487774 -0.4728547 0.35262805 0.32071665
000330 14 2b 2e bd f4 b9 a5 3e 41 47 af be 3c 93 c9 3e
       -0.04252155 0.32368433 -0.3423405 0.39370143
000340 46 91 a4 be 93 49 10 bf 9e 60 24 bf 58 72 d0 3e
       -0.32142085 -0.56362265 -0.64209926 0.40712237
000350 8f ae 35 3f 56 3b 10 3f 2e 2c d7 bd 6b 89 83 be
       0.7096948 0.5634054 -0.105064735 -0.2569078
000360 2f 3c b3 be b2 ed 5b 3e 45 a6 a0 be 1b 5c 1a bf
       -0.35006854 0.21477392 -0.31376854 -0.6029679
000370 8a 86 da be f1 3d 34 3f 72 38 07 be f4 30 2a 3e
       -0.4268077 0.70407015 -0.13205126 0.16620237
000380 00 75 a0 be e9 c1 3f be e7 c6 1c bf b5 5c 07 bf
       -0.31339264 -0.18726315 -0.61241 -0.52875835
000390 7f 7d 09 3f b7 5e 20 3f e2 b2 2e bf cd f1 9b 3e
       0.53707117 0.62644523 -0.68241704 0.30457917
0003a0 72 9c 03 3f 28 66 f5 3e 5f 3f e9 3e f0 d9 b8 be
       0.5141059 0.47929502 0.4555616 -0.36103773
0003b0 43 0d e4 be 83 f0 71 bd 47 2c 15 3c 9e 73 14 3f
       -0.44541368 -0.05906726 0.009104795 0.5798892
0003c0 98 e3 d9 3e cd 37 a9 3e a1 f7 75 be 57 78 8c 3d
       0.42556453 0.33050385 -0.24020244 0.068588905
0003d0 b9 5d 69 be b4 a0 0d 3f 90 ac df 3e 25 8f 0a 3f
       -0.22789659 0.5532334 0.43686342 0.5412467
0003e0 08 72 38 bd 10 d6 56 3f 2e 73 a4 be 6d 63 0b bf
       -0.045030624 0.83920383 -0.32119125 -0.54448587
0003f0 fe 6d b2 be 8c 04 cc 3e 32 27 05 bf 75 5a 4b 3e
       -0.34849542 0.3984722 -0.5201293 0.19858725
