Results/Complete Sherlock Holmes/RNN/ASGD/1/100/model.pt (torch, 123551 bytes, 6 tensors)

rnn.weight_ih f4 [100, 100]
0	0x3f1d3bf6	0.6141962
1	0xbe8c19c0	-0.27363396
2	0x3ed84c0d	0.42245522
3	0x3f3b7727	0.7322869
4	0x3ec3c8a1	0.38239005
5	0x3e8d001d	0.2753915
6	0x3e84b610	0.25920153
7	0x3f17dd6b	0.5932223
8	0xbf2374c0	-0.6385002
9	0x3eec83bf	0.46194264
10	0x3fe290c6	1.7700431
11	0x3e0030aa	0.12518564
12	0x3f6687bf	0.9005088
13	0xbf9cb7e2	-1.2243617
14	0x3ecf98fe	0.4054641
15	0xc0682a6c	-3.6275892
16	0x402e46d9	2.7230742
17	0xc03548d0	-2.8325691
18	0xc0a349ff	-5.1027827
19	0xbf3b6a2f	-0.732089
20	0xc0994b6a	-4.790456
21	0xbedda951	-0.4329324
22	0x3fcf5080	1.6196442
23	0xc01604ac	-2.3440351
24	0x3f83ca01	1.0296022
25	0x3ef585eb	0.47953734
26	0x40818892	4.047921
27	0x400e0260	2.218895
28	0x3ec68c56	0.38778943
29	0xc019411d	-2.3945992
30	0xc05407b4	-3.3129702
31	0xc09db720	-4.928604
32	0x4011f5c6	2.2806258
33	0x4001c353	2.0275466
34	0xbe815852	-0.25262696
35	0xc0403ed7	-3.0038354
36	0x3f0af38b	0.5427787
37	0xbf9b8bbb	-1.2152017
38	0xbdb9fb50	-0.09081137
39	0xbf5293bb	-0.8225667
40	0x3f10ec78	0.5661082
41	0xbf2b535c	-0.6692407
42	0x3fb003f6	1.3751209
43	0xbfb10152	-1.3828528
44	0xc01b1b39	-2.4235365
45	0x3f199bbd	0.6000326
46	0x3f0c1461	0.54718596
47	0xbf07f426	-0.53106916
48	0xbfe07f33	-1.7538818
49	0xbf668de5	-0.90060264
50	0x3fcf7c3e	1.6209791
51	0xbedaeb47	-0.42757627
52	0x3fe0ec9d	1.7572209
53	0xbc60beb9	-0.013717347
54	0xbf00d818	-0.5032973
55	0x3f24413e	0.6416205
56	0x3f9722a2	1.1807444
57	0xbfabe9c9	-1.343072
58	0x3dcc78a0	0.09983945
59	0xbe0fedf6	-0.14055619
60	0xc007bd9a	-2.1209474
61	0x3ed1ab80	0.40951157
62	0x40042b20	2.0651321
63	0x4022746b	2.5383556
64	0x3d6ec912	0.058297224
65	0x3cdff05c	0.027336292
66	0x3d52adf6	0.051435433
67	0x3eb36944	0.3504125
68	0xc07f3e7a	-3.9881883
69	0xbdda80a9	-0.10669071
70	0x3f3f0337	0.7461428
71	0xbd79d7e0	-0.06099689
72	0xbc8ef260	-0.017449558
73	0x3fc49794	1.5358758
74	0x401b27c5	2.4243023
75	0x3fcc395d	1.5955006
76	0xbe71ae5d	-0.2360167
77	0x3f85bdf2	1.0448592
78	0x3ef01039	0.46887377
79	0x3d908223	0.070560716
80	0xbd6f9857	-0.058494892
81	0xbdbc790b	-0.092027746
82	0xbf3d8878	-0.7403636
83	0xbdb1a36a	-0.08673747
84	0x3f102ffd	0.56323224
85	0x3ce3349c	0.027735047
86	0x3f9e57bd	1.2370526
87	0xbc370bb0	-0.01117222
88	0xbdafd5ea	-0.08585723
89	0x3e26480c	0.16238421
90	0x3daf3529	0.08555061
91	0xbc364350	-0.011124447
92	0xbd734927	-0.059395935
93	0x3d712d4e	0.058881097
94	0x400dee9c	2.2176886
95	0x3d7008c2	0.058602102
96	0x3f837697	1.0270566
97	0xbd903b72	-0.07042588
98	0xbdc76928	-0.09736854
99	0xbd0b6514	-0.034031942
100	0x3f904f9c	1.1274295
101	0x3f1b0e4b	0.60568684
102	0x3f63ffe2	0.8906232
103	0x3f6105c2	0.8789941
104	0xbe0d8901	-0.13821794
105	0x3deb15af	0.11478745
106	0xbe645fde	-0.22302195
107	0x3fa03075	1.2514788
108	0x3fa0bf49	1.2558376
109	0x3f1f2900	0.62171936
110	0xc03e6bab	-2.9753215
111	0x3f3490c0	0.7053337
112	0x402274d4	2.5383806
113	0xc00ba906	-2.1821914
114	0xc092c9ab	-4.5871177
115	0xc094a6a9	-4.6453443
116	0xc08b24b6	-4.3482313
117	0xbf6145f2	-0.87997353
118	0xc043dd82	-3.0603948
119	0x3e388560	0.18019629
120	0xc081455d	-4.039717
121	0x3ed1de49	0.40989903
122	0x400d3f00	2.2069702
123	0x3fcf624e	1.6201875
124	0x3fd1cd53	1.6390785
125	0x3edf99fe	0.43672174
126	0xbfce7188	-1.6128397
127	0xbd3571bf	-0.04429793
128	0xbfa2b57a	-1.2711632
129	0x3febcfd7	1.8422803
130	0xc021bcfa	-2.5271592
131	0xbfdf045f	-1.7423209
132	0xbf3e2a79	-0.7428356
133	0xbf2983a7	-0.6621651
134	0xbdebf0f1	-0.11520565
135	0xbe0bb369	-0.13642658
136	0x3fba8516	1.4571865
137	0xbdc883e5	-0.09790782
138	0x3e800074	0.25000346
139	0xbf180180	-0.5937729
140	0x401cb00e	2.4482455
141	0x3f68ab83	0.90886706
142	0xbf235918	-0.6380782
143	0x3fa1d088	1.2641764
144	0x3f4faa95	0.8111966
145	0x3f71a7d7	0.9439673
146	0xbeb0a407	-0.34500143
147	0x3f1034f7	0.5633082
148	0x3f9a6a80	1.2063751
149	0x3d4b252b	0.049595993
150	0x400771d9	2.1163237
151	0xbf73d357	-0.95244354
152	0xbea8b9d2	-0.3295427
153	0x3ec45f85	0.38354126
154	0x3d1a8035	0.037719924
155	0xbf3e099a	-0.742334
156	0x3f03a623	0.5142538
157	0x3e40cd14	0.18828231
158	0xbfa1b169	-1.2632266
159	0x3e74c7c4	0.2390433
160	0x3f55646d	0.8335636
161	0xbe990819	-0.2988899
162	0x3db6fd7f	0.08935069
163	0x3f39583f	0.7240028
164	0x3d163f16	0.036681257
165	0xbd1f7a6a	-0.038935103
166	0x3d2daa46	0.042398714
167	0xbc195826	-0.009359395
168	0x3f40b995	0.75283176
169	0x3e87b63d	0.26506224
170	0xbd4473b0	-0.04796189
171	0x3b15bc60	0.0022847876
172	0x3d2fb372	0.04289574
173	0xbf0d947d	-0.553047
174	0x3da74785	0.08167938
175	0xbe04124b	-0.12897603
176	0xbd7b3c2a	-0.061336674
177	0xbdfbd0c3	-0.122956775
178	0x3ec3e0bc	0.38257396
179	0xbd802cd2	-0.06258549
180	0xbd4addaa	-0.0495278
181	0xbd7bb577	-0.061452355
182	0x3f6fac35	0.9362214
183	0xbc3574a8	-0.011075176
184	0xbd866fec	-0.06564316
185	0x3d62f686	0.055410884
186	0xbdbd2371	-0.092352755
187	0xbd96fce8	-0.07372457
188	0x3ced4fd4	0.02896873
189	0xbe40e9b0	-0.18839145
190	0xbda9305b	-0.08261176
191	0x3c2f8f00	0.010715246
192	0xbd81fcf4	-0.06347075
193	0xbd9ebadb	-0.077504836
194	0xbfec03b7	-1.8438634
195	0xbda1c36a	-0.078986004
196	0xbe990578	-0.29886985
197	0x3d118422	0.035526402
198	0xbd81264a	-0.06306131
199	0xbd332973	-0.0437407
200	0x3f1da779	0.6158367
201	0x40208a0c	2.5084257
202	0x3f97862e	1.1837823
203	0x3f45e16a	0.7729708
204	0x3f0f7241	0.5603371
205	0x3f501461	0.81281096
206	0x3f26d526	0.6516899
207	0x3dde208e	0.10846053
208	0x3ecf0717	0.40435097
209	0xbe0f3eb8	-0.13988769
210	0xc08ab083	-4.334047
211	0x400205f9	2.0316145
212	0xbf8646b1	-1.0490323
213	0xc0975795	-4.729441
214	0x3f9b9820	1.21558
215	0x4029bff2	2.6523404
216	0xc092d0a7	-4.5879703
217	0xbfc70a5e	-1.5550039
218	0xc00da9d2	-2.21349
219	0xc019a5cf	-2.4007452
220	0x3feb8908	1.8401194
221	0xbf0c0b04	-0.5470431
222	0xc02d5d89	-2.708834
223	0xc01b20f1	-2.4238856
224	0xbfc857c3	-1.5651783
225	0x40573da9	3.3631384
226	0xc015f7fa	-2.3432603
227	0xbe387cb8	-0.18016326
228	0x401e1c57	2.4704797
229	0xbfc4ab8e	-1.5364854
230	0x3f9a0ee1	1.2035791
231	0x400a9165	2.1651242
232	0xbf9bcd23	-1.2171978
233	0xbfd15de2	-1.6356776
234	0x3e825276	0.25453538
235	0xc029ac5e	-2.6511455
236	0xc0020d52	-2.032063
237	0x3fc59e60	1.5438957
238	0xbf2762e3	-0.65385264
239	0xbfa14a7e	-1.2600858
240	0x3f3b7aca	0.73234236
241	0x3f816547	1.0109032
242	0x404dab5d	3.2135842
243	0x40027fc0	2.0390472
244	0xc04978f5	-3.1480076
245	0xc00280af	-2.0391042
246	0xbf2ac405	-0.6670535
247	0xbfb9befa	-1.4511406
248	0xc051fdf0	-3.281124
249	0x3f710805	0.9415286
250	0xbda2ecfa	-0.07955356
251	0x3e6df3d9	0.23237552
252	0xbea9b8bc	-0.33148754
253	0xbcf28c8f	-0.02960804
254	0x3f606c7b	0.8766553
255	0x3e9cebae	0.3064856

rnn.weight_hh f4 [100, 100]
0	0xbf41e81c	-0.75744796
1	0xbe81521a	-0.2525795
2	0x3d20251a	0.039097883
3	0xbd845423	-0.0646136
4	0xbdc4a082	-0.09600927
5	0xbbac3401	-0.005255223
6	0x3e6568fd	0.22403331
7	0x3eab2c41	0.334322
8	0xbe8c0b13	-0.273522
9	0xbf254b62	-0.6456815
10	0xbc959242	-0.018258218
11	0xbe8cceeb	-0.27501616
12	0xbec746f0	-0.3892131
13	0x3d2f0702	0.042731293
14	0xbea0b499	-0.31387785
15	0xbe0da603	-0.1383286
16	0xbe509f7a	-0.20373335
17	0x3dfe9618	0.12430972
18	0x3da6454a	0.081186846
19	0xbda40e3f	-0.0801053
20	0xbedbcb91	-0.42928746
21	0xbeb60266	-0.35548705
22	0x3eaf6b57	0.3426158
23	0x3e6b4803	0.22976689
24	0x3a782207	0.00094655197
25	0xbd399f2b	-0.04531781
26	0xbe004b35	-0.12528689
27	0xbe676085	-0.22595413
28	0x3ef82b70	0.4847064
29	0xbb794af8	-0.003803907
30	0xbf0a33af	-0.5398511
31	0x3c19ee80	0.009395242
32	0x3f0c2b1b	0.54753274
33	0x3f18d466	0.59699094
34	0xbe511bda	-0.20420781
35	0xbe25ee20	-0.16204119
36	0x3e2cecac	0.16887158
37	0xbe4fc146	-0.20288572
38	0x3eaef34d	0.3417
39	0x3ec5eeeb	0.38658842
40	0xbd57896f	-0.0526213
41	0xbaeda04a	-0.0018129435
42	0xbda19c6f	-0.078911655
43	0xbd69a61b	-0.057043176
44	0xbd914d03	-0.07094767
45	0x3e14de4c	0.14537925
46	0xbe8ec8c7	-0.27887556
47	0xbc468169	-0.012115815
48	0x3f231e70	0.6371832
49	0x3d845ae8	0.064626515
50	0x3e06186a	0.1309525
51	0x3f581f40	0.84422684
52	0xbe810c26	-0.2520458
53	0x3d37b85b	0.04485355
54	0xbf6fd82a	-0.93689215
55	0x3f2351bd	0.637966
56	0x3e84d49b	0.25943455
57	0xba0ffcc9	-0.0005492685
58	0xbd6fb6d4	-0.058523968
59	0xbe504b1a	-0.20341149
60	0xbe9a060b	-0.30082735
61	0x3e07c270	0.13257766
62	0xbcff4f40	-0.031165719
63	0x3cf5d94e	0.030010846
64	0xbe99a0bc	-0.30005443
65	0x3df179cf	0.11790811
66	0xbe8bb3cb	-0.2728561
67	0x3d2057ee	0.039146356
68	0xbe047818	-0.12936437
69	0xbdd3d533	-0.10343399
70	0xbde8bd11	-0.113641866
71	0x3e8d0232	0.27540737
72	0xbe43350b	-0.19063203
73	0x3e8cd234	0.27504122
74	0xbedceb4d	-0.4314827
75	0xbedcc76a	-0.4312089
76	0xbe55e398	-0.20887601
77	0xbd57ac0d	-0.052654315
78	0x3e463565	0.19356306
79	0x3ea98a1b	0.3311318
80	0x3e45a7c8	0.19302285
81	0xbe774a38	-0.24149406
82	0xbb1ea44d	-0.0024206818
83	0x3e759eb3	0.2398632
84	0x3e0375b8	0.12837875
85	0xbdefde45	-0.117123164
86	0xbe8e8cef	-0.278419
87	0x3c73e8b8	0.014887027
88	0xbcab0579	-0.020876633
89	0xbe8a4a8c	-0.2701
90	0xbe63fe7d	-0.22265048
91	0xbe8d81d5	-0.27638116
92	0x3b78f646	0.0037988587
93	0x393de666	0.00018110275
94	0xbe644c41	-0.22294714
95	0xbf56fea9	-0.8398233
96	0x3da87a77	0.08226483
97	0xbde95aed	-0.11394296
98	0x3d05f59d	0.03270494
99	0x3db13276	0.08652203
100	0xbf877064	-1.0581174
101	0x3f0145df	0.5049724
102	0xbda300f9	-0.0795917
103	0x3ed2db8a	0.4118312
104	0xbba1ea13	-0.004941234
105	0xbec5bcf8	-0.38620734
106	0x3c739946	0.014868086
107	0xbaf9d014	-0.0019059204
108	0x3cbf0e0b	0.023322126
109	0x3dc92afd	0.098226525
110	0x3e8391f5	0.25697294
111	0x3f023d05	0.5087436
112	0xbf3b7651	-0.7322741
113	0x3f1c07b7	0.6094927
114	0x3d8b2fd7	0.06796234
115	0x3de4b982	0.11168195
116	0x3ed70dfc	0.42002857
117	0x3f24748c	0.64240336
118	0xbe9e86f1	-0.30962327
119	0xbf91c4c8	-1.1388178
120	0xbee1c267	-0.4409363
121	0x3e31d7c8	0.1736747
122	0x3df778d1	0.12083591
123	0x3e3890e6	0.18024024
124	0x3d9509bf	0.072772495
125	0x3f04a981	0.5182114
126	0xbeee0093	-0.46484813
127	0x3e426e36	0.18987355
128	0x3f050bd3	0.5197117
129	0xbf4022e6	-0.7505325
130	0xbe0dbe72	-0.1384218
131	0xbeb8d4fe	-0.361
132	0x3ecddeb7	0.4020898
133	0x3d21a954	0.039468125
134	0x3f0172aa	0.5056559
135	0xbd3f7c2d	-0.046749283
136	0x3eae0ab2	0.33992535
137	0x3f13b556	0.5769857
138	0x3bdf180c	0.0068082865
139	0xbe89f838	-0.26947188
140	0xbe83fd8e	-0.25779384
141	0xbf4b731e	-0.7947253
142	0x3f1263db	0.5718362
143	0x3f07f0e7	0.5310196
144	0x3edfeffc	0.4373778
145	0x3e148b98	0.14506376
146	0x3e633bc7	0.22190772
147	0x3e48607e	0.19568059
148	0x3eb5a5c8	0.35478044
149	0x3e5e2e05	0.21697243
150	0x3f521992	0.8207027
151	0xbcdec6c7	-0.027194394
152	0x3ee7a000	0.45239258
153	0x3dba1d1a	0.09087582
154	0xbef7e842	-0.48419386
155	0x3ebe0e94	0.37120497
156	0x3f7ee46a	0.9956728
157	0xbc442635	-0.011972
158	0xbf725461	-0.9466
159	0xbea4e8ac	-0.32208765
160	0xbf697d44	-0.91206765
161	0x3f63b299	0.88944393
162	0x3ec639e0	0.3871603
163	0x3decaa82	0.11555959
164	0x3f07e5f5	0.5308526
165	0x3f4e2962	0.80531895
166	0xbc75e1cc	-0.015007447
167	0x3ceeda48	0.029156819
168	0x3dc928e9	0.09822256
169	0xbe23b683	-0.15987591
170	0x3f07cbb8	0.53045225
171	0xbdc1d500	-0.09464455
172	0x3eb07d7e	0.34470743
173	0xbcf7cf41	-0.030250194
174	0xbdbe139a	-0.092810825
175	0x3eb748ad	0.35797635
176	0x3e138798	0.14407194
177	0xbf34d88b	-0.7064292
178	0xbe163901	-0.14670183
179	0xbeb8a632	-0.36064297
180	0x3dedc2b4	0.11609402
181	0xbd8819be	-0.06645535
182	0x3eb88088	0.36035562
183	0x3e961ebd	0.29320326
184	0xbe2a2520	-0.16615725
185	0xbed31553	-0.41227207
186	0xbf674664	-0.9034178
187	0xbd100923	-0.035164963
188	0xbe00bfe0	-0.12573195
189	0xbf100f2f	-0.5627317
190	0x3f303403	0.68829364
191	0x3da2c218	0.07947177
192	0xbef0bb1d	-0.47017756
193	0xbeb4f6a0	-0.3534441
194	0xbe4b6f30	-0.19866633
195	0xbf05f7fd	-0.52331525
196	0x3e469167	0.19391404
197	0xbe6a5c0b	-0.22886674
198	0x3f36e733	0.7144653
199	0x3f833db7	1.0253209
200	0x3f382ecd	0.7194641
201	0x3d699f46	0.05703666
202	0xbe39876e	-0.18118069
203	0x3cdd2d1d	0.02699905
204	0xbe2187ad	-0.15774412
205	0xbd1477e6	-0.036247157
206	0x3ec75a8a	0.38936263
207	0xbe28d16d	-0.1648614
208	0xbed854d0	-0.42252207
209	0xbf1f4f17	-0.62230057
210	0xbe37f1d2	-0.17963341
211	0x3e93755c	0.28800476
212	0xbe736695	-0.237696
213	0x3e040c24	0.12895256
214	0x3e304b9e	0.17216346
215	0x3e961e86	0.29320163
216	0xbebca598	-0.36845088
217	0xbea2da06	-0.31806964
218	0x3ded24a3	0.115792535
219	0x3dcace0c	0.099025816
220	0x3e966bbf	0.2937908
221	0xbf002e76	-0.50070894
222	0x3db49df7	0.08819192
223	0xbe305545	-0.17220028
224	0x3e0d70d9	0.13812579
225	0xbe1d1e4f	-0.15343593
226	0xbe927e1d	-0.28611842
227	0xbe21e251	-0.15808989
228	0xbc5fd37f	-0.013661264
229	0xbeca1df6	-0.39475983
230	0x3c865666	0.01639862
231	0xbeca8542	-0.39554793
232	0x3d968e29	0.07351334
233	0x3ddf33d3	0.108985566
234	0xbe4ce9a2	-0.20010999
235	0x3dac9594	0.08426967
236	0xbdde010b	-0.10840043
237	0x3b57a6b7	0.0032905766
238	0x3e8e636c	0.27810228
239	0x3dc631ac	0.09677443
240	0x3e81299c	0.25227058
241	0x3dfec10a	0.12439163
242	0xbd28c62a	-0.04120461
243	0xbddf94c0	-0.10917044
244	0xbe279b77	-0.16367899
245	0x3eda8b2f	0.42684314
246	0x3e57fe60	0.2109313
247	0x3e86ad26	0.26303977
248	0xbdc8dba2	-0.09807517
249	0xbd8e3b76	-0.06944935
250	0x3cb477c0	0.022029757
251	0x3e4d2c4d	0.2003643
252	0xbdb76079	-0.089539476
253	0xbc897a65	-0.016781995
254	0xbea93b5c	-0.330531
255	0x3f5857c4	0.8450892

rnn.bias_ih f4 [100]
0	0x3e0e4dda	0.13896886
1	0xbf72f1a2	-0.9489995
2	0xbf3652b7	-0.7121996
3	0xbf4a1d30	-0.78950787
4	0xbe96c1db	-0.29444775
5	0x3ece4c60	0.40292645
6	0xbf573b61	-0.8407498
7	0xbeb08fbc	-0.3448466
8	0x3f5cb841	0.8621865
9	0xbf2118c1	-0.62928396
10	0xbf23717e	-0.6384505
11	0xbe86f217	-0.26356575
12	0x3ea4e935	0.32209173
13	0x3dfafb06	0.1225491
14	0x3e9e4110	0.30909014
15	0xbefbe572	-0.4919849
16	0x3e49a733	0.19692688
17	0x3e85cd26	0.26133078
18	0x3f51356b	0.81722134
19	0x3e0c658f	0.13710617
20	0x3f0e4b2d	0.5558346
21	0xbe57ccc3	-0.21074204
22	0x3e2954cb	0.16536252
23	0x3e5a7964	0.2133537
24	0xbf10bcad	-0.56537896
25	0xbef8a17e	-0.4856071
26	0x3f024e67	0.5090088
27	0x3c2eac2a	0.010661164
28	0x3df98b36	0.121847555
29	0x3e88b42d	0.26699963
30	0x3e71a745	0.23598965
31	0xbf7708e4	-0.9649794
32	0x3e010be7	0.12602197
33	0x3fa870c0	1.3159409
34	0xbe02322c	-0.12714452
35	0x3ebac611	0.36479238
36	0x3e15b12f	0.14618371
37	0x3de708db	0.11280986
38	0x3e8a31ce	0.26991123
39	0xbdc7f734	-0.09763947
40	0xbc3c6408	-0.011498459
41	0x3ee3a55a	0.4446209
42	0xbf5b65a1	-0.8570195
43	0xbdda9c76	-0.10674374
44	0xbeae8672	-0.3408695
45	0xbe9668dd	-0.2937688
46	0xbe143f37	-0.1447724
47	0x3e6badcb	0.23015516
48	0x3e250988	0.16116917
49	0xbe9b639c	-0.30349433
50	0xbec4410c	-0.38330877
51	0x3ec1cb88	0.37850595
52	0xbdd94afc	-0.10610005
53	0xbe16ffb4	-0.1474598
54	0xbe97f3d4	-0.29678214
55	0x3de333bb	0.11093851
56	0xbea0ad85	-0.31382385
57	0x3f307d8d	0.68941575
58	0x3fa8f674	1.3200212
59	0xbc3da833	-0.011575746
60	0x3e8c17a8	0.27361798
61	0xbeb800d5	-0.35938135
62	0xbeb03d57	-0.344218
63	0xbeeb4465	-0.45950618
64	0x3ea7e81f	0.32794282
65	0xbea08987	-0.31354925
66	0xbf39a736	-0.7252077
67	0xbdc774ff	-0.09739112
68	0xbceabca7	-0.02865441
69	0xbe318950	-0.17337537
70	0xbe7fa9b2	-0.24967077
71	0xbf5506ad	-0.8321331
72	0xbf827127	-1.0190781
73	0xbc64970c	-0.013952028
74	0x3e7623d8	0.24037111
75	0x3f7ae87f	0.9801101
76	0xbed9ecac	-0.4256338
77	0x3eac08c1	0.3360043
78	0x3eed3736	0.46331185
79	0xbe8e6175	-0.2780873
80	0x3f0a26f6	0.539657
81	0x3d61151e	0.05495178
82	0xbe1d44b1	-0.15358235
83	0xbe30d8af	-0.17270158
84	0x3f41805e	0.755865
85	0x3e3b1aaa	0.1827189
86	0x3f30f220	0.69119453
87	0x3f2e934b	0.681935
88	0xbd5a4491	-0.053288046
89	0xbe616f75	-0.22015174
90	0x3f49c572	0.788169
91	0x3fa1d702	1.264374
92	0x3f3b254a	0.73103774
93	0xbf7eb277	-0.99491066
94	0xbec4dbe8	-0.38449025
95	0x3f0b814b	0.5449416
96	0xbf9ad8f6	-1.2097461
97	0x3f8ffb48	1.124856
98	0xbd0edb58	-0.03487715
99	0xbdd01a20	-0.10161233

rnn.bias_hh f4 [100]
0	0x3dd0bee0	0.101926565
1	0xbf859b45	-1.043801
2	0xbf2a2738	-0.66466093
3	0xbf5b9d9a	-0.85787356
4	0xbddb427e	-0.10706042
5	0x3ec30d49	0.38096073
6	0xbf57a98b	-0.8424308
7	0xbe98e7e5	-0.2986442
8	0x3f6a4f59	0.91527325
9	0xbf1284e9	-0.57234055
10	0xbf40b278	-0.7527232
11	0xbe6afa12	-0.22946957
12	0x3eb0f331	0.3456054
13	0x3e45da1f	0.19321488
14	0x3eeec43d	0.46634093
15	0xbeb19a4f	-0.3468804
16	0x3e41484b	0.18875234
17	0x3e34a0d7	0.1763948
18	0x3f4ce1c7	0.8003201
19	0x3e3f5fb9	0.18688859
20	0x3f1c24c9	0.6099363
21	0xbe151c35	-0.14561541
22	0x3dc2b020	0.095062494
23	0x3da78100	0.08178902
24	0xbee0916f	-0.43860957
25	0xbf00e27c	-0.5034559
26	0x3ef7c41c	0.48391807
27	0xbdf0323e	-0.11728333
28	0x3dc5e29b	0.09662362
29	0x3e5f2462	0.21791223
30	0x3e8056d2	0.2506624
31	0xbf50f52c	-0.816241
32	0x3dcf877a	0.10133262
33	0x3f9e3392	1.2359488
34	0xbda00a19	-0.07814426
35	0x3ee2fea0	0.44334888
36	0x3e39fa5b	0.1816191
37	0x3dcfa243	0.10138371
38	0x3e9af311	0.3026357
39	0xbdb272a6	-0.08713274
40	0xbd1ba14d	-0.037995625
41	0x3eef4138	0.46729445
42	0xbf617106	-0.88063085
43	0xbddd4062	-0.10803296
44	0xbe993284	-0.29921353
45	0xbe67174d	-0.22567482
46	0xbe31c115	-0.17358811
47	0x3e33d5aa	0.17561975
48	0x3d514916	0.05109509
49	0xbe95cc88	-0.29257607
50	0xbefc4c70	-0.49277067
51	0x3e950c9f	0.29111192
52	0x3bfb2d70	0.0076653287
53	0xbc8a21fc	-0.016861908
54	0xbec5bb73	-0.38619575
55	0x3e956932	0.2918182
56	0xbe51b3b9	-0.20478715
57	0x3f418753	0.75597113
58	0x3fae9191	1.3638173
59	0x3e0f37a5	0.1398607
60	0x3eaee50c	0.34159124
61	0xbec9852e	-0.3935942
62	0xbea7b6b9	-0.32756594
63	0xbecbde22	-0.3981791
64	0x3e4d27ef	0.20034765
65	0xbea36ac0	-0.3191738
66	0xbf468b77	-0.77556556
67	0xbde239f9	-0.11046214
68	0x3acf5672	0.0015818609
69	0xbe26c7b1	-0.16287114
70	0xbe8a848b	-0.27054247
71	0xbf610679	-0.879005
72	0xbf81c034	-1.0136781
73	0xbdf24312	-0.11829199
74	0x3dcd2a8a	0.10017879
75	0x3f7e0ebc	0.9924123
76	0xbede524d	-0.43422166
77	0x3ea9daae	0.33174652
78	0x3ef15706	0.47136706
79	0xbeb8bb2f	-0.3608031
80	0x3edb83e8	0.42874074
81	0xbb13fe27	-0.0022581907
82	0xbe4499e2	-0.19199327
83	0xbe625c36	-0.22105488
84	0x3f5857fb	0.8450925
85	0x3e876a9d	0.26448527
86	0x3f312b93	0.69207114
87	0x3f47b261	0.7800656
88	0x3d1288e7	0.03577509
89	0xbe5f9ce3	-0.21837191
90	0x3f3077d8	0.6893287
91	0x3f91ba58	1.1384993
92	0x3f5cf09f	0.8630466
93	0xbf7d4932	-0.9893981
94	0xbeace113	-0.33765468
95	0x3ed8aaae	0.42317718
96	0xbf93b64d	-1.1540009
97	0x3f86fc8a	1.0545819
98	0xbde139c7	-0.10997348
99	0xbe7245fb	-0.23659508

linear.weight f4 [100, 100]
0	0x3ebdbddd	0.37058917
1	0x3e457386	0.1928235
2	0x3f21c0e9	0.6318498
3	0x3f142aeb	0.5787799
4	0xbe56e517	-0.20985828
5	0xbc6b9b8b	-0.014380346
6	0x3f443ecf	0.7665834
7	0x3f08443f	0.53229135
8	0xbea02eca	-0.31285697
9	0x3f4cd532	0.8001281
10	0x3e900393	0.28127727
11	0xbdc93006	-0.09823613
12	0x3d84afa6	0.06478815
13	0xbef4b8e0	-0.47797298
14	0xbdc18a02	-0.09450151
15	0x3ea8cd16	0.32968968
16	0x3f01c1b8	0.50686216
17	0xbf09333b	-0.53593796
18	0xbebe5142	-0.3717137
19	0xbeeb7066	-0.4598419
20	0x3e22b931	0.15890957
21	0x3f16ceb3	0.5890915
22	0xbe676308	-0.22596371
23	0xbe24490c	-0.1604349
24	0xbde53852	-0.11192383
25	0x3e2e0bd6	0.16996703
26	0xbe971dd0	-0.29514933
27	0xbee7413c	-0.45166957
28	0x3e976bc3	0.29574403
29	0x3e2cc80b	0.16873185
30	0x3e171adf	0.14756344
31	0x3e510faf	0.20416139
32	0xbd1e33b0	-0.03862351
33	0xbe838815	-0.2568976
34	0xbd487ab3	-0.04894514
35	0xbd63d1bb	-0.055619936
36	0x3dd0f4a8	0.102029145
37	0x3e120a39	0.14261712
38	0x3dbe3dd7	0.09289139
39	0xbfbf98e0	-1.4968529
40	0xbe072d94	-0.1320098
41	0xbde441c8	-0.11145359
42	0xbcc27975	-0.023739556
43	0xbd46e0e7	-0.048554327
44	0xbeaf677d	-0.34258643
45	0x3e445303	0.19172291
46	0xbeebac61	-0.46029952
47	0xbee39b97	-0.44454643
48	0xbf536266	-0.8257202
49	0x3e0e3d30	0.13890529
50	0x3d8f136d	0.06986127
51	0xbd2e04bb	-0.04248498
52	0x3e7309ea	0.2373425
53	0xbd89584e	-0.06706296
54	0x3daeb335	0.08530275
55	0x3f54c31a	0.831102
56	0xbe850175	-0.25977674
57	0xbf136460	-0.57575035
58	0xbf3ffbbe	-0.74993503
59	0x3d8768bb	0.066117726
60	0xbf3966c9	-0.7242246
61	0x3f01e47a	0.5073925
62	0x3dfb2522	0.12262942
63	0xbc879f88	-0.016555563
64	0xbf177bc4	-0.59173226
65	0x3ed42df7	0.41441318
66	0x3f5ea1ad	0.8696545
67	0xbef90e96	-0.4864394
68	0xbeb5de1e	-0.35521024
69	0xbf8381c8	-1.0273981
70	0x3e8f9a8e	0.28047603
71	0x3e2fc33b	0.17164318
72	0x3ce88ac5	0.028386483
73	0x3ec31fd1	0.38110211
74	0xbecd4215	-0.4008948
75	0xbdeb1ac9	-0.11479718
76	0x3f050d78	0.51973677
77	0x3e3c95c9	0.18416514
78	0x3da0dfb2	0.078551665
79	0xbe39c91a	-0.1814312
80	0xbecf58ff	-0.40497586
81	0xbebaae9c	-0.3646134
82	0x3f06096f	0.52358145
83	0xbd841384	-0.06449035
84	0xbe507ed4	-0.20360881
85	0xbe966941	-0.29377177
86	0xbea22fe1	-0.31677154
87	0x3e6e286e	0.2325761
88	0x3edcc8ba	0.43121892
89	0x3e32a58c	0.17445964
90	0x3e0f75c0	0.14009762
91	0xbeaf0259	-0.3418148
92	0xbc8139b4	-0.015774585
93	0x3e15437e	0.14576527
94	0x3daefca3	0.085442804
95	0x3e070285	0.13184555
96	0x3d5202fb	0.051272374
97	0xbcb9b690	-0.02267006
98	0xbd5a03b3	-0.053226184
99	0xbf044f28	-0.5168328
100	0xbef6cbcb	-0.48202357
101	0x3ec34654	0.38139594
102	0x3f207c38	0.6268954
103	0xbe94cae4	-0.29061043
104	0x3ea4ba2c	0.32173288
105	0xbdebf097	-0.11520498
106	0x3eee2e60	0.46519756
107	0x3e4d21ab	0.20032375
108	0xbdfc1a8d	-0.12309752
109	0x3ef5e5ab	0.48026785
110	0x3ec5c609	0.3862765
111	0xbe8d8388	-0.27639413
112	0x3dabb6b5	0.08384458
113	0xbe80609d	-0.2507371
114	0xbe73efcd	-0.23821945
115	0x3e27cf61	0.16387703
116	0x3ec05869	0.37567452
117	0x3e186fc6	0.14886388
118	0x3b937013	0.0044994443
119	0xbf17ea82	-0.59342206
120	0xbe7383a8	-0.23780692
121	0x3f093a89	0.5360494
122	0xbf0ed371	-0.55791384
123	0x3ec43e07	0.38328573
124	0x3de8f05a	0.113739684
125	0x3ad2a473	0.0016070738
126	0xbe183c9c	-0.1486687
127	0xbf1e9d2b	-0.6195857
128	0x3e57d16d	0.21075983
129	0xbe6920af	-0.22766374
130	0x3ed027c6	0.40655345
131	0xbd36c517	-0.044621553
132	0xbe3e2af1	-0.18571068
133	0xbe0dd871	-0.13852097
134	0x3ded4d17	0.11586969
135	0xbe36de27	-0.17858182
136	0x3e0ee4ec	0.13954514
137	0xbe430c68	-0.19047701
138	0xbeb4ec92	-0.3533674
139	0xbe6608c5	-0.22464283
140	0xbf1da364	-0.6157744
141	0x3eb36d11	0.3504415
142	0x3d80d8a3	0.0629132
143	0x3d9d093e	0.076677784
144	0x3e6a48c8	0.22879326
145	0x3ebf198e	0.37324184
146	0x3d7d2654	0.06180413
147	0x3d603a15	0.05474289
148	0x3df4bad6	0.119496986
149	0x3f1107fd	0.56652814
150	0xbd9a7ae1	-0.075429685
151	0xbe8a9b00	-0.2707138
152	0xbe0b2632	-0.13588789
153	0xbe3eab4a	-0.18620029
154	0x3eef4e02	0.46739203
155	0x3d017757	0.031607952
156	0xbea8eed9	-0.32994726
157	0xbe0b9941	-0.1363268
158	0xbee54c85	-0.44784942
159	0xbd0aad0b	-0.033856433
160	0xbe883b8a	-0.26607925
161	0x3ca62da4	0.020285435
162	0xbd69ac10	-0.057048857
163	0xbd97d1b1	-0.07413042
164	0xbc907b1b	-0.017636826
165	0x3f59fc38	0.8515048
166	0x3ec31880	0.3810463
167	0xbde0aba0	-0.10970235
168	0x3d0ca580	0.03433752
169	0xbf2e1c65	-0.68012077
170	0x3ef0ae58	0.47008014
171	0x3f202211	0.6255198
172	0x3dc16e77	0.094448976
173	0x3f2dc994	0.6788571
174	0x3e086ab4	0.13321954
175	0x3cdb33b2	0.026758049
176	0x3ed5e567	0.41776583
177	0xbe997105	-0.2996904
178	0x3e91af96	0.28454274
179	0x3eda6020	0.42651463
180	0xbe58b62d	-0.21163245
181	0xbdd12397	-0.10211866
182	0x3eedc44a	0.4643882
183	0x3e901509	0.2814105
184	0xbd8a45d6	-0.067516014
185	0xbd98ac2c	-0.07454714
186	0x3d4587cf	0.04822522
187	0x3dee1d6c	0.116267055
188	0x3ec60b0a	0.38680297
189	0x3e0132f4	0.12617093
190	0x3e9078c4	0.28217137
191	0xbe4f1f3a	-0.20226756
192	0xbdfb326b	-0.12265476
193	0x3edee17f	0.43531415
194	0x3e81248c	0.25223196
195	0x3e49e4fc	0.19716257
196	0x3c9988c0	0.018741965
197	0xb9834c4c	-0.00025043113
198	0xbef226fc	-0.47295368
199	0xbed9dfcf	-0.42553565
200	0x3e046be1	0.12931778
201	0x3f1ae896	0.6051115
202	0x3e9f3829	0.31097534
203	0xbc9da671	-0.019244405
204	0x3e0919db	0.1338877
205	0xbdb00d25	-0.08596257
206	0x3e210adc	0.15726799
207	0xbdc93628	-0.098247826
208	0xbd829a16	-0.06377046
209	0x3f86b71e	1.0524633
210	0xbd0bd161	-0.034135226
211	0x3d882aad	0.06648765
212	0x3da2aa63	0.07942655
213	0xbe6f55c6	-0.23372564
214	0xbe034019	-0.1281742
215	0x3eda68e2	0.42658144
216	0x3f1ed7d7	0.62048095
217	0xbe9d8367	-0.30764315
218	0xbeafce86	-0.34337252
219	0xbf1e05c4	-0.6172755
220	0x3ec7a43c	0.38992488
221	0x3ecafdf3	0.39646873
222	0xbeb430d5	-0.35193506
223	0x3ed11e81	0.40843585
224	0x3d8e892f	0.069597594
225	0x3e11b756	0.14230093
226	0x3e1cc3dd	0.15309091
227	0x3cc43b11	0.023953946
228	0xbda0345c	-0.07822487
229	0x3cc46b9a	0.02397709
230	0x3f07e854	0.5308888
231	0x3e76947f	0.24080084
232	0x3f081410	0.5315561
233	0xbedef1fd	-0.43543997
234	0xbe677c6e	-0.2260606
235	0xbe84d4ae	-0.25943512
236	0x3d145c36	0.03622075
237	0x3e538469	0.20655979
238	0xbcc03dd5	-0.023466984
239	0xbdbebb18	-0.09313029
240	0xbf12bac4	-0.5731623
241	0x3e117605	0.14205177
242	0x3eaddd66	0.33957976
243	0x3e05a8a4	0.13052613
244	0x3eac2779	0.33623865
245	0x3f0cabd2	0.54949677
246	0xbf2f5868	-0.6849427
247	0xbdd98143	-0.10620358
248	0xbebb9d55	-0.36643472
249	0x3ea95c7a	0.33078367
250	0x3dd1cccb	0.10244139
251	0xbf1d230a	-0.6138159
252	0xbea3b700	-0.31975555
253	0xbe49c9fc	-0.19705957
254	0x3e803b8a	0.25045425
255	0x3de7ea9f	0.11324047

linear.bias f4 [100]
0	0xbdcfb297	-0.10141485
1	0xbe34a277	-0.176401
2	0xbe3bffec	-0.18359345
3	0xbddbea1c	-0.10738012
4	0xbe44e5d7	-0.19228302
5	0xbc4ad519	-0.012379908
6	0xbda5604e	-0.08075009
7	0xbe6c646d	-0.23085184
8	0x3cd3de35	0.025862793
9	0xbd080812	-0.03321082
10	0x3e1549d4	0.14578944
11	0xbe811b5d	-0.2521619
12	0x3e9fe2f9	0.31227854
13	0x3db7f25e	0.08981775
14	0x3d8f8a79	0.070088334
15	0xbd485063	-0.048904788
16	0xbbfa43d3	-0.00763748
17	0x3cd70f06	0.02625228
18	0xbd2d5797	-0.04231986
19	0xbeb5b81d	-0.3549203
20	0xbecfa636	-0.40556496
21	0x3f0e6093	0.5561611
22	0xbe800d84	-0.25010312
23	0x3e2f3b6a	0.17112508
24	0x3e99ce8d	0.30040398
25	0xbb3f009e	-0.0029144655
26	0xbea22e30	-0.31675863
27	0x3e722f92	0.23650959
28	0x3e694332	0.22779539
29	0x3e95b8df	0.29242608
30	0x3a1e7d81	0.0006045923
31	0x3e194c36	0.14970478
32	0x3dac38a2	0.08409239
33	0xbed40960	-0.41413403
34	0xbe09030e	-0.13380072
35	0xbf0a666f	-0.5406255
36	0xbe1f55aa	-0.15560022
37	0xbeb2966b	-0.34880385
38	0xbec4df7f	-0.38451764
39	0xbea4630b	-0.32106814
40	0xbe8ed7cb	-0.27899012
41	0xbe945ddd	-0.28977862
42	0xbe88fa81	-0.2675362
43	0xbdbc9fc9	-0.09210164
44	0xbe99a0ff	-0.30005643
45	0xbe9a33fc	-0.30117786
46	0xbea3620f	-0.3191075
47	0xbe8fe535	-0.2810456
48	0xbe1a0d3b	-0.1504411
49	0xbe670823	-0.22561698
50	0xbe80aac9	-0.251303
51	0xbe638e57	-0.22222267
52	0xbe8607af	-0.26177737
53	0xbecf0461	-0.40433028
54	0xbea131aa	-0.31483203
55	0xbe96f8f1	-0.29486802
56	0xbebb2e8c	-0.3655895
57	0xbecb82ee	-0.3974833
58	0xbe3158d8	-0.17319047
59	0xbeb1ac97	-0.34701988
60	0xbeb18389	-0.34670666
61	0xbe08418c	-0.13306254
62	0xbea81844	-0.32831013
63	0xbf027352	-0.50957215
64	0xbed59794	-0.41717207
65	0xbedb58cb	-0.4284118
66	0xbeb10cc3	-0.3458005
67	0xbeaf10e4	-0.34192574
68	0xbeb03a32	-0.344194
69	0xbe941e5a	-0.28929406
70	0xbec3d291	-0.38246587
71	0xbeea669d	-0.45781413
72	0xbed4a2a0	-0.41530323
73	0xbd1cc843	-0.038276922
74	0xbe05dab8	-0.13071716
75	0xbdd83ab2	-0.1055807
76	0xbe460fe2	-0.19341996
77	0xbefe0ceb	-0.4961923
78	0xbeee34ad	-0.46524563
79	0xbe9f7547	-0.31144163
80	0xbe796489	-0.24354757
81	0xbed23328	-0.41054654
82	0xbef0f947	-0.47065184
83	0xbec3c348	-0.38234925
84	0xbe937b0c	-0.28804815
85	0xbe977efc	-0.2958907
86	0xbebc74c0	-0.36807823
87	0xbebe9d59	-0.37229422
88	0xbe9d90b1	-0.30774453
89	0xbf096f77	-0.53685707
90	0xbe9daaf8	-0.307945
91	0xbea693be	-0.32534593
92	0xbee0f1ba	-0.43934423
93	0xbeaf533e	-0.34243196
94	0x3e89b0a4	0.2689258
95	0xbecc586a	-0.39911205
96	0xbd6fba8a	-0.058527507
97	0xbeed429e	-0.46339887
98	0xbece5bae	-0.4030432
99	0xbed6d3f0	-0.4195857
