Results/Complete Sherlock Holmes/LSTM/Adam/1/100/model.pt (torch, 365983 bytes, 6 tensors)

rnn.weight_ih f4 [400, 100]
000000 59 9b 68 3e 8b 2a 97 bf 14 b3 5d bf ee 6e 18 be
       0.2271551 -1.1809858 -0.86601377 -0.14886066
000010 a3 66 6b bf a1 49 9c be dc 26 96 bf 6a d0 12 3e
       -0.91953486 -0.30524924 -1.1730609 0.14337316
000020 92 e6 5c bf 39 97 db be ab 3e 1b 3f 74 7a 8b 3e
       -0.8628932 -0.4288881 0.606425 0.27241862
000030 86 ac 76 3e d3 fd 98 bf 42 8e 20 40 14 f2 3d c0
       0.2408925 -1.1952461 2.5086827 -2.9679003
000040 8a 30 1f 40 d5 c2 7c 3e 08 be f4 3f 92 b3 20 3f
       2.4873376 0.24683698 1.9120493 0.62774
000050 d5 db 30 c0 bf 35 f8 3f 76 2d 37 40 87 94 14 40
       -2.7634175 1.9391402 2.8621497 2.3215654
000060 8d 0c 50 bf 62 cb b8 bf 21 e9 6b bf c0 77 df bf
       -0.8126915 -1.4437068 -0.921526 -1.745842
000070 51 56 66 bd 51 16 75 bf 00 46 36 3d 8c a9 26 c0
       -0.05623466 -0.9573718 0.04450035 -2.6040983
000080 fd 3b c8 3f 06 66 8c 3f 8d 1e 44 c0 8e 24 e4 3f
       1.5643307 1.0968635 -3.0643647 1.7823656
000090 46 03 9e bf 11 62 fc be ce 1e 8f bf c7 56 63 40
       -1.2344749 -0.4929357 -1.1181276 3.5521715
0000a0 fa e2 88 3e e0 34 98 bf 63 80 18 40 61 8e 86 bf
       0.2673567 -1.1891136 2.382836 -1.05122
0000b0 9a bb 2b bd 54 18 ce 3f fa c4 22 bf ec cd 28 40
       -0.041926958 1.6101174 -0.6358181 2.6375685
0000c0 b2 23 15 40 3d 00 bc 3f e6 82 f3 bf 38 f5 ad bf
       2.3303037 1.4687573 -1.9024322 -1.359046
0000d0 2e 8a d0 3f b3 13 12 3e d1 d8 24 bf b6 c3 59 3f
       1.6292169 0.14265327 -0.64393336 0.85064256
0000e0 6d 2d 61 bf b0 e7 29 bc ec 1d 43 bf 71 af 1a be
       -0.8795994 -0.01037018 -0.7621753 -0.15105988
0000f0 cc 78 91 be 6c 6f d7 be 1f 1c ee bf 71 5f 19 40
       -0.28412473 -0.42077196 -1.8602332 2.3964503
000100 00 81 80 3b 93 81 67 bd 94 00 b9 bc 77 ab 95 3e
       0.003921628 -0.056520056 -0.022583283 0.2923238
000110 ac e0 61 3f b4 3b 9a be ca ec d3 3e 51 ae 23 3e
       0.8823345 -0.30123675 0.41391593 0.15984465
000120 b4 7a cc 3c a3 bf dd 3f ef 62 22 c0 50 f7 22 bf
       0.024960853 1.7324108 -2.5372884 -0.6365862
000130 50 5a cc bd 05 83 91 3e 77 83 a6 bf 00 cd 13 bc
       -0.09978163 0.28420272 -1.300887 -0.009021044
000140 81 48 93 3d 34 9e c7 3c c3 bc 93 bf c0 75 e8 bc
       0.071915634 0.02436743 -1.154198 -0.02837646
000150 4d 7b 66 bf f1 9d c2 3d a5 f6 8a 3e 32 5c 15 3d
       -0.9003189 0.09502781 0.271413 0.036464877
000160 b8 50 bd 3c 91 22 54 be e8 f3 be 3c 77 a5 bc bd
       0.023109779 -0.20716311 0.023309663 -0.092112474
000170 df 34 b7 bd 93 84 c5 bd b7 eb 88 3e 36 a5 86 bd
       -0.08945631 -0.09644427 0.26742336 -0.0657448
000180 b1 5a b6 3f 24 e3 ed 3c b3 af 4b bd 35 5a ad bd
       1.4246427 0.029038973 -0.049728107 -0.08464471
000190 cb cb 8f be 4a fc d8 be b0 9f 1a 3e 69 10 5c 3d
       -0.2808517 -0.4237998 0.15099978 0.053726587
0001a0 66 2d 05 3d dc b5 e1 bd f1 30 b8 be 84 83 2f be
       0.032514 -0.11021015 -0.3597484 -0.17140013
0001b0 5c 14 f3 be f6 43 0e 3a 68 b2 e5 3d 2e 92 b1 3f
       -0.4747647 0.0005426997 0.11215669 1.3872736
0001c0 62 af 96 3e 21 4c eb 3e 34 87 57 3f 2d e7 a8 3f
       0.2943068 0.4595652 0.8419068 1.3195549
0001d0 ae fb 69 bd bd 33 3b 3f 43 97 76 bf b3 d8 94 bc
       -0.057124786 0.7312582 -0.9632456 -0.018169736
0001e0 14 9c b9 3e 36 15 6e bf 63 bc dc 3e 27 d6 51 3f
       0.3625189 -0.93001115 0.43112478 0.81967396
0001f0 0f 54 5f 3e cf d5 94 3f 0d 9f 96 3e eb 59 3d bf
       0.2180941 1.1627749 0.2941822 -0.7396533
000200 c3 ed 4a 3f 80 6a 47 3f ff a1 c4 3f c4 db 0f 3f
       0.79269046 0.7789688 1.5361937 0.5619471
000210 48 09 b9 bf 2e de 26 be 87 72 68 be 9a d2 21 be
       -1.4455957 -0.16295692 -0.22699939 -0.15802994
000220 b6 11 27 bd b9 b4 21 be bc e3 d7 3e 2f 50 27 3f
       -0.040788375 -0.15791596 0.42165935 0.65356725
000230 73 b6 e5 be 36 16 88 be 83 46 de be da 58 9b 3f
       -0.4486576 -0.26579446 -0.4341317 1.213649
000240 12 8b e1 3e b8 7f c0 3d 45 51 a3 3d 7f 73 8c 3e
       0.44051415 0.093993604 0.07974485 0.27431867
000250 94 52 e4 3e 27 d6 a2 3f 53 8b 1a bf ed f4 0a bf
       0.44594252 1.2721604 -0.6036884 -0.5427998
000260 af 76 ce 3c 04 a0 2a be 2c fb c6 be f1 e4 dd bf
       0.025203077 -0.16662604 -0.38863504 -1.7335492
000270 a6 87 9f be 8d 50 54 3e c9 fd d5 be b1 53 bf 3e
       -0.3115818 0.20733853 -0.41795185 0.3736854
000280 9d 03 d3 3f 46 d5 1d 3e 37 08 1d 3c de 93 b0 3f
       1.6485478 0.15413389 0.009584478 1.3795125
000290 14 84 d1 3c c2 77 a5 bd 36 ab 21 3d 06 b0 bc bd
       0.025575675 -0.080794826 0.03946992 -0.09213261
0002a0 bf f1 61 bf 33 24 89 3e 7e 5a d8 be 44 78 10 bd
       -0.882595 0.2678543 -0.4225654 -0.035270944
0002b0 4d d0 c6 3d ce 81 be bf 1c 96 41 3e 01 f2 3b 3f
       0.09707699 -1.4883363 0.18904918 0.73416144
0002c0 88 f0 b9 bc 97 5f 2d be 82 30 58 3d 12 66 38 3d
       -0.022697702 -0.16930996 0.052780636 0.045019217
0002d0 98 3b 29 3c 6c e8 f7 3c 4d db 94 bf 74 3e c9 bc
       0.01032915 0.030262195 -1.1629425 -0.024565913
0002e0 94 56 f6 3e 40 31 41 bb 1c 0e ce 3e 33 d8 6c bd
       0.4811293 -0.0029478818 0.4024514 -0.05782337
0002f0 8c 57 c6 3c bf 61 a3 3d 83 d2 1c bd 32 d2 45 3d
       0.024211667 0.07977628 -0.038286697 0.04829616
000300 9f ba 8e 3d 4f 9c 9f 3d 86 10 54 bf e4 a2 15 bd
       0.06969189 0.077934854 -0.8283771 -0.036532298
000310 74 f3 05 40 4c 96 d9 3c f2 c9 0a 3d a7 9f 98 3d
       2.0929842 0.026560925 0.033883996 0.07452326
000320 0c 26 29 bf 16 26 47 be dc 71 87 bf a9 93 89 bf
       -0.6607368 -0.19448122 -1.0581622 -1.0748187
000330 86 d1 20 3d 21 67 5f 3d 44 2f ed be 7f c1 0e 3f
       0.039262317 0.05454171 -0.46325123 0.55764
000340 ce 2a a9 bf cd f7 b7 be 2b af 68 3e 64 aa 2c be
       -1.3216188 -0.35931244 0.22723071 -0.16861874
000350 fa 0b 60 3f 47 56 91 3e 8b 08 73 bf 30 3f b3 be
       0.87518275 0.28386137 -0.9493491 -0.35009146
000360 f1 45 d8 bf c5 be b0 3f 6b bd 36 c0 bd 5c 28 bf
       -1.6896344 1.3808218 -2.8553112 -0.6576651
000370 c5 11 06 3f 02 58 9c 3e 58 e3 94 bf f9 fd c2 bf
       0.52370864 0.30535895 -1.163188 -1.5233756
000380 68 a5 97 3f 2f 8a 6e be 36 9e 10 40 b9 7a b7 3f
       1.1847353 -0.232949 2.2596564 1.4334327
000390 bc 32 5d bf 18 d6 e2 bc 11 47 aa 3f ee 89 c4 3f
       -0.8640554 -0.027689978 1.3302938 1.5354593
0003a0 68 55 f6 bf 1c c0 0c 40 05 73 08 c0 d6 7a 0f 3f
       -1.9244814 2.1992254 -2.1320202 0.5604681
0003b0 a5 4f a0 3e bc 4a 20 bf 16 45 b0 bf 27 f5 db 3e
       0.31310764 -0.62614036 -1.3771083 0.42960474
0003c0 69 15 16 bf e8 e6 be bf 2d 07 46 3f 98 51 96 bf
       -0.5862642 -1.4914217 0.773547 -1.174365
0003d0 e6 04 90 bf 27 0f 3f bf b2 5f ed bd 98 f5 8e bf
       -1.1251495 -0.74632496 -0.11590518 -1.1168699
0003e0 55 06 21 3f 58 f3 3b bf f8 60 c4 3e bb e1 8e bf
       0.62900287 -0.7341819 0.3835523 -1.1162637
0003f0 78 e5 9b be 7a f0 60 3e ea dd 08 3f c2 2b 0c bf
       -0.30448508 0.21966735 0.53463614 -0.5475427

rnn.weight_hh f4 [400, 100]
000000 8a c9 7e 3f 61 bd b9 be a6 1c b2 bf 24 7a ec bf
       0.99526274 -0.36277297 -1.3914993 -1.8474774
000010 88 45 c4 be 47 f1 14 bf 08 51 f6 be 8f 7c 52 3f
       -0.38334298 -0.5818066 -0.48108697 0.8222131
000020 dc 90 ac bf 95 61 70 3e f1 57 fc bd dc ae a3 be
       -1.3481708 0.23474725 -0.12321461 -0.31969345
000030 0f 0e d0 3c 97 67 60 3f 8f c6 7e bf ce 31 26 3f
       0.025397329 0.87658066 -0.99521726 0.64919746
000040 de 70 2f bf 10 0f bd 3e e8 f9 7d bf 31 73 04 3f
       -0.68531597 0.36925554 -0.9920945 0.5173827
000050 09 60 2e 3f 9a 2d 53 be cd c8 83 3f 81 80 ee be
       0.6811529 -0.20622864 1.0295655 -0.46582416
000060 b6 17 b2 be fd 7e 43 40 10 55 1f 3e 9d 5b 06 be
       -0.34783715 3.0546257 0.15559793 -0.13120885
000070 68 5c be 3c c6 24 59 3e 5f fb 5a bf a6 b1 8c 3f
       0.023237422 0.21205434 -0.8553981 1.0991714
000080 ce 51 5e be 5b 16 21 3f 6c 0f df be 5d b3 47 3e
       -0.21710894 0.62924737 -0.43566453 0.19502015
000090 fa 93 35 3d b8 a7 9e bf b0 fa 71 bd 2f 87 8d 3f
       0.044330575 -1.2394934 -0.059076965 1.105688
0000a0 de e7 94 3e eb 1e f4 3e 9d 5a 10 3e d6 90 70 3f
       0.2908315 0.4767984 0.14097066 0.93971
0000b0 5c f7 ba 3f 6b c4 6e bd 9d db 0c bf e7 06 29 3f
       1.4606738 -0.058292788 -0.55022603 0.6602616
0000c0 9b 62 3c 3f ff d9 10 bf 09 e3 89 be 9c 14 90 3f
       0.7358796 -0.56582636 -0.26931027 1.125629
0000d0 53 d1 d3 3e 29 bf 00 3f 8f d6 1f bf d9 9a 45 bf
       0.4137064 0.5029169 -0.62436765 -0.77189404
0000e0 1e c4 1d 3f 19 88 9b bc 93 1f e0 3e ef 64 90 3e
       0.61627376 -0.018985795 0.4377409 0.28202006
0000f0 38 2b aa bf f2 7b 35 bd e4 09 cc be 1b 28 0c bf
       -1.3294439 -0.044307657 -0.39851296 -0.54748696
000100 6c f2 f0 bf 46 16 5f 3e d4 10 96 be b7 d7 19 3f
       -1.8823981 0.2178584 -0.29309714 0.6009478
000110 ba 1b 6d bd 3e b8 8b bf db 19 60 bf c4 cc cd 3e
       -0.05788777 -1.0915601 -0.8753945 0.40195286
000120 56 87 e2 bf 21 68 0e be 5d a0 6a bf 3a 92 df 3f
       -1.7697551 -0.1390691 -0.91650945 1.74665
000130 3e 03 df be 84 22 7d 3e 58 66 d4 3e de b6 0b 3f
       -0.4355716 0.24720198 0.41484332 0.5457591
000140 8e 86 23 bf 9c 08 d9 3e 81 98 1b 3e 4d 81 30 3e
       -0.6387719 0.4238938 0.15194894 0.17236824
000150 8d 6c 43 3f e8 97 2e bf 79 50 b7 bf 02 f9 7b bf
       0.7633751 -0.6820054 -1.4321433 -0.9842683
000160 9d 27 60 3e ee 27 b9 3f d8 6d f2 be 38 40 62 3f
       0.21890111 1.446531 -0.4734943 0.8837924
000170 96 11 7e be 04 eb a3 be 62 66 bb 3e 8d 81 8c bf
       -0.24811396 -0.3201524 0.3660155 -1.0977036
000180 3c db 43 bf ec 07 84 3f 1b 67 93 3e 93 3b b7 be
       -0.765064 1.0314918 0.287896 -0.3578764
000190 ad c2 14 bf 43 6d ad 3e 86 fd 79 bd bd c8 42 3f
       -0.5810955 0.33872423 -0.061032794 0.7608755
0001a0 09 18 6a 3f ef 3b 98 be 02 90 4c bf 78 92 90 bf
       0.91442925 -0.29733226 -0.7990724 -1.1294699
0001b0 03 fb bd bf c2 4f d2 3e e6 58 13 3f 11 73 f3 bd
       -1.4842228 0.41076475 0.57557523 -0.118871816
0001c0 5d 78 4b bf a9 cd ee bc 49 69 a6 be 28 24 5c 3e
       -0.79480535 -0.0291508 -0.325022 0.21498168
0001d0 b5 63 ea 3b ac c6 51 be d1 ae fd be 1a c2 15 3d
       0.0071529993 -0.20485944 -0.49547437 0.036562063
0001e0 d4 3a cb be 61 85 2a ba 3a 12 a7 3e 53 26 23 bf
       -0.3969332 -0.00065048604 0.32631093 -0.63730353
0001f0 1e cd c6 3d fe 1d 0c 3f 7f 26 cb be fd b4 22 3f
       0.09707092 0.54733264 -0.39677808 0.63557416
000200 98 48 04 bd 33 8b 70 bf 69 6b 81 3e c8 f6 52 be
       -0.032295793 -0.939624 0.2527726 -0.20601952
000210 3f 65 e7 bc d2 4a b3 bd 0a 1b 44 3f 6c ed e4 3d
       -0.02824652 -0.08754505 0.7660376 0.11178097
000220 c2 d4 04 3e 85 da 45 be 07 84 cd be 63 7d 20 be
       0.12971786 -0.1932164 -0.4013979 -0.15672831
000230 6b 83 65 be 26 94 92 3d ea e3 78 3e 4a 97 fd 3e
       -0.22413413 0.07157163 0.24305692 0.49529487
000240 7c ed c2 39 69 92 3a 3e b5 c6 a0 bf 90 74 44 3e
       0.00037179503 0.18219914 -1.256064 0.1918509
000250 b5 62 be be e0 5f 2c bf 35 59 52 3f d7 5e 85 3e
       -0.37184682 -0.67333794 0.8216737 0.2604892
000260 e4 1a 8c be 01 a6 b3 3e a8 3f 32 3d 25 09 2c bf
       -0.27364266 0.35087588 0.04351774 -0.67201453
000270 95 1e 11 3f be e9 75 3f 6a 98 41 be 22 d8 54 bd
       0.5668729 0.9605979 -0.18905798 -0.051963933
000280 2d 0d 00 3d 31 cc 81 3f ef 1d 6f 3f fe ba 88 bd
       0.031262565 1.0140439 0.9340505 -0.06676291
000290 e3 01 89 bc 89 a5 e0 bd 18 ad 8e 3e aa 4a ec be
       -0.016724532 -0.10969073 0.27866435 -0.46150714
0002a0 fc 4b 0b bf 90 92 8d be 62 5c 80 3e d3 fd 8f be
       -0.5441282 -0.2765088 0.25070482 -0.2812334
0002b0 92 0b 2d 3f 16 df cc be e7 33 9e 3d 99 f2 08 3e
       0.6759578 -0.4001395 0.07724743 0.13373794
0002c0 04 06 da be db c2 24 bf 16 9c ba 3f 1c 5c 74 bd
       -0.42582715 -0.64359826 1.4578884 -0.059658155
0002d0 bd 1a 6a be 01 57 62 bd a6 1e bd 3e 11 d9 7e 3e
       -0.22861762 -0.055258755 0.36937445 0.24887492
0002e0 7b da 15 3f 10 56 1f bd 49 67 8b be 0c f3 e9 3e
       0.585365 -0.038900435 -0.27227238 0.45693243
0002f0 d1 47 1a be bd f7 ec 3e 2d 6e b7 bf 61 06 fd be
       -0.15066458 0.4628276 -1.4330498 -0.4941893
000300 c2 2d 92 3d 9c a4 64 3f d9 9c 6c be 3b dd 9b be
       0.07137634 0.89313674 -0.23106708 -0.30442223
000310 7e 0f 64 bf 51 49 ce be cd 7d 5d 3e a6 a4 b3 3d
       -0.8908614 -0.4029031 0.2163002 0.087716386
000320 09 9e b6 3f 72 b8 2a 3e 93 50 40 bf 60 bd ba 3d
       1.4266979 0.16671923 -0.75122947 0.09118152
000330 66 2f 5f 3f a5 d8 03 c0 d6 7c 65 3e 3b 62 e2 3d
       0.871817 -2.060098 0.22410902 0.11053892
000340 e2 46 1c bf f0 0e b0 bd 4f c3 b6 3d 55 88 b0 3f
       -0.6104566 -0.08596599 0.08923971 1.3791605
000350 30 9b 25 bf f9 30 ab bf 01 57 06 be 14 f5 81 3f
       -0.6468992 -1.337432 -0.13119127 1.0152917
000360 33 10 1d 3e ce 04 f7 3e 98 40 8d 3f f2 cc ed 3e
       0.15338211 0.48245853 1.1035337 0.46445423
000370 19 a6 79 bf 47 a8 1f bf 45 e0 a4 be a0 94 77 3f
       -0.9751907 -0.62366146 -0.32202354 0.9671116
000380 4e e8 1e 3f d5 6c d5 3e 5d 36 a1 bf e5 10 7d be
       0.6207322 0.41684595 -1.2594715 -0.24713476
000390 a2 63 ba bd ce 86 33 3f 48 15 82 bf 1c 48 b4 be
       -0.09101035 0.7012757 -1.0162745 -0.35211265
0003a0 33 39 a5 3c a3 6d 1b 3f c6 f5 df bc bf 78 0c be
       0.020168876 0.6071417 -0.027338874 -0.13717936
0003b0 4e 51 8e 3f 44 e7 4c 3e c7 c8 98 3e 99 a9 e6 be
       1.1118562 0.20010096 0.2984068 -0.45051268
0003c0 2c 38 06 3f a1 f6 47 3f 0c 43 41 3e 35 e1 95 3e
       0.5242946 0.781107 0.18873233 0.29273382
0003d0 3e 7c c1 3c e5 60 4f 3f 3b bf 6f bf 81 6c bd be
       0.023618814 0.81007224 -0.9365117 -0.36996844
0003e0 fc 7b 47 3f cc 5a 31 bf 5b 4e 16 bf 16 64 47 bf
       0.7792356 -0.6927917 -0.5871331 -0.77887094
0003f0 3f 1e 8d 3f 5d 0a a1 be 01 95 ac be 59 c5 d4 be
       1.1024855 -0.3145322 -0.3370743 -0.41556814

rnn.bias_ih f4 [400]
000000 7c 66 a2 be bc ab 90 bd 5f d8 b5 be 4b d5 9f 3d
       -0.31718814 -0.07064006 -0.3551664 0.07804354
000010 f0 aa a6 3e 6d 4b 15 be ef b2 82 3e 0c 68 a1 3e
       0.3255229 -0.14579554 0.2552714 0.31524694
000020 7e 90 46 3e a7 69 57 be d6 ec 76 bd 85 8c 76 3e
       0.19391057 -0.21036397 -0.060284458 0.24077041
000030 aa 06 51 3e 07 7c c2 bd b3 5f 3c 3f f6 9a 11 3e
       0.20412698 -0.094963126 0.73583525 0.14219269
000040 29 c9 57 3e 89 be fc bd 47 95 cc bc f5 4f cf 3d
       0.2107283 -0.12341029 -0.024973525 0.101226725
000050 52 5e bc 3e c9 d2 c8 bd 66 fa d1 be ed 2f 31 be
       0.3679071 -0.09805829 -0.4101135 -0.17303438
000060 6c 4a 5e be 4d 62 1f be df 25 83 bd 15 6a be 3d
       -0.21708077 -0.15564843 -0.06403708 0.09297577
000070 55 ba 98 bd c0 67 dd bd 23 c6 3d be 43 80 b3 3c
       -0.07457415 -0.10810804 -0.18532614 0.021911746
000080 4f cc be be fc 35 4b bd 2e 5b b3 3d 5b 44 24 be
       -0.3726525 -0.04961203 0.087576255 -0.160417
000090 63 c6 8a 3f cd ab 67 be 74 b8 b8 3c bb af 5c 3d
       1.0841793 -0.2262413 0.022548892 0.053878527
0000a0 46 8d c2 be 90 4b 58 be 45 a8 6d be e5 e5 86 3e
       -0.37998408 -0.21122575 -0.23208721 0.2634727
0000b0 90 42 03 be c0 a2 b6 be 6c 29 48 be f7 15 8c 3f
       -0.1281836 -0.35671043 -0.19547051 1.0944203
0000c0 fd 7d f3 3b 37 ee cb bd 75 64 e3 3d 01 df 22 be
       0.0074307905 -0.09957545 0.11103145 -0.15905382
0000d0 a6 2b 58 3f 10 9e 90 bc e6 12 92 3e ae 24 82 bd
       0.844416 -0.017653495 0.28530043 -0.06354652
0000e0 92 fc 9d be c4 01 dd 3d fb 49 41 be d6 5c e9 bd
       -0.30856758 0.107913524 -0.18875878 -0.1139466
0000f0 dd e9 d5 be ab f4 fe 3d 39 91 9c 3e 05 9d 26 3d
       -0.41779986 0.124490105 0.30579546 0.04067709
000100 a2 30 00 3c da df d2 bc 44 cc fa be a1 6a eb 3d
       0.007824095 -0.025741506 -0.48983967 0.11494947
000110 54 4d 4a be 36 55 6d 3d b3 94 5a bd fb 0d 88 3d
       -0.19756061 0.05794259 -0.053364467 0.066432916
000120 0c 41 27 be 76 89 88 3d 71 b7 c8 3d 64 61 ce 3e
       -0.16333407 0.066668436 0.09800614 0.40308678
000130 f1 c2 16 3e 02 c6 25 3e cd 29 16 be a5 b5 db 3d
       0.14722802 0.16188815 -0.14664383 0.10728005
000140 4a e7 2d 3f 88 bd 6c b9 bc c7 15 3f 48 ed ad 3e
       0.67931044 -0.0002257732 0.58507895 0.33970094
000150 12 dc 57 bd 7a 7c 1f bf ae 06 bb 3d 6e f2 87 3e
       -0.05270011 -0.6229931 0.091321334 0.26552147
000160 f6 64 1f 3e 97 6f 63 3e 18 fe 02 3f 43 3d 63 be
       0.15565857 0.22210537 0.51168966 -0.22191338
000170 81 65 ce 3e b4 1e bb be d5 b4 af 3e 86 c2 9d be
       0.40311816 -0.36546862 0.3431765 -0.30812472
000180 87 1f f0 be 13 e2 08 3b b8 49 35 3e 59 62 e8 bd
       -0.46899053 0.0020886704 0.17703903 -0.11346883
000190 16 aa fc be a6 ca c4 3e 59 6c a1 bd 96 1e 71 be
       -0.49348515 0.38435858 -0.07881994 -0.23546824
0001a0 70 70 25 bd 33 31 a1 be 83 cd d5 3d fb 64 92 be
       -0.040390432 -0.3148285 0.10439589 -0.28592667
0001b0 5e 0e 99 be cb 1f 4b 3f 7e 95 74 3e 52 3d 82 be
       -0.29893774 0.7934539 0.23885152 -0.2543741
0001c0 07 32 b4 bd 3d dd 2d 3d 1f 28 9e be 50 ca d2 bd
       -0.087986045 0.042447317 -0.30889985 -0.10292494
0001d0 6c 4d bc bd b4 ad 3c be 84 6c 03 be d6 ab 11 3e
       -0.091944546 -0.18425637 -0.12834364 0.14225706
0001e0 af 80 c5 be b3 05 28 be 92 2b a8 bd 8b e1 c7 3e
       -0.3857474 -0.16408424 -0.082114354 0.39039263
0001f0 15 96 84 3f f2 05 60 be 8f 27 05 3f 79 0d 74 bd
       1.0358301 -0.21877268 0.52013487 -0.05958316
000200 41 28 bd bb a0 6e 05 3f 9c 96 ad be 45 4c c3 3d
       -0.005772621 0.52121925 -0.33903968 0.09536032
000210 2a ad 82 be 79 8a 0b 3f 9e 3b 89 3d f4 6a 60 3d
       -0.2552274 0.5450817 0.06700824 0.0547895
000220 94 b4 69 be 4d fa f4 3e 1d ae 41 be 3d dc 74 3e
       -0.22822791 0.47847214 -0.18914075 0.23912139
000230 34 63 e8 3e 49 a2 2d be 71 40 9b be c9 9b dc 3e
       0.45388186 -0.16956438 -0.30322602 0.43087605
000240 fb b9 7f bd 10 20 95 3e 13 70 06 3f c4 9c ed bd
       -0.062433224 0.29126024 0.5251476 -0.11602166
000250 d6 66 c4 bd ad 86 86 bd 5c cf 42 be 97 4b 60 3e
       -0.09589927 -0.06568656 -0.19024414 0.21903835
000260 37 ef 3f 3e f2 d9 9f be 78 50 79 be fd dc 69 be
       0.18743597 -0.31220967 -0.24347103 -0.22838207
000270 75 e9 21 3e 6e 53 16 3f e8 62 73 be 3a 58 24 3f
       0.15811713 0.58721054 -0.23768198 0.64197123
000280 02 f0 21 be 7f fb cd be 14 87 f6 3d a4 1f 98 be
       -0.15814212 -0.4023094 0.12037483 -0.2971164
000290 ae 2c 4d be 1a 84 5e be ea f5 1d be 17 c0 07 3f
       -0.20036575 -0.2173008 -0.1542584 0.5302748
0002a0 02 f3 c5 be ef a3 f7 be c5 8a e3 3d c3 cc 82 be
       -0.38661963 -0.4836726 0.111104526 -0.25546846
0002b0 26 3f cf 3c ba ad 69 be d1 54 7a be df f0 97 3d
       0.025298666 -0.22820178 -0.24446417 0.074189894
0002c0 90 ca f4 bd c1 16 01 3e 2d c4 37 3f 10 5e 94 be
       -0.11952698 0.12606336 0.71783715 -0.28978014
0002d0 2e e5 14 3f 9c 05 b9 bd e3 05 4b be 81 be 42 bd
       0.581622 -0.09034273 -0.19826464 -0.04754496
0002e0 17 1a ad bd bf 0b 41 3e 01 d0 0d bd 2f 04 a6 be
       -0.08452242 0.18852137 -0.034622196 -0.32425067
0002f0 33 b3 c2 be d1 11 ea bd 0b ed bf be dc 33 df 3d
       -0.38027343 -0.114291795 -0.37485537 0.10898563
000300 96 6b 84 3d 66 c0 93 be c4 e1 20 3f 6a bc f4 3d
       0.06465833 -0.28857726 0.6284449 0.1195
000310 f3 ae 0f be b9 7f 17 3e 10 31 95 be a7 b6 ca 3e
       -0.14031582 0.14794816 -0.29138994 0.39592478
000320 8d ad ed be c3 d4 2f 3e a6 7e 36 3f e6 eb 2a 3f
       -0.4642147 0.17171006 0.71287 0.667662
000330 33 2f ee 3e 6a d4 08 be 3c d7 e3 be 70 89 90 bc
       0.46520385 -0.1336228 -0.44500148 -0.01764366
000340 0d cf b7 be 2b 1d ef 3e 10 96 1e 3f 43 3f ac 3b
       -0.35900155 0.4670194 0.6194773 0.005256565
000350 76 67 02 bf 34 af b5 be 94 54 7b be 7e 67 99 3e
       -0.5093912 -0.35485232 -0.24543983 0.2996177
000360 c6 c0 b1 3e 33 c2 bb be b7 41 c1 be e9 b6 a3 3e
       0.34717387 -0.366716 -0.3774545 0.31975487
000370 e0 a8 15 be 07 7e b5 be e3 b8 f9 3e 7b 97 9a be
       -0.14615202 -0.35447714 0.4877387 -0.30193695
000380 f1 1c 25 bf 88 d4 50 bd e4 c3 e8 bd 94 f8 b2 3e
       -0.64497286 -0.050983936 -0.11365488 0.34955275
000390 6c 72 c4 be 9f c5 ab be 0e b9 94 be e4 02 6f 3e
       -0.38368547 -0.3354921 -0.29047436 0.23340946
0003a0 a0 dc 82 bc 5f f9 0d bf 34 10 42 bf c7 c5 e3 3e
       -0.015974343 -0.55458635 -0.75805974 0.4448683
0003b0 73 ec 5d bf 0e d2 00 bf 04 61 15 be c8 6d de be
       -0.8668892 -0.5032052 -0.1458779 -0.4344313
0003c0 58 fd 95 3e ed 88 05 3e bc 4c eb 3c e2 fa 27 3f
       0.29294848 0.13040514 0.028723113 0.6561719
0003d0 d0 77 08 3f 1b a9 8b 3e eb 2e 93 be c2 06 40 3e
       0.5330782 0.27277455 -0.28746733 0.18752578
0003e0 1b e1 06 3f 70 a4 52 be 03 e5 07 bf d5 73 51 3f
       0.52687234 -0.2057054 -0.5308382 0.8181737
0003f0 f5 10 f7 be 53 e4 ff be 41 de b2 be 51 83 43 3e
       -0.48255125 -0.49978885 -0.3493519 0.19093062

rnn.bias_hh f4 [400]
000000 4b 7e 9f be 03 55 da bd bb 8c bf be a7 a5 08 3e
       -0.3115104 -0.10660746 -0.37412056 0.13344441
000010 e4 18 b9 3e ef 07 0a be 4c 41 74 3e b7 9e 64 3e
       0.36151803 -0.13479589 0.23853034 0.2232617
000020 5a 27 7e 3e f0 ce 9e be 1f 20 8c bd 63 4e 68 3e
       0.24819699 -0.31017256 -0.06842064 0.22686152
000030 06 94 8e 3d 6f 0d 66 be e7 95 4a 3f bb a1 21 3e
       0.06961827 -0.22466062 0.7913498 0.15784352
000040 d8 25 1a 3e f3 29 26 3d 5e bf 42 be 28 f0 13 3e
       0.15053499 0.04056735 -0.19018313 0.14447081
000050 94 e6 05 3f 30 93 43 be f9 f9 ec be 0e 90 13 be
       0.5230496 -0.19099116 -0.46284464 -0.14410421
000060 d3 88 18 be a1 5a 66 bc 44 e6 51 bd c1 db 02 3e
       -0.14895944 -0.014059694 -0.05124499 0.12779142
000070 e0 46 4b bd 35 6c b7 bd 08 20 2a be 66 c6 2a 3c
       -0.04962814 -0.08956186 -0.16613781 0.010423278
000080 14 7a 84 be 7c 55 b8 3c 04 a1 bd 3d b8 cf 56 be
       -0.25874388 0.0225017 0.09259227 -0.20977676
000090 8f a3 9c 3f 41 dc ac be cd 6f dd 3a 35 7b 91 3d
       1.2237414 -0.3376179 0.0016894281 0.07103578
0000a0 71 4c 73 be da d1 73 be ca 9c 9e bd 53 d0 94 3e
       -0.23759629 -0.23810521 -0.07744749 0.2906519
0000b0 6d b3 c0 bd 17 6e 91 be 6d 9a b1 be fc ed 9d 3f
       -0.09409223 -0.28404304 -0.3468813 1.2338252
0000c0 1f 99 ac bc 73 33 b0 bd eb e0 b4 3c 3d 2e 67 be
       -0.021069108 -0.08603563 0.022079905 -0.22576232
0000d0 a1 c5 51 3f 7e 42 6a 3d 6f 18 5e 3e c2 ed 8a bd
       0.8194218 0.05719232 0.21689008 -0.0678363
0000e0 cb 5f 82 be ec de b6 3d d0 68 34 be 60 ce 52 bd
       -0.2546371 0.08929238 -0.17618108 -0.051466346
0000f0 e2 97 aa be 4f 71 6c 3e 0d bf bc 3e a6 9c 3e 3d
       -0.33319002 0.23090099 0.3686451 0.04653611
000100 95 82 22 3e 0b 4b e3 3c 4c 81 bc be b2 3e 0c 3e
       0.15870126 0.027745744 -0.36817396 0.13695791
000110 92 61 20 be 95 a0 27 3e a3 44 a0 bc 3c 23 f8 3d
       -0.1566222 0.16369851 -0.019563979 0.121160954
000120 d2 26 6e be bb df f3 3c 18 06 5a 3e ac 74 9b 3e
       -0.23256996 0.029769769 0.21291387 0.3036245
000130 3a 77 34 3e e5 1f 01 3e a3 1a 5f be b6 12 b3 3d
       0.17623606 0.12609823 -0.21787505 0.08743803
000140 38 ac 19 3f cf 5e 68 bc 22 b1 08 3f 67 48 86 3e
       0.6002841 -0.01418276 0.53395283 0.26227114
000150 22 e3 9a bd a4 f7 1c bf ca a8 a4 3d 77 78 52 3e
       -0.075628534 -0.6131537 0.080400065 0.20553766
000160 a9 1b b8 3d 72 b6 72 3e ee ed 16 3f 20 cb 4d be
       0.08989651 0.2370241 0.589568 -0.20097017
000170 ff 33 a1 3e be 7a f3 be 44 5c a7 3e bc 5a da be
       0.31484982 -0.47554582 0.3268758 -0.4264735
000180 3b 5b ee be f9 42 b8 3c f0 e2 f5 3d 70 ac 5d be
       -0.46553978 0.022492873 0.120061755 -0.21647811
000190 7d 83 0a bf a0 95 d2 3e e2 d3 cf bd d8 31 ff bd
       -0.54106885 0.4112978 -0.10147835 -0.12460679
0001a0 c9 08 b7 bd f6 3c 81 be 64 8f 32 3c d5 bc 12 be
       -0.089372225 -0.25241822 0.010898445 -0.14329846
0001b0 d8 2b 7f be 7d 21 46 3f a7 a9 37 3e 27 1d c9 be
       -0.24919069 0.7739485 0.17935811 -0.39280054
0001c0 b0 ad c5 bd 7e fe 8c bd 04 0b a8 be 91 fc 40 be
       -0.09652269 -0.06884478 -0.32820904 -0.18846346
0001d0 21 67 32 be f6 d4 a9 be c5 25 b1 bd e7 48 87 3e
       -0.17422153 -0.3317029 -0.08649782 0.26422808
0001e0 73 93 de be b9 37 a5 bc 8f 4f 35 be 1d 77 c8 3e
       -0.4347187 -0.020168172 -0.1770613 0.39153376
0001f0 e3 73 93 3f 1b cf 9e be 9a e9 08 3f ee 2f 72 be
       1.1519741 -0.31017384 0.5348145 -0.23651096
000200 4d cd 8e bd d2 6d e4 3e 9c 2a f4 be b4 00 03 bd
       -0.06972752 0.44615036 -0.47688758 -0.031983092
000210 73 76 7a be 49 16 23 3f 46 fc 61 bc 5b 83 1f 3d
       -0.24459247 0.6370588 -0.013793057 0.03894363
000220 40 3f 51 be 25 7c a9 3e 33 a7 84 be aa ed a2 3e
       -0.20434284 0.33102527 -0.25908813 0.31821948
000230 3d 06 0a 3f 8e 76 95 be 3f 56 8e be 3d 36 d9 3e
       0.5391577 -0.29192013 -0.27800176 0.42424193
000240 fd c7 83 3d fe b2 ae 3e 53 2f e4 3e 90 e2 0f be
       0.06434629 0.34120935 0.44567356 -0.1405127
000250 39 ac 4a bd 4f 38 26 be b9 2e 1f be 8b 5d fc 3d
       -0.04948065 -0.16232418 -0.15545167 0.123225294
000260 f5 c9 38 3e cb 8a 9d be b7 89 53 be d1 20 8e be
       0.1804579 -0.30769953 -0.20658003 -0.27759412
000270 a9 83 08 3e c3 b2 19 3f fa df f7 bd 89 0c 36 3f
       0.13331474 0.60038394 -0.12103267 0.7111288
000280 f8 be 2f be 1a 1e ac be 5d 6c 1d 3e 6d 19 a8 be
       -0.17162693 -0.33616716 0.15373369 -0.32831898
000290 6e 14 c1 bd 99 7e 99 be 69 88 a1 be 05 d8 17 3f
       -0.09427725 -0.299794 -0.31549385 0.59313995
0002a0 45 81 92 be 7e 07 dd be 4b 69 26 3e f8 b0 a5 be
       -0.2861425 -0.4316978 0.16251104 -0.3236158
0002b0 46 fd 61 bc 2f fa b1 be 87 d2 7c be 0d 47 50 3d
       -0.013793295 -0.34761187 -0.24689685 0.05084901
0002c0 35 c0 14 be e3 bc b2 3d 40 f2 4e 3f 50 3e 87 be
       -0.14526446 0.087274335 0.80838394 -0.26414728
0002d0 8e 15 06 3f 00 ac 48 bd 86 00 82 be 5d ac 10 3d
       0.5237664 -0.048992157 -0.25391024 0.03532063
0002e0 0f 1b 06 be c7 eb a4 3d 34 d9 b7 bd 71 a1 bf be
       -0.1309626 0.080527835 -0.08976975 -0.37427858
0002f0 12 e5 f4 be a5 62 2d bd f8 ac 88 be b0 0c 3e 3d
       -0.47831017 -0.042330403 -0.26694465 0.04639882
000300 8d 9a 0c bd 09 dc 9d be 47 3b 24 3f 0d 81 88 bc
       -0.03432708 -0.30831936 0.6415295 -0.016663099
000310 5a 67 03 be 95 ab 04 3e 2c 29 bb be e8 d9 c8 3e
       -0.12832394 0.12956078 -0.3655485 0.3922875
000320 da c8 dd be 76 1d 5f 3e 24 76 2c 3f 04 b6 1f 3f
       -0.433173 0.21788582 0.6736777 0.6238711
000330 d9 d1 12 3f ef af a7 bd 39 d9 dd be e4 8e b5 3a
       0.5735145 -0.081878535 -0.4332979 0.0013851789
000340 a7 db 02 bf e2 34 02 3f 53 e2 1d 3f 76 99 94 3d
       -0.5111641 0.5086194 0.6167347 0.07255833
000350 d2 e4 ca be 7a 76 e3 be e5 6d 4e be 67 44 b9 3e
       -0.396277 -0.44426328 -0.20159109 0.36185
000360 60 78 c5 3e af 55 c5 be f7 76 9a be ad 63 ce 3e
       0.385684 -0.38541934 -0.30168888 0.40310422
000370 fa cd 2b 3c d4 a9 b6 be 6d 80 cb 3e 98 a9 92 be
       0.01048612 -0.35676444 0.3974642 -0.28645015
000380 75 83 28 bf c8 c6 47 bd 2f fa a3 bd 91 22 b9 3e
       -0.6582559 -0.048773557 -0.08006703 0.36159185
000390 ea 2e e1 be 99 56 a7 be d6 34 a8 be 17 85 bc 3d
       -0.43981105 -0.32683256 -0.3285281 0.092050724
0003a0 50 26 9f 3d 14 91 ff be a2 2d 1d bf aa 78 d6 3e
       0.077709794 -0.49915373 -0.61397755 0.41888934
0003b0 4f aa 4a bf 59 0a c7 be 36 fc 0f be 91 cc ef be
       -0.7916612 -0.38875082 -0.14061055 -0.4683576
0003c0 03 f0 90 3e c1 67 22 3e f1 06 a5 bd 82 7a 21 3f
       0.28308114 0.15859891 -0.080579646 0.6307756
0003d0 a0 bf e1 3e 30 a3 b6 3e ae 59 91 be 60 47 cd 3d
       0.4409151 0.35671377 -0.28388733 0.10023379
0003e0 55 ac 01 3f ea cc 53 be 38 55 d0 be 10 ee 2c 3f
       0.5065358 -0.20683637 -0.40690017 0.67550755
0003f0 c0 29 d8 be d9 62 1d bf ea 29 c7 be 07 d4 9d 3e
       -0.42219353 -0.61478955 -0.38899165 0.30825827

linear.weight f4 [100, 100]
000000 89 84 67 be 2c 0b 45 be 42 ed fa 3e 35 f9 54 be
       -0.22609152 -0.19242543 0.49009138 -0.2079819
000010 bd 9b cf bf 53 b7 c3 bf 97 cd 87 3f 7a 1a 22 3f
       -1.6219403 -1.5290321 1.0609616 0.6332165
000020 c8 b6 42 3f 8c f2 83 be dd 56 cd be 13 04 0a c0
       0.7606015 -0.25770986 -0.40105334 -2.1564987
000030 3e 68 9a 3e 1c 8e 0d 40 b1 75 dd bf ba 73 be be
       0.30157655 2.2117987 -1.7301542 -0.37197667
000040 ae 1d 4b bf 19 b0 8f 3d 45 b8 4f 3f b9 99 17 bb
       -0.7934216 0.0701601 0.8114055 -0.0023132397
000050 8c 4b 87 bf a7 cc c8 be cd a9 a7 bf d7 2c 0e 3f
       -1.056993 -0.39218637 -1.3098694 0.5553717
000060 3b 73 93 3f ca 70 e8 3f 33 af c4 3f a4 35 a9 bf
       1.151954 1.815942 1.5365967 -1.3219495
000070 63 5c 00 3e d4 4d ec 3e aa c9 0d 3f 46 1c 86 bc
       0.12535243 0.46153128 0.5538584 -0.016370904
000080 8b 4c b2 bf bf 44 04 40 9c e6 b0 3f 03 b0 ec bd
       -1.3929609 2.066696 1.3820376 -0.11557009
000090 e2 3a fd 3e 23 77 c4 3f 71 3c cf 3e 29 6f 2c 3f
       0.49458987 1.5348858 0.404758 0.67357117
0000a0 78 c9 c7 be fb 29 e8 bd 40 05 a4 3d ec 17 7a bd
       -0.39020896 -0.11336132 0.08008814 -0.06105797
0000b0 eb 30 2a bf 8b b0 8c bf 53 74 41 bf 42 67 ad bf
       -0.6648089 -1.0991377 -0.7556812 -1.3547137
0000c0 6f 01 b6 bf f0 5f b9 3f 41 32 10 3f c9 5d 65 be
       -1.4219187 1.4482403 0.5632668 -0.22399057
0000d0 46 ba 39 3f 78 64 7d 3f c7 65 85 be 38 23 db be
       0.72549856 0.9898143 -0.26054212 -0.42800307
0000e0 ce d6 7d bf 0c b0 4d 3e de 05 bd 3f a7 b5 9a 3f
       -0.9915589 0.20086688 1.4767416 1.2086686
0000f0 39 cf 03 3f f9 2f ea bf 1c 1f bc be 5d 85 1d bf
       0.5148807 -1.829589 -0.36742485 -0.6153162
000100 bf d7 c9 3f b6 be 0e 3f e2 01 db bf 38 4f 78 3e
       1.5768965 0.5575975 -1.710995 0.2424897
000110 ea 79 8e bf c1 76 f8 3f 77 16 80 3e a7 d2 7b 3e
       -1.1130955 1.9411241 0.2501714 0.24592076
000120 be 17 f6 bf d1 98 bb 3e b5 33 80 3f ff 03 85 bf
       -1.9225996 0.36640027 1.001578 -1.0391845
000130 96 09 ad 3f 4c 52 f7 3e 7b b9 89 bf bb 7a 05 3f
       1.351855 0.48304975 -1.0759729 0.52140397
000140 86 53 bc be e4 c5 37 3c 78 49 46 bf 95 cf d2 3f
       -0.36782473 0.011216614 -0.77455854 1.6469599
000150 0d e3 8e bf fe 3e 50 be e8 20 78 3f 58 6b 81 3f
       -1.116304 -0.2033653 0.9692521 1.0110884
000160 63 cf c6 3f e9 e1 38 bf 3b 53 73 3f a2 68 58 3f
       1.5532039 -0.7221971 0.95048875 0.84534657
000170 30 89 7b be 94 8f a1 bf 21 86 47 bf 84 69 0e bf
       -0.24564052 -1.2621942 -0.7793904 -0.55629754
000180 10 f5 57 3f 1e 58 91 3f e6 cf c8 be b3 33 37 3e
       0.8435831 1.1355016 -0.39221114 0.17890815
000190 c3 22 2d 3f 3b fc de bc ee 21 e6 bf 06 b0 e7 be
       0.6763117 -0.027219882 -1.7979105 -0.45251483
0001a0 e6 dc 98 bf ad f6 9c be 53 1a a7 3e ea ac 1f bd
       -1.1942413 -0.3065695 0.3263727 -0.038983263
0001b0 eb 64 97 3f b9 85 44 bf ee 70 a4 be 2b ee bd bf
       1.1827673 -0.76766545 -0.3211741 -1.4838308
0001c0 8c 52 3a 3f a2 fb 38 40 e7 eb 98 bf 66 4f 55 3e
       0.72782207 2.8903584 -1.1946992 0.2083107
0001d0 dd ba 84 be e5 21 f3 3e 58 b5 bf 3f cc b4 52 bf
       -0.25923815 0.47486797 1.4977217 -0.82307124
0001e0 3b 43 e0 3e 61 76 66 3f f4 ef c8 bf c1 a5 bc 3f
       0.43801293 0.9002438 -1.5698228 1.4738084
0001f0 b1 8b c3 3f 9a 4b 56 3f ac 37 a3 3f ad 78 73 3c
       1.5277005 0.8370911 1.2751365 0.014860314
000200 3d 05 a9 3f 5a d5 63 3f 3d 9e 59 3f ef b7 23 3f
       1.3204724 0.88997424 0.8500708 0.63952535
000210 8e 5f 09 c0 40 1d 87 3e cc 6d ae 3e a1 ec 0b 3f
       -2.1464572 0.26389503 0.34068143 0.5465794
000220 5f 09 96 3f 4b 4a 24 40 3e c7 3b 3e 0d 82 8c 3f
       1.172161 2.5670345 0.18337724 1.0977188
000230 bf e5 c0 bd 9d b5 a1 be 7c 87 1c 3c 99 a4 71 3c
       -0.094188206 -0.31583872 0.009553786 0.014748716
000240 b6 9d b7 3d ec 3b c7 bf c4 84 82 3f 95 99 02 bf
       0.08965628 -1.5565162 1.0196767 -0.510156
000250 df cc f4 bf 5d cc 49 3e 9f 66 6b 3f 6c 6e 97 3e
       -1.9125022 0.19706865 0.9195346 0.29576433
000260 e6 30 12 3f 6f fe 5d 3f 40 89 80 bc bd 09 a9 be
       0.57105863 0.8671636 -0.015690446 -0.33015242
000270 46 01 be 3d 2e cb bb 3e 9b 32 96 be 05 0b bb 3f
       0.09277587 0.3667845 -0.29335484 1.4612738
000280 95 c6 29 3f 21 d8 e0 bf eb 85 db 3c e3 e3 de be
       0.6631864 -1.7565957 0.026797256 -0.4353324
000290 87 f0 fa bd 6f c7 22 3f 9f 81 57 bf 54 94 a7 3e
       -0.12252908 0.6358556 -0.8418216 0.32730353
0002a0 3b 3c e4 bf 81 ed ef 3f 38 6d 9d be 98 b8 1c 3e
       -1.7830881 1.8744355 -0.3074739 0.15304792
0002b0 90 67 12 bf 47 22 2d bd 9f b8 90 3d 49 ee 8d bf
       -0.57189274 -0.042269018 0.07066464 -1.1088344
0002c0 53 ee 6e 3e 6a 92 8e 3f ec d7 aa bf 4a a6 9f 3f
       0.23333101 1.1138432 -1.3347144 1.2472622
0002d0 6e 7f 64 3e e0 80 17 bf 02 ef 29 3f e7 21 8c 3f
       0.22314236 -0.5918102 0.6638032 1.0947846
0002e0 75 c2 c9 bf 02 d1 82 bd 43 d7 d7 3f 64 05 bc 3f
       -1.5762469 -0.06387521 1.6862568 1.4689145
0002f0 37 66 f6 3f c6 58 88 bf 00 7f 2e 3f fb 73 a7 3f
       1.9249943 -1.0652092 0.68162537 1.308227
000300 e0 3b 83 bf c4 5a d3 bf ab 1f 98 bf e0 3f d8 be
       -1.0252647 -1.6512074 -1.1884664 -0.42236233
000310 6f e6 b6 3f e7 63 26 3f 52 cf 07 bf 95 44 a3 3f
       1.4289073 0.6499619 -0.5305072 1.2755305
000320 f3 3a d0 3e 8f f3 d8 be 0e 63 a1 bf 13 68 86 be
       0.40669975 -0.4237332 -1.2608354 -0.26251277
000330 ed 00 6d bf 8c c4 b4 be 85 2f c6 3e 97 31 f5 3e
       -0.9257954 -0.35306203 0.3870813 0.47889397
000340 4f 13 c3 3f 44 26 54 bf f2 e5 cd bf c7 32 ae bf
       1.5240268 -0.8287089 -1.6085799 -1.3609246
000350 43 9e 6d 3f ef 96 2a 40 8c 63 56 bf ec d0 54 bf
       0.92819613 2.6654623 -0.83745646 -0.8313129
000360 bb 13 c9 be e4 a4 8a 3e 6d c5 ea 3f bd ce af bf
       -0.39272866 0.27078927 1.83415 -1.3734967
000370 ac 96 d0 3d f8 e8 f3 3f 8f f1 8e bf 09 be 47 3f
       0.101849884 1.9055471 -1.1167468 0.78024346
000380 21 2b 64 3f 81 55 92 3f 42 9b 4d 3f 46 c9 04 bf
       0.8912831 1.1432344 0.8031503 -0.5186962
000390 b1 40 32 3f 5d 75 c1 3f ca df 2b 3f 19 56 4f bf
       0.6962996 1.5113941 0.6713835 -0.8099075
0003a0 66 f9 c8 bf 98 27 97 3e f9 7d b3 3f 6e da 3a be
       -1.570111 0.29522395 1.4022819 -0.18247387
0003b0 ac 99 0c 3f 92 0c e7 3f d9 a6 bc 3e 9f 91 f1 3f
       0.54921985 1.8050711 0.36846045 1.8872565
0003c0 90 9e bb bc 27 bd 02 bf af ec 4b 3f d4 23 85 bf
       -0.022902757 -0.51069874 0.79658026 -1.0401559
0003d0 bc 8c 0b bf ec 38 64 bf 6a 9c 9d 3f 64 22 59 bf
       -0.5451162 -0.89149356 1.2313359 -0.848181
0003e0 2f e3 e7 bf bf 37 b0 3f 8a 17 0b 3f f3 99 27 bf
       -1.8116206 1.3767012 0.5433279 -0.6546928
0003f0 7b 85 9f 3f 30 b4 32 3f 26 f4 7e 3f 10 5f 95 be
       1.246261 0.69806194 0.9959129 -0.2917409

linear.bias f4 [100]
000000 a6 e3 8f be 67 6d e7 bd 3d 32 2f 3e c9 03 84 be
       -0.2810337 -0.11300164 0.17109008 -0.25784138
000010 5b d5 9d 3e 36 68 7d 3e c5 6e 23 be 48 cc c7 3d
       0.3082684 0.24746785 -0.15960224 0.097557604
000020 67 27 40 be de 7d 94 be b3 c6 9f 3c 2e 78 23 3e
       -0.18765031 -0.2900228 0.019503927 0.15963814
000030 99 06 d5 3d 17 e4 0e be 00 56 20 3e c1 9a 27 bd
       0.10401649 -0.13954197 0.15657806 -0.04091907
000040 93 2f 0b be 5a c4 dc bd 42 25 6f 3c 1a ca fa be
       -0.13592367 -0.107796386 0.014596285 -0.48982316
000050 af 85 76 be 38 72 a3 3e f8 13 fb 3d ca 0c 23 3e
       -0.24074434 0.3192308 0.12259668 0.15922847
000060 41 fe 8e 3e 26 34 b1 3d 22 8f 12 bf 5b c3 84 3e
       0.27928355 0.08652525 -0.57249653 0.25930294
000070 f1 a4 99 3e ff 2a 1a 3e 65 47 bf bd 73 1b 47 3c
       0.30008653 0.15055464 -0.09339789 0.0121525405
000080 3d cd 12 bd e4 fe 73 bf 1a a1 40 be 8f a6 10 bf
       -0.03584026 -0.9531081 -0.18811455 -0.5650415
000090 61 d5 22 be e4 39 01 be d5 de 14 be 41 8a 86 be
       -0.1590171 -0.1261974 -0.14538129 -0.26277354
0000a0 13 b8 ae 3d 33 7d 73 be 0f e5 10 be 3b 31 69 bd
       0.08531203 -0.23778228 -0.14149879 -0.056931715
0000b0 97 c7 86 bd cc 04 84 be 5e 49 f2 bd f2 8a 45 be
       -0.065810375 -0.2578491 -0.118304 -0.19291285
0000c0 02 07 39 bd 16 ce 14 bd c7 b8 4c bd 06 dd c2 bd
       -0.0451727 -0.03632935 -0.049980905 -0.09514813
0000d0 90 a7 90 be 36 ce 3b be de d0 10 be f2 fd 55 bb
       -0.2825284 -0.18340382 -0.14142177 -0.0032652584
0000e0 d8 86 94 bc 9d 1f 33 be 0d 7f 1e be bb 2a b8 be
       -0.018130705 -0.17492528 -0.15478154 -0.359701
0000f0 43 b4 34 be a8 20 0c 3e f4 a6 0e bf 92 b5 d7 be
       -0.1764689 0.13684332 -0.557235 -0.42130715
000100 6f d6 2b c0 2f 07 2a c0 7b ba 36 c0 e9 34 18 bf
       -2.684963 -2.6566885 -2.8551319 -0.59455734
000110 a6 82 4d bc 12 d9 e5 be f0 b7 0b bf 2d 0f fe bf
       -0.012543356 -0.44892174 -0.5457754 -1.9848381
000120 bb cc 16 c0 a0 4d af bd c6 0e c8 be a6 2e 43 be
       -2.3562458 -0.08559728 -0.3907377 -0.19060764
000130 55 88 1b c0 6d 06 00 bf 1d 56 17 bf 06 4e 0c c0
       -2.430196 -0.50009805 -0.59115773 -2.1922622
000140 9e 91 1d c0 09 69 27 c0 ec 54 59 bf 1a f4 1b c0
       -2.4620128 -2.6157858 -0.84895205 -2.4367738
000150 2a d5 17 bf 12 45 1f c0 b8 c3 a3 be 52 78 08 c0
       -0.5930964 -2.4885907 -0.3198526 -2.1323438
000160 5f 5a 20 c0 3a a2 96 bf da 51 18 c0 14 20 1e c0
       -2.5055158 -1.1768258 -2.3799958 -2.470708
000170 6f 61 08 c0 b4 d5 0f c0 c4 44 50 3f 9a ea 34 c0
       -2.1309469 -2.2474184 0.8135493 -2.826819
000180 c2 cd 8e bf 30 9c 07 c0 db 07 03 c0 8a c3 2b c0
       -1.1156542 -2.118908 -2.0473545 -2.6838098
