Results/Complete Sherlock Holmes/GRU/ASGD/1/100/model.pt (torch, 285087 bytes, 6 tensors)

rnn.weight_ih f4 [300, 100]
00000000: 350d 8ebe ded2 1abf 3908 a5bd f905 67bf
00000010: 0f52 113c d9e0 963e 101d 693e 4df0 793e
00000020: f367 113d da4d 4bbe f714 f7bf caf4 adbf
00000030: 9691 fabe a89a 63c0 a281 c23f d157 e03e
00000040: c0c7 863f b7a7 22bf 6d80 b6bf b682 bebf
00000050: 2057 4abf 7a7f 2b3f fa3d 00bf b3b7 12bf
00000060: 962c aabf 160d b3be 1fc7 52bf 16c3 c43e
00000070: e2da 3640 3d9a be3f f523 8ebe cb13 5640
00000080: c3f7 26bf 4ec4 653f ae17 103e 3d8a c8bf
00000090: de77 9b3f c774 c4be d91c 07be f7d8 803e
000000a0: 93b1 3ebe c116 f2be a705 a6be 42fa 2c3d
000000b0: 001f fa3e a407 76bf 6de1 ccbd e40b e33d
000000c0: 34d7 0abe 46cf 363e fb0a ba3f e92a 48be
000000d0: 888c 603d 1e06 cc3e 82dd 233e 2615 363e
000000e0: ce21 62be 3201 303f be27 6dbe 05b8 cb3d
000000f0: a107 f13f 0fbe e53e b256 fb3e 55d2 d13f
00000100: 9b50 c1bd 8da2 a0bd d0e2 88bb 0470 09bf
00000110: 7362 83be 6c35 b8be ede5 32bf c036 6cbb
00000120: 583b 0a3c acdf 3d3f 0250 77bf b8d7 0ec0
00000130: 11d3 643e 0371 ae3d 88c1 c23e b488 a43c
00000140: 283b fabc 10f2 1bbd fdd6 4bbf 3539 96bd
00000150: fc7f 3f3f 4e93 5f3d 56de be3e 0077 8cbc
00000160: 1f46 9d3d 9b73 b4bd 93ce 1ebd ea75 4dbd
00000170: 0dc0 a3bd 3e35 383d 08e9 70c0 2877 af3c
00000180: 05ed e93e 4046 75bd 1ef3 713d c0b7 62bd
00000190: a5d4 153f 2aea 1ebe 4ac9 653d f2c0 c6be
000001a0: 1d44 d7bd fd2f 4a3f 6c10 20bf fbe4 42bf
000001b0: 070d 9ebf 1633 2dbe 7075 a13f b624 aabf
000001c0: 46cc 1dc0 ca2d ea3d 0d3b bc3d 7728 b3be
000001d0: ee66 c23f 3c6e b9be 4b19 92bf c4c6 a5bf
000001e0: 65f2 9c3f 42f7 903e 75f1 81bf 9c25 4240
000001f0: 8762 1540 b9b8 bfbe 519c c5bf b79b de3f
00000200: 3f70 e63f 9793 d33f af23 d3bf 8d87 00c0
00000210: 92f9 5ebe d8b5 bebe cc52 fe3f e9b1 6dbe
00000220: 4c20 b3be 0475 1fbf b940 84bf 3438 c0bf
00000230: f313 6dbf 8410 b5bc 31bf 9b3e 1df5 10c0
00000240: 12b8 b5bf ee16 ad3b a22c 153f 5794 113f
00000250: 56be e7bf a503 28be 6a1a 313d 7efc c0bf
00000260: 5e82 1cbf bdf3 233f adf0 923f da14 e03e
00000270: dcf4 86bf 005a 5fbf 04a4 22c0 d057 61bd
00000280: cfb5 903e cc13 ed3d b2aa 0ac0 bbfb 85bf
00000290: 71e3 9f3d 3008 343c 8045 af3a d65c d43e
000002a0: 226a 68bd f7f7 a03e 571f f0be d6f7 4d3d
000002b0: e0fa 4dbd 9f72 01c0 45ec cbbf 1f83 30c0
000002c0: 1dac c2bd c179 b4bd 6817 04c0 57ed a63d
000002d0: d9a4 c13d 2db7 95bd 6119 bcbf d8fd 20bc
000002e0: af64 823f 2a13 b1bd 30a9 02bf f438 87bd
000002f0: f8dc 9bbd d5fa 78be 70a3 a6bd a732 48bd
00000300: aa4f 4d3d 077a 1dbd 758e 8cc0 1877 c7bc
00000310: c096 e7bf 3ace 4bbd 70de 13bc a242 203d
00000320: 7a59 e63e 636b 023f 9281 183e 3ef9 2a3f
00000330: 0b66 35bf b0d4 8dbe 392e bbbe 75ea febe
00000340: ccea 5f3e e39d a83e e2f3 a53f e7ce 73c0
00000350: 60da b43f 3294 b2c0 e342 1340 a805 20be
00000360: 2949 8c40 1a9f fe3f 1a18 843f 90bb a3bf
00000370: fac6 113f 5b9c e5bf f103 a83e 216b 0b3f
00000380: 0c7c 3abf 3f90 65bf daf8 353e b177 51bf
00000390: 8b0c 9d3f 3e1a 0f3e 13f4 51bf eb68 13bf
000003a0: a4cf 8dbf 40a7 813f 7ca1 203f 63da bc3e
000003b0: 656b 9ebf bc4b c5bf ad4d ff3f 5de5 f0be
000003c0: ae9e f9bf cbd6 44bf e379 12bf 141e 1140
000003d0: d82c 83bf e426 f5bf b65d 16be 4f7a 803f
000003e0: 4142 d2bf fbea f4be f075 e0bf 8bfe be3c
000003f0: 88eb b3be ed18 c43d 7cd4 1cbf bc77 05c0
-0.2774445 -0.6047801 -0.08058209 -0.9024349 0.008869662 0.2946842 0.22764993 0.24408074
0.035499524 -0.19853917 -1.9303273 -1.3590329 -0.48939198 -3.5563145 1.5195811 0.43817
1.0529709 -0.6353716 -1.4257942 -1.488364 -0.7903919 0.6699139 -0.5009457 -0.5731155
-1.3294857 -0.3497092 -0.82335085 0.3843009 2.8571095 1.489082 -0.27761808 3.344958
-0.65221804 0.8975266 0.14071533 -1.5667187 1.2145956 -0.38370344 -0.13194598 0.2516553
-0.18622427 -0.47282985 -0.32426187 0.042230852 0.48851776 -0.9610541 -0.10003934 0.11086252
-0.13558656 0.17852506 1.4534601 -0.19547619 0.05482152 0.39848417 0.16002467 0.17781505
-0.22083208 0.68751824 -0.23159692 0.09947208 1.8830453 0.44871566 0.4908958 1.6392313
-0.094392024 -0.07843504 -0.004177429 -0.5368655 -0.25661048 -0.35978258 -0.6988209 -0.0036043376
0.008437 0.7416942 -0.9660646 -2.2319164 0.2234614 0.08517649 0.38038278 0.020084716
-0.030545786 -0.038072646 -0.7962492 -0.0733513 0.74804664 0.05458384 0.37279004 -0.017146587
0.0767939 -0.088111125 -0.038771223 -0.05016128 -0.07995615 0.04497265 -3.764223 0.021419123
0.45688644 -0.05988145 0.059069745 -0.05535102 0.58527595 -0.15519014 0.056100167 -0.3881908
-0.105110385 0.78979474 -0.6252506 -0.76130646 -1.2347726 -0.16914019 1.2613964 -1.3292453
-2.4655929 0.11434515 0.091909505 -0.3499181 1.5187662 -0.36216915 -1.1413969 -1.2951283
1.2261473 0.28313643 -1.0151812 3.0335455 2.3341386 -0.3744562 -1.5438329 1.739127
1.8003005 1.6529416 -1.6495265 -2.0082734 -0.21774891 -0.3724811 1.9869018 -0.23212399
-0.34985578 -0.62287927 -1.0332252 -1.5017152 -0.92608565 -0.022102602 0.30419305 -2.2649605
-1.4196799 0.0052822744 0.5827123 0.56866974 -1.8104961 -0.1640764 0.04323808 -1.5077055
-0.61136425 0.6404379 1.1479698 0.43765908 -1.0543475 -0.87246704 -2.5412607 -0.055015385
0.2826371 0.115760416 -2.1666684 -1.0467447 0.07807053 0.01098828 0.0013372153 0.41477078
-0.05674184 0.31439182 -0.4689891 0.050285183 -0.05028808 -2.022621 -1.5931479 -2.758003
-0.09505484 -0.08812285 -2.0639286 0.08150738 0.0945527 -0.07310329 -1.4695245 -0.009826146
1.0186976 -0.086462334 -0.5103941 -0.0660266 -0.07610506 -0.24314435 -0.08136642 -0.04887643
0.0501248 -0.038446452 -4.39239 -0.02434878 -1.809288 -0.04975722 -0.009025201 0.039126046
0.4499014 0.5094511 0.14893177 0.66786563 -0.7085883 -0.2770133 -0.36558703 -0.49788252
0.21866912 0.32932958 1.2965052 -3.8095033 1.4129143 -5.5805902 2.3009574 -0.15627158
4.3839307 1.9892304 1.0319855 -1.2791615 0.5694424 -1.7938341 0.32815507 0.5446034
-0.7284553 -0.8967323 0.1777071 -0.8182326 1.2269453 0.13974854 -0.8201305 -0.5758197
-1.1078992 1.0129166 0.62746406 0.36885366 -1.2376524 -1.5413737 1.994558 -0.4704999
-1.950155 -0.7689025 -0.57217234 2.2674608 -1.024806 -1.9152493 -0.14684185 1.0037326
-1.6426469 -0.47835526 -1.7535992 0.023314735 -0.35140634 0.09575067 -0.61261725 -2.085433

rnn.weight_hh f4 [300, 100]
00000000: d70c 373e cbcf 3d3d daac e13d f94f 7e3f
00000010: 9865 123e edb5 ef3e 5cc5 ac3e 432a 4b3f
00000020: fac5 13be c5d7 a0be 15ea 693e 997f 0bbf
00000030: 9a7c fabd d5a8 373d e525 453e faf4 05bf
00000040: bf78 03bf 6bce 973e 0188 743f 82a2 21bf
00000050: 2f49 6bbc fe2f a2bf 0027 26bf f2ec 323f
00000060: 86d9 2abf ee62 47bf ed5a 92bf e018 9fbe
00000070: 0201 133f 1cd2 64bf b88d adbe 6573 9c3e
00000080: 3e08 46bf df35 2dbf ecaa e83e 1b80 e5bc
00000090: 0057 dbbd c279 99bf 0372 913e 185a 5c3f
000000a0: 8208 c4be b09d b5be 1da3 a6be a827 8c3e
000000b0: 3908 41be 1feb 50bf 0f89 46be 68fc 473c
000000c0: 318e 0d3f e990 fd3e 7578 1d3f d236 553f
000000d0: 4fb6 06bf a606 c5be 73ad 13bf 1329 57be
000000e0: 09dd 3d3e b5ab 2bbf 53b0 ec3e 0dab 313f
000000f0: d8cc b43f 0985 f5be ee76 21be 4edf acbe
00000100: e6ae 7f3f 1114 2bbf c666 17bf f238 df3e
00000110: ee93 85bf dbab b6bf 17b9 a73f 0901 61be
00000120: d9d8 1e3e 40f2 af3e f7bd 8dbf b6f5 553f
00000130: 393a 51be 2d92 783e bc3b 473e a4a9 fdbd
00000140: 248c 7a3d e2c0 383e ca85 69be 6783 173f
00000150: 3408 533e 201b b7be 29bf 2ebe cb3f 18bf
00000160: edc0 4f3f b81f aebe 3922 36bf ca26 f23e
00000170: 239f 613f 2a57 bbbe c34c 463c bb5e 7b3f
00000180: 308c 18bf d55b e0bd 0ea1 ae3e 551b 213f
00000190: 7942 5dbe 2ac8 6c3e 8844 8b3e dcc5 7a3f
000001a0: 3429 87be bfb4 1fbf ace5 b2be c31f 503f
000001b0: 38bb fdbd b4c0 2f3d c105 1dbb 0838 34bf
000001c0: 5010 103f 36b1 ac3e 120e e43e 4b20 e63e
000001d0: 6e7e 6cbe ae7b 24bf 24c1 e1be d08c 8ebe
000001e0: 65fa ac3d 07cf 41be 57d1 853f b98e 85be
000001f0: c1a7 863e e39b 13bf 82f1 03bf 7058 ae3e
00000200: b016 ed3e 9c91 6ebd 71cd 5dbe 48d8 76bf
00000210: f84f 6a3d e8c7 de3e 9001 09be 5db4 10be
00000220: bb6b 23bf 7aaa 573f 0456 533e 1396 e73e
00000230: f87d 59bf 5d42 6e3e b34b 80bd 9cc7 3b3f
00000240: cc36 0fbe 8c01 08bf 2a20 e6be 3ecb b63e
00000250: c17a 85bf 123d ddbd ff3a 803f 45e5 bb3e
00000260: f632 683e 5b4c 5bbf 0b32 a1be d869 a9be
00000270: 31dd e33d 05a3 3f3e 0660 e03e 5877 2fbd
00000280: 8f1b a43f cdee df3d b7da 0c3e 57b4 a8bd
00000290: 7b44 a73e c86a 3c3f a45a 9cbe 4b6d 73bf
000002a0: dcb1 08bf 9be6 4dbf b3bb 7cbf 4127 ab3f
000002b0: 9d76 96bd c3d2 56be 2f0f 333e 9f4a 07bf
000002c0: 3e60 063e 5331 1e3f 8426 223f 9d82 8f3e
000002d0: db1c f13e 8357 593f 5ce9 133e 1324 08bf
000002e0: ebb3 5abe 268c 67bf 2e89 003f ab43 06bf
000002f0: 1084 8cbf b8c0 ff3e 6900 3cbe 8267 54bf
00000300: 1ce4 8ebe 312a 01bf 3d6f 1b3d fe88 5a3d
00000310: 27ef e03e 7f3e 243f ca8e 58bc 8e64 583e
00000320: f1cb 6bbe eff1 ec3e 53aa d53d 59e0 b63e
00000330: 2c99 5cbe 641e 93bf 6d6a b1be d9ee 473f
00000340: 40bf 033c 750e f3be d199 a13e 1f16 82bf
00000350: 9d45 393e 0226 98be 0e76 233f fcf8 0ebf
00000360: 8ce5 4bbf bb35 613f 3c8e b9be 5ee4 aabf
00000370: 19b5 0cbf 3546 683e 1222 9dbf 03ff 31bf
00000380: 8aeb e73e 90e2 4cbe bb00 9a3e 54fe 1a3e
00000390: 4369 b13d 74ba 87bf 1a06 083f 8a09 803e
000003a0: 26d9 853e f6e0 2fbd b284 22bf c825 cf3d
000003b0: f645 f93e 45c8 3a3e ca7a 8fbd 7b9b 053f
000003c0: 1fbe c13e 73a1 cc3e 2175 c3be 62a4 74bf
000003d0: e287 f73e 95f6 973e ffba 4e3e 75cf a93d
000003e0: 27b5 b53e 878d 41be 53a0 883e 4842 213c
000003f0: 36d5 c4be bd12 21bf 1077 1f3e 808c 8e3e
0.17875992 0.046340745 0.11019297 0.9934078 0.14296567 0.46818486 0.33744323 0.7936136
-0.14430991 -0.3141462 0.22843201 -0.54491574 -0.12230797 0.044838745 0.19252737 -0.5232693
-0.5135612 0.29649672 0.95520025 -0.6313859 -0.01436071 -1.2670896 -0.6490326 0.698928
-0.66738164 -0.7788533 -1.1433998 -0.31073666 0.5742341 -0.893831 -0.33897185 0.3055679
-0.77356327 -0.67660326 0.45442903 -0.028015187 -0.10709953 -1.1990283 0.28407297 0.8607497
-0.3828774 -0.3547187 -0.3254632 0.27374005 -0.18850793 -0.81608766 -0.19388221 0.012206174
0.5529509 0.4952462 0.6151193 0.83286774 -0.5262193 -0.38481635 -0.5768654 -0.21011762
0.1854135 -0.6705888 0.46228275 0.6940163 1.4125013 -0.4795306 -0.15768024 -0.33764118
0.9987625 -0.66827494 -0.59141195 0.43598133 -1.043577 -1.4271196 1.310336 -0.21973051
0.15512408 0.3436451 -1.1073598 0.8357805 -0.20432366 0.24274512 0.1945638 -0.12385872
0.061168805 0.18042329 -0.22804943 0.5918488 0.20608598 -0.35762882 -0.1706511 -0.5947234
0.81153756 -0.34008574 -0.7114597 0.4729522 0.8813345 -0.36589938 0.012103262 0.9819142
-0.5958891 -0.109550156 0.3410725 0.6293233 -0.21607389 0.23123232 0.27200723 0.9795816
-0.26398623 -0.6238517 -0.3494085 0.81298465 -0.12389225 0.042908385 -0.0023959728 -0.70397997
0.5627489 0.3372895 0.44541985 0.44946513 -0.23095104 -0.6425122 -0.44092667 -0.27841806
0.084461965 -0.18926631 1.045451 -0.2608545 0.2629986 -0.5765974 -0.51540387 0.34051847
0.46306372 -0.058244333 -0.21660401 -0.9642377 0.05720517 0.4351189 -0.13379502 -0.14131303
-0.6383626 0.842445 0.20638281 0.45231685 -0.8495784 0.23267503 -0.062644385 0.73351455
-0.13985747 -0.5312736 -0.44946414 0.35701936 -1.0428087 -0.10802664 1.0018004 0.36698356
0.2267569 -0.85663384 -0.31483492 -0.33088565 0.11126173 0.18714531 0.4382326 -0.042838424
1.282091 0.109342195 0.13755308 -0.08237522 0.32669434 0.73600435 -0.30537903 -0.9508864
-0.5339639 -0.8043 -0.98723906 1.3371354 -0.073468424 -0.20978837 0.17486261 -0.5284824
0.13122651 0.6179401 0.6334002 0.28029338 0.47092327 0.8489916 0.14444488 -0.53180045
-0.21357696 -0.90448225 0.5020932 -0.52447003 -1.0977802 0.4995172 -0.18359531 -0.8297044
-0.2790841 -0.50455004 0.037947882 0.053353302 0.4393246 0.6415786 -0.013217637 0.21132109
-0.23027016 0.4627833 0.104328774 0.3571804 -0.21542805 -1.149365 -0.3465151 0.7809883
0.008041203 -0.47471967 0.31562665 -1.0163001 0.18092962 -0.29716498 0.6385201 -0.5584867
-0.79647136 0.8797261 -0.3624133 -1.3350942 -0.54963833 0.22683032 -1.2276022 -0.6952974
0.4529689 -0.20008302 0.30078682 0.15136081 0.08662655 -1.0603776 0.5313431 0.25007278
0.26142234 -0.04293915 -0.63483727 0.10114628 0.48686188 0.1824046 -0.07005842 0.5219037
0.37840363 0.39966926 -0.381753 -0.9556333 0.48345858 0.29680315 0.20188521 0.082915224
0.3548977 -0.18901645 0.26684818 0.009842463 -0.38443917 -0.6291922 0.15572762 0.27841568

rnn.bias_ih f4 [300]
00000000: bd8a 5abf 5272 0abf dc76 083d e280 bfbe
00000010: e6ab 3cbf 6067 f4be 30a4 11bf e8df 6abf
00000020: 5dd2 f4be 60fa 08bf c173 68bf e263 60bf
00000030: 4fc9 11bf 774a c4be 4aa8 89bf e5bc 39bf
00000040: f94e 0bbf f678 8cbf 613d 03bf 65fe 4fbf
00000050: 4184 10bf f526 78be 0b78 15bf 38f9 3abf
00000060: 5f82 36bf d627 07bf 0e92 03bf d8f7 07bf
00000070: 2cbb 49bf 0e1c 19bf 74ff 35bf 75a7 8bbf
00000080: 3aac 05bf 3028 25bf 3e19 82bf e541 acbc
00000090: 821c f4be ed8d 16bf 0143 6dbf c8d8 4bbf
000000a0: d127 08bf ef26 0fbf 6430 14bf 8320 29bf
000000b0: 382a 9bbe 6d90 82bf d04f 15bf b8f3 17bf
000000c0: e85f 24bf 3567 92bf bea0 88bf fcd5 61be
000000d0: da41 a3be 4247 24bf b4ab 14bf ef3f ccbe
000000e0: 15ad bdbe 895b d03e 9cc4 3fbf 27f4 cabe
000000f0: 63d6 25bf c139 7fbe f87e 433f cc5f e8be
00000100: 1c2a b3be 8b54 3fbf 211c 18bf b7da 81bf
00000110: f21e 23be 38a9 0cbf 5dee 22bf f523 c7be
00000120: 32b2 69bf f224 e1bd 8f6c ddbe 9040 f5be
00000130: 0368 c8be e49e b93d 7361 32bf d170 3bbf
00000140: 18da 69be c54e 7cbf ddbd 03be 4ec3 34bf
00000150: 0dbb 06bf 5852 5abf 7076 55bf 8621 e9be
00000160: c144 8abf 22b4 c2be 2ce5 ddbe 75e6 c53d
00000170: 0698 e9be 1668 08bf 5cb0 87bf 2ed7 99be
00000180: 3fd7 63bf bed9 85bf 718f e4be 88c1 4abf
00000190: 3ca0 6fbf 9bd9 78bf d793 2bbf c729 84bf
000001a0: 74f0 18bf e172 e4bf d6a6 33bf 05a4 61bf
000001b0: b253 3840 6603 41bf a95d ebbe 1917 68bf
000001c0: f1f7 7fbf d89f abbf 7874 d8be 0035 34bf
000001d0: 98b3 b03d 983a a8bf eda2 24be d640 dd3e
000001e0: f612 63bf c8ae 10bf ed44 b0be 352a 52bf
000001f0: 3b50 87bd 2fda 57bf 4a7e 8abf eaa6 babf
00000200: aa7b 15bf edde 12bd 3071 50bf a3a0 7cbf
00000210: bae0 1fbf 412e 86bf 197a 94bf c385 c1be
00000220: 35c0 2abf c7e7 55bf 4191 9fbf ca0f 55bf
00000230: 9eb1 8fbf 62c1 40bf 1b24 973f 224c b9bf
00000240: 3217 8ebf a2e2 5abf a3d3 a7be 7457 bc3f
00000250: 69c7 77bf d8fb 2fbf 057e 89bf 6c76 97bf
00000260: 340d 5bbf 5ecc 9bbf 3d35 90bc 021c 94bf
00000270: 8749 aebf a92d cabe 3517 57bf ee99 7dbf
00000280: 0df6 82be c945 46bf 3bee 163f 0c0c 82bf
00000290: 01f2 83bf a8eb ddbe 3ab8 a6bf d6de aabf
000002a0: ec00 84be 2524 b8bf 94a4 3ebf 3899 b3be
000002b0: 8580 8fbf f83e e5be 3bcc 2cbf 7a4b 1bbf
000002c0: e4d3 a3bf 6f42 8ebf 0bac 57bf e8f3 d03c
000002d0: 6cb0 e0be e957 5ebf f6d7 3ebf a775 0940
000002e0: 362a 963d cd9f 57bf f99e 4bbf 0203 83bf
000002f0: d502 8cbf 5306 c1bf 46da f0be 0316 9fbf
00000300: 6cc0 b4bf 0286 74bf 46d4 debe 168f a5bf
00000310: 5f84 7b3f 3f33 f5be 86dc 8fbf 03b4 64bf
00000320: 7dfa 1dbe f9e6 353c 3b61 613d a3f9 8abd
00000330: 9a5b 403e 510c b53d 1021 4d3e 1064 febd
00000340: f686 d63d 9868 023b e4ab 27bd e70f e7bc
00000350: 5d1e 8bbd 3bc0 41bc b37c a33c 598d bfbd
00000360: 4950 9b3c 4e2a 9cbd 0e06 2cbe 6cde 16be
00000370: 3dcb c6bc 31ec 5c3d 6fbc 923b d3fc a33c
00000380: 890e 203e be5c 98bd bec6 023e a5a6 a53b
00000390: 5f6f 043c 3865 ec3b e4be a23c 38b5 e0bd
000003a0: 9e36 953d e721 39bd 56bd 363c 4c08 09be
000003b0: ae6d d8bc ce7a 3e3d 540c 39bd ef9f 373d
000003c0: f8a3 5fbc 57e1 5d3e e714 393c de88 88bc
000003d0: b7c8 2ebc cfdc 5fbc 7af2 3b3d 341c a23e
000003e0: e4b7 8a3c 0bb3 34be 8599 75bc ee71 98be
000003f0: 866e dcbd a976 043d 5d01 713d 4fab 43bd
-0.8536795 -0.5408069 0.033316478 -0.37403017 -0.73699796 -0.4773512 -0.56891155 -0.91747904
-0.47816744 -0.5350704 -0.90801626 -0.8765241 -0.569478 -0.38338062 -1.0754483 -0.72553855
-0.5441738 -1.0974414 -0.5126553 -0.8124755 -0.56451803 -0.24233611 -0.58386296 -0.7303653
-0.7129268 -0.5279516 -0.51394737 -0.53112555 -0.78801227 -0.59808433 -0.71092916 -1.0910479
-0.5221592 -0.64514446 -1.0163953 -0.021027515 -0.47678 -0.5881031 -0.92680365 -0.79627657
-0.53185755 -0.5591878 -0.5788634 -0.66065234 -0.30305648 -1.0200325 -0.5832491 -0.5935626
-0.6420884 -1.1437746 -1.0674055 -0.22054285 -0.31886178 -0.6417123 -0.580745 -0.39892527
-0.37046114 0.40694836 -0.7490938 -0.39639398 -0.64780253 -0.24924375 0.76365614 -0.45385587
-0.34993064 -0.7473838 -0.5941792 -1.0144871 -0.15929773 -0.5494571 -0.63644964 -0.3889462
-0.9128753 -0.10993375 -0.43246886 -0.4790082 -0.39141855 0.09063509 -0.69679946 -0.7321902
-0.22837102 -0.9855769 -0.12865396 -0.7061051 -0.52629167 -0.85281897 -0.83383846 -0.4553339
-1.0802232 -0.38028055 -0.43338907 0.09663097 -0.45623797 -0.5328382 -1.0600696 -0.30046982
-0.89000314 -1.0457075 -0.44640687 -0.79201555 -0.93603873 -0.9720704 -0.6702246 -1.032525
-0.597419 -1.7847558 -0.70176446 -0.881409 2.8801084 -0.7539581 -0.45969895 -0.90660244
-0.99987704 -1.3408155 -0.4227636 -0.7039337 0.08628005 -1.3142881 -0.16077776 0.43213528
-0.8870081 -0.56516695 -0.34427586 -0.8209565 -0.066070996 -0.84317297 -1.081979 -1.4582188
-0.5839182 -0.03585713 -0.8142271 -0.9868261 -0.6245228 -1.0482866 -1.1599761 -0.37797365
-0.66699535 -0.8355679 -1.2466203 -0.8322722 -1.122608 -0.7529508 1.1807894 -1.4476359
-1.1100829 -0.85502064 -0.32778654 1.4714189 -0.9678865 -0.6874366 -1.0741583 -1.1833014
-0.8556702 -1.2171743 -0.017603511 -1.1571047 -1.3616189 -0.3948796 -0.84019786 -0.99063003
-0.25578347 -0.77450234 0.5895726 -1.0159926 -1.0308229 -0.43343854 -1.3024971 -1.3349254
-0.25781953 -1.438603 -0.74469876 -0.35077834 -1.1211096 -0.44774604 -0.6749913 -0.60662043
-1.2799039 -1.1114024 -0.8424689 0.025506929 -0.438846 -0.8685289 -0.7454828 2.147806
0.0733227 -0.8422821 -0.7953945 -1.0235293 -1.0938364 -1.5080055 -0.4704153 -1.2428592
-1.4121222 -0.9551698 -0.43521327 -1.2934291 0.9824886 -0.4789066 -1.1239173 -0.89337176
-0.15427585 0.011102431 0.055024367 -0.06785896 0.18784943 0.0884024 0.20032144 -0.12421429
0.104749605 0.0019898769 -0.040935412 -0.028205825 -0.06792901 -0.0118256165 0.019956922 -0.09353132
0.018959181 -0.076252565 -0.16799185 -0.14733285 -0.024266833 0.053936187 0.0044780294 0.020018017
0.15630545 -0.07439564 0.12771127 0.005055266 0.008083194 0.0072142147 0.019866414 -0.10972065
0.07285808 -0.045198347 0.01115354 -0.13382071 -0.026419487 0.046503834 -0.045177773 0.04483026
-0.013649933 0.21667992 0.011296487 -0.016666826 -0.010667971 -0.013663485 0.04588554 0.31662142
0.016933389 -0.17646424 -0.014990215 -0.2977442 -0.10763268 0.032339726 0.05883919 -0.047770794

rnn.bias_hh f4 [300]
00000000: a507 56bf d149 21bf 6c5b 46bd 609c e9be
00000010: 16c1 41bf c63d ffbe 1526 31bf 59b2 5bbf
00000020: a26a efbe 5a01 dfbe 38fc 68bf 58f9 60bf
00000030: 9446 15bf d96b fabe 8c47 88bf 8697 3fbf
00000040: d33b edbe 7816 76bf cd18 1abf 3388 2fbf
00000050: 178b 19bf 6943 c0be 28c6 26bf f929 50bf
00000060: cd14 3abf 1444 0cbf 4e8a 1abf c70a 12bf
00000070: 367e 59bf 4773 2ebf 234b 31bf c279 81bf
00000080: 9eff 03bf 7c34 05bf 2616 63bf 4653 103d
00000090: b302 0bbf 984b 1dbf f4e4 80bf 21a0 50bf
000000a0: ddbc 28bf b210 17bf fe73 08bf 684b 1cbf
000000b0: 62f7 b6be bbe7 87bf 453e 23bf f5fe 0abf
000000c0: e1cb 4ebf 7979 8ebf 7b73 86bf a42f 7bbe
000000d0: 8e27 cebe 0280 46bf 974d 04bf de88 00bf
000000e0: 8f4d c4be 0993 cf3e 0a68 46bf 8085 d5be
000000f0: 452b 06bf bc03 0dbe 0ec8 3f3f 354e 0ebf
00000100: 7888 08bf 0600 42bf a79b 41bf 98c4 8cbf
00000110: 5ef7 76bd 5659 05bf 54b0 16bf 9648 d0be
00000120: e4ef 64bf f5dc 01be 2d72 a6be fdb1 13bf
00000130: 8f42 d2be 321d 3c3e 45ea 17bf 6ff2 3fbf
00000140: e9b5 b9be 4a2c 63bf 779f 83be 312b 3abf
00000150: a899 fabe c750 59bf 21b3 42bf 533f 23bf
00000160: e1cb 8bbf 904f 10bf afa5 0cbf b4fa ae3d
00000170: 1352 e2be ff78 e8be 58ca 76bf 99ab a7be
00000180: 2cca 46bf 617d 85bf 9cec 02bf a21d 3bbf
00000190: adde 57bf d534 83bf 3a6c 45bf 5463 84bf
000001a0: cf70 2ebf 2ea7 e6bf 083c 0dbf f3fa 68bf
000001b0: ad67 3240 bfc6 2ebf 808a 09bf 7a7e 64bf
000001c0: 356c 6dbf f613 a6bf 45d8 d6be 0754 0dbf
000001d0: b261 4c3e 8364 93bf 1d24 7c39 b83b c43e
000001e0: aab5 67bf b2b0 18bf 2696 c6be 3e9d 5fbf
000001f0: e0fd c03c 6642 4ebf 7152 a0bf 5849 bebf
00000200: a21b 10bf 02b6 c73c c8d8 31bf 0ea6 69bf
00000210: 3d2b 47bf 84a8 89bf 4a4e 99bf bb21 babe
00000220: 5606 3fbf 5ede 6cbf b0f5 95bf 4455 57bf
00000230: e6e1 7abf 5ac3 35bf 74fa 933f 5b43 a5bf
00000240: 4596 86bf c0b8 5abf ed93 89be f9e5 bf3f
00000250: 1470 6fbf 8362 31bf c97d 83bf a358 9bbf
00000260: e467 77bf e47a 99bf 4ca5 6dbd 1d5d a8bf
00000270: 7e7a b3bf ea6b c0be fc46 77bf 86b1 85bf
00000280: 63e9 b7be 34d0 50bf e4c5 053f be8a 66bf
00000290: 3a19 82bf a860 c5be f3b1 babf 847d a1bf
000002a0: a8c7 97be 1df3 bbbf e50a 39bf df4c dcbe
000002b0: 0488 97bf bf28 e9be 6e25 32bf 5694 16bf
000002c0: afda a4bf 6faf 79bf 2ed7 47bf 4533 273e
000002d0: 1ed3 d1be 03cb 67bf b607 34bf b3e8 0d40
000002e0: 668a 19bd cf33 31bf 488f 4bbf f7cb 7dbf
000002f0: 23e2 99bf 3c46 babf be57 d4be 179b 93bf
00000300: 73b6 a8bf bf5a 84bf a01d 95be ec29 b2bf
00000310: 9158 8b3f a31a 09bf 60f2 8cbf c298 81bf
00000320: 10f5 3d3f e5c0 ac3b 74a1 43bf 46a1 03bf
00000330: 8868 55bd 35d8 d93e cdad ab3e 7f44 7e3e
00000340: c9b6 093e 48c8 133f ba32 e43d e4d0 683d
00000350: 2ec5 d1be feb7 77bd 4e9c d1bd 302e 64bd
00000360: e879 303f c98a 0cbe 3af4 303e 25a5 cb3e
00000370: ad9f 5bbf d113 613e 4893 fe3e 9c91 b9be
00000380: 3533 813f 76e7 d03c ce52 653f 3180 4f3e
00000390: a9fc 263e 3b00 e8bd 3fa9 843e 4f14 86be
000003a0: 163e 733f 143f af3e b752 86bd f0e0 7dbd
000003b0: 4009 f23e edbd fbbe 339f 01bc 128b e9be
000003c0: 002c d73e 5435 fbbe a87b 6e3d bf46 2abf
000003d0: bdd8 19bc 34d3 91be 0293 483f af68 a23d
000003e0: 0243 23bf 4d92 983e e3b8 073f cd2d 50bf
000003f0: 07c9 4c3f ae7b 4f3f dc55 05bf 451b 7abe
-0.83605415 -0.6300326 -0.04842703 -0.45627117 -0.7568525 -0.49851817 -0.69198734 -0.8581901
-0.46761042 -0.4355572 -0.91009855 -0.8788047 -0.5831082 -0.48910406 -1.0646834 -0.7484058
-0.46334705 -0.96128035 -0.60194093 -0.685672 -0.5997786 -0.3755143 -0.6514611 -0.81314045
-0.7268799 -0.5479138 -0.60367286 -0.57047695 -0.8495821 -0.6814465 -0.69255275 -1.0115283
-0.51561916 -0.5203321 -0.8870567 0.035235666 -0.54300994 -0.6144347 -1.0069871 -0.8149434
-0.6591318 -0.5900985 -0.5330199 -0.6105256 -0.35735613 -1.0617594 -0.6376689 -0.54295284
-0.80779845 -1.113082 -1.0503992 -0.24529892 -0.40264553 -0.77539074 -0.5168089 -0.5020884
-0.38340423 0.40541866 -0.775025 -0.41703415 -0.52409774 -0.13770956 0.74914634 -0.55588084
-0.53333235 -0.75781286 -0.7562813 -1.0997496 -0.0602945 -0.5208944 -0.58862805 -0.4068038
-0.89428544 -0.12681945 -0.32508984 -0.57693464 -0.41066405 0.18370512 -0.5934184 -0.749793
-0.362716 -0.88739455 -0.257076 -0.72722155 -0.48945355 -0.8488888 -0.7605458 -0.637685
-1.0921594 -0.563714 -0.54940313 0.085439116 -0.44203243 -0.45404813 -0.964025 -0.32748106
-0.7765224 -1.0428888 -0.5114229 -0.7309209 -0.8432415 -1.0250498 -0.77118266 -1.0342813
-0.6814088 -1.8019769 -0.55169725 -0.9100792 2.7875779 -0.6827201 -0.5372696 -0.8925549
-0.92743236 -1.2974842 -0.41961876 -0.5520634 0.19959143 -1.1515049 0.00024046046 0.38326812
-0.9051157 -0.59644616 -0.3878643 -0.8734931 0.023558557 -0.80570066 -1.2525159 -1.4866133
-0.56292164 0.02437878 -0.69471407 -0.91269004 -0.7780035 -1.0754552 -1.1977017 -0.3635386
-0.7461904 -0.92526805 -1.1715603 -0.8411448 -0.98000944 -0.7100121 1.1560807 -1.291118
-1.0514609 -0.85438156 -0.2687067 1.4992057 -0.9353039 -0.6929094 -1.0272762 -1.2136425
-0.966429 -1.1990628 -0.058018968 -1.3153416 -1.4021757 -0.37582332 -0.9659269 -1.0444801
-0.35920247 -0.8156769 0.5225508 -0.90055454 -1.0163949 -0.38550305 -1.4585556 -1.2616429
-0.29644513 -1.4683567 -0.7228225 -0.43027398 -1.1838384 -0.455389 -0.69588363 -0.5882009
-1.2879237 -0.97533315 -0.78062713 0.16328152 -0.40981382 -0.90544146 -0.70324266 2.2173278
-0.037485503 -0.6921968 -0.79515505 -0.9913935 -1.2022136 -1.4552684 -0.41473192 -1.1531705
-1.3180679 -1.0340194 -0.29124165 -1.3919044 1.0886403 -0.5355627 -1.1011467 -1.0124743
0.7420206 0.0052720183 -0.7641823 -0.5141796 -0.052101642 0.42547765 0.33531037 0.24830817
0.13448633 0.5772748 0.11142488 0.05683984 -0.4097075 -0.060478203 -0.10234891 -0.05570811
0.68936014 -0.13724817 0.17280665 0.39774433 -0.8579052 0.21980216 0.49721742 -0.36243904
1.0093752 0.025500994 0.89579475 0.20263745 0.1630732 -0.11328169 0.25910375 -0.2618737
0.9501661 0.34227812 -0.06558745 -0.061982095 0.47272682 -0.4916834 -0.007911491 -0.45613915
0.42025757 -0.49064124 0.058223397 -0.665142 -0.009390053 -0.28481448 0.78349316 0.07930123
-0.6377412 0.2979912 0.5301649 -0.81319886 0.79994243 0.81048095 -0.52084136 -0.24424465

linear.weight f4 [100, 100]
00000000: 7502 3fbe a888 ba3e b9ec 153f 6195 2d3f
00000010: 0a84 163f 2b84 d9be 4779 113c eb72 92be
00000020: d4c6 823e f0e6 ffbe 88ec b7be c7d8 f7be
00000030: e66c 123f 8598 a4be 7e2f f3bc ba90 07bf
00000040: 905c ddbd 8cd9 45be eaf2 aebe 844a debe
00000050: 6028 a33f 2daf 083e 0e07 083f bb17 e53e
00000060: 6557 6a3d c027 07bf 26c8 b1bc 4d0b e5bd
00000070: b26e d7be 3138 a7bd 4aee 14bf 341e 17bf
00000080: 114e 643e 3a6c c4be e15d 433f f6da 343f
00000090: 3530 4d3e 57cc 9b3e 5c77 443e 7134 0d3f
000000a0: a935 7abd 0c7e 7cbf cf87 86bf b9e4 683e
000000b0: dcbf 4dbe 9a9b 1d3f 2255 91bf b94e a53d
000000c0: 759d 85bf 3979 d23e 4656 14bf a857 133f
000000d0: 7fe7 0ebf 7382 c8be 7288 863e 3e21 87bc
000000e0: c001 bc3e 797c 5bbf c06c 98be d96a b33e
000000f0: 3b5b 3b3f c14d 0a3f b198 533f a9eb d0be
00000100: 291f 5d3e 432f 27be 18e0 d03e 6819 ef3e
00000110: e27c 2fbf 9c6a b0bf 96f2 ecbc 2000 dabe
00000120: d896 9a3d 43bf 9abc 58cf 0ebf b28c ff3e
00000130: ee97 c4be e2df a53e a402 5ebe 8645 c5be
00000140: c41e 75bf 37df ed3e e27c 18bf b33b d2be
00000150: f283 233e f8df 53bf e671 3b3e 76ea fc3d
00000160: 2eea af3f 39b2 bf3e da96 613d 5ed6 75bf
00000170: 20ad 0cbf e939 17bf d8d8 d2be 2f24 193e
00000180: 96c5 dd3d b8a1 b0bf 900b 05bf fe4a f6bd
00000190: 2e72 9e3d 5a28 803f 16bc 773f 5f58 06be
000001a0: 8d8d b93d d7b7 c4be 60b3 6bbe 57ce a0bf
000001b0: 7dc9 403f 34f6 ccbe 09a7 1a3d e367 cabc
000001c0: 571d 913f 5723 95bd 4dbc 503e a42a 403e
000001d0: 4d97 81be 8d29 a43e cfb0 e3be 3406 edbe
000001e0: 7447 373f 0e2b 42bd 807d f5bb 5cf2 213f
000001f0: 4937 34be cc11 d9bd 5909 98bf 1842 edbe
00000200: f2ec 253e 7d88 ecbe 8ed5 67bf 7dde 66be
00000210: 2141 fabe 90b5 55bf 0352 02be 065b a8bd
00000220: ef15 aabe 5ee4 0c3f 9afb 29bc 1337 173f
00000230: b9e4 7bbe 850a 86be 762c aa3d 637f 493f
00000240: d0e6 77be 5d5f 0e3e 916d b3be 13a1 d73e
00000250: c658 6bbf 1d65 e73e 1097 2abf 8ca4 ebbd
00000260: 9b3c 203f 1209 c9bf d61d 8a3d c65b b9be
00000270: 54e0 063e 8599 b2be cef7 3dbf 641a fb3e
00000280: b4a9 0e3f 2127 293f 141f 3d3f 3285 9c3d
00000290: 7336 fe3e 4050 47bf d780 603f 717c 803f
000002a0: 97ad 3fbe e59d ecbd 1b46 1ebe 60d2 d63e
000002b0: 2b0e 3abe de9d d2be 2524 2bbe dd0b 123f
000002c0: cf92 97be 7d30 ca3e 4b8b 42bf 0506 c2be
000002d0: ee8f 38bf 9f4f 0fbd 179e 4dbf 8f87 3abd
000002e0: 12dc 663f f8bd 2cbf c077 163e b486 a93e
000002f0: 5dd5 4d3f 9fff b13e 61a5 a3bd 760c 84bf
00000300: 7055 e23e 305b 11be 1176 97bd c08e 133f
00000310: 209f ab3f ffe2 90bf 6ca3 57bf 0d0b 23be
00000320: d7ae 403e 2ac5 0f3f 7808 513f 0739 a639
00000330: 4899 583f 8834 9e3e a419 b1bd 0dfb 083e
00000340: 7708 fd3e 5b60 9dbe 5602 8ebe 9ec6 eebe
00000350: 89ed 883f 4f8e f53d 068e e23e 462d ff3d
00000360: 0bfa 35bf 7a8e 91be 6dc5 c33d 35ab c6be
00000370: 5c92 983f c7c9 163e 85a3 5a3d 5696 db3e
00000380: 9b66 2c3d cee7 05bf fffe 19bf 04ef e8be
00000390: cd26 2ebf fef7 403e 95a1 37be dbc2 7bbd
000003a0: 9ee7 07bf 1824 09bf 74ea 413d d856 c83e
000003b0: fbb1 3ebf 540a c4be 2fd5 59be 688d 793f
000003c0: c425 34bf 6ce1 9ebe 8f46 1ebe 2845 3d3f
000003d0: af2d cfbe d6c2 653b 9c07 68be 21c0 f8bd
000003e0: 6a47 96bf 17a1 943e ffd0 8fbf 8134 993e
000003f0: 927a c6be 912f b4bf eae7 2c3f 0f6c 3bbd
-0.18653281 0.36432385 0.58564335 0.6780606 0.58795226 -0.4248365 0.008879012 -0.286033
0.2554232 -0.4998088 -0.35922647 -0.48407575 0.57197416 -0.32147613 -0.029685732 -0.5295521
-0.108086705 -0.19321269 -0.34169704 -0.43416226 1.2746696 0.13348074 0.53135765 0.44744667
0.057212252 -0.5279503 -0.021701884 -0.11183796 -0.4207664 -0.081650145 -0.581761 -0.5903046
0.22295405 -0.3836382 0.7631512 0.7064661 0.20037921 0.30429336 0.19186157 0.55158144
-0.06108633 -0.9862983 -1.0510195 0.22743501 -0.2009272 0.61565554 -1.1354105 0.08071656
-1.0438677 0.4110811 -0.5794414 0.5755563 -0.55821985 -0.39162025 0.26275975 -0.016495343
0.36720085 -0.85736805 -0.2977047 0.35042456 0.7318608 0.54024893 0.82654864 -0.40804794
0.21593918 -0.16326623 0.4079597 0.4669907 -0.6854993 -1.3782535 -0.028924268 -0.4257822
0.075483024 -0.018890029 -0.5578513 0.4991203 -0.38397163 0.32397372 -0.21680695 -0.38529605
-0.9575007 0.46459362 -0.59565556 -0.41061172 0.15968302 -0.82763624 0.18305168 0.123494074
1.3743341 0.3744066 0.055075504 -0.96030223 -0.5495167 -0.5907274 -0.41181064 0.14955209
0.10828702 -1.3799353 -0.5197077 -0.120260224 0.07736622 1.0012314 0.9677137 -0.13119648
0.09060202 -0.3842151 -0.23017645 -1.256297 0.75307447 -0.40031588 0.037756953 -0.02470774
1.1337079 -0.07282131 0.20384331 0.18766266 -0.25310746 0.3206295 -0.44470832 -0.46293795
0.71593404 -0.04740434 -0.0074917674 0.63260436 -0.17599215 -0.105990976 -1.1877853 -0.46339488
0.16203669 -0.46197882 -0.90560234 -0.2254581 -0.48877814 -0.8348017 -0.12726597 -0.08220486
-0.3321986 0.5503596 -0.010374928 0.5906841 -0.2459897 -0.261799 0.083092615 0.7871
-0.24209142 0.13903566 -0.3504453 0.42115077 -0.9193233 0.4519433 -0.66636753 -0.11505994
0.62592477 -1.5705893 0.06743972 -0.3620283 0.13171512 -0.3488275 -0.74206245 0.49043572
0.55727696 0.6607533 0.73875546 0.076425925 0.49650916 -0.77856827 0.87696594 1.0037977
-0.18718563 -0.115535535 -0.1545643 0.41957378 -0.18169467 -0.41136068 -0.16713007 0.5704935
-0.29604194 0.3949012 -0.75993794 -0.37895218 -0.7209462 -0.034988042 -0.8031935 -0.045539435
0.9017955 -0.6747737 0.14694118 0.33110583 0.8040369 0.34765336 -0.07990528 -1.0316303
0.4420581 -0.14194942 -0.07395566 0.57639694 1.3407936 -1.1319274 -0.84233737 -0.15922184
0.18816696 0.56160223 0.8165355 0.00031704476 0.8460889 0.30899453 -0.08647469 0.13377018
0.4942052 -0.30737576 -0.27736157 -0.46635908 1.069749 0.11990034 0.4424898 0.12459807
-0.7108466 -0.28429013 0.0955914 -0.38802496 1.1919665 0.1472541 0.0533786 0.42888135
0.04209004 -0.5230683 -0.6015472 -0.45494854 -0.68027955 0.18844602 -0.17932732 -0.061465126
-0.53087795 -0.535707 0.047342733 0.39128757 -0.74490327 -0.3828913 -0.2127273 0.97481394
-0.70370126 -0.31031358 -0.15456603 0.7393365 -0.4046454 0.0035058758 -0.22659153 -0.12146021
-1.1740544 0.29029152 -1.1235656 0.2992287 -0.3876539 -1.4077016 0.6754137 -0.04575735

linear.bias f4 [100]
00000000: fd3d 26bf 4838 09bf dd30 f9be 3a46 f7be
00000010: 3f7a 85be 3e78 e9be 3684 d9be ac3f 8ebe
00000020: 3d6f dabe 44f3 ccbe 9c34 fb3e 1e60 f3bc
00000030: 8633 2d3d e99d 1c3e 4715 063e 1198 37be
00000040: 66a9 71bd cfe4 483e 8f17 cb3e a620 73bf
00000050: 716d 50bf 745a d53e 986d 13bd b100 bc3e
00000060: 9e22 763e f0db dfbd 37ec 66bf eb77 a43e
00000070: 8d54 e13e 4cd5 dd3e faee 9f3e 1c7f 7dbe
00000080: 7f2c 513e 52ba 40bf c2db be3d ef4a 98bf
00000090: 997d 8cbe 78d7 3abf 55fe 0fbf 1bff 15bf
000000a0: 68fb f5be ad36 f4be 84a3 31bf 10c0 eabe
000000b0: 85b7 64be 6f2d 35bf 783d 15bf f3a9 ccbe
000000c0: 4660 f4be 27d8 b9be 1adc ccbe 8cb2 3bbf
000000d0: 673c cbbe dd26 12bf 83a2 1dbf 4f91 95be
000000e0: 7674 0dbf 84c5 35bf 3d52 f8be ec02 78bf
000000f0: d7e8 02bf 5837 0bbf 9645 a5bf 5078 59bf
00000100: 8117 ebbf 8490 e1bf 0d90 d9bf f4f2 69bf
00000110: 9a9e c2be ae55 54bf c891 73bf 8342 cfbf
00000120: be21 ccbf 33db bcbe 175e 80bf 7b97 afbe
00000130: f38f 41bf d218 88bf 6a77 b9bf d05d d7bf
00000140: d2f0 e6bf 999d e9bf 1856 b1bf e6b8 d4bf
00000150: cd75 63bf 1f66 c8bf c5b0 5fbf 35a1 c8bf
00000160: 0004 d2bf 4dec 6bbf e952 ddbf b176 d3bf
00000170: 814a c4bf 1ea2 d8bf f65e 3a3f e280 dbbf
00000180: 0fef 4fbf eb53 d6bf b607 d6bf e226 d9bf
-0.64938337 -0.53601503 -0.48670092 -0.48295766 -0.2606983 -0.4559955 -0.4248368 -0.27782953
-0.42662993 -0.40029347 0.49063575 -0.029708918 0.042285465 0.15294613 0.13094054 -0.17929102
-0.05899944 0.19618534 0.3966641 -0.9497169 -0.81416994 0.41670573 -0.03599319 0.36719278
0.24036643 -0.109306216 -0.90204185 0.3212274 0.4400982 0.43326795 0.31237012 -0.2475552
0.2042713 -0.752843 0.09319259 -1.1897868 -0.27439573 -0.7298503 -0.56247455 -0.58592385
-0.4804337 -0.47697964 -0.6939013 -0.45849657 -0.22335632 -0.7077245 -0.5829692 -0.3997341
-0.477297 -0.36297724 -0.40011674 -0.73319316 -0.3969452 -0.5709055 -0.615761 -0.29212424
-0.5525583 -0.7100451 -0.48500243 -0.9687946 -0.51136535 -0.5438132 -1.2911861 -0.8494921
-1.8366548 -1.7622228 -1.6997086 -0.9138634 -0.38011628 -0.82943237 -0.9514432 -1.6192173
-1.5947797 -0.36885986 -1.0028714 -0.34295258 -0.75610274 -1.0632575 -1.4489567 -1.6825504
-1.8042243 -1.825122 -1.3854399 -1.6618927 -0.88851625 -1.5656165 -0.87379104 -1.5674196
-1.6407471 -0.9215744 -1.7290927 -1.6520597 -1.5335237 -1.6924474 0.7280115 -1.7148707
-0.8122415 -1.674436 -1.6721103 -1.6964991
