Results/Complete Sherlock Holmes/LSTM/Adam/1/50/model.pt (torch, 144223 bytes, 6 tensors)

rnn.weight_ih f4 [200, 100]
000000 00 fb 5f bd 37 c1 54 3f f5 97 5f be 13 d6 a1 be
       -0.05468273 0.8310732 -0.21835311 -0.31608638
000010 58 b1 b2 3d 8d d9 55 3e c4 79 65 bf 82 9c bb 3d
       0.08725232 0.2088377 -0.89638925 0.09160711
000020 20 de 6c bf ec 4f 02 3f 80 ff 4d 3f ce 10 ea bf
       -0.92526436 0.509032 0.8046799 -1.8286378
000030 5a eb f3 3f cd 12 db 3f 21 94 a9 3d 26 a3 74 40
       1.9056199 1.7115113 0.082802065 3.8224578
000040 4e ce 32 c0 99 a6 27 be ac 5d e7 3e 08 8f 28 bf
       -2.7938418 -0.16372146 0.45188653 -0.6584325
000050 05 85 10 40 84 94 9f bf c6 20 23 40 77 6e 95 bf
       2.2581189 -1.2467198 2.5488753 -1.1674336
000060 f3 13 a5 c0 43 33 90 40 5f 9d 54 40 1d 39 15 bf
       -5.158685 4.5062575 3.3221052 -0.5829027
000070 52 17 a2 3f b2 a4 19 3f 29 40 23 3f b9 94 12 40
       1.2663367 0.6001693 0.63769776 2.2903273
000080 a9 9d 02 40 9c 28 48 40 d4 1a 78 bf 32 e7 4b be
       2.0408728 3.1274786 -0.96915936 -0.19912413
000090 3d 5f 9b bf bb ff e4 3f 99 bc 0b 40 ed a6 6e 3e
       -1.213844 1.7890543 2.183386 0.23305865
0000a0 d2 19 08 c0 0c e8 11 c0 06 a2 55 be df fb 19 40
       -2.126576 -2.279788 -0.20862588 2.405998
0000b0 f1 15 cc 3f 71 13 12 3f 27 48 01 3f 00 69 a4 be
       1.5944196 0.57060915 0.5050072 -0.3211136
0000c0 e7 dc 70 40 2e e9 8f bf 4d ee a1 bf ca 76 66 bf
       3.7634828 -1.1243036 -1.2650849 -0.9002501
0000d0 1e 00 a5 3e 9d f0 c6 bf c3 59 ce bf 4d fb 94 3e
       0.32226652 -1.5542179 -1.6121143 0.29097977
0000e0 cf 40 0e 3f 57 98 0d 40 ad 84 78 bf 5e cc 43 be
       0.5556764 2.212423 -0.9707745 -0.19120929
0000f0 13 37 03 c0 b4 9d 7f be 59 d0 11 bf 57 01 2f c0
       -2.0502365 -0.24962503 -0.5695854 -2.7344568
000100 a9 6e 90 bd 32 2f 92 3d d6 92 07 bd 8a 2b 88 3f
       -0.07052357 0.07137908 -0.033099018 1.0638287
000110 36 ce aa 3f 7b 23 0d bf 22 4d 34 bf 76 50 df bd
       1.334418 -0.55132264 -0.70430195 -0.109040186
000120 05 94 df bd 41 c5 f0 3f a4 02 f8 bf 82 1f 76 3f
       -0.10916904 1.8810197 -1.9375806 0.9614183
000130 93 c7 0d 3d d5 88 0c 3e 95 8b b4 3f b8 22 fb bd
       0.034614157 0.13724072 1.4105097 -0.122624815
000140 90 5f 84 3c d0 e8 af bd 80 f5 0e bf cc 85 b7 bd
       0.016158849 -0.08589327 -0.55843353 -0.089610666
000150 9e 63 01 3f 5d 67 06 3e a7 51 1b 3f 78 3c 8b 3d
       0.5054263 0.13125367 0.60671467 0.06798643
000160 7c e4 c6 3d eb e5 d6 bd 9a d2 ee 3d 80 63 3f 3c
       0.09711549 -0.10493072 0.11661263 0.0116814375
000170 15 8d 03 3e 1e 7e dc bd d9 b9 0e 3f 68 09 9e bc
       0.12846787 -0.107662424 0.5575233 -0.019291595
000180 8c 07 bd be 62 da a3 bd 10 32 2e 3d c8 07 8a 3c
       -0.3691982 -0.080006376 0.042528212 0.016849414
000190 17 d4 85 bf 01 be f0 be ea c0 9c bf d6 5d 8c bf
       -1.045535 -0.4701996 -1.2246373 -1.0966136
0001a0 e8 c0 b7 be b6 14 53 be 81 8d b9 3e 9b 76 a4 be
       -0.35889363 -0.2061337 0.3624077 -0.3212174
0001b0 90 7f 8c bf 55 6b f9 3c 52 f0 fd 3f a3 13 57 40
       -1.0976429 0.030446688 1.9838965 3.3605735
0001c0 1c 3a 2d 3e 30 0f 05 be e4 1b 67 bf 3f e2 6c 40
       0.16916698 -0.12994075 -0.9027693 3.701309
0001d0 38 2d 4f be be 65 39 3f fa 79 8a bf 48 62 ac 3f
       -0.20232093 0.7242087 -1.0818474 1.3467493
0001e0 9b c1 42 c0 04 d2 67 3f c7 a6 51 40 d2 bf 0e 40
       -3.0430667 0.90554833 3.2758043 2.2304578
0001f0 68 e5 dd bf 92 70 ff be db 08 6f 40 13 0d 9f 40
       -1.7335634 -0.49890572 3.7349155 4.970346
000200 55 3d 17 c0 98 18 da 3f 90 0a 72 3f 3a 06 f4 bf
       -2.3631184 1.7038755 0.9454737 -1.90644
000210 31 91 32 40 d6 af 22 3f 83 65 63 3f 4e 2e 04 c0
       2.7901118 0.63549554 0.8882677 -2.0653262
000220 bb 1c 64 bf 30 ae 55 40 59 79 b4 3f f5 0c 2b 40
       -0.8910634 3.3387566 1.4099532 2.6726658
000230 91 97 83 3f 39 ac df 3f fa fc 2a 40 9f ba 64 bf
       1.0280629 1.7474433 2.6716905 -0.8934726
000240 7f aa 1d 3f 1d f2 8a 3f ca cd 38 bf ba d0 89 3f
       0.6158828 1.0855137 -0.7218901 1.0766823
000250 c6 5b a4 3f 46 43 4c 40 39 a7 43 3f c0 c2 2c bf
       1.2840507 3.191606 0.76427037 -0.67484665
000260 25 f8 f5 be 90 03 11 3f 66 0b 14 40 d4 e1 94 3f
       -0.48040882 0.5664606 2.3131957 1.1631417
000270 2a a7 4a bf b7 75 cf 3f 84 93 8e bf 91 9b 00 be
       -0.7916132 1.6207799 -1.1138768 -0.12559344
000280 47 95 c5 bf 3c 2a b1 3e 7d f4 9c bf df b9 0e c0
       -1.5436181 0.34602535 -1.2262112 -2.2300947
000290 70 7d a9 3d 3e 61 fd 3d db 27 f7 bd 8e 3a 18 bf
       0.082758784 0.12372063 -0.12068149 -0.5946435
0002a0 7e 8e b4 bd fa ac 9e be ba 35 37 bf 90 a5 b6 be
       -0.08816241 -0.30991346 -0.71566355 -0.3567319
0002b0 86 a3 8e 3d 68 e1 d0 3e e9 70 3d c0 1c ed 6f 3f
       0.06964783 0.4079697 -2.9600165 0.93721175
0002c0 f7 43 94 be 2c 3a c9 3e a5 93 69 3f 04 42 cc bc
       -0.28958103 0.39302194 0.9124091 -0.024933822
0002d0 fa 92 93 3d e2 09 49 bd 63 2f b7 3f 04 43 14 3d
       0.07205768 -0.04908169 1.4311336 0.036196724
0002e0 1b ff 58 bf 80 bf 61 3d 4a 62 a0 3d 60 cf f3 bd
       -0.8476426 0.05511427 0.07831247 -0.11904788
0002f0 06 ee c0 3d 74 9b 70 bd c2 f3 a3 bd 90 e2 55 3c
       0.09420399 -0.058742 -0.080054775 0.013054505
000300 70 c4 bc 3d 40 bd 38 bd d3 14 07 be 7c 35 5b bd
       0.09217155 -0.045102358 -0.13191538 -0.053517804
000310 c8 28 b7 40 0c 70 54 bd 33 c6 0e 3e 18 c7 56 3d
       5.723728 -0.05186467 0.13942795 0.052435964
000320 96 42 c7 bf 83 71 44 3f ce e9 15 3f 03 a8 6a 3f
       -1.5567195 0.76735705 0.5855988 0.91662616
000330 71 20 8d 3e 07 82 be 3e 73 c5 c4 3d b9 4f aa be
       0.27563813 0.37208578 0.09607973 -0.3326395
000340 98 c5 80 be e7 53 0b 3e 1b 62 09 bf 89 c6 8e 40
       -0.25150752 0.13606225 -0.5366532 4.4617352
000350 af 7f 5c 3f 55 6b 0e c0 06 38 1a 40 45 ee dd 3f
       0.8613233 -2.225301 2.4096694 1.7338339
000360 2f 2a 1d 40 6c 33 0b 40 7c f5 77 3f 5f 97 c6 bf
       2.4556997 2.1750135 0.96858954 -1.5514945
000370 e3 cf b9 bf 06 92 ba 3e 81 f6 58 bd 23 ea 46 40
       -1.4516567 0.36439532 -0.05296946 3.1080406
000380 ab e0 cf 3d bb 3b 0c 3e f7 ed c1 bf 33 17 98 bf
       0.10150274 0.1369466 -1.5150746 -1.188208
000390 43 48 e5 3a d3 64 10 bf 55 e1 70 bf aa f7 49 c0
       0.0017492849 -0.56403846 -0.9409383 -3.1557412
0003a0 fa 05 cf 3e 07 a7 a5 3e 49 ae b6 40 5a 5d 89 bf
       0.40434247 0.32353994 5.708775 -1.0731614
0003b0 d8 ff b9 be 20 ce ae bf 1d 83 3c bf 92 7b cc be
       -0.36328006 -1.3656654 -0.73637563 -0.39938027
0003c0 b8 56 8b bf 7a 5e 84 3e 06 93 08 3f 4d cd 40 bf
       -1.088584 0.2585333 0.5334934 -0.75313264
0003d0 c6 65 0e c0 18 b1 3f bf 27 08 e9 be 72 6d b2 bf
       -2.2249618 -0.748796 -0.45514032 -1.393965
0003e0 12 1d 1b c0 bb 68 d9 bf b0 80 3a bf 4d 97 19 bf
       -2.4236493 -1.6985086 -0.7285261 -0.5999649
0003f0 52 a8 00 40 16 31 2e 3f 4b 27 24 bf 34 96 08 be
       2.0102735 0.6804365 -0.64122456 -0.13338548

rnn.weight_hh f4 [200, 50]
000000 8b 29 11 be 78 66 34 3f e8 0a 07 3f b6 9f 14 3e
       -0.14176004 0.70468855 0.52751017 0.1451405
000010 7f 1f fa bb 82 e5 37 bf 66 a8 9e bd 83 01 c2 3e
       -0.007633149 -0.71834576 -0.07746963 0.37891778
000020 7d ec 59 be f8 08 eb bf fa e1 41 3f 3c 69 93 3f
       -0.2128162 -1.8362112 0.7573544 1.151649
000030 0a cd 43 3f 01 61 ee be 79 f4 ae 3f 49 98 97 3f
       0.7648474 -0.46558383 1.3668357 1.1843349
000040 07 67 96 bf 79 67 f3 bc 41 0a 88 3f d2 05 97 3d
       -1.1750191 -0.029712426 1.0628129 0.07374157
000050 1a 78 05 be 69 7b 99 3f 72 45 b0 be ff 2a ab 3f
       -0.13034096 1.1990787 -0.34427983 1.3372496
000060 a3 fd 1d 3f e1 fd 20 3f 16 c9 ac be 31 df ab 3f
       0.61715144 0.6288739 -0.33747166 1.3427488
000070 99 b3 70 bf b6 71 11 3f 50 d2 cb 3e b6 d7 d6 3d
       -0.94024044 0.56814134 0.39808893 0.10490362
000080 22 a1 cd bd 7c b4 a8 3f a5 06 ef 3d 35 60 3b 3f
       -0.10040499 1.318008 0.11671189 0.73193675
000090 ad ca 71 be 62 46 29 3f 49 66 1b 40 40 8f 2d 3f
       -0.23612471 0.6612302 2.428118 0.6779671
0000a0 3e 5c 4e 3f fa e5 96 3f 5e bc 65 bf 5e a2 6d 3e
       0.806095 1.1788933 -0.8974055 0.2320647
0000b0 52 dd 23 bf a5 f6 ee be 56 63 39 3f 46 58 a5 3d
       -0.64009583 -0.4667255 0.724172 0.080734774
0000c0 e4 21 34 3f 68 fe 1a 40 6b c1 35 3e 5e 0a 44 3f
       0.70364213 2.4217777 0.17749564 0.7657832
0000d0 5f d6 9b be 7f 14 67 3f c5 c7 0c 3f 12 62 fb 3d
       -0.3043699 0.9026565 0.54992324 0.12274565
0000e0 cc 0d 0e bf 99 73 95 3c f2 40 b4 be 53 22 1d bf
       -0.554898 0.018243598 -0.352058 -0.613805
0000f0 b4 19 0c 3e f0 83 20 3f 2f 43 01 3f a4 2b 4b bf
       0.1368168 0.6270132 0.5049314 -0.79363465
000100 0a 11 51 3e 75 92 14 bf 2c b7 3c 3f 7b 9a 24 be
       0.20416656 -0.58035976 0.73717 -0.16074555
000110 3e a8 3e bf 99 b2 ad be 90 0c 49 bf be 35 62 bd
       -0.7447547 -0.33925322 -0.78534794 -0.055227034
000120 f8 00 f1 3b eb 3d 48 3f 43 5d 0e 3f 9f df 46 3f
       0.007354852 0.7821948 0.55611056 0.7768497
000130 52 87 d1 bf b8 24 d1 be ba 18 9a bd e8 77 c7 bf
       -1.6369421 -0.40848327 -0.075242475 -1.5583467
000140 3e 2f 16 bf 08 91 0e 3f 77 d4 d7 3e fe 9a 2d 3e
       -0.58665836 0.5569005 0.42154285 0.16953656
000150 a6 7d 86 3f 88 77 90 3f d0 de b7 bf c4 cd ff bd
       1.0507095 1.1286478 -1.4364872 -0.124904186
000160 db e8 7c bf 56 c7 36 bf 94 ab 12 c0 0f fd 88 bf
       -0.9879281 -0.7139791 -2.2917223 -1.0702227
000170 5e e5 04 3f 09 24 8c 3e 14 b4 4a bf 59 4d 80 3f
       0.51912487 0.27371243 -0.7918103 1.0023605
000180 c2 97 2a 3f 11 c7 51 be ce 15 b0 3e d4 a3 de be
       0.66637814 -0.20486094 0.34391636 -0.43484366
000190 cc 2f 87 3e b1 de 80 3f 7f 3a 15 bf ae f4 71 bd
       0.26403654 1.006796 -0.5829238 -0.059071235
0001a0 9b bf 1e 3f 4a 6a b8 3e 92 13 b4 3d d0 a6 d6 bf
       0.62011117 0.36018592 0.08792795 -1.6769657
0001b0 51 74 1c 40 02 ca 0b 3f 2f 9e ee 3e 9d bf 9e 3f
       2.4445994 0.54605114 0.4660506 1.2402226
0001c0 00 4f 12 bd c4 f1 02 3e 3f 49 46 bf 9c 92 59 bf
       -0.03571987 0.12787539 -0.77455515 -0.84989333
0001d0 d5 f6 5d bd 62 71 99 bf 06 80 bc bf 2c d8 8d be
       -0.054190475 -1.1987727 -1.472657 -0.2770399
0001e0 b2 db a6 3e 2f cb 84 bf ac 5e 00 3f 78 4e ca 3f
       0.3258949 -1.0374507 0.5014446 1.5805197
0001f0 e4 d4 04 bf 47 9d 09 be 4f a1 aa 3e 19 1d 94 3f
       -0.51887345 -0.13438903 0.33326194 1.157138
000200 d6 1a 0d 3f 2d 4c 3f bf 1e 3d 1d bd e5 b5 82 3e
       0.55119073 -0.7472561 -0.038388364 0.255294
000210 f3 f2 a9 3e ea 10 ba bd 9c ae 07 3f 5e 29 67 3f
       0.33193168 -0.09085257 0.5300081 0.90297496
000220 d7 02 8e bf 51 0a aa 3c 3d 87 7a 3f 4e 12 4f 3f
       -1.1094617 0.020756872 0.9786261 0.80887306
000230 f1 02 df be 7e 9a 9d be 00 d3 5d bf a4 73 c5 be
       -0.43556932 -0.3078193 -0.86650085 -0.3856479
000240 14 db 23 be 44 9f 88 3f fc 0a d0 3f ad 9f 5f bf
       -0.1600154 1.0673604 1.6253352 -0.8735302
000250 72 07 01 40 59 d1 a1 bf 05 84 69 3e 65 1c bf 3e
       2.0160794 -1.2642013 0.22804268 0.3732635
000260 03 af 2b 3f 65 ac 01 bf 46 77 2c bc 6f a3 d7 bd
       0.6706392 -0.5065368 -0.010526484 -0.10529219
000270 a5 2b 9b 3d 44 d6 9a be 73 aa 0b 40 1b f6 06 3f
       0.07576684 -0.30241597 2.1822784 0.5271928
000280 1b 91 7c 3e f8 92 83 bd 4f 74 ea 3c bb 74 4e be
       0.24664728 -0.064245164 0.028619913 -0.20161717
000290 1d 2f 87 3d 18 ec 91 be d6 0a 14 3f 3d da 8c 3f
       0.06600783 -0.28500438 0.57829034 1.1004101
0002a0 46 93 44 3e 84 1c d9 3e 21 d2 51 bf 17 62 a9 bf
       0.19196805 0.42404568 -0.81961256 -1.323306
0002b0 48 6f 1d bf 6d 7b 41 bf 47 0a 32 3f c9 f9 e8 3f
       -0.61497927 -0.7557896 0.6954693 1.8201228
0002c0 35 78 06 3e 09 58 3f 3f 6a 3e 56 3f cd d6 20 3e
       0.13131793 0.74743706 0.83688986 0.1570694
0002d0 e7 3c 7b 3d bd fa db be 5d 75 47 3d 0a ca a5 be
       0.061337378 -0.42964736 0.04869591 -0.32380706
0002e0 43 c2 c4 bf 63 a5 af 3f 0a 71 c1 bf 02 f7 7a be
       -1.5371784 1.3722347 -1.5112622 -0.24508289
0002f0 7e 8a c0 bf 56 2f 94 bf 5f 65 00 3f 89 2b 1c 3f
       -1.5042264 -1.1576946 0.5015468 0.6100393
000300 ca e4 03 3f 84 fd 44 3f 4f 75 8d be c0 30 86 3e
       0.5152098 0.76949334 -0.27628562 0.26209068
000310 0a dd 63 be 4c d1 c2 3d 03 01 75 3f 39 b5 04 c0
       -0.22252288 0.095125765 0.9570467 -2.073561
000320 59 90 4a bd 27 14 3a 3f 77 27 49 bd d4 14 4b bf
       -0.049454067 0.72687 -0.049109902 -0.79328656
000330 e4 ca 16 3f 16 25 e1 bf d2 a5 83 3f 84 7e a5 3f
       0.58903337 -1.7589443 1.0284979 1.2929235
000340 5c e9 6f be 4b 89 10 3f 54 74 3e be 8c a8 a6 bf
       -0.23428863 0.5645949 -0.18599063 -1.3020186
000350 90 86 ab be 46 32 8e be 98 3f 4c be 19 1d b1 3d
       -0.335011 -0.2777273 -0.19946134 0.08648128
000360 88 84 27 bf 71 fc 4e bf b9 22 a0 be 43 3b 42 be
       -0.654366 -0.80853945 -0.3127649 -0.18967919
000370 e9 ee aa 3f e4 96 81 3f ed 25 2a 3f 36 cd 82 bf
       1.335416 1.0124173 0.6646412 -1.0218875
000380 8b a7 ed 3e 44 5c 5e 3f ac b4 47 3e 23 97 68 be
       0.46416888 0.86859536 0.19502515 -0.22713904
000390 37 8e 24 be c6 8c 49 3f df da c6 3f d4 87 0a bf
       -0.16069876 0.7873043 1.5535544 -0.5411351
0003a0 89 c5 f2 3d 19 1e 77 3e 7f ec db be 45 90 bf be
       0.11854083 0.24132575 -0.4295387 -0.37414756
0003b0 78 15 ab bf 7f f2 f2 be 77 0b f6 3c 93 c3 c1 3a
       -1.3365927 -0.47450635 0.030034764 0.0014783017
0003c0 77 8d 26 3e 62 88 00 3d 67 5c 6f 3f bc 15 98 be
       0.16264902 0.031380065 0.9350037 -0.29704082
0003d0 de 95 51 be 95 f9 24 3f 9e 79 6e 3e 8f 56 24 3f
       -0.20467326 0.6444333 0.23288581 0.6419458
0003e0 9e 63 f6 3f 2f 76 f5 be 78 81 3a bf f4 91 88 3f
       1.9249151 -0.4794173 -0.72853804 1.0669541
0003f0 05 4e a4 bf d8 bc 6b bd 89 86 da bd 84 a6 ea 3e
       -1.283631 -0.057553142 -0.10670192 0.45830166

rnn.bias_ih f4 [200]
000000 91 f9 83 3e 72 bb eb 3d a6 d8 63 3e 1b 60 e7 3e
       0.25776342 0.11510362 0.22250614 0.4519051
000010 b6 6c 17 3f 06 55 22 3e d6 64 3f 3f 6f 69 ba 3e
       0.59150255 0.15852746 0.7476324 0.36408564
000020 c1 bb cb bd 24 11 ff bd 4f e8 e4 3e 11 80 c4 3e
       -0.099479206 -0.12454441 0.44708487 0.38378957
000030 45 8f d5 3e e7 d7 b2 3e 07 b1 7e be 52 28 13 3f
       0.41710868 0.34930345 -0.24872218 0.574834
000040 a3 3a 9d 3e 72 fa cc 3e 9e 4a ad be d5 0a 7a 3f
       0.307088 0.40034825 -0.3384599 0.9767278
000050 41 51 d9 3e 77 cb a3 be 53 89 90 3f 77 e8 3b bc
       0.42444804 -0.3199117 1.1291908 -0.011468998
000060 60 98 04 3f 03 a8 f3 3e 82 4d ea 3e 90 00 aa 3e
       0.51795006 0.4758912 0.4576226 0.33203554
000070 1e 7a 06 3e c4 7d a6 3d 82 27 8f 3c bd c3 e9 3d
       0.13132522 0.08129457 0.017474893 0.11414287
000080 5e 89 02 3f 6c e2 28 3f 43 e9 0e 3f 4d d7 11 3e
       0.50990856 0.6597049 0.5582468 0.14242287
000090 00 5f 84 3f 04 44 8b 3e 29 97 9d 3f 64 ce 55 3f
       1.0341492 0.2720033 1.2311755 0.8351805
0000a0 29 82 ae 3e e0 ed bb 3e e5 5d dc 3e 22 32 00 3f
       0.3408368 0.36704922 0.43040386 0.50076497
0000b0 f5 77 5d 3f d3 96 82 3e f0 f4 e8 3e ee c7 58 be
       0.86511165 0.25505695 0.45499372 -0.21170017
0000c0 8b 47 26 3e be 32 9d be fe 4f 60 bd 43 ff 27 bd
       0.16238229 -0.30702776 -0.054763786 -0.04101492
0000d0 61 37 68 bd ec 73 3b be cb 91 02 be 95 35 44 be
       -0.05669344 -0.1830594 -0.12750928 -0.19161065
0000e0 cf 60 09 be 2c 12 eb 3d a7 af 8d be 3f be 0a bf
       -0.13415836 0.114780754 -0.27673075 -0.5419654
0000f0 57 1e 41 3e 5a 8f a1 bc d6 48 74 be 2b 4d 18 be
       0.1885923 -0.019721676 -0.2385591 -0.14873187
000100 2e 86 93 be d7 72 f5 bd 16 f8 46 be 44 93 c1 be
       -0.28813308 -0.119847946 -0.19430575 -0.37807667
000110 21 78 14 be e7 9e 4d be bd de 4c 3e d5 d3 10 3f
       -0.1449895 -0.20080148 0.20006843 0.5657323
000120 f5 3c 21 be 0c 09 a3 bd 5b 55 85 be 55 b7 e3 bd
       -0.1574591 -0.0796071 -0.26041684 -0.11118952
000130 3a 87 90 3e 3d b3 6d be 73 7e 21 bd 6b f3 ef 3b
       0.2822817 -0.23212905 -0.039427232 0.007322719
000140 47 f7 a5 3c d6 20 ca 3c 49 1d e7 be db 87 e8 bd
       0.020259513 0.02467386 -0.4513953 -0.113540374
000150 23 72 d4 bd 39 b7 a9 be b0 01 cd 3d 1b 2c 69 be
       -0.10373332 -0.331476 0.100100875 -0.22770731
000160 60 2b 2b 3e cc 26 56 3e 36 76 90 be c0 9b eb bd
       0.16715765 0.20913237 -0.28215188 -0.11504316
000170 7c d0 b7 bd c2 b7 84 3d b9 90 01 be 8b a3 a2 bd
       -0.08975312 0.064803615 -0.12652864 -0.079413496
000180 b1 c4 4d 3e 0a 88 8c 3c fd b5 4c bb 91 47 87 be
       0.20094563 0.017154712 -0.0031236403 -0.26421788
000190 9c 1f a0 be 84 47 25 3e 63 45 90 3e ec b6 0c 3f
       -0.31274116 0.16140562 0.28177938 0.54966617
0001a0 27 ce be be c8 c4 9d be 7f 9b 26 bf 2a 2d f6 bd
       -0.37266657 -0.30814195 -0.6508102 -0.12020333
0001b0 62 35 28 3e 9f 07 49 bf f8 5c bb be 94 93 33 3e
       0.16426614 -0.78527254 -0.36594367 0.17536765
0001c0 83 e9 e0 be e7 6e 73 3f ea e2 19 bf 5c 01 58 be
       -0.43928155 0.950911 -0.6011187 -0.21094269
0001d0 39 ea bb 3e 8a 21 35 3e 66 62 f7 be 15 4a 2b 3e
       0.36702135 0.17688575 -0.4831726 0.16727479
0001e0 95 49 10 3f f4 13 0b 3f 49 33 fe be 2d 26 b9 3e
       0.5636228 0.5432732 -0.49648502 0.36161938
0001f0 32 a4 cc be 83 7e 08 3f 07 73 55 be 53 49 4e 3e
       -0.3996902 0.5331804 -0.2084466 0.20145158
000200 51 3a 8f be d1 32 37 bf 4a b6 4c 3f c6 27 f2 be
       -0.2797418 -0.71561915 0.7996565 -0.4729597
000210 76 d5 87 3c ad cc d2 3e 9f 3c 17 bf 4c 8a b8 be
       0.016581278 0.4117178 -0.59076875 -0.36043012
000220 f0 45 9c be c3 1c 9f 3e 4e d5 92 bf d3 23 11 be
       -0.30522108 0.3107663 -1.1471345 -0.14173822
000230 73 25 32 bf 98 d1 62 be 2e 8f 44 bf b0 23 4f bf
       -0.6958839 -0.22150266 -0.76780975 -0.8091383
000240 27 7b 10 3f fb ca 46 3e 04 93 17 bf 0e 77 28 3f
       0.56437916 0.19413368 -0.59208703 0.65806663
000250 eb aa f1 3e 60 2b 20 3f 5a 7b d5 3c 43 7a d1 3e
       0.47200713 0.62566185 0.026059795 0.4091359
000260 23 a0 5c 3d d0 bb 35 bd 21 75 57 be 84 e9 7b be
       0.053863656 -0.044368565 -0.21040775 -0.24600798
000270 01 44 a3 be 5f 0d 13 bf 4c b1 af 3e ce 32 ef be
       -0.3188782 -0.5744228 0.34314954 -0.46718448
000280 10 be 6f be 4b 01 69 bd b6 e0 ca be 12 69 58 3e
       -0.23412347 -0.056886 -0.39624566 0.21133831
000290 f6 29 d5 3e b5 4f 81 be 25 e9 b4 bc be 4f ff be
       0.41633576 -0.25256124 -0.022083828 -0.49865526
0002a0 9f aa 85 be 31 35 33 3f 38 c7 70 bd 0c 1d 43 3d
       -0.26106736 0.7000304 -0.05878374 0.047635123
0002b0 34 f0 77 be d6 b7 e7 bb 57 32 9e be e4 68 b3 bc
       -0.24212724 -0.0070714755 -0.3089778 -0.021900602
0002c0 7b 1e b1 bd 3a 18 fd 3c bb 40 c3 be 88 b0 a1 3c
       -0.08648392 0.030895341 -0.38135323 0.019737497
0002d0 bf 78 c9 be f4 c4 4b be 98 5a 4c 3e 3d 57 42 3f
       -0.39349934 -0.1989935 0.19956434 0.75914365
0002e0 e4 d4 63 be 77 55 5e 3d 06 53 92 3e 21 28 07 be
       -0.2224918 0.054280724 0.28578967 -0.13198902
0002f0 4c 95 1b bf 8d 80 29 3f b9 08 40 be 22 98 3a be
       -0.60774684 0.6621178 -0.18753327 -0.18222097
000300 41 c6 28 bb e2 da a0 be 66 56 a0 be a3 16 a4 3e
       -0.0025752934 -0.31416994 -0.31315917 0.3204852
000310 1a 7e 53 be f9 15 59 bd c7 8e f1 bc ed dd 8e be
       -0.20653573 -0.05299947 -0.029487027 -0.2790369

rnn.bias_hh f4 [200]
000000 5e bb a8 3e 7c 1e 80 3e 31 11 34 3e f7 a7 ce 3e
       0.3295545 0.25023258 0.17584683 0.40362522
000010 5d 2a e4 3e 4d 54 2a 3e 08 e4 19 3f c8 c3 09 3f
       0.4456357 0.1663372 0.60113573 0.53814363
000020 49 9b d3 3b 2c dd 0b bd 36 86 44 3e 11 7c 9f 3e
       0.0064577204 -0.034146473 0.19191822 0.31149343
000030 84 d5 c7 3e 69 76 04 3f 74 65 92 be b3 3b 4f 3f
       0.39030087 0.5174318 -0.28593028 0.8095047
000040 fc 0f 19 3e 9b eb cf 3e de f8 cf bd ec 68 6c 3f
       0.14947504 0.4060944 -0.101548895 0.923476
000050 f3 d8 17 3f 71 3d b1 be d6 50 80 3f 35 94 d5 bb
       0.59315413 -0.3461719 1.0024669 -0.006517912
000060 bd eb b9 3e bd e7 09 3f 28 b0 a2 3e 7d 5a a3 3e
       0.36312667 0.5386923 0.31775022 0.31904975
000070 6d 0a 8c 3e c7 76 18 3e 84 08 f1 bc 57 cd b1 3d
       0.27351704 0.1488906 -0.029423006 0.086817436
000080 78 5e ac 3e 4f e8 2f 3f 95 7e 17 3f 88 2c aa 3d
       0.33665824 0.6871385 0.59177524 0.08309275
000090 fc 68 92 3f 75 4c ba 3e ff c6 92 3f 8d 4c 50 3f
       1.1438289 0.36386457 1.1466979 0.8136681
0000a0 46 a2 16 3f 7d c3 da 3e 6c e3 ab 3e 06 51 9d 3e
       0.5884136 0.4272727 0.33571947 0.30725878
0000b0 41 c3 2e 3f f7 02 2f 3e e0 05 27 3f fb ed a9 bc
       0.68266684 0.17090975 0.6524334 -0.02074336
0000c0 fb c3 c2 3e c9 b8 9e be 0b 86 98 3d 10 a4 03 3e
       0.38040146 -0.31000355 0.07447442 0.12855554
0000d0 ab 07 57 3d dd f1 38 bc 3e 42 85 be cd 10 9f be
       0.052497547 -0.011288133 -0.260271 -0.31067505
0000e0 3f eb 06 be ff f8 2b 3d 41 2e 8c be 19 1e 01 bf
       -0.13175677 0.041985508 -0.2737904 -0.5043655
0000f0 06 f9 5f 3e b3 3c 56 bb 30 a5 13 be 85 96 93 bd
       0.21872339 -0.0032689988 -0.14418483 -0.07206444
000100 6b 90 0f be 0d e1 55 be 17 36 1d be 49 48 ca be
       -0.14019935 -0.20886631 -0.15352665 -0.39508274
000110 ed f5 bf be df 7a 88 be 90 02 af 3e 45 6f 15 3f
       -0.37492314 -0.26656243 0.34181643 0.5837291
000120 52 89 26 be 6f 7f 0d 3e 39 b8 1e be 92 83 9a bd
       -0.16263321 0.13818143 -0.15499963 -0.07544626
000130 0d eb 84 3d 3e ba ac be 15 b2 f0 bd 6e 36 4e bd
       0.06490145 -0.33735842 -0.117527165 -0.050344877
000140 26 10 c8 3d 2c ea 13 be e4 29 e3 be 50 90 36 be
       0.09768705 -0.14444798 -0.44367898 -0.17828488
000150 4b 8b ae bd 9d c8 bb be 44 29 c8 bd 78 3a 46 be
       -0.08522662 -0.36676493 -0.09773496 -0.19358242
000160 b8 d2 15 3e ba 37 07 3d ae 10 67 be f2 13 31 be
       0.14631164 0.03301213 -0.22564957 -0.17292765
000170 3e 96 bb 3d 62 83 87 3c ce 18 81 bd cb 8c 3e be
       0.09159516 0.01654214 -0.06303559 -0.18608396
000180 1c fc f0 3d 1e 7f fd 3d 2b a2 18 be 0f 23 94 be
       0.11766836 0.12377761 -0.14905612 -0.28932998
000190 1f 32 f3 be 7b ab 50 3e 8c 35 d7 3e 81 0b 48 3f
       -0.47499177 0.20377915 0.4203304 0.78142554
0001a0 26 8f 1e bf f6 71 8a be 9f ca 1e bf 48 32 82 be
       -0.6193718 -0.2704007 -0.62027925 -0.25428987
0001b0 e0 75 23 3e 73 89 0f bf 2b a1 83 be ba c9 50 3e
       0.15962934 -0.56069106 -0.257089 0.20389453
0001c0 c0 99 ed be 2f ce 51 3f 26 4b 19 bf d3 00 96 be
       -0.46406364 0.81955236 -0.5988029 -0.29297504
0001d0 95 d9 63 3e a9 af 52 3e 23 53 a6 be 4d e3 04 3d
       0.2225097 0.20574822 -0.32485303 0.032443333
0001e0 01 ca ed 3e 50 6f 04 3f 3c 59 e3 be 0a dc 8b 3e
       0.4644318 0.5173235 -0.44404018 0.27316314
0001f0 db 19 d9 be 2b 31 c7 3e 6f c9 9a be f1 2a 95 3e
       -0.4240254 0.389047 -0.30231807 0.29134324
000200 30 b4 37 be ed 2a 48 bf bc 54 55 3f fa 23 b7 be
       -0.1793983 -0.781905 0.8333242 -0.35769635
000210 58 68 64 bd 5d a3 e3 3e 7c 15 e5 be 0b 50 00 bf
       -0.055763572 0.44460574 -0.44742954 -0.50122136
000220 4f 14 ed be cd 43 07 3f df eb 82 bf 3f 33 32 3c
       -0.46304557 0.5283783 -1.0228232 0.010876476
000230 b3 8e fc be 6d 8d 82 be bb b0 2f bf 5c 4d 58 bf
       -0.4932762 -0.25498524 -0.68629044 -0.8449304
000240 55 e6 0b 3f e4 b3 69 3e f6 2c 34 bf 05 31 28 3f
       0.54648334 0.22822529 -0.70381105 0.656998
000250 4d 47 b1 3e b1 44 f9 3e 63 85 b6 bd 45 7c 18 3f
       0.3462471 0.4868522 -0.0891216 0.5956462
000260 bb c6 35 3e 83 24 b9 3c 77 7b 94 bd 95 0a cf be
       0.17751591 0.022600418 -0.072501116 -0.4043776
000270 d4 1f ad be c0 f0 cc be 10 ab 8c 3e 6f be e5 be
       -0.33813345 -0.40027428 0.2747426 -0.44871852
000280 73 94 72 bd ac f6 6c 3c 2e ba b3 be 7d ac 07 3e
       -0.059223603 0.014463108 -0.3510298 0.13249393
000290 60 bd 8c 3e c1 62 1d bd 57 13 dc bd 5d 71 89 be
       0.27488232 -0.038424257 -0.10745876 -0.26844302
0002a0 46 89 08 be 70 3f 3d 3f d2 b5 9d 3b d3 7f 37 3e
       -0.13333616 0.7392492 0.0048129344 0.17919855
0002b0 ea 41 97 3c 01 3a b5 bd fb ce 85 be d9 44 13 3e
       0.018464047 -0.08848954 -0.26134476 0.14381732
0002c0 17 bf 90 bc ea 7f 22 3d a9 44 86 be 75 54 1c 3e
       -0.017669244 0.03967277 -0.2622426 0.15266593
0002d0 a4 9d 9d be fd 14 0a be 05 78 9f 3e b6 f0 17 3f
       -0.30784333 -0.13484569 0.31146255 0.5935167
0002e0 8a 9c 57 be b6 90 2d bd 9f 9b a2 3e d6 8b 0e be
       -0.21055809 -0.042374335 0.31759354 -0.1392053
0002f0 e9 91 05 bf 4a 3e 0d 3f 93 a5 88 be 73 37 91 be
       -0.52175766 0.5517317 -0.26688823 -0.28362617
000300 f9 ba b1 bd ed b4 5e be d4 09 04 be fb 4b bd 3e
       -0.0867824 -0.21748705 -0.12894374 0.3697203
000310 8b a9 50 be c3 bb 2c be 94 f4 8c be 91 ab c8 be
       -0.20377176 -0.168685 -0.27530348 -0.39193395

fc.weight f4 [100, 50]
000000 c6 8f b1 3f 78 d1 00 3f 60 78 5c bf b4 6b 75 bf
       1.3872001 0.50319624 -0.8612118 -0.95867467
000010 fa 30 a3 be cf b7 ad 3e 2e a5 95 3f ec 4d f5 be
       -0.31873304 0.33929297 1.1691034 -0.47911012
000020 e3 99 a7 bf bd 30 3f 3f 04 8e 39 3e 5b 3c c3 bf
       -1.3093837 0.74683744 0.18120581 -1.5252794
000030 9a 2c 17 40 04 50 65 3d bd ce d9 bf e5 34 66 3f
       2.3620973 0.055984512 -1.7016217 0.8992446
000040 bc f6 b3 be ce e2 9e bf 58 4b d6 3f af 07 c5 bf
       -0.3514918 -1.2412965 1.6741743 -1.539297
000050 7c cb 05 bf c8 7f f2 bf 81 42 b1 bb 77 fa e2 bf
       -0.5226362 -1.8945246 -0.005409539 -1.7732686
000060 83 da e2 3f ba b1 75 bf ae d8 4c 3f 4c 18 91 be
       1.7722934 -0.95974314 0.80018127 -0.2833885
000070 3a 59 d0 3f 0c a5 31 3f 66 e2 04 c0 dc 3a eb 3f
       1.627723 0.69392467 -2.0763183 1.8377337
000080 8a ad 84 bf 30 60 de bf 30 ee bc 3f 13 9b fd bc
       -1.036546 -1.7373104 1.4760189 -0.030957734
000090 e7 5b c7 3e 90 20 16 bf 2a 0e 9a 3f 17 80 ac be
       0.38937303 -0.58643436 1.2035573 -0.33691475
0000a0 99 a1 e0 3f f0 d9 24 bf c1 cd 0b bf 30 ea 12 bf
       1.7549316 -0.64395046 -0.5461083 -0.5738859
0000b0 e0 ce cd 3e 9d c0 b7 be 04 56 8f 3f 61 b0 1c 3f
       0.40196896 -0.3588914 1.1198125 0.6120663
0000c0 09 22 60 be 06 71 0c be f4 f0 8d 3e e4 e6 76 be
       -0.21887983 -0.1371499 0.27722895 -0.24111515
0000d0 cd e1 94 bf 55 e0 34 be b2 8a 55 3e d3 ac 79 3e
       -1.1631409 -0.17663701 0.2085369 0.24382333
0000e0 21 72 ee 3f 16 e5 f0 be 5b 81 db bf ef 3d ea 3f
       1.8628579 -0.4704978 -1.7148851 1.8300151
0000f0 39 57 47 3e 71 63 36 bf 8e 2b e6 3f f1 af 79 3d
       0.19466867 -0.71245486 1.7982042 0.060958806
000100 e8 38 89 bd a5 0b af 3d 5c 40 b3 bf 66 d7 f1 be
       -0.06700307 0.08547143 -1.4004016 -0.47234648
000110 e7 01 b7 3f a6 01 a4 be 13 1b 91 bf 9f 8a db bf
       1.4297456 -0.32032508 -1.1336387 -1.7151679
000120 f2 4a 8a 3e d7 4d b6 bf 48 c3 75 3f f6 f0 3f bf
       0.27010304 -1.4242505 0.960011 -0.7497705
000130 57 5e 32 3e cc b9 05 c0 c1 10 b9 3e 09 74 b4 3f
       0.174188 -2.0894651 0.36145595 1.4097911
000140 a6 6f 32 bf da 8b 9c 3f b9 51 6a bf cc 20 6f bf
       -0.6970161 1.2230179 -0.9153095 -0.9340942
000150 be 03 b7 3e 51 15 72 be b3 8a 6b bd 91 41 b9 bf
       0.35745043 -0.23640944 -0.05750532 -1.4473134
000160 14 ba e8 3e 7a 05 cf 3e ce 63 47 40 e8 cc e3 3d
       0.45454466 0.40433866 3.1154666 0.11123067
000170 58 b4 34 be 92 8a 71 be f6 a4 9b be 9a df a5 3e
       -0.1764692 -0.23588017 -0.30399293 0.32397157
000180 cf ac 9e 3f 00 2b da bd b4 27 af bd 2f 44 5a bf
       1.2396487 -0.10652733 -0.08552495 -0.8526029
000190 b5 33 80 3f 37 c1 0c bd 96 34 8b bf dc 31 04 bf
       1.001578 -0.03436395 -1.0875423 -0.5163858
0001a0 33 b8 8c 3f 42 0e 28 3e 09 0c d8 3f 7c ce df 3f
       1.0993713 0.16411689 1.6878673 1.7484889
0001b0 b1 59 a6 bf f7 b6 70 be c7 6e 28 3f 8d dd 9b be
       -1.2996122 -0.23507296 0.6579403 -0.30442467
0001c0 9e be 2a 3f e1 5b 58 bf 58 75 be 3d 36 8a ca 3d
       0.6669711 -0.84515196 0.09299725 0.09889643
0001d0 7b 18 1b bc 1c 35 7d bf cc 17 08 40 b1 5e 16 bf
       -0.009466286 -0.98909163 2.1264524 -0.5873824
0001e0 60 8d 21 bf b4 37 da bf f0 18 68 3e 81 53 ed bf
       -0.63106346 -1.7048249 0.22665763 -1.8541108
0001f0 21 2f 7c 3f 8a 67 a4 be d8 f7 34 3f 1e 62 95 bf
       0.98509413 -0.32110244 0.7069068 -1.1670568
000200 0f 30 68 3f c6 a5 9c 3f 1d bd 0d bf 57 05 c0 3f
       0.9069833 1.223809 -0.5536669 1.500163
000210 d4 76 7a bf 08 2b bc bf ca 7d ac 3e d6 98 0f 3f
       -0.9783757 -1.4700632 0.3368972 0.56092584
000220 cd 7e 66 3f f0 72 7e bf 0f 50 13 40 e2 20 08 3f
       0.9003723 -0.9939413 2.3017614 0.53175175
000230 fd 46 01 40 ea d4 f2 3e ff d0 3e bf 30 dc aa be
       2.0199578 0.47428066 -0.7453765 -0.33371115
000240 fb f6 9b bf 78 9a 2b 3e e7 c4 27 3f 97 94 1a bf
       -1.2184747 0.16758144 0.65534824 -0.6038298
000250 6e 00 1d 3f 15 9f 28 bf bf 54 46 3f dd 62 0e 3e
       0.6132878 -0.6586774 0.7747306 0.13904901
000260 07 05 17 bf 07 60 08 bf 15 34 b9 3f 07 cb f3 3d
       -0.58992046 -0.53271526 1.4469019 0.11903959
000270 80 69 0f 40 fb 9f e0 3f 82 da a4 bf e0 fb 09 3f
       2.2408142 1.7548822 -1.2879183 0.53899956
000280 74 e2 75 3e f2 5e 0d bf eb 65 27 40 40 bd 8b be
       0.24012166 -0.55223 2.6155956 -0.27292824
000290 ce 20 9c bf 66 0d 8e 3f 0f 5a af bf 98 b9 9c bf
       -1.2197511 1.1097839 -1.3699359 -1.2244139
0002a0 6e 6a 8b 3f 7b cb 4d bf 26 6d ea be 99 15 18 c0
       1.0891855 -0.8038861 -0.457864 -2.3763182
0002b0 08 e6 9d 3d 52 c2 c2 bf f9 02 9a 3f 02 de 96 bf
       0.077098906 -1.5215552 1.2032157 -1.1786501
0002c0 fd 92 21 3f f4 e9 0e bf 37 76 5e 3f 14 ba e6 3f
       0.6311491 -0.55825734 0.8689913 1.8025537
0002d0 bd 1d d3 bf 23 54 cb 3f 9a 15 95 bf 97 b0 fb bf
       -1.649345 1.5885051 -1.1647217 -1.9663266
0002e0 39 d1 64 3e 2f 97 35 3f d6 75 54 3e 8d 51 84 bd
       0.22345437 0.7093381 0.20748076 -0.06460867
0002f0 66 ac 36 3f c4 c8 00 3f 2c 89 2f 40 7a 5a 31 bf
       0.7135681 0.50306344 2.7427473 -0.6927868
000300 72 5e 0b bf 1f f6 e8 be 01 1b 08 be 6c 4d 93 3d
       -0.5444099 -0.45500275 -0.13291551 0.071925014
000310 1f 86 b5 3f 50 ad 23 3f b7 ec 02 be b7 4d 23 bd
       1.4181556 0.6393633 -0.12785612 -0.039869037
000320 1e c1 d6 3f ec 74 80 bc 51 01 74 bf 9b 23 a6 bf
       1.6777685 -0.015680753 -0.9531451 -1.2979616
000330 17 84 e4 3e 50 d4 65 3e f9 73 81 3f dd 13 0a 3f
       0.44632027 0.22444272 1.0113517 0.5393656
000340 cd ff b3 bf 5f f1 34 3d c8 0c f7 3d bf 87 c2 bf
       -1.4062439 0.044175502 0.12062985 -1.5197676
000350 52 23 0d 40 fe 44 f2 bd 4c 59 ab be 5b 20 4b 3f
       2.2052808 -0.118295655 -0.33466566 0.79346246
000360 8d d1 85 bf d6 31 5c bf e9 7d 89 3f 32 6f 99 bf
       -1.0454575 -0.86013544 1.074155 -1.1987059
000370 8b 14 45 bf 72 92 5e c0 77 8a 59 be 76 52 d7 bf
       -0.7698447 -3.4776883 -0.21244226 -1.682204
000380 21 eb 9c 3f 56 20 94 bf 55 f8 27 3f 81 00 3d bf
       1.2259256 -1.1572368 0.656133 -0.73828894
000390 e5 88 e7 3d 93 2d 5f 3f 6a a9 7d bf b6 3a ac 3f
       0.113054074 0.87178916 -0.9908663 1.3455417
0003a0 8c 1b 7c bf 8b a4 a3 bf 97 3a 35 3f 6a 4a d5 3e
       -0.98479533 -1.278459 0.70792526 0.41658336
0003b0 22 cd 13 3f 35 81 d1 bf b0 ba 15 3f f9 a8 1d be
       0.5773488 -1.6367556 0.5848799 -0.15396489
0003c0 f9 ee ee 3f f9 39 17 3f ff 9f 03 3e d1 0d ff 3e
       1.8666679 0.59072834 0.12854002 0.4981523
0003d0 47 7f 33 bf 15 11 8d be ae 86 f5 3e a7 49 8f be
       -0.70116085 -0.27552095 0.47954315 -0.2798588
0003e0 6b 13 49 ba 80 76 05 be 6a d5 99 3f 00 33 18 3f
       -0.0007670435 -0.13033485 1.2018254 0.5945282
0003f0 35 62 92 bf 9d 31 38 bf 89 a3 ba 3e de fc 01 be
       -1.143622 -0.71950704 0.36452892 -0.12694117

fc.bias f4 [100]
000000 55 d0 5e 3e 9a 27 62 3d db 23 ea 3d 94 ec 25 bd
       0.2175916 0.05521355 0.1143262 -0.04050882
000010 43 33 48 3e 9d b2 fa 3e 1b ae 2c 3e 62 74 1e 3e
       0.19550805 0.48964396 0.16863291 0.15474084
000020 d9 ff 6b 3b 7d 9f 10 be 6d cc 7b 3e 99 e4 a9 bd
       0.0036010651 -0.1412334 0.24589701 -0.08295555
000030 d8 a3 49 be c1 2d ce 3e 68 a0 d0 bd 66 d8 0b bf
       -0.19691408 0.40269282 -0.10186845 -0.5462707
000040 21 b3 e2 bd 67 dd a8 bd 36 55 8c be 60 77 ef be
       -0.110693224 -0.08245354 -0.2740876 -0.46770763
000050 41 d3 be be 09 fd 1b 3d 3b 01 d6 be e8 27 09 3f
       -0.3727055 0.03808311 -0.41797814 0.5357652
000060 99 b7 c8 3e 17 bf 08 bf e2 c8 3d bf 45 86 0d 3e
       0.39202574 -0.5341658 -0.7413465 0.13820751
000070 00 c1 6a be a3 5b 7c be 7c 20 13 3f f4 75 bb bd
       -0.22925186 -0.24644332 0.5747144 -0.09153357
000080 0f 9b 04 bf 5e 03 45 bf 8a 57 dd 3d d1 58 3e bf
       -0.517991 -0.7695826 0.108077124 -0.74354273
000090 01 aa f7 bc 04 01 83 bc ef 9e 80 bd f5 50 3d bd
       -0.030232431 -0.015991695 -0.06280314 -0.046219785
0000a0 b3 78 27 3d 97 65 43 3e a8 cf 81 3c da 37 b3 3c
       0.040886592 0.19081722 0.015846089 0.021877218
0000b0 d3 3e 10 be 97 3a 59 be 9e d5 a0 be 3e f3 48 be
       -0.14086466 -0.21213757 -0.31412977 -0.1962404
0000c0 4f ae 99 3d a7 15 8c 3d d2 1f dd bd 3f 0a 8e be
       0.0750395 0.06840067 -0.10797085 -0.27742192
0000d0 22 21 d5 be de dc 46 3e 04 6c 1c bd 97 59 d9 3d
       -0.4162684 0.19420192 -0.03818895 0.10612791
0000e0 d7 e5 36 bc 44 5b 8e be c0 47 1e 3b 83 37 e0 bd
       -0.0111631965 -0.27804005 0.0024151653 -0.10948088
0000f0 91 6b fe bb db 6e a0 bf f4 61 07 bf 6b 23 00 bf
       -0.0077642878 -1.253383 -0.5288384 -0.50054044
000100 ce 34 01 c0 e1 2e 15 c0 92 56 10 c0 49 5b 24 bf
       -2.018848 -2.3309863 -2.2552838 -0.6420179
000110 d1 e0 83 3d 8c e2 f1 be b5 db 36 be 3b 65 a9 be
       0.06439365 -0.47243154 -0.17857249 -0.33085045
000120 47 f6 01 c0 af 70 07 3e ba 22 6c be ef f9 1b 3e
       -2.0306566 0.13226579 -0.23060122 0.15232061
000130 9f 29 4f bf 42 ba e1 be 89 d6 46 bf a4 14 05 c0
       -0.80922884 -0.44087416 -0.77671105 -2.0793848
000140 5a d6 0b c0 f1 7a 16 c0 16 be 82 bf 0e 9f 0f c0
       -2.184958 -2.3512537 -1.021426 -2.244083
000150 8a 10 1e bd 91 05 08 c0 21 e2 b1 3e 54 53 0d c0
       -0.03858999 -2.1253397 0.34742835 -2.208211
000160 4c 35 f4 bf c9 88 0e c0 24 c1 0c c0 e0 0f 0d c0
       -1.9078765 -2.2270987 -2.1992884 -2.204094
000170 9f 3c 14 c0 dc 21 12 c0 0a 5b a7 3f 9b 87 0e c0
       -2.3162 -2.2833166 1.3074658 -2.2270267
000180 cf a4 80 bf 34 b1 12 c0 f8 52 0e c0 ba 05 15 c0
       -1.0050296 -2.2920656 -2.223814 -2.3284745
