Results/Complete Sherlock Holmes/LSTM/ASGD/1/100/model.pt (torch, 365983 bytes, 6 tensors)

rnn.weight_ih f4 [400, 100]
0.30640998 -1.8372666 0.70920527 -1.2042989 0.35039276 1.103308 -0.21072131 0.7631041
0.48994625 1.3666164 -0.79784596 -2.7002914 -2.4638865 1.5732007 0.8713457 -0.57552046
-0.8517976 -1.2650441 0.70299625 -1.7716364 0.6613269 -2.2633512 -1.3200786 0.18090655
0.04742211 1.455719 -0.6534773 -0.43185905 0.35214162 -0.5331834 1.436636 -0.92243075
2.0003552 0.20529898 -2.0342157 0.89756966 -1.0192889 -1.019901 1.7249552 -2.4580553
0.58799404 0.6040233 1.9618373 -1.3806919 0.17478219 1.7039526 1.2751746 0.59052455
-0.48217395 0.4250265 1.0122032 -1.3340117 0.77060235 -1.0082325 0.85287315 -2.0311143
-0.373556 0.31983113 -0.47615203 -0.26268923 0.56433123 -0.5943631 0.7932059 -0.09674178
-0.023174524 0.066574164 -0.08707283 0.27201802 -0.34653255 0.15681694 -0.8328853 -0.0228801
-0.015246674 1.8995286 -1.3061479 -1.9732189 0.20810695 -1.5575169 1.782845 0.012092911
-0.03304573 0.024988972 1.279672 -0.0998971 -1.3396182 0.0577242 -0.29963452 -0.010072991
-0.06793711 -0.089205235 0.003025137 -0.083013594 0.032815345 -0.050236106 4.471509 -0.07989502
3.0763483 -0.022682533 -0.087785125 0.08973629 -0.9218177 0.22535427 -0.49180648 -0.38098657
-0.32887563 0.39901248 -0.40609974 0.050730128 0.19510032 -0.25209093 -0.15869004 0.4629342
0.08133582 -0.7079353 -1.0561277 0.08991349 0.17712289 2.862199 -0.90095484 0.07428227
-0.18232858 -0.31566405 -0.054226644 -0.12286966 2.0507045 -0.21628982 0.04213279 -0.23439737
-0.68596286 0.94800514 -0.5188248 -0.52911794 1.1828861 -0.6394366 0.7062508 0.05240882
-0.37097996 0.68143606 0.41922954 1.1521142 0.8338358 0.84148276 0.60294324 0.63685876
1.2997843 0.3851385 0.0040336424 0.20197965 0.07695613 -0.22854203 -1.3892789 -0.6935036
0.17812152 -0.14278342 0.6306306 1.6749302 0.2886338 -0.41242814 1.3804414 0.49920028
0.70999867 0.07422078 0.37949944 0.9060481 -0.03556855 -0.008136667 0.038343497 0.10703961
0.40267962 -0.25449648 0.29783893 0.035783894 -0.02986008 -0.6956494 0.9655855 0.92021424
0.0744093 -0.016852831 -0.18015864 -0.0741003 -0.019232593 0.03596779 -0.1936949 0.043274634
-0.16477531 0.04824371 -0.13110219 -0.06704737 -0.0380736 0.040229037 -0.048735976 0.0022106394
0.09951372 0.008001193 -0.65676636 -0.07694326 0.86545306 0.04203377 0.05546207 -0.062091675
1.7243884 0.31453988 -1.778481 -1.4961907 0.5551721 0.9846571 -0.017676797 0.26203772
-0.21404661 -0.15426502 -0.6504223 1.1771208 0.086875364 1.0187639 1.9735694 3.9523368
1.1178293 -0.47328138 0.9054109 0.88419706 1.0825838 -1.7674017 -0.9888185 2.084
0.36257902 0.34632242 -0.05964312 0.98263705 -1.2148156 1.9040394 -2.6231241 1.9302795
0.3614323 -0.7714361 -0.69013345 -1.1088252 -1.1179357 -1.1372744 -0.18399283 1.0431616
0.39458132 0.34715357 0.6563575 0.04200648 -0.34793696 0.79924077 0.6030353 0.006561531
-0.009934181 -0.7449833 -1.1350547 0.9497583 0.8892833 -0.34749037 0.9691904 0.011186678
00000000: c5e1 9c3e 8d2b ebbf 7a8e 353f 7726 9abf
00000010: ae66 b33e 3239 8d3f 54c7 57be ca5a 433f
00000020: 3cda fa3e 49ed ae3f a23f 4cbf 93d1 2cc0
00000030: 51b0 1dc0 a45e c93f 8310 5f3f 4f55 13bf
00000040: 680f 5abf f7ec a1bf 90f7 333f fbc4 e2bf
00000050: b84c 293f bfda 10c0 56f8 a8bf 913f 393e
00000060: b03d 423d 0055 ba3f 4a4a 27bf a11c ddbe
00000070: e84b b43e b57e 08bf b0e3 b73f 6c24 6cbf
00000080: d205 0040 e539 523e 9730 02c0 20c7 653f
00000090: 0f78 82bf 1e8c 82bf 55cb dc3f c750 1dc0
000000a0: c786 163f 45a1 1a3f 7c1d fb3f 83ba b0bf
000000b0: 1afa 323e 1e1b da3f ec38 a33f 9e2c 173f
000000c0: 81df f6be 139d d93e e08f 813f e5c0 aabf
000000d0: 3246 453f c30d 81bf e555 5a3f c7fd 01c0
000000e0: bb42 bfbe e8c0 a33e 33ca f3be 347f 86be
000000f0: 0378 103f 2e28 18bf 8b0f 4b3f 8e20 c6bd
00000100: 80d8 bdbc 0958 883d 3d53 b2bd f245 8b3e
00000110: b76c b1be 9f94 203e f937 55bf 0c6f bbbc
00000120: 30cd 79bc c123 f33f db2f a7bf 7092 fcbf
00000130: fd19 553e b75c c7bf 4434 e43f 5821 463c
00000140: f65a 07bd acb5 cc3c 4bcc a33f da96 ccbd
00000150: 9c78 abbf 3670 6c3d b269 99be 3009 25bc
00000160: 9d22 8bbd 3cb1 b6bd 6041 463b 0803 aabd
00000170: 6269 063d 60c4 4dbd 9a16 8f40 00a0 a3bd
00000180: e4e2 4440 b8d0 b9bc b0c8 b3bd a9c7 b73d
00000190: 3ffc 6bbf 45c3 663e 0fce fbbe ac10 c3be
000001a0: 6362 a8be 5d4b cc3e 4eec cfbe 65ca 4f3d
000001b0: 61c8 473e 1012 81be a47f 22be b605 ed3e
000001c0: 6593 a63d 3f3b 35bf 312f 87bf 9024 b83d
000001d0: b45f 353e 452e 3740 faa4 66bf 4e21 983d
000001e0: 58b4 3abe b89e a1be c21c 5ebd 17a3 fbbd
000001f0: be3e 0340 147b 5dbe 6f93 2c3d dd05 70be
00000200: 439b 2fbf 77b0 723f b4d1 04bf 4674 07bf
00000210: d068 973f 1eb2 23bf dacc 343f a1aa 563d
00000220: 16f1 bdbe 9872 2e3f 41a5 d63e 7a78 933f
00000230: 4376 553f 6a6b 573f 7d5a 1a3f 2d09 233f
00000240: 555f a63f e030 c53e a52c 843b c1d3 4e3e
00000250: 2d9b 9d3d ec06 6abe e4d3 b1bf 7489 31bf
00000260: 7d65 363e d135 12be 0271 213f 1d64 d63f
00000270: cfc7 933e c829 d3be 4eb2 b03f 2e97 ff3e
00000280: 79c2 353f 1001 983d c04d c23e c5f2 673f
00000290: 54b0 11bd a84f 05bc 120e 1d3d 9537 db3d
000002a0: 062c ce3e 5d4d 82be 587e 983e 2292 123d
000002b0: 209d f4bc 1416 32bf 9c30 773f 2993 6b3f
000002c0: e763 983d f30e 8abc 827b 38be e6c1 97bd
000002d0: ac8d 9dbc f652 133d f557 46be be40 313d
000002e0: dcba 28be 329b 453d a73f 06be 2250 89bd
000002f0: 10f3 1bbd 34c7 243d 609f 47bd 60e0 103b
00000300: d9cd cb3d 7017 033c d721 28bf 6e94 9dbd
00000310: 558e 5d3f 9a2b 2c3d 322c 633d d753 7ebd
00000320: c2b8 dc3f 5f0b a13e 44a5 e3bf 2d83 bfbf
00000330: c21f 0e3f 7d12 7c3f eece 90bc cf29 863e
00000340: 092f 5bbe a6f7 1dbe 1382 26bf e5ab 963f
00000350: b6eb b13d db66 823f ec9d fc3f 16f3 7c40
00000360: 0815 8f3f f051 f2be 02c9 673f bd5a 623f
00000370: 1b92 8a3f 383a e2bf 3623 7dbf 4260 0540
00000380: f5a3 b93e 2c51 b13e 584c 74bd 1a8e 7b3f
00000390: 147f 9bbf 90b7 f33f 44e1 27c0 6613 f73f
000003a0: a80d b93e d67c 45bf 96ac 30bf fced 8dbf
000003b0: 8418 8fbf 3592 91bf 9e68 3cbe 5286 853f
000003c0: 9006 ca3e 1dbe b13e 0c07 283f fd0e 2c3d
000003d0: cb24 b2be 0b9b 4c3f 8560 1a3f 1d02 d73b
000003e0: fac2 22bc 3ab7 3ebf 7949 91bf 5c23 733f
000003f0: 12a8 633f 42ea b1be dd1c 783f 5448 373c

rnn.weight_hh f4 [400, 100]
0.3687837 -0.6399119 -0.91776353 -0.3430917 -1.7021312 -1.1196446 -0.25133085 -0.66009647
0.6288053 -0.39829454 0.8900277 -0.31948242 1.5180362 -0.22243443 -1.1958978 -0.69510007
-0.25853553 -0.97431326 -0.15121771 1.2148069 1.5245538 1.042332 -0.2779769 -0.42918664
0.3956432 0.641717 -0.6582449 -0.76870733 -0.19520259 -0.89130026 0.97294897 -1.0352988
-0.4193497 -1.2984651 1.0252374 -0.8578438 -0.4384542 -0.9282388 0.7054811 -0.7296921
-0.24019966 0.26256567 0.56719816 -0.04934754 0.47203335 0.942024 0.11187329 0.8297246
0.35256556 0.76381284 0.7612942 0.56688404 -0.24839467 -1.3735535 0.3175715 -0.35560617
-0.6499279 0.8971319 0.42991233 0.47640693 0.63365644 0.5286243 0.3179601 0.54727226
-0.22672346 0.8346788 0.31667465 -0.6664347 -0.87095165 0.45526844 1.3343239 0.25514314
0.15670669 0.8100232 -0.31482187 -0.38799235 -0.46670392 -0.0046033016 0.36124542 -0.30994657
-0.14768215 0.28337172 0.044948384 0.28279987 -0.3208832 0.6090065 -0.97970426 -1.6026559
1.4775906 0.5819164 0.6352487 0.206329 0.0896481 1.2489336 -0.2896624 -0.38317707
1.1361009 -1.6241392 0.22365896 -0.49942428 1.4627522 -0.23858416 -1.217993 1.064858
-1.6084112 -1.1520884 -0.3415586 0.60156703 -0.063566655 1.64038 -0.0116398465 0.053397894
0.6367259 -2.4411063 0.9485888 -0.17005686 0.6623733 0.42194122 0.34752887 0.43398383
-0.64686584 0.8387169 0.055213455 0.2492967 0.31382424 0.100412756 1.2551959 -0.5201062
-1.3440785 -0.68766856 1.2820846 -0.36910242 0.4619478 -0.30847535 0.28988558 -0.4294838
-0.59122217 -0.29867607 -0.29585248 -0.924684 -0.009678572 -0.7589673 -0.4691808 0.43028346
0.4648008 0.31172612 -0.40713346 -0.52763754 0.4407541 -0.012525712 0.2742287 0.8119908
-0.11123161 -0.26861143 1.7181617 0.5375547 -0.18174596 -0.7639942 0.7472858 0.5489592
-1.2695353 0.693936 0.9314388 0.67542374 -0.6747525 -0.970286 0.06416628 -0.039489154
-0.918522 0.12715638 0.104686 0.33924553 -0.18955824 0.5911249 -0.13719054 -0.41235253
-0.052609134 -0.5353192 -0.77908367 1.4154845 -0.51249236 -0.82204723 0.5006593 0.8292091
-1.173859 -0.3301509 0.19953951 0.16167219 -0.36689764 -0.30251604 -0.33865836 -0.59024805
0.6139985 0.10621518 0.23564865 -0.49612153 -1.0077697 -0.01880574 0.08824481 0.20419528
0.59977186 -1.1538156 -0.7791399 -1.406226 -1.3042738 0.44609597 -0.15608372 -1.6841447
0.4349116 0.2567969 -0.81660247 -0.046708267 0.278986 -0.52994895 0.68106705 -0.33451203
0.83100337 -0.21395645 -0.4748767 -0.8612492 0.3412644 0.52324635 -0.043841988 0.25213766
-0.42876744 -0.7088905 -0.011950493 -0.20376314 0.59927493 -0.26083 1.0968277 -0.3562882
-0.25803563 -0.64311856 1.886288 0.39891893 -1.4949763 -0.5700332 -1.1069008 0.09501289
0.045042973 0.36022347 -1.8284822 0.79016185 0.6716815 -0.10468581 1.0584288 0.099973984
-1.0033523 0.870727 0.61591536 -0.63819075 1.1013472 -0.66121954 -0.746471 -0.18938154
00000000: 38d1 bc3e 44d1 23bf 8df2 6abf b7a9 afbe
00000010: 6fdf d9bf 8450 8fbf 70ae 80be 15fc 28bf
00000020: 62f9 203f 43ed cbbe dbd8 633f 3393 a3be
00000030: 034f c23f dac5 63be 2e13 99bf 14f2 31bf
00000040: c55e 84be 986c 79bf d1d8 1abe cb7e 9b3f
00000050: 9424 c33f 236b 853f fd52 8ebe 5abe dbbe
00000060: bf91 ca3e 9147 243f bd82 28bf 01ca 44bf
00000070: 30e3 47be 412c 64bf 2f13 793f ac84 84bf
00000080: 01b5 d6be 1b34 a6bf fb3a 833f a79b 5bbf
00000090: 127d e0be 0fa1 6dbf 699a 343f 1acd 3abf
000000a0: e6f6 75be 026f 863e e633 113f a520 4abd
000000b0: 5bae f13e 7c28 713f d31d e53d d568 543f
000000c0: 7983 b43e 3d89 433f 2de4 423f 501f 113f
000000d0: 2c5b 7ebe 9ad0 afbf bb98 a23e 0312 b6be
000000e0: ad61 26bf 70aa 653f 781d dc3e 9ceb f33e
000000f0: 4f37 223f ec53 073f abcb a23e 091a 0c3f
00000100: 322a 68be 83ad 553f 2e23 a23e 779b 2abf
00000110: b0f6 5ebf f218 e93e 20cb aa3f 1fa2 823e
00000120: b877 203e ae5d 4f3f 5530 a1be efa6 c6be
00000130: d1f3 eebe 4bd7 96bb 29f5 b83e 51b1 9ebe
00000140: fd39 17be 1916 913e cc1b 383d 25cb 903e
00000150: ce4a a4be dae7 1b3f e6cd 7abf d423 cdbf
00000160: b021 bd3f 79f8 143f a99f 223f e947 533e
00000170: 6c99 b73d 0edd 9f3f a14e 94be c92f c4be
00000180: c16b 913f cbe3 cfbf db06 653e 8ab4 ffbe
00000190: 773b bb3f 684f 74be 32e7 9bbf 444d 883f
000001a0: 6be0 cdbf a277 93bf c5e0 aebe 4c00 1a3f
000001b0: 3c2f 82bd f9f7 d13f 0eb5 3ebc c0b7 5a3d
000001c0: 7800 233f 163b 1cc0 b7d6 723f 6323 2ebe
000001d0: 4c91 293f ae08 d83e 4eef b13e 2133 de3e
000001e0: 0099 25bf 27b6 563f 8127 623d a247 7f3e
000001f0: 92ad a03e 34a5 cd3d 42aa a03f ae25 05bf
00000200: c40a acbf 0c0b 30bf 591b a43f fefa bcbe
00000210: 6c84 ec3e 7bf0 9dbe e26b 943e 4de5 dbbe
00000220: 565a 17bf 12ec 98be fa79 97be 17b8 6cbf
00000230: e092 1ebc ae4b 42bf 7738 f0be 1d4e dc3e
00000240: 5ffa ed3e 919a 9f3e cc73 d0be 4113 07bf
00000250: 85aa e13e a538 4dbc b467 8c3e a1de 4f3f
00000260: 66cd e3bd 7087 89be b9ec db3f 2f9d 093f
00000270: 9d1b 3abe 2095 43bf 1f4e 3f3f 9788 0c3f
00000280: 2280 a2bf caa5 313f c672 6e3f 92e8 2c3f
00000290: 94bc 2cbf aa64 78bf 9c69 833d 61bf 21bd
000002a0: 4224 6bbf 4835 023e 9d65 d63d 97b1 ad3e
000002b0: 8e1b 42be f653 173f ad7b 0cbe df1f d3be
000002c0: ad7c 57bd ae0a 09bf 0772 47bf 992e b53f
000002d0: b332 03bf b071 52bf 352b 003f 0c47 543f
000002e0: 0341 96bf 8a09 a9be 1654 4c3e 658d 253e
000002f0: 02da bbbe 62e3 9abe a164 adbe 7f1a 17bf
00000300: 012f 1d3f 5887 d93d e14d 713e a403 febe
00000310: 99fe 80bf 7f0e 9abc b2b9 b43d 9118 513e
00000320: a68a 193f 3bb0 93bf b675 47bf 37ff b3bf
00000330: 72f2 a6bf b166 e43e 69d4 1fbe 0e92 d7bf
00000340: bcac de3e e27a 833e dc0c 51bf 2b51 3fbd
00000350: 41d7 8e3e bcaa 07bf 695a 2e3f 2945 abbe
00000360: a3bc 543f 6617 5bbe 0a23 f3be d47a 5cbf
00000370: 35ba ae3e 79f3 053f a893 33bd 3018 813e
00000380: 6887 dbbe d979 35bf 00cc 43bc 49a7 50be
00000390: 156a 193f 828b 85be da64 8c3f 686b b6be
000003a0: 3f1d 84be 6ba3 24bf e371 f13f 1a3f cc3e
000003b0: 625b bfbf b2ed 11bf edae 8dbf 1e96 c23d
000003c0: fb7e 383d 366f b83e b40b eabf 0c48 4a3f
000003d0: 52f3 2b3f 8465 d6bd 987a 873f 29bf cc3d
000003e0: d96d 80bf f7e7 5e3f a1ac 1d3f 7860 23bf
000003f0: f2f8 8c3f af45 29bf b918 3fbf 3ced 41be

rnn.bias_ih f4 [400]
-0.02556171 0.5138952 0.34895888 -0.2544757 0.20039049 -0.49407184 -0.41186827 0.04270495
0.07978139 0.17708135 -0.41105598 0.019145405 -0.029561894 -0.0016808887 -0.30972707 -0.2897663
-0.4268834 0.29466188 -0.010973478 0.056928452 -0.1536055 -0.038218852 0.83213687 0.25580975
0.044653635 0.10034475 -0.16085674 0.055580996 0.1879714 0.60368276 0.20360914 0.2594668
-0.120147504 0.5202539 -0.12796792 0.22246958 0.23989612 0.018061053 0.037121493 0.45808822
0.015182085 -0.20575322 -0.061068673 -0.10950516 0.050805606 0.59032726 -0.4325293 -0.051995825
0.42685613 1.1475004 0.48349327 0.36846632 -0.33212462 0.65889955 0.7657006 0.26496255
0.1304192 -0.07265784 0.35105056 -0.056719873 -0.10264875 -0.032848068 0.21455227 0.040361755
-0.27296528 -0.21706583 0.069057636 0.35660815 -0.4730221 -0.05650817 0.45126462 -0.25253728
-0.061177332 -0.09783246 0.14626828 -0.18728755 0.40299433 0.3041028 -0.16688973 -0.3124968
-0.08687064 -0.08953248 0.23366703 -0.15695514 -0.025988186 -0.21545419 -0.044392854 -0.04516982
-0.13527697 0.30214325 1.0593798 -0.24392763 -0.40312922 0.27504027 -0.18175115 -0.3841921
0.45414156 0.03539987 0.17896372 -0.06432712 -0.31008533 0.14671676 -0.05222861 0.5599621
-0.142951 -0.17543165 -0.31890786 -0.30089256 -0.17723858 -0.35187775 -0.0012060707 0.43707895
-0.3882497 -0.12035614 0.14383268 0.58308035 0.80889565 -0.39517793 -0.23633756 0.13036281
-0.3068395 -0.20666453 0.04155442 -0.23197189 -0.3546971 0.040348638 -0.36877593 -0.4051619
-0.31781632 -0.15727569 -0.2980991 -0.20896022 0.33722994 -0.019276284 -0.42135102 -0.088144645
-0.6248575 -0.22443555 -0.3256362 -0.36082894 -0.371613 -0.2227624 -0.3588063 -0.30566046
0.32255185 -0.050327368 0.056198604 0.34174263 -0.28611365 0.25941753 0.10965435 -0.0006795266
-0.30387685 -0.3033588 -0.030458327 -0.23949505 -0.07179359 -0.38973695 -0.22727191 -0.20307069
0.22382852 -0.2945269 -0.71555877 -0.10241212 -0.23237908 -0.26672474 0.04531656 0.017446531
-0.40034539 -0.41429162 -0.05690044 -0.13063797 0.12983853 0.5221206 0.54007244 -0.33598632
-0.33615664 0.19006208 -0.37300128 -0.18191667 -0.13733393 -0.29391566 -0.10872628 -0.09994836
0.035917178 0.020530393 -0.49691442 -0.065108314 -0.44455042 -0.46258193 -0.19135754 -0.24560918
-0.33988255 -0.12266812 -0.0076453 -0.0699823 -0.25478387 -0.28274786 -0.28719255 -0.3716104
0.19113044 0.49192056 -0.42435318 0.4429761 -0.39676103 -0.33059862 -0.35040414 -0.06717076
-0.12886843 -0.094516486 0.3474674 -0.4338925 -0.0939926 -0.29790482 -0.5543964 -0.43719605
0.23241405 0.073194645 0.12064836 -0.25232112 -0.40464357 0.29426342 -0.66106737 -0.36250573
-0.45663172 0.24638031 0.16942056 -0.29660097 -0.02686881 0.34717533 -0.08698378 0.13953704
-0.44841626 -0.31648815 0.20095038 0.4849867 -0.04420065 0.35242388 0.6599881 -0.3196739
0.21882528 -0.063461 -0.53579456 -0.19740827 0.4670278 0.67759 -0.038191028 0.13548297
0.14637882 1.0984201 0.4104226 -0.25776824 -0.49725232 -0.05520029 0.17025195 -0.07964758
00000000: cb66 d1bc a38e 033f bdaa b23e a44a 82be
00000010: 2a33 4d3e fcf6 fcbe 66e0 d2be 63eb 2e3d
00000020: 6d64 a33d d054 353e ee75 d2be d3d6 9c3c
00000030: c92b f2bc 4451 dcba 8c94 9ebe 405c 94be
00000040: 7690 dabe ecdd 963e 1aca 33bc cf2d 693d
00000050: c34a 1dbe 5f8b 1cbd ec06 553f 7ff9 823e
00000060: bbe6 363d 8c81 cd3d a1b7 24be e6a8 633d
00000070: 937b 403e f48a 1a3f ea7e 503e d5d8 843e
00000080: e50f f6bd 5c2f 053f 060a 03be 11cf 633e
00000090: 54a7 753e c6f4 933c b50c 183d 8a8a ea3e
000000a0: 48be 783c f9b0 52be 2523 7abd 3e44 e0bd
000000b0: 8a19 503d b01f 173f 7b74 ddbe 93f9 54bd
000000c0: e38c da3e 4be1 923f 6e8c f73e 9ea7 bc3e
000000d0: 3d0c aabe a4ad 283f f404 443f 2ca9 873e
000000e0: 9c8c 053e a2cd 94bd e6bc b33e 1953 68bd
000000f0: 8239 d2bd b28b 06bd 97b3 5b3e 5e52 253d
00000100: 1bc2 8bbe 8146 5ebe 176e 8d3d 5895 b63e
00000110: f42f f2be 1c75 67bd 280c e73e 914c 81be
00000120: 1595 7abd 635c c8bd 5ac7 153e 4fc8 3fbe
00000130: 4655 ce3e 5db3 9b3e 24e5 2abe 95ff 9fbe
00000140: 3ce9 b1bd ce5c b7bd 6946 6f3e d9b8 20be
00000150: 2de5 d4bc 06a0 5cbe 48d5 35bd fd03 39bd
00000160: 0c86 0abe 85b2 9a3e c299 873f 2ac8 79be
00000170: f466 cebe 14d2 8c3e f91c 3abe d4b4 c4be
00000180: 3e85 e83e 74ff 103d 4442 373e f0bd 83bd
00000190: 81c3 9ebe eb3c 163e abed 55bd ad59 0f3f
000001a0: bf61 12be 5ba4 33be e447 a3be 970e 9abe
000001b0: 087e 35be 5229 b4be 0415 9eba d0c8 df3e
000001c0: aac8 c6be 487d f6bd e048 133e c144 153f
000001d0: c913 4f3f c354 cabe 7902 72be d47d 053e
000001e0: 111a 9dbe de9f 53be f834 2a3d 0a8a 6dbe
000001f0: dc9a b5be 9d44 253d 33d0 bcbe 6171 cfbe
00000200: d2b8 a2be e10c 21be 72a0 98be abf9 55be
00000210: 67a9 ac3e 4ce9 9dbc 52bb d7be 2e85 b4bd
00000220: a9f6 1fbf 6fd2 65be cab9 a6be 92be b8be
00000230: 0f44 bebe d41b 64be 76b5 b7be 877f 9cbe
00000240: 8425 a53e 1224 4ebd 8230 663d e4f8 ae3e
00000250: 7d7d 92be 60d2 843e 7692 e03d 4222 32ba
00000260: bf95 9bbe d851 9bbe be83 f9bc 313e 75be
00000270: 8508 93bd 9a8b c7be f8b9 68be c3f1 4fbe
00000280: 4e33 653e 3bcc 96be dc2e 37bf 72bd d1bd
00000290: c8f4 6dbe 2590 88be db9d 393d 07ec 8e3c
000002a0: 12fa ccbe 081e d4be 7010 69bd f6c5 05be
000002b0: 64f4 043e b2a9 053f 3042 0a3f 6606 acbe
000002c0: b91c acbe a29f 423e 06fa bebe 5d48 3abe
000002d0: 44a1 0cbe 1d7c 96be e2ab debd bab1 ccbd
000002e0: e41d 133d 5b2f a83c 916b febe 8257 85bd
000002f0: 1d9c e3be 8ad7 ecbe 3bf3 43be f980 7bbe
00000300: 1605 aebe 6c39 fbbd 6d85 fabb e152 8fbd
00000310: 0873 82be 54c4 90be e70a 93be b843 bebe
00000320: b3b7 433e 03dd fb3e d244 d9be c3cd e23e
00000330: 4324 cbbe 3944 a9be 2c68 b3be d390 89bd
00000340: 16f6 03be dc91 c1bd 3fe7 b13e 2827 debe
00000350: 317f c0bd fb86 98be ecec 0dbf 29d8 dfbe
00000360: f3fd 6d3e 13e7 953d 7d16 f73d 3c30 81be
00000370: 712d cfbe b2a9 963e b63b 29bf 5a9a b9be
00000380: a2cb e9be 1f4b 7c3e 957c 2d3e 15dc 97be
00000390: fb1b dcbc f7c0 b13e 8d24 b2bd cce2 0e3e
000003a0: d196 e5be bc0a a2be f0c5 4d3e 2d50 f83e
000003b0: be0b 35bd e770 b43e fbf4 283f 4cac a3be
000003c0: bc13 603e d7f7 81bd d529 09bf 6525 4abe
000003d0: 451e ef3e 8a76 2d3f 326e 1cbd 0cbc 0a3e
000003e0: 54e4 153e 0899 8c3f e922 d23e 33fa 83be
000003f0: db97 febe b319 62bd 8756 2e3e 451e a3bd

rnn.bias_hh f4 [400]
-0.07157193 0.5561446 0.30144143 -0.2925099 0.15736014 -0.3164447 -0.53760105 0.06394267
0.10484497 0.2011606 -0.3469384 0.112000436 -0.051370323 -0.048588876 -0.3326433 -0.30059806
-0.34685755 0.16666728 -0.00022067415 0.0037713978 0.028231574 -0.17900886 0.7359879 0.18733269
0.009925294 0.05136945 -0.29918715 -0.11387654 0.106222376 0.5884837 0.13998249 0.09855613
-0.1368154 0.3859368 -0.11277386 0.071451016 0.269203 0.012683298 -0.10518423 0.46793848
0.04261779 -0.14322734 -0.08709249 -0.20916642 0.100693755 0.64881796 -0.3512487 -0.018555958
0.54688174 1.1498629 0.5128162 0.28197035 -0.31210425 0.5712452 0.821939 0.30330017
-0.018324284 -0.10004569 0.26957086 -0.029567078 -0.2205994 -0.06506273 0.23526676 -0.005835056
-0.22764106 -0.11305614 0.043231983 0.30026963 -0.39250124 -0.16808441 0.37397292 -0.17118521
-0.08163874 -0.19609399 0.08052559 -0.18714933 0.37870112 0.42910776 -0.123517595 -0.1891244
-0.10021915 0.092577785 0.34480974 -0.1109642 0.013730728 -0.14512996 -0.056056242 -0.032530345
-0.26023462 0.31154883 1.0557971 -0.15659517 -0.38170862 0.18127976 -0.06840048 -0.36047536
0.47926068 0.084220834 0.2297513 -0.004949089 -0.21356702 0.0026491669 -0.05001885 0.52434415
-0.23060791 -0.09203402 -0.38158724 -0.48157912 -0.23155172 -0.17681588 0.10266597 0.4225859
-0.38484004 -0.27367032 0.29510713 0.57862407 0.6724741 -0.41135323 -0.15116015 0.24632297
-0.37050846 -0.19130082 0.12061899 -0.25524294 -0.36151284 -0.020513263 -0.4146213 -0.4530769
-0.33990908 0.017004842 -0.4439441 -0.31419623 0.24531458 -0.05244791 -0.3929002 -0.07934144
-0.5789192 -0.23967084 -0.17849661 -0.34527954 -0.34995264 -0.14929186 -0.31232947 -0.17129998
0.21773867 -0.055490706 0.0521703 0.26026842 -0.3226389 0.27519274 0.13317525 -0.0041639307
-0.41294762 -0.32347223 -0.037046324 -0.31835836 -0.12705536 -0.2838942 -0.24955174 -0.05814192
0.367475 -0.16134022 -0.69408303 0.012497476 -0.21319558 -0.33650374 -0.035368904 -0.022775417
-0.36346674 -0.22837201 -0.16278031 -0.1549942 0.26897892 0.47950256 0.4940174 -0.27261567
-0.31964847 0.15234338 -0.2903644 -0.20339367 -0.06658232 -0.33773068 -0.058733538 -0.12631914
-0.11113763 -0.12595145 -0.4091183 -0.23476034 -0.3763084 -0.5270523 -0.18061726 -0.24678099
-0.28611973 -0.012343812 -0.11652999 -0.018405747 -0.312919 -0.28804576 -0.25795135 -0.32964784
0.2714865 0.3887832 -0.47421557 0.5768608 -0.33585277 -0.412428 -0.22124925 -0.064200506
-0.25480273 -0.071029626 0.3616902 -0.38690466 -0.044254616 -0.31316274 -0.53749573 -0.4684119
0.24504013 0.042584196 0.12220552 -0.11242686 -0.5040641 0.4604454 -0.6021005 -0.5184494
-0.60026413 0.29497838 0.099033326 -0.2893861 -0.17533877 0.41962978 -0.14587852 0.07124232
-0.5312129 -0.36454356 0.21008159 0.3476904 0.023318587 0.45150098 0.59750795 -0.32136434
0.24715342 -0.023833927 -0.5109226 -0.25925216 0.43245354 0.6591157 -0.037549514 0.14477381
0.07414299 0.9184498 0.46242562 -0.21453269 -0.45136654 -0.13466538 0.079441264 -0.027553186
00000000: 4e94 92bd 7e5f 0e3f 8856 9a3e dcc3 95be
00000010: 0423 213e 0a05 a2be 39a0 09bf 60f4 823d
00000020: f6b8 d63d 0bfd 4d3e e9a1 b1be 7c60 e53d
00000030: b069 52bd 2105 47bd 3950 aabe fde7 99be
00000040: 5097 b1be d4aa 2a3e c464 67b9 8e29 773b
00000050: e745 e73c 194e 37be b469 3c3f 24d4 3f3e
00000060: b39d 223c c668 523d 0f2f 99be 1a38 e9bd
00000070: 1e8b d93d dea6 163f 9257 0f3e ccd7 c93d
00000080: 5619 0cbe 8299 c53e fbf5 e6bd e954 923d
00000090: fad4 893e 9ccd 4f3c d46a d7bd a295 ef3e
000000a0: fe8f 2e3d 30aa 12be 8c5d b2bd b92f 56be
000000b0: 8738 ce3d ef18 263f dfd6 b3be aa02 98bc
000000c0: 7100 0c3f b52e 933f ec47 033f 6b5e 903e
000000d0: 21cc 9fbe 203d 123f 986a 523f 294a 9b3e
000000e0: cf1c 96bc c1e4 ccbd 3105 8a3e a836 f2bc
000000f0: cfe4 61be 9c3f 85bd c5e9 703e ff33 bfbb
00000100: bd1a 69be fa89 e7bd 0514 313d f1bc 993e
00000110: ecf5 c8be 521e 2cbe 6179 bf3e 2d4b 2fbe
00000120: 3632 a7bd ddcc 48be 9aea a43d 13a4 3fbe
00000130: 1de5 c13e 03b4 db3e cbf6 fcbd d4a9 41be
00000140: b33f cdbd 6c99 bd3d e78a b03e 3341 e3bd
00000150: d9f6 603c f39c 14be 3b9b 65bd 8a3e 05bd
00000160: 793d 85be 5483 9f3e 5c24 873f 7c5a 20be
00000170: 506f c3be 67a1 393e 8d15 8cbd 3a90 b8be
00000180: a861 f53e f97b ac3d ed43 6b3e f82b a2bb
00000190: 50b1 5abe a59d 2d3b 91e0 4cbd 6b3b 063f
000001a0: 7b24 6cbe 557c bcbd 675f c3be 8a91 f6be
000001b0: e51b 6dbe 390f 35be 8942 d23d 2e5d d83e
000001c0: c109 c5be 841e 8cbe 4818 973e b520 143f
000001d0: 4327 2c3f e49c d2be bac9 1abe 173c 7c3e
000001e0: 49b3 bdbe 5de4 43be 1707 f73d 34af 82be
000001f0: 3618 b9be 6e0b a8bc 3e49 d4be b2f9 e7be
00000200: 9008 aebe bd4d 8b3c a44c e3be 54de a0be
00000210: bf33 7b3e 9fd3 56bd 372a c9be c47d a2bd
00000220: 0c34 14bf 466c 75be d1c7 36be 7bc8 b0be
00000230: fe2c b3be f7df 18be a6e9 9fbe 4369 2fbe
00000240: e3f6 5e3e 394a 63bd 86b0 553d e741 853e
00000250: ed30 a5be 10e6 8c3e 185f 083e 9571 88bb
00000260: df6d d3be 279e a5be e3bd 17bd deff a2be
00000270: cd1a 02be 955a 91be 7e8a 7fbe 3926 6ebd
00000280: af25 bc3e 5f36 25be 6daf 31bf 37c2 4c3c
00000290: f14f 5abe 384a acbe fcde 10bd 8393 babc
000002a0: 5018 babe 5ada 69be e2af 26be cdb6 1ebe
000002b0: 9bb7 893e 5c81 f53e d9ef fc3e 4894 8bbe
000002c0: f7a8 a3be e7ff 1b3e a5aa 94be 6e46 50be
000002d0: 505c 88bd 09eb acbe 9492 70bd ce59 01be
000002e0: 209c e3bd 6bf9 00be f477 d1be 0465 70be
000002f0: 7fab c0be e6ec 06bf bbf3 38be 28b4 7cbe
00000300: 497e 92be b33d 4abc 47a7 eebd a6c7 96bc
00000310: eb36 a0be bc7a 93be 3312 84be 9ac7 a8be
00000320: 4700 8b3e 970e c73e 62cc f2be 26ad 133f
00000330: e5f4 abbe c329 d3be 2a8f 62be 8e7b 83bd
00000340: 8175 82be fb77 91bd 752f b93e 5e18 c6be
00000350: 5444 35bd de56 a0be 5299 09bf afd3 efbe
00000360: cdeb 7a3e c46c 2e3d e346 fa3d 0e40 e6bd
00000370: 580a 01bf 80bf eb3e 4223 1abf 1ab9 04bf
00000380: e9aa 19bf 6807 973e fcd1 ca3d 6a2a 94be
00000390: 028c 33be b7d9 d63e 2e61 15be 7ee7 913d
000003a0: 92fd 07bf 74a5 babe a11f 573e 7a04 b23e
000003b0: 9f06 bf3c 232b e73e 48f6 183f de89 a4be
000003c0: c915 7d3e 5e3f c3bc d3cb 02bf b3bc 84be
000003d0: 8d6a dd3e cebb 283f 85cd 19bd 963f 143e
000003e0: 48d8 973d 871f 6b3f 0dc3 ec3e 75ae 5bbe
000003f0: 8419 e7be b9e5 09be 1ab2 a23d 38b7 e1bc

linear.weight f4 [100, 100]
-2.3050067 -0.5820839 -0.48648527 -1.6285911 1.6807796 1.5349883 2.8833404 2.0602698
0.5012575 -1.0991801 -1.4045146 0.6153779 -0.4602113 1.6265852 0.64190704 0.4632913
-0.7784749 -1.2608694 -0.07795543 0.70768344 0.9568035 -0.7070719 0.46542776 0.13784851
1.6552349 -0.9933088 -1.0505513 0.3103327 0.94481134 -0.8650145 -0.8557638 2.7622328
1.4255725 0.098772 -1.093572 -0.12763877 -0.70919037 -0.11816252 -0.1514569 0.06465336
-0.05164016 -0.8606601 1.985731 1.1031756 -0.711965 -0.36419484 1.0647998 -0.024303306
-1.4224943 0.2806607 0.6090472 0.23738475 1.4299586 0.7916263 0.21081455 0.529022
1.2872455 1.3925216 0.50230414 0.8991934 0.35609153 1.1081986 -0.6461677 0.63779575
1.0795664 2.3097847 0.9271042 -1.1500723 1.5409518 -0.32025442 -0.70592505 3.410882
-1.5408188 -0.9665515 -0.2804923 -0.8764285 -0.84524035 0.0015182177 -2.029462 -3.0816298
0.6471839 1.5672733 -1.0105277 -1.5413984 0.16997497 1.0067643 -0.5240269 -1.8610473
-0.49679646 0.33487418 0.64861923 0.9017286 -0.6028491 -0.97748184 -0.24645123 -0.44500703
1.1331627 -0.8429824 -0.30415964 1.4244354 -0.52979416 0.09093401 1.274307 -0.8770955
1.0620229 1.0065225 1.1190792 0.8390211 0.43886957 -0.13780366 -2.3050382 -0.10654748
-1.0613562 2.3540998 -0.19490935 1.953013 -0.22146125 -1.4734772 -0.6949556 1.211236
0.6489518 -1.2632158 0.7925345 1.4887258 1.6664834 -1.6108121 -0.5152021 0.21968803
-0.060117554 -2.6788895 -0.48348966 1.0549324 1.9612004 -0.38960052 -1.4916486 -0.10694238
-0.347873 0.12542483 -0.21065557 0.90317774 -0.27864084 -1.6010875 1.5107208 0.6955275
0.2492387 -0.67151815 1.2988334 -0.5565694 -0.16324836 -0.11422684 -0.88617337 0.16782439
0.07257552 -0.12926336 0.12555431 -0.39470556 1.3367968 1.3947183 2.5008843 0.92652035
-0.04004003 1.9673635 -0.40795723 0.8588171 0.5792291 1.2433196 0.8796974 -0.8249392
0.79909146 -0.22928646 -1.653192 2.8402004 -3.854764 -0.66797084 -0.8435843 -0.49764472
-0.76009655 0.9206531 -1.7978389 -0.9914151 1.5139974 1.5370202 0.5621758 -1.6607966
1.4899675 1.1869501 0.21236075 -2.3409538 0.65010434 0.50332946 -0.15360728 0.20297386
-1.1043272 -0.6007412 0.20982285 -0.053835023 0.66163737 -1.4866849 -0.39022645 1.0383761
-0.42585883 -0.2504364 3.8149807 -1.013902 2.7547648 1.2746953 0.41084817 0.57943195
0.009389741 -0.2456602 -0.96117735 2.059985 -1.381095 1.4189794 0.8202008 0.12006789
-1.1304224 -0.8310136 -0.36460325 1.2661444 0.55469817 -2.4579217 2.1415255 0.2819041
0.71949136 -0.8616919 -0.39927232 1.1266859 0.6364593 -0.96455103 -0.58159226 1.0708346
1.728201 -0.5268467 -1.6567683 -0.54677904 -0.3644199 -0.8621483 0.5530301 1.5641725
-0.47367576 -1.1799426 0.9699893 0.24665013 -0.5399263 -1.0869399 1.0401225 -0.38807765
-1.184947 -0.86653346 -1.7730545 -0.1096573 0.98221266 0.7537962 -0.34845367 -0.36935723
00000000: 3b85 13c0 7303 15bf 9914 f9be ac75 d0bf
00000010: c923 d73f 7f7a c43f a688 3840 76db 0340
00000020: 6952 003f efb1 8cbf 22c7 b3bf 6889 1d3f
00000030: d1a0 ebbe f233 d03f 0554 243f 8434 ed3e
00000040: 224a 47bf 2b64 a1bf 19a7 9fbd be2a 353f
00000050: 13f1 743f aa02 35bf 8c4c ee3e 2928 0d3e
00000060: bdde d33f 7c49 7ebf 7778 86bf ede3 9e3e
00000070: 28df 713f 9771 5dbf 5613 5bbf 6cc8 3040
00000080: 2979 b63f f948 ca3d 2bfa 8bbf bdb3 02be
00000090: 808d 35bf 31ff f1bd 8517 1bbe fb68 843d
000000a0: a284 53bd 3854 5cbf 6f2c fe3f dc34 8d3f
000000b0: 5743 36bf bf77 babe 5c4b 883f ba17 c7bc
000000c0: 4b14 b6bf c2b2 8f3e 84ea 1b3f fd14 733e
000000d0: e208 b73f 05a8 4a3f c5df 573e fc6d 073f
000000e0: 76c4 a43f 263e b23f 0197 003f 8a31 663f
000000f0: a151 b63e 74d9 8d3f 3f6b 25bf 9546 233f
00000100: 3b2f 8a3f 83d3 1340 b356 6d3f 9235 93bf
00000110: e93d c53f 63f8 a3be 81b7 34bf e44b 5a40
00000120: 8d39 c5bf eb6f 77bf b09c 8fbe 9e5d 60bf
00000130: ac61 58bf effe c63a b5e2 01c0 6c39 45c0
00000140: d8ad 253f 699c c83f f958 81bf 8b4c c5bf
00000150: eb0d 2e3e a7dd 803f a026 06bf cc36 eebf
00000160: 1b5c febe a174 ab3e e90b 263f afd7 663f
00000170: 5254 1abf 403c 7abf b65d 7cbe f6d7 e3be
00000180: 7a0b 913f b2cd 57bf d0ba 9bbe e653 b63f
00000190: 97a0 07bf 9c3b ba3d 7e1c a33f 5589 60bf
000001a0: 5ef0 873f bbd5 803f fd3d 8f3f 16ca 563f
000001b0: 83b3 e03e 671c 0dbe bf85 13c0 9135 dabd
000001c0: 85da 87bf 92a9 1640 5196 47be 54fc f93f
000001d0: bdc6 62be e79a bcbf 9ce8 31bf c809 9b3f
000001e0: b521 263f 0eb1 a1bf 8ae3 4a3f 918e be3f
000001f0: 544f d53f 172f cebf 49e4 03bf e6f5 603e
00000200: d33d 76bd ed72 2bc0 f58b f7be 0608 873f
00000210: 9d08 fb3f b879 c7be 57ee bebf 9b04 dbbd
00000220: 691c b2be 5e6f 003e 18b6 57be a836 673f
00000230: 03aa 8ebe 6ff0 ccbf 4d5f c13f 170e 323f
00000240: 6e38 7f3e 9de8 2bbf 2c40 a63f 557b 0ebf
00000250: 942a 27be c3ef e9bd 42dc 62bf 28da 2b3e
00000260: 79a2 943d 9d5d 04be 4f91 003e d916 cabe
00000270: 281c ab3f 2186 b23f 7d0e 2040 7030 6d3f
00000280: 0401 24bd 91d2 fb3f c5df d0be 70db 5b3f
00000290: 5c48 143f 1925 9f3f d933 613f 372f 53bf
000002a0: 4291 4c3f 12ca 6abe cc9b d3bf d8c5 3540
000002b0: 74b4 76c0 2300 2bbf 24f5 57bf 4acb febe
000002c0: b095 42bf ecaf 6b3f 961f e6bf 61cd 7dbf
000002d0: abca c13f 14bd c43f c1ea 0f3f fc94 d4bf
000002e0: 41b7 be3f fbed 973f 1975 593e 30d2 15c0
000002f0: 3d6d 263f 33da 003f 3a4b 1dbe 61d8 4f3e
00000300: 985a 8dbf 2dca 19bf cddb 563e 1d82 5cbd
00000310: 1161 293f b14b bebf c3cb c7be 82e9 843f
00000320: 2b0a dabe 3339 80be a528 7440 8ac7 81bf
00000330: 114e 3040 3729 a33f b15a d23e a755 143f
00000340: 6ed7 193c 598e 7bbe b80f 76bf cbd6 0340
00000350: b9c7 b0bf 1ea1 b53f aef8 513f 27e6 f53d
00000360: aeb1 90bf 4fbd 54bf 47ad babe 0511 a23f
00000370: b300 0e3f 974e 1dc0 c10e 0940 bc55 903e
00000380: 9630 383f d797 5cbf 6c6d ccbe 3e37 903f
00000390: ffee 223f d1ec 76bf 3be3 14bf 1c11 893f
000003a0: b135 dd3f 6ddf 06bf fc10 d4bf b6f9 0bbf
000003b0: 3f95 babe c0b5 5cbf 6193 0d3f ce36 c83f
000003c0: a185 f2be 5c08 97bf 3851 783f da91 7c3e
000003d0: 9c38 0abf d920 8bbf bc22 853f 1db2 c6be
000003e0: 58ac 97bf 23d5 5dbf 73f3 e2bf 0294 e0bd
000003f0: 4a72 7b3f caf8 403f 8568 b2be 641c bdbe

linear.bias f4 [100]
-0.1689933 -0.45419532 -0.22096679 -0.07416825 0.06922945 -0.07773973 -0.35261154 -0.25779343
-0.48304933 -0.44794548 0.5817375 0.03190057 0.2863244 -0.2569624 0.32826558 -0.15088136
-0.3994125 0.04722632 0.15148322 -0.38409662 -0.45199847 0.16856866 0.057915516 0.20305446
0.15142678 -0.20020996 -0.7406254 0.2147945 0.65519243 0.33538812 -0.10632352 -0.09005626
-0.17936778 -1.0028023 0.048617855 -0.8004228 -0.33247706 -0.49103904 -0.09204288 -0.35794023
-0.3086678 -0.3161628 -0.5002224 -0.4819958 -0.080363505 -0.7044095 -0.63301307 -0.46796218
-0.41901428 -0.2985727 -0.1942364 -0.37015128 -0.43726474 -0.6217139 -0.16784403 -0.3398696
-0.38697192 -0.10652936 -0.3235715 -0.5472119 -0.47128028 -1.1953887 -1.0719979 -0.27806407
-2.336442 -2.6277258 -2.5984025 -0.61119014 -0.26415333 -0.42847446 -0.533176 -3.4678333
-2.2346106 -0.15758203 -0.6133711 -0.38222715 -2.0903838 -0.76321036 -0.92947966 -2.4119594
-2.6641707 -3.102879 -0.9353345 -2.5154912 -0.7542764 -2.7303305 -0.5334753 -2.3398163
-2.7050183 -1.0340638 -2.8496475 -2.6620815 -2.5566268 -2.4907472 0.82403785 -2.803063
-1.3476833 -2.3063915 -2.1778524 -2.7430134
00000000: 940c 2dbe 4a8c e8be 1e45 62be 86e5 97bd
00000010: 2bc8 8d3d 0236 9fbd 8089 b4be 80fd 83be
00000020: 3e52 f7be 1c59 e5be c0ec 143f 2caa 023d
00000030: 1d99 923e 9390 83be 6d12 a83e a580 1abe
00000040: cc7f ccbe 6370 413d 6b1e 1b3e 50a8 c4be
00000050: 586c e7be 439d 2c3e d238 6d3d 82ed 4f3e
00000060: 9f0f 1b3e d703 4dbe a099 3dbf 17f3 5b3e
00000070: b1ba 273f feb7 ab3e 25c0 d9bd 6b6f b8bd
00000080: 30ac 37be d35b 80bf 8423 473d 82e8 4cbf
00000090: 6f3a aabe 7869 fbbe fa80 bcbd f143 b7be
000000a0: b509 9ebe 17e0 a1be 930e 00bf 27c8 f6be
000000b0: 9f95 a4bd 2e54 34bf 250d 22bf bd98 efbe
000000c0: 0a89 d6be 85de 98be e8e5 46be 7884 bdbe
000000d0: 2ae1 dfbe a428 1fbf 4edf 2bbe 6303 aebe
000000e0: 2f21 c6be 112c dabd 2aab a5be 1416 0cbf
000000f0: a64b f1be 7f02 99bf 3a37 89bf 6a5e 8ebe
00000100: 4488 15c0 a92c 28c0 3a4c 26c0 f576 1cbf
00000110: 1b3f 87be 0161 dbbe 397e 08bf fbf0 5dc0
00000120: dc03 0fc0 2f5d 21be e305 1dbf 47b3 c3be
00000130: d9c8 05c0 c161 43bf 61f2 6dbf 8b5d 1ac0
00000140: c681 2ac0 9295 46c0 1572 6fbf cffd 20c0
00000150: 4218 41bf bcbd 2ec0 d691 08bf 8dbf 15c0
00000160: 051f 2dc0 345c 84bf a060 36c0 8b5f 2ac0
00000170: c69f 23c0 6768 1fc0 25f4 523f 6265 33c0
00000180: e380 acbf eb9b 13c0 ef61 0bc0 888d 2fc0
