Results/Complete Sherlock Holmes/RNN/Adam/2/200/model.pt (torch, 647039 bytes, 10 tensors)

rnn.weight_ih f4 [200, 100]
000000 85 dc d4 3e 9e 07 66 3d 9a a9 f5 3d bb 46 17 3f
       0.41574493 0.056159608 0.119952396 0.590923
000010 98 a6 b1 3e 85 77 e9 3e db 58 ba be 21 72 c4 be
       0.34697413 0.45599 -0.36395916 -0.38368323
000020 2b 42 a0 3d 8b c4 1f be 61 87 39 be cd 67 0b bf
       0.078251205 -0.15602319 -0.18118049 -0.5445526
000030 63 50 55 bf 03 7d 9c be 8f d8 b6 bd 73 87 50 be
       -0.83325785 -0.30564126 -0.08928024 -0.2036417
000040 1e bd 80 3e 6f 26 6f 3f 49 07 fd be 96 58 44 bf
       0.25144285 0.9341802 -0.4941962 -0.7669767
000050 33 9e 03 3e dc bb db bf 8e 38 20 3f 0b 6c 83 b8
       0.12853317 -1.7166705 0.62586296 -6.266691e-05
000060 c5 40 9d be 5b c6 63 3e 9b 42 89 3e cd 6f 4e bf
       -0.30713478 0.22243635 0.26808628 -0.80639344
000070 ea ef 17 bf c0 ca 93 be c9 2b 8b 3f 92 71 f8 3e
       -0.59350455 -0.28865623 1.0872737 0.48524147
000080 c0 5d 22 bf 8e cb 3b bf c1 38 5b bf fe 5d c6 3e
       -0.634243 -0.73357475 -0.85633475 0.38743585
000090 5b ac e7 bd 64 6e 2a 3f 07 1e c8 be 6e 29 3a 3f
       -0.11312171 0.6657469 -0.3908541 0.72719467
0000a0 d6 d7 50 be db 87 8c 3c 3d 39 3d 3f 4a 13 6a 3f
       -0.20394835 0.017154625 0.73915464 0.9143568
0000b0 30 f6 36 bf a8 03 0e bf df d3 f9 bd 41 f6 e1 3e
       -0.714694 -0.5547433 -0.12198614 0.4413319
0000c0 aa 23 90 3f 6b e9 b7 3c 0d 7f 2a 3f c3 67 0d 3f
       1.1260884 0.02245017 0.66600114 0.5523645
0000d0 f2 3d 00 bf 1d 37 40 be a0 bd 15 bf 46 ee 26 3d
       -0.5009452 -0.18771024 -0.5849247 0.04075458
0000e0 90 14 04 3e 6b 89 9d 3e 0e 84 01 3f db ba b0 bd
       0.12898469 0.30768904 0.50592124 -0.0862939
0000f0 57 e4 0c bf da f4 f8 3d 9a db 2a 3f 01 0e c8 bb
       -0.5503592 0.12156077 0.66741335 -0.006105185
000100 70 8c 9b 3b ee 20 84 bc d8 41 b4 3c 6a 57 fe bd
       0.004746966 -0.016128983 0.022004053 -0.12419017
000110 a8 cd 83 3f 63 47 c9 bd 31 ab 56 3e 24 49 61 bd
       1.0297136 -0.09828069 0.20963742 -0.055001393
000120 b0 2e d0 3c dd 66 47 be 3a eb 5c 3f 43 61 82 3f
       0.025412887 -0.19472833 0.8629643 1.0185932
000130 19 67 d7 bd 56 ec 6d 3c 1f 59 54 3e 55 c5 8a bd
       -0.10517711 0.014521679 0.20737122 -0.06775919
000140 0c 8e 32 bd 58 59 69 bc d5 55 96 3e 20 2a 20 3d
       -0.043592498 -0.014242493 0.2936236 0.039102674
000150 d6 6c a1 3d e0 36 a3 bb 3d 05 50 3e 70 7b 97 3b
       0.07882087 -0.004980907 0.20314498 0.004622869
000160 84 da 88 bd cc 55 a0 3d 7c 1a 98 bc b2 d7 ce bc
       -0.066823035 0.078288645 -0.018567316 -0.025249336
000170 40 ce 63 bc f0 52 15 bd 67 1c e9 be f3 5c 82 3d
       -0.013904154 -0.03645605 -0.45529482 0.06365385
000180 44 96 5b be cf 88 62 bd c1 04 70 bd ee ae 40 3d
       -0.2144404 -0.055306252 -0.058598284 0.047041826
000190 f4 ff 7a 3e 14 46 dd 3d 96 20 89 3e 18 f5 93 be
       0.24511701 0.10804382 0.26782674 -0.2889793
0001a0 2c 55 f2 bc 97 d1 cf 3e f9 3a c0 be 51 1a 69 3d
       -0.029581629 0.40589592 -0.37544993 0.056909863
0001b0 6a 3a df 3e 48 2c 32 3c 41 df 45 3f 47 05 86 3f
       0.43599254 0.010874815 0.77293783 1.047036
0001c0 93 d2 87 3e aa 8e 53 3e a4 44 cf 3f 96 77 4e be
       0.26527843 0.20659891 1.6192822 -0.20162806
0001d0 23 3f 74 3f 2d bd 75 bd d8 a8 b1 bf 7f f9 6f 3e
       0.9540884 -0.059994865 -1.3879652 0.23435019
0001e0 7b 5b fd 3d 30 77 5c 3f 43 e8 cc bd 83 22 66 3f
       0.12370964 0.86119366 -0.10005238 0.8989641
0001f0 e6 1a 2a bf b8 82 6b 3f 53 3a b0 3a 28 66 8a 3f
       -0.66447294 0.91996336 0.0013445116 1.0812426
000200 1b 9d cc 3f b4 b6 7e be c1 73 2a 3f c6 57 83 3e
       1.5985445 -0.24874383 0.66582876 0.25652903
000210 6f e4 33 bf 3f cd 33 bf a1 1f b3 3f 32 5a a1 3f
       -0.70270437 -0.70235056 1.3994027 1.260565
000220 cb b3 76 3c 88 77 a1 3c 4b 00 b4 be f4 e4 56 bd
       0.015057514 0.019710317 -0.35156474 -0.05246444
000230 0f 47 1f 3f 4d 4c 38 3f ce 93 19 3f 21 c4 43 bf
       0.622178 0.71991426 0.5999116 -0.76471144
000240 05 d7 cb 3f 54 5d 36 3f be 0a 3d 3f f0 f3 04 3f
       1.5924994 0.7123616 0.73844516 0.5193472
000250 cf f2 77 3f 09 73 10 bf 95 3e 0c bf d7 eb 4e 3f
       0.9685487 -0.5642553 -0.5478299 0.80828613
000260 c0 33 96 3d 29 50 58 3f 30 9a 8f be 40 1c 75 bf
       0.07334089 0.84497315 -0.28047323 -0.9574623
000270 59 90 c0 3c 28 27 f5 3e e2 1b 21 bf 8d 82 58 3e
       0.02350633 0.47881436 -0.6293317 0.21143551
000280 fc 63 80 3e e1 f3 32 3e 1e dd 79 bf 6e 7b 36 bf
       0.25076282 0.17475845 -0.97603023 -0.7128209
000290 ec 71 10 3d 5c 7d ba 3c aa 78 0f 3d 86 67 27 3e
       0.035264894 0.022764854 0.035027184 0.16348085
0002a0 56 de 75 bf ff 4b 82 be 5f f3 64 3e ab e4 50 bd
       -0.9604238 -0.25448605 0.22358464 -0.050999325
0002b0 c0 e6 21 bc 9f 1e 8d 3f cc 38 a1 be 4c fa d4 bf
       -0.009881675 1.102497 -0.31488645 -1.6638885
0002c0 cd 5e a9 3d 20 c6 42 be d8 d5 31 bf fa 23 80 bd
       0.08270035 -0.19020891 -0.69466925 -0.06256862
0002d0 86 69 5c 3d 80 c6 0a 3a 13 0e a7 bf ab ee 6c bd
       0.053811572 0.0005293861 -1.305117 -0.0578448
0002e0 da fe 09 be 22 fd b5 bc 5b d4 25 3e e4 9c 45 3d
       -0.13476124 -0.02221543 0.16194288 0.048245326
0002f0 d8 29 1b 3d ef 79 12 bd 40 4d 17 3d b8 8c d5 3c
       0.037881702 -0.035760816 0.036938906 0.026068076
000300 45 19 0e bd 80 ed cb bb b7 97 95 bf ba 60 0a 3d
       -0.034692068 -0.0062233806 -1.1686925 0.033783652
000310 b1 f7 fc bf 5e a7 87 bd 40 cd 23 bb 40 80 43 bc
       -1.976309 -0.0662372 -0.0024994165 -0.011932433
000320 0a b3 32 3e 16 55 25 bf 1d dc 47 3e d0 00 2b 3e
       0.1745111 -0.64582956 0.1951756 0.16699529
000330 70 5b c3 3e c5 bd 7e be df c9 6b be 4e 65 05 3f
       0.381557 -0.24877079 -0.23026226 0.52107704
000340 a7 0d 15 bc cb ff 12 be b8 40 03 3f 55 e8 0a bf
       -0.009097493 -0.1435539 0.5127063 -0.5426076
000350 9c 7b a5 3f 4e 5b ad 3f f9 6b c2 3e be b7 23 3f
       1.2928348 1.3543489 0.37973002 0.63952243
000360 6b d6 cc 3f 46 90 46 be c4 58 76 bf 18 b3 be be
       1.6002935 -0.19390973 -0.96229196 -0.37246013
000370 d2 61 31 bf bf dc 05 40 17 09 05 3f 1c bf ca be
       -0.69289887 2.0915983 0.51966995 -0.3959893
000380 45 20 07 c0 04 b0 3a 3f ad b2 92 bf 14 bc 85 bd
       -2.1113446 0.7292483 -1.1460778 -0.06530014
000390 be f5 dd 3e 98 48 e6 be b8 8b cf be 2c e5 9c 3f
       0.4335155 -0.4497726 -0.40536284 1.2257438
0003a0 ab c9 e2 3e 55 e2 55 3e f2 98 d1 3d 85 64 9a 3e
       0.44294485 0.2088712 0.1023425 0.30154815
0003b0 26 0f 8b bf ea 4d 8b be 4e d8 98 be bb 52 2c 3e
       -1.0863998 -0.2720788 -0.29852527 0.16828434
0003c0 d4 f5 90 3c 89 d2 6e 3e 8f 78 b9 bd b7 18 8e 3e
       0.017695345 0.233225 -0.09056198 0.2775323
0003d0 e8 f5 d1 3e 61 70 32 3e da bd d4 3d b0 07 b7 be
       0.41007924 0.17425682 0.10387774 -0.35748053
0003e0 a5 c2 31 3f 8c 44 49 be fd 80 d7 be 76 09 c4 be
       0.6943763 -0.19655055 -0.42090598 -0.38288468
0003f0 91 2e 6f bd 9b 31 44 be 57 26 2c bf 71 49 67 bf
       -0.05839402 -0.19159548 -0.67246 -0.9034644

rnn.weight_hh f4 [200, 200]
000000 39 53 c8 be 95 2e f3 3e 70 80 3a be 24 fb 56 bd
       -0.39125994 0.47496477 -0.18213058 -0.0524856
000010 20 9f 90 3e 16 ee 30 be 42 a0 89 3e e5 7b 1f 3e
       0.28246403 -0.17278323 0.2688008 0.15574606
000020 5a 8d 5b 3e b3 51 6b 3e 2a b3 95 3c 44 a3 37 be
       0.2144064 0.22980385 0.018273909 -0.17933375
000030 fe 31 a4 3e 9a ce 4f 3d 49 08 2c 3f 59 91 23 3f
       0.3206939 0.05073414 0.6720014 0.6389366
000040 28 b8 c1 bd c6 12 46 bd c8 14 11 bd 4f b9 06 be
       -0.09458953 -0.048357747 -0.03542021 -0.13156627
000050 19 02 e0 3d ea ec 25 3e 48 e2 f5 3d 5f 6a af 3d
       0.109379 0.16203657 0.1200605 0.085652106
000060 47 3c 87 3e 94 94 66 3e ac 6e 98 3e e2 c1 9f 3e
       0.26413175 0.22517616 0.29771936 0.31202608
000070 d9 86 81 be f9 01 41 bd 45 42 c6 be 25 b3 6e 3e
       -0.25298193 -0.047121022 -0.38722435 0.23310526
000080 c3 a4 13 3d c8 64 e6 be c0 8b b1 bd 91 72 79 be
       0.0360458 -0.44998765 -0.08669233 -0.2436011
000090 4a c7 c0 bc 20 01 85 be 82 3e 1d bd 60 30 eb 3e
       -0.023532528 -0.2597742 -0.03838969 0.45935345
0000a0 91 cf 20 3e 2a 7d 5f 3e 39 03 3f 3e ce 1b 89 be
       0.1570418 0.2182509 0.18653573 -0.26779026
0000b0 45 34 08 bc 61 4f 13 bd 99 73 02 be 78 87 9c 3e
       -0.008313243 -0.035964373 -0.1273941 0.30572104
0000c0 3a be cb bc c4 89 1c 3f 37 d5 bb 3e 01 36 24 be
       -0.02487098 0.61147714 0.36686108 -0.16036226
0000d0 e6 be ca 3e 6d 4e da be fb 0f b4 3d 84 3b 60 3e
       0.3959877 -0.4263796 0.087921105 0.21897703
0000e0 4a 56 97 3e 61 28 7b 3e df f3 33 3f 95 9e 3a be
       0.2955802 0.24527122 0.7029399 -0.18224557
0000f0 1d 6a 09 3e 7e df 08 3f 95 26 bd be e3 11 a0 be
       0.13419385 0.5346602 -0.36943498 -0.31263646
000100 2c 5a a0 be e2 7a 57 3e fb ac a1 be c9 e9 92 be
       -0.31318796 0.2104297 -0.31577286 -0.2869399
000110 b8 ce b1 3e 83 07 40 be bc 9a 77 3d 58 33 36 be
       0.34728026 -0.18752865 0.0604503 -0.17793024
000120 91 ad 43 3e 0e 89 96 3e 23 21 2c 3e 95 d5 7e 3e
       0.19109179 0.2940144 0.16809516 0.24886163
000130 88 70 04 3f b0 ab 5c 3e 1b 9b 03 bf d8 b8 0d bf
       0.5173421 0.21549869 -0.5140855 -0.55360174
000140 66 21 22 be 88 8b 99 bd 0e 7f 2f be 5c 0d 9a 3e
       -0.15833053 -0.074973166 -0.17138311 0.30088317
000150 44 81 28 be d1 16 54 3e a7 cd a0 be 58 df ac 3e
       -0.16455561 0.20711829 -0.314069 0.33764148
000160 3f 50 69 3f 23 51 ae bd a9 f4 0d 3f 07 12 28 3e
       0.9113807 -0.08511569 0.55451447 0.16413127
000170 ce bb b2 3e f4 1c 71 be e2 2b c9 3d 53 a1 89 be
       0.3490891 -0.23546201 0.09822823 -0.26880893
000180 45 7b 53 be 42 c0 15 3e 30 d9 a8 3e 22 66 dd 3b
       -0.20652492 0.14624122 0.329782 0.00675656
000190 20 a5 27 3e 04 8b 5e 3e 24 53 67 3e 5d 12 8f be
       0.16371584 0.21732718 0.2259031 -0.27943698
0001a0 a8 cd 90 3e f0 85 73 be 51 e0 26 bb 68 11 4d bd
       0.28281903 -0.23781562 -0.0025463293 -0.050065428
0001b0 66 d6 24 bf d6 ab ef be 91 83 cb be 08 4c 40 bd
       -0.64389646 -0.46810788 -0.39748815 -0.04694751
0001c0 d7 41 b0 be 8f f9 12 3e 39 d8 2f be 66 0a a7 be
       -0.34425232 0.14353012 -0.17172326 -0.3262512
0001d0 7c 53 b3 3e 4c 76 de 3d ed 79 9a be fa 4d 9e be
       0.3502463 0.10862407 -0.30171147 -0.30918866
0001e0 f3 1d 63 3e ac 6b 2d 3c 3d c0 bc be a3 59 7f be
       0.22179393 0.010584753 -0.36865416 -0.24936537
0001f0 29 9b 69 3d 17 17 bd be 49 9f 40 bc 6a 2e 25 3e
       0.057032738 -0.3693168 -0.011756727 0.16130987
000200 7c 71 09 be eb b6 27 be ce 07 0f be 15 e9 bf be
       -0.13422197 -0.16378371 -0.13967821 -0.37482515
000210 f6 ac ab be 10 48 08 3e fa 9c b1 be d8 c2 1e be
       -0.33530396 0.1330874 -0.34690076 -0.15504014
000220 f9 77 54 bd b9 0e 89 be a9 f6 f4 be 3b 2b f5 be
       -0.051872227 -0.26769045 -0.47844437 -0.47884545
000230 c6 ef 06 bf 3a 9b 98 be 69 c3 96 3d 9f da 38 3e
       -0.52709615 -0.29805928 0.0736149 0.18052147
000240 ec bc 7d be e2 c7 86 be b9 d6 63 be 1b 9f 4a bf
       -0.24779099 -0.26324373 -0.22249879 -0.79149026
000250 6f 5a 87 be 50 f5 8f bd 9f 58 d6 be 9a 0a 29 3e
       -0.26436183 -0.070292115 -0.41864488 0.1650795
000260 05 37 76 be 6b c2 b4 3d 59 35 42 3e bc 4d 13 be
       -0.24044426 0.08826145 0.18965663 -0.14385122
000270 ba c1 7a 3d f6 6c 22 3d d7 9b 99 bd 7d c8 d2 bd
       0.06121991 0.039654694 -0.07500427 -0.10292146
000280 b3 78 8b be f5 b7 a7 3e 84 a8 3a bc 38 b9 bc 3e
       -0.27240524 0.32757536 -0.011392716 0.3686006
000290 5a 54 f6 3c 4a 5d ab 3b 8f 2f 7a be 33 e4 0f be
       0.030069519 0.005229627 -0.24432205 -0.14051895
0002a0 90 1f a6 be 42 b9 ce 3e 56 05 eb 3e dd 15 86 3e
       -0.32445955 0.40375715 0.45902508 0.26188555
0002b0 e6 67 b4 be 33 2d 35 be 10 00 a7 3b 12 8e 15 3e
       -0.35235518 -0.17693023 0.005096443 0.14604977
0002c0 ac 00 ef 3d 8f 73 43 bc 88 37 a5 be 7a 7c 07 bd
       0.1167005 -0.011929407 -0.3226893 -0.033077694
0002d0 ba f0 21 3e 97 15 e5 be 64 7f 08 3e 0d 51 ca bc
       0.15814486 -0.44743034 0.13329846 -0.024696851
0002e0 1c 26 1e be 75 19 48 be fd c3 0e 3f c6 6b 9b 3e
       -0.15444225 -0.19540961 0.55767804 0.30355662
0002f0 70 4f 18 be 3b a4 34 be a0 82 4a 3e c4 c3 74 3e
       -0.14874053 -0.17640774 0.19776392 0.23902804
000300 a7 03 7e 3d d5 21 8a 3e c2 03 8f 3e 66 a1 b6 3e
       0.062015202 0.26978937 0.27932554 0.35670012
000310 84 99 cb bd 30 1d 64 be 4e 8a a3 3d b2 73 15 be
       -0.0994139 -0.22276759 0.07985364 -0.14594916
000320 25 99 d6 3e 58 e8 10 bf 92 6b c9 be 9e 96 4f bf
       0.41913715 -0.5660453 -0.39339882 -0.810892
000330 0d bc 15 bf 48 ca 79 3e 65 c9 1e bf d3 1a b8 be
       -0.5849007 0.2439357 -0.62026054 -0.35957965
000340 64 d8 b7 3e 7c ea 04 3e e9 df 00 bf e3 62 00 3f
       0.3590728 0.12980074 -0.5034166 0.5015089
000350 c4 f2 12 3f b1 7b 0f be 0d 02 94 3d 7c 8e 5c 3f
       0.5740168 -0.14012028 0.07226954 0.86154914
000360 a3 44 77 be de 01 40 3a c8 24 04 3f 4c 69 b1 3d
       -0.24147277 0.0007324497 0.51618624 0.08662662
000370 d0 69 96 be bd 35 ba 3d d0 69 90 be 85 71 53 3d
       -0.29377604 0.09092281 -0.2820573 0.051621933
000380 9d 73 11 3d 96 23 2f 3f 2f 43 db bd 02 96 42 3f
       0.035510648 0.68413675 -0.10706174 0.76010144
000390 d7 de d5 bd d0 b5 16 3f ff 50 80 3c 27 60 01 3e
       -0.10442894 0.58871174 0.015663622 0.12634335
0003a0 8d 11 1d 3f f0 ee 62 3e 23 72 5c 3f df 8d 0f 3f
       0.61354905 0.2216146 0.8611166 0.56075853
0003b0 90 c7 da 3e b2 62 71 3e 7f 15 3e 3f 33 a6 6c be
       0.4273038 0.23572806 0.7425155 -0.23110275
0003c0 69 d3 89 3e ff d9 f0 be 1a 67 0f bf 16 af 01 bf
       0.26919106 -0.47041318 -0.56016695 -0.50657785
0003d0 c2 72 1c bf 5d 3d 20 3f a1 70 6c be ae 16 f0 be
       -0.61112607 0.6259363 -0.2308984 -0.46892303
0003e0 88 d1 8f 3d 8f f2 95 be 35 81 bb be e4 e8 17 bd
       0.07022387 -0.2928662 -0.36622015 -0.037087336
0003f0 d3 d8 3a 3d c4 7a 2c be be b1 51 bf 5e 0f 26 bd
       0.045616936 -0.16843706 -0.8191184 -0.040542

rnn.bias_ih f4 [200]
000000 e2 f1 14 be 6c 25 86 be ba df c2 bd b3 cb 10 3e
       -0.14545396 -0.26200426 -0.09515329 0.14140205
000010 c0 80 d1 3e 5b 3c 5c be dd d6 de 3e 4c 8d 9a 3e
       0.4091854 -0.21507399 0.43523303 0.30185926
000020 ed 90 19 be 08 ec a6 3e 6b 93 64 be 71 f8 d7 bd
       -0.14996691 0.32601953 -0.2232186 -0.10545433
000030 1e 6e f5 3e 6f 73 da 3e f0 22 3b 3e 38 66 d8 bb
       0.47935575 0.42666194 0.18275046 -0.0066039823
000040 6f dc fd 3e 49 41 14 be c8 47 95 be c7 20 ae bc
       0.4958224 -0.1447803 -0.29156327 -0.021255864
000050 85 aa 59 bd 20 22 97 be fd 62 a2 bd 99 06 e5 bd
       -0.053141136 -0.29518223 -0.07929037 -0.11182899
000060 9e 8f e0 3e 54 21 2a bf e6 01 97 3d 36 f6 35 be
       0.4385957 -0.66457105 0.07373409 -0.17769703
000070 78 50 85 3d a0 2c 39 be 59 e3 6a 3e f0 ee 06 3e
       0.06509489 -0.1808343 0.22938289 0.13177085
000080 bc 2c fa 3e 62 c8 9b be 94 0b d2 be 23 a5 01 bf
       0.48862255 -0.30426317 -0.41024458 -0.50642604
000090 3d f0 fc bb 9c c0 6e be 92 6d 28 3e 92 aa 61 3f
       -0.0077190683 -0.23315662 0.16448048 0.88150895
0000a0 51 98 fc 3d 3c 54 0e 3f 77 17 3c 3e f9 75 d3 bd
       0.123337395 0.5559728 0.18368326 -0.10325236
0000b0 56 2a e2 3d f0 18 75 be 5f 44 b4 be 6c b2 75 3f
       0.11043231 -0.23935294 -0.35208413 0.95975375
0000c0 a5 0b 0f 3f b2 fc 29 3e 71 b3 c9 3e c2 1e 83 3d
       0.55877143 0.16600302 0.39394715 0.06402351
0000d0 c8 38 41 3f 75 2c 74 be 5e 4f b6 3e 66 0a 14 3e
       0.75477266 -0.23845084 0.35607427 0.14457092
0000e0 1d e5 86 3e 0a 48 89 3e 2f 05 ad 3e b5 e9 da be
       0.26346675 0.26812774 0.33793017 -0.4275643
0000f0 96 f0 0b 3d e9 8a 61 3f a9 a3 91 bd 4d 8c 55 3e
       0.034164988 0.88102585 -0.07111294 0.20854302
000100 3f 5c 58 bf 6d 3c 58 3e f6 b2 2b bf fb fd 34 bf
       -0.84515756 0.211168 -0.6706995 -0.70700043
000110 ca ad fa be 37 ee 64 3e 75 08 1c 3e 91 f0 6a be
       -0.48960716 0.22356497 0.15237601 -0.22943331
000120 92 f8 de 3d 1f e8 cd 3d 46 c4 3b 3d 2a b2 09 3e
       0.10887255 0.10054039 0.045841478 0.1344687
000130 1b 0e 12 3f 3a 15 44 3e 1b 82 13 bf a4 fa 2d bf
       0.57052773 0.19148722 -0.576204 -0.6796057
000140 25 fa 35 3d aa 1c 60 be fe 00 64 3e 50 a1 4d bd
       0.04442801 -0.21885934 0.22266003 -0.050202668
000150 62 d3 d3 be 63 09 56 bd 6f 6f 2f bd 2d ac de 3e
       -0.4137221 -0.052255046 -0.04283088 0.43490735
000160 f1 58 a1 3f d9 d0 f8 bd 15 5b 1e 3e 09 f3 0d 3f
       1.2605268 -0.121492095 0.15464433 0.5544897
000170 1c 12 0f 3f 3b 72 1b bf ff d4 de bc fa a1 6f be
       0.5588701 -0.60721177 -0.027201174 -0.23401633
000180 a7 2b ea bd d4 63 1d 3f 35 a4 ac 3e 02 51 5d 3f
       -0.11434107 0.6148045 0.3371903 0.86451733
000190 c8 8a 56 3e f7 db 55 bc b6 ea 19 be 55 d7 ec be
       0.20951378 -0.013052932 -0.15030941 -0.46258035
0001a0 e3 55 7e 3e de 6b aa be 1a b6 02 be e7 30 88 bd
       0.2483745 -0.3328542 -0.12764779 -0.066499524
0001b0 84 75 a1 be 31 5a 7a bf 3b 0d 15 bd e6 f9 6b 3e
       -0.3153497 -0.9779387 -0.03638957 0.23044547
0001c0 ef 38 ea be 20 50 c1 3e b6 f7 6a be 0d 2d 91 bd
       -0.45746562 0.37756443 -0.22946057 -0.07088671
0001d0 7f 83 6f 3f b3 96 44 bd 06 2b 25 bd ed 8a 41 bf
       0.9356002 -0.04799528 -0.040324233 -0.7560261
0001e0 ac 78 8e 3a 4a 84 2d 3e 7a 2c 5b bf fd aa 1c bd
       0.0010869703 0.16944996 -0.8561474 -0.038249005
0001f0 4e 44 79 be 26 9d fa bd 6b f7 4a 3e 4d 84 58 3e
       -0.24342462 -0.12237005 0.19820945 0.21144219
000200 f7 53 60 be 38 93 02 be 42 49 00 bf 7e 16 e4 be
       -0.2190703 -0.12751472 -0.5011178 -0.4454841
000210 03 e4 e1 be 1f 67 85 bd 7a fe 4a bf c8 1f 2f be
       -0.44119272 -0.065138094 -0.7929455 -0.17101967
000220 09 52 52 3e a4 0f f0 be 2d 38 bd be c1 10 0a be
       0.20539106 -0.46886933 -0.3695692 -0.13482954
000230 35 9b 09 bf 41 ab 43 be 2e 02 f3 be 65 80 c9 3d
       -0.5375245 -0.19108297 -0.474626 0.098389424
000240 45 9c 6d bd cb 7d 09 bf c6 3c 77 bd 16 c9 b1 be
       -0.05801036 -0.5370757 -0.060360692 -0.3472373
000250 ea 3e 5c bd 88 43 07 be 7c 25 06 be 60 ba cf 3e
       -0.053770937 -0.13209355 -0.13100237 0.4057188
000260 30 ca 90 bc c8 b4 58 3e 81 7b 2e 3e 50 5e 1a be
       -0.017674536 0.21162713 0.170393 -0.1507504
000270 1a 68 ef 3e ca 5e 42 bf fd 45 c3 3e d7 95 b3 be
       0.4675911 -0.75925887 0.38139334 -0.35075256
000280 f2 cf b2 3e 41 9b 85 3d ba 69 db 3e a1 63 e2 3e
       0.34924275 0.06523753 0.428541 0.44216636
000290 a7 18 9b bd f6 a9 52 be e4 88 92 be 5c c2 30 be
       -0.075730614 -0.20572647 -0.28620064 -0.17261642
0002a0 a2 8e 99 be 63 16 6f 3e 0f 39 7c 3e 65 fa 4b 3d
       -0.29991633 0.23348384 0.24631141 0.04979934
0002b0 a5 d5 46 3e c8 29 b2 3d 1e c2 26 be 19 40 cc 3e
       0.19417436 0.086993754 -0.16284987 0.39892653
0002c0 8c 6b e5 3c fa 7a 1d 3e db f2 70 bf d3 65 08 bf
       0.028005384 0.15378943 -0.9412057 -0.5328037
0002d0 4a 13 2b 3e 45 eb f6 3d 5e 7f 86 3e 94 e2 94 bd
       0.16706577 0.12056593 0.26269048 -0.07269779
0002e0 4d fb 11 3e 2f 95 f7 bd f4 3e 28 3f bc 3d b2 3d
       0.1425602 -0.120890014 0.6572106 0.08703181
0002f0 9e 2e 84 be 6e db 41 bd 33 91 f0 3d d7 3d 96 3d
       -0.25816816 -0.047328405 0.117464446 0.07336014
000300 f4 ff 06 be 01 da 47 3f e6 33 60 3d b4 3d c3 bc
       -0.13183576 0.7806702 0.054736994 -0.023833133
000310 37 fb fe be bd c2 11 bc 4f b3 61 bd 0e 3e 03 3e
       -0.49801037 -0.008896527 -0.055102643 0.1281664

rnn.bias_hh f4 [200]
000000 42 e5 4f be 93 b6 53 be 18 3c 24 bd 00 19 37 3e
       -0.20302299 -0.20675115 -0.040096372 0.1788063
000010 0c e8 d0 3e fe ec 4a be 05 48 dd 3e 68 d4 a0 3e
       0.40802038 -0.19816968 0.4321901 0.31412053
000020 7e 2e 1b be c9 8c 80 3e f3 af 25 be eb f2 2b be
       -0.15154454 0.2510741 -0.161804 -0.16791885
000030 df bb d0 3e 41 db bf 3e f7 19 4d 3e 21 b2 1a bd
       0.40768334 0.37471965 0.20029436 -0.037767533
000040 20 04 00 3f 71 dc f6 bd e3 7d 9a be 2e 11 25 bd
       0.50006294 -0.120537646 -0.3017417 -0.040299587
000050 43 85 24 3d 52 42 8b be 84 42 af bd 6b b8 d7 3a
       0.04016615 -0.27199036 -0.08557609 0.0016458159
000060 79 84 d9 3e ae 52 1c bf 37 b4 93 3d de b4 92 be
       0.4248388 -0.6106366 0.07212108 -0.28653616
000070 cc 2e e9 3d 5e 8b cf bd 45 3a 56 3e 91 7c 45 3d
       0.11385879 -0.10134004 0.20920666 0.0482145
000080 e5 38 06 3f 3e eb 76 be a2 88 f8 be 27 b4 08 bf
       0.52430564 -0.24113175 -0.48541743 -0.5339989
000090 c9 7a 46 3b ac e2 00 be e6 56 7c 3d 69 dc 5d 3f
       0.0030285588 -0.12586468 0.06160631 0.86664444
0000a0 f3 79 42 3d 1d 5f 07 3f b3 5a 79 3e e9 74 3f bd
       0.04747958 0.52879506 0.24351005 -0.046742354
0000b0 92 7d 79 bc 05 9a 26 be fe 9b b5 be 3e 67 74 3f
       -0.015227692 -0.16269691 -0.35470575 0.95470035
0000c0 78 07 0f 3f 24 68 bf 3d 85 22 a0 3e c2 58 4c bc
       0.5587077 0.09346035 0.31276336 -0.012472333
0000d0 50 79 2a 3f b0 82 a4 be e4 9d bd 3e a8 f0 9a 3d
       0.6659136 -0.32130957 0.37034523 0.07565433
0000e0 85 84 86 3e 50 3d 2b 3e 63 6b ac 3e d4 c7 d5 be
       0.2627298 0.16722608 0.3367568 -0.4175402
0000f0 50 8a a2 3d 8c 85 58 3f 68 56 98 bd ee 87 12 3e
       0.07936537 0.84578776 -0.07438356 0.14309666
000100 55 74 64 bf 82 9e 3a 3e bb a0 1f bf f1 03 34 bf
       -0.8924001 0.18224528 -0.6235463 -0.70318514
000110 ae 12 cc be 90 8d 60 3e f6 00 52 3e 95 08 bd bd
       -0.39858 0.21929002 0.20508179 -0.092301525
000120 9e af 13 bc d3 76 0e bc 7d 68 87 3c 43 8c 9b 3d
       -0.009014038 -0.008695322 0.016529316 0.07595112
000130 db 22 01 3f c8 1f 35 3e f0 a2 20 bf 2b e9 2d bf
       0.5044381 0.17687905 -0.6274862 -0.6793391
000140 c6 d9 30 3d 69 a8 d1 bd 21 6b 48 3e 28 2f 70 bd
       0.043176435 -0.102372 0.19572116 -0.05863872
000150 65 7f 9c be e9 b9 c2 bd cc 0e c2 3a 76 14 06 3f
       -0.30565944 -0.09508116 0.0014805435 0.5237497
000160 52 3f 9f 3f da a6 11 be da b6 fa 3d 0c 99 15 3f
       1.2441199 -0.14223805 0.122419074 0.58436656
000170 e2 cf 1e 3f ea bb 07 bf 99 26 30 bd ed f5 e8 bd
       0.62035954 -0.5302111 -0.04300556 -0.113750316
000180 0d f9 73 be 40 16 28 3f 67 37 cd 3e 80 21 71 3f
       -0.23825474 0.6565895 0.4008133 0.9419174
000190 7c 7c a8 3e a0 99 d0 bd 14 bc 1f be 6d 16 09 bf
       0.32907474 -0.10185552 -0.1559909 -0.53549844
0001a0 7d 0a 45 3e 43 7c 8d be 21 bf 81 bd 2a ad 93 bd
       0.19242282 -0.27633867 -0.06335283 -0.07210763
0001b0 45 7d cf be 8b f0 89 bf dc 18 78 bc 85 c8 4f 3e
       -0.4052526 -1.0776533 -0.015142646 0.20291336
0001c0 4e 81 ba be 3e da b8 3e 62 0f 6e be e5 7c 32 be
       -0.36426777 0.36104006 -0.23248056 -0.17430456
0001d0 8c a7 56 3f 2f 7f 87 bd 45 77 a3 bd 1e 20 49 bf
       0.83849406 -0.06616055 -0.07981733 -0.7856463
0001e0 4a cb 52 3d 69 75 1c 3e cc f4 55 bf 63 6a 80 bc
       0.051463403 0.15279163 -0.83576655 -0.01567573
0001f0 b3 dc ad be 1b 97 d2 bd 1e 93 54 3e 22 f1 48 3e
       -0.33957443 -0.10282727 0.20759246 0.19623235
000200 f6 9f 6e be 8e 1c ff bd e9 ed d3 be 8d 7b f2 be
       -0.23303208 -0.12456618 -0.4139245 -0.47359887
000210 f9 38 e1 be 26 be c1 bd 13 46 31 bf 48 86 3b be
       -0.4398878 -0.09460096 -0.6924755 -0.18312943
000220 df 7c 4e 3e 0f 2b e8 be ac f5 dc be e0 d9 41 be
       0.20164822 -0.4534535 -0.43156183 -0.18930769
000230 ee d6 e2 be 6f 12 80 be 77 00 c3 be 58 59 27 3e
       -0.44304603 -0.25014064 -0.38086292 0.16342676
000240 5c 60 42 bd 63 75 09 bf cb fc f8 bc 11 14 b9 be
       -0.047455177 -0.5369474 -0.030393979 -0.36148122
000250 10 7d 5b 3c d5 37 93 bd 3f e7 12 be 8e 99 b1 3e
       0.013396516 -0.071883835 -0.14346026 0.34687465
000260 9f 5d 9d bc 5a 9b 60 3e a8 32 00 3e 11 39 f5 bd
       -0.019209681 0.21934262 0.12519324 -0.11973775
000270 46 d3 cf 3e 91 ae 35 bf f3 05 e0 3e ed 4d c8 be
       0.40590876 -0.7096949 0.4375454 -0.39121953
000280 6c 96 ae 3e 3e d4 ff bc 4a 75 01 3f db 7a ea 3e
       0.34099138 -0.031229135 0.50569594 0.45796856
000290 e9 e7 05 be 0e 6b 8a be 2e 03 84 be e7 57 f4 bd
       -0.13076748 -0.270348 -0.25783676 -0.119308285
0002a0 ef fb 70 be 8c 9c 60 3e 3b 8b a3 3e a8 d3 63 3c
       -0.23533605 0.21934718 0.31942162 0.013905443
0002b0 08 00 08 3e d8 e5 a3 3d 9a d8 cf bd 5f 4d b4 3e
       0.13281262 0.080028236 -0.10148735 0.3521528
0002c0 0b 83 4b 3d be 53 d7 3d 3f 5c 5b bf b4 1e ee be
       0.04968552 0.105140194 -0.8568763 -0.465078
0002d0 54 0c 50 3e 4a f5 0d 3e 42 f4 94 3e d0 6f 82 3b
       0.20317203 0.13863102 0.29092604 0.0039806142
0002e0 53 5f 30 3e e0 2f 81 be a0 e3 45 3f 87 9f 4b 3e
       0.17223863 -0.25231838 0.77300453 0.19885074
0002f0 72 38 9b be 4f c0 8e 3d 81 df 3a 3d 62 46 d1 3c
       -0.30316502 0.06970274 0.045623306 0.025546256
000300 f9 86 97 bd 7d 2b 40 3f 5e a8 24 3e fe bf 45 bd
       -0.07398791 0.7506636 0.16079852 -0.0482788
000310 e4 31 fa be 7c 86 84 bc cb a1 56 bd 6e fd 18 3e
       -0.4886619 -0.016177408 -0.05240039 0.14940426

rnn2.weight_ih f4 [200, 200]
000000 01 57 10 bf ad 84 33 3e d3 52 70 bd ba ba 3b 3f
       -0.5638276 0.1753108 -0.058672737 0.733318
000010 85 c2 64 3f 4b e1 1b 3f 32 fe 4b 3e 41 9e 4c bf
       0.89359313 0.60890645 0.19921187 -0.79928976
000020 92 94 5d bf 74 e5 72 3f de 03 a3 be 25 4a 1e 3e
       -0.86554825 0.9488137 -0.31838888 0.15457971
000030 36 29 a5 bd 95 a0 4c 3f ff f6 3a 3e 07 ae d4 bd
       -0.08064501 0.7993253 0.18258284 -0.103847556
000040 54 f4 db 3e 58 a6 ac 3e 50 0f b9 be 5d ae 3b 3e
       0.42959845 0.3372066 -0.36144495 0.18328233
000050 10 58 ef bd ff e2 6d bf 7b 9e 32 be 8b 3b 70 3d
       -0.116867185 -0.92924494 -0.17443268 0.058650535
000060 92 17 d3 3e cf c0 7a 3e 8a c1 33 3f f2 2e 3c bf
       0.4122892 0.24487613 0.7021719 -0.7350913
000070 9d c8 3b 3e d7 7a 9f 3e 9b 38 81 3c b0 e6 ac 3e
       0.18338247 0.31148407 0.015774062 0.3376975
000080 4c 16 dd bd c0 2d dc bd 52 79 37 bf 73 72 39 be
       -0.107952684 -0.107509136 -0.71669495 -0.18110065
000090 78 24 a5 be a5 d9 cd be ac 13 c0 be b5 35 6d 3e
       -0.32254386 -0.40205112 -0.37515008 0.23165019
0000a0 ae 4f 29 bf b3 cb 84 3d 4b 79 25 be b6 55 13 bc
       -0.66137207 0.06484165 -0.16159551 -0.008992603
0000b0 8f 22 92 bf 8b 9c d4 3e c0 d0 91 be 51 7d d9 3d
       -1.1416796 0.41525683 -0.28479576 0.10619605
0000c0 09 7c 47 bf 1a fb a4 bc f8 c8 6e be 24 0f 1b 3e
       -0.7792364 -0.020139266 -0.23318851 0.15142494
0000d0 80 33 80 3e b1 05 d7 be 4a 7e 83 3d 23 89 15 bf
       0.2503929 -0.4199653 0.06420572 -0.5841238
0000e0 db b1 9c bd 10 61 be 3d f2 37 76 3e 2a 2c 47 3e
       -0.07651111 0.09295857 0.24044779 0.19450441
0000f0 8c 99 52 3e a9 4d 92 be 8a de 32 bd b2 9c 13 3e
       0.20566386 -0.28574875 -0.04366926 0.14415243
000100 96 c8 0a bf 83 1e 31 3e 65 0a 0b bf 12 88 9e bc
       -0.5421232 0.17296796 -0.54312736 -0.019351993
000110 fb 36 e1 be fc f9 16 be 15 06 d7 3e e8 eb 1c be
       -0.4398726 -0.14743799 0.41996828 -0.15324366
000120 f5 e7 63 bf 67 2d f8 3d 6e 22 cf be 32 1b c2 3e
       -0.89025813 0.12118035 -0.40455955 0.37911373
000130 45 bd 87 bd 82 e8 88 3d f9 0d a3 3d 65 b1 98 be
       -0.06627897 0.06684972 0.079616494 -0.2982284
000140 5c dc 07 3f ec 17 20 bd 05 92 44 3c 5a 1c 3d 3e
       0.53070617 -0.039085314 0.011997704 0.18467847
000150 de bd 66 3d 72 73 39 3f 76 15 33 bf 2c 7a 8a 3e
       0.056333415 0.7244178 -0.6995462 0.27046335
000160 0c ff 47 3e 06 9a 98 bf b1 3b 46 3e f2 83 9f 3e
       0.19530886 -1.1922004 0.19358708 0.31155354
000170 fe 6b c0 3e 3b ae ba 3d b0 74 59 bf ff d1 52 bf
       0.37582392 0.09115263 -0.84943676 -0.8235168
000180 33 f6 36 3e fc 4f 75 3e 21 88 cc bd 51 05 ad 3e
       0.17867355 0.23956293 -0.09986902 0.3379312
000190 c9 5d 8a 3e db cd 6a 3e 01 cf b1 be 86 55 62 3e
       0.27024677 0.2293009 -0.34728244 0.22102937
0001a0 cb f1 77 3e 14 b1 1a 3e 8d 65 5b 3f 8b 94 29 3f
       0.2421333 0.15106612 0.8570183 0.66242284
0001b0 43 4a 18 3f 43 0e eb 3c 50 e7 8d 3f 32 67 22 bf
       0.59488314 0.028693324 1.1086216 -0.63438714
0001c0 7a 2b 54 bf 27 26 6e be 0d dd 69 bf bf cf 14 bd
       -0.8287884 -0.23256741 -0.9135292 -0.036330935
0001d0 57 be 3d bf 9e 37 69 bf 1f a8 b4 bf d9 9b 6c be
       -0.7411856 -0.9110049 -1.4113806 -0.23106326
0001e0 85 a1 41 be dd 30 95 bb 9a a7 4a 3e df a1 5b bf
       -0.18909271 -0.004552944 0.19790497 -0.8579387
0001f0 bc 88 94 bf 0b 66 85 be 51 44 ab bd 3f d5 ac 3d
       -1.1604228 -0.26054415 -0.0836264 0.08439111
000200 4c 16 13 3f cf 7e 62 be 92 6c 12 bf 72 54 aa be
       0.574559 -0.22118686 -0.57196915 -0.33267552
000210 b5 af 8c 3d fa e4 35 bf d1 2d d6 be c1 8b 8f be
       0.06869451 -0.71052516 -0.4183183 -0.2803631
000220 15 a8 a9 be 15 81 a2 be ba 58 90 be 1a cb cc be
       -0.3313605 -0.31739107 -0.28192693 -0.39998704
000230 78 5a 54 be 42 21 77 bf b9 04 af bd 6c fd 51 3d
       -0.20737636 -0.9653512 -0.08545823 0.051267073
000240 6c d9 1a bf 11 56 b1 3d 0c 22 27 bf 24 a2 10 3e
       -0.6048801 0.08658994 -0.65286326 0.14124352
000250 49 fd 0e be 87 43 c5 3e bd 98 4b bf 98 46 d9 3d
       -0.13963808 0.38528082 -0.79529935 0.10609168
000260 16 25 46 bf 90 e0 ac 3e 6b b9 9b 3e 65 c0 a2 bd
       -0.7740034 0.33765078 0.304149 -0.079468526
000270 53 3f f2 be 10 e7 94 bd ed 6a 27 3c c3 77 58 3e
       -0.47313938 -0.07270634 0.010218364 0.21139435
000280 18 a3 8e be 14 25 e0 3e 8f 25 aa 3e 6a 89 41 3f
       -0.27858806 0.43778288 0.3323178 0.756003
000290 12 2d 25 3f 4f 0d 25 be 53 7f c6 be a0 8d 05 bf
       0.64521897 -0.16118358 -0.38769016 -0.5216923
0002a0 d3 19 1f bf f3 2b 46 3e a6 80 96 be 71 6c 17 be
       -0.6214878 0.19352703 -0.29395026 -0.14787461
0002b0 74 68 4c 3f 9b a6 32 3f 5b 44 45 bf 8a f7 b1 be
       0.7984688 0.6978547 -0.7705743 -0.3475917
0002c0 93 3b f7 be e5 91 e8 3f c3 23 27 bf ba 47 d4 be
       -0.4828764 1.8169523 -0.65288943 -0.41460973
0002d0 37 4d a2 3f 7c 65 cc bd da a7 38 3f 13 e1 b9 3e
       1.2679814 -0.09980294 0.7213112 0.3630453
0002e0 53 d8 91 bd e5 08 07 be 91 02 01 be ba 91 dd be
       -0.07121339 -0.13186987 -0.12598635 -0.43275243
0002f0 0a 52 82 3e c7 bb 3b 3f 71 c0 10 bd 8a 14 ed be
       0.25453216 0.733334 -0.035339776 -0.46304733
000300 0e b6 cb 3e e4 b6 53 3e 77 d3 25 3f 82 5d 56 3f
       0.39787334 0.20675236 0.64775795 0.8373643
000310 6f 19 25 bf ba e3 68 bb 5a f4 22 3f dd 9f b1 be
       -0.64491934 -0.0035536126 0.636541 -0.34692279
000320 a5 33 67 3f 0a d6 e4 bb d1 56 0a 3e 8f b3 e2 be
       0.9031318 -0.0069835233 0.1350968 -0.44277617
000330 81 0a e7 bd be 96 56 3d 47 de a6 be 4a fd 96 be
       -0.112813 0.052389853 -0.3259146 -0.2949012
000340 99 cb 85 3e df ee c5 be c6 26 b5 be 85 b1 6c be
       0.26131895 -0.38658807 -0.35381144 -0.23114593
000350 fc c2 27 3f e1 12 37 3f b3 6f 90 3c 4f e8 43 3f
       0.655319 0.7151318 0.017631387 0.7652635
000360 28 a3 5d be c1 5a 39 bf 27 6a f3 3d 27 d9 5b be
       -0.2164427 -0.72404104 0.11885481 -0.21469556
000370 b0 46 e8 3e 51 6b 05 3d e7 24 2e bd 3a c8 4e 3f
       0.4536643 0.032573048 -0.04251566 0.8077427
000380 15 cd 95 3e ca a3 3a 3e fd 38 16 3e 48 7f 27 3f
       0.29258028 0.18226543 0.14670177 0.6542859
000390 6f bd 01 bf 96 6d da bc 3c 30 99 bd 29 fb 37 3b
       -0.5067968 -0.026663583 -0.07479903 0.0028073287
0003a0 4e ba 75 be bb 89 4f be 0e d8 20 3f 12 95 dc 3e
       -0.23996851 -0.20267384 0.62829673 0.43082482
0003b0 6b 21 c7 3e 58 e0 a5 3e 21 37 06 3f 88 6c 95 bf
       0.38892683 0.32397723 0.5242787 -1.1673746
0003c0 60 a6 ee 3e 69 38 3d be ad e4 cb be de 38 19 bf
       0.4661131 -0.1847855 -0.39822903 -0.598524
0003d0 66 da de 3c 4d e0 a5 3e 3a 56 91 3e 66 f0 08 be
       0.02720375 0.3239769 0.28386098 -0.13372955
0003e0 95 8b cb 3e 0d 7b ed 3e 8c 43 a1 bd 84 f1 71 bf
       0.3975493 0.46382943 -0.07874212 -0.9450915
0003f0 20 a1 91 3d dc ae 6d 3d 6f 10 db be 0c 24 a8 3d
       0.0711081 0.058028087 -0.42785975 0.082100004

rnn2.weight_hh f4 [200, 200]
000000 ba 01 83 bf 9f 24 71 3c c8 c3 b6 3d cb 91 0c bd
       -1.0234902 0.014718204 0.08924061 -0.034318727
000010 8b fe 77 be 53 0c b7 3d 5a 09 5c 3e 23 60 f0 bc
       -0.24218194 0.089378975 0.21487942 -0.029342717
000020 b7 66 18 be 44 95 7d be c1 e8 c3 3e d8 2d 99 be
       -0.14882933 -0.24763972 0.38263515 -0.29917789
000030 75 fd ce bd 07 4c 98 3e ba e1 49 be f8 4e bd be
       -0.10106937 0.29745504 -0.19715014 -0.3697431
000040 00 ca c6 bd aa 0a ea 3e a6 15 9b be af 8c 24 3e
       -0.09706497 0.4571126 -0.30289954 0.16069292
000050 69 f0 67 bd d5 c8 d4 3e e5 04 cf be ad cd c7 3a
       -0.056625757 0.41559473 -0.40433422 0.0015243791
000060 47 16 0a be eb c3 60 be 4f ca b2 3b 78 38 42 be
       -0.1348506 -0.21949737 0.005456246 -0.18966854
000070 7b e7 4a bb 9f eb 35 bd 6f d2 69 bd 94 3d 55 be
       -0.0030960727 -0.04441416 -0.05708545 -0.20824271
000080 e2 5e 22 be 51 06 e4 be 97 cf ca bd 2c dd a6 3e
       -0.15856507 -0.4453607 -0.09902876 0.32590616
000090 1b 00 21 be 8c ba 2a 3e 95 5b 98 3e b4 67 50 bc
       -0.15722696 0.16672724 0.29757372 -0.012720037
0000a0 a7 a0 91 3e 43 1b fb bd e5 66 05 bf c4 ea 6d 3e
       0.2844288 -0.12261059 -0.5211013 0.23234087
0000b0 90 0a 38 3e 44 5a 86 3d c4 37 13 3f 7c df 3a bd
       0.1797278 0.065601856 0.57506967 -0.045623288
0000c0 16 18 a1 bc 05 ae fd bc 0e 77 14 be 25 1e 33 be
       -0.019664805 -0.030966768 -0.14498541 -0.17491968
0000d0 f7 fc 77 be 5e 8d 1b be 5b b4 93 3d 03 81 c1 be
       -0.24217592 -0.15190646 0.072121345 -0.3779374
0000e0 a3 78 6a be fb 37 bd 3d a3 50 d7 be d9 72 7c be
       -0.22897582 0.09239193 -0.42053708 -0.24653186
0000f0 01 10 97 3e aa 82 7c 3c 31 35 e3 be c2 91 05 bd
       0.29504398 0.015412012 -0.4437652 -0.03260971
000100 36 8e 08 3e 9e c7 de be 21 c8 93 bd bb 41 7a be
       0.13335499 -0.4351167 -0.07215906 -0.24439137
000110 a6 2f 96 3e 67 e5 00 bf 28 32 b4 3d 0b b9 8c 3c
       0.29333228 -0.5035004 0.08798629 0.01717808
000120 1f e6 b8 be 47 a8 e3 3a 84 73 7c bc 78 d6 2f 3f
       -0.36113068 0.0017368876 -0.0154084 0.6868663
000130 bb 33 9c be 3d 0d 1a be ee 57 36 bd b6 b2 99 be
       -0.30508217 -0.15044113 -0.04451745 -0.30019158
000140 f4 3b 99 be 62 09 1a be 88 fe 99 bc 73 3c 32 3e
       -0.29928553 -0.15042642 -0.018798128 0.17405872
000150 48 d1 14 3f f1 33 72 3d 67 0f f4 bd 5e 8b 8d 3e
       0.5813184 0.059131566 -0.11917 0.2764539
000160 64 c0 df 3d 9a 42 b6 bd 4f 92 02 3d 5f 12 c8 3d
       0.109253675 -0.08899422 0.031877812 0.09769129
000170 b2 aa 27 be 05 c6 2e be fc 7a f9 3d 00 f3 58 3e
       -0.16373709 -0.17067726 0.121816605 0.21186447
000180 03 6f e4 3e dc 89 e7 3d 13 1c 0e 3e a6 a6 91 3e
       0.44615945 0.113055915 0.13877897 0.28447455
000190 2d 48 cd bc 07 9e a6 3e 96 96 12 bd f1 b1 e2 bd
       -0.02505883 0.3254244 -0.03578814 -0.11069096
0001a0 47 37 44 3e 1a f3 9d 3d a7 0c 81 3e 30 d9 61 3e
       0.19161712 0.077123836 0.25204965 0.22055507
0001b0 70 2c 21 3d ea 40 2a bd 22 de a1 3e 0f 15 2d be
       0.03934902 -0.041565813 0.31614786 -0.16902564
0001c0 d5 33 52 3d 9e 41 74 3e 39 81 cc be c3 cb 6a 3e
       0.051318962 0.23853156 -0.3994234 0.22929291
0001d0 a4 8a a9 3d 0d d1 79 3e e2 a0 36 bd 73 cf b5 be
       0.08278397 0.24396153 -0.044587024 -0.35509834
0001e0 43 cd 08 3f 7e 72 b1 bd f6 39 ef 3d 2a 03 57 be
       0.53438205 -0.08664416 0.11680977 -0.209973
0001f0 24 de c2 3e a2 d7 77 3e 3b d6 04 3e ab f2 d1 be
       0.38060105 0.24203351 0.12972347 -0.41005453
000200 d2 44 8b bd 0f cc 3f be 87 b2 d4 bd 00 bc a2 3e
       -0.06800236 -0.18730186 -0.10385614 0.31784058
000210 a8 d0 96 be 44 19 36 bf bb 90 fe 3d 12 2f 6c 3e
       -0.29456067 -0.711323 0.12429949 0.23064831
000220 ce ec 4c be 04 d3 f1 3d 63 8d de 3d 59 98 0e be
       -0.20012209 0.11807826 0.10866811 -0.13925304
000230 9c 4c 20 be 7b ca 40 3e e7 dd 4a bf 72 e2 c7 3e
       -0.15654224 0.1882724 -0.79244846 0.39039952
000240 8c 91 12 3e a7 bf 23 be 51 bb 72 be c5 23 99 bd
       0.14313334 -0.15991078 -0.23704268 -0.074775256
000250 e8 b0 ac 3d 4c d5 80 3e 3c 1e 09 bf 50 ef 90 3c
       0.0843218 0.25162733 -0.5356176 0.017692238
000260 ce 90 89 be ce 09 d3 3d b2 9d cb bd 57 b7 0d 3e
       -0.2686829 0.103046045 -0.09942187 0.1383947
000270 be 18 c2 be 65 f6 b0 bd 73 f1 81 be ea ed 8a be
       -0.37909502 -0.08640746 -0.25379524 -0.2713464
000280 67 cb a1 3d 91 34 c1 3e d3 08 e8 3d a1 bc ff 3d
       0.07900124 0.37735417 0.11329808 0.1248715
000290 7e db 13 be de f8 18 be 02 00 2b 3d c1 2d d7 3e
       -0.14439198 -0.14938685 0.041748054 0.42027095
0002a0 62 d0 16 3e 81 2d 4c 3e b0 69 2e be 7f dc 48 be
       0.14727929 0.19939233 -0.17032504 -0.19615363
0002b0 be 03 13 3d b5 5a 6c bd 5f 6a 0d be 70 78 b0 3e
       0.03589224 -0.057703692 -0.13810109 0.34466887
0002c0 4f 4e 08 3e 06 cd 45 3e d8 48 10 3e cf b4 a5 3d
       0.13311122 0.19316491 0.14090288 0.08091127
0002d0 2f 50 85 bd 48 f4 22 3f 36 f1 9a 3d 90 ca 08 3f
       -0.065094344 0.63653994 0.075655386 0.53434086
0002e0 da 6a 9b 3e 43 08 fe bd 70 42 ba 3e a7 c5 57 3d
       0.3035496 -0.124039195 0.36378813 0.05267873
0002f0 74 ea 0f 3f 2d ff 10 3e 14 b6 6c be 3b 30 e6 bc
       0.5621712 0.14159842 -0.23116332 -0.02809917
000300 e9 51 10 bf b6 30 25 bd fa ff 90 3e fe 69 95 3d
       -0.56374985 -0.040329657 0.28320295 0.07295607
000310 73 d3 7c 3e b4 c7 d8 3e 6d 68 63 3d 98 58 28 be
       0.24690036 0.4233986 0.05551951 -0.16440046
000320 c3 aa f6 3d 7e f0 c6 be d1 4a ac 3d 9c 95 a6 be
       0.12044289 -0.38855356 0.084127076 -0.32536018
000330 cf 79 87 bd 10 62 ea be 3c 1d 86 bc fb dc bb 3e
       -0.0661503 -0.4577794 -0.016371362 0.36692032
000340 c9 86 ae 3e ac e9 14 be 7b 25 03 be af 9e b6 3d
       0.34087208 -0.14542264 -0.12807266 0.08916985
000350 8c 73 cd 3e 3f d4 92 3e c7 f1 ff 3e 93 e4 41 3d
       0.40127218 0.28677556 0.4998915 0.047337126
000360 88 8a 82 be 05 98 87 be 8a 7b a2 3e 57 9d bc be
       -0.25496316 -0.2648317 0.31734878 -0.3683879
000370 fc b6 2d 3e 2a 62 db 3d 9d 5d b4 3e a1 cb ac 3e
       0.16964334 0.10712083 0.3522767 0.33749107
000380 06 ca b8 3e 53 67 a4 bd ac 83 8a 3e f7 c2 02 be
       0.36091632 -0.0802752 0.27053583 -0.12769686
000390 a3 d4 06 3f 0a 4c c3 bd db ae f9 3b f7 bf 45 bd
       0.5266821 -0.09535988 0.0076197213 -0.048278775
0003a0 73 0c 00 bf 6b 3b 3c 3e fe 17 d7 bc a5 9e d9 be
       -0.50018996 0.18382041 -0.026256558 -0.4250385
0003b0 ce a7 fe bb 41 1d 6a be e0 1a 28 bd e2 72 82 3c
       -0.0077714687 -0.22862722 -0.041041255 0.015923921
0003c0 f9 ca 1f be 60 92 0b be f3 c8 af 3e 5a 33 01 3e
       -0.15604772 -0.13630056 0.34333 0.12617245
0003d0 8a 47 f1 3d ff 98 f2 bc b4 c3 c3 be e2 b9 93 be
       0.11781223 -0.02961397 -0.38235247 -0.28852755
0003e0 4a 0e b8 bd 2c 86 3f be 09 b9 08 3e df 0d b1 bd
       -0.089871004 -0.18703526 0.13351835 -0.08645224
0003f0 50 24 8f 3e 05 49 32 be 7f cd aa be ee 29 83 3e
       0.27957392 -0.17410667 -0.33359906 0.25617927

rnn2.bias_ih f4 [200]
000000 00 79 24 3e 33 ee 10 bf c1 41 8d 3c 32 46 4b bf
       0.16061783 -0.56613463 0.017243268 -0.79403985
000010 a3 c0 1a 3e ed 7f 86 be 63 ca d8 bd d2 ff a5 3d
       0.15112548 -0.26269475 -0.10585477 0.081054345
000020 b8 aa 12 3f 13 62 1a 3f 7a 4c 87 be a0 45 57 bc
       0.57291746 0.603059 -0.26425534 -0.0131391585
000030 fd b6 8c 3f 72 42 0e 3f fe ff 3a 3f e1 1c 7d be
       1.0993344 0.5557014 0.73046863 -0.24718048
000040 60 98 a4 be 5f 30 d5 3d 91 fa f5 3e 81 c9 4c bf
       -0.32147503 0.10409617 0.4804273 -0.7999497
000050 a7 1f ab 3e fc a1 c7 3c ad f8 9b 3e c2 27 35 3f
       0.33422586 0.024369232 0.30463162 0.7076379
000060 85 f1 51 3f 79 6f 17 be d0 f6 fc 3d 15 14 65 3f
       0.82009155 -0.14788617 0.12351763 0.8948377
000070 c4 fd 92 3f a5 2b 9b be 09 db b0 3e c7 02 97 be
       1.1483693 -0.30306736 0.3454211 -0.29494306
000080 e4 bc 3c bf 2b 39 a7 3e 6e 66 47 bf 40 64 11 bf
       -0.73725724 0.32660803 -0.7789067 -0.56793594
000090 71 21 ec be f2 72 60 bf 11 89 ec 3e e7 ff 72 3e
       -0.46119264 -0.8767539 0.46198323 0.23730431
0000a0 49 db 19 bf db 21 3f bf 54 c6 86 be b0 57 9d 3d
       -0.6010023 -0.74661034 -0.26323187 0.07682741
0000b0 6c 7a 44 3f 3d d8 a6 3e 56 36 e1 be ed b0 3d 3e
       0.767493 0.32586852 -0.43986768 0.18524523
0000c0 09 0c 78 3d ea 2d 23 be dd 37 78 3f ef 75 84 3f
       0.060558353 -0.15935484 0.9696024 1.034849
0000d0 45 88 29 3f 6a 40 1f bf da 4c c1 be 12 5a 16 3f
       0.66223556 -0.62207663 -0.37753946 0.58731186
0000e0 36 69 f7 be 35 2c 5b 3f f8 8f 67 3e c9 54 b9 3e
       -0.48322457 0.8561433 0.22613513 0.36197498
0000f0 aa 9b 3f be 20 22 12 bd a8 92 28 3e 95 98 78 3f
       -0.18711725 -0.035677075 0.16462195 0.9710782
000100 36 d5 13 bf bf 64 cb 3e e0 95 ae 3e 61 f3 0a bf
       -0.5774721 0.397253 0.3409872 -0.54277617
000110 4b fd a0 be d5 0a 44 3e cd 8a 70 be 4b 0b 0d 3f
       -0.31443247 0.19144757 -0.23490448 0.55095357
000120 f2 53 95 3f 62 29 3d 3f ac 7a 01 bf f3 2e de be
       1.1666243 0.7389127 -0.5057781 -0.43395194
000130 77 8a c0 be 67 54 59 3f 0e ee 21 3e 2a 10 10 be
       -0.3760564 0.8489441 0.15813467 -0.14068666
000140 a6 96 3b bd de 87 9e be 49 bb 1e 3f 96 2b 07 bf
       -0.045797966 -0.30963033 0.62004524 -0.5280088
000150 91 e3 72 be 8c 8d b6 bd 20 47 4b 3f 9d 25 0f bf
       -0.23719622 -0.08913717 0.79405403 -0.5591677
000160 1f 70 9a be 9f 47 1b be c5 69 c2 bc 6c 4e 95 bc
       -0.30163667 -0.1516404 -0.023732075 -0.018225871
000170 73 f5 f4 3e 54 9c 7d 3f fd 0f 0e 3f 6b e4 43 bf
       0.47843513 0.9906666 0.55493146 -0.76520413
000180 bd 0e fa be 82 f6 85 bf 7e 9c 96 3d 92 c9 d9 be
       -0.4883937 -1.0465853 0.07354067 -0.42536598
000190 f3 4a d6 be 7d a3 44 bf f2 27 3a bf 67 b4 04 3f
       -0.41854057 -0.76811963 -0.727172 0.5183777
0001a0 81 eb 1a 3f bd df a9 bf 3b d4 89 3e db 0a 22 3f
       0.605156 -1.3271405 0.26919731 0.63297814
0001b0 3d ab e0 be 65 d9 66 be 39 5f b2 bd 51 ce 8e 3f
       -0.43880644 -0.22543867 -0.087095685 1.1156713
0001c0 b9 4a 56 bf 17 8c 4a 3e 2e ee cd 3e 3a b7 ca 3e
       -0.8370777 0.19780003 0.4022078 0.39592916
0001d0 1b 53 64 bf 01 c2 1d 3f f1 8b fb be b5 03 a2 be
       -0.8918931 0.6162415 -0.49130204 -0.31643453
0001e0 ae c1 52 be e6 30 40 bf 79 7a 04 bf eb 1f a4 3f
       -0.20581695 -0.75074613 -0.5174938 1.282224
0001f0 25 2e 1e 3f 6d e7 14 3e 48 de ad 3e f2 16 74 3e
       0.6178916 0.14541407 0.3395865 0.23836878
000200 c1 c0 5a 3f 75 e1 bd be 52 e4 5e be 95 01 67 be
       0.8545037 -0.37086073 -0.21766785 -0.22559197
000210 e0 03 a0 be f6 c6 07 3e b7 46 8a 3e ff 64 0d be
       -0.31252956 0.13259491 0.27007076 -0.13808058
000220 a5 f9 d3 be 19 84 91 be 9c 9c 32 bf f5 fa 8a be
       -0.414014 -0.28421095 -0.69770217 -0.2714459
000230 90 bc 44 3f f6 a7 49 be d0 7a ac 3d 12 e5 b7 bd
       0.76850224 -0.19692978 0.08421862 -0.089792386
000240 20 79 07 3e 0c b1 1b bf 13 37 5f bd 64 70 8c be
       0.132298 -0.6081703 -0.054495882 -0.27429497
000250 dc fa b8 3e 3c a2 bb bf 6a 38 f2 be 2d 4d ae bc
       0.3612889 -1.4658885 -0.47308666 -0.021277035
000260 b0 27 28 3f 11 02 8e be 21 8f 4c 3f f7 96 31 bf
       0.6568556 -0.27735952 0.799059 -0.6937098
000270 e5 b9 57 bd e9 a0 5c 3e 51 a6 03 bf 23 0f 3a bf
       -0.052667517 0.21545757 -0.51425654 -0.72679347
000280 67 3c 3b 3f e4 75 98 3e d0 76 f3 be 67 ad 1b bf
       0.7313904 0.29777443 -0.47551584 -0.60811466
000290 bb 98 70 3f 0f 9a 96 bd ee 72 6c be 1f 2d fd be
       0.9398305 -0.07353603 -0.23090717 -0.49448487
0002a0 58 db f6 be be 6c f4 be f9 2e ec be 7c f6 ac bc
       -0.4821422 -0.47739214 -0.46129587 -0.021113627
0002b0 b5 b6 e7 3e 4b 6c a5 bd 0e 5f 37 3f 90 26 51 3e
       0.45256582 -0.08077296 0.71629417 0.20424867
0002c0 1d bf 3a bf 97 d3 2c be c6 b4 40 bf db 55 1f bf
       -0.72947866 -0.1687759 -0.7527584 -0.6224038
0002d0 a2 44 f8 3e 99 b1 f1 be 6c 5c 3c 3f 42 20 f7 3e
       0.48489863 -0.4720581 0.73578525 0.48266798
0002e0 1a c7 b0 be 49 61 3f 3f 40 b5 cd 3d 6b 66 f5 be
       -0.34526902 0.7475782 0.10044336 -0.479297
0002f0 1a 7b e4 3e de 91 4d bf 8b f0 37 be fc c2 59 3e
       0.4462517 -0.803007 -0.17962854 0.21265787
000300 c3 c2 6c 3e 7d 0b 9c 3e 4b 49 3f bf 94 bd 33 be
       0.2312117 0.30477515 -0.7472121 -0.17552787
000310 7a f2 29 3f 16 5b 87 bf cf 3e f8 3e d2 bd d0 3e
       0.66385615 -1.0574672 0.4848542 0.4076982

rnn2.bias_hh f4 [200]
000000 70 c6 7d 3e de 04 04 bf 9d 5e a7 3d ad 6b 4c bf
       0.24782729 -0.51569927 0.08172343 -0.798518
000010 87 d2 11 3e e5 3c 8e be d7 6b f0 bd 60 36 e1 3d
       0.14240466 -0.27780834 -0.11739319 0.10996699
000020 2d 09 18 3f f8 ca 16 3f b4 e9 5e be 97 0d 01 bd
       0.59389 0.58903456 -0.21768838 -0.0315071
000030 7c 85 94 3f 5f a3 07 3f a4 8b 2b 3f 07 9d b3 be
       1.1603236 0.5298366 0.6700995 -0.3508074
000040 8e 36 d2 be 28 8e 8a 3d e4 b9 ba 3e f8 e3 43 bf
       -0.41057247 0.067653954 0.36469948 -0.7651973
000050 59 41 ea 3e 1a 6c 6e bc 6e 75 be 3e 67 8b 3d 3f
       0.4575298 -0.014552141 0.37198967 0.74040836
000060 f3 ae 4c 3f 22 a8 7c be 81 d2 f1 3d a7 24 55 3f
       0.7995445 -0.24673513 0.118077286 0.8325905
000070 1a d3 97 3f 51 f9 43 be 1e d1 8e 3e 95 5b 8f be
       1.1861298 -0.19138075 0.2789392 -0.2799956
000080 bb ef 3a bf c7 40 bd 3e 02 7f 5f bf df e4 f0 be
       -0.7302205 0.36963484 -0.87303174 -0.47049615
000090 80 5a d6 be 52 4b 6d bf 47 df e5 3e 3a 8b b3 3e
       -0.4186592 -0.92693055 0.4489691 0.3506716
0000a0 dc ed 03 bf b0 60 3f bf 53 aa 85 be c0 25 de 3c
       -0.5153482 -0.7475691 -0.2610651 0.02711761
0000b0 5c 37 3b 3f 81 88 9a 3e cf 0b dc be 80 82 97 3d
       0.73131347 0.3018227 -0.4297776 0.07397938
0000c0 67 fb 2f 3e 23 39 34 be d0 6a 67 3f 8c e3 88 3f
       0.17185746 -0.17599921 0.9039736 1.0694442
0000d0 4c 06 1b 3f 5e 2e 21 bf 10 ae d8 be 31 42 fa 3e
       0.60556483 -0.62961376 -0.423203 0.48878625
0000e0 d3 53 e7 be dd 2c 50 3f 77 73 33 3e 47 8b fb 3e
       -0.4518114 0.81318456 0.17524515 0.49129698
0000f0 f0 43 81 be dc f8 19 3d d9 b3 64 3e 7b 84 82 3f
       -0.25247145 0.037590846 0.22334231 1.019668
000100 7b 0a f3 be b1 a6 df 3e ca 25 da 3e fa 44 e4 be
       -0.47468933 0.43681863 0.42606956 -0.44583875
000110 a6 f5 ae be 0b 16 87 3e 96 01 23 be b5 5e 2e 3f
       -0.3417179 0.26384005 -0.15918574 0.6811326
000120 b6 9d 85 3f dd c6 43 3f eb d1 c8 be ca a3 d6 be
       1.0438755 0.76475316 -0.39222655 -0.41921836
000130 6b 00 c0 be 34 ca 49 3f 5a 27 87 3d f8 f8 e9 bc
       -0.3750032 0.7882416 0.065993026 -0.0285611
000140 9a b5 08 be 43 01 7d be 1a 3d 13 3f 1e ef 00 bf
       -0.13350525 -0.24707513 0.5751511 -0.50364864
000150 f1 de 7b be a2 02 19 bc 2c 63 50 3f 93 cb 1e bf
       -0.24596764 -0.009339007 0.81401324 -0.6202938
000160 6e 1f 9c be 07 eb 51 be 9e ce 95 bd 4e f6 ec bd
       -0.3049273 -0.20499812 -0.073148 -0.115704164
000170 fb 18 fd 3e 4f ba 7b 3f 00 c7 02 3f 85 35 27 bf
       0.4943312 0.9833116 0.510849 -0.6531604
000180 84 d5 fe be 7f d5 8c bf bf 5d 3c 3e 8e a9 d6 be
       -0.49772274 -1.1002654 0.18395136 -0.41926235
000190 7d 71 9d be 31 4a 3b bf b8 b8 30 bf dd e8 10 3f
       -0.30750647 -0.7316008 -0.6903186 0.5660532
0001a0 78 c2 0c 3f 83 45 a3 bf de 36 80 3e 14 49 28 3f
       0.54984236 -1.2755588 0.2504186 0.6573651
0001b0 25 2a e5 be fe de 96 be 38 54 15 be 26 84 88 3f
       -0.44758716 -0.29467005 -0.14582908 1.0665329
0001c0 62 75 66 bf 75 a4 49 3e bc ff f7 3e 3c 1b b6 3e
       -0.9002286 0.19691642 0.48437297 0.35567653
0001d0 5c c0 67 bf c7 70 13 3f 32 09 16 bf 39 0d bb be
       -0.9052789 0.5759396 -0.5860778 -0.36533526
0001e0 12 10 3a be 3a 44 41 bf 73 77 e4 be 92 34 a9 3f
       -0.18170193 -0.7549473 -0.44622383 1.3219168
0001f0 c5 31 17 3f bf f7 17 3e 10 06 d2 3e f7 cf 96 3e
       0.5906032 0.14840601 0.4102025 0.2945554
000200 0d 79 43 3f 0d 95 b6 be ab ed 72 be 02 44 59 be
       0.76356584 -0.35660592 -0.23723476 -0.21217349
000210 f9 9e 9e be 58 04 3c 3e e7 d4 a6 3e 2c e8 fd bd
       -0.30980662 0.18361032 0.32584307 -0.12397799
000220 f9 f5 aa be 19 16 95 be fd a1 17 bf c6 2c 7b be
       -0.33390787 -0.29118422 -0.5923155 -0.24528798
000230 70 6a 54 3f 6a 37 29 be dd fb 9b 3d 53 b8 6e bd
       0.8297491 -0.16525045 0.076163985 -0.058281254
000240 ed 9d dc 3d fc 5b 13 bf 7e 0a d1 bd 4e a6 47 be
       0.107723095 -0.5756223 -0.10207079 -0.19497034
000250 e0 42 d3 3e 1b bc bb bf 96 4d db be c5 87 41 bd
       0.4126196 -1.466678 -0.4283263 -0.04724862
000260 ed 49 47 3f c2 28 be be b1 50 4e 3f bd 10 35 bf
       0.77847177 -0.3714047 0.80591875 -0.70728666
000270 3c 36 4d 3c 02 fd 25 3e 18 dc eb be 5b 91 32 bf
       0.0125251375 0.16209796 -0.46066356 -0.69753045
000280 2c 04 46 3f fc 53 d8 3e 92 fd 08 bf 2a 29 1c bf
       0.77350116 0.42251575 -0.5351192 -0.6100031
000290 c8 48 79 3f dc 19 cc bc 9d 87 94 be 55 d0 0a bf
       0.9737668 -0.024914674 -0.29009715 -0.5422414
0002a0 93 7f 06 bf 2d 39 e7 be 45 98 04 bf 91 ad 08 3d
       -0.5253841 -0.4516081 -0.51794845 0.03336865
0002b0 1f 1b bb 3e f9 c5 10 be 04 5f 30 3f 86 6f 8a 3e
       0.3654413 -0.1413802 0.6889498 0.2703821
0002c0 cd 02 38 bf 68 6b bc bd c9 6f 3d bf 41 2b 1b bf
       -0.71879274 -0.092001736 -0.73998696 -0.60612875
0002d0 30 37 d4 3e 79 df b5 be d0 99 44 3f 51 2e e7 3e
       0.41448355 -0.3552206 0.767972 0.45152524
0002e0 9d 80 db be a0 36 37 3f f6 9b 9c 3d 22 bb 05 bf
       -0.42871562 0.71567726 0.07646935 -0.52238667
0002f0 98 b3 aa 3e b0 b8 3e bf e2 0e 38 be 93 e4 21 3e
       0.33340144 -0.7450056 -0.17974427 0.1580985
000300 f8 34 82 3e 21 5a a1 3e e5 5d 31 bf 1b cd 32 be
       0.25431037 0.31514075 -0.69283897 -0.17461054
000310 b5 ab 3c 3f f3 98 85 bf 1a 30 cb 3e 57 7e bf 3e
       0.73699504 -1.0437301 0.39685136 0.37401077
