Results/Complete Sherlock Holmes/LSTM/Adam/3/50/model.pt (torch, 309727 bytes, 14 tensors)

rnn.weight_ih f4 [200, 100]
0	0x3e601a25	0.21884973
1	0x3ee08182	0.43848807
2	0x3e2e28ed	0.170078
3	0x3e98e215	0.29859987
4	0x3f316355	0.69292194
5	0xbed7a96d	-0.4212145
6	0x3e9c427a	0.30519468
7	0x3de3dca7	0.111260705
8	0xbdef4bd1	-0.11684383
9	0x3c99c031	0.018768402
10	0x3ef2055a	0.47269708
11	0xbf125f9c	-0.5717714
12	0x3d9c77d8	0.07640046
13	0xbf499bd0	-0.78753376
14	0x3e3a7dd4	0.18212062
15	0x3da870e7	0.082246594
16	0x3f5c5daa	0.8608042
17	0xbebc6f9e	-0.36803907
18	0xbf105a57	-0.5638785
19	0xbefa33cf	-0.48867652
20	0x3e4417b3	0.19149666
21	0xbdf7b490	-0.120949864
22	0xbeb3acc9	-0.35092762
23	0x3fc41d76	1.5321491
24	0xbfa6c3ad	-1.3028466
25	0xbf760fe0	-0.96117973
26	0xbedad2e2	-0.42739016
27	0xbf377a8d	-0.7167137
28	0x3efd6faf	0.4949927
29	0xbe68943e	-0.227128
30	0x3fbbbadc	1.46664
31	0x3d859509	0.06522567
32	0xbeab4ca2	-0.33456904
33	0x3f2642ce	0.64945686
34	0xbe74a59e	-0.23891303
35	0xbe1ba2b1	-0.1519878
36	0xbef6a63f	-0.4817371
37	0xbf9b8321	-1.2149392
38	0xbdce76e3	-0.100812696
39	0xbe8068c2	-0.25079924
40	0xbf7cdd5f	-0.98775285
41	0xbe303ebb	-0.1721143
42	0xbed85d7d	-0.42258826
43	0xbeb2f36e	-0.34951347
44	0x4004460e	2.0667758
45	0xbf03df0e	-0.5151223
46	0x3e168930	0.1470077
47	0x3eea56b3	0.4576927
48	0xbf24316e	-0.64137924
49	0xbe97c17f	-0.29639813
50	0xbf33ad68	-0.7018647
51	0xbf1b52b3	-0.60673064
52	0x3e4312dc	0.19050163
53	0xbe18c656	-0.14919409
54	0xbed0ca14	-0.40779173
55	0x3f0d36fb	0.5516202
56	0xbebf4c55	-0.37362924
57	0x3d970a64	0.07375029
58	0xbfd312df	-1.6490134
59	0xbe820bfb	-0.25399765
60	0xbf4388b4	-0.7638047
61	0x3b5ebf2b	0.0033988457
62	0x3f8eb608	1.1149302
63	0xbf8c4c89	-1.0960857
64	0x3dd7533e	0.10513924
65	0xbd3296e4	-0.04360093
66	0x3e0e2f4d	0.13885231
67	0x3e9a92e6	0.301902
68	0xbf5a247c	-0.8521192
69	0x3d5a7f20	0.053343892
70	0xbd13cd07	-0.0360842
71	0x3c982d58	0.01857631
72	0x3d27e714	0.040991858
73	0xbe089dc8	-0.13341439
74	0xbe8a1eb0	-0.26976538
75	0x3f9d035c	1.226665
76	0xbc1ed4c0	-0.009694278
77	0xbe6aa428	-0.22914183
78	0x3f117a4c	0.56827235
79	0x3e051ba9	0.12998833
80	0xbd518318	-0.05115041
81	0x3ca18100	0.019714832
82	0xbf2d8709	-0.6778417
83	0xbdec4aac	-0.1153768
84	0x3e51a89d	0.20474477
85	0xbdae6d6a	-0.08516963
86	0x3dd643d0	0.10462153
87	0xbdc2836f	-0.09497725
88	0xbd9a5b94	-0.075369984
89	0xbdeb6774	-0.114943415
90	0xbcd72d14	-0.026266612
91	0xbdb11b5c	-0.086477965
92	0xbd201010	-0.03907782
93	0x3cf00cc8	0.02930297
94	0xbbcf5080	-0.006326735
95	0x3d9a4a2e	0.0753368
96	0x3f106182	0.56398785
97	0xbdf56a2a	-0.1198314
98	0x3da3d890	0.080002904
99	0xbd301f3c	-0.042998537
100	0xbe03de59	-0.12877788
101	0xbf50d672	-0.8157722
102	0xbe443dfc	-0.1916427
103	0x3ef5b69d	0.47990885
104	0x3e33c1a0	0.17554331
105	0xbf1593bc	-0.5842855
106	0x3ee8e7c9	0.45489338
107	0x3e077163	0.13226847
108	0xbee51351	-0.447413
109	0xbded8e85	-0.11599449
110	0xc00d0c34	-2.2038698
111	0x3f42d0b4	0.76099706
112	0x3dcff208	0.10153586
113	0x3f20d10b	0.62818974
114	0xbe692808	-0.22769177
115	0x3fcf810f	1.621126
116	0x3eee7854	0.46576178
117	0x3f47fa56	0.7811636
118	0xbdc5590f	-0.09636127
119	0x3f64505e	0.8918513
120	0x3fa0dd78	1.2567587
121	0xbf13605c	-0.5756891
122	0x400a10a0	2.1572647
123	0x400fb2fb	2.245299
124	0x3f039858	0.51404333
125	0x3f85725e	1.0425527
126	0x3f27b218	0.65506124
127	0x40575f44	3.3651896
128	0xbde4b998	-0.11168212
129	0x3fba2cc5	1.4544913
130	0x3ff83cb5	1.9393526
131	0x400c1901	2.189026
132	0xbee61925	-0.4494106
133	0x3f221390	0.633111
134	0x4063ea89	3.56119
135	0x3f688300	0.9082489
136	0xbf2113fc	-0.6292112
137	0x3fb4b45a	1.4117539
138	0x3e775bed	0.2415616
139	0x3e498ca6	0.1968256
140	0xbf7fbed6	-0.9990057
141	0x3fa03ace	1.2517946
142	0xbc9efb91	-0.019407066
143	0xbfdfa942	-1.7473528
144	0xbf13744f	-0.5759935
145	0x3c565a64	0.013083074
146	0x3f332428	0.69977045
147	0xbe2ab656	-0.16671118
148	0xbecc40bb	-0.39893135
149	0x3f8fb433	1.1226867
150	0xbef1bdca	-0.4721511
151	0x3fd6dbf6	1.6785877
152	0x3fbc9dfb	1.4735712
153	0x3f1eea42	0.620762
154	0x3e634367	0.2219368
155	0xbe783801	-0.24240114
156	0xbe9b9f19	-0.3039482
157	0x3f98b4b1	1.1930143
158	0x3e6fc148	0.23413575
159	0x3a88a5dc	0.0010425407
160	0x3fc3875c	1.5275683
161	0x3b4ce725	0.0031265703
162	0x3eea5a21	0.45771888
163	0x3f443a75	0.766517
164	0x3e0a7fe3	0.13525347
165	0xbd8b8e1d	-0.06814215
166	0xbd49974a	-0.049216546
167	0x3ed2dfab	0.4118627
168	0xbfbf323e	-1.4937208
169	0xbd9a2c7d	-0.07528017
170	0xbea422a2	-0.32057673
171	0xbe7eeab2	-0.24894217
172	0x3dd5cbaa	0.104392365
173	0x3fea656e	1.8312204
174	0x3ef15c55	0.47140756
175	0x3f670776	0.9024576
176	0xbe9d0f07	-0.30675527
177	0x3ef99439	0.48745897
178	0xbf5d99cb	-0.86562794
179	0x3c32c440	0.010911047
180	0x3e04a765	0.12954481
181	0x3d74eecc	0.059798047
182	0xbf12deb2	-0.57371056
183	0xbd794dac	-0.06086509
184	0xbf3a9f78	-0.7289958
185	0x3ce8d090	0.028419763
186	0xbe7488f1	-0.23880364
187	0x3d84a384	0.06476501
188	0x3e0418c3	0.12900071
189	0xbce5f1a8	-0.028069332
190	0x3db7be58	0.08971852
191	0xbde9c8e0	-0.11415267
192	0x3dfac8ba	0.12245317
193	0xbb925d00	-0.004466653
194	0xbf60f34f	-0.8787126
195	0xbd4639e4	-0.048395053
196	0xbf072476	-0.5279001
197	0x3e0d6005	0.1380616
198	0xbcb0ff20	-0.021606028
199	0x3e005151	0.1253102
200	0x3e1197a2	0.14218
201	0x3ca07d2b	0.019590935
202	0x3ee5109a	0.44739228
203	0x3e11186e	0.14169475
204	0x3e69613f	0.22791003
205	0xbe6740ea	-0.22583356
206	0xbebc4165	-0.36768642
207	0x3ecd217e	0.40064615
208	0x3f0255b4	0.5091202
209	0x3f1ccc05	0.6124881
210	0xbf2999f9	-0.6625057
211	0x3fb992d5	1.4497935
212	0x3f9f7e26	1.2460372
213	0x3f347135	0.7048524
214	0xbf67321d	-0.9031084
215	0xbe6cba82	-0.23118022
216	0x3ba032a3	0.004888849
217	0xbef7b3f5	-0.48379484
218	0x3eff1ea9	0.4982808
219	0x3eabaa82	0.33528525
220	0xbf722f64	-0.9460356
221	0x3f1c6aee	0.6110066
222	0xbead4970	-0.3384509
223	0x3f0fd80d	0.5618904
224	0xbf573642	-0.84067166
225	0x3e1a5adb	0.15073721
226	0x3fc99dc6	1.5751274
227	0x3f4fc34f	0.8115739
228	0x3d443f11	0.047911707
229	0xbff27815	-1.8942896
230	0x3f92ea12	1.1477683
231	0x3b641371	0.0034801627
232	0x3e38875e	0.18020388
233	0x3f2c0b6d	0.67204934
234	0x3f9e42eb	1.2364172
235	0x3d941720	0.07230973
236	0xbf1e124c	-0.6174667
237	0x3e5a2113	0.2130168
238	0xbf2b093a	-0.66810954
239	0x3f070201	0.5273743
240	0x3f125c67	0.57172245
241	0x3dc8c17d	0.0980253
242	0x3f513079	0.8171459
243	0xbd87f79c	-0.066390246
244	0xbf54f74e	-0.83189857
245	0x3e8a9333	0.2706543
246	0x3e2708fe	0.16312024
247	0x3e21f5fe	0.15816495
248	0x3f65af51	0.89720637
249	0x3e8098d8	0.2511661
250	0x3f192986	0.59828985
251	0xbf517dad	-0.8183239
252	0x3f992e53	1.1967262
253	0x3ea6a079	0.32544306
254	0xbe741ed9	-0.23839892
255	0x3f05e4f9	0.5230251

rnn.weight_hh f4 [200, 50]
0	0x3e343535	0.17598422
1	0x3ed50a83	0.41609582
2	0x3f709d13	0.93989676
3	0xbf789f47	-0.9711804
4	0x3d6fc250	0.05853492
5	0x3e3f85d9	0.18703403
6	0xbebc2531	-0.36747125
7	0xbef5d17a	-0.4801138
8	0xbf9eb283	-1.2398227
9	0x3f714033	0.94238585
10	0x3f8477e4	1.0349088
11	0xbf5c6b84	-0.86101556
12	0xbd725936	-0.05916711
13	0x3f690d8c	0.91036296
14	0x3edc5c54	0.4303919
15	0x3e58c081	0.21167184
16	0xbf87edcd	-1.0619446
17	0xbf66a22a	-0.9009119
18	0x3f1791a4	0.59206605
19	0x3d5bd6c9	0.053671632
20	0x3ea601aa	0.32423145
21	0xbbd04ec9	-0.006357048
22	0x3e9c043d	0.30471984
23	0x3e62f03e	0.22161958
24	0xbe390bdb	-0.18070929
25	0xbee041d9	-0.43800238
26	0xbf116b18	-0.5680404
27	0x3ed9b8fa	0.42523938
28	0x3f506e20	0.8141804
29	0x3ef1d78d	0.47234765
30	0x3f91e418	1.1397734
31	0x3f293f06	0.6611179
32	0xbf89c971	-1.07646
33	0xbfbf909a	-1.4966004
34	0x3f654288	0.89554644
35	0x3ef2f1e9	0.47450188
36	0x3f0fceb7	0.56174797
37	0xbf9b8395	-1.2149531
38	0xbf1856b2	-0.59507287
39	0xbe4c079f	-0.19924782
40	0x3f123f88	0.5712819
41	0x3f76d7d4	0.9642308
42	0x3d1a06d4	0.037604168
43	0xbeb6f08b	-0.35730395
44	0x3f6efd39	0.9335514
45	0xbef81b64	-0.48458397
46	0x3eef3470	0.46719694
47	0x3f60919d	0.8772219
48	0xbd0c99e2	-0.03432644
49	0x3d239e82	0.039946087
50	0xbf9b5f6a	-1.2138493
51	0xbf1bfa05	-0.60928375
52	0x3f0d924c	0.55301356
53	0x3faaa1c9	1.3330623
54	0x3df3da93	0.11906924
55	0xbd0df0b7	-0.03465339
56	0xc00ff233	-2.2491577
57	0x3ca2edeb	0.019888839
58	0xbeefcfe3	-0.46838292
59	0xbf8e3d75	-1.1112505
60	0xbff02c6c	-1.8763556
61	0x3dfc70b2	0.123261824
62	0x3f7b4dc7	0.98165554
63	0xbe552165	-0.2081352
64	0xbf2ac5a4	-0.66707826
65	0xbeea752d	-0.45792523
66	0xbedb5a7d	-0.42842475
67	0xbe8a2b95	-0.26986375
68	0x3f20c9ae	0.6280774
69	0xbece49eb	-0.4029077
70	0x3f1ed095	0.6203702
71	0xbf9df364	-1.2339902
72	0x3e3ff6f8	0.18746555
73	0x3f50c8e8	0.8155656
74	0x3ebe70ba	0.3719538
75	0x3ff8730f	1.9410113
76	0xbed8fcad	-0.42380276
77	0xbe8f8250	-0.28029108
78	0x3e100153	0.14063005
79	0x3fceb015	1.6147486
80	0xbf87fbc8	-1.0623713
81	0xbf87b7fa	-1.060302
82	0x3d206318	0.039157003
83	0x3e952846	0.2913229
84	0xbf48302e	-0.78198516
85	0x3fd99e78	1.7001486
86	0xbff67d21	-1.9256936
87	0xbebc348c	-0.3675884
88	0x3dfc5b32	0.123220816
89	0x3f2f16b5	0.68394023
90	0x3f825809	1.0183116
91	0xbff0c24c	-1.8809295
92	0xbf8bc990	-1.0920887
93	0x3ee32f4e	0.44372028
94	0xbda29cb4	-0.07940045
95	0x3fe43e3b	1.7831491
96	0x3eb736e4	0.35784066
97	0x3e84d2d9	0.25942114
98	0xbf74079f	-0.9532413
99	0x3e85c6cf	0.2612824
100	0xbeabd102	-0.33557898
101	0x3f907ab9	1.1287452
102	0xbe094b93	-0.13407736
103	0xbe18336c	-0.14863366
104	0xbf1d8aec	-0.615401
105	0x3d84b7c3	0.06480362
106	0xbe8b204b	-0.27173075
107	0xbf480730	-0.7813597
108	0x3f15adf1	0.5846854
109	0x3bcc6938	0.006238129
110	0xbe02af33	-0.12762146
111	0xbec4b482	-0.38418967
112	0xbdf50191	-0.119631894
113	0xbd93f45b	-0.072243415
114	0xbf09814c	-0.53712916
115	0xbe5d10f2	-0.21588495
116	0x3eb2f52d	0.3495268
117	0xbe005458	-0.12532175
118	0x3f482487	0.78180736
119	0xbe5418e0	-0.20712614
120	0x3e22d3ef	0.15901159
121	0xbf687948	-0.9081006
122	0xbf7928c6	-0.9732784
123	0x3f61ff8f	0.88280576
124	0x3f512264	0.816931
125	0x3ee00044	0.43750203
126	0xbf4bba28	-0.79580927
127	0xbef97681	-0.48723224
128	0xbeaf14b9	-0.34195498
129	0x3f7f33d8	0.9968848
130	0x3e83a633	0.25712737
131	0xbee28dd9	-0.44248846
132	0xbe0ebf8d	-0.13940258
133	0xbc080796	-0.00830259
134	0x3edaa9af	0.42707583
135	0x3e53af3e	0.20672318
136	0xbf6beba8	-0.9215646
137	0x3f47edb0	0.7809706
138	0xbfbcd4e0	-1.4752464
139	0xbe35edf3	-0.17766552
140	0x3ec4f31f	0.38466737
141	0xbdbed288	-0.093174994
142	0xbd0b3b96	-0.033992372
143	0x3f1bfa02	0.60928357
144	0x3f230731	0.6368285
145	0x3e37c545	0.17946346
146	0x3f094ccb	0.536328
147	0x3e9b2bbc	0.30306804
148	0xbf1fca47	-0.62418026
149	0x3e6efca6	0.23338565
150	0xbfbc2582	-1.4698946
151	0x3fb04fdf	1.3774375
152	0x3e8e7f7b	0.27831635
153	0xbe9b22f9	-0.3030012
154	0x3d4417fb	0.047874432
155	0xbfb9808c	-1.4492354
156	0xbf919e1b	-1.1376375
157	0xbde47930	-0.11155927
158	0xbfff294a	-1.9934475
159	0x3e52e339	0.20594491
160	0xbe319eac	-0.17345685
161	0x3d0659c6	0.03280046
162	0xbf902b2d	-1.1263176
163	0xbe9d66fa	-0.30742627
164	0xbb4de8a1	-0.0031419175
165	0x3f918425	1.1368452
166	0xbee75f8a	-0.45190078
167	0xbf1b4943	-0.60658664
168	0x3daace74	0.08340159
169	0x3f1af0ff	0.6052398
170	0x3ee90d93	0.4551817
171	0xbec02484	-0.3752786
172	0x3de6dc40	0.11272478
173	0xbe481cd5	-0.19542249
174	0xbe84334d	-0.2582039
175	0x3f72e83c	0.9488561
176	0x3fc1d26f	1.5142344
177	0xbe98e297	-0.29860374
178	0x3e831b42	0.25606734
179	0x3f8e1571	1.1100293
180	0x3ea0a576	0.31376237
181	0xbf04fc5b	-0.51947564
182	0xbdac6165	-0.08417014
183	0xbe5035c7	-0.20333014
184	0x3f82f33d	1.023048
185	0x3eff3d83	0.49851617
186	0xbd9f6b87	-0.07784181
187	0xbe8a4197	-0.27003166
188	0xbf2fb8e9	-0.68641526
189	0xbf59b603	-0.8504335
190	0x3f5ff16a	0.87477744
191	0xbf17a552	-0.59236634
192	0xbe795beb	-0.2435147
193	0xbf3fdaee	-0.74943435
194	0xbe777840	-0.24166965
195	0xbea548ee	-0.32282203
196	0x3e2b1dc7	0.16710578
197	0x3d2c0944	0.042001024
198	0xbe80cd80	-0.25156784
199	0x3f9edebf	1.2411727
200	0xbec5b698	-0.3861587
201	0x3f1b388b	0.6063315
202	0x3e95f9b3	0.29292068
203	0xbfd78759	-1.683818
204	0x3e085162	0.13312295
205	0x3eb6892e	0.35651535
206	0xbf907bed	-1.1287819
207	0xbe33c2a2	-0.17554715
208	0xbf9cfe45	-1.2265097
209	0x3f9b6bc8	1.2142267
210	0x3fa20426	1.2657516
211	0xbe066741	-0.13125326
212	0xbf7d1dc5	-0.9887355
213	0x3f77b199	0.9675537
214	0xbf19adf3	-0.6003105
215	0xbe01f73d	-0.1269197
216	0xbdc45c36	-0.095879
217	0xbfb86742	-1.4406512
218	0x3dfb4705	0.12269405
219	0xbfa3a428	-1.2784472
220	0x3f75951c	0.9593065
221	0xbde0080a	-0.10939033
222	0xbf5a3c5c	-0.8524835
223	0x3f14ccc3	0.5812494
224	0x3f0fc970	0.56166744
225	0x3ed460e9	0.41480187
226	0xbe840214	-0.25782835
227	0xbf3e5837	-0.74353355
228	0x3da7f803	0.08201601
229	0x3f273671	0.65317446
230	0x3f8e3820	1.1110878
231	0xbec825b5	-0.39091268
232	0xbed32894	-0.41241896
233	0xbf72a458	-0.9478202
234	0x3fa81d7f	1.3134001
235	0x3b4ba3d8	0.0031073
236	0x3e306084	0.17224318
237	0xbf8c9a59	-1.0984603
238	0xbf7dca49	-0.9913679
239	0xbf68bf16	-0.90916574
240	0x3f8cf065	1.1010863
241	0x3f09070a	0.53526366
242	0x3f0146b4	0.5049851
243	0xbf7387a2	-0.95128834
244	0xbe09baf1	-0.13450219
245	0xbf9168cd	-1.1360108
246	0x3f87c435	1.0606753
247	0x3eebdb16	0.46065587
248	0x3fa33275	1.2749773
249	0xbe8f9401	-0.28042606
250	0xbed51f99	-0.4162567
251	0x3f0f24a7	0.559153
252	0x3f29e7ef	0.6636953
253	0xbf65510b	-0.89576787
254	0xbd200e00	-0.03907585
255	0xbe285750	-0.16439557

rnn.bias_ih f4 [200]
0	0x3ea39974	0.31953013
1	0x3f2732a4	0.65311646
2	0xbdf4bded	-0.11950288
3	0xbef88ee1	-0.48546508
4	0xbeb075d9	-0.3446491
5	0x3e97cd3d	0.29648772
6	0x3ec1f22c	0.37880075
7	0xbe320af9	-0.17386998
8	0xbf3510d5	-0.7072881
9	0xbed5760e	-0.4169163
10	0x3f186fd4	0.59545636
11	0x3f94482f	1.1584529
12	0x3e285bee	0.16441318
13	0xbe51da82	-0.2049351
14	0x3dc3d194	0.09561458
15	0xbf7c3ee4	-0.98533463
16	0x3df88a97	0.12135809
17	0x3f3da919	0.7408615
18	0x3ef713cc	0.4825729
19	0xbe2d0287	-0.16895495
20	0xbd1578c2	-0.036492117
21	0xbf0336d1	-0.5125552
22	0x3f8eefb2	1.1166899
23	0x3f026d04	0.50947595
24	0x3e5f7608	0.21822369
25	0xbe863aec	-0.2621683
26	0xbe90c33e	-0.28273958
27	0x3ec15b3d	0.37764922
28	0xbe97db94	-0.29659712
29	0x3f6d9987	0.9281239
30	0xbdfa3d0d	-0.12218676
31	0xbe581960	-0.2110343
32	0xbe8f3553	-0.2797037
33	0xbeb2ae8e	-0.348988
34	0x3f33f690	0.702981
35	0x3f43484e	0.76282203
36	0xbf9302fc	-1.1485286
37	0xbdab2a71	-0.083577044
38	0x3e667fe6	0.22509727
39	0xbe41d776	-0.18929848
40	0x3f0f11e8	0.558867
41	0xbe487b08	-0.19578183
42	0x3f69a69c	0.9126985
43	0xbe4f3a08	-0.20236981
44	0x3e515df8	0.20446002
45	0xbf13bb98	-0.5770812
46	0x3df39531	0.118936904
47	0x3ebdf4e9	0.37100914
48	0xbf03df54	-0.51512647
49	0xbe64eecf	-0.22356723
50	0x3eb0a5c0	0.34501457
51	0x3ea71d47	0.32639524
52	0x3ea52f74	0.32262766
53	0xbe01c646	-0.12673292
54	0x3e822e4e	0.25425953
55	0x3f204563	0.62605876
56	0x3e93a12b	0.288339
57	0x3f7bd692	0.98374283
58	0x3dba81fd	0.091068245
59	0xbe5bcaa0	-0.21464014
60	0x3ec15326	0.3775875
61	0xbc4bf4ad	-0.012448472
62	0x3e4e6f96	0.20159754
63	0x3e6b4e8e	0.22979185
64	0x3d043b71	0.03228325
65	0x3f11ea2f	0.5699796
66	0x3f1b19df	0.6058635
67	0x3e08b1c6	0.13349065
68	0x3f2c7ee2	0.6738111
69	0xbdbf63ec	-0.093452305
70	0x3e55bc00	0.20872498
71	0xbed01a07	-0.40644857
72	0x3e46ea5c	0.19425339
73	0x3e2b20fa	0.16711798
74	0xbd7a6237	-0.06112882
75	0xbe69c6d5	-0.22829755
76	0xbe46fe11	-0.19432856
77	0xbd20a5c1	-0.039220575
78	0x3f2ebbe4	0.6825545
79	0xbdfff9e8	-0.12498838
80	0xbea1ea27	-0.31623957
81	0xbe0bc08a	-0.13647667
82	0x3ee86417	0.45388862
83	0xbd05e99d	-0.032693494
84	0x3da00d5e	0.078150496
85	0xbe3ff280	-0.1874485
86	0x3f088f2f	0.5334348
87	0x3e471344	0.19440943
88	0x3e0d7d1c	0.13817257
89	0x3f0e8676	0.5567392
90	0xbe3f729e	-0.18696067
91	0x3e9975fd	0.2997283
92	0xbdc4ee2e	-0.09615742
93	0x3d12ef46	0.03587272
94	0x3de6f40f	0.11277019
95	0x3f26b0a5	0.6511329
96	0x3a8353e6	0.001001951
97	0x3f8c7d59	1.0975753
98	0x3f11585b	0.56775445
99	0x3ea93c01	0.33053592
100	0xbf5a8008	-0.8535161
101	0x3f883374	1.0640702
102	0x3f1edba7	0.6205391
103	0xbed2188e	-0.4103436
104	0xbefc8f94	-0.4932829
105	0x3f23004f	0.63672346
106	0xbf169624	-0.58822846
107	0xbeaf8540	-0.3428135
108	0xbe5052f5	-0.20344146
109	0x3e902d0b	0.28159365
110	0x3f4e4c8a	0.8058554
111	0x3e09e6bf	0.13466929
112	0xbe6619a5	-0.2247072
113	0x3ec545c3	0.38529786
114	0xbf1c4df6	-0.6105646
115	0x3df878fc	0.12132451
116	0xbef48ebd	-0.4776515
117	0xbf52f04a	-0.823979
118	0x3f386c9e	0.72040737
119	0xbec1ca36	-0.37849587
120	0x3ebbed05	0.3670427
121	0xbd0ef454	-0.03490098
122	0x3e163f71	0.14672638
123	0x3f2e71c0	0.6814232
124	0x3f3aa662	0.7291013
125	0x3e1d2325	0.15345438
126	0xbeadc69e	-0.33940595
127	0xbe95d27f	-0.29262158
128	0x3ebc328b	0.3675731
129	0x3f40a237	0.7524752
130	0x3f342c6f	0.703803
131	0xbed99954	-0.42499793
132	0xbf3cda50	-0.7377062
133	0xbe3a6a95	-0.1820472
134	0x3f3564ee	0.7085713
135	0x3f43a3ed	0.76422006
136	0x3ee20338	0.4414308
137	0xbec318f3	-0.38104972
138	0xbedbd677	-0.4293706
139	0xbedf6776	-0.43633622
140	0x3ef53217	0.47889778
141	0x3f29b8e0	0.6629772
142	0x3e56b279	0.2096652
143	0xbe371e0e	-0.17882559
144	0x3f33a747	0.7017712
145	0xbe8bb166	-0.27283782
146	0x3ef97600	0.4872284
147	0x3f43fa45	0.76553756
148	0x3ef03036	0.46911782
149	0xbf4bb4b3	-0.795726
150	0xbe786518	-0.24257314
151	0x3e96d5d3	0.2946001
152	0xbec32d2e	-0.38120407
153	0xbe5fd1b3	-0.21857338
154	0xbe8015ec	-0.25016725
155	0x3d71134d	0.058856297
156	0x3ce3f07b	0.027824631
157	0xbe427a86	-0.18992051
158	0xbeb898b4	-0.36054003
159	0x3e288155	0.16455586
160	0xbedc8b31	-0.43074945
161	0x3f88c795	1.0685908
162	0x3f1ffccc	0.6249511
163	0xbc41aa69	-0.011820414
164	0xbec0f8ef	-0.3768992
165	0x3ecf97db	0.40545544
166	0xbdc2d027	-0.09512358
167	0xbedab7dd	-0.42718402
168	0x3ed1b441	0.40957835
169	0x3e3b3a78	0.18284023
170	0x3c17d7a3	0.00926772
171	0xbe80b981	-0.25141528
172	0x3f86c100	1.0527649
173	0xbea07193	-0.3133665
174	0xbe52f47b	-0.20601074
175	0x3dcc207e	0.09967135
176	0xbe24d7be	-0.16097924
177	0xbc4ea482	-0.012612464
178	0x3df9291b	0.12166043
179	0x3f01408d	0.5048912
180	0xbe7012ec	-0.23444718
181	0xbd709e8a	-0.058744945
182	0xbd9f8ef3	-0.07790937
183	0xbe9beb32	-0.30452877
184	0xbbc9a8a8	-0.0061541386
185	0xbe4532b2	-0.1925762
186	0x3f17b95d	0.59267217
187	0xbe8785ee	-0.26469368
188	0xbe2b6bca	-0.16740337
189	0x3e4f83b0	0.20265079
190	0xbe48ad87	-0.19597445
191	0xbdcf25a9	-0.10114605
192	0x3f912532	1.1339476
193	0x3e7902cd	0.24317475
194	0xbeed5fc5	-0.4636213
195	0x3e2315a9	0.15926231
196	0xbd920025	-0.07128934
197	0xbeec4d90	-0.46152925
198	0xbabb9182	-0.0014310332
199	0xbdf2c7df	-0.11854529

rnn.bias_hh f4 [200]
0	0x3e681190	0.2266295
1	0x3f1069a0	0.5641117
2	0xbe3969a6	-0.18106708
3	0xbf1cee18	-0.613008
4	0xbe51570f	-0.20443366
5	0x3e29873f	0.16555499
6	0x3eb96447	0.36209318
7	0x3cd1e04c	0.025619648
8	0xbf4ca92d	-0.7994564
9	0xbec20cd8	-0.37900424
10	0x3f0a893b	0.5411565
11	0x3f99694a	1.1985257
12	0x3df751c9	0.12076146
13	0xbe7d32c2	-0.24726394
14	0x3dde98cd	0.10868988
15	0xbf68b3bf	-0.9089927
16	0x3e0bee1e	0.13665053
17	0x3f4d0e7a	0.80100214
18	0x3ec71ba8	0.38888288
19	0xbc19671e	-0.009362964
20	0x3da5d0ad	0.08096442
21	0xbec30781	-0.38091663
22	0x3f895107	1.0727853
23	0x3f0d1e8c	0.55124736
24	0x3dffeccf	0.124963395
25	0xbe2dd8a5	-0.16977175
26	0xbe0f6958	-0.14005029
27	0x3ee04afb	0.43807206
28	0xbeec8eb6	-0.4620263
29	0x3f57e7cb	0.84338063
30	0x3c4517f5	0.012029638
31	0xbdf63a35	-0.12022821
32	0xbe92a703	-0.28643045
33	0xbeb6ba28	-0.356889
34	0x3f2ddbd0	0.6791353
35	0x3f3948b4	0.7237656
36	0xbf67f1b2	-0.9060317
37	0xbdcf94d3	-0.10135808
38	0x3e340069	0.17578281
39	0xbecee387	-0.40407965
40	0x3ed42c76	0.4144017
41	0xbeb1c61f	-0.34721467
42	0x3f54de0f	0.83151335
43	0xbe940db9	-0.2891672
44	0x3e1d96b9	0.15389527
45	0xbed9c190	-0.4253049
46	0x3ea742cc	0.3266815
47	0x3ecf7703	0.40520486
48	0xbe9e4604	-0.30912793
49	0xbe981546	-0.2970373
50	0x3eab91f2	0.33509785
51	0x3df8805a	0.12133856
52	0x3f050fcc	0.5197723
53	0xbdc6aa7a	-0.097004846
54	0x3df12499	0.117745586
55	0x3f27f844	0.656132
56	0x3ea0744a	0.31338722
57	0x3f7190d4	0.94361615
58	0x3d65df16	0.056120954
59	0xbe49885d	-0.19680925
60	0x3e979d64	0.29612267
61	0xbdf13993	-0.117785595
62	0x3daaac48	0.08333641
63	0x3d668fc0	0.056289434
64	0xbd415ff7	-0.04721066
65	0x3f19d3c6	0.60088766
66	0x3f0d5ee6	0.5522293
67	0x3e09e046	0.1346446
68	0x3f1d22e0	0.6138134
69	0xbe2b1e7b	-0.16710846
70	0xbc050d3c	-0.008120831
71	0xbe8ac576	-0.27103776
72	0x3d4b02db	0.04956327
73	0x3e191cb2	0.14952353
74	0xbda80035	-0.082031645
75	0xbe6d7b54	-0.23191577
76	0x3d3533af	0.044238742
77	0x3d49905c	0.049209937
78	0x3f4d3278	0.80155134
79	0xbe2df18a	-0.16986671
80	0xbe87b43a	-0.2650469
81	0xbe7f3388	-0.24922001
82	0x3f105e34	0.5639374
83	0xbd58c8db	-0.052925926
84	0x3e2fb229	0.17157806
85	0xbdea0e83	-0.11428549
86	0x3f1353a3	0.57549495
87	0x3dc38a61	0.09547878
88	0x3d5bf1b3	0.0536973
89	0x3ef4e58b	0.47831377
90	0xbe07c7f5	-0.13259871
91	0x3e7ffef8	0.24999607
92	0xbd803e70	-0.06261909
93	0x3dcd7995	0.100329556
94	0x3ea25337	0.31704113
95	0x3ef108ff	0.47077176
96	0xbcc50616	-0.024050754
97	0x3f944e39	1.1586372
98	0x3f2813a4	0.6565497
99	0x3f192274	0.59818196
100	0xbf34d90a	-0.70643675
101	0x3f89150f	1.0709552
102	0x3effe66c	0.49980485
103	0xbebd8fa7	-0.3702366
104	0xbf154359	-0.5830589
105	0x3ee23042	0.44177443
106	0xbf23a269	-0.63919693
107	0xbe21c77c	-0.15798753
108	0xbe7e53a2	-0.24836591
109	0x3e824ec5	0.2545072
110	0x3f62c89d	0.8858736
111	0x3de05ddd	0.10955403
112	0xbe0fac8b	-0.14030664
113	0x3f156fa4	0.58373475
114	0xbf2791c8	-0.6545682
115	0x3839d4ff	4.4305805e-05
116	0xbf07414b	-0.52834004
117	0xbf618e78	-0.88108015
118	0x3f3626c4	0.711529
119	0xbf0375fe	-0.51351917
120	0x3f19eb73	0.6012489
121	0xbddd18e9	-0.10795767
122	0x3d8368f0	0.064164996
123	0x3f31519f	0.6926517
124	0x3f3f0952	0.74623597
125	0x3e5506c1	0.20803358
126	0xbea225e5	-0.31669536
127	0xbecbe4fb	-0.39823136
128	0x3ea1801c	0.31543052
129	0x3f4ed9cd	0.8080109
130	0x3f1af5ed	0.605315
131	0xbeaa8666	-0.33305663
132	0xbf17fdc4	-0.5937159
133	0xbde817af	-0.11332642
134	0x3f35f949	0.71083504
135	0x3f2abc6f	0.66693777
136	0x3ec1949c	0.37808692
137	0xbeff1155	-0.4981791
138	0xbf0c50d8	-0.5481086
139	0xbf00a6ed	-0.5025471
140	0x3eea7ca7	0.45798227
141	0x3f3cf61a	0.7381302
142	0x3e93ab64	0.28841698
143	0xbe32bc5f	-0.1745467
144	0x3f487566	0.78304136
145	0xbe9c4e23	-0.30528364
146	0x3f09ebf3	0.53875655
147	0x3f1eed5a	0.6208092
148	0x3e7dcc4f	0.24784969
149	0xbf37adad	-0.71749383
150	0xbd30af9f	-0.043136235
151	0x3ed8182d	0.42205945
152	0xbecd8c62	-0.40146166
153	0xbe15fcaa	-0.14647165
154	0xbebce440	-0.3689289
155	0x3d76ec30	0.06028384
156	0xbdc224aa	-0.09479649
157	0x3c855676	0.01627658
158	0xbea44c82	-0.3208962
159	0xbdaed878	-0.08537382
160	0xbe9a1933	-0.3009735
161	0x3f9529e5	1.165341
162	0x3f426c32	0.7594634
163	0x3d5e50a4	0.054276124
164	0xbe95c444	-0.292513
165	0x3e756ee9	0.2396809
166	0x3ded2fd4	0.11581388
167	0xbee879fb	-0.45405564
168	0x3eb6d891	0.35712102
169	0x3df85c56	0.12126987
170	0xbd6ae17e	-0.057343952
171	0xbed36982	-0.41291434
172	0x3fa778f8	1.3083792
173	0xbec91f8b	-0.39281878
174	0xbeb7ec28	-0.3592236
175	0x3d3d7c97	0.046261396
176	0xbda977f4	-0.08274832
177	0x3cf90912	0.030399833
178	0xbd9c2c5f	-0.076256506
179	0x3ec72061	0.3889189
180	0xbe3f24d1	-0.18666388
181	0xbe640bbc	-0.22270101
182	0xbe698eda	-0.228084
183	0xbe941b3d	-0.2892703
184	0x3bf43a2a	0.0074532228
185	0xbe3bd3ef	-0.18342565
186	0x3f00d1d5	0.5032018
187	0xbf02188f	-0.50818723
188	0xbe1f0b49	-0.15531649
189	0x3db16d52	0.08663429
190	0xbd2a4098	-0.041565508
191	0x3db03923	0.08604648
192	0x3f652bb0	0.89519787
193	0x3f0335b9	0.5125385
194	0xbefe9e73	-0.49730262
195	0x3d0d32aa	0.034472145
196	0xbdcae4cf	-0.09906923
197	0xbf00d249	-0.5032087
198	0x3d59c8c7	0.05316999
199	0xbdec5a2a	-0.11540635

rnn2.weight_ih f4 [200, 50]
0	0x3f0847e8	0.5323472
1	0x3dc7beb0	0.09753168
2	0x3e1ee84c	0.15518302
3	0x3f4c43dc	0.79791045
4	0xbf902954	-1.1262612
5	0xbe4c0d39	-0.19926919
6	0x3f588da3	0.8459112
7	0x3f84775b	1.0348924
8	0x3e18cc29	0.14921631
9	0xbf391a32	-0.72305596
10	0xbe6ca694	-0.2311042
11	0xbf4c42d7	-0.7978949
12	0x3e96b4cb	0.2943481
13	0x3f0cf1d6	0.5505651
14	0x3eff4106	0.49854296
15	0x3f13427b	0.57523316
16	0xbd398eec	-0.045302317
17	0xbf0d8c4a	-0.5529219
18	0x3d8e7268	0.06955415
19	0xbee2ff87	-0.44335577
20	0xbf4e6247	-0.8061871
21	0xbfa97445	-1.3238608
22	0x3f47c4dc	0.7803476
23	0xbf03c8dd	-0.5147837
24	0xbf13e277	-0.5776743
25	0x3e939dce	0.28831333
26	0x3ebec033	0.3725601
27	0xbe75423c	-0.23951048
28	0x3da87a07	0.082264
29	0xbb99ace3	-0.004689799
30	0x3ee2e94a	0.4431861
31	0xbf1ef9b2	-0.62099755
32	0xbedb3d86	-0.42820376
33	0xbfac33f2	-1.3453352
34	0xbf0f7c2c	-0.56048846
35	0x3e8e8daa	0.27842456
36	0xbf02f6fc	-0.5115812
37	0x3e60019c	0.21875614
38	0xbe7f405c	-0.24926895
39	0x3fc76f7d	1.5580899
40	0xbf52a1ad	-0.8227795
41	0xbf7f09bb	-0.9962422
42	0x3eb08b44	0.3448125
43	0xbd81f976	-0.06346409
44	0x3e6c9300	0.23102951
45	0x3ef72f46	0.48278254
46	0xbcacf9d4	-0.021115221
47	0x3d7fbeef	0.062437948
48	0xbfccee8b	-1.6010298
49	0x3f8a643a	1.0811837
50	0xbe928dd7	-0.2862384
51	0xbf546b5e	-0.8297633
52	0x3e633ea3	0.22191863
53	0x3eab6d19	0.33481672
54	0x3f0422b3	0.51615447
55	0xbeab4094	-0.33447707
56	0xbf4ff0bd	-0.8122671
57	0x3fa5f228	1.2964525
58	0xbf58061f	-0.8438434
59	0xbf191e3e	-0.5981177
60	0xba32059c	-0.0006790997
61	0x3e7d9ea2	0.24767545
62	0x3dba6a5f	0.0910232
63	0xbd8aa564	-0.06769827
64	0x3e9c897d	0.30573645
65	0x3f475892	0.7786952
66	0x3e1aa15b	0.15100615
67	0x3e49b487	0.19697772
68	0xbe86ed3a	-0.26352865
69	0x3ec7c660	0.39018536
70	0x3dc531d2	0.09628643
71	0xbe33b34b	-0.17548864
72	0x3ef1f55a	0.472575
73	0xbf7bd4d2	-0.98371613
74	0xbf96227a	-1.1729271
75	0x3f157b2f	0.5839109
76	0xbe097788	-0.13424504
77	0x3e7d82dd	0.24756952
78	0x3f8a48f1	1.080351
79	0xbf9e6476	-1.2374408
80	0xbd3309a9	-0.043710385
81	0xbee0f281	-0.43935016
82	0xbd5d7c95	-0.05407389
83	0xbf6a6881	-0.9156571
84	0xbf46fdc9	-0.77730995
85	0xbea2db3b	-0.31807885
86	0x3ef3ed23	0.47641858
87	0xbf2fa79b	-0.6861512
88	0xbf0a36c7	-0.53989834
89	0x3ed930cf	0.4242005
90	0x3ef1e0ec	0.47241914
91	0xbf3bd3a0	-0.7336979
92	0xbea52efd	-0.32262412
93	0xbfc04c17	-1.5023221
94	0xbe2d9890	-0.16952729
95	0x3e6182f4	0.22022611
96	0xbf4a3ec2	-0.7900201
97	0xbe9b6c49	-0.30356053
98	0xbe1e14df	-0.15437649
99	0x3e9915ee	0.29899544
100	0x3eeae2c7	0.45876142
101	0x3f029fe8	0.5102525
102	0xbe92060e	-0.28520244
103	0x3e645897	0.2229942
104	0xbf2ba64d	-0.6705063
105	0x3f06487c	0.5245435
106	0x3d8f2328	0.069891274
107	0x3d5c2718	0.05374822
108	0x3f1f0340	0.62114334
109	0xbf1f76b1	-0.62290484
110	0xbed88bde	-0.4229421
111	0xbfe2dff3	-1.7724594
112	0xbedbf7e6	-0.4296257
113	0xbe993e7c	-0.29930484
114	0xbe76e3b8	-0.24110305
115	0x3d8a5d7c	0.06756112
116	0xbea2d135	-0.31800237
117	0x3e4fe0b1	0.20300557
118	0x3ee00ece	0.43761295
119	0xbeb139ef	-0.34614512
120	0xbeb17156	-0.3465678
121	0xbf3dfa8b	-0.74210423
122	0x3eccd7ef	0.40008494
123	0x3ec7b8a7	0.39008066
124	0x3f51f867	0.82019657
125	0x3ee199cb	0.44062647
126	0x3e850bc1	0.2598553
127	0xbf91719b	-1.1362795
128	0xbe9f7604	-0.31144726
129	0x3f96c168	1.1777773
130	0xbe6e1a89	-0.2325231
131	0xbea58aa9	-0.32332352
132	0x3decd8a2	0.11564757
133	0x3ec41737	0.38298962
134	0xbc7c0daa	-0.015384117
135	0x3f06c94d	0.5265091
136	0x3f836004	1.0263677
137	0x3f5b0b2c	0.8556392
138	0xbfe38afa	-1.7776787
139	0x3ba3b0f8	0.0049954616
140	0xbeec3416	-0.46133488
141	0x3c82fed9	0.015990661
142	0x3f677616	0.9041456
143	0x3f8da7cf	1.1066836
144	0x3df2f624	0.11863354
145	0x3e97ca70	0.29646635
146	0x3efdead5	0.49593225
147	0x3eacbc7d	0.33737555
148	0xbe44d799	-0.19222869
149	0x3df6d59b	0.12052461
150	0xbf0ab2ac	-0.5417888
151	0x400d79bb	2.2105548
152	0x3fc89666	1.5670898
153	0xbfc6a647	-1.5519494
154	0xbfad1909	-1.3523265
155	0x3fe8d4c7	1.8189934
156	0xbf377fed	-0.71679574
157	0xbf9f6fc4	-1.2455983
158	0xbea4b802	-0.32171637
159	0x3f0ecbc0	0.5577965
160	0x3f92f69f	1.1481513
161	0x3f4df7ce	0.80456245
162	0x3f403372	0.750785
163	0x3fb4ab49	1.4114772
164	0xbfbffdd2	-1.4999335
165	0x3ea8a28a	0.32936507
166	0xbffc3f6e	-1.9706857
167	0xbfd10ba3	-1.6331676
168	0x401cb7b1	2.4487116
169	0xbfb11d3f	-1.383705
170	0x3fa3e248	1.280343
171	0xbd4d9157	-0.050187435
172	0xbf7ccb2a	-0.98747504
173	0x4000733c	2.0070333
174	0x3faa4a1a	1.3303864
175	0x3f45ea62	0.77310765
176	0xbf8567aa	-1.0422261
177	0xbf97c6e6	-1.1857574
178	0x3f98b18b	1.1929182
179	0x400d89be	2.211532
180	0x3f9d7316	1.2300746
181	0xbf8ea442	-1.1143878
182	0xbfacaac5	-1.3489615
183	0xbf200cfd	-0.6251982
184	0x3f43a13b	0.76417893
185	0x3ff7a626	1.934758
186	0x3e80c871	0.25152925
187	0xbe1e970e	-0.1548731
188	0xbf77877a	-0.96691096
189	0xbfb03dca	-1.3768857
190	0x3f48e45e	0.7847346
191	0x3f98ed5d	1.1947438
192	0x3fd28872	1.644789
193	0x3eed80fd	0.46387473
194	0x3f538c58	0.8263602
195	0xbf3d29e2	-0.73892033
196	0x3f5c9559	0.86165386
197	0x3ffac2ba	1.9590676
198	0x3f8c6d16	1.097079
199	0xc001a8db	-2.0259311
200	0x3f080733	0.53135985
201	0x3f24be1b	0.6435258
202	0x3eed26df	0.4631872
203	0xbe21fe7e	-0.15819737
204	0xbefe3363	-0.4964858
205	0x3ea2cc34	0.3179642
206	0x3ed1111d	0.4083337
207	0xbeae45b6	-0.3403756
208	0xbe3d73fe	-0.18501279
209	0xbd71f66e	-0.059072904
210	0xbf2beecb	-0.67161244
211	0xbfc3ed72	-1.5306838
212	0x3f31014c	0.69142604
213	0x3e942274	0.28932536
214	0xbe55fa23	-0.20896201
215	0xbb0430ab	-0.002017061
216	0xbf77df91	-0.9682551
217	0x3e51774d	0.20455666
218	0x3f92982f	1.1452693
219	0xbcd3819b	-0.025818637
220	0xbec4176b	-0.38299116
221	0x3e06d9d7	0.13169037
222	0x3ede8d20	0.43467045
223	0x3e360c78	0.17778194
224	0x3e2e2f59	0.17010249
225	0x3eb061cf	0.34449622
226	0x3eab7a41	0.3349171
227	0xbf66184d	-0.8988083
228	0x3e9a6d30	0.30161428
229	0x3f4c47cb	0.7979705
230	0xbe1d9adc	-0.15391105
231	0xbd748008	-0.059692413
232	0xbd422d24	-0.04740633
233	0x3eb4602b	0.3522962
234	0xbded3b69	-0.11583597
235	0x3f90a6bb	1.1300882
236	0x3f0a88d4	0.54115033
237	0x3f194a80	0.598793
238	0xbf74eab5	-0.95670635
239	0xbf4db875	-0.80359584
240	0xbe8a2fed	-0.2698969
241	0x3e022aef	0.1271169
242	0xbdaae98b	-0.08345326
243	0x3e2d0535	0.16896518
244	0x3ec0f954	0.37690222
245	0x3e8be80b	0.27325472
246	0x3eb80e9f	0.35948655
247	0x3e3d575b	0.18490355
248	0xbf843ac9	-1.033044
249	0x3ebd99dd	0.3703145
250	0xbea9dea0	-0.33177662
251	0x3dc87945	0.09788755
252	0x3f5b71a5	0.8572028
253	0xbf3cc80b	-0.7374274
254	0xbe8f3a8a	-0.2797435
255	0x3e717345	0.23579128

rnn2.weight_hh f4 [200, 50]
0	0x3f765b70	0.9623327
1	0x3dfecca0	0.12441373
2	0x3eb3e922	0.35138804
3	0x3f4e1ff3	0.805175
4	0xbf452b1f	-0.7701892
5	0xbdb4b2bc	-0.088231534
6	0x3f61f104	0.88258386
7	0xbe9a9d60	-0.30198193
8	0x3f03dda6	0.51510084
9	0xbd24beba	-0.040220954
10	0x3e455838	0.19271934
11	0xbf5fae2a	-0.8737513
12	0x3f7daa63	0.99088115
13	0x3e88ec4b	0.26742777
14	0x3e1b23b2	0.15150335
15	0xbe68a665	-0.22719724
16	0x3f6a86e8	0.916121
17	0xbea85d9a	-0.32883912
18	0xbe61f1fa	-0.22064963
19	0xbf83bb7c	-1.0291591
20	0x3f4d93a2	0.80303395
21	0x3df252ed	0.11832223
22	0x3f9f4e00	1.2445679
23	0x3d03a6b5	0.032141406
24	0xbf05e36c	-0.52300143
25	0xbef94e16	-0.48692387
26	0xbf59387b	-0.8485181
27	0xbf2b5877	-0.6693186
28	0xbf0dc873	-0.55383986
29	0x3f4615b0	0.7737684
30	0x3e24fb3f	0.16111468
31	0xbb949c40	-0.004535228
32	0xbe53d49b	-0.20686571
33	0xbd0dd444	-0.03462626
34	0xbed116e3	-0.40837774
35	0x3ee77724	0.45208085
36	0xbde34d89	-0.11098773
37	0x3eaeafbf	0.3411846
38	0xbb360380	-0.0027773082
39	0x3eee4279	0.4653509
40	0xc015df31	-2.3417475
41	0x3f0ccd5c	0.55000854
42	0x3f2a28ba	0.66468394
43	0x3e9c9f99	0.30590513
44	0x3e4223da	0.18958989
45	0xbe9d641e	-0.30740446
46	0xbd93f2cf	-0.072240464
47	0xbf251c1c	-0.64496017
48	0x3e8d2c52	0.27572876
49	0x3db251b0	0.08706987
50	0xbec56a36	-0.38557595
51	0x3f3f42ca	0.7471129
52	0xbe009859	-0.12558116
53	0x3fa5c58f	1.2950915
54	0xbf5068fb	-0.8141019
55	0xbda5f1de	-0.08102773
56	0x3f57721d	0.841585
57	0xbf4164ba	-0.7554432
58	0x3fc96b04	1.5735784
59	0x3f2cfafe	0.67570484
60	0x3f767d69	0.9628511
61	0xbe7b49ce	-0.24539873
62	0x3f60eb52	0.8785907
63	0x3f5777ab	0.84166974
64	0xbeac93d0	-0.33706522
65	0x3ed9c759	0.42534903
66	0x3fb3d365	1.4048887
67	0xbef34f65	-0.4752151
68	0xbec13dd5	-0.37742487
69	0xbfa13fae	-1.2597558
70	0x3ee7c763	0.45269307
71	0xbe405d41	-0.18785574
72	0x3f165242	0.58719265
73	0xbe9f4830	-0.31109762
74	0xbfa8412c	-1.3144889
75	0xbf5e2610	-0.8677683
76	0xbf574f40	-0.841053
77	0xbf823070	-1.0171032
78	0xbfcbd8cf	-1.592554
79	0x3f7a5774	0.9778969
80	0x3f3266ad	0.6968792
81	0xbe14da77	-0.14536463
82	0xbb351460	-0.0027630553
83	0xbf72fcf6	-0.9491724
84	0xbee32611	-0.4436498
85	0x3f1037a5	0.56334907
86	0x3d36b583	0.044606697
87	0x3f7f8c9f	0.99823946
88	0x3f08ed14	0.5348675
89	0xbf7f5210	-0.9973459
90	0xbffc171f	-1.9694556
91	0x3ee803b9	0.4531534
92	0x3f3ffa62	0.7499143
93	0xbf23b095	-0.6394132
94	0x3f9c304d	1.220224
95	0xbf5b8c2e	-0.8576077
96	0xbeef5470	-0.46744108
97	0xbf2e5bfe	-0.6810912
98	0x3d751594	0.05983503
99	0xbf1da772	-0.61583626
100	0xbdedee41	-0.11617709
101	0xbeccd696	-0.40007466
102	0x3eab011d	0.33399287
103	0x3f58ff2e	0.84764373
104	0xbf5724d3	-0.84040564
105	0x3eb8b1e1	0.3607321
106	0x3e0c4746	0.13699064
107	0x3e5e70b9	0.21722688
108	0x3f6c32fd	0.922653
109	0xbe3e1a5e	-0.18564746
110	0x3f1859b9	0.59511906
111	0xbf2d6e2b	-0.6774623
112	0x3f814428	1.0098925
113	0xbf2634c8	-0.6492429
114	0xbf5aab96	-0.8541807
115	0x3ccdfacf	0.025144009
116	0x3f1adbcc	0.60491633
117	0xbe18c7f1	-0.14920022
118	0xbf30e7e4	-0.69103837
119	0xbf40781b	-0.75183266
120	0x3f47ede1	0.7809735
121	0x3eac43f0	0.33645582
122	0xbdcdb5b0	-0.1004442
123	0xbdd0704a	-0.101776674
124	0xbf66aa85	-0.9010394
125	0xbf691adb	-0.91056603
126	0xbf65f962	-0.8983365
127	0xbf4a4563	-0.79012126
128	0xbf79d295	-0.9758695
129	0x3f806284	1.0030065
130	0x3f1d2c1b	0.61395425
131	0x3efb75d4	0.49113333
132	0xbf4f53f0	-0.80987453
133	0xbf8a6e5a	-1.0814927
134	0x3defe4c5	0.11713556
135	0x3ebc882b	0.36822638
136	0xbe909820	-0.28241062
137	0x3f7027e6	0.9381088
138	0x3d5d01e3	0.053956877
139	0xbf42d646	-0.76108205
140	0xbf9d60d3	-1.2295173
141	0xbedb3fad	-0.42822018
142	0x3efe8dd7	0.4971759
143	0xbdadab84	-0.0847998
144	0x3ec00674	0.37504923
145	0xbe263a13	-0.16233091
146	0xbe8ba6c6	-0.27275676
147	0xbf417f22	-0.75584614
148	0x3ec2470a	0.37944824
149	0x3dc947ce	0.09828149
150	0xbb07f8cb	-0.0020747657
151	0xbe09784f	-0.134248
152	0xbdc68261	-0.096928366
153	0xbd5a9b36	-0.053370677
154	0xbe26e1cf	-0.16297077
155	0x3eb129e0	0.3460226
156	0x3e451035	0.19244464
157	0x3e121057	0.14264046
158	0x3dc1cd80	0.09463024
159	0xbcce6471	-0.025194379
160	0x3db4f619	0.08836002
161	0x3b6399da	0.0034729154
162	0x3e0c9633	0.13729171
163	0xbe239367	-0.15974198
164	0xbe0dedeb	-0.1386029
165	0xbd53c8b0	-0.051705062
166	0x3d8e03bc	0.06934306
167	0xbe086ad0	-0.13321996
168	0xbe42c2b3	-0.19019584
169	0xbdcb6aa5	-0.0993245
170	0x3daf6d19	0.085657306
171	0x3e47ac00	0.19499207
172	0xbd4e0ef2	-0.05030722
173	0xbde7d91b	-0.113207065
174	0xbe892d8c	-0.26792562
175	0xbe5ea603	-0.21743016
176	0xbdd88d5b	-0.105738364
177	0xbdd7eaae	-0.105428085
178	0xbd6f5b3b	-0.058436614
179	0x3efce6b9	0.49394777
180	0x3e417b1f	0.18894623
181	0x3da92c7a	0.08260436
182	0xbd07599d	-0.033044446
183	0x3d233f43	0.039855253
184	0xbda724db	-0.081613265
185	0x3e578377	0.21046244
186	0xbe0a3739	-0.13497628
187	0x3d8b1c9c	0.06792566
188	0x3dbb21bb	0.09137293
189	0xbc79186a	-0.015203575
190	0xbe3fc442	-0.1872721
191	0xbef5af9c	-0.47985542
192	0x3e419c75	0.1890734
193	0x3cf052c7	0.029336346
194	0x3e387960	0.18015051
195	0xbda6bcc5	-0.08141474
196	0xbdb14fff	-0.08657836
197	0xbdc506ad	-0.09620414
198	0x3ee11c63	0.4396697
199	0x3e5422df	0.20716427
200	0xbf0cdf96	-0.55028665
201	0x3e596b85	0.21232422
202	0xbf51a4c5	-0.81892043
203	0x3f1be5e8	0.60897684
204	0x3eb0dcb6	0.3454339
205	0xbe889493	-0.26675853
206	0x3fa9eaf8	1.3274832
207	0xbec8b52d	-0.39200726
208	0xbf449749	-0.7679334
209	0x3cbe742a	0.02324875
210	0x3f10f36a	0.5662142
211	0x3f04ca5a	0.51871264
212	0x3ea75c7f	0.32687756
213	0xbeb7fd07	-0.35935232
214	0x3d46b482	0.04851199
215	0x4001a2d5	2.0255635
216	0x3f1a08a6	0.60169446
217	0x3f49f273	0.78885573
218	0x3ea55eb9	0.3229883
219	0x3dd863f2	0.10565938
220	0xbea6eaec	-0.32601106
221	0xbed15065	-0.4088165
222	0xbf887dfd	-1.0663449
223	0x3f83273f	1.0246352
224	0xbe77e78e	-0.24209425
225	0x3f102918	0.56312704
226	0xbd064dc4	-0.032789007
227	0xbf2642fc	-0.6494596
228	0xbebd6327	-0.3698971
229	0xbe1867c2	-0.1488333
230	0x3f13d99a	0.5775391
231	0x3e28d69d	0.16488118
232	0xbdee0394	-0.11621776
233	0xbf72d302	-0.9485322
234	0xbf753400	-0.9578247
235	0x3e9c10a8	0.30481458
236	0x3f1430c6	0.5788692
237	0x3ea25445	0.31704918
238	0xbe5de275	-0.21668418
239	0xbf3bcf17	-0.7336287
240	0xbf3af10e	-0.7302407
241	0x3f17c624	0.59286714
242	0x3f416cee	0.7555684
243	0x3dcf9511	0.10135854
244	0x3ea5d745	0.323908
245	0x3f348b8f	0.7052545
246	0x3f861d1f	1.0477637
247	0xbf73caa7	-0.952311
248	0xbf8c5dd7	-1.0966138
249	0xbd53e74e	-0.05173426
250	0xbf05f048	-0.52319765
251	0xbf41582d	-0.7552517
252	0xbd18f5db	-0.03734384
253	0xbe122a14	-0.14273864
254	0xbf648078	-0.8925853
255	0x3f87bca3	1.0604442

rnn2.bias_ih f4 [200]
0	0xbf1d7a87	-0.61515087
1	0xbf86713f	-1.050331
2	0x3e6be8b5	0.2303799
3	0x3fa81dc4	1.3134084
4	0x3d6623da	0.056186534
5	0xbe06f1bd	-0.13178153
6	0x3eda57c3	0.42645082
7	0xbe898a23	-0.26863202
8	0x3f39e7e4	0.7261946
9	0xbca5157e	-0.02015185
10	0xbc251224	-0.010075126
11	0x3c808a46	0.015690934
12	0x3e8e28ad	0.27765408
13	0xbf070ccb	-0.52753896
14	0xbf189965	-0.5960906
15	0xbe38f217	-0.180611
16	0x3dea563c	0.11442229
17	0xbd51346c	-0.051075384
18	0x3f2b4f2a	0.6691767
19	0x3f15b15f	0.5847377
20	0xbe2b0c18	-0.16703832
21	0x3e5a4424	0.21315056
22	0xbf781aef	-0.969161
23	0x3eb7eb88	0.35921884
24	0x3ecf56a2	0.40495783
25	0x3f2133ff	0.62969965
26	0x3d772023	0.060333382
27	0x3f069076	0.5256418
28	0x3f02adb7	0.5104632
29	0x3efb45a9	0.49076584
30	0x3dd31670	0.10307014
31	0x3e955c96	0.291722
32	0x3edc90c4	0.43079197
33	0xbe6aaa9b	-0.22916643
34	0xbea8ab9f	-0.32943437
35	0x3e4000ce	0.18750307
36	0x3e007434	0.12544328
37	0x3e979f99	0.2961395
38	0xbf105fba	-0.5639607
39	0xbd9623a0	-0.07331014
40	0x3f237c96	0.6386198
41	0xbf09eb0a	-0.53874266
42	0x3f5285c4	0.8223536
43	0x3ebba7b4	0.36651385
44	0x3f54202e	0.828616
45	0xbd18b78f	-0.03728443
46	0xbdcf3461	-0.10117412
47	0x3f1565e3	0.5835859
48	0xbea1488c	-0.3150066
49	0xbe2a5592	-0.16634205
50	0x3f691b88	0.91057634
51	0xbe8710c3	-0.26379976
52	0x3e82f09f	0.25574204
53	0x3e643713	0.22286634
54	0x3d775224	0.06038107
55	0x3f251227	0.64480823
56	0x3f05ba9c	0.5223787
57	0xbe500309	-0.20313658
58	0x3e025388	0.12727177
59	0x3e9da3a0	0.30788898
60	0xbccde6ea	-0.025134522
61	0x3dac767e	0.08421038
62	0xbe1f1e8e	-0.15539
63	0x3f224f24	0.6340201
64	0x3ee037f6	0.43792695
65	0xbe78e04c	-0.24304312
66	0x3ea233dd	0.31680194
67	0x3e80ff86	0.2519495
68	0x3e6fe59f	0.23427437
69	0xbc80f15f	-0.015740095
70	0x3e6ca1f4	0.23108655
71	0x3ea53dc5	0.3227369
72	0x3e90974a	0.28240424
73	0xbd71d54f	-0.059041318
74	0x3ea56f5e	0.3231153
75	0x3da74cc4	0.08168939
76	0xbec3f613	-0.38273677
77	0x3e0b625a	0.13611737
78	0x3e7e4244	0.24829966
79	0x3d172f1f	0.036910173
80	0x3ed4498f	0.4146237
81	0xbe91216d	-0.28345814
82	0x3eecfb90	0.46285677
83	0x3f3e5cd0	0.7436037
84	0x3ed67006	0.41882342
85	0x3e079e26	0.13243923
86	0xbeea4121	-0.45752814
87	0x3a500c9c	0.0007936449
88	0x3e15a68b	0.14614312
89	0x3ef4482d	0.47711316
90	0x3d31609e	0.043305032
91	0xbd6e98ef	-0.058251318
92	0x3d45f0ac	0.048325226
93	0x3e331422	0.17488149
94	0xbec0c9a5	-0.37653843
95	0xbed89d1c	-0.42307365
96	0xbeb4c018	-0.35302806
97	0x3e7f4cea	0.24931684
98	0xbd1ace9f	-0.037794705
99	0xbd6a19b3	-0.057153415
100	0x3d26167b	0.040548783
101	0xbe95f6cd	-0.29289857
102	0xbe9c9d92	-0.30588967
103	0x3f3fd447	0.74933285
104	0xbeebc4e6	-0.4604866
105	0x3ef9b309	0.48769405
106	0x3d66a100	0.056305885
107	0x3f10bd01	0.565384
108	0x3f4c4ebc	0.7980764
109	0xbf0fb834	-0.56140447
110	0x3e922d77	0.28550312
111	0xbe822571	-0.2541919
112	0x3f23f0fa	0.64039576
113	0xbd6fc3d4	-0.058536366
114	0xbebc4fab	-0.36779532
115	0xbdbf429e	-0.09338878
116	0x3eaba280	0.33522415
117	0xbea1187f	-0.31464002
118	0xbf1d7d55	-0.61519367
119	0xbf34f47c	-0.70685554
120	0x3e9952ea	0.2994607
121	0x3f1b6989	0.6070791
122	0x3db5a9ed	0.088703014
123	0xbf39c8b9	-0.72571903
124	0xbef4fded	-0.4784998
125	0xbf41e869	-0.75745255
126	0xbed1a75a	-0.40947992
127	0xbe665b3d	-0.22495742
128	0xbed563b0	-0.41677618
129	0x3f14f70b	0.5818946
130	0x3ed2f2e5	0.4120094
131	0x3f296207	0.661652
132	0xbef04a79	-0.46931818
133	0xbf049971	-0.51796633
134	0x3e83b390	0.25722933
135	0x3ef55f68	0.47924352
136	0xbe703c15	-0.2346042
137	0x3ec2df5c	0.38061035
138	0xbe157441	-0.14595129
139	0xbe7d3e7a	-0.24730864
140	0xbf3696d9	-0.71323925
141	0xbe78a28a	-0.24280754
142	0x3e536a07	0.20645915
143	0x3e71336c	0.23554772
144	0x3e97ee09	0.29673794
145	0xbef207f5	-0.47271696
146	0xbe7d5120	-0.24737978
147	0xbf03d8e4	-0.51502824
148	0x3e252bf2	0.16130045
149	0x3ef9febf	0.48827168
150	0x3da269ef	0.079303615
151	0xbeba2ae8	-0.3636086
152	0xbdf74603	-0.120739006
153	0x3ed4c04d	0.41552964
154	0xbe78b9e8	-0.24289668
155	0xbd451632	-0.04811687
156	0xbe0de7a8	-0.13857901
157	0x3e4f9888	0.2027303
158	0xbe033635	-0.12813647
159	0xbd5ab5ec	-0.05339615
160	0x3ef6b8d5	0.4818789
161	0x3e0c5908	0.13705838
162	0x3d9a3d55	0.075312294
163	0xbe83755d	-0.2567548
164	0xbb85359e	-0.0040652296
165	0xbf0b8f65	-0.5451568
166	0x3c9c3a63	0.01907081
167	0xbe3767d4	-0.17910701
168	0x39e6bdb4	0.00044010358
169	0x3ec2283e	0.37921327
170	0xbdb61eeb	-0.08892616
171	0xbe511190	-0.20416856
172	0xbf48785c	-0.78308654
173	0xbe7e7cf6	-0.24852356
174	0x3e1cfb6d	0.15330286
175	0xbd9c7ffe	-0.076416
176	0x3d005401	0.031330112
177	0x3db22343	0.08698132
178	0xbd6f51e8	-0.05842772
179	0x3efcaf7c	0.49352634
180	0xbeda0f90	-0.42589998
181	0x3db7f670	0.08982551
182	0xbdc43093	-0.09579577
183	0xbd7c86e3	-0.061652075
184	0xbeacaa2c	-0.3372358
185	0xbe28c124	-0.16479927
186	0x3d0d3624	0.03447546
187	0x3e59299d	0.2120728
188	0xbdff6ade	-0.12471555
189	0xbdb7b34f	-0.08969747
190	0x3ec64993	0.38728008
191	0xbe1b6624	-0.15175682
192	0xbda08d23	-0.0783942
193	0x3f5a0223	0.8515951
194	0x3d3caaac	0.046061203
195	0x3ec98d7e	0.39365762
196	0x3eaaa309	0.3332751
197	0xbe09b6c6	-0.13448629
198	0x3e809a2e	0.2511763
199	0xbefeacf1	-0.4974132

rnn2.bias_hh f4 [200]
0	0xbecf6bbc	-0.40511882
1	0xbf68b7aa	-0.9090525
2	0x3edc4452	0.43020874
3	0x3faf904f	1.3715914
4	0x3c8045a4	0.015658207
5	0xbce73b33	-0.02822647
6	0x3e6ec6e9	0.23318066
7	0xbe87a712	-0.26494652
8	0x3f22ce91	0.63596445
9	0xbdbda2c6	-0.09259562
10	0x3e04b22d	0.12958594
11	0x3c50b57d	0.012738583
12	0x3e355c8c	0.17711085
13	0xbf2f722c	-0.6853359
14	0xbee61636	-0.4493882
15	0xbe2da41d	-0.16957135
16	0xbda1e5ce	-0.0790516
17	0xbe0471bd	-0.12934013
18	0x3f238277	0.6387095
19	0x3eb87b4c	0.36031568
20	0xbd7630a1	-0.06010497
21	0x3e1e7037	0.15472494
22	0xbf515fe1	-0.81786925
23	0x3ee73ad0	0.45162058
24	0x3f0f9eb1	0.5610152
25	0x3f622fce	0.88354194
26	0x3d489165	0.048966784
27	0x3ec0878d	0.37603417
28	0x3ee24f3d	0.4420108
29	0x3f089307	0.53349346
30	0xbd849991	-0.06474603
31	0x3eb1ea1c	0.34748924
32	0x3eb09da6	0.34495276
33	0xbe64083c	-0.22268766
34	0xbdf9d406	-0.121986434
35	0x3e1a9315	0.1509517
36	0xbcef605b	-0.02922075
37	0x3f01d728	0.5071893
38	0xbf4af3d7	-0.7927832
39	0xbe8bea49	-0.27327183
40	0x3f3e84d1	0.7442141
41	0xbf196661	-0.5992184
42	0x3f2036a8	0.625834
43	0x3ebc1629	0.36735657
44	0x3f44e8c5	0.7691768
45	0x3d99375d	0.07481263
46	0xbdc8862a	-0.09791215
47	0x3edfa900	0.43683624
48	0xbd62fbf9	-0.05541608
49	0xba76cc1f	-0.00094145717
50	0x3f416658	0.7554679
51	0xbd84f872	-0.064927
52	0x3e828d71	0.25498536
53	0x3eab2069	0.33423164
54	0x3e7d93b4	0.24763376
55	0x3f0dce32	0.55392754
56	0x3f11782f	0.5682401
57	0xbdfc4b3a	-0.12319036
58	0x3df4dc5e	0.11956094
59	0x3eb0cde6	0.34532088
60	0x3c0d70bd	0.008632836
61	0xbe033db6	-0.1281651
62	0xbe8b9eb0	-0.27269506
63	0x3f1b7d7e	0.6073836
64	0x3eec9de9	0.46214226
65	0xbe73fee0	-0.23827696
66	0x3e16a907	0.14712916
67	0x3e1b1389	0.15144171
68	0x3e87c97d	0.2652091
69	0x3e5ae548	0.21376526
70	0x3e9c280b	0.304993
71	0x3e406d92	0.18791798
72	0x3e77d215	0.24201234
73	0xbcd984c2	-0.026552562
74	0x3eb37928	0.35053372
75	0xbe442c8b	-0.19157617
76	0xbf121ca3	-0.57074946
77	0x3ea837a0	0.32854939
78	0x3eaa76d5	0.33293787
79	0xbcf9552e	-0.030436125
80	0x3f046db8	0.5172992
81	0xbe6eb61a	-0.23311654
82	0x3f106ef6	0.5641931
83	0x3f3a72a1	0.7283116
84	0x3f00cb63	0.50310344
85	0xbd968aba	-0.07350679
86	0xbef7d747	-0.4840643
87	0x3d3c2c07	0.045940425
88	0x3dc4c722	0.09608294
89	0x3eec424a	0.46144325
90	0x3ceeaf53	0.029136335
91	0xba12a7f1	-0.0005594483
92	0x3e06c6ec	0.1316182
93	0x3cd50cce	0.026007082
94	0xbe99a1a3	-0.30006132
95	0xbee583d2	-0.44827133
96	0xbf17e692	-0.593362
97	0x3e6c19b1	0.23056675
98	0xbd9e5681	-0.07731343
99	0xbdcf15b1	-0.10111559
100	0xbdc52660	-0.0962646
101	0xbe8ecc29	-0.27890137
102	0xbe3da42f	-0.18519662
103	0x3f1c8cb0	0.6115217
104	0xbe6845a5	-0.22682817
105	0x3e87116f	0.26380488
106	0x3d9b04c6	0.0756927
107	0x3f26aaf0	0.6510458
108	0x3f2d57f4	0.6771233
109	0xbed7a2cf	-0.421164
110	0x3e1a72c0	0.15082836
111	0xbe848c13	-0.25888118
112	0x3f0cd65e	0.550146
113	0xbcb41d54	-0.021986641
114	0xbee31e33	-0.44358978
115	0x3dc68c74	0.09694758
116	0x3e5ac55f	0.21364354
117	0xbea66dda	-0.32505685
118	0xbefd13b9	-0.4942911
119	0xbf26b200	-0.65115356
120	0x3e8150a2	0.2525683
121	0x3f207598	0.62679434
122	0x3ddad85a	0.10685797
123	0xbf072e50	-0.5280504
124	0xbeb57355	-0.35439554
125	0xbf61ce96	-0.8820585
126	0xbea858b6	-0.3288018
127	0xbe572576	-0.21010384
128	0xbe9701c9	-0.2949355
129	0x3f08fc4b	0.5350997
130	0x3ee1eabc	0.441244
131	0x3f3f2faf	0.74682134
132	0xbf273948	-0.6532178
133	0xbf2c300c	-0.67260814
134	0x3e84398a	0.2582515
135	0x3f020ec5	0.50803787
136	0xbe3d3fd7	-0.18481384
137	0x3f1a6225	0.60306007
138	0xbd4629e0	-0.04837978
139	0xbed9d76b	-0.42547163
140	0xbf408d3a	-0.75215495
141	0xbe2cdbc3	-0.16880707
142	0xbc820ab8	-0.015874252
143	0x3da1c0a1	0.07898069
144	0x3e519506	0.20467004
145	0xbf0bc521	-0.5459767
146	0xbee737c6	-0.4515974
147	0xbe94f9df	-0.29096887
148	0x3e16a6de	0.14712092
149	0x3eb3f343	0.3514653
150	0x3e41c3b5	0.18922313
151	0xbee8905c	-0.45422637
152	0x3bd9f23c	0.006651191
153	0x3f10fa61	0.5663205
154	0xbe88ce1b	-0.26719746
155	0xbd560d29	-0.052258644
156	0xbe7742c0	-0.24146557
157	0x3db08246	0.08618598
158	0xbdc5ad52	-0.09652199
159	0xbc0f8d18	-0.008761667
160	0x3ec2d240	0.38051033
161	0x3d351255	0.044206936
162	0x3d8ebb88	0.069693625
163	0xbe7be182	-0.24597743
164	0xbdea62e6	-0.11444645
165	0xbee262f3	-0.44216117
166	0x3d1cc945	0.038277883
167	0xbdf4cd51	-0.119532235
168	0x3dd3295a	0.103106216
169	0x3e8999af	0.26875064
170	0xbe409940	-0.1880846
171	0xbe252f3e	-0.16131303
172	0xbf4602d7	-0.77348083
173	0xbeb87921	-0.36029914
174	0x3e85a052	0.26098877
175	0x3d16c4f5	0.036808927
176	0x3daf6843	0.08564808
177	0x3d153dc1	0.036435846
178	0xbb8ba1a1	-0.004261211
179	0x3ed03a9a	0.4066971
180	0xbebdd60c	-0.37077367
181	0x3dc07b5a	0.093985274
182	0xbea80d0c	-0.32822454
183	0xbc62566c	-0.01381455
184	0xbee13be5	-0.43991008
185	0xbe2cdcd3	-0.16881113
186	0xbe03118d	-0.12799664
187	0x3e0ecf74	0.13946325
188	0xbe047acb	-0.12937467
189	0x3d510aaf	0.05103558
190	0x3eff9e38	0.499254
191	0xbe2a7aa9	-0.16648354
192	0x3e1bd4c1	0.15217878
193	0x3f3efc86	0.7460407
194	0x3df19db6	0.11797659
195	0x3ef2fa29	0.47456482
196	0x3e2c2b1e	0.16813323
197	0x3da0c981	0.07850934
198	0x3e330886	0.1748372
199	0xbf15496b	-0.5831515
