Results/Complete Sherlock Holmes/RNN/Adam/2/100/model.pt (torch, 205503 bytes, 10 tensors)

rnn.weight_ih f4 [100, 100]
-0.5766315 0.20309289 0.2033356 0.36564952 0.82276106 0.17748909 0.17069367 -0.12858495
-0.42607206 0.54086155 -4.796455 0.572443 4.1384172 -1.8577987 2.6291246 -0.9341482
0.35032684 -5.139954 0.97663254 1.1719079 -0.23891276 2.1626132 0.28481025 0.15728928
-2.0641668 -0.06560555 1.9070464 0.84151363 3.565413 -0.92260444 1.2700124 -2.5538304
-3.3079007 -0.21300182 -7.010096 -1.7774311 -2.7895894 1.6030211 0.987524 -1.0574914
0.0018042339 -1.5583827 -1.5643795 -3.9563046 3.2129629 0.41994646 -0.2788987 -0.43007004
-0.782898 0.67440987 -0.9442785 -0.8268435 1.0387613 1.2091557 1.1994618 0.09084727
0.61026365 -0.9432038 1.0056205 0.43226987 -4.135256 -0.1159808 1.8229162 0.4651398
0.061330773 -0.020888507 -0.032587327 0.061390035 -0.929894 0.6335585 0.11431871 -0.10950573
-0.018718362 3.6756706 3.3701084 2.2040908 0.06382752 0.7035614 1.852732 0.020283148
-0.09695908 0.09772272 1.5702754 -0.07803719 -0.5748443 -0.030595124 0.6599251 0.06253227
-0.07719022 0.036053948 -0.093304716 0.0051990896 0.054311283 0.09962494 1.3603716 -0.0030288696
-4.7537885 0.06701464 -0.025017515 -0.063175544 -1.1478997 -0.11490636 0.015708014 -0.94823414
-0.44829866 0.24827479 -0.5567922 -0.35641873 -0.6250615 -0.5481854 -2.3653886 -3.6981738
0.59637636 0.5947803 2.4109526 -2.314178 -1.6572267 3.256649 2.5776181 -2.7792645
-2.0994365 0.059988413 -4.379111 3.5673966 -2.5216067 0.9073396 -3.4460986 0.34497538
1.6602818 2.8900278 2.7269936 -3.0418003 3.180238 -0.33415112 -1.5795195 1.3457501
0.5790145 0.27250084 0.5206548 -1.1666481 -1.121353 -1.9415352 -0.7004808 -1.3044503
1.6889584 0.30469763 1.2859112 -1.0386313 -2.3430102 0.89468026 -1.5997314 -0.6137729
-1.3522029 -0.132076 0.4540622 -0.62303364 -0.3105943 -1.4161285 1.0573131 -0.12358896
0.5153355 -0.30876744 -0.55260754 0.36870477 -0.04819721 0.07720605 -0.044720676 -0.26417103
2.6880312 -0.1371414 0.050343238 0.0066582784 -0.0350464 -2.0792065 -0.08676543 0.21952371
0.018556908 -0.19518079 -1.0489591 0.040887363 -0.094581656 0.080378406 -2.667815 0.055567913
0.29290697 -0.09427885 0.31005487 -0.02604568 -0.05063052 -0.026693404 0.045939706 -0.025616124
-0.03053566 0.07275849 -0.56373775 -0.06451279 0.79170847 0.057954855 0.07813827 0.06031879
0.92668504 1.8448757 1.1677599 0.84929746 0.23752433 1.5310979 0.47652075 1.0098983
1.0475308 0.03237463 3.2881372 3.3627188 -3.3451097 -0.079147056 3.0247824 -2.8751047
-2.7832968 1.4151553 4.9272637 -2.5481987 2.4896913 4.347334 -0.5346079 2.1855638
-0.38882032 -3.07883 -2.071263 2.529967 -2.7702327 -5.3760138 2.426316 -2.910254
-3.0051656 -1.7243003 2.127828 -0.32620937 2.6329947 1.7359252 -3.002815 -0.70561683
0.87412035 -1.6042166 -1.5304141 -0.75620407 0.41030124 -1.0732872 -0.2764467 0.3520513
-1.2540227 0.12569243 -0.69364697 -1.5090544 -0.8059406 -0.025410129 -2.092646 -2.7143524
00000000: 1f9e 13bf 95f7 4f3e 3537 503e 6a36 bb3e
00000010: 78a0 523f b3bf 353e 52ca 2e3e c6ab 03be
00000020: 1e26 dabe e775 0a3f 8f7c 99c0 a08b 123f
00000030: ea6d 8440 59cc edbf 9443 2840 5624 6fbf
00000040: 0a5e b33e 817a a4c0 9704 7a3f 1401 963f
00000050: 8ca5 74be 4168 0a40 a6d2 913e 7110 213e
00000060: 4f1b 04c0 345c 86bd 191a f43f 706d 573f
00000070: ba2f 6440 ce2f 6cbf c48f a23f f571 23c0
00000080: a5b4 53c0 261d 5abe b552 e0c0 dd82 e3bf
00000090: a288 32c0 cc2f cd3f 5fce 7c3f e15b 87bf
000000a0: 0b7c ec3a 1679 c7bf 963d c8bf 1834 7dc0
000000b0: 2fa1 4d40 3903 d73e cfcb 8ebe 2432 dcbe
000000c0: 016c 48bf 20a6 2c3f 3cbc 71bf 04ac 53bf
000000d0: 21f6 843f 9dc5 9a3f f787 993f 220e ba3d
000000e0: 3d3a 1c3f ce75 71bf 2cb8 803f 7a52 dd3e
000000f0: 0454 84c0 5787 edbd 5155 e93f ce26 ee3e
00000100: fa35 7b3d 601e abbc 4a7a 05bd 1e74 7b3d
00000110: 880d 6ebf e430 223f ee1f ea3d 8a44 e0bd
00000120: 4057 99bc 303e 6b40 dbaf 5740 d30f 0d40
00000130: 01b8 823d 9a1c 343f 5226 ed3f d828 a63c
00000140: 7b92 c6bd d922 c83d c9fe c83f f6d1 9fbd
00000150: ff28 13bf a0a2 fabc daf0 283f eb10 803d
00000160: e815 9ebd 4ead 133d 8b16 bfbd 205d aa3b
00000170: 8275 5e3d 2908 cc3d a820 ae3f 0080 46bb
00000180: 091f 98c0 f93e 893d 88f1 ccbc 2e62 81bd
00000190: 61ee 92bf 0754 ebbd 18ae 803c 79bf 72bf
000001a0: 6787 e5be bf3b 7e3e ef89 0ebf 847c b6be
000001b0: 0804 20bf e155 0cbf 8762 17c0 e1ae 6cc0
000001c0: 1fac 183f 8643 183f 0c4d 1a40 7e1b 14c0
000001d0: 0120 d4bf f06c 5040 b2f7 2440 78df 31c0
000001e0: 2b5d 06c0 69b6 753d ad21 8cc0 3a50 6440
000001f0: 0162 21c0 6847 683f e18c 5cc0 9da0 b03e
00000200: 1d84 d43f 37f6 3840 1087 2e40 dbac 42c0
00000210: 0589 4b40 db15 abbe b22d cabf 8a41 ac3f
00000220: 4b3a 143f 3b85 8b3e a249 053f ba54 95bf
00000230: 7f88 8fbf 3a84 f8bf b652 33bf 3af8 a6bf
00000240: ca2f d83f 5401 9c3e bd98 a43f dff1 84bf
00000250: e1f3 15c0 c409 653f 00c4 ccbf 3920 1dbf
00000260: fc14 adbf ee3e 07be d77a e83e 227f 1fbf
00000270: 3706 9fbe b343 b5bf 0956 873f 351c fdbd
00000280: 07ed 033f c416 9ebe b077 0dbf dfc6 bc3e
00000290: 706a 45bd 351e 9e3d 072d 37bd 6d41 87be
000002a0: b408 2c40 cc6e 0cbe b634 4e3d b02d da3b
000002b0: d08c 0fbd b811 05c0 13b2 b1bd d3ca 603e
000002c0: a804 983c 79dd 47be 4b44 86bf 8279 273d
000002d0: 07b4 c1bd 6f9d a43d 7bbd 2ac0 2e9b 633d
000002e0: e7f7 953e 4515 c1bd 83bf 9e3e c05d d5bc
000002f0: f361 4fbd 20ac dabc 462b 3c3d e8d8 d1bc
00000300: ec25 fabc 6702 953d 1e51 10bf 481f 84bd
00000310: 68ad 4a3f 1262 6d3d f506 a03d d610 773d
00000320: 3b3b 6d3f e324 ec3f 2879 953f 8f6b 593f
00000330: 9439 733e 04fb c33f 87fa f33e 5944 813f
00000340: 7d15 863f 439b 043d d770 5240 c936 5740
00000350: 4716 56c0 da17 a2bd 0996 4140 b701 38c0
00000360: 8921 32c0 cf23 b53f 25ac 9d40 b015 23c0
00000370: 1a57 1f40 5c1d 8b40 10dc 08bf 47e0 0b40
00000380: 7513 c7be 8d0b 45c0 938f 04c0 fbea 2140
00000390: 7e4b 31c0 4e08 acc0 c348 1b40 9a41 3ac0
000003a0: a254 40c0 dfb5 dcbf 552e 0840 ea04 a7be
000003b0: fc82 2840 cc32 de3f 1f2e 40c0 4ea3 34bf
000003c0: 5ac6 5f3f f856 cdbf 9ce4 c3bf 9796 41bf
000003d0: 0113 d23e 7a61 89bf 6c8a 8dbe 1140 b43e
000003e0: d183 a0bf 84b5 003e d992 31bf b228 c1bf
000003f0: 2052 4ebf e728 d0bc e9ed 05c0 f3b7 2dc0

rnn.weight_hh f4 [100, 100]
-0.6956221 -0.029439215 -0.28989163 -0.2651294 -0.030807361 -0.024124995 -0.1717686 0.25790963
0.29885307 0.16214187 -0.06436884 -0.00536675 -0.6112094 0.32631725 0.0005897325 -0.25981662
-0.030206699 -0.06435438 0.116559505 -0.86316264 -0.121396 0.27955076 -0.4608865 0.01900779
-0.052673038 -0.20280159 -0.008691035 -0.026539424 -0.31646398 -0.22101428 0.33437556 -0.31033304
0.18089172 0.0908181 0.5412512 0.15382852 -0.10548293 0.025053434 0.5886209 -0.1815155
0.14627787 0.2355756 -0.19121133 -0.18794732 -0.16206521 -0.10018354 0.3037718 -0.2003402
0.04608396 -0.09257156 0.3365457 -0.2858959 0.00471049 -0.380121 0.15939443 0.15869118
0.59052616 -0.14704558 0.09578885 0.25690824 0.12485811 -0.30797908 0.26205733 0.43039614
-0.345018 -0.11807311 -0.1020872 0.041304406 -0.100475855 0.5636619 0.012642382 0.21455838
-0.092256844 -0.44671124 -0.5272856 0.3482216 -0.008371542 0.101387426 0.55294085 1.0322732
0.27362764 -0.28723863 0.38974708 0.10095476 -0.100492895 -0.28096393 -0.096628346 0.23775412
0.13410181 -0.23644401 -0.29401264 0.13190407 -0.43192267 -0.15416695 -0.015333161 -0.20164205
-0.021018093 -0.017725466 -0.21918291 0.561246 0.675657 -0.19153258 -0.26002127 -0.0677729
0.02372674 -0.13680604 -0.59445035 -0.27977052 0.08125688 -0.51552755 -0.12427005 -0.40790626
0.23717701 1.19562 0.2944406 -0.1108222 -0.10884965 0.27318832 0.37818542 0.16452685
0.17330763 0.00987909 0.42988104 -0.22862951 -0.62225634 0.05197768 0.2597935 -0.056007948
-0.6357384 -0.21231529 -0.4302394 0.10109958 0.22567087 -0.121458635 -0.67563474 -0.03747651
0.12860954 -0.14993797 0.010370644 -0.10591162 -0.034700684 0.32949814 0.03891623 0.28731918
-0.17673372 0.5907666 -0.24016035 -0.29864484 0.21041833 -0.15727256 -0.46631137 -0.3213331
0.10662494 0.6391445 -0.24710576 0.2421026 0.41040102 0.22137994 -0.272836 -0.05192771
0.70189136 -0.596284 -0.012609817 0.7784776 -0.22343595 -0.16089404 -0.12470565 -0.34041694
0.06543652 0.29457015 -0.3414851 -0.20329426 -0.099326685 -0.12782213 -0.3118565 0.498911
-0.0323994 -0.058597602 -0.45250416 -0.28761363 0.13327545 0.08329687 0.20970036 0.48320737
-0.7245368 -0.35690126 -0.20463002 -0.33009693 -0.18613854 -0.2789152 -0.15810712 0.7235643
0.03380079 0.42186782 -0.22603667 -0.20548855 -0.25706846 -0.09815226 -0.57012534 -0.14427756
-0.08236893 -0.10022274 -0.6493236 -0.06908243 0.058632366 0.19894278 0.13509181 -0.08539403
0.08284031 0.07078974 0.045105644 0.08337035 0.03587947 -0.3145244 0.049359318 -0.14142352
-0.35227776 0.2855213 -0.046642207 -0.9334661 -0.061869964 0.007876785 0.28852504 -0.020292945
-0.025638606 -0.04001169 -0.0782445 -0.22553104 -0.049840607 -0.2591851 -0.2070964 0.021859247
0.0023421713 -0.12124053 -0.33481747 -0.55453825 0.0094873 -0.009609314 -0.20290564 -0.25654444
-0.31807262 -0.25646436 -0.2705832 0.06177231 0.025993694 -0.19919337 0.48394015 0.23250915
-0.04114981 0.12643386 -0.18345189 -0.33286363 0.13739407 -0.078699 -0.048906427 -0.28088328
00000000: 4a14 32bf 822a f1bc ad6c 94be 0abf 87be
00000010: b85f fcbc c8a1 c5bc 1ce4 2fbe bb0c 843e
00000020: 4503 993e 8508 263e cfd3 83bd 90db afbb
00000030: 3878 1cbf 0e13 a73e 4798 1a3a af06 85be
00000040: 0a74 f7bc 3bcc 83bd c0b6 ee3d 3af8 5cbf
00000050: 779e f8bd 4721 8f3e 51f9 ebbe 3ab6 9b3c
00000060: afbf 57bd 38ab 4fbe d864 0ebc 3569 d9bc
00000070: 9107 a2be 9151 62be 4633 ab3e f9e3 9ebe
00000080: ae3b 393e d7fe b93d 708f 0a3f 3985 1d3e
00000090: 6f07 d8bd dc3c cd3c dcaf 163f 33df 39be
000000a0: dec9 153e bb3a 713e e7cc 43be 4375 40be
000000b0: 6cf4 25be 072d cdbd fa87 9b3e fb25 4dbe
000000c0: 89c2 3c3d 2896 bdbd b84f ac3e f360 92be
000000d0: 745a 9a3b 389f c2be 4b38 233e f17f 223e
000000e0: b92c 173f 1e93 16be f22c c43d 7a89 833e
000000f0: 9cb5 ff3d 6faf 9dbe 612c 863e e25c dc3e
00000100: 33a6 b0be 51d0 f1bd 1813 d1bd cf2e 293d
00000110: 49c6 cdbd 254c 103f fe21 4f3c 31b5 5b3e
00000120: 28f1 bcbd 56b7 e4be 30fc 06bf 1a4a b23e
00000130: cb28 09bc 36a4 cf3d 888d 0d3f 8721 843f
00000140: ec18 8c3e f110 93be ee8c c73e 5fc1 ce3d
00000150: 38cf cdbd 81da 8fbe 15e5 c5bd d175 733e
00000160: fc51 093e 611e 72be d388 96be dc11 073e
00000170: f824 ddbe f1dd 1dbe f037 7bbc 417b 4ebe
00000180: 232e acbc ff34 91bc 7c71 60be d1ad 0f3f
00000190: dbf7 2c3f 1e21 44be 8221 85be 85cc 8abd
000001a0: 955e c23c e216 0cbe e62d 18bf 153e 8fbe
000001b0: 026a a63d 9df9 03bf 4c81 febd 17d9 d0be
000001c0: 88de 723e 130a 993f ebc0 963e c0f6 e2bd
000001d0: 91ec debd 57df 8b3e 85a1 c13e ba79 283e
000001e0: 8e77 313e e8db 213c 5e19 dc3e db1d 6abe
000001f0: 314c 1fbf 8ce6 543d a703 853e 9768 65bd
00000200: c0bf 22bf 2e69 59be 5748 dcbe 4c0d cf3d
00000210: 4416 673e 4ebf f8bd 66f6 2cbf f880 19bd
00000220: 38b2 033e 5789 19be a2e9 293c 31e8 d8bd
00000230: 4e22 0ebd fbb3 a83e a066 1f3d 801b 933e
00000240: aff9 34be 7b3c 173f 98ec 75be fae7 98be
00000250: e777 573e 0f0c 21be 5dc0 eebe c685 a4be
00000260: 2d5e da3d f99e 233f 4b09 7dbe bee9 773e
00000270: 1520 d23e 6cb1 623e 29b1 8bbe 27b2 54bd
00000280: 27af 333f 11a6 18bf 6899 4ebc 4f4a 473f
00000290: 65cc 64be 68c1 24be ad65 ffbd 214b aebe
000002a0: 9503 863d e6d1 963e 23d7 aebe 5f2c 50be
000002b0: ca6b cbbd cee3 02be a8ab 9fbe 4371 ff3e
000002c0: 3cb5 04bd 0a04 70bd a0ae e7be 1842 93be
000002d0: 5c79 083e 8d97 aa3d b1bb 563e f566 f73e
000002e0: 3e7b 39bf c3bb b6be 888a 51be 7702 a9be
000002f0: 1a9b 3ebe f9cd 8ebe d5e6 21be 833b 393f
00000300: b272 0a3d 0fff d73e 2876 67be 976b 52be
00000310: 7a9e 83be 0d04 c9bd bcf3 11bf 7fbd 13be
00000320: 0bb1 a8bd 9441 cdbd 123a 26bf 177b 8dbd
00000330: 7e28 703d a8b7 4b3e 8255 0a3e 11e3 aebd
00000340: 2ea8 a93d 36fa 903d b2c0 383d 13be aa3d
00000350: 5af6 123d 5809 a1be ff2c 4a3d 54d1 10be
00000360: c05d b4be d92f 923e e60b 3fbd a2f7 6ebf
00000370: 5c6b 7dbd a10d 013c 8eb9 933e 643d a6bc
00000380: 0e08 d2bc 4ce3 23bd a73e a0bd 9cf1 66be
00000390: aa25 4cbd e9b3 84be 1411 54be 2a12 b33c
000003a0: 1d7f 193b f44c f8bd 326d abbe 38f6 0dbf
000003b0: 9f70 1b3c 6270 1dbc 7fc6 4fbe cb59 83be
000003c0: 6ada a2be 4c4f 83be e289 8abe f604 7d3d
000003d0: baf0 d43c 59f9 4bbe 01c7 f73e e116 6e3e
000003e0: b48c 28bd e177 013e d0da 3bbe 1a6d aabe
000003f0: 08b1 0c3e f12c a1bd 1b52 48bd efcf 8fbe

rnn.bias_ih f4 [100]
0.031765785 0.20431249 -0.26486138 -0.041533016 0.16669981 0.69306034 -0.1876797 -0.08500927
-0.5132093 0.059506882 -0.39499152 -0.5737697 0.03677277 0.2431272 0.17577924 -0.25305536
1.139113 0.09392167 1.2939217 -0.0036497226 -0.2719932 -0.21128245 0.24178962 0.78937495
-0.46657732 -0.5639853 -0.033249803 -0.3951469 0.17833479 -0.32565674 0.82920504 0.035201006
1.0374461 -0.44000787 0.17608789 -0.23246965 0.46262985 0.19890033 0.24282011 0.5793133
0.4309568 -0.5895358 -0.55977774 -0.49733394 -0.8736175 0.47095555 -0.1557282 -0.14760064
-0.4651034 -0.70271206 0.3918085 -0.6030769 0.8970648 -0.42267936 0.2917397 0.06960179
0.067824274 -0.28305838 -0.72955596 -0.017608749 0.281714 -0.37765533 -0.1776566 1.0383033
-0.20190185 0.17417824 -0.16860001 -0.7195761 0.5516252 0.32194012 -0.6561732 -0.3001438
-0.08005689 0.24672523 0.09062535 0.16412361 0.21166943 0.19918047 -0.4735661 -0.37272823
0.3206372 -0.35130414 0.6326935 -0.17121989 0.01360318 -0.01610069 0.2589645 -0.09333698
-0.7315831 -0.43702185 -0.571689 0.3078296 -0.8293449 0.13248083 -1.7056994 0.40442714
-0.5715977 0.048801467 0.43200693 -0.07143992
00000000: d71c 023d 4b37 513e e99b 87be 861e 2abd
00000010: 5bb3 2a3e 676c 313f 1b2f 40be 5719 aebd
00000020: af61 03bf 7dbd 733d 543c cabe 92e2 12bf
00000030: 0b9f 163d 56f6 783e 79ff 333e 7990 81be
00000040: 74ce 913f 015a c03d 3a9f a53f 2f30 6fbb
00000050: b142 8bbe 6d5a 58be b397 773e 7a14 4a3f
00000060: 39e3 eebe 5761 10bf f230 08bd b250 cabe
00000070: 659d 363e 7bbc a6be c846 543f ee2e 103d
00000080: 09cb 843f b648 e1be 6250 343e 860c 6ebe
00000090: d2dd ec3e 87ac 4b3e d6a5 783e e04d 143f
000000a0: 5fa6 dc3e d1eb 16bf 984d 0fbf 8ea2 febe
000000b0: 65a5 5fbf 1621 f13e 3777 1fbe 9f24 17be
000000c0: 0822 eebe f0e4 33bf 209b c83e 3f63 1abf
000000d0: 0aa6 653f 6e69 d8be e85e 953e 628b 8e3d
000000e0: 74e7 8a3d 07ed 90be 2ec4 3abf 3940 90bc
000000f0: d13c 903e 0a5c c1be 9deb 35be 1fe7 843f
00000100: 5cbf 4ebe c85b 323e 7ba5 2cbe 2436 38bf
00000110: 4f37 0d3f 56d5 a43e f8fa 27bf 73ac 99be
00000120: def4 a3bd 8aa5 7c3e c999 b93d 0510 283e
00000130: dfbf 583e f7f5 4b3e 4177 f2be 3cd6 bebe
00000140: 8f2a a43e 23de b3be 34f8 213f 4454 2fbe
00000150: dfdf 5e3c 98e5 83bc ff96 843e 7527 bfbd
00000160: 0849 3bbf 54c1 dfbe 365a 12bf d79b 9d3e
00000170: f34f 54bf 0ea9 073e 5c54 dabf 1311 cf3e
00000180: 3a54 12bf 0ce4 473d 0330 dd3e 184f 92bd

rnn.bias_hh f4 [100]
-0.101790905 0.1607827 -0.2319722 -0.059588134 0.14205785 0.79752505 -0.015069664 -0.070323765
-0.5903572 -0.086473964 -0.4277035 -0.5218753 0.037154634 0.2697159 0.035925023 -0.22136556
1.2285343 0.1284785 1.2372038 -0.15999809 -0.34197575 -0.32813713 0.19372082 0.8495148
-0.52787036 -0.4935873 0.033820957 -0.34146225 0.09949041 -0.31930166 0.92614585 0.050710108
0.9556289 -0.46874276 0.07884995 -0.3890641 0.5325807 0.18454072 0.17587774 0.5899418
0.51570016 -0.5928376 -0.44253275 -0.45526856 -0.9864251 0.45399177 -0.2265697 -0.25434905
-0.49751246 -0.5712264 0.33335745 -0.66660047 0.8789922 -0.38736838 0.23883091 0.057911597
-0.052245438 -0.425559 -0.74189645 -0.04454375 0.20867921 -0.5159881 -0.24427281 1.0514066
-0.35155475 0.30866605 -0.13800776 -0.7845801 0.5951137 0.36904454 -0.7885597 -0.28044367
-0.22562668 0.2853104 0.11606756 0.2555017 0.181654 0.30302477 -0.44088274 -0.19399528
0.2647688 -0.40274182 0.6122968 -0.16526099 0.044667345 -0.13389942 0.24321482 -0.1743994
-0.79626024 -0.58166265 -0.5886984 0.21296285 -0.7305521 0.04686707 -1.802237 0.5430134
-0.45573124 0.083183154 0.32813907 -0.20548823
00000000: c077 d0bd 38a4 243e 1f8a 6dbe b012 74bd
00000010: 9d77 113e 9a2a 4c3f c1e6 76bc e805 90bd
00000020: a621 17bf 4319 b1bd f4fb dabe 9f99 05bf
00000030: 752f 183d 3418 8a3e 1e26 133d a7ad 62be
00000040: 9d40 9d3f de8f 033e b25c 9e3f 8ad6 23be
00000050: 7217 afbe 9701 a8be c05e 463e cd79 593f
00000060: 8322 07bf 79b7 fcbe d887 0a3d 24d4 aebe
00000070: a1c1 cb3d 827b a3be e517 6d3f 67b5 4f3d
00000080: 18a4 743f 0dff efbe 157c a13d 6933 c7be
00000090: 3557 083f 3ef8 3c3e 4b19 343e 6d06 173f
000000a0: ed04 043f 34c4 17bf a793 e2be f618 e9be
000000b0: 5b86 7cbf 9c71 e83e e301 68be 0a3a 82be
000000c0: f4b9 febe e53b 12bf d4ad aa3e 54a6 2abf
000000d0: a205 613f 2655 c6be 1790 743e b634 6d3d
000000e0: 50ff 55bd dfe2 d9be edec 3dbf 8273 36bd
000000f0: 01b0 553e cc17 04bf a722 7abe 7e94 863f
00000100: fcfe b3be 7a09 9e3e e851 0dbe 3eda 48bf
00000110: 5f59 183f 68f3 bc3e 0cdf 49bf 5096 8fbe
00000120: ae0a 67be 3414 923e d4b4 ed3d 1ed1 823e
00000130: 8203 3a3e 1026 9b3e 62bb e1be b3a6 46be
00000140: c78f 873e 2d34 cebe 7cbf 1c3f 2d3a 29be
00000150: 1bf5 363d ee1c 09be 4e0d 793e c295 32be
00000160: b6d7 4bbf d8e7 14bf f0b4 16bf ef12 5a3e
00000170: 7605 3bbf aff7 3f3d b4af e6bf ed02 0b3f
00000180: 9b55 e9be ee5b aa3d d801 a83e 826b 52be

rnn2.weight_ih f4 [100, 100]
-0.24512154 -1.0226021 0.28077734 -0.1105122 0.79795074 -0.55514616 -0.72464603 -0.4845509
0.32042798 -0.28856537 0.03527227 0.5534633 -0.28040546 -0.63385403 0.24811697 0.5447239
-0.5007638 0.65766317 -0.17583992 -0.48003045 -0.69220746 0.63975203 0.20734738 -0.8073493
-0.05160888 0.7294725 0.65580225 -0.29544756 -0.28938794 0.43248513 -0.3485594 -0.014682768
-0.16272232 -0.32301044 -0.6634303 0.036676943 0.112528585 -0.4357346 0.31239763 0.8871758
0.1446558 0.425667 -0.24965855 0.80387694 0.270633 -0.5213881 -0.015640806 0.09438171
0.1318308 0.19711213 -0.04796022 -0.55008334 0.06455741 -0.078088626 0.03770683 -0.31185815
0.0761632 0.5081388 -0.00056568364 -0.49727276 -0.080416344 -0.04529658 -0.037713118 -0.6049236
-0.17339522 -0.18143845 -0.23107196 0.4373678 -0.22766657 -0.0118694 0.6578098 0.3023859
-0.94813645 0.29435733 -0.4581679 -0.14805989 0.13739112 0.45016512 0.065473296 0.35645553
-0.37339696 0.0464589 -0.5105636 0.1826137 -0.19878274 0.42359543 0.7724145 -0.4540737
0.30346456 0.11741642 -0.1769066 -0.8505343 0.35583168 -0.5640689 0.4064805 -0.2369127
0.59256756 -0.30711824 -0.05813322 -0.29579684 -0.668285 -0.20939012 -1.23265 -1.0556202
0.37912658 -0.3138586 -0.76796764 -0.4108313 0.29981542 1.2204784 0.45208126 0.21919891
1.4600089 0.23923516 0.080837 1.0083812 -0.14942835 0.22727498 -0.0038432167 3.0275044
-0.09563931 0.12586126 1.3411735 -0.34645364 0.07768693 -0.00044246909 -0.17142874 0.6218024
0.041457098 -0.13859238 -3.937088 -0.35251838 -0.4727704 -0.00032021 0.3186167 -0.009341033
-1.2015779 1.560632 0.2426048 0.4338703 -1.0461587 0.8185274 -0.62457657 -0.7026752
1.1191201 0.037979376 -0.15063506 0.81746405 -0.38416722 0.09496115 1.028092 -0.5355137
0.2435201 1.1898801 0.98738086 0.25306377 -1.1019021 -0.013061086 -0.3485388 -0.028003007
-0.095240384 0.9871223 -1.2041897 -0.0755747 -0.27068353 0.72782326 -0.30622435 0.13863324
-0.019698843 0.19969171 -0.44487315 -1.0761253 -0.44549957 -1.6095296 -1.5746244 -1.534725
-0.40324643 0.0009925836 -1.1535659 -1.3080001 -0.19075537 0.42520535 -0.7896417 -0.15268767
0.94416106 -0.18576795 -1.2572877 -0.03176121 -0.16425376 -0.16593052 -0.0500858 0.6734958
-1.535781 -0.082589686 -0.093667135 -1.6453701 -0.4859701 0.6221248 -0.63852155 -0.3678101
0.16896729 -0.5167909 -0.825051 -1.483565 0.44090208 -0.93522155 0.21281679 0.74527645
-1.8012556 0.4298341 -0.17215185 0.569192 1.0610465 0.40384024 0.5220942 -0.5621043
0.24372213 0.2605348 0.028040905 -1.7766069 0.21649067 0.6299885 -0.591413 0.3489391
0.06375719 -0.35601875 1.3067576 0.81407565 0.6511347 0.6823962 1.7576578 0.00711729
-0.16838272 -0.2479863 1.6664279 -0.3385558 1.8488164 1.5990463 0.8571477 0.23257117
0.42576244 -0.89501816 -1.0532198 0.13657396 -0.37387288 -0.07526615 0.09769769 -0.7922015
0.45991313 -0.10846757 -0.36882514 0.17797779 0.8432067 -1.5086855 -0.039385673 0.171658
00000000: 2401 7bbe a0e4 82bf 0cc2 8f3e 3854 e2bd
00000010: 8046 4c3f 0f1e 0ebf 6782 39bf 0e17 f8be
00000020: 230f a43e d7be 93be a879 103d c5af 0d3f
00000030: 4e91 8fbe 4244 22bf 6012 7e3e 0773 0b3f
00000040: 0e32 00bf 9d5c 283f 610f 34be 8dc6 f5be
00000050: 8234 31bf cac6 233f df52 543e 72ae 4ebf
00000060: d563 53bd b6be 3a3f a8e2 273f e744 97be
00000070: a82a 94be b16e dd3e 6176 b2be fe8f 70bc
00000080: aea0 26be a061 a5be 91d6 29bf 903a 163d
00000090: 6375 e63d 9b18 dfbe 95f2 9f3e f41d 633f
000000a0: a620 143e 06f1 d93e 7ea6 7fbe e1ca 4d3f
000000b0: 6990 8a3e b179 05bf 2621 80bc 334b c13d
000000c0: a7fe 063e c3d7 493e f071 44bd 43d2 0cbf
000000d0: ad36 843d eeec 9fbd 7a72 1a3d dfab 9fbe
000000e0: 74fb 9b3d 6215 023f 634a 14ba 899a febe
000000f0: 53b1 a4bd e888 39bd 1279 1abd 46dc 1abf
00000100: 848e 31be 00cb 39be 219e 6cbe acee df3e
00000110: 6d21 69be df77 42bc 3966 283f 53d2 9a3e
00000120: 12b9 72bf 01b6 963e fc94 eabe 039d 17be
00000130: 42b0 0c3e 0b7c e63e dd16 863d 5781 b63e
00000140: e32d bfbe b04b 3e3d 4cb4 02bf 16ff 3a3e
00000150: b48d 4bbe 80e1 d83e f5bc 453f 597c e8be
00000160: b55f 9b3e 0578 f03d 0127 35be 9ebc 59bf
00000170: 922f b63e d266 10bf 361e d03e 3e99 72be
00000180: 82b2 173f 9a3e 9dbe 191d 6ebd af72 97be
00000190: ba14 2bbf 5d6a 56be 7ac7 9dbf 901e 87bf
000001a0: e11c c23e 13b2 a0be 8799 44bf 7b58 d2be
000001b0: 6881 993e a338 9c3f 3277 e73e ae75 603e
000001c0: 92e1 ba3f 10fa 743e de8d a53d a312 813f
000001d0: bf03 19be c6ba 683e 7ade 7bbb a2c2 4140
000001e0: 8bde c3bd c6e1 003e 93ab ab3f 5f62 b1be
000001f0: 531a 9f3d 32fb e7b9 048b 2fbe 712e 1f3f
00000200: ebce 293d 29eb 0dbe 40f9 7bc0 4a7d b4be
00000210: f60e f2be dce1 a7b9 ba21 a33e 220b 19bc
00000220: 4ecd 99bf cac2 c73f 656d 783e 3f24 de3e
00000230: 87e8 85bf 038b 513f 40e4 1fbf 86e2 33bf
00000240: 543f 8f3f 4390 1b3d 1440 1abe 5345 513f
00000250: 91b1 c4be fe7a c23d 8598 833f 6d17 09bf
00000260: 555d 793e fe4d 983f fec4 7c3f 9391 813e
00000270: 210b 8dbf 2afe 55bc ad73 b2be 9066 e5bc
00000280: 640d c3bd 0cb4 7c3f e322 9abf e9c6 9abd
00000290: 0897 8abe a052 3a3f 70c9 9cbe dff5 0d3e
000002a0: 785f a1bc fc7b 4c3e 6ac6 e3be 79be 89bf
000002b0: 8518 e4be 1105 cebf 4b8d c9bf de71 c4bf
000002c0: 5176 cebe 9419 823a 0ca8 93bf 8c6c a7bf
000002d0: 6055 43be 84b4 d93e f525 4abf 285a 1cbe
000002e0: 8ab4 713f f439 3ebe ceee a0bf 0b18 02bd
000002f0: 2332 28be b1e9 29be c526 4dbd 396a 2c3f
00000300: 7994 c4bf c824 a9bd 8ed4 bfbd 7d9b d2bf
00000310: 13d1 f8be 9243 1f3f 2676 23bf 9b51 bcbe
00000320: c305 2d3e 694c 04bf 8b36 53bf 75e5 bdbf
00000330: ebbd e13e ae6a 6fbf a5ec 593e 70ca 3e3f
00000340: 8b8f e6bf 3713 dc3e 9348 30be 91b6 113f
00000350: 5fd0 873f 26c4 ce3e f7a7 053f 11e6 0fbf
00000360: 4b92 793e d164 853e 0ab6 e53c db67 e3bf
00000370: bbaf 5d3e ed46 213f d866 17bf 25a8 b23e
00000380: 2193 823d 1748 b6be d543 a73f 4367 503f
00000390: c4b0 263f 84b1 2e3f eefa e03f 2838 e93b
000003a0: 856c 2cbe 1ff0 7dbe 824d d53f 3057 adbe
000003b0: 04a6 ec3f 8dad cc3f 086e 5b3f 2327 6e3e
000003c0: 89fd d93e e91f 65bf e8cf 86bf 0bda 0b3e
000003d0: 446c bfbe 2425 9abd ba15 c83d b8cd 4abf
000003e0: bc79 eb3e 3f24 debd a6d6 bcbe cf3f 363e
000003f0: 65dc 573f 9b1c c1bf df52 21bd 1dc7 2f3e

rnn2.weight_hh f4 [100, 100]
-0.2652327 0.4090465 0.08320001 0.39412698 0.46339065 -0.3208453 0.7095863 -0.08348561
-0.07381903 0.014145872 -0.22138874 -0.24944896 0.09818894 -0.25499696 -0.17212658 0.33680195
0.45620352 0.00934643 0.44739375 -0.38410014 0.00045787176 0.38392204 -0.52178186 0.32181135
0.47449455 -0.20559753 0.11244995 0.36840197 -0.03985067 0.46654367 -0.5192664 0.12692519
0.35816833 0.5392483 -0.2872045 0.0019358542 0.17762594 0.08676053 -0.47587287 -0.38659853
0.34093836 0.54241854 -0.3167136 0.41139725 -0.16842918 -0.17976053 -0.4118141 -0.10913813
-0.45737335 0.054942064 -0.38045883 0.41237664 -0.16794209 0.2769442 0.24128836 -0.4819307
-0.43139672 0.108635955 -0.18301539 0.45504317 -0.22404224 0.52757007 -0.17974561 -1.13719
0.43011644 -0.16248673 -0.4712118 0.4810386 -0.1865022 -0.404327 -0.43903095 0.42629117
-0.44919822 -0.6216232 0.42169747 -0.10702864 0.18104354 0.5386409 0.37501422 -0.30024177
-0.43890458 -0.19684592 0.0011755924 -0.49621043 0.06429543 0.40566003 -0.2529901 0.32113278
-0.073607616 -0.38708922 0.1251625 -0.52247536 0.3882014 -0.17030478 0.2953066 -0.4396964
-0.24126539 -0.37174386 -0.3506785 0.039568435 0.43112957 0.641693 0.11741285 0.2519445
0.24008851 -0.27174038 0.13602105 0.17173843 0.19223589 -0.15360841 -0.47475043 -0.22163302
1.3809798 0.22635007 0.15050672 0.5528716 0.10278764 -0.62377393 -0.055317882 -0.3558598
-0.015767707 0.15638767 -0.3367303 0.7324732 0.38866612 -0.8312138 -0.7635734 -0.82613003
0.11020435 0.67946786 -0.49030837 0.7819729 0.48670962 0.43304014 0.00052867166 0.03540336
-0.91644824 -0.4699929 0.40502357 -0.23515238 0.30522418 0.3840996 -0.61260104 0.32765383
0.054965258 -0.29091242 0.34188715 0.21969514 -0.40844542 0.015966276 -0.35082996 0.40969652
-2.170734 -0.194478 0.12579097 -0.45738077 0.5563876 0.09771567 -0.23017208 0.3078772
-0.9462779 0.23677105 -0.30592403 -0.015099031 0.85128355 -0.1597321 -0.46417287 0.554719
-0.015676225 0.2508128 0.3845939 0.30383477 -0.3877227 -0.18128914 0.2920198 -0.07259023
-0.23637918 -0.7110963 0.205996 -0.31736133 -0.378937 -0.2363085 0.37816325 -0.13757303
-0.18110922 0.3413413 -0.016196225 0.5112193 -0.17414986 -0.4209109 0.29382852 -0.5220715
0.31541553 -0.7504091 -0.16011634 0.38031042 -0.117268436 0.56374866 -0.08719254 0.30008346
-0.41646755 -0.4348246 -0.6130526 -0.35299203 -0.23000729 0.05865788 0.09482921 -0.28338408
0.21072617 0.6405903 0.12607068 0.83019644 -0.41120064 0.46224195 0.20233111 -0.38332635
-0.39709702 -0.13169152 -0.044695362 0.36685482 -0.14037749 -0.26078305 0.2689546 0.929549
-0.44429004 0.09542834 1.0346245 0.79665303 0.6141872 -0.5085683 0.25368625 0.084967956
0.050238993 -0.3118004 -0.33839992 -0.14263226 0.1981154 0.051761072 0.049029954 0.28405714
-0.06448081 -0.31398433 -0.12573078 -0.35536462 0.032425586 -0.7250348 0.21688901 0.36358255
0.12241945 0.19646329 0.27483115 -0.2925491 0.8041059 -0.37886798 -0.97235245 0.24607539
00000000: 95cc 87be 8b6e d13e c464 aa3d 03cb c93e
00000010: 8a41 ed3e d645 a4be 73a7 353f 81fa aabd
00000020: 6e2e 97bd 16c4 673c bbb3 62be 8c6f 7fbe
00000030: 4817 c93d f68e 82be f341 30be 4e71 ac3e
00000040: 8293 e93e c521 193c cb10 e53e c6a8 c4be
00000050: 820e f039 6e91 c43e 7f93 05bf 75c4 a43e
00000060: f3f0 f23e 2988 52be 294c e63d 2f9f bc3e
00000070: 753a 23bd d0de ee3e a5ee 04bf adf8 013e
00000080: d761 b73e 2d0c 0a3f 780c 93be 7dbc fd3a
00000090: 93e3 353e 81af b13d 9ca5 f3be 3ef0 c5be
000000a0: 798f ae3e f1db 0a3f 4928 a2be a9a2 d23e
000000b0: b378 2cbe 2513 38be 4cd9 d2be d083 dfbd
000000c0: d72c eabe ee0a 613d 80cb c2be 0823 d33e
000000d0: 03f9 2bbe a1cb 8d3e 4c14 773e 9fbf f6be
000000e0: 08e0 dcbe 877c de3d 6368 3bbe 6bfb e83e
000000f0: 546b 65be d50e 073f 3c0f 38be 718f 91bf
00000100: 3938 dc3e ec62 26be ac42 f1be b14a f63e
00000110: 6ffa 3ebe f303 cfbe aac8 e0be d642 da3e
00000120: 4ffd e5be b322 1fbf bbe8 d73e d531 dbbd
00000130: 7a63 393e 5fe4 093f dd01 c03e 4ab9 99be
00000140: 1ab8 e0be fa91 49be 5616 9a3a 4b0f febe
00000150: 53ad 833d acb2 cf3e eb87 81be 846b a43e
00000160: 97bf 96bd 8f30 c6be 992a 003e f2c0 05bf
00000170: 55c2 c63e 6064 2ebe 6d32 973e e31f e1be
00000180: 460e 77be 3655 bebe 228c b3be 8312 223d
00000190: 04bd dc3e fe45 243f 2676 f03d dffe 803e
000001a0: c3d9 753e 8e21 8bbe 1a49 0b3e 33dc 2f3e
000001b0: 7cd9 443e 864b 1dbe 7d12 f3be c4f3 62be
000001c0: f2c3 b03f 50c8 673e 6f1e 1a3e fe88 0d3f
000001d0: 5482 d23d a6af 1fbf 0195 62bd 4133 b6be
000001e0: 472b 81bc 1724 203e ea67 acbe 5d83 3b3f
000001f0: 3fff c63e 6dca 54bf 8c79 43bf 427d 53bf
00000200: d1b2 e13d 9bf1 2d3f b309 fbbe 602f 483f
00000210: 0132 f93e 70b7 dd3e 8e96 0a3a 1d03 113d
00000220: 5a9c 6abf e9a2 f0be 405f cf3e c9cb 70be
00000230: 5846 9c3e b4a8 c43e 6cd3 1cbf 3ec2 a73e
00000240: 4023 613d 79f2 94be d50b af3e c3f7 603e
00000250: c21f d1be b5cb 823c fc9f b3be bec3 d13e
00000260: 4eed 0ac0 3e25 47be 59cf 003e d02d eabe
00000270: 6b6f 0e3f 271f c83d 3bb2 6bbe 15a2 9d3e
00000280: 453f 72bf 1c74 723e 13a2 9cbe ed61 77bc
00000290: b8ed 593f d090 23be 11a8 edbe 1002 0e3f
000002a0: 6d6b 80bc 896a 803e 7ee9 c43e 3b90 9b3e
000002b0: 9783 c6be dca3 39be 9f83 953e 30aa 94bd
000002c0: 620d 72be 680a 36bf 9ef0 523e 2f7d a2be
000002d0: 0804 c2be dbfa 71be 9d9e c13e f2df 0cbe
000002e0: b274 39be 49c4 ae3e f2ad 84bc 45df 023f
000002f0: 5754 32be a281 d7be b170 963e 7aa6 05bf
00000300: 257e a13e d01a 40bf 8af5 23be 0cb8 c23e
00000310: 6f2a f0bd d551 103f 0192 b2bd 8aa4 993e
00000320: 3c3b d5be 54a1 debe 04f1 1cbf 5fbb b4be
00000330: 0887 6bbe 3f43 703d d135 c23d b817 91be
00000340: 9ac8 573e bafd 233f ac18 013e c187 543f
00000350: e488 d2be faaa ec3e e32f 4f3e 5a43 c4be
00000360: 4d50 cbbe 24da 06be 7c12 37bd 65d4 bb3e
00000370: 1ebf 0fbe 5b85 85be 6bb4 893e ecf6 6d3f
00000380: fc79 e3be ef6f c33d 936e 843f 74f1 4b3f
00000390: 5f3b 1d3f 8831 02bf 2ae3 813e ae03 ae3d
000003a0: 67c7 4d3d 4da4 9fbe c142 adbe 310e 12be
000003b0: c3de 4a3e 6b03 543d a2d3 483d f06f 913e
000003c0: 840e 84bd 8ec2 a0be 92bf 00be 5af2 b5be
000003d0: b1d0 043d e19b 39bf 2718 5e3e 7e27 ba3e
000003e0: 0cb7 fa3d ac2d 493e abb6 8c3e ffc8 95be
000003f0: e2d9 4d3f fcfa c1be 17ec 78bf 30fb 7b3e

rnn2.bias_ih f4 [100]
-0.6402195 -0.26805955 0.58757174 -0.6126988 0.056012157 -0.5212686 -0.35547778 0.6825753
0.044337463 0.091036275 0.52033514 0.37371513 0.073404536 0.27963537 -0.0070350845 -0.35286358
-0.09737991 0.22569898 -0.13107106 0.29015645 -0.4486969 -0.20533054 0.39133486 -0.22754173
-0.42351428 0.39611536 0.15144575 -0.057366613 0.19882934 -0.19988833 0.51694655 -0.13938788
-0.5900049 -0.08019192 0.27810737 0.49430153 -0.25178543 0.014683968 0.083115116 0.62842214
-0.46370518 -0.69973576 -0.019012388 -0.65188825 -0.12157134 0.17417136 0.1738192 0.068208225
0.51215523 0.66179174 0.5659697 -0.69416726 0.24425463 0.19503707 0.10710877 0.52738905
0.19499981 0.32415533 -0.15436718 -0.6326536 0.43770307 -0.54925114 0.09480392 0.07151147
0.0472949 -0.58432883 0.28450686 -0.63244706 -0.1451505 0.64103913 0.19598037 -0.4048066
0.59266734 0.4661216 -0.45324856 -0.1410709 0.013094563 -0.14447318 -0.24520956 0.446162
0.7583808 1.0039042 -0.5275485 -0.36963734 0.17671654 -0.3907381 0.7155835 0.015917443
-0.00021228581 0.103107005 0.07780965 0.5253742 -0.17594905 -0.045091778 0.28254145 0.015183606
0.10098234 0.21045876 0.15274848 -0.20531416
00000000: 6de5 23bf 1a3f 89be 1a6b 163f d4d9 1cbf
00000010: 016d 653d dc71 05bf 2f01 b6be 41bd 2e3f
00000020: 339b 353d 3a71 ba3d af34 053f 9757 bf3e
00000030: 1e55 963d 5e2c 8f3e 9186 e6bb 89aa b4be
00000040: 1e6f c7bd a21d 673e 7e37 06be 638f 943e
00000050: 9abb e5be 2b42 52be 0b5d c83e b300 69be
00000060: ddd6 d8be a2cf ca3e 9814 1b3e 41f9 6abd
00000070: eb99 4b3e 87af 4cbe 9c56 043f b2bb 0ebe
00000080: 900a 17bf a93b a4bd 1764 8e3e 1715 fd3e
00000090: 05ea 80be 0795 703c 4238 aa3d 46e0 203f
000000a0: c46a edbe e221 33bf debf 9bbc 26e2 26bf
000000b0: 65fa f8bd fa59 323e a9fd 313e c1b0 8b3d
000000c0: 9b1c 033f 2f6b 293f 64e3 103f f2b4 31bf
000000d0: e31d 7a3e ccb7 473e d85b db3d f802 073f
000000e0: 08ae 473e b0f7 a53e 6e12 1ebe 96f5 21bf
000000f0: 9e1a e03e b99b 0cbf 8f28 c23d 9b74 923d
00000100: 4cb8 413d 9396 15bf e2aa 913e 0de8 21bf
00000110: 55a2 14be 241b 243f 14af 483e d042 cfbe
00000120: 0cb9 173f 7ea7 ee3e 3210 e8be e474 10be
00000130: 948a 563c c7f0 13be 3718 7bbe 586f e43e
00000140: 3e25 423f ef7f 803f 6b0d 07bf 1b41 bdbe
00000150: 2ef5 343e d30e c8be 7b30 373f 4c65 823c
00000160: 0a99 5eb9 c429 d33d aa5a 9f3d ec7e 063f
00000170: fd2b 34be 28b2 38bd 46a9 903e a9c4 783c
00000180: d4cf ce3d 8082 573e 196a 1c3e e03d 52be

rnn2.bias_hh f4 [100]
-0.5902901 -0.36725965 0.59841555 -0.6547606 0.059672434 -0.5743815 -0.39659175 0.62194425
0.06652255 0.128981 0.5168361 0.35991246 -0.030043105 0.34121495 0.16871278 -0.22870232
-0.06784738 0.37389958 -0.08028602 0.32620296 -0.49096665 -0.33229548 0.4612979 -0.25467435
-0.35096028 0.4235987 0.19095464 0.030906023 0.18094416 -0.107290894 0.65778106 -0.15704775
-0.54101944 -0.008584337 0.27829698 0.4772504 -0.23204353 -0.09555408 0.019370168 0.7324986
-0.59646595 -0.66158575 6.611585e-05 -0.6015232 -0.18856372 0.21441394 0.15406892 0.10098975
0.4000104 0.54018897 0.5091114 -0.58700216 0.21234518 0.19431236 0.15087213 0.5071582
0.33945784 0.47134906 -0.21322209 -0.5884577 0.41533214 -0.54190975 -0.019403227 -0.053875033
0.16074334 -0.5743286 0.31205425 -0.76385814 -0.26261303 0.5579108 0.33036256 -0.43691793
0.47786224 0.4721798 -0.33523172 -0.17341253 -0.15600623 -0.009415111 -0.2713642 0.31687903
0.6564316 1.0578748 -0.36683777 -0.27140564 0.19838749 -0.25544128 0.6124115 -0.13668013
-0.09038449 0.1515176 0.12938729 0.54025275 -0.23354438 0.029198175 0.19779846 0.07024985
0.14523743 0.18933952 0.18435322 -0.056486856
00000000: 411d 17bf 7509 bcbe c331 193f 649e 27bf
00000010: 156b 743d aa0a 13bf 130e cbbe bd37 1f3f
00000020: fa3c 883d 9813 043e 5f4f 043f 7246 b83e
00000030: f51c f6bc bab3 ae3e 0bc3 2c3e f130 6abe
00000040: 91f3 8abd c46f bf3e ff6c a4bd 1304 a73e
00000050: fb5f fbbe a222 aabe 3d2f ec3e ad64 82be
00000060: 11b1 b3be eee1 d83e 9d89 433e a12e fd3c
00000070: 6d49 393e 54bb dbbd 5764 283f 20d1 20be
00000080: 4080 0abf 52a5 0cbc f17c 8e3e 2a5a f43e
00000090: d29c 6dbe dcb1 c3bd 30ae 9e3c 0785 3b3f
000000a0: feb1 18bf af5d 29bf ada7 8a38 6dfd 19bf
000000b0: d916 41be 548f 5b3e 3ec4 1d3e b7d3 ce3d
000000c0: 2ace cc3e d349 0a3f 2055 023f c645 16bf
000000d0: 0471 593e d2f9 463e 397e 1a3e 1fd5 013f
000000e0: 6bcd ad3e aa54 f13e e456 5abe 2aa5 16bf
000000f0: 6aa6 d43e 99ba 0abf 84f3 9ebc 11ac 5cbd
00000100: e799 243e 3307 13bf 93c5 9f3e 358c 43bf
00000110: 3775 86be 3ed3 0e3f 4825 a93e b5b3 dfbe
00000120: 5caa f43e 8dc1 f13e 7ea3 abbe 0e93 31be
00000130: 19c0 1fbe d641 1abc 40f0 8abe f83d a23e
00000140: e70b 283f 7168 873f 29d2 bbbe aef5 8abe
00000150: 1726 4b3e 33c9 82be 00c7 1c3f e0f5 0bbe
00000160: 811b b9bd 6e27 1b3e 1a7e 043e 014e 0a3f
00000170: 4226 6fbe 0331 ef3c ae8b 4a3e 27df 8f3d
00000180: 1fb9 143e 38e2 413e 17c7 3c3e c35e 67bd

linear.weight f4 [100, 100]
0.14984153 0.38185266 -0.097489215 0.12675169 0.10260353 0.17458992 0.51346844 -0.8080139
-0.47283345 -0.1729097 0.00062450796 0.103187576 0.645052 0.041459776 -0.12818342 0.3866052
0.176809 0.19291356 0.40073928 -0.20243096 -0.05797203 0.0351664 -0.21869595 -0.45492494
0.15311942 0.9258857 -0.41323662 -0.44833007 0.31533766 0.85775095 -0.18065213 -0.2022264
-0.10127417 0.19335137 0.08662237 -0.07017822 -0.32152104 0.6005626 0.078476965 0.036390193
0.25612515 0.20179114 0.107916035 0.09401134 0.2734307 0.46195108 -0.00023939289 -0.47749826
-0.013487841 0.041488778 -0.09825423 0.11260653 0.21050088 -0.097021215 -0.5023167 -0.11827448
-0.22027881 -0.3160336 0.14558652 0.15394503 -0.27118078 0.097482 -0.50129086 0.34026855
0.4717579 -0.017359698 -0.20905107 0.153903 0.14009738 0.32167205 -0.07507041 0.08815381
-0.115211114 -0.39239797 0.10987735 0.20773862 -0.036411125 0.14150576 0.13745385 0.12041926
-0.18743192 0.0226635 -0.2923669 0.03131408 -0.26269794 0.11364282 -0.34479952 0.42595497
0.2520982 -0.23947299 0.016137809 -0.23706788 0.20612256 -0.29767057 -0.23747182 -0.14424261
-0.0004421517 0.03744108 -0.26822788 -0.05397479 0.1556887 0.17523295 -0.69081485 0.07632827
0.09735439 -0.17225671 -0.01663576 -0.15399548 -0.6689221 -0.23232177 0.014898557 -0.012198017
0.44448543 -0.16004583 -0.16424358 -0.021169694 0.47945747 0.10213704 0.20163167 -0.16828953
-0.19969925 0.106720224 -0.09155484 -0.043965284 0.07142051 -0.25922945 -0.8276153 -0.2817179
0.385241 0.48910668 -0.14926939 -0.05165842 0.014685037 0.14950031 0.04912202 -0.085438706
0.085660145 0.09374291 -0.22463979 0.05275832 0.1422961 0.12961052 0.06113753 0.17489289
0.35704035 0.35487756 -0.17016363 0.05539967 -0.055863485 0.10153157 -0.23577774 0.1408341
-0.3732315 -0.19653016 0.18075444 -0.18891603 -0.05126913 0.22960618 -0.03165165 0.20498925
-0.38896686 0.09709198 -0.15030907 0.04946653 0.3002296 0.13378954 -0.262052 0.0325661
-0.042019412 -0.04687765 0.3260199 0.07418808 -0.12649858 -0.02453309 0.10312281 -0.28056982
-0.04412981 0.051099725 0.12809147 0.029053364 -0.13740674 0.017564863 -0.3966295 -0.04803764
-0.20214939 0.18405244 -0.058954448 0.38716593 0.17759807 -0.1527138 -0.17817192 -0.1351485
0.251575 -0.30144516 -0.80745095 0.18087304 -0.06488043 -0.02672096 -0.23138312 0.2671622
0.13278021 0.3908045 -0.20683682 0.07563135 0.15324503 -0.19582456 -0.16883802 -0.27371788
-0.43542653 -0.17246842 -0.46232635 -0.09419031 0.7345785 0.094001904 -0.21802475 0.08039248
0.08697896 -0.09599833 0.10026958 -0.08998589 -0.10337104 0.2150756 -0.08569223 -0.20017578
0.058790576 -0.012063925 -0.33265257 -0.38572362 -0.05991144 -0.033032786 -0.111587636 0.10344843
-0.013379048 0.12918486 0.27145323 -0.24373129 0.33231002 0.24890703 0.11025185 -0.018664733
0.15548256 0.11008783 -0.08701375 0.1943173 0.042046737 0.21095298 -0.43465918 -0.26608887
-0.2033375 0.18673535 -0.26472956 0.08729137 0.05926589 -0.106176384 -0.40996033 -0.18423814
00000000: 0f70 193e 3182 c33e 6da8 c7bd 32cb 013e
00000010: cd21 d23d b3c7 323e ab72 033f 00da 4ebf
00000020: 3a17 f2be 3e0f 31be 05b6 233a 0254 d33d
00000030: 2122 253f bad1 293d 8442 03be 1ef1 c53e
00000040: 6b0d 353e 228b 453e b32d cd3e 104a 4fbe
00000050: 1474 6dbd a50a 103d d5f1 5fbe eceb e8be
00000060: 56cb 1c3e d806 6d3f c093 d3be 858b e5be
00000070: f073 a13e 9195 5b3f dffc 38be 7014 4fbe
00000080: d568 cfbd e7fd 453e 1267 b13d 99b9 8fbd
00000090: 689e a4be 78be 193f 88b8 a03d e20d 153d
000000a0: d622 833e 56a2 4e3e 1503 dd3d 0489 c03d
000000b0: 1cff 8b3e da84 ec3e 8a05 7bb9 a77a f4be
000000c0: 1bfc 5cbc 23f0 293d 8439 c9bd 419e e63d
000000d0: 8b8d 573e 0fb3 c6bd d497 00bf e439 f2bd
000000e0: c590 61be 28cf a1be a214 153e c4a3 1d3e
000000f0: 35d8 8abe a5a4 c73d 9954 00bf ae37 ae3e
00000100: 408a f13e ed35 8ebc 7c11 56be bf98 1d3e
00000110: b075 0f3e 33b2 a43e 84be 99bd fc89 b43d
00000120: cef3 ebbd 63e8 c8be 6007 e13d 6fb9 543e
00000130: d523 15bd e3e6 103e b4c0 0c3e 5f9e f63d
00000140: 27ee 3fbe cea8 b93c 1db1 95be 3143 003d
00000150: 5880 86be 91bd e83d 9089 b0be c516 da3e
00000160: 0413 813e 6838 75be 7033 843c ecc1 72be
00000170: cb11 533e 4768 98be d02b 73be 56b4 13be
00000180: 99d0 e7b9 d15b 193d 2a55 89be ab14 5dbd
00000190: dc6c 1f3e 4470 333e 3ed9 30bf ff51 9c3d
000001a0: bd61 c73d 1064 30be b847 88bc feb0 1dbe
000001b0: 7b3e 2bbf c2e5 6dbe 1419 743c 31da 47bc
000001c0: 9893 e33e 0ee3 23be 782f 28be 116c adbc
000001d0: 737b f53e 392d d13d 8878 4e3e 1754 2cbe
000001e0: f67d 4cbe 2290 da3d 1b81 bbbd f114 34bd
000001f0: eb44 923d b9b9 84be 99de 53bf 543d 90be
00000200: 4f3e c53e 316c fa3e 13da 18be c897 53bd
00000210: 8299 703c 9c16 193e 2c34 493d 7dfa aebd
00000220: 966e af3d 48fc bf3d f907 66be 1c19 583d
00000230: 12b6 113e 9fb8 043e 596b 7a3d 1f17 333e
00000240: fecd b63e 83b2 b53e 603f 2ebe c4ea 623d
00000250: 1cd1 64bd c9ef cf3d b86f 71be d036 103e
00000260: 3318 bfbe 343f 49be b117 393e 3473 41be
00000270: 94ff 51bd e21d 6b3e 29a5 01bd b4e8 513e
00000280: aa26 c7be 29d8 c63d 9fea 19be 6b9d 4a3d
00000290: b2b7 993e 2000 093e ae2b 86be 0864 053d
000002a0: 8c1c 2cbd c702 40bd 15ec a63e ecef 973d
000002b0: d888 01be 9ef9 c8bc 0d32 d33d d9a6 8fbe
000002c0: 76c1 34bd f24d 513d 692a 033e 5201 ee3c
000002d0: 5ab4 0cbe 30e4 8f3c 0613 cbbe 1ec3 44bd
000002e0: 4000 4fbe 3e78 3c3e 387a 71bd 9d3a c63e
000002f0: 45dc 353e 0261 1cbe b372 36be 5e64 0abe
00000300: 70ce 803e 0557 9abe 1bb5 4ebf c836 393e
00000310: 08e0 84bd eae5 dabc b2ef 6cbe 7cc9 883e
00000320: 89f7 073e 8717 c83e 08cd 53be 9ce4 9a3d
00000330: 44ec 1c3e 3c86 48be e0e3 2cbe c024 8cbe
00000340: 3af0 debe 909b 30be 0ab6 ecbe d9e6 c0bd
00000350: 560d 3c3f 1284 c03d e141 5fbe d0a4 a43d
00000360: 0622 b23d c69a c4bd 235a cd3d 864a b8bd
00000370: 32b4 d3bd c73c 5c3e 687f afbd e1fa 4cbe
00000380: 63ce 703d c5a7 45bc 7051 aabe 917d c5be
00000390: b365 75bd 634d 07bd 0f88 e4bd c5dc d33d
000003a0: cb33 5bbc 0949 043e ebfb 8a3e b294 79be
000003b0: 8a24 aa3e 7ce1 7e3e b9cb e13d c8e6 98bc
000003c0: d236 1f3e ba75 e13d 4434 b2bd 1dfb 463e
000003d0: 3339 2c3d 0f04 583e a68b debe cd3c 88be
000003e0: b537 50be 8d37 3f3e a28a 87be d1c5 b23d
000003f0: cac0 723d 0173 d9bd 52e6 d1be eca8 3cbe

linear.bias f4 [100]
-0.2566137 -0.17217076 -0.24060649 -0.20639756 -0.044639103 -0.06366848 -0.12989241 -0.27209666
-0.18138167 -0.20119514 0.07417841 0.007926959 0.10788432 -0.041613657 0.23886424 0.06250719
-0.02367197 -0.040913988 0.111631766 -0.21513776 -0.04353309 0.09392101 0.07103243 0.14462818
0.07330105 -0.025798673 -0.23308226 0.07586038 0.171154 0.06491068 0.0268169 -0.08054056
-0.017217096 -0.16430917 -0.06873281 -0.21064803 -0.122042865 -0.076741464 -0.039198805 -0.21308899
-0.17354849 -0.05095479 -0.1804315 -0.10221715 -0.025195315 -0.10601607 -0.13197882 -0.13413206
0.007741143 -0.17253944 -0.12145057 -0.17496926 -0.2584626 -0.21232882 -0.12583095 -0.1256337
-0.07563303 -0.13276654 -0.07098694 -0.31021997 -0.10085787 -0.13695717 -0.109032445 -0.24203606
-0.19102706 -0.1642356 -0.22407953 -0.17526293 -0.115277864 -0.14706819 -0.117724955 -0.06640781
-0.13584161 -0.07349959 -0.19996995 -0.08241587 -0.047481157 -0.26703125 -0.069263995 -0.3000698
-0.22036403 -0.2166237 -0.15199395 -0.16799225 -0.25572774 -0.16455784 -0.16874446 -0.1498913
-0.22776164 -0.13006559 -0.23010014 -0.18180488 -0.31202877 -0.20593502 0.17004544 -0.23645656
-0.010686129 -0.14641827 -0.30239156 -0.24635622
00000000: df62 83be 884d 30be 8c61 76be e259 53be
00000010: 7ed7 36bd 9f64 82bd 8402 05be 4150 8bbe
00000020: 1ebc 39be 1906 4ebe daea 973d 13e0 013c
00000030: 74f2 dc3d 1573 2abd d498 743e c503 803d
00000040: b8eb c1bc 6d95 27bd 329f e43d 134d 5cbe
00000050: c14f 32bd a959 c03d 7379 913d 6919 143e
00000060: dc1e 963d bd57 d3bc 1ead 6ebe b05c 9b3d
00000070: ff42 2f3e e4ef 843d 1eaf db3c 73f2 a4bd
00000080: de0a 8dbc aa40 28be cac3 8cbd 1eb4 57be
00000090: 9cf1 f9bd a12a 9dbd ed8e 20bd 0034 5abe
000000a0: b2b6 31be f8b5 50bd 09c3 38be 3a57 d1bd
000000b0: 6866 cebc f41e d9bd 7525 07be ea59 09be
000000c0: 6aa9 fd3b 2eae 30be 14bb f8bd 242b 33be
000000d0: 3655 84be ba6c 59be d4d9 00be 1fa6 00be
000000e0: 7de5 9abd f4f3 07be 9a61 91bd 27d5 9ebe
000000f0: 928e cebd 803e 0cbe 674c dfbd 4dd8 77be
00000100: 999c 43be 612d 28be 1b75 65be 2078 33be
00000110: cd16 ecbd 0b99 16be c819 f1bd d100 88bd
00000120: 101a 0bbe f486 96bd ecc4 4cbe a7c9 a8bd
00000130: 9a7b 42bd 52b8 88be 48da 8dbd c0a2 99be
00000140: 1ca7 61be 9ad2 5dbe 4da4 1bbe 2906 2cbe
00000150: bfee 82be da81 28be 59cb 2cbe 1b7d 19be
00000160: 593a 69be ea2f 05be 5f9f 6bbe 0f2b 3abe
00000170: 3cc2 9fbe a1e0 52be 6420 2e3e ab21 72be
00000180: e014 2fbc acee 15be 11d3 9abe ce44 7cbe
