Results/Complete Sherlock Holmes/RNN/Adam/3/100/model.pt (torch, 287455 bytes, 14 tensors)

rnn.weight_ih f4 [100, 100]
-0.18583195 -0.20180094 -0.36854693 -0.23004626 0.007239207 -0.29428145 -0.087958045 -0.19773558
0.9246099 -0.07915575 0.089763686 0.3356892 -0.56054896 -0.24555252 -0.25646293 0.8729674
0.054171078 -0.23211633 0.89927685 0.31420937 0.21975762 0.10692051 0.39628658 -0.11047438
0.004838642 1.2851976 0.46004096 0.08824731 0.012768822 -0.3528947 0.14841107 -0.38513675
0.7382439 -0.09826597 -0.44480196 0.04937612 -0.09029768 0.6246502 0.052614644 -0.72441053
0.24047938 -0.35949093 -0.1951469 0.7341958 0.23902526 0.112725295 0.6156857 0.8749759
0.7687048 -0.7009623 0.2824624 0.66018504 -0.33522934 0.39683047 -0.60073596 -0.84602755
0.09007718 -0.108245514 -0.52230626 -0.16755767 -0.77808446 -0.08463484 -0.33811837 -0.5012543
0.041676603 0.07361425 -0.04178369 0.3222704 0.0012832076 0.16324332 0.21711907 0.18206914
-0.044233836 -0.626977 0.22494477 -1.0555158 -0.0050304085 -0.60628974 -0.47404492 0.09118163
0.012117282 0.046354167 -0.6282111 -0.036117993 0.5320226 0.006645955 -0.548216 0.043894924
0.010886095 -0.3594013 -0.035347722 0.09045381 -0.04293325 0.07887515 -0.12320626 0.06838482
-0.9614584 0.030995615 -0.057821274 0.028266393 0.021775406 -0.30330834 0.45188075 -0.5999153
-0.109286174 0.1134859 0.07511428 0.080152296 -0.0885889 0.23813364 -0.05457318 1.0938284
0.3474725 -0.32255277 -0.48102167 0.30195466 -0.6825241 0.7827978 0.54625475 0.37641352
-0.7388993 -0.07134415 0.6354416 -0.09059811 0.040508978 1.158098 0.039561503 0.15396263
0.31339553 -0.14417596 0.4754862 1.5561537 0.8005341 0.0858985 -0.4136687 -0.032815203
-0.11901616 0.8715774 -0.751005 0.06413847 -0.60358685 0.7904711 -0.10769638 1.8992928
-0.7378556 0.74252117 -0.0016379125 0.15260987 -0.3185702 0.6062376 -0.6518676 0.49988618
0.070745476 -0.0030275302 -0.72373134 0.7282102 -0.21966897 -0.23610274 0.44783977 -0.20750293
0.6982117 -0.003216784 0.0333176 -0.08581589 0.0722507 0.031777598 0.09166906 0.24152793
0.8473127 0.07266905 0.12002075 -0.016923737 0.07343123 -0.7307474 -0.35195822 -0.54641604
-0.13753112 -0.05124706 -0.25755894 0.09003549 0.048071586 0.045822762 0.045171514 0.022220053
-0.042390797 0.056818835 -0.34347883 -0.095854595 -0.07495191 0.15388365 0.08291455 -0.0032550544
-0.08596807 0.062813886 -0.11832877 -0.04180157 -0.19645417 -0.094343744 0.024792396 0.0028777495
-0.70981556 -0.34667164 -0.31374973 0.34498557 0.01960982 -0.094149545 -0.2514303 -0.43777952
0.219132 -0.23176679 2.130466 0.24582511 -0.5985585 -0.37123108 0.6545351 -0.4946812
-0.22471708 -1.0853412 1.2010628 -0.029297842 0.03146054 -0.6532149 0.57553995 0.10009016
0.84440273 0.4817554 0.85307556 0.063110225 -0.029929655 -0.99723864 0.29974377 -1.01117
0.7929514 -0.24205092 -1.3573152 -0.09714382 0.3655242 0.40646228 -0.41443127 -0.40673777
0.4994582 -0.5533352 -0.35809845 -0.68280214 0.062195987 -0.1639519 -0.106478445 -0.32709637
0.49723482 -0.761126 0.7008635 -0.03749313 0.4988443 -0.33560294 -0.544296 -1.1428592
00000000: bb4a 3ebe e8a4 4ebe 2fb2 bcbe 3f91 6bbe
00000010: df36 ed3b 0fac 96be 5923 b4bd 327b 4abe
00000020: 3cb3 6c3f 691c a2bd 06d6 b73d 74df ab3e
00000030: 2380 0fbf 1f72 7bbe 1c4f 83be cb7a 5f3f
00000040: 7ee2 5d3d e7af 6dbe 0237 663f 0de0 a03e
00000050: 2408 613e 24f9 da3d 13e6 ca3e 6440 e2bd
00000060: 798d 9e3b 5b81 a43f 7d8a eb3e 01bb b43d
00000070: 5234 513c 9dae b4be 12f9 173e a530 c5be
00000080: 8dfd 3c3f ab3f c9bd 15bd e3be 9d3e 4a3d
00000090: fded b8bd 13e9 1f3f 7482 573d f872 39bf
000000a0: 3a40 763e 320f b8be 97d4 47be 42f4 3b3f
000000b0: 0ac3 743e 85dc e63d 949d 1d3f 6cfe 5f3f
000000c0: d6c9 443f 4472 33bf e99e 903e e301 293f
000000d0: 2ea3 abbe 5d2d cb3e d5c9 19bf 4395 58bf
000000e0: 627a b83d d3af ddbd ddb5 05bf 3d94 2bbe
000000f0: 8b30 47bf 0855 adbd da1d adbe 3452 00bf
00000100: 16b5 2a3d 11c3 963d 6025 2bbd a000 a53e
00000110: 4d31 a83a 4229 273e 7654 5e3e 5570 3a3e
00000120: 8a2e 35bd 9181 20bf ec57 663e 241b 87bf
00000130: 20d6 a4bb ce35 1bbf 04b6 f2be 6fbd ba3d
00000140: 9087 463c dedd 3d3d 71d2 20bf 76f0 13bd
00000150: a232 083f 50c6 d93b e257 0cbf 2acb 333d
00000160: 985b 323c 7203 b8be c6c8 10bd d93f b93d
00000170: c7da 2fbd 4b89 a13d 9053 fcbd 570d 8c3d
00000180: 2322 76bf 84ea fd3c 00d6 6cbd ec8e e73c
00000190: 5662 b23c 3b4b 9bbe ea5c e73e 0d94 19bf
000001a0: 6ed1 dfbd 4c6b e83d 84d5 993d e326 a43d
000001b0: 196e b5bd 4ed9 733e 2088 5fbd 9202 8c3f
000001c0: eae7 b13e a325 a5be 7948 f6be cd99 9a3e
000001d0: e6b9 2ebf 7065 483f 5ad7 0b3f 46b9 c03e
000001e0: 8128 3dbf e21c 92bd 4dac 223f 808b b9bd
000001f0: beec 253d 8e3c 943f 3e0b 223d 61a8 1d3e
00000200: 6175 a03e dda2 13be ed72 f33e 0b30 c73f
00000210: ceef 4c3f 8eeb af3d 62cc d3be 3c69 06bd
00000220: bfbe f3bd b21f 5f3f dd41 40bf 085b 833d
00000230: ab84 1abf 505c 4a3f eb8f dcbd 071c f33f
00000240: 1be4 3cbf de15 3e3f 39af d6ba c345 1c3e
00000250: a21b a3be 6332 1b3f cce0 26bf 15f1 ff3e
00000260: 01e3 903d 8769 46bb 7546 39bf fc6b 3a3f
00000270: e7f0 60be ebc4 71be 414b e53e a67b 54be
00000280: 01be 323f aed0 52bb 0978 083d 3ec0 afbd
00000290: 2df8 933d 3a29 023d fdbc bb3d 1953 773e
000002a0: 7ce9 583f 83d3 943d 70cd f53d a6a3 8abc
000002b0: 1d63 963d 4312 3bbf de33 b4be ece1 0bbf
000002c0: f5d4 0cbe 70e8 51bd c4de 83be 8764 b83d
000002d0: b6e6 443d a6b0 3b3d c405 393d d406 b63c
000002e0: f9a1 2dbd deba 683d 75dc afbe 6a4f c4bd
000002f0: 6380 99bd ad93 1d3e 1bcf a93d c052 55bb
00000300: 0710 b0bd 91a4 803d 5b56 f2bd 2038 2bbd
00000310: 482b 49be 4b37 c1bd 6c19 cb3c a098 3c3b
00000320: 79b6 35bf f27e b1be cea3 a0be f3a1 b03e
00000330: c6a4 a03c 7ad1 c0bd 79bb 80be a324 e0be
00000340: 2464 603e 4654 6dbe 8e59 0840 94b9 7b3e
00000350: 213b 19bf 0012 bebe 9d8f 273f db46 fdbe
00000360: 3c1c 66be 76ec 8abf 6dbc 993f 0702 f0bc
00000370: c4dc 003d 1739 27bf 9656 133f 12fc cc3d
00000380: c72a 583f a5a8 f63e 2963 5a3f ef3f 813d
00000390: 092f f5bc 084b 7fbf 0478 993e 056e 81bf
000003a0: ddfe 4a3f 32dc 77be 81bc adbf 57f3 c6bd
000003b0: fd25 bb3e d31b d03e 5630 d4be ef3f d0be
000003c0: fcb8 ff3e 60a7 0dbf ae58 b7be 1fcc 2ebf
000003d0: 38c1 7e3d 02e3 27be 5f11 dabd 2d79 a7be
000003e0: 9095 fe3e 27d9 42bf ca6b 333f 6592 19bd
000003f0: 8568 ff3e 26d4 abbe fc56 0bbf 3649 92bf

rnn.weight_hh f4 [100, 100]
0.25124353 -0.27682757 0.37306902 0.089602925 -0.45084575 -0.17460313 0.5291291 -0.07791389
0.3430376 0.29238728 0.03615312 -0.101004474 -0.049018554 -0.003851989 -0.11030149 -0.030721426
0.28085968 0.28630844 0.32673022 0.37197104 0.2359513 0.24625397 0.21624297 -0.26365587
-0.16013551 0.123596415 0.0045402753 -0.5700814 -0.22896935 -0.23183464 -0.25514778 0.36426812
0.22818062 0.012559071 0.1635351 -0.36848855 -0.2821756 -0.032187175 -0.07058114 0.29417408
0.14024802 0.32218572 0.18709838 0.38925806 -0.37905684 0.26899546 -0.122802526 -0.3097901
0.10402507 0.16976248 -0.091176696 -0.2801867 -0.14350694 0.0891631 0.5798785 -0.20060177
0.12563588 -0.3148702 0.25781167 0.26618 -0.43111354 0.116195105 -0.15171114 0.3121341
0.3586149 -0.23493393 -0.60297185 -0.27583075 0.47174245 0.32125154 0.15014587 -0.2908697
-0.18912128 -0.33060178 0.5959008 0.38185692 0.19124438 0.22641426 -0.16663277 0.23009796
0.35029644 -0.33653024 -0.36160192 0.10398591 -0.4634066 0.17929855 -0.01285877 -0.3017174
-0.07984949 -0.2106398 -0.093599975 -0.2376023 0.3333921 0.25810373 -0.35355312 -0.08664092
-0.2123242 -0.26310867 0.4854584 -0.15200068 0.30023816 0.07259031 0.4057151 0.05407203
0.043505326 -0.054696366 0.023456026 0.6559342 0.18827258 0.55331177 -0.48825446 0.44506943
-0.20151812 -0.22616608 -0.036338545 -0.12805368 0.009135378 0.29273802 0.18650573 0.38870737
-0.21491283 0.30805534 0.26431364 -0.21530382 -0.26816365 0.20423257 0.08754138 0.27613825
-0.35333332 -0.017360477 0.0068524294 0.25794256 0.12739444 -0.68488467 -0.46970272 -0.2758534
-0.11479006 0.40330315 0.03211039 0.14373691 0.18365625 0.66914016 0.20071341 0.36622795
0.20215428 -0.11835971 0.05855106 -0.4233005 0.033760767 -0.32609785 0.47614884 -0.029967383
-0.34664696 0.05927878 -0.05550786 -0.15779124 -0.06555369 -0.658669 0.5655304 -0.39167345
-0.08442669 0.37405223 0.04448227 0.093369305 0.24306981 0.15141644 -0.15425192 -0.406099
0.3814502 0.057408355 -0.06955743 -0.66189647 0.3783647 -0.25368038 0.2527939 0.5421905
0.14996746 0.34399524 -0.11814866 0.11642383 0.14215219 0.07209602 -0.56275797 0.087547384
0.17824604 0.26507205 0.06518261 0.024050577 -0.023455834 -0.3386784 -0.19922908 -0.1340383
0.13545008 0.46282205 -0.2994577 -0.16630088 -0.5460316 -0.49500185 0.46693882 0.24447575
0.117607094 -0.59084725 0.19335197 0.08030032 -0.28519464 0.2598656 0.34801817 -0.06990108
0.021248443 0.2743537 0.11748217 -0.35103098 -0.13510726 -0.15316851 0.013548377 0.075354375
0.35178235 0.1118576 0.09856807 0.12202306 0.16635679 -0.15464342 0.27717146 -0.058670025
-0.09088006 -0.31035715 0.04744908 -0.78757364 -0.27461037 -0.3303464 -0.2218135 0.3734494
0.016626876 -0.049395643 -0.006998142 -0.058826108 -0.15757374 -0.07122506 -0.13419373 0.025149815
0.0390846 0.20210779 0.07875581 0.27091485 -0.130663 0.34508467 -0.32557648 -0.14942549
0.24737036 0.48229936 -0.10819357 -0.110348865 -0.12940085 -0.03518841 0.49043682 -0.4720384
00000000: fea2 803e 58bc 8dbe e702 bf3e bd81 b73d
00000010: 41d5 e6be 2acb 32be 0175 073f 5191 9fbd
00000020: a0a2 af3e c9b3 953e 4b15 143d 6fdb cebd
00000030: aec7 48bd a771 7cbb bfe5 e1bd 80ab fbbc
00000040: d7cc 8f3e 0597 923e 2f49 a73e fd72 be3e
00000050: 389d 713e 002a 7c3e cc6e 5d3e e7fd 86be
00000060: 90fa 23be 1e20 fd3d 97c6 943b dbf0 11bf
00000070: f176 6abe 0f66 6dbe bba2 82be 5a81 ba3e
00000080: 2ea8 693e 90c4 4d3c bf75 273e 88aa bcbe
00000090: 5279 90be b3d6 03bd d88c 90bd fc9d 963e
000000a0: 2d9d 0f3e 87f5 a43e b896 3f3e d54c c73e
000000b0: bd13 c2be c6b9 893e e47f fbbd cf9c 9ebe
000000c0: 190b d53d 37d6 2d3e d9ba babd a274 8fbe
000000d0: 7cf3 12be 259b b63d eb72 143f 8d6a 4dbe
000000e0: b1a6 003e ab36 a1be e4ff 833e bf48 883e
000000f0: eaba dcbe b3f7 ed3d 2a5a 1bbe 0ad0 9f3e
00000100: 5f9c b73e 8592 70be 5d5c 1abf b039 8dbe
00000110: 3a88 f13e 157b a43e d7bf 193e e0ec 94be
00000120: 02a9 41be a344 a9be f48c 183f c082 c33e
00000130: 91d5 433e 24d9 673e c8a1 2abe cd9e 6b3e
00000140: 0e5a b33e b14d acbe e323 b9be 91f6 d43d
00000150: a143 edbe 0a9a 373e 97ad 52bc b47a 9abe
00000160: 2188 a3bd f6b1 57be 58b1 bfbd 044e 73be
00000170: 5fb2 aa3e 2c26 843e ea04 b5be cb70 b1bd
00000180: 846b 59be 2eb6 86be 018e f83e 11a6 1bbe
00000190: d1b8 993e 3aaa 943d e4b9 cf3e a27a 5d3d
000001a0: a432 323d 4c09 60bd da26 c03c 4eeb 273f
000001b0: 87ca 403e d7a5 0d3f 7dfc f9be 24e0 e33e
000001c0: c45a 4ebe 1598 67be bad7 14bd 8120 03be
000001d0: 8dac 153c c2e1 953e 5cfb 3e3e a704 c73e
000001e0: 1c12 5cbe 6eb9 9d3e 1e54 873e 9b78 5cbe
000001f0: bf4c 89be 5822 513e e548 b33d fe61 8d3e
00000200: 1be8 b4be 8f37 8ebc 588a e03b 0c11 843e
00000210: b073 023e 9a54 2fbf e07c f0be a83c 8dbe
00000220: 0d17 ebbd c07d ce3e 2f86 033d c52f 133e
00000230: 6210 3c3e c54c 2b3f d187 4d3e 3b82 bb3e
00000240: 8801 4f3e 9366 f2bd 3cd3 6f3d d8ba d8be
00000250: bb48 0a3d 4cf6 a6be c8c9 f33e 287e f5bc
00000260: b67b b1be 4ece 723d 365c 63bd 0794 21be
00000270: 0341 86bd 889e 28bf 9ac6 103f 6c89 c8be
00000280: e7e7 acbd c683 bf3e 0a33 363d 6838 bf3d
00000290: 4be7 783e e90c 1b3e 37f4 1dbe 35ec cfbe
000002a0: 714d c33e 0625 6b3d 2074 8ebd 0c72 29bf
000002b0: 05b9 c13e 65e2 81be 346e 813e ffcc 0a3f
000002c0: 1291 193e 2520 b03e edf7 f1bd 9e6f ee3d
000002d0: 5890 113e 14a7 933d e810 10bf 0b4c b33d
000002e0: 2186 363e 86b7 873e 767e 853d b705 c53c
000002f0: 7326 c0bc 4167 adbe b502 4cbe 5641 09be
00000300: 6db3 0a3e 03f7 ec3e 8552 99be c74a 2abe
00000310: bac8 0bbf e270 fdbe 9b12 ef3e da57 7a3e
00000320: fddb f03d c441 17bf 0ffe 453e 7f74 a43d
00000330: 0805 92be 1b0d 853e 702f b23e 4c28 8fbd
00000340: 3711 ae3c 1778 8c3e 7e9a f03d 55ba b3be
00000350: 8f59 0abe 35d8 1cbe 03fa 5d3c 6553 9a3d
00000360: d11c b43e 9915 e53d 0ede c93d 3ae7 f93d
00000370: 6f59 2a3e d85a 1ebe 6be9 8d3e fb4f 70bd
00000380: 531f babd 22e7 9ebe f759 423d 6d9e 49bf
00000390: bb99 8cbe 2a23 a9be 1423 63be c234 bf3e
000003a0: 1635 883c 1653 4abd ac50 e5bb a5f3 70bd
000003b0: 035b 21be 72de 91bd 156a 09be fc06 ce3c
000003c0: 2c17 203d 58f5 4e3e ba4a a13d 5ab5 8a3e
000003d0: 85cc 05be f0ae b03e f6b1 a6be ff02 19be
000003e0: a84e 7d3e f1ef f63e 9794 ddbd 96fe e1bd
000003f0: a881 04be b921 10bd 891a fb3e 04af f1be

rnn.bias_ih f4 [100]
0.038295887 -0.029548647 0.14612365 -0.51343983 -0.7709267 -0.29427013 0.41693893 0.20228548
-0.1878824 -0.18625261 -0.06294509 -0.7258445 -0.11449078 -0.2435855 -0.51903373 -0.36486918
0.3883856 -0.29206032 0.09644882 0.11237093 -0.093420655 -0.42959884 0.17962015 -0.1583749
-0.06297589 0.42751956 -0.1523527 -0.3750979 -0.2820131 -0.05513912 -0.38992503 0.61223596
0.13544053 -0.3718641 -0.16792278 0.12252293 -0.32324055 0.1070296 -0.50519943 -0.1803813
0.48110196 0.29766983 0.35637033 -0.022643885 -0.24057889 -0.024234558 -0.48530218 0.03188869
0.23083334 -0.072259076 0.26735482 -0.062182706 0.18915471 0.4539533 0.5784693 -0.07518856
0.47989973 -0.31149513 -0.2633125 0.12958734 0.19983685 -0.13017885 -0.011960246 0.00569582
-0.13715729 -0.07564589 -0.096122436 -0.25687975 0.35747692 0.13675502 -0.2407849 -0.45384967
-0.34949818 -0.05564128 0.19301705 0.045943443 0.2909196 0.07611748 -0.09693964 -0.23806682
-0.22787969 -0.083201 -0.18148166 0.123672284 -0.0955689 -0.1005045 -0.014923527 -0.03441639
0.56089294 0.18087587 0.6019171 -0.22924042 -0.14635582 -0.12913008 0.24155289 -0.50643104
0.022332994 -0.15735449 0.4464687 0.07643048
00000000: 26dc 1c3d 0110 f2bc 70a1 153e cb70 03bf
00000010: 745b 45bf 93aa 96be 0579 d53e ed23 4f3e
00000020: 3e64 40be 01b9 3ebe 5be9 80bd f2d0 39bf
00000030: 247a eabd 7a6e 79be 65df 04bf 22d0 babe
00000040: 7ada c63e ee88 95be f586 c53d bb22 e63d
00000050: 5453 bfbd 61f4 dbbe 58ee 373e 082d 22be
00000060: 81f9 80bd d8e3 da3e 5902 1cbe d50c c0be
00000070: 0564 90be 8fd9 61bd 41a4 c7be 7fbb 1c3f
00000080: ecb0 0a3e f964 bebe f3f3 2bbe 4ded fa3d
00000090: c97f a5be 5632 db3d c054 01bf e0b5 38be
000000a0: ff52 f63e 2e68 983e 2c76 b63e ab7f b9bc
000000b0: 505a 76be 8d87 c6bc 8779 f8be b79d 023d
000000c0: 935f 6c3e 91fc 93bd bbe2 883e 4bb3 7ebd
000000d0: c6b1 413e 916c e83e 9016 143f 76fc 99bd
000000e0: 6bb5 f53e 4a7c 9fbe e5d0 86be 8bb2 043e
000000f0: 08a2 4c3e 9b4d 05be e8f4 43bc 00a4 ba3b
00000100: f672 0cbe 3bec 9abd d7db c4bd be85 83be
00000110: 3707 b73e 8209 0c3e 5190 76be fc5e e8be
00000120: 6df1 b2be 1ce8 63bd 43a6 453e 312f 3c3d
00000130: 6af3 943e 7be3 9b3d 4a88 c6bd cac7 73be
00000140: 4b59 69be 4965 aabd 54d6 39be e547 fd3d
00000150: a1b9 c3bd 4ed5 cdbd cf81 74bc 33f8 0cbd
00000160: ae96 0f3f 8637 393e 3d17 1a3f 00be 6abe
00000170: 4dde 15be ad3a 04be a459 773e 77a5 01bf
00000180: aff3 b63c 8921 21be 8c97 e43e 9587 9c3d

rnn.bias_hh f4 [100]
-6.427726e-05 -0.08362306 0.036393445 -0.5310533 -0.6355162 -0.34608564 0.48418266 0.12962928
-0.12709267 -0.25404063 -0.17557508 -0.6888955 -0.11398773 -0.19232787 -0.6035047 -0.40285867
0.47090083 -0.1894426 -0.06417725 0.072728 -0.16225821 -0.4220651 0.1490541 -0.037011
-0.026850093 0.4909549 -0.15554704 -0.42135024 -0.3227379 0.07508752 -0.31970045 0.532225
0.22543082 -0.46641415 -0.16674636 0.25668168 -0.30686426 0.13746023 -0.55023736 -0.1885062
0.49985826 0.31128928 0.43671095 -0.0023179485 -0.3766066 0.06013925 -0.4903736 -0.07675491
0.2012114 -0.08842546 0.25491098 -0.032927 0.103267774 0.46396017 0.52473474 -0.031854436
0.47506085 -0.40123823 -0.16392922 0.15484582 0.24609219 -0.12078033 -0.13250184 0.037398975
-0.017197767 0.017163798 -0.076344684 -0.3601422 0.40170366 0.001753203 -0.24526122 -0.3757041
-0.23428781 0.04054344 0.023479445 0.070376806 0.32027167 0.13233633 -0.032971643 -0.18969183
-0.10550863 -0.07462996 -0.123098545 0.15905206 -0.10211559 -0.20481643 0.15286265 -0.0657601
0.5091268 0.128113 0.42805892 -0.17647114 -0.013355258 -0.15539314 0.1932164 -0.4939738
-0.09814738 -0.18790805 0.3924502 0.13761194
00000000: 97cc 86b8 9142 abbd 4b11 153d 1cf3 07bf
00000010: 31b1 22bf 2332 b1be cae6 f73e 8abd 043e
00000020: 9524 02be 9d11 82be f4c9 33be 755b 30bf
00000030: 6672 e9bd 99f1 44be 497f 1abf 7e43 cebe
00000040: ea19 f13e 3efd 41be 5d6f 83bd 6bf2 943d
00000050: 0427 26be eb18 d8be a3a1 183e d998 17bd
00000060: baf4 dbbc 715e fb3e b947 1fbe 38bb d7be
00000070: e73d a5be 7cc7 993d c7af a3be e63f 083f
00000080: 56d7 663e d6cd eebe 8fbf 2abe c86b 833e
00000090: 501d 9dbe 60c2 0c3e 5bdc 0cbf c507 41be
000000a0: 6ced ff3e 4f61 9f3e 9498 df3e b9e8 17bb
000000b0: 95d2 c0be 9354 763d 4012 fbbe ae31 9dbd
000000c0: 5c0a 4e3e 6818 b5bd b183 823e 76de 06bd
000000d0: 0e7e d33d 308c ed3e 0455 063f cc79 02bd
000000e0: 2d3b f33e 196f cdbe 10dd 27be e78f 1e3e
000000f0: 97ff 7b3e ad5b f7bd 90ae 07be ab2f 193d
00000100: 55e2 8cbc 189b 8c3c 9a5a 9cbd 8f64 b8be
00000110: 1aac cd3e bbcb e53a c225 7bbe 4a5c c0be
00000120: 25e9 6fbe e110 263d f757 c03c b721 903d
00000130: a6fa a33e 2d83 073e 460d 07bd 933e 42be
00000140: e914 d8bd 98d7 98bd 171b fcbd 8bde 223e
00000150: fa21 d1bd 66bb 51be 0788 1c3e 3bad 86bd
00000160: 2256 023f 0e30 033e 8a2a db3e dab4 34be
00000170: 03d0 5abc 611f 1fbe 85da 453e 22ea fcbe
00000180: 7e01 c9bd f86a 40be 3cef c83e 25ea 0c3e

rnn2.weight_ih f4 [100, 100]
-0.8416077 -0.29341978 -1.2845473 -0.5227561 -0.4904484 0.425996 -0.022729412 -2.0439603
-0.77575094 -0.47254822 0.50472134 -0.25268945 0.3511111 0.55733246 -0.17927901 -0.51421744
-0.2941123 -0.15268256 -0.28152838 -0.2246921 -0.23031746 -1.1585447 -0.2418952 0.8818485
0.49108332 0.04897843 0.3163252 -0.20919345 0.7087003 -0.3780405 -0.5006132 -0.07889389
-1.1117254 1.2934427 0.4820821 0.03910393 0.46136993 -0.5190809 -0.5259954 0.22297652
1.1652138 -0.8285814 0.018043047 -1.0035719 0.57665855 0.42649624 0.27610308 0.10069978
0.24532817 0.55795866 -0.8243858 0.096814215 0.7363396 0.13168018 -0.18609828 -0.18379405
0.6407947 0.9948666 -0.23605737 1.4852408 0.7702021 -0.41746387 -0.11525999 0.10273774
-0.18905836 -0.6088185 -0.09647833 0.69132835 -0.38799796 -1.2681868 0.32476762 0.5093901
-1.3094703 -0.101890534 -0.5534952 -0.10504576 -0.4306538 -0.8922728 0.44618893 -0.33724317
-0.49068153 0.07336826 0.4334879 -0.70399857 -0.1460421 -1.2861997 0.053909294 -0.55683756
0.35818562 0.80522066 1.1651018 0.06567397 -0.45135728 -0.27501094 0.2491309 -0.09725615
0.55865794 -0.40809473 -0.23903991 -0.8014675 -1.1359351 -0.97860944 -0.48406842 0.19876371
0.13490272 0.72726834 -0.2661144 -1.9780167 -0.26935852 -0.22101158 0.30146787 -0.5680188
0.7250634 0.6426005 -0.18034253 -0.71946275 -0.06518312 0.30718517 0.3700123 0.4104902
-0.16667905 -0.9456748 -0.27984515 0.68139046 -1.1558926 -0.46390015 0.16997163 0.6686206
0.9079179 -0.010079291 -0.03455833 -0.5620095 -1.6481144 1.6129566 1.190301 0.14225288
0.5838913 0.001558801 -0.69431555 -0.6289501 1.0558968 -1.4486909 0.546951 -0.061434153
-0.44607377 0.9130175 0.35349816 0.63944894 0.43985477 0.0405604 -0.58286625 -0.92807156
-0.16841455 -0.17966788 0.051200047 -0.9923417 0.73854107 0.10983402 0.60888803 0.35815316
0.40161952 0.105093315 -0.78241307 0.18211898 -0.5316378 -1.5441277 -0.5500484 -0.14764921
-0.5056005 0.15410048 -0.1650845 0.23545249 -0.14964418 0.45038983 -0.57633495 0.5183347
0.009237773 -0.18877573 0.42560098 -0.34029016 0.09103245 0.03153855 -0.28076372 -0.88393015
-0.1992961 -0.6537029 1.1588126 -1.0024685 -0.04476382 0.5442583 -0.12119034 -0.4054025
-0.089884154 0.6672736 0.020298552 -0.4569661 0.27858075 -0.7208484 -0.24981247 -0.54159606
-0.3315104 -0.61531115 -0.47416198 -0.60299224 0.19596377 0.14712712 -0.27130893 -3.3564296
-0.31770384 0.3113171 0.6576911 0.28491554 3.071408 2.6734223 -0.2170795 0.19538972
-0.4358874 -0.31442332 0.0559979 0.49484718 -0.49304488 -0.59071124 0.2588384 0.14746995
-0.6475089 -1.3261901 -0.12684496 0.12370064 0.42860886 -0.36543193 -0.19177064 -0.14837715
-0.5868829 0.52004415 0.016205752 -0.23348966 0.6677701 -0.20685107 -0.011457524 -0.38535088
0.75301176 -0.67689776 0.41770336 0.3701695 -0.312668 0.6414547 0.25517517 0.31894818
0.0835834 0.62988067 -0.38370723 -0.44554377 -0.15299623 0.37250364 0.18114302 -0.654336
00000000: 9a73 57bf 1e3b 96be 0c6c a4bf 58d3 05bf
00000010: 0d1c fbbe 261c da3e 0833 babc 3fd0 02c0
00000020: 9d97 46bf d7f1 f1be 6b35 013f 8360 81be
00000030: d6c4 b33e 57ad 0e3f eb94 37be c1a3 03bf
00000040: e395 96be d158 1cbe 7d24 90be b015 66be
00000050: 57d8 6bbe 314b 94bf 60b3 77be d3c0 613f
00000060: 466f fb3e 9b9d 483d 60f5 a13e cf36 56be
00000070: 626d 353f 868e c1be 3028 00bf 1f93 a1bd
00000080: 054d 8ebf 888f a53f 77d3 f63e 712b 203d
00000090: ae38 ec3e 7ce2 04bf a2a7 06bf f553 643e
000000a0: ba25 953f e91d 54bf 03cf 933c 0b75 80bf
000000b0: e59f 133f b75d da3e 625d 8d3e b03b ce3d
000000c0: 4f37 7b3e 61d6 0e3f f30a 53bf 8846 c63d
000000d0: c180 3c3f 2bd7 063e 8c90 3ebe 8234 3cbe
000000e0: 1f0b 243f 94af 7e3f 06b9 71be 5f1c be3f
000000f0: f72b 453f d3bd d5be 6e0d ecbd 2a68 d23d
00000100: 8498 41be 87db 1bbf 6e96 c5bd e5fa 303f
00000110: aba7 c6be f253 a2bf f147 a63e 6467 023f
00000120: b99c a7bf fcab d0bd ddb1 0dbf 3b22 d7bd
00000130: a87e dcbe fd6b 64bf e072 e43e 23ab acbe
00000140: 9c3a fbbe 1942 963d 20f2 dd3e 4039 34bf
00000150: 0f8c 15be 31a2 a4bf fecf 5c3d e88c 0ebf
00000160: 1b64 b73e f122 4e3f 0e22 953f 1380 863d
00000170: 4d18 e7be 3cce 8cbe 2c1c 7f3e 3b2e c7bd
00000180: 3504 0f3f cbf1 d0be e1c6 74be f92c 4dbf
00000190: 5266 91bf 2686 7abf d1d7 f7be b788 4b3e
000001a0: f023 0a3e 422e 3a3f 2640 88be a72f fdbf
000001b0: 5ce9 89be dc50 62be ff59 9a3e ae69 11bf
000001c0: c19d 393f 7781 243f b6ab 38be b62e 38bf
000001d0: ba7e 85bd 6047 9d3e 4172 bd3e c62b d23e
000001e0: eaad 2abe be17 72bf dd47 8fbe 9b6f 2e3f
000001f0: 4af4 93bf 5284 edbe 0b0d 2e3e b82a 2b3f
00000200: 4f6d 683f 9c23 25bc 098d 0dbd dbdf 0fbf
00000210: 6af5 d2bf 5d75 ce3f c85b 983f bdaa 113e
00000220: e679 153f af50 cc3a aabe 31bf e002 21bf
00000230: a027 873f b46e b9bf fb04 0c3f 61a2 7bbd
00000240: c863 e4be 84bb 693f b6fd b43e edb2 233f
00000250: a534 e13e a922 263d b936 15bf 1996 6dbf
00000260: dd74 2cbe dbfa 37be 24b7 513d 1b0a 7ebf
00000270: 0711 3d3f a9f0 e03d 16e0 1b3f da5f b73e
00000280: 13a1 cd3e 2a3b d73d 394c 48bf 667d 3a3e
00000290: 6a19 08bf faa5 c5bf f9cf 0cbf 5b31 17be
000002a0: 096f 01bf 84cc 1d3e e90b 29be 751a 713e
000002b0: 533c 19be 7f99 e63e b08a 13bf 95b1 043f
000002c0: 075a 173c 6d4e 41be 5fe8 d93e 833a aebe
000002d0: 396f ba3d 912e 013d 43c0 8fbe 3f49 62bf
000002e0: 4714 4cbe 1359 27bf f953 943f e350 80bf
000002f0: 445a 37bd 8354 0b3f a432 f8bd eb90 cfbe
00000300: 2f15 b8bd 71d2 2a3f 2649 a63c 76f7 e9be
00000310: 23a2 8e3e 8589 38bf d7ce 7fbe 0aa6 0abf
00000320: bbbb a9be 0885 1dbf 5cc5 f2be b35d 1abf
00000330: baaa 483e 7ea8 163e 01e9 8abe becf 56c0
00000340: 14aa a2be f464 9f3e 725e 283f 73e0 913e
00000350: f391 4440 5a19 2b40 174a 5ebe 3e14 483e
00000360: a22c dfbe 18fc a0be 0e5e 653d 9c5c fd3e
00000370: 6170 fcbe da38 17bf 7786 843e 5d02 173e
00000380: 25c3 25bf 99c0 a9bf a5e3 01be c356 fd3d
00000390: 9f72 db3e e519 bbbe 865f 44be 2ef0 17be
000003a0: f53d 16bf 9d21 053f edc1 843c ea17 6fbe
000003b0: fbf2 2a3f c4d0 53be 57b8 3bbc b64c c5be
000003c0: 61c5 403f 2c49 2dbf 37dd d53e db86 bd3e
000003d0: 0516 a0be 6036 243f 52a6 823e 2d4d a33e
000003e0: c62d ab3d dc3f 213f 4675 c4be 501e e4be
000003f0: 0bab 1cbe ccb8 be3e 8e7d 393e 9082 27bf

rnn2.weight_hh f4 [100, 100]
-0.1972393 0.30149567 -0.3108062 -0.19095255 0.090279706 -0.07102594 0.4613909 -0.552764
0.22546536 -0.46955162 0.2750401 -0.23771703 -0.08501455 -0.23478608 -0.05267723 -0.16547933
-0.34853107 -0.8304597 0.59280497 -0.49342564 -0.94974697 -0.093697615 -0.030747512 -0.53921163
-0.04561905 -0.81180185 0.41044968 -0.7040589 -0.41436818 -1.2772111 -0.2653428 0.08888153
0.596881 -0.39012098 -0.1319899 0.19359803 0.10216201 -0.15056884 0.45527467 -0.37994543
-0.66689146 0.4103854 0.08010129 1.8376472 -1.0103343 -0.049936283 0.3895039 -0.00024213883
0.2972052 -0.2718485 -0.51071495 -1.1380067 0.06123298 0.39171124 -0.22794512 -0.54204726
0.8264736 0.23368917 -1.1537237 -0.9025212 -0.6838714 -0.5119953 -0.21105377 0.4000905
-0.64923936 -0.6527802 0.050656807 0.36058378 -0.6550917 0.35024184 0.2066913 0.23530027
-1.0499167 -0.0038322993 0.54847664 0.9686107 0.77082545 0.87457776 0.18318014 -0.23054276
-0.29603922 0.0056156483 -0.024485074 1.0088692 -0.2972739 -0.56505024 0.15135431 -0.2879993
-1.1066599 -0.46938297 -0.083140045 0.66615784 0.6874249 -0.57242453 1.2260306 -0.04537872
0.10816858 0.14425199 -0.3541533 -0.39802417 0.38537943 -0.38373783 -0.46451002 0.4103185
0.30656725 0.38887912 -0.6750015 -0.4066605 0.21582794 0.33581772 -0.0839064 1.2252182
-0.27874982 0.4293555 -0.4020729 0.19671088 -0.2520712 0.8878671 -0.3286125 -0.84639454
-0.5452925 -0.61493623 -0.16327661 -0.34110928 0.52942646 -0.5996012 0.3760874 -0.3562213
-0.1381435 -0.06745736 0.205488 -0.051639974 0.9655657 0.6408467 0.8229383 0.88049203
0.44965428 0.42392904 -0.56446797 -0.7381695 0.6637843 -0.8839215 -0.52782434 0.24668024
0.38714814 -0.118514106 -0.7584657 -0.13250202 1.0145364 0.4801699 -0.18510613 -0.5278787
-0.07222474 0.4713404 -0.41466695 -0.35837576 0.5782012 0.41669682 -0.12187566 -0.5295425
0.76336986 0.69680864 0.00637192 0.10954192 0.62821484 -1.1235628 1.1314086 -0.070838235
0.055438995 0.109134816 -0.520839 -0.25186592 -0.38267967 0.3801381 0.13475583 1.1101178
1.0470675 -0.6378207 0.33236092 -0.2357433 -1.0036792 -1.508677 0.7043426 0.39795995
-0.6982358 0.021784894 -0.22891195 -0.07593666 0.54548466 -0.06312246 -0.3570554 -0.38410684
0.85193795 1.1844544 0.018231628 -0.119507 0.6431632 0.6907158 -0.30418274 0.3319931
0.57975495 0.36133856 -0.13624315 -0.88845587 -0.28198543 0.43452212 -0.22657704 -0.85418594
0.6987399 0.015371097 -0.38745746 1.0321965 -0.19041914 0.13586411 -0.52467895 -0.02541879
0.33799794 0.44112504 0.4649627 -0.96446776 0.6029132 -1.0876062 -0.35497856 -0.14765202
-0.021267546 -0.457623 0.30575392 -1.063372 -0.7459703 -0.24506408 -0.2244441 0.36678797
0.47591165 0.40928048 0.80681366 0.7366412 0.3941172 -0.29185554 0.4890581 -0.43100855
0.38556507 -1.089416 0.33250505 0.6780165 -0.014003882 -0.6308497 -0.28516257 -0.29680675
-0.31645215 0.4588579 -0.4400718 -0.5652592 1.206646 0.56013906 0.33130705 0.47394982
00000000: 19f9 49be a45d 9a3e fe21 9fbe 1189 43be
00000010: 91e4 b83d 0c76 91bd 6e3b ec3e f181 0dbf
00000020: 64e0 663e 1269 f0be 0ed2 8c3e 186c 73be
00000030: 1c1c aebd c36b 70be 14c4 57bd 6a73 29be
00000040: aa72 b2be 0299 54bf 11c2 173f 49a2 fcbe
00000050: 9e22 73bf 89e4 bfbd 35e2 fbbc c609 0abf
00000060: 0adb 3abd 3fd2 4fbf 7626 d23e 343d 34bf
00000070: 1128 d4be a77b a3bf 03db 87be 8507 b63d
00000080: 31cd 183f f0bd c7be 5c28 07be 903e 463e
00000090: 513a d13d b82e 1abe c319 e93e 3588 c2be
000000a0: 66b9 2abf 091e d23e 250c a43d 0638 eb3f
000000b0: a252 81bf fd89 4cbd 0e6d c73e a6e6 7db9
000000c0: 482b 983e ba2f 8bbe 37be 02bf 34aa 91bf
000000d0: 6fcf 7a3d 608e c83e 726a 69be 9cc3 0abf
000000e0: c693 533f 374c 6f3e 38ad 93bf a10b 67bf
000000f0: 3212 2fbf 2012 03bf 7b1e 58be a9d8 cc3e
00000100: 8d34 26bf 9a1c 27bf 837d 4f3d 709e b83e
00000110: 17b4 27bf e652 b33e e2a6 533e 8ef2 703e
00000120: ac63 86bf 5027 7bbb f768 0c3f dff6 773f
00000130: d154 453f 54e4 5f3f 9393 3b3e 6713 6cbe
00000140: 7492 97be 7903 b83b ec94 c8bc a022 813f
00000150: 4934 98be 22a7 10bf a0fc 1a3e a574 93be
00000160: 08a7 8dbf f752 f0be 5445 aabd 5289 2a3f
00000170: 14fb 2f3f 6a8a 12bf 92ee 9c3f 09df 39bd
00000180: 7d87 dd3d cbb6 133e 9553 b5be d3c9 cbbe
00000190: 7450 c53e 4979 c4be 42d4 edbe 4415 d23e
000001a0: 62f6 9c3e 2a1b c73e e6cc 2cbf ce35 d0be
000001b0: 0002 5d3e 4df0 ab3e 1ed7 abbd f3d3 9c3f
000001c0: 4cb8 8ebe 7cd4 db3e 80dc cdbe 946e 493e
000001d0: 7a0f 81be 424b 633f e63f a8be 50ad 58bf
000001e0: 4a98 0bbf 766c 1dbf fc31 27be e0a5 aebe
000001f0: 7e88 073f 777f 19bf 878e c03e a362 b6be
00000200: 7d75 0dbe 1627 8abd 726b 523e 7084 53bd
00000210: 502f 773f 880e 243f 16ac 523f ed67 613f
00000220: 1639 e63e 3a0d d93e f980 10bf adf8 3cbf
00000230: c5ed 293f ae48 62bf 7f1f 07bf bf99 7c3e
00000240: 4838 c63e 86b7 f2bd cf2a 42bf 9cae 07be
00000250: 54dc 813f d4d8 f53e 768c 3dbe 0f23 07bf
00000260: 91ea 93bd 8753 f13e 3a4f d4be 077d b7be
00000270: fe04 143f 4959 d53e f299 f9bd 1990 07bf
00000280: 356c 433f 0d62 323f 8acb d03b 8457 e03d
00000290: b0d2 203f e8d0 8fbf ffd1 903f a313 91bd
000002a0: 0014 633d 1382 df3d b455 05bf 92f4 80be
000002b0: 97ee c3be 76a1 c23e 6ffd 093e 5718 8e3f
000002c0: 4f06 863f 3848 23bf 362b aa3e b166 71be
000002d0: 8f78 80bf 541c c1bf cc4f 343f 68c1 cb3e
000002e0: 95bf 32bf 3c76 b23c e567 6abe ae84 9bbd
000002f0: e2a4 0b3f 5946 81bd f7cf b6be a7a9 c4be
00000300: 9b18 5a3f 349c 973f 7f5a 953c 16c0 f4bd
00000310: 58a6 243f c0d2 303f d7bd 9bbe 00fb a93e
00000320: d26a 143f 5e01 b93e 5383 0bbe d871 63bf
00000330: 6560 90be af79 de3e d003 68be eeab 5abf
00000340: 9ee0 323f 0ed7 7b3c d360 c6be 041f 843f
00000350: 3cfd 42be f61f 0b3e 5c51 06bf 113b d0bc
00000360: 110e ad3e 24db e13e 970f ee3e 5ce7 76bf
00000370: 8558 1a3f ae36 8bbf c0bf b5be 1732 17be
00000380: 4739 aebc 904d eabe c78b 9c3e 931c 88bf
00000390: e9f7 3ebf 14f2 7abe add4 65be a2cb bb3e
000003a0: b1aa f33e 368d d13e 578b 4e3f 8594 3c3f
000003b0: bbc9 c93e 176e 95be d365 fa3e 27ad dcbe
000003c0: c968 c53e fc71 8bbf 1a3e aa3e 7d92 2d3f
000003d0: 8a70 65bc 5e7f 21bf d400 92be 0ef7 97be
000003e0: 0406 a2be 6cef ea3e 1751 e1be d4b4 10bf
000003f0: 6073 9a3f 4665 0f3f 14a1 a93e 8da9 f23e

rnn2.bias_ih f4 [100]
-0.13122688 -0.32256356 -0.7970099 0.09996529 0.10896502 0.31464052 0.5978212 -0.41320172
-0.18373288 0.10910985 0.67474043 0.43808985 0.3025335 0.7460195 -0.047515355 -0.36024836
0.5078888 0.759168 -0.7406291 1.2192401 -0.87298036 -0.103596166 0.18944107 0.1313468
0.35762677 0.408996 -0.12788273 1.2885695 -0.36246142 -0.3328398 -0.3882977 -1.1794844
0.38455537 -0.32742828 0.39693373 0.073678955 1.2958313 -0.24072465 0.75275344 0.10422901
-0.34472942 0.15235256 0.14252584 0.37120312 -0.28141764 0.015471306 -0.21701945 0.70245653
1.0917717 -0.4430204 0.04206707 0.10694662 -0.028184509 -0.027846098 0.058502138 0.6757076
0.7735765 0.08565638 0.04017852 0.4605885 0.86261624 0.18433143 0.4883157 -0.41195548
0.5422038 -0.61485434 -0.2990339 -0.89791787 -0.1329803 -0.6595883 -0.9894704 -0.5033483
-0.6460248 0.22177179 -0.17974268 0.25953597 0.35282254 -0.40724847 -0.7269457 -0.94544303
-0.21416931 -0.057128333 -0.3793344 0.09898961 0.022617305 0.22508928 -0.7293868 -0.25644806
1.4670528 0.33919382 -0.16586389 -0.69334143 1.1962738 -0.024997683 0.0059937565 1.061206
-1.3086996 -0.07282561 0.048197135 0.45236817
00000000: 5760 06be 0d27 a5be d708 4cbf 9aba cc3d
00000010: 0d29 df3d 9018 a13e cf0a 193f 2d8f d3be
00000020: 7924 3cbe fc74 df3d cabb 2c3f 504d e03e
00000030: ace5 9a3e 22fb 3e3f 769f 42bd 7972 b8be
00000040: 0005 023f d658 423f de99 3dbf 0f10 9c3f
00000050: a47b 5fbf 3a2a d4bd d7fc 413e c77f 063e
00000060: db1a b73e ec67 d13e b1f3 02be d8ef a43f
00000070: 8b94 b9be fa69 aabe f5ce c6be 58f9 96bf
00000080: 71e4 c43e aea4 a7be e63a cb3e fee4 963d
00000090: cddd a53f 8680 76be 73b4 403f 0576 d53d
000000a0: 6080 b0be 4f02 1c3e 4bf2 113e 560e be3e
000000b0: f915 90be 5c7b 7d3c 593a 5ebe 31d4 333f
000000c0: 2dbf 8b3f 92d3 e2be 854e 2c3d d406 db3d
000000d0: 33e3 e6bc 801d e4bc f09f 6f3d 2cfb 2c3f
000000e0: 1c09 463f 9d6c af3d 3b92 243d 42d2 eb3e
000000f0: 6bd4 5c3f 61c1 3c3e 8404 fa3e d4eb d2be
00000100: decd 0a3f 1867 1dbf f91a 99be f2dd 65bf
00000110: fd2b 08be c7da 28bf ef4d 7dbf 6fdb 00bf
00000120: e261 25bf 2518 633e 770e 38be e6e1 843e
00000130: 28a5 b43e df82 d0be 1d19 3abf 8e08 72bf
00000140: 334f 5bbe 66ff 69bd 1e38 c2be 11bb ca3d
00000150: ed47 b93c ce7d 663e 18b9 3abf 294d 83be
00000160: 63c8 bb3f d0aa ad3e 39d8 29be d37e 31bf
00000170: 801f 993f f1c7 ccbc 4667 c43b 99d5 873f
00000180: 7883 a7bf 9825 95bd 5c6a 453d cd9c e73e

rnn2.bias_hh f4 [100]
-0.027357006 -0.41900352 -0.7341567 5.1933057e-06 -0.007989093 0.39384764 0.49476925 -0.34435004
-0.2985543 0.026716556 0.6335732 0.4045335 0.12308105 0.56353533 0.015920335 -0.3785959
0.552798 0.9085736 -0.88373196 1.0978221 -0.9188201 0.03840749 0.20928168 -0.0008152991
0.29346743 0.5138721 -0.18580805 1.297606 -0.5401325 -0.25971213 -0.4582041 -1.2506522
0.36485416 -0.37934327 0.4273445 0.058213327 1.2465749 -0.3358142 0.718282 0.2609086
-0.370274 0.15764739 0.1075865 0.3138092 -0.22357951 0.043129437 -0.2970816 0.59643316
0.94115615 -0.38151094 0.043481484 0.09876161 -0.075829774 -0.030294064 0.24679567 0.67430377
0.7144284 0.19823678 0.037616394 0.62257886 0.7663038 0.17477295 0.46025655 -0.4199633
0.49581262 -0.6353232 -0.40960377 -0.90330935 -0.26540643 -0.6795042 -0.96843344 -0.5912024
-0.56500936 0.34646335 -0.099502504 0.27229998 0.2601702 -0.30336246 -0.78985155 -1.1258197
-0.18571916 -0.12312785 -0.3780992 0.10683833 0.13694634 0.22905844 -0.87471634 -0.21684043
1.5226282 0.2893344 -0.1206753 -0.5165089 1.1442719 0.011285849 0.038385853 0.9418365
-1.3355165 -0.058090653 0.06345003 0.4396715
00000000: cd1b e0bc a187 d6be b2f1 3bbf 2842 ae36
00000010: afe4 02bc 66a6 c93e 6552 fd3e a64e b0be
00000020: 1cdc 98be aedc da3c da31 223f 041f cf3e
00000030: eb11 fc3d da43 103f 5d6b 823c 52d7 c1be
00000040: 2b84 0d3f 4898 683f 423c 62bf 6f85 8c3f
00000050: cb37 6bbf 2c51 1d3d f04d 563e ccb9 55ba
00000060: 5d41 963e 1f8d 033f 7744 3ebe f417 a63f
00000070: 2046 0abf fdf8 84be ba99 eabe 5f15 a0bf
00000080: 2ace ba3e 4839 c2be e6cc da3e 1971 6e3d
00000090: c48f 9f3f d7ef abbe 54e1 373f d095 853e
000000a0: 8e94 bdbe 516e 213e 5056 dc3d 99ab a03e
000000b0: 07f2 64be 7ea8 303d 141b 98be d8af 183f
000000c0: 9cef 703f 6755 c3be a419 323d 8743 ca3d
000000d0: a44c 9bbd 422b f8bc 01b8 7c3e 2c9f 2c3f
000000e0: c8e4 363f 95fe 4a3e a613 1a3d 5461 1f3f
000000f0: 7c2c 443f aef7 323e bfa6 eb3e 6e05 d7be
00000100: 27db fd3e 8ba4 22bf 96b7 d1be 483f 67bf
00000110: 5ae3 87be fdf3 2dbf 41eb 77bf 0a59 17bf
00000120: 74a4 10bf a563 b13e f8c7 cbbd e76a 8b3e
00000130: 0735 853e 5352 9bbe b633 4abf dc1a 90bf
00000140: 2a2d 3ebe 742a fcbd 3896 c1be 0ece da3d
00000150: a93b 0c3e 4c8e 6a3e 69ed 5fbf 6b0b 5ebe
00000160: 7be5 c23f a323 943e 9d24 f7bd ed39 04bf
00000170: 8077 923f 48e8 383c 7c3a 1d3d 321c 713f
00000180: 34f2 aabf 77f0 6dbd 17f2 813d 9f1c e13e

rnn3.weight_ih f4 [100, 100]
-0.32559854 0.5700781 0.5313345 0.006368577 0.2568445 -0.42994863 0.3998716 0.08353766
-0.12388691 -0.34719312 0.38167083 -0.71852505 0.15708344 0.18251173 0.33658412 0.20995185
0.33711267 -0.7811675 -0.14009207 0.6736486 -0.6373224 0.6766322 0.13797261 0.4091837
0.66774917 0.04230317 -0.16337128 1.18976 0.27765822 -0.12662303 -0.5818067 -0.6751737
0.7293995 -0.40377223 0.39456365 0.18310921 0.098610684 -0.09759788 0.4839642 -0.36589065
-0.10620061 0.7262287 -0.32134563 0.23868808 -0.1933001 -0.076844215 0.11246262 -0.16349107
-0.6683618 -0.3183867 0.637425 -0.7015551 -0.004806919 -0.08192714 0.14894073 -0.3027761
-0.13174511 -0.14449562 -0.40985122 -0.21487728 -0.49060434 0.2388539 -0.6118761 0.019896993
-1.1193906 -0.49993256 -0.21793167 0.008982132 -0.16289417 0.6064622 -0.09450061 0.34117618
-0.34376088 -0.0076800254 -0.4806608 0.14628585 -0.50081694 0.13800335 -0.52565515 0.03590981
-0.93482816 0.21477066 0.24358557 0.5204874 -0.5095753 -0.30803493 -0.20044006 -0.030532345
0.3097533 -0.067211434 -0.28109112 0.6429946 0.08395181 1.0760962 -0.12743655 -0.8957737
0.33037457 0.45321867 -0.50027865 0.97613966 -0.9696124 0.32937434 -0.28822115 0.016422357
1.2034954 -0.63106656 -0.56354636 0.14971326 -0.12445864 0.35196146 0.09728081 0.09838434
-0.9864348 -0.4322488 -1.1881586 0.06105589 0.038298488 0.43337908 -0.7627132 -0.83557725
0.38000232 0.79835886 -0.3296876 0.51232165 0.04093645 -0.16157243 0.20431149 -0.33567357
0.55925906 -0.06284355 0.69875664 -0.27666453 0.4462676 -0.28033227 -0.8427007 0.91034216
-0.48624012 -0.5375249 0.7822212 -0.76542294 0.11235203 0.53773487 -0.61233 -0.13972406
0.33072457 -1.038735 0.18481477 -0.91371995 0.15543558 -0.41639206 -0.30610722 0.26092005
-1.0976394 0.6051722 0.9551886 -0.28987092 -1.115342 0.74890834 0.19910584 -0.16910641
-0.8436282 -0.0010997304 -0.22271761 0.40800783 0.4803962 0.0034283109 0.63700116 -0.4914078
0.030142007 -0.39390343 -0.36793536 -0.298009 0.68940735 0.11408454 -0.29843774 0.33782414
0.2598944 0.5025141 -0.25441644 -0.32946235 0.01654737 0.3332539 -0.017749079 0.6355686
-1.2156563 0.22260974 -0.07043309 -0.523244 -0.020591298 -0.051249288 -0.24649578 -0.8203409
0.22843042 0.27115792 -0.20081289 -0.060021404 0.09999009 -0.084512085 0.9097851 0.25238866
0.44972813 0.25758696 -0.42215076 -0.051598344 0.14321692 -0.7753057 0.70673436 0.33766407
-0.025263226 -0.5066423 0.087588646 0.11417122 0.9022973 0.68212897 0.10865425 0.65950125
-0.25037932 -0.48225927 0.07388439 -0.47098735 1.0373112 0.29800054 -0.38238442 -0.44271868
-0.1220993 -0.3698514 -0.22513448 -0.8866767 0.010631876 -0.19960225 -0.20687112 0.74125314
-0.087350085 -0.026828373 0.34729558 0.720843 -0.14765537 0.66402644 -0.29838005 -1.0723085
0.64444363 0.06955664 -0.5179454 0.3860166 0.1465392 -0.86016935 0.78061044 -0.3776414
-0.46011704 0.88343954 -0.50587475 -0.39147556 0.5077833 0.5028747 -0.5788036 -0.3432679
00000000: dab4 a6be a3f0 113f 8a05 083f 7faf d03b
00000010: 1f81 833e 3a22 dcbe f8bb cc3e cb15 ab3d
00000020: 6cb8 fdbd 4cc3 b1be 5c6a c33e 42f1 37bf
00000030: 7bda 203e 5be4 3a3e c154 ac3e 9efd 563e
00000040: 089a ac3e 98fa 47bf 4c74 0fbe 3c74 2c3f
00000050: 9027 23bf c537 2d3f b148 0d3e 8780 d13e
00000060: 9cf1 2a3f 1746 2d3d cd4a 27be 0e4a 983f
00000070: 3829 8e3e 78a9 01be 49f1 14bf 2fd8 2cbf
00000080: edb9 3a3f 3cbb cebe 3f04 ca3e fb80 3b3e
00000090: 66f4 c93d 66e1 c7bd 28ca f73e 0556 bbbe
000000a0: b57f d9bd 20ea 393f 6a87 a4be a66a 743e
000000b0: 76f0 45be 8060 9dbd cd52 e63d 346a 27be
000000c0: c219 2bbf 9503 a3be 492e 233f 1d99 33bf
000000d0: 5c83 9dbb 6bc9 a7bd eb83 183e 7805 9bbe
000000e0: 31e8 06be a9f6 13be 05d8 d1be ca08 5cbe
000000f0: 7e30 fbbe 1e96 743e e9a3 1cbf 05ff a23c
00000100: 3148 8fbf 29f7 ffbe 7b29 5fbe cb29 133c
00000110: bbcd 26be 1b41 1b3f 8989 c1bd a5ae ae3e
00000120: 6d01 b0be b9a8 fbbb 2c19 f6be f5cb 153e
00000130: 8a35 00bf c050 0d3e 5691 06bf 2a16 133d
00000140: e650 6fbf d7ec 5b3e 7f6e 793e aa3e 053f
00000150: 8773 02bf c1b6 9dbe 2940 4dbe f81e fabc
00000160: fc97 9e3e 26a6 89bd 2deb 8fbe 4b9b 243f
00000170: edee ab3d 85bd 893f ba7e 02be 6d51 65bf
00000180: db26 a93e 470c e83e 4312 00bf 4ae4 793f
00000190: 8538 78bf c1a3 a83e b991 93be 2e88 863c
000001a0: 230c 9a3f 948d 21bf 9344 10bf 6f4e 193e
000001b0: 2ce4 febd 4b34 b43e 293b c73d bb7d c93d
000001c0: fe86 7cbf b74f ddbe 9515 98bf be15 7a3d
000001d0: e0de 1c3d dde3 dd3e 2c41 43bf 64e8 55bf
000001e0: aa8f c23e 3f61 4c3f d0cc a8be 8327 033f
000001f0: fbac 273d 3e73 25be 0837 513e 68dd abbe
00000200: 9a2b 0f3f 1fb4 80bd b7e1 323f f9a6 8dbe
00000210: 307d e43e b687 8fbe 3cbb 57bf 2f0c 693f
00000220: 77f4 f8be 3b9b 09bf a63f 483f c2f2 43bf
00000230: d218 e63d fea8 093f a9c1 1cbf d313 0fbe
00000240: bb54 a93e 45f5 84bf 1540 3d3e 8de9 69bf
00000250: 812a 1f3e 5731 d5be 16ba 9cbe 5097 853e
00000260: 737f 8cbf 91ec 1a3f 3d87 743f f669 94be
00000270: 87c3 8ebf 75b8 3f3f 67e2 4b3e 3b2a 2dbe
00000280: 05f8 57bf d424 90ba 1610 64be 67e6 d03e
00000290: 7ef6 f53e 83ad 603b 8212 233f ce99 fbbe
000002a0: 5fec f63c b6ad c9be 0662 bcbe a394 98be
000002b0: 007d 303f 28a5 e93d d5cc 98be 49f7 ac3e
000002c0: e110 853e c4a4 003f df42 82be 4aaf a8be
000002d0: 5a8e 873c 41a0 aa3e 8466 91bc a0b4 223f
000002e0: a09a 9bbf cff3 633e 393f 90bd 52f3 05bf
000002f0: 15af a8bc c6ea 51bd 6469 7cbe dc01 52bf
00000300: aae9 693e 36d5 8a3e e5a1 4dbe 01d9 75bd
00000310: 9bc7 cc3d ac14 adbd ade7 683f 1639 813e
00000320: c442 e63e 70e2 833e 2524 d8be c958 53bd
00000330: 75a7 123e 6f7a 46bf 8bec 343f 4ee2 ac3e
00000340: d3f4 cebc 4fb3 01bf ad61 b33d 9ad2 e93d
00000350: f5fc 663f 01a0 2e3f 1f86 de3d 13d5 283f
00000360: b831 80be b0ea f6be b350 973d 4125 f1be
00000370: 9dc6 843f 8793 983e e4c7 c3be 06ac e2be
00000380: 330f fabd 2a5d bdbe a789 66be 3ffd 62bf
00000390: 5231 2e3c 8864 4cbe 06d6 53be c4c2 3d3f
000003a0: 9ae4 b2bd 2dc7 dbbc bad0 b13e 2b89 383f
000003b0: f832 17be a3fd 293f 45c5 98be 6841 89bf
000003c0: 42fa 243f b673 8e3d 1298 04bf f8a3 c53e
000003d0: 5f0e 163e 0f34 5cbf 16d6 473f 375a c1be
000003e0: 7694 ebbe 1829 623f 0281 01bf 7c6f c8be
000003f0: 16fe 013f 65bc 003f 792c 14bf cfc0 afbe

rnn3.weight_hh f4 [100, 100]
-0.1275849 0.3157726 -0.41104925 0.29235658 -0.57257813 -0.3635443 -0.15115649 0.4085962
-0.32510006 0.079175025 0.92039955 0.5352542 -0.81618774 0.8560146 0.13376856 1.1638625
-0.29205343 -0.6657431 -0.8639735 -0.19653739 0.7373101 1.193213 0.13552731 0.3140156
0.6193525 -0.6333558 -0.83542264 0.4383191 -1.0227329 -1.1683418 -1.0295393 -1.078557
0.5004395 -0.19281477 -0.09323986 -0.5025237 -0.5227567 0.61663675 0.63293356 0.15313701
0.19933292 -0.7374856 0.2862691 -0.36127254 -0.4666988 1.0517697 1.0461106 0.933499
-0.7889186 -0.51565224 0.9337365 -0.31728277 -0.04186934 -0.56649786 -0.5249685 -0.009576339
-0.5008209 1.077799 0.28592846 -0.28321448 -0.43412066 0.21565945 -0.29955158 1.014494
0.52366567 0.66191775 0.7233801 -0.60875213 0.93663627 -0.3759509 -0.720202 -0.13218893
-0.9860788 0.16003369 -0.3927606 0.27397725 0.8393952 -0.7460801 0.17240031 -0.8803818
-0.6869614 0.34827498 0.5798151 -0.67619455 0.84747094 -0.22860678 0.040299524 -0.36221492
-0.47209203 0.66043365 -0.0864622 -1.2738103 1.7654198 0.35360825 -0.2224475 0.977902
1.2953831 0.35921854 1.1277437 -0.6364149 0.20778738 -0.52263856 -0.5839658 0.2821791
-0.5960626 -0.84421283 0.19356467 0.2953259 0.8735297 0.40441886 0.061786123 0.31281236
-0.3568464 0.49629492 -0.5383861 0.76637274 -0.73269117 -0.3591707 -0.84747946 0.09851505
0.3724377 0.35015753 -0.14769723 -0.09226551 0.5276777 -0.47303241 -0.8245358 0.49691704
0.04214582 -0.4076615 -0.8944286 0.105668396 0.12478757 -0.09181429 -0.68174815 0.36056888
0.36769703 0.6460277 0.43226337 -0.17524484 0.4681543 -0.3763149 0.10899237 -0.30544043
-0.7265461 0.6646462 0.4024989 -0.4003254 -0.5935755 0.1368098 0.79351115 0.23973185
0.6958942 -0.37911722 -0.76045257 0.59261155 -0.8318273 0.29585084 -0.04342513 -0.2023614
-0.3717095 0.75326645 -0.7889553 0.7109931 0.85209256 0.38091958 0.530904 -0.20770583
0.48874438 -0.35224134 -0.7849637 0.36723575 -0.95709556 0.38189426 -0.5909264 -0.28107262
0.79931736 -0.4905396 -0.15350246 -0.19649701 -0.112454884 0.39713427 0.73093647 -0.99993265
0.37437466 -0.26872468 0.07681111 -1.1135806 -0.27815506 0.5482585 0.2264612 -1.0659162
0.34443685 0.42660284 -0.91156733 0.40474516 0.21917959 0.21397977 0.52706367 -0.21522267
-0.2594965 0.08744341 1.6441673 0.06230651 0.73116606 0.11729541 -0.43736026 -0.83597624
0.8489526 -0.015570721 -0.102975294 -0.124914624 -0.07244125 -0.9539268 0.59148425 -0.9302029
0.670671 1.570344 0.4363358 -0.10561609 -0.14623901 -1.3521054 -0.38577014 0.2700677
-0.56959534 1.356607 0.49878195 0.075278185 0.69442093 0.32160622 0.70037436 -0.014355129
-0.021207104 0.81598717 1.0771843 0.34256303 0.4682589 -0.4895561 0.3473343 0.03306042
0.15244381 0.45543635 0.56584173 0.6264306 0.47696626 -0.727143 0.41374 -0.45295194
0.63595784 0.62785196 -0.25802505 -0.32379618 0.27023828 0.8428777 0.9140085 -0.4692003
00000000: 9ea5 02be f2ac a13e 0c75 d2be c3af 953e
00000010: 7b94 12bf 7a22 babe c4c8 1abe 8533 d13e
00000020: 8473 a6be 8426 a23d 4e9f 6b3f 6b06 093f
00000030: aef1 50bf c623 5b3f a0fa 083e 72f9 943f
00000040: 0788 95be 246e 2abf 5e2d 5dbf 1941 49be
00000050: 5bc0 3c3f 34bb 983f acc7 0a3e a7c6 a03e
00000060: e38d 1e3f 9b23 22bf 42de 55bf 5c6b e03e
00000070: e9e8 82bf 398c 95bf f2c7 83bf 280e 8abf
00000080: ce1c 003f 3c71 45be 8af4 bebd 65a5 00bf
00000090: 62d3 05bf e8db 1d3f ef07 223f f3cf 1c3e
000000a0: ee1d 4c3e dbcb 3cbf dd91 923e b7f8 b8be
000000b0: 25f3 eebe 64a0 863f f4e6 853f caf9 6e3f
000000c0: 92f6 49bf c901 04bf 5b09 6f3f e372 a2be
000000d0: 2f7f 2bbd 0106 11bf 5664 06bf 14e6 1cbc
000000e0: cc35 00bf 51f5 893f 3765 923e 7d01 91be
000000f0: 1045 debe d5d5 5c3e d35e 99be f0da 813f
00000100: f40e 063f 7173 293f 702f 393f 2ed7 1bbf
00000110: 65c7 6f3f a37c c0be 295f 38bf 895c 07be
00000120: a96f 7cbf dfdf 233e eb17 c9be bf46 8c3e
00000130: 9be2 563f 1bff 3ebf b589 303e b460 61bf
00000140: b4dc 2fbf 1951 b23e c36e 143f 161b 2dbf
00000150: dbf3 583f e517 6abe 1d11 253d 3c74 b9be
00000160: 0cb6 f1be 2e12 293f 1813 b1bd 370c a3bf
00000170: 47f9 e13f 240c b53e 47c9 63be c957 7a3f
00000180: 1dcf a53f 7eeb b73e e859 903f 16ec 22bf
00000190: 37c6 543e a4cb 05bf c87e 15bf c779 903e
000001a0: 8f97 18bf 551e 58bf d135 463e f534 973e
000001b0: a49f 5f3f fd0f cf3e 7213 7d3d f128 a03e
000001c0: 92b4 b6be 5e1a fe3e acd3 09bf 0131 443f
000001d0: a691 3bbf 39e5 b7be 6af4 58bf 42c2 c93d
000001e0: 27b0 be3e d947 b33e f13d 17be b3f5 bcbd
000001f0: e315 073f 4e31 f2be c714 53bf e96b fe3e
00000200: 18a1 2c3d 02b9 d0be 46f9 64bf ac68 d83d
00000210: a090 ff3d 2109 bcbd 0c87 2ebf 7c9c b83e
00000220: c942 bc3e 1262 253f a051 dd3e 6273 33be
00000230: ecb1 ef3e 59ac c0be 6437 df3d b062 9cbe
00000240: edfe 39bf 4126 2a3f 5614 ce3e 73f7 ccbe
00000250: 90f4 17bf de17 0c3e 8c23 4b3f 447c 753e
00000260: 1f26 323f a71b c2be 05ad 42bf 64b5 173f
00000270: a2f2 54bf c379 973e 8dde 31bd d437 4fbe
00000280: b550 bebe 12d6 403f f9f8 49bf a503 363f
00000290: bd22 5a3f e407 c33e 53e9 073f d6b0 54be
000002a0: b43c fa3e fa58 b4be 62f3 48bf 5306 bc3e
000002b0: 3704 75bf a587 c33e f446 17bf c0e8 8fbe
000002c0: 10a0 4c3f 0228 fbbe c02f 1dbe 8336 49be
000002d0: bf4e e6bd 2f55 cb3e a71e 3b3f 96fb 7fbf
000002e0: 09ae bf3e 4896 89be 254f 9d3d cf89 8ebf
000002f0: 576a 8ebe ab5a 0c3f 72e5 673e f16f 88bf
00000300: 075a b03e b06b da3e 7a5c 69bf c23a cf3e
00000310: 9d70 603e 831d 5b3e a5ed 063f 5563 5cbe
00000320: badc 84be 8815 b33d 1374 d23f 1c35 7f3d
00000330: b32d 3b3f 9338 f03d afed dfbe 8a02 56bf
00000340: f554 593f 561c 7fbc b6e4 d2bd 3dd3 ffbd
00000350: 145c 94bd 8c34 74bf 836b 173f c721 6ebf
00000360: 18b1 2b3f 0801 c93f 6867 df3e 404d d8bd
00000370: aebf 15be ca11 adbf aa83 c5be 5046 8a3e
00000380: 00d1 11bf 4ca5 ad3f 5960 ff3e 732b 9a3d
00000390: 92c5 313f 92a9 a43e bc4b 333f c631 6bbc
000003a0: 85ba adbc 89e4 503f 2de1 893f 6c64 af3e
000003b0: a1bf ef3e 19a7 fabe cdd5 b13e 5d6a 073d
000003c0: 3b1a 1c3e f42e e93e 01db 103f c15d 203f
000003d0: ec34 f43e 0b26 3abf bbd5 d33e 51e9 e7be
000003e0: 22ce 223f e8ba 203f dc1b 84be 9dc8 a5be
000003f0: ac5c 8a3e d5c6 573f 76fc 693f 063b f0be

rnn3.bias_ih f4 [100]
0.35325247 3.29242e-05 -1.1403337 0.9637034 -0.30057347 -0.99119806 0.22036378 -0.21518256
-0.49152848 0.35476783 0.6917022 0.6693255 -0.85711145 0.8495494 0.030539768 0.88352454
-0.76261336 -0.7137268 -1.2650616 -0.009243263 0.44361794 0.7602374 0.046529118 0.9283406
0.0034879248 -0.84345126 -1.0185856 0.93171597 -0.026377345 -0.19729534 -1.0235915 -0.65082663
0.2765453 -0.60610783 -0.3361866 -0.26596218 0.7119325 0.54005766 0.07208961 -0.86041546
0.34963745 -0.58400875 0.4097438 -0.14574352 -1.1114242 0.24741618 0.27663848 0.34694666
-0.25466 -0.28610224 0.9390611 -0.41428384 -0.3566863 0.42280316 -1.3589616 0.15235817
-1.007978 1.0353934 -0.30196905 0.7657244 -0.53074676 0.65036535 -1.0591305 1.2514784
0.989464 0.5763504 0.8373558 -0.6826417 0.5987885 0.24121107 -0.86487794 -0.27499032
-0.90301764 0.20874411 -0.1497513 1.0402763 1.3684906 -0.43376243 -0.6494349 -0.14342092
-0.0018363562 0.69572985 0.9599618 -1.2798979 0.32536477 0.57797575 -0.33215228 -1.2491975
-0.2029807 0.40883037 0.0021930553 -1.3042507 0.75716853 0.84616786 -1.3475844 0.2674535
0.103162006 0.39281654 0.8215153 -0.21850613
00000000: 82dd b43e 1718 0a38 74f6 91bf 44b5 763f
00000010: c4e4 99be 28bf 7dbf 0ba7 613e d158 5cbe
00000020: 9fa9 fbbe 21a4 b53e 6513 313f ea58 2b3f
00000030: a86b 5bbf 127c 593f 892e fa3c aa2e 623f
00000040: a13a 43bf cdb6 36bf 8aed a1bf 0e71 17bc
00000050: e421 e33e eb9e 423f 5195 3e3d bba7 6d3f
00000060: ab95 643b 6cec 57bf 0361 82bf f084 6e3f
00000070: 4d15 d8bc ca07 4abe 0c05 83bf 939c 26bf
00000080: 5897 8d3e e229 1bbf a620 acbe 322c 88be
00000090: 3541 363f 3841 0a3f b8a3 933d 3044 5cbf
000000a0: ae03 b33e 9981 15bf f0c9 d13e ca3d 15be
000000b0: 2643 8ebf ab5a 7d3e 8fa3 8d3e fea2 b13e
000000c0: cc62 82be fe7b 92be 4f66 703f 031d d4be
000000d0: 969f b6be a879 d83e 74f2 adbf c803 1c3e
000000e0: 6c05 81bf c587 843f b09b 9abe 8406 443f
000000f0: 05df 07bf 587e 263f 9791 87bf 7230 a03f
00000100: 834d 7d3f b38b 133f f35c 563f 9bc1 2ebf
00000110: 344a 193f 0900 773e a468 5dbf 88cb 8cbe
00000120: 2a2c 67bf 04c1 553e 6858 19be c627 853f
00000130: b32a af3f 1c16 debe 5e41 26bf efdc 12be
00000140: e4b1 f0ba 5a1b 323f 0ec0 753f b2d3 a3bf
00000150: 3696 a63e 38f6 133f dd0f aabe b4e5 9fbf
00000160: 2cda 4fbe 3752 d13e 5db9 0f3b b0f1 a6bf
00000170: ccd5 413f 759e 583f a57d acbf aaef 883e
00000180: 9a46 d33d 401f c93e d44e 523f 12c0 5fbe
