Results/Complete Sherlock Holmes/GRU/ASGD/1/200/model.pt (torch, 807519 bytes, 6 tensors)

rnn.weight_ih f4 [600, 100]
0	0xbf1778e4	-0.5916884
1	0xbefadafa	-0.4899519
2	0xbf32f28a	-0.69901335
3	0xbed844c4	-0.42239964
4	0x3f24bb1e	0.6434802
5	0xbed42608	-0.41435266
6	0x3ef6ed5c	0.48227966
7	0x3faf1283	1.3677524
8	0xbe850025	-0.25976673
9	0xbed3e016	-0.41381902
10	0x4034e233	2.826306
11	0x40261f03	2.5956428
12	0xbf7cc82e	-0.9874295
13	0x3f8be767	1.0929993
14	0xc05bbe06	-3.433473
15	0xbec44d03	-0.38340005
16	0x3d93b823	0.07212856
17	0x3f43151a	0.76204073
18	0x3d17ecfc	0.03709124
19	0xbf7711f4	-0.9651177
20	0xbf17f11a	-0.59352267
21	0x3fb05a8a	1.377763
22	0xbfea51e3	-1.830624
23	0x4068f499	3.639929
24	0xbf8851b7	-1.0649937
25	0x3efab015	0.48962465
26	0x3f31ffe6	0.69531095
27	0xbf8a4d0f	-1.0804766
28	0xc03eafd5	-2.979482
29	0xc0171d5e	-2.3611674
30	0x3f97f1ec	1.1870704
31	0x3e03dca1	0.12877132
32	0xc022b543	-2.5423133
33	0xbefce4f6	-0.49393433
34	0x3e7fbfaa	0.24975458
35	0x3f71b0d0	0.9441042
36	0x3e0502d2	0.12989357
37	0x3f434bca	0.7628752
38	0xbe2cf0da	-0.16888753
39	0x3f0dc876	0.55384004
40	0xbdb4b167	-0.08822899
41	0x3f64a2b5	0.8931077
42	0xbf5dd365	-0.8665069
43	0xbf718eb6	-0.94358385
44	0x3fb19bbb	1.387565
45	0xbfa078c9	-1.2536861
46	0xbdee95c5	-0.1164966
47	0xbed4aa94	-0.4153639
48	0xbfd72264	-1.680737
49	0x3e312985	0.17300995
50	0xbf15f248	-0.58572817
51	0x3ed35c7e	0.41281503
52	0x3f37d560	0.7180996
53	0x3dc1a3f3	0.09455099
54	0x3f37637a	0.71636164
55	0x3fd47468	1.6598024
56	0x3e872c33	0.2640091
57	0xbf83f32e	-1.0308588
58	0xbe8374cf	-0.25675055
59	0x3e09b999	0.13449706
60	0x3fcd25b7	1.6027135
61	0x3e2cb379	0.16865338
62	0x3f3b7def	0.73239034
63	0x3e93173c	0.28728664
64	0x3d4f873c	0.05066608
65	0x3c5708b0	0.01312463
66	0xbd1e024b	-0.038576405
67	0x3e42229b	0.18958513
68	0xbf445e61	-0.7670651
69	0x3ecfd69c	0.4059342
70	0x3c75a07f	0.0149918785
71	0xbde4b6a1	-0.11167646
72	0x3b8e4cc0	0.0043426454
73	0xbf4c5aef	-0.79826254
74	0x3c9f7250	0.019463688
75	0xbf675fe6	-0.90380704
76	0x3d6e6b1a	0.05820761
77	0xbceac6df	-0.028659282
78	0xbf89e0b2	-1.0771697
79	0xbd64f91d	-0.055901635
80	0xbd7d95c8	-0.06191042
81	0x3be87c00	0.00709486
82	0xbf80098b	-1.0002912
83	0xbd730493	-0.059330534
84	0xbf247846	-0.6424602
85	0x3cb3a9e8	0.021931604
86	0xbe98f337	-0.29873058
87	0xbd162756	-0.036658607
88	0xbd658694	-0.056036547
89	0xbcf111aa	-0.029427368
90	0xbd2c8ffc	-0.0421295
91	0x3d4c09ae	0.04981392
92	0x3c5bb420	0.013409644
93	0xbc600fa8	-0.013675608
94	0xc05fd54a	-3.4973931
95	0x3c89b378	0.01680921
96	0xbf7acccc	-0.97968745
97	0xbc86251e	-0.01637512
98	0x3d5672e6	0.05235567
99	0x3b32c680	0.002727896
100	0xbf6d26b2	-0.9263717
101	0xbfbab377	-1.4586018
102	0xbf4988a9	-0.7872415
103	0xbf316306	-0.6929172
104	0xbea91d27	-0.33030054
105	0x3e22805f	0.15869282
106	0xbeb26324	-0.34841263
107	0x3e18c90b	0.14920442
108	0xbda6276f	-0.0811299
109	0x3d21a5c8	0.039464742
110	0x3ea336a3	0.31877622
111	0x3f7df788	0.9920583
112	0xbea36037	-0.31909344
113	0x3fd1d9db	1.6394609
114	0xbfb6c6f9	-1.4279472
115	0x3fd4e40b	1.6632093
116	0xbf068293	-0.5254299
117	0x3f968672	1.175978
118	0x3eef4c75	0.4673802
119	0x3f0c3f8a	0.5478445
120	0xbed9a794	-0.42510664
121	0xbbbf1e9a	-0.0058325054
122	0x3fa8f721	1.3200418
123	0xbe808f71	-0.25109437
124	0x3f1a1a1e	0.601961
125	0x3f8615fc	1.0475459
126	0xbe4b313e	-0.19843003
127	0xbf887e2e	-1.0663507
128	0x3df47285	0.11935905
129	0x3e95fc91	0.29294255
130	0x3e987508	0.29776788
131	0xbe7f8856	-0.24954352
132	0x3f5232a5	0.8210853
133	0xbf929938	-1.1453009
134	0x3faa56d2	1.3307745
135	0x3e7edcce	0.24888918
136	0x3e6d616b	0.23181693
137	0xbf7fc1b8	-0.99904966
138	0x3d84f71b	0.06492444
139	0xbf2973b5	-0.6619218
140	0xbf1a6131	-0.6030455
141	0xbdc8fb3a	-0.09813543
142	0xbf11db31	-0.56975085
143	0xbe542c71	-0.20720078
144	0xbf995d96	-1.1981685
145	0xbf6e3f1f	-0.93065065
146	0xbf654028	-0.8955102
147	0x3fb60183	1.4219211
148	0xbfa48640	-1.285347
149	0xbe904906	-0.28180712
150	0xbeff53d9	-0.49868658
151	0xbf786af2	-0.97038186
152	0x3efdd984	0.49580014
153	0x3ee849ed	0.453689
154	0xbf3d3ff0	-0.73925686
155	0x3ed6849a	0.41898042
156	0xbf749a83	-0.95548266
157	0xbe8ca419	-0.27468947
158	0xbf0193b7	-0.5061602
159	0x3ebad026	0.3648693
160	0x3ed94e73	0.42442665
161	0x3e7fee04	0.2499314
162	0xbedc392e	-0.43012375
163	0xbf69a2f5	-0.9126428
164	0xbc21085c	-0.009828653
165	0xbca318fe	-0.019909378
166	0xbd7d466f	-0.06183475
167	0x3e09ff35	0.1347626
168	0xbf18865b	-0.5958001
169	0xbd98b53a	-0.07456441
170	0xbd4408f4	-0.0478601
171	0xbe0520d5	-0.13000806
172	0xbcf78d76	-0.030218821
173	0xbfc6d63a	-1.5534127
174	0xbfb45225	-1.4087569
175	0xbf916568	-1.1359072
176	0x3d6341ae	0.05548256
177	0xbf44c4e9	-0.7686296
178	0xbdda6d6a	-0.106654
179	0x3d85e367	0.06537514
180	0x3c727548	0.01479847
181	0x3d068810	0.032844603
182	0xbe6db3f2	-0.23213175
183	0xbd1b2d5c	-0.037885055
184	0xbe4c57cc	-0.19955367
185	0xbd1ad63c	-0.037801966
186	0xbf434b5a	-0.7628685
187	0x3d327830	0.04357165
188	0xbd85ef82	-0.06539823
189	0x3d6c5fea	0.05770866
190	0x3d61b536	0.055104457
191	0x38becc00	9.097904e-05
192	0xbd2bda0c	-0.041955993
193	0xbbb7b790	-0.005606599
194	0xbeb7b25a	-0.3587826
195	0xbd85cc74	-0.06533137
196	0x3f4d17ca	0.80114424
197	0x3d83288f	0.0640422
198	0x3d61949a	0.055073358
199	0xbd5c6b7a	-0.053813435
200	0x3dca406a	0.09875567
201	0xbeb21cde	-0.3478765
202	0x3d8bee63	0.06832578
203	0xbed88ad5	-0.4229342
204	0xbeb96260	-0.36207867
205	0xbeb6e5b6	-0.3572213
206	0xbdfa67d1	-0.12226833
207	0x3e1256a4	0.14290863
208	0xbf24b194	-0.6433346
209	0x3e5daeec	0.21648759
210	0xbec122a9	-0.37721756
211	0xbe5e3a59	-0.21701945
212	0xbc81d9a1	-0.015850844
213	0x3e7d068a	0.24709526
214	0x3e046cc4	0.12932116
215	0xbf3a6d42	-0.72822964
216	0xbf84f94d	-1.038858
217	0x3e084923	0.1330915
218	0xbe06712f	-0.13129114
219	0x3e811cf7	0.2521741
220	0xbefc23f6	-0.49246186
221	0xbf7818b2	-0.9691268
222	0xbecd99dd	-0.4015645
223	0xbeb88b9f	-0.36044022
224	0xbf5c78dd	-0.8612192
225	0xbf888312	-1.0665
226	0x3e29dd53	0.16588335
227	0x3efcca85	0.4937326
228	0xbea308b8	-0.3184259
229	0xbd9a7fc4	-0.075439006
230	0xbe07f414	-0.13276702
231	0xbf256ebb	-0.64622086
232	0xbf1458e8	-0.5794816
233	0x3f8347dd	1.0256306
234	0x3fc2f0d4	1.5229745
235	0x3e2886cb	0.1645767
236	0xbd87486b	-0.066056095
237	0xbe2e0f49	-0.16998018
238	0x3ed7f03a	0.42175466
239	0xbf19aa30	-0.6002531
240	0x3e9be5f2	0.30448872
241	0x3e095093	0.13409643
242	0xbeef369f	-0.4672136
243	0x3fc90660	1.570507
244	0x3d913c92	0.07091631
245	0x3f574606	0.8409122
246	0xbe3800c0	-0.17969036
247	0x3e5bf124	0.21478707
248	0xbd49f36a	-0.049304403
249	0x3ece2885	0.4026529
250	0x3f48f525	0.7849906
251	0x3e9d5576	0.30729264
252	0x3e32d468	0.17463839
253	0x3f4fa9f4	0.811187
254	0xbec295f4	-0.3800503
255	0x3b53196c	0.0032211198

rnn.weight_hh f4 [600, 200]
0	0xbf7bcced	-0.98359567
1	0x3f962183	1.1728977
2	0x3fcd5374	1.6041093
3	0xbefd4a7e	-0.49470896
4	0x3eb2196b	0.34785017
5	0xbeb5f1dc	-0.35536087
6	0x3ca6dda3	0.020369356
7	0xbeb12fdb	-0.34606823
8	0xbe5d6ba2	-0.2162309
9	0xbf115f56	-0.56786096
10	0x3f051f87	0.5200123
11	0x3c8a582f	0.016887752
12	0xbed8cc1e	-0.4234323
13	0xbe6877fb	-0.22702019
14	0x3f0042a5	0.5010169
15	0x3e38d3ca	0.18049541
16	0xbeebc990	-0.46052217
17	0x3d9c6270	0.07635963
18	0x3e9b1b9a	0.30294496
19	0x3e44fd59	0.1923727
20	0xbe4ec95f	-0.20194004
21	0x3eb87fd2	0.3603502
22	0xbe9c57e8	-0.30535817
23	0x3e33275c	0.17495483
24	0xbf9b1d2d	-1.2118279
25	0x3f0c8e8d	0.54905015
26	0xbe8d79fa	-0.27632123
27	0x3c49bfe0	0.012313813
28	0xbf15bbe1	-0.58489805
29	0x3ea0a59e	0.31376356
30	0xbf20fdd6	-0.6288732
31	0xbe630098	-0.22168195
32	0xbf6db261	-0.9285031
33	0x3e957b27	0.2919552
34	0xbef8748d	-0.4852642
35	0x3ec1704b	0.37780985
36	0x3f2d1e26	0.6762413
37	0xbe64d19c	-0.22345585
38	0x3e212b56	0.15739188
39	0x3d4ae123	0.049531113
40	0xbe42f930	-0.1904037
41	0x3f816389	1.0108501
42	0x3e6065db	0.21913855
43	0xbf01579d	-0.5052431
44	0x3ece895e	0.40339178
45	0xbdd26da2	-0.10274817
46	0xbe991328	-0.29897428
47	0xbf24e876	-0.6441721
48	0xbec269a5	-0.37971225
49	0xbd9bd478	-0.076088846
50	0xbf31e06b	-0.6948306
51	0x3d9f311b	0.07773038
52	0x3f6b239a	0.918512
53	0x3f624deb	0.88400143
54	0xbebe6cbb	-0.3719233
55	0x3efd491f	0.4946985
56	0x3e03def1	0.12878014
57	0xbe93deca	-0.28880912
58	0x3f1641fb	0.5869443
59	0x3ef9574e	0.4869942
60	0xbf9a0c49	-1.2034999
61	0x3ec8c403	0.39212045
62	0x3e13aade	0.1442065
63	0xbe116b83	-0.14201169
64	0x3d784e00	0.06062126
65	0xbed97a67	-0.42476198
66	0xbe53b6d5	-0.20675214
67	0x3ebdc96e	0.3706774
68	0xbdf4d095	-0.11953846
69	0x3e59e468	0.21278536
70	0x3f4593f1	0.77178866
71	0xbf3c6d02	-0.7360383
72	0xbfc2e42a	-1.522588
73	0xbf428358	-0.75981665
74	0xbf2b19f9	-0.66836506
75	0x3f21332a	0.62968695
76	0xbea5a8b5	-0.32355276
77	0x3edfb80b	0.436951
78	0xbd8565c7	-0.06513553
79	0xbf0c5edc	-0.54832244
80	0xbf101386	-0.5627979
81	0x3f436a28	0.76333857
82	0xbe3cb23d	-0.18427368
83	0xbe7fa1c1	-0.24964048
84	0x3edf9ac1	0.43672755
85	0x3eec9c3e	0.46212953
86	0xbef1f91a	-0.47260362
87	0xbfb0fdda	-1.3827469
88	0xbe64b04b	-0.22332875
89	0x3f75801e	0.95898616
90	0x3ef38ad4	0.47566855
91	0xbc7a9875	-0.015295138
92	0xbef1ec29	-0.47250488
93	0xbf0f6965	-0.56020194
94	0xbf175205	-0.59109527
95	0xbf0166dd	-0.5054758
96	0x3d8b20db	0.06793376
97	0x3f0d2c1b	0.55145425
98	0xbea01a48	-0.3127005
99	0xbdb00a11	-0.0859567
100	0x3f3aa6e9	0.72910935
101	0x3dcc2fd0	0.09970057
102	0xbf54bc00	-0.83099365
103	0x3ebb052b	0.3652738
104	0xbdec07c7	-0.11524921
105	0xbea357ea	-0.3190301
106	0x3f7f2cd9	0.9967781
107	0x3f09cc88	0.53827715
108	0xbd261e86	-0.040556453
109	0xbe6cef59	-0.23138179
110	0x3ef0efbd	0.47057906
111	0x3dfef445	0.124489345
112	0x3e677cd9	0.2260622
113	0xbe99f807	-0.30072042
114	0xbf25e16b	-0.64797086
115	0xbf0be7cf	-0.54650587
116	0x3f476869	0.7789369
117	0xbe81a9a5	-0.2532474
118	0x3e732197	0.23743282
119	0x3f0aa714	0.5416119
120	0x3d3395df	0.0438441
121	0x3f19b7b7	0.6004595
122	0x3f18c7c2	0.59679806
123	0x3f4aaf5d	0.79173833
124	0x3f805759	1.0026656
125	0xbe1abe80	-0.15111732
126	0x3cdbf36a	0.026849467
127	0xbe16eb22	-0.14738134
128	0xbf70e311	-0.94096476
129	0xbf165a67	-0.58731693
130	0x3e1e1e16	0.15441164
131	0x3dc515da	0.096233085
132	0x3f44f65f	0.7693843
133	0xbf3d1513	-0.7386028
134	0xbe049af2	-0.12949732
135	0xbf613806	-0.8797611
136	0x3ecf369f	0.4047136
137	0x3f45794d	0.77138215
138	0xbe97adda	-0.29624826
139	0x3f21b80e	0.6317147
140	0x3e82045b	0.25393948
141	0x3ec4479c	0.38335884
142	0x3db7fb3b	0.08983465
143	0xbdf4b143	-0.119478725
144	0x3f016a70	0.50553036
145	0xbf292742	-0.6607553
146	0xbe5468f4	-0.20743161
147	0x3dd42dbe	0.10360287
148	0xbc577dc2	-0.013152542
149	0x3ee3723c	0.4442309
150	0x3f69ed41	0.91377646
151	0xbefed0aa	-0.49768573
152	0x3ee2e16a	0.44312602
153	0xbde7b7e6	-0.11314373
154	0xbf80fc13	-1.0076927
155	0xbdb8222b	-0.08990892
156	0xbf564d85	-0.83712035
157	0xbf72a6b3	-0.9478561
158	0xbe9697bf	-0.29412648
159	0xbf18e27b	-0.5972058
160	0x3e20b680	0.15694618
161	0xbec477cf	-0.38372657
162	0x3d6e3426	0.0581552
163	0x3e14e851	0.14541747
164	0xbf0c6154	-0.5483601
165	0xbf0f8f89	-0.5607839
166	0x3f4b608f	0.7944421
167	0x3effc644	0.49955952
168	0x3ee1386b	0.43988356
169	0xbe83696a	-0.25666362
170	0x3f62eeea	0.88645804
171	0xbea7c711	-0.32769063
172	0xbe57fd92	-0.21092823
173	0x3eac2481	0.336216
174	0x3f1069e8	0.564116
175	0xbe4a36ae	-0.19747421
176	0xbf2cd001	-0.6750489
177	0x3fa1c475	1.2638079
178	0xbf99bd23	-1.2010845
179	0xbf3a3ca0	-0.72748756
180	0xbe0f3e17	-0.13988529
181	0xbd16ccec	-0.036816522
182	0x3f0d2661	0.55136687
183	0xbdca729f	-0.098851435
184	0x3f5086e1	0.8145581
185	0x3f184e48	0.5949445
186	0x3f77018d	0.9648674
187	0xbf489e81	-0.7836686
188	0x3f10f66a	0.56626
189	0xbe399ae7	-0.18125497
190	0x3e7095fc	0.23494714
191	0xbf88c0f5	-1.0683886
192	0x3de23b72	0.110464945
193	0x3f63403e	0.887699
194	0x3ef7eab0	0.4842124
195	0xbd255ec8	-0.040373594
196	0xbee3803c	-0.44433773
197	0xbf09b1f5	-0.53787166
198	0xbbabe09a	-0.0052452805
199	0x3ea69abb	0.32539925
200	0x3f8e39ab	1.1111349
201	0xbf4851d5	-0.78249866
202	0xbf0fded7	-0.561994
203	0x3f2c81ca	0.6738554
204	0xbf0da0f5	-0.55323726
205	0x3f6e231d	0.9302233
206	0x3f829799	1.0202514
207	0x3ef4af6b	0.47790083
208	0xbe45e7b6	-0.19326672
209	0xbe5bdb10	-0.21470284
210	0x3fdf355a	1.7438157
211	0x3f8e3eab	1.1112875
212	0xbc8976fa	-0.016780365
213	0xbf3d0592	-0.73836625
214	0x3f4ad400	0.79229736
215	0x3f20f5e8	0.62875223
216	0x3e094e29	0.13408722
217	0x3e1656d0	0.14681554
218	0xbf615757	-0.88023895
219	0x3ead5a76	0.3385808
220	0x3dbbaf50	0.091642976
221	0xbf069be2	-0.5258161
222	0xbf43fce9	-0.76557785
223	0x3ec88b09	0.39168575
224	0x3ed470cf	0.41492316
225	0xbe3646b3	-0.17800407
226	0xbe8065b6	-0.250776
227	0xbf8ecbca	-1.1155941
228	0x3eef8cc7	0.46787092
229	0xbe6a292d	-0.2286727
230	0xbd6879df	-0.05675685
231	0x3e126308	0.1429559
232	0x3f368311	0.7129374
233	0xbf5535f8	-0.83285475
234	0x3e052f76	0.13006386
235	0x3f0ea3d2	0.5571872
236	0xbc9df581	-0.019282104
237	0xbf083193	-0.53200644
238	0x3edf4db1	0.4361396
239	0x3e935107	0.28772756
240	0xbefd03ed	-0.49417058
241	0x3e9442a0	0.2895708
242	0x3ed932b4	0.42421496
243	0xbf3dbca0	-0.74115944
244	0xbdc8224c	-0.097721666
245	0x3e984cce	0.29746097
246	0x3fae0493	1.3595146
247	0x3f1be379	0.6089397
248	0xbdf97d33	-0.12182083
249	0xbede59e4	-0.43427956
250	0x3f41ce76	0.7570566
251	0xbe79f38c	-0.24409312
252	0x3e938599	0.28812864
253	0xbbb55499	-0.0055337665
254	0xbf6de3d5	-0.9292577
255	0xbdbeba5c	-0.09312889

rnn.bias_ih f4 [600]
0	0xbf4f2423	-0.80914515
1	0xbed96677	-0.42460987
2	0xbf0e469f	-0.5557651
3	0xbf20b6e9	-0.627791
4	0xbf6e799e	-0.93154323
5	0xbef00370	-0.46877623
6	0xbf993208	-1.1968393
7	0xbf7f98e9	-0.998427
8	0xbf19e135	-0.60109264
9	0xbf3c1919	-0.73475796
10	0xbf85499f	-1.0413092
11	0xbf357cb0	-0.70893383
12	0xbf5d4bb1	-0.8644362
13	0xbf476aee	-0.77897537
14	0xbf2d1cb6	-0.67621934
15	0xbdda9bca	-0.10674246
16	0xbcfe45d7	-0.031039162
17	0xbdcf6291	-0.10126222
18	0xbe390b05	-0.1807061
19	0xbf9fead5	-1.249354
20	0xbf70b4a4	-0.94025636
21	0xbf19bba8	-0.60051966
22	0xbf3aeaa9	-0.73014313
23	0xbf5fca3f	-0.8741798
24	0xbf6cb54f	-0.92464155
25	0xbeeddf83	-0.46459588
26	0xbf32bd9f	-0.6982059
27	0xbf40a454	-0.75250745
28	0xbebbb7ea	-0.36663753
29	0xbf706801	-0.939087
30	0xbf8463d8	-1.034297
31	0xbeff86ee	-0.4990763
32	0xbf724512	-0.9463664
33	0xbf633e8d	-0.8876732
34	0xbec07c80	-0.37594986
35	0xbf3c169e	-0.7347201
36	0xbf8369ed	-1.0266701
37	0xbf1b67da	-0.6070534
38	0xbf60d815	-0.87829715
39	0xbedbe38c	-0.42947042
40	0xbeff2ec1	-0.49840358
41	0xbed7f7b9	-0.42181185
42	0xbf7a5abc	-0.977947
43	0xbf576549	-0.84138924
44	0xbf58cfbc	-0.8469198
45	0x3f0dea80	0.55435944
46	0xbf3772b4	-0.716594
47	0xbf236726	-0.6382927
48	0xbf1af05f	-0.6052303
49	0xbf1d8322	-0.6152822
50	0xbf746d9e	-0.9547976
51	0xbf86708f	-1.05031
52	0xbf1e8a11	-0.6192942
53	0xbf4108e8	-0.75404215
54	0xbf3f1826	-0.7464622
55	0xbf71f8eb	-0.94520444
56	0xbf1e4e13	-0.6183788
57	0xbf7fbf05	-0.9990085
58	0xbf54c22a	-0.8310877
59	0x3d9f1c3e	0.07769059
60	0xbf3753a3	-0.71611995
61	0xbedc9a7f	-0.4308662
62	0xbf746ef4	-0.954818
63	0xbf5444b8	-0.82917356
64	0xbf661a68	-0.8988404
65	0xbf03b9a3	-0.51455134
66	0xbe8dd7a1	-0.27703574
67	0xbf946913	-1.1594566
68	0xbf5e9cfe	-0.869583
69	0xbecd9827	-0.40155146
70	0xbf7a143e	-0.9768714
71	0xbef6aaff	-0.48177335
72	0xbf330f07	-0.69944805
73	0xbf419ef5	-0.75633174
74	0xbf4d7cb4	-0.80268407
75	0xbf3302f2	-0.6992637
76	0xbf0176e6	-0.5057205
77	0xbf97f57f	-1.1871794
78	0xbe87e55a	-0.2654217
79	0xbf769bf5	-0.9633172
80	0xbf75bfd0	-0.9599581
81	0xbf42fc78	-0.76166487
82	0xbf80a83e	-1.0051343
83	0xbf44621e	-0.76712215
84	0xbf60f472	-0.87872994
85	0xbec47e55	-0.38377634
86	0xbecaaf7f	-0.39587018
87	0xbf547669	-0.8299318
88	0xbf769b23	-0.9633047
89	0xbf87a3d7	-1.0596875
90	0xbea94461	-0.3305998
91	0xbf1ca332	-0.61186516
92	0xbf358fe7	-0.709227
93	0xbec042ea	-0.3755105
94	0xbf206a1c	-0.6266191
95	0xbf0e7812	-0.5565196
96	0xbedc96a3	-0.43083677
97	0xbf419a96	-0.75626504
98	0xbeb8928e	-0.36049312
99	0xbee2ee45	-0.4432241
100	0xbf2dcc1b	-0.67889565
101	0xbee391f5	-0.44447294
102	0xbdd3daa6	-0.10344438
103	0xbf859374	-1.0435624
104	0xbeddcecc	-0.43321836
105	0xbe590c7b	-0.21196167
106	0xbf43c43c	-0.76471305
107	0xbef50821	-0.47857764
108	0xbf058b6d	-0.5216587
109	0xbeed9f01	-0.46410373
110	0xbf59002f	-0.84765905
111	0xbfa05bda	-1.2528031
112	0xbeed86f5	-0.46392027
113	0xbf7266db	-0.94688195
114	0xbf464288	-0.7744527
115	0xbf8f69fa	-1.1204216
116	0xbf0db4a0	-0.55353737
117	0xbf93a3bf	-1.1534346
118	0xbef3dba3	-0.47628507
119	0xbf679ee7	-0.9047684
120	0xbf01bd85	-0.5067981
121	0xbf92a871	-1.1457654
122	0xbe5e2544	-0.21693903
123	0xbf723282	-0.9460832
124	0xbf69ed1c	-0.91377425
125	0xbf62ae49	-0.8854719
126	0xbedb3aea	-0.42818385
127	0xbadd445a	-0.0016881332
128	0xbf52d873	-0.82361525
129	0xbf63d3c5	-0.8899501
130	0xbf3cf5ca	-0.73812544
131	0xbf3f0d57	-0.7462973
132	0xbf588853	-0.84583014
133	0x3e204f97	0.15655361
134	0xbe9d9bf9	-0.3078306
135	0xbf5ae809	-0.8551031
136	0xbf69f3de	-0.91387737
137	0xbf4737ab	-0.7781932
138	0xbfa99629	-1.324895
139	0xbefba5e8	-0.49150014
140	0xbf10ee95	-0.5661405
141	0xbddd36e3	-0.108014844
142	0xbf46624d	-0.77493745
143	0xbe78e766	-0.24307021
144	0xbee716f4	-0.451347
145	0xbf788a3e	-0.9708594
146	0xbe76f62f	-0.24117349
147	0xbf889f07	-1.0673531
148	0xbebb2cf7	-0.36557743
149	0xbf23fac3	-0.64054507
150	0xbd18c807	-0.037300136
151	0xbf603c36	-0.87591875
152	0xbf753477	-0.9578318
153	0xbf40e629	-0.75351197
154	0xbf8af53d	-1.0856091
155	0xbf7790b3	-0.9670517
156	0xbf711242	-0.94168484
157	0xbf866232	-1.0498717
158	0xbf75ef19	-0.9606796
159	0xbe350420	-0.17677355
160	0xbf8d95e2	-1.1061366
161	0xbf1d96e0	-0.6155834
162	0xbf0d4dd0	-0.5519686
163	0xbf57c518	-0.84285116
164	0xbf596456	-0.84918725
165	0xbf749e67	-0.955542
166	0xbf5e026c	-0.86722445
167	0xbf01ae15	-0.50656253
168	0xbf20f61a	-0.6287552
169	0xbf21567f	-0.6302261
170	0xbee5d609	-0.44889858
171	0xbf18b7cd	-0.5965546
172	0x3e9463e4	0.2898246
173	0xbedf5efc	-0.43627155
174	0xbf318a81	-0.69351965
175	0xbf3fc216	-0.74905527
176	0xbf8799ff	-1.0593871
177	0xbf1a06a2	-0.6016637
178	0xbfafa655	-1.3722636
179	0xbf8636c9	-1.0485469
180	0xbf730471	-0.9492865
181	0xbf1f5ecb	-0.6225402
182	0xbf1a5a01	-0.60293585
183	0xbf40021b	-0.7500321
184	0xbf94571a	-1.1589081
185	0xbf1acaa3	-0.6046545
186	0xbf5b35e7	-0.85629123
187	0xbed931c8	-0.42420793
188	0xbf560286	-0.835976
189	0xbf4a3ff8	-0.7900386
190	0xbf5df3f8	-0.8670039
191	0xbf43a647	-0.76425594
192	0xbee7767d	-0.45207587
193	0xbf56e77b	-0.8394696
194	0xbf57cc80	-0.8429642
195	0xbec3f8c3	-0.38275728
196	0xbf347494	-0.70490384
197	0xbf665941	-0.8997994
198	0xbf3d9279	-0.74051625
199	0xbf901305	-1.1255804
200	0xbefb6275	-0.49098554
201	0x3f2b91d4	0.6701939
202	0x4001d480	2.028595
203	0xbeda9cf7	-0.4269788
204	0xbe8b770d	-0.27239266
205	0xbf705195	-0.93874484
206	0x4005b364	2.0890741
207	0xbf485479	-0.78253895
208	0xbee46ef8	-0.44615912
209	0xbeece34c	-0.46267164
210	0xbf46ec3c	-0.77704215
211	0xbf38b8c6	-0.7215694
212	0xbf072c8a	-0.52802336
213	0xbe9b03ef	-0.3027644
214	0xbf0cd315	-0.55009586
215	0xbe7ba1c0	-0.24573421
216	0x3d42a8d3	0.047524285
217	0xbf7c3a3d	-0.98526365
218	0x3e4c72b5	0.19965632
219	0xbeaca8e2	-0.33722597
220	0xbf3f9d58	-0.7484946
221	0xbf204e51	-0.626195
222	0xbeb6a464	-0.35672295
223	0xbf851029	-1.0395557
224	0xbf58fcba	-0.8476063
225	0xbea9e60a	-0.33183318
226	0xbf0b3cf3	-0.54389876
227	0xbe88d788	-0.26726937
228	0xbeb531b2	-0.35389477
229	0xbf0400c7	-0.51563686
230	0xbf3a7da1	-0.72847944
231	0x400df235	2.2179081
232	0xbf3226d9	-0.69590527
233	0xbedb4b4e	-0.4283089
234	0xbe0b855a	-0.13625088
235	0xbe9df3a2	-0.3084994
236	0xbf02c06c	-0.5107486
237	0xbe801a39	-0.25020006
238	0xbf3c54b1	-0.7356673
239	0xbecdc464	-0.40188897
240	0xbeef3370	-0.4671893
241	0xbf6f92c7	-0.9358334
242	0xbf76c2f0	-0.963912
243	0xbf2fc52e	-0.6866025
244	0xbf35d531	-0.7102843
245	0x3f43648b	0.7632529
246	0xbf2d4a3e	-0.6769141
247	0xbfbe9a73	-1.4890884
248	0xbf5493ad	-0.83037835
249	0x3e6f1822	0.2334905
250	0xbf38bd3e	-0.7216376
251	0x3dd28f5d	0.102812506
252	0xbf4febd2	-0.8121921
253	0xbe5cc06c	-0.21557778
254	0xbed0ddf0	-0.40794325
255	0xbed3ffca	-0.4140609

rnn.bias_hh f4 [600]
0	0xbf5f1591	-0.8714228
1	0xbecee51e	-0.40409178
2	0xbf0964c7	-0.536694
3	0xbf38e7fe	-0.7222899
4	0xbf6b80bc	-0.9199331
5	0xbed641da	-0.41847116
6	0xbfa0ce38	-1.2562933
7	0xbf6f2335	-0.93413097
8	0xbf3254ee	-0.6966084
9	0xbf320ab3	-0.69547576
10	0xbf8709a1	-1.0549814
11	0xbf3f6c5f	-0.74774736
12	0xbf623be1	-0.8837262
13	0xbf42413f	-0.7588081
14	0xbf1e4a15	-0.6183179
15	0xbe29a22f	-0.16565774
16	0xbd4b54ac	-0.049641296
17	0xbe2514f1	-0.1612127
18	0xbe7f8e31	-0.24956585
19	0xbfaa7926	-1.3318222
20	0xbf70fde2	-0.94137394
21	0xbf086e4e	-0.5329331
22	0xbf28665c	-0.6578119
23	0xbf7c5b86	-0.98577154
24	0xbf6da917	-0.92836136
25	0xbf0232e3	-0.50858897
26	0xbf2ef543	-0.6834299
27	0xbf45600b	-0.77099675
28	0xbe9a964f	-0.301928
29	0xbf578688	-0.84189653
30	0xbf855dd7	-1.0419263
31	0xbf0e3d6d	-0.5556248
32	0xbf810ad8	-1.0081434
33	0xbf559cad	-0.83442193
34	0xbee8ad23	-0.45444593
35	0xbf4aee1d	-0.7926958
36	0xbf86c11d	-1.0527683
37	0xbefd34d6	-0.49454373
38	0xbf5f034d	-0.8711441
39	0xbec83e9b	-0.39110264
40	0xbf10391c	-0.5633714
41	0xbecd9c69	-0.40158394
42	0xbf80f5ca	-1.0075009
43	0xbf61635a	-0.88042223
44	0xbf567bfd	-0.8378294
45	0x3f152aac	0.5826824
46	0xbf276386	-0.65386236
47	0xbf2c7468	-0.6736512
48	0xbf0ee9ac	-0.55825305
49	0xbf2d74ed	-0.6775654
50	0xbf683df1	-0.90719515
51	0xbf80fe6f	-1.0077647
52	0xbf1aa200	-0.6040344
53	0xbf24b814	-0.6434338
54	0xbf58000b	-0.84375066
55	0xbf627b8c	-0.8846977
56	0xbf1c68dd	-0.6109751
57	0xbf814835	-1.0100161
58	0xbf4dcfd7	-0.80395263
59	0x3c8767e5	0.016529033
60	0xbf3f4312	-0.74711716
61	0xbeecb298	-0.46230006
62	0xbf766544	-0.9624827
63	0xbf758c35	-0.95917064
64	0xbf6d5f06	-0.9272312
65	0xbf10c237	-0.5654635
66	0xbeb5efb8	-0.35534453
67	0xbf87be33	-1.0604919
68	0xbf620fe6	-0.8830551
69	0xbee8de51	-0.45482114
70	0xbf72211d	-0.94581777
71	0xbed086dd	-0.40727893
72	0xbf4c0643	-0.79697055
73	0xbf37d5f9	-0.7181087
74	0xbf6c267c	-0.9224622
75	0xbf39813b	-0.72462815
76	0xbf198a13	-0.5997631
77	0xbf8adde8	-1.084897
78	0xbeaeace3	-0.34116277
79	0xbf80c421	-1.0059854
80	0xbf6ede20	-0.93307686
81	0xbf3730bd	-0.71558744
82	0xbf864f44	-1.049294
83	0xbf40b1ce	-0.7527131
84	0xbf6a3439	-0.91485935
85	0xbee8012a	-0.45313388
86	0xbeeef417	-0.466706
87	0xbf3acd26	-0.7296928
88	0xbf7dde84	-0.99167657
89	0xbf8da61c	-1.1066318
90	0xbeb156d1	-0.34636548
91	0xbf2580b4	-0.6464951
92	0xbf248e8d	-0.64280015
93	0xbed082af	-0.40724704
94	0xbf08d900	-0.53456116
95	0xbf244956	-0.641744
96	0xbedcdbf9	-0.43136576
97	0xbf3e8d93	-0.74434775
98	0xbe74f1bb	-0.23920338
99	0xbee11ce6	-0.4396736
100	0xbf2b4bc6	-0.66912496
101	0xbed09638	-0.40739608
102	0xbdc3958f	-0.095500104
103	0xbf7b16c9	-0.9808164
104	0xbec7e344	-0.39040577
105	0xbe876c94	-0.26450026
106	0xbf4568ad	-0.7711285
107	0xbf06f139	-0.52711827
108	0xbf1206ff	-0.57041925
109	0xbed466f5	-0.414848
110	0xbf5958ba	-0.8490101
111	0xbf9ef184	-1.2417455
112	0xbee530c9	-0.44763783
113	0xbf5c87a5	-0.8614448
114	0xbf3fb090	-0.7487879
115	0xbf9728d2	-1.1809332
116	0xbf0b9ee6	-0.54539335
117	0xbf93bb04	-1.1541448
118	0xbf0381d6	-0.5136999
119	0xbf80d404	-1.0064702
120	0xbf0af93e	-0.54286563
121	0xbfa07879	-1.2536765
122	0xbdbd6bb7	-0.092490606
123	0xbf823f15	-1.0175501
124	0xbf7bdb23	-0.9838125
125	0xbf6d02ad	-0.9258221
126	0xbef80f52	-0.48449188
127	0x3dac39c2	0.08409454
128	0xbf52a77b	-0.82286805
129	0xbf6b7e6b	-0.91989774
130	0xbf2774a3	-0.6541235
131	0xbf2dbb95	-0.6786435
132	0xbf48ea42	-0.7848245
133	0x3e088e13	0.13335447
134	0xbe53e198	-0.20691526
135	0xbf53284a	-0.8248335
136	0xbf6b2c74	-0.91864705
137	0xbf47177c	-0.7777021
138	0xbfb12e2e	-1.3842218
139	0xbee65b8c	-0.4499172
140	0xbf125760	-0.57164574
141	0xbdf23393	-0.11826243
142	0xbf31f6ba	-0.695171
143	0xbeb13536	-0.3461091
144	0xbeef27d8	-0.46710086
145	0xbf7635fc	-0.96176124
146	0xbe992090	-0.29907656
147	0xbf81d5fa	-1.0143425
148	0xbef07289	-0.46962383
149	0xbf2ec831	-0.6827422
150	0xbc915414	-0.017740287
151	0xbf513636	-0.81723344
152	0xbf61eca0	-0.88251686
153	0xbf44d590	-0.7688837
154	0xbf90b910	-1.1306477
155	0xbf71b415	-0.9441541
156	0xbf6f662f	-0.93515295
157	0xbf92556d	-1.143232
158	0xbf7eb99f	-0.99501985
159	0xbdde1a7c	-0.10844895
160	0xbf802d25	-1.0013777
161	0xbf2787a9	-0.65441376
162	0xbef888d9	-0.48541906
163	0xbf4a8aa7	-0.79117817
164	0xbf5dc791	-0.8663264
165	0xbf7f300f	-0.99682707
166	0xbf531104	-0.8244784
167	0xbf030552	-0.51179993
168	0xbf1a572b	-0.6028926
169	0xbf32a87b	-0.6978833
170	0xbefb80f1	-0.49121812
171	0xbf157112	-0.58375657
172	0x3ec18d5c	0.3780316
173	0xbf065d8b	-0.52486485
174	0xbf3d8278	-0.74027205
175	0xbf4a7e6f	-0.7909917
176	0xbf8ad577	-1.0846394
177	0xbf0ff66e	-0.56235397
178	0xbfa466f3	-1.2843918
179	0xbf86277e	-1.0480802
180	0xbf6907fe	-0.9102782
181	0xbf25068d	-0.6446312
182	0xbf32ac56	-0.69794214
183	0xbf54e75f	-0.83165544
184	0xbf8c7708	-1.0973825
185	0xbefb81be	-0.49122423
186	0xbf5789f8	-0.841949
187	0xbef12887	-0.47101232
188	0xbf71f4e7	-0.94514316
189	0xbf5d0fd5	-0.8635228
190	0xbf5fb35c	-0.87383056
191	0xbf484ebf	-0.78245157
192	0xbee8ae8d	-0.45445672
193	0xbf4694cb	-0.7757079
194	0xbf4f3fe7	-0.8095688
195	0xbeea80f2	-0.45801502
196	0xbf386cc5	-0.7204097
197	0xbf571dc6	-0.84029806
198	0xbf4113bb	-0.7542073
199	0xbf9a28f3	-1.2043747
200	0xbeeaac74	-0.45834696
201	0x3f22d35a	0.63603747
202	0x400217ac	2.0326948
203	0xbece18f2	-0.40253407
204	0xbe47af75	-0.19500525
205	0xbf6d8bf7	-0.92791694
206	0x4002964f	2.040424
207	0xbf4b26b6	-0.79355943
208	0xbef281f7	-0.4736478
209	0xbef8ded8	-0.48607516
210	0xbf48be72	-0.78415596
211	0xbf324a62	-0.6964475
212	0xbf0d7a64	-0.5526488
213	0xbec86a90	-0.391438
214	0xbf22c8c8	-0.6358762
215	0xbe763396	-0.24043116
216	0x3d5be7a2	0.0536877
217	0xbf6bc105	-0.920914
218	0x3e166184	0.14685637
219	0xbeb5435d	-0.35402957
220	0xbf4cbc4a	-0.79974806
221	0xbf25a37f	-0.647026
222	0xbea6c358	-0.3257091
223	0xbf836d17	-1.0267667
224	0xbf6dd1f7	-0.92898506
225	0xbe92b71b	-0.28655323
226	0xbf124b60	-0.57146263
227	0xbe6a231f	-0.2286496
228	0xbea2c02d	-0.31787243
229	0xbf01a364	-0.5063994
230	0xbf2eeb2c	-0.68327594
231	0x400cf6fd	2.202575
232	0xbf411537	-0.75422996
233	0xbefe12c3	-0.4962369
234	0xbe48f553	-0.19624834
235	0xbe9df336	-0.30849618
236	0xbf1446d3	-0.5792057
237	0xbe65b751	-0.22433211
238	0xbf40331d	-0.7507799
239	0xbf04949a	-0.5178925
240	0xbee4163f	-0.44548222
241	0xbf79669f	-0.9742221
242	0xbf75a9df	-0.9596233
243	0xbf315a8b	-0.6927878
244	0xbf35cfef	-0.71020406
245	0x3f5542b3	0.833049
246	0xbf328098	-0.6972747
247	0xbfbaba49	-1.45881
248	0xbf656c99	-0.8961883
249	0x3e3161c9	0.17322458
250	0xbf3a359f	-0.7273807
251	0x3e0f524d	0.13996239
252	0xbf4cc7b5	-0.7999223
253	0xbe4207ab	-0.18948238
254	0xbefa5bf4	-0.4889828
255	0xbebfda13	-0.37471065

linear.weight f4 [100, 200]
0	0xbf3b28b8	-0.73109007
1	0x3df7172a	0.12064965
2	0xbe568df6	-0.20952591
3	0x3f25aa46	0.6471294
4	0x3f000df7	0.5002131
5	0xbf17b23c	-0.5925634
6	0x3ef580aa	0.47949725
7	0x3ef5a1dd	0.47975054
8	0xbe2bd3c6	-0.16780004
9	0xbe0f97c2	-0.14022735
10	0xbdeadd11	-0.11467946
11	0xbf82d7fc	-1.0222163
12	0x3e051371	0.12995698
13	0x3f25585c	0.6458795
14	0x3eb69880	0.35663223
15	0xbeef0e08	-0.46690392
16	0x3eb7d833	0.35907134
17	0x3ef4894e	0.47761005
18	0xbdb1e161	-0.08685566
19	0x3e4dacce	0.20085451
20	0xbeb44c66	-0.35214537
21	0x3ddc745b	0.107643805
22	0xbf1aa2b6	-0.6040453
23	0xbfa55b50	-1.2918491
24	0x3ecff8f9	0.4061964
25	0xbf63c5fb	-0.8897397
26	0xbe327724	-0.17428261
27	0x3f2e2739	0.680286
28	0xbf28a369	-0.65874344
29	0xbe34bdf2	-0.17650583
30	0x3e89c22d	0.26905957
31	0x3e0bf74a	0.13668552
32	0x3e59c9c4	0.21268374
33	0x3d8b643c	0.068062276
34	0x3b8fa186	0.0043832688
35	0xbdc06da7	-0.093959145
36	0x3e2272bb	0.15864079
37	0x3eba80c3	0.36426362
38	0xbf05f5b5	-0.52328044
39	0xbec39f3f	-0.38207433
40	0x3c2d8a4b	0.010592054
41	0x3e92f08c	0.28699148
42	0x3eb3faa3	0.35152158
43	0xbf036a16	-0.5133375
44	0x3f64f108	0.89430285
45	0xbe0fc35d	-0.14039369
46	0x3f0bc745	0.54600936
47	0x3f577714	0.84166074
48	0xbeadfb5f	-0.33980843
49	0xbd867164	-0.06564596
50	0xbf82fc6a	-1.0233281
51	0xbde0d739	-0.109785505
52	0xbd161d14	-0.036648825
53	0x3da65204	0.08121112
54	0xbf2238ed	-0.6336811
55	0xbee4f1f7	-0.44715855
56	0x3f901f92	1.1259634
57	0xbd487a8f	-0.048945006
58	0x3f593eca	0.84861434
59	0x3f020b7e	0.50798786
60	0x3d6ac05d	0.05731236
61	0xbe292ff3	-0.16522197
62	0x3f12ab6d	0.57292825
63	0xbe94ae55	-0.29039255
64	0x3e147535	0.14497836
65	0x3f0d0c79	0.55097157
66	0x3f34d9b4	0.7064469
67	0x3e8e95ad	0.2784857
68	0xbdf455cb	-0.11930426
69	0xbcc6ea33	-0.024281597
70	0xbec99f71	-0.39379457
71	0x3c0b063c	0.008485373
72	0x3e5cbb69	0.21555866
73	0x3e21337f	0.157423
74	0x3dd55282	0.10416128
75	0x3fab6413	1.3389915
76	0xbd7b1473	-0.0612988
77	0x3e82ccc3	0.25546846
78	0xbe435c6d	-0.19078226
79	0x3eaf7622	0.34269816
80	0x3ebe79db	0.37202343
81	0xbe8b81c9	-0.27247456
82	0xbe33ce25	-0.17559107
83	0x3e6243e0	0.22096205
84	0x3f1e14fd	0.61750776
85	0x3e5f0fc7	0.21783362
86	0xbf9db96d	-1.2322212
87	0x3c876bab	0.016530832
88	0x3ed3b8b3	0.41351852
89	0x3e6eeaaf	0.23331712
90	0xbf834635	-1.02558
91	0xbc6664f6	-0.014062157
92	0xbe10db23	-0.14146094
93	0xbf5a5d14	-0.85298276
94	0x3ea3d8ef	0.32001445
95	0x3ebb85bb	0.36625466
96	0x3e96eadd	0.2947606
97	0xbef6957e	-0.48160928
98	0x3eb4ca70	0.35310698
99	0xbdeb12ad	-0.114781715
100	0x3ebb61e9	0.36598137
101	0xbee9c539	-0.4565828
102	0xbf2af53c	-0.6678045
103	0xbda42040	-0.08013964
104	0x3ea605b1	0.32426217
105	0x3f0d8f10	0.5529642
106	0xbdeb98d1	-0.11503757
107	0x3f0dafbe	0.55346286
108	0x3d7aa2f9	0.06119058
109	0xbe8d3dc3	-0.27586183
110	0x3dd254e5	0.102700986
111	0x3e5fb17b	0.21845047
112	0xbe330059	-0.17480601
113	0xbf0a591d	-0.54042226
114	0xbe85cd9c	-0.2613343
115	0xbef05ce8	-0.46945882
116	0xbd5b624e	-0.053560548
117	0x3f4e90b1	0.8068953
118	0x3f2745dd	0.6534098
119	0x3ee6366c	0.44963396
120	0x3eb6d9d6	0.3571307
121	0x3f6ba7e2	0.92053044
122	0xbcdfa4dd	-0.027300293
123	0x3e9783b1	0.2959266
124	0xbe27df2f	-0.16393732
125	0xbf146871	-0.57971865
126	0x3e7773bc	0.24165243
127	0xbe108abf	-0.14115427
128	0xbf07b987	-0.5301747
129	0xbab94e77	-0.0014137764
130	0xbe73c986	-0.23807344
131	0x3efd586d	0.49481526
132	0x3e1115b4	0.14168435
133	0xbef50c1a	-0.47860795
134	0x3efc473a	0.49273092
135	0x3ea06051	0.31323484
136	0x3ea370e7	0.31922075
137	0xbcd59275	-0.026070813
138	0x3ef8ad0c	0.48569524
139	0x3e9fc4e3	0.312049
140	0x3da5df44	0.08099225
141	0x3f54fb95	0.83196384
142	0x3e27a7df	0.16372631
143	0xbf7c2abc	-0.9850271
144	0x3eca3b3b	0.39498314
145	0xbf27fd38	-0.65620756
146	0xbece024c	-0.40236127
147	0x3ed93c1d	0.42428675
148	0xbd7466b5	-0.05966826
149	0xbed4a4cb	-0.41531977
150	0x3f42d943	0.76112765
151	0x3e5b892e	0.21439049
152	0xbe08afd8	-0.13348329
153	0xbf0f8f79	-0.56078297
154	0x3e0691de	0.13141581
155	0xbec297be	-0.38006395
156	0xbf3079fe	-0.68936145
157	0xbdf0c66a	-0.117565945
158	0x3ec16c72	0.3777805
159	0xbea829ab	-0.3284429
160	0x3ebf480c	0.37359655
161	0xbe851b82	-0.2599755
162	0x3e6ee15c	0.23328155
163	0xbe7382d4	-0.23780376
164	0xbe5d6bb8	-0.21623123
165	0xbec06c8f	-0.37582824
166	0x3e635767	0.2220131
167	0x3dd558fd	0.10417364
168	0x3ea0105f	0.3126249
169	0xbf090c60	-0.5353451
170	0x3de421ac	0.11139235
171	0x3ef1dfa4	0.47240937
172	0xbf3e3cf2	-0.74311745
173	0xbd981926	-0.07426672
174	0x3f132e32	0.57492363
175	0x3f194e51	0.59885126
176	0x3e0b59cf	0.13608478
177	0x3e76cb5c	0.24101013
178	0xbe92f295	-0.287007
179	0x3f3f2b4f	0.7467546
180	0x3ef28064	0.4736358
181	0xbbe32f62	-0.0069331387
182	0x3e59a5f0	0.21254706
183	0xbe4107a3	-0.1885057
184	0x3f1347cb	0.5753142
185	0x3d8e128d	0.06937132
186	0xbf5bc474	-0.8584664
187	0xbf347061	-0.70483977
188	0xbdb8bcb8	-0.0902037
189	0x3f1977f1	0.5994864
190	0xbdd11562	-0.102091566
191	0x3ef2ffce	0.47460788
192	0x3c701f8c	0.014655959
193	0x3ed67417	0.41885445
194	0x3e8a1c9c	0.26974952
195	0x3eec72fd	0.4618148
196	0x3e33db85	0.17564209
197	0x3f02fb46	0.5116466
198	0x3d53a302	0.05166913
199	0xbe89fe0d	-0.26951638
200	0xbe805959	-0.25068167
201	0xbe5eeba2	-0.21769574
202	0x3eabc36d	0.33547536
203	0xbdb010e3	-0.08596971
204	0xbead1efb	-0.338127
205	0xbdc0e82b	-0.094192825
206	0x3e8dbb32	0.2768188
207	0x3e938ab0	0.28816748
208	0xbe3e14a7	-0.18562566
209	0xbf1746a2	-0.5909215
210	0xbcd82771	-0.026385995
211	0xbe402f27	-0.18767987
212	0x3e46ac16	0.19401583
213	0xbdc30c53	-0.09523835
214	0x3db1191d	0.08647368
215	0xbe5f95ec	-0.21834534
216	0xbd614ac3	-0.05500294
217	0x3e887d2b	0.26657996
218	0x3f7391fb	0.95144624
219	0x3ed4b26f	0.41542384
220	0xbd50d437	-0.050983634
221	0x3eb286db	0.34868512
222	0xbf84c62f	-1.0372981
223	0xbf04b901	-0.51844794
224	0x3ed46639	0.4148424
225	0x3ee6df0f	0.45092055
226	0xbf10ba6d	-0.56534463
227	0xbd8454b3	-0.064614676
228	0x3e6cc7fa	0.2312316
229	0x3f5aa63a	0.8540989
230	0x3f2c1ca4	0.672312
231	0x3f1cdc9c	0.61274123
232	0x3ebae0b2	0.36499554
233	0xbd626ea8	-0.05528131
234	0x3ead0b30	0.33797598
235	0x3e90f1a5	0.2830936
236	0x3f808981	1.0041963
237	0x3ebcfe3a	0.3691271
238	0xbe8ea528	-0.2786038
239	0xbe4ae3a3	-0.19813399
240	0xbe3b0c9d	-0.1826653
241	0x3ea7fca4	0.32809937
242	0x3f8653c5	1.0494314
243	0xbf97d682	-1.1862338
244	0x3e3e56f2	0.18587855
245	0xbf389d55	-0.7211507
246	0xbec90671	-0.39262727
247	0x3dbd22f1	0.0923518
248	0xbe26c4f8	-0.16286075
249	0xbd8a956c	-0.06766781
250	0xbf404a5c	-0.75113463
251	0x3e73e2ed	0.23817034
252	0x3ca155ae	0.019694176
253	0x3d82fab8	0.06395477
254	0x3d1d1537	0.03835031
255	0xbf20e29d	-0.62845784

linear.bias f4 [100]
0	0xbebbe6d6	-0.3669955
1	0xbecfec49	-0.4060996
2	0xbf029a70	-0.510169
3	0xbe9787eb	-0.29595885
4	0xbe07d00b	-0.13262956
5	0xbeaf9cbd	-0.3429927
6	0xbe928304	-0.28615582
7	0xbe96ddb3	-0.29466018
8	0xbf1277bd	-0.57213956
9	0xbe13bbdb	-0.1442713
10	0x3ed607f1	0.41802934
11	0xbe50600a	-0.20349136
12	0x3e887dee	0.26658577
13	0x3e19c5fe	0.15016934
14	0x3e8204d3	0.25394306
15	0xbde4834f	-0.111578576
16	0x3c3df250	0.011593416
17	0x3e156649	0.145898
18	0x3eaadb62	0.333705
19	0xbf548aa7	-0.83024067
20	0xbef612a1	-0.48061088
21	0x3ec23868	0.3793366
22	0x3bca9347	0.0061821076
23	0x3e98082f	0.29693744
24	0x3e4923b2	0.19642523
25	0xbe154262	-0.14576104
26	0xbf49c3c1	-0.7881432
27	0x3e2d96e9	0.16952099
28	0x3ea5a828	0.32354856
29	0x3e8810bd	0.2657527
30	0xbd3205a9	-0.04346243
31	0xbc7716ee	-0.01508115
32	0xbe3500cd	-0.17676087
33	0xbf18d77a	-0.5970379
34	0x3e03d4f9	0.12874211
35	0xbf4886c2	-0.78330624
36	0xbea31f80	-0.3185997
37	0xbed0f21c	-0.40809715
38	0xbe962fbc	-0.29333293
39	0xbee30468	-0.443393
40	0xbeb2808d	-0.348637
41	0xbf07206f	-0.52783865
42	0xbeba1115	-0.36341158
43	0xbeb5f06e	-0.35534996
44	0xbc3039c1	-0.010755957
45	0xbf0b8d10	-0.5451212
46	0xbe9e0c03	-0.3086854
47	0xbeb8ab25	-0.36068073
48	0xbe6210ff	-0.22076796
49	0xbeb3f399	-0.35146788
50	0xbec0bfd6	-0.3764636
51	0xbf2d2396	-0.67632425
52	0xbee79e64	-0.4523803
53	0xbf05c85a	-0.5225884
54	0xbed593f6	-0.41714448
55	0xbea4febf	-0.32225606
56	0xbf035557	-0.51302093
57	0xbf0b1ac6	-0.5433773
58	0xbeb89edc	-0.360587
59	0xbeb7ef9c	-0.35924995
60	0xbecbfae1	-0.39839843
61	0xbf0b224c	-0.5434921
62	0xbf694d6a	-0.9113375
63	0xbf134469	-0.5752626
64	0xbf66e47b	-0.90192384
65	0xbf7c6526	-0.9859184
66	0xbf5de27f	-0.8667373
67	0xbee58deb	-0.44834837
68	0xbe874133	-0.2641693
69	0xbee434a9	-0.44571427
70	0xbeb3fc70	-0.35153532
71	0xbf860c1f	-1.0472449
72	0xbf33bb3b	-0.70207566
73	0xbea2ea78	-0.3181951
74	0xbf1de517	-0.6167769
75	0xbe848b42	-0.25887495
76	0xbf5f9b9d	-0.8734682
77	0xbf6dcc43	-0.92889804
78	0xbf7934ff	-0.9734649
79	0xbf6bc5f0	-0.92098904
80	0xbf3da756	-0.7408346
81	0xbf54500c	-0.8293464
82	0xbf887d56	-1.066325
83	0xbf61dfe0	-0.8823223
84	0xbef6363c	-0.48088253
85	0xbf5345c8	-0.8252835
86	0xbed4522e	-0.41468948
87	0xbf4af9d0	-0.79287434
88	0xbf5f01e6	-0.8711227
89	0xbf48a6fe	-0.7837981
90	0xbf528126	-0.82228315
91	0xbf46bc8c	-0.7763145
92	0xbf4b4d0a	-0.7941443
93	0xbf449a2d	-0.76797754
94	0x3f2e4e0e	0.6808785
95	0xbf64382a	-0.891482
96	0xbe97f626	-0.29679984
97	0xbf62b187	-0.88552135
98	0xbf5a4100	-0.8525543
99	0xbf44bf07	-0.76853985
