Results/Complete Sherlock Holmes/LSTM/ASGD/1/150/model.pt (torch, 667423 bytes, 6 tensors)

rnn.weight_ih f4 [600, 100]
00000000: 9d77 10bf adf5 213e 2f26 fb3d a40d 713d
00000010: a0ce a43e 60f2 0ebe b306 80be 15b9 89be
00000020: f699 063d 6fa1 12bf 5032 6b3f 1476 483e
00000030: 5895 0abf 1e13 d4be a31e b03f b2a3 303f
00000040: c865 843f 5556 003f 9d97 393f 4164 c7bd
00000050: 990f 00bf 5770 453f 2f76 cfbf 7ff9 bf3e
00000060: 2a8e 99bc b742 7c3e c97d 0d3e 188a 0940
00000070: 329d 683f ba9f b2bf 1e88 4e3f 567d 93bd
00000080: 8ffa 1bbf 9c4d afbe 0e68 af3e 7e81 f3be
00000090: c8c6 46be 809f f1bd 1c12 063f 260e a13f
000000a0: 70f7 1ebd 951d fbbe f2d9 a73f 618d 523f
000000b0: 6be8 65bf 6837 24bf 91f3 3bbf ebfe 2e3d
000000c0: 2b02 a03f d6be 0b3e 6985 a23e 6218 fd3e
000000d0: 3483 473f 48d5 1c3f 1b12 cb3e cd1a 943f
000000e0: 15ab 163e 9d9a 3a3f 051a cc3f fa1c 9e3b
000000f0: bd40 1a3f e689 d0be fe1f ee3e ec27 d53e
00000100: 1e62 893d 2003 4d3c 7698 2e3d 9063 89be
00000110: f504 2ebf 1ab8 2ebd 064e a1bd 8308 ab3e
00000120: 00e1 c239 13bf 54bf 3c20 d33e 6947 5dbf
00000130: cc20 353d 9e71 693e 54a2 55be 44a1 3a3d
00000140: 4008 7fbc 1d58 a0bd c1e7 f7be 5d21 a2bd
00000150: 15a1 633e a843 673d 0b9d c0be 38c8 4ebc
00000160: 9fbf 09bd d00e 8c3d c593 8bbd 4464 d23c
00000170: e004 4ebd eca3 5b3d 64a1 053f 414f 91bd
00000180: d491 03bf 80fb 67bb b3e2 96bd 4085 18bc
00000190: 081f 003d 0e47 6ebf a3ee 3d3c 1556 e5bd
000001a0: 11f6 023e f4f6 47be 9f19 90be 0ebb fdbe
000001b0: ae77 873e 8922 b6be c2c5 d13f 6d15 b33d
000001c0: 4338 2abe 93ed a73f 04fd 213f 991f 13bf
000001d0: ce6b 34be afce 49bf 21d8 10be 6552 bdbd
000001e0: 0956 69be 5094 f73e 714a 45bf bf34 45be
000001f0: 6ad8 013f 2f30 593f f3e5 853e 4e6c f7bf
00000200: b2ac 8f3f c163 c03f ca23 62bf c5fa c7be
00000210: 5b85 a5be f4a2 31bf 4d87 59bf 6d9c 3c3f
00000220: d935 a3bc c7ab 9cbf 40c6 1fbf 261a 19bf
00000230: 1a07 ae3e 1b74 1e3f 9423 9f3d 0250 7a3e
00000240: 871a 143f 8c4b 823e 9b29 353d 57cd 5a3f
00000250: a525 56bf 955c eb3e 1a6d ce3e 515f 873e
00000260: 3e65 113f 851b 813e 5e20 2dbe 9047 06be
00000270: b18d 533c ffe8 ca3e 5b3a d0be 5e37 fa3d
00000280: 2529 10bf c057 333d af3d 40bf a28a d13e
00000290: e01f 6b3d 07d6 63bd 7f27 16bd ad4a 173e
000002a0: 20d3 95bf f93d e8bc 3e8b 27be a076 e1bb
000002b0: 70dc 07bd 2fd5 4b3f fd06 313f ae2a 2dbf
000002c0: b65f c7bc 40a5 473f 8fbe b7bf 0848 58bd
000002d0: 8c1e e93c 77bf 1dbd 393b 573f 8891 443d
000002e0: 7e70 80be 348e 3b3d ac0f 0e3c 28c6 0f3c
000002f0: 08b6 733d 1c25 7dbd 3099 d5bc 208a 77bb
00000300: 88b2 96bd 749e 13bd 335c 0fbf 02bf 73bd
00000310: 83f3 373f 26d4 a5bd 481c d5bc 503d f0bb
00000320: ca76 c0be 1a73 20bf e570 723e 522b 413e
00000330: 3946 393f 139a 08be c128 aabd dd94 77be
00000340: b1f0 64be d81c d6bb 1ac0 183e 18fa 403f
00000350: 035a cb3f 2070 0c3e 0c09 1dbf 3e4b 36bf
00000360: f818 14bf a2b9 56bf 8e12 983e f998 d2be
00000370: 1981 1e40 9872 913f 368f e63f 4caa 973f
00000380: c4ee 1a40 36f4 c83e a89c 183f 77bd 5bbf
00000390: ee3b ef3e 153d 51be 4255 59bf f25f 623f
000003a0: c4a2 46bd 8572 a63f 8579 a6bf 0dbe 793f
000003b0: 238e 6e3f d6e2 123f 6f7b 5cbf 521d 90bf
000003c0: bf0d d7bc 09f1 00bd ee13 89bd 8167 1abf
000003d0: 25f1 0f3f 2028 58bf 6c97 983f 30a7 3d3f
000003e0: 9635 bdbf 413b 3040 a4f9 bebf 3bcb 33bf
000003f0: 9ccd 07be 6d7d 92bf 6512 d8bf 6379 873e
-0.56432515 0.15816374 0.12263142 0.0588509 0.32188892 -0.13959646 -0.2500511 -0.2689902
0.032861672 -0.5727758 0.91873646 0.19576293 -0.5413413 -0.41420835 1.375935 0.6899978
1.0343561 0.5013173 0.7249697 -0.09735919 -0.500238 0.7712454 -1.6207942 0.37495038
-0.018744547 0.24634825 0.13817514 2.1490536 0.9086486 -1.3954995 0.8067645 -0.0720164
-0.609292 -0.342389 0.34259075 -0.47559732 -0.19411767 -0.11798 0.5237138 1.2582443
-0.038810194 -0.49046007 1.3113387 0.8224698 -0.89807767 -0.64147043 -0.7341853 0.042723577
1.2500662 0.13647017 0.3174241 0.49432665 0.77934575 0.6126294 0.3966225 1.1570679
0.147137 0.7289217 1.594544 0.0048252316 0.6025503 -0.40730208 0.46508783 0.4163202
0.067081675 0.012512952 0.042625867 -0.26833773 -0.67976314 -0.04265604 -0.0787621 0.3340493
0.00037170202 -0.83104056 0.4123553 -0.8643709 0.04422073 0.22797248 -0.20862705 0.04556395
-0.015565932 -0.07829306 -0.48419002 -0.0791652 0.22229417 0.056461006 -0.37619814 -0.012620978
-0.03363001 0.06838763 -0.06815294 0.025682576 -0.050297618 0.053623125 0.5219939 -0.070951946
-0.5139439 -0.0035397708 -0.07367458 -0.009309113 0.031279594 -0.9307717 0.01159254 -0.111980595
0.1278918 -0.19527799 -0.28144547 -0.49556774 0.26458496 -0.35573223 1.6388476 0.08744321
-0.16623025 1.3119377 0.63276696 -0.5747009 -0.17619249 -0.78831 -0.14144947 -0.09244231
-0.22786726 0.4835534 -0.77066714 -0.19258402 0.50720847 0.8483915 0.26152 -1.9329927
1.1224577 1.5030442 -0.8833586 -0.3905851 -0.32328305 -0.6938927 -0.8497208 0.73676187
-0.019923138 -1.2239922 -0.6241188 -0.59805524 0.33989793 0.6189591 0.07770458 0.24444583
0.5785298 0.25448263 0.04422913 0.85469574 -0.8365119 0.45969072 0.40317613 0.26439908
0.5679511 0.25216308 -0.16906878 -0.13113236 0.0129122 0.39630887 -0.40669522 0.12217592
-0.5631278 0.043784857 -0.7509412 0.4092608 0.057403445 -0.055624034 -0.03665876 0.1477458
-1.1705055 -0.028349863 -0.1636171 -0.0068805963 -0.03316921 0.7962217 0.6915129 -0.6764325
-0.02433763 0.77986526 -1.4355029 -0.05280307 0.028456949 -0.038512673 0.8407474 0.047990352
-0.25085825 0.045789912 0.008670729 0.0087752715 0.05949977 -0.06180297 -0.026074022 -0.0037771538
-0.07358271 -0.036039785 -0.5600006 -0.05950833 0.71855944 -0.08097105 -0.026014462 -0.007331528
-0.3759063 -0.6267563 0.23675878 0.18864182 0.72372776 -0.13340025 -0.083085544 -0.2417788
-0.22357441 -0.0065342 0.14917031 0.7538161 1.5886844 0.13714647 -0.6134193 -0.7120856
-0.578506 -0.83877003 0.29701656 -0.41132334 2.4766295 1.1363096 1.8012455 1.1848845
2.420823 0.39248818 0.5961404 -0.85835975 0.4672541 -0.20433457 -0.8489572 0.8842765
-0.04849507 1.3003699 -1.3005835 0.9755562 0.93185633 0.57377374 -0.86125845 -1.1258948
-0.026251672 -0.03147987 -0.066932544 -0.60314184 0.5622733 -0.84436226 1.192121 0.7408323
-1.4781978 2.7536166 -1.4919934 -0.7023198 -0.13262028 -1.1444527 -1.6880614 0.26459798

rnn.weight_hh f4 [600, 150]
00000000: 1b1a 1abd ee0f c7bd c236 2fbf db44 abbe
00000010: 6c68 e43e e7ce 9bbe 1c76 723f 2eed 173f
00000020: 035a 993e cac1 083f c336 d93e 230a 5d3f
00000030: 418d acbf b538 36be e96a 35bf c029 5b3f
00000040: e6c1 18bf 61ca 613e 3789 ab3f 2d74 d1be
00000050: 409d f6be 9934 753e f72f ba3e b17a 31bf
00000060: e65d 65bf dfcf c0bf 8000 86be 6804 a7be
00000070: 36dc 0f3f 2b64 2bbf fa1a 0b3f 1c3e 4e3e
00000080: 8244 623f 0579 91be 62cb 353e 64cb 64bf
00000090: b7bb eb3e 86da f5be d58f f9bc ca72 c2be
000000a0: 50a6 8dbe 4a61 53be 27bf 953d 0460 8fbc
000000b0: 67ad 543e 3763 0fbd f4a8 cebd 4373 9b3f
000000c0: b7e2 563e aa9b 33be d0a3 023f 50c1 08bf
000000d0: 5b32 5d3e acd9 443e a04f 933e 5f02 273f
000000e0: c5e4 9cbf 6957 8cbf 465c 4ebe 8a1d c73e
000000f0: 7402 32bf b9a7 7cbe 915d bdbc 0340 69bf
00000100: 0e7f 7bbf 5cf1 1ebe 1511 60bf 92d2 31bf
00000110: 351c d93e 6c3d 443f 1746 d2be 1ade 2fbf
00000120: ca57 0c3d 48c8 b6be 4aae 66be 26ec 04bd
00000130: ee24 14bf 8648 423f 2f51 cebe 352f 5bbf
00000140: 8084 ebbd 5be8 f4be 96e4 153f d853 87bf
00000150: 779a bdbf 94d5 8c3c 5bb7 80be dcf0 a43e
00000160: b423 c6be cc45 593e de20 033e b8e5 ae3e
00000170: b109 3fbe b44d f73e 7a42 463e 460b febe
00000180: d434 73bd 0760 53bf 3750 26be ce22 31bf
00000190: ec30 303f 7f95 afbf f479 543f c446 34bf
000001a0: 287a f4bd 994e 493e 37b4 e23d c275 3bbe
000001b0: bf51 1cbf cdc9 e3be 9e98 48bf b0ee 91bd
000001c0: f9da a9be c3d8 10be 6f0b da3e 254c b53e
000001d0: c71e 103f 52a8 d43e e7a3 07be 0e48 253f
000001e0: 9099 1fbf 6a89 b33f db24 723e 9807 0dbe
000001f0: 5964 48be e506 693f 4f0a a73e 2567 b43e
00000200: 0c02 8a3f ad12 a53e 2ee0 a9bd 9e4f 823d
00000210: ba95 99be 8056 c73d b699 1d3f f2cc 6fbe
00000220: 390a ab3f ed61 703e 3218 2a3f a899 083f
00000230: d5db 75bf 8b3a 61bf 49e9 1d3e 2c22 243e
00000240: 85eb c7be 5c5f 0abf 7eec 35be 6905 1ebf
00000250: edcc c33e b535 b23e d77b 823f 4de1 0bbf
00000260: e204 17bf 67b1 1bbd e779 1e3f d771 2a3f
00000270: fa9b 8f3f 5202 933e 3bb4 113f 66f6 813f
00000280: c045 c0be 9ee6 81bf bd19 3cbf 08b3 90bf
00000290: d119 443f afa6 413f 2f70 6abf b9b7 9cbe
000002a0: 861c 513f 85b5 dfbc 1710 23be 1a4f fe3e
000002b0: b467 19bf 1bfe 763f 3df2 8c3d 1d91 6fbf
000002c0: 3c51 8c3e 57fc 203e 45dd 3fbe f319 e2be
000002d0: 8f40 833f b363 b1be d1b2 3fbf 9112 793e
000002e0: eb87 813f dc27 87bd b068 87be 5dd9 943e
000002f0: 6eef 67bf c2c7 c23e d641 9fbe a51e ea3e
00000300: 471d 333e 7f74 0cbe 91ea 6b3e c541 64be
00000310: ff78 2dbf 8c41 1e3f f2ba 033f feba 3d3f
00000320: ca48 5b3e 623a 20bf 56ed a0bd 355e 583d
00000330: be7c 6cbe 73c7 4f3f 187e 01bf 373d 0ebe
00000340: 955a 0fbf b331 163e fd57 d43d 95a5 2fbf
00000350: f4d1 223f c6cc 5cbf 9bea 74bf d14e 8e3e
00000360: e87f 45bf 0edd 88bf 9832 7d3e 9b29 19bf
00000370: b6fa 2dbf dcd1 a1be 774a 1fbd fda8 90be
00000380: 59dd ce3e 56db 86bf be6c 97be 7118 51bf
00000390: bc18 7abf 65e0 42be 39da 563f ca3c 88be
000003a0: 2ca8 763e faab 03bf bdee 63bf 9271 023f
000003b0: 72ea 9ebf fcd9 b0be bf2a eebd a7d2 1bbe
000003c0: 0485 3bbf 9bc1 9dbc 92c8 b3bd 630a 3ebe
000003d0: fbd5 15bf a610 533e abde d5be ef24 73bf
000003e0: cf90 9c3e 6d64 77bf 832a 4abf b54f 8fbf
000003f0: de0d 3bbf adfa 51bf bf15 1bbf 8f93 be3e
-0.037622552 -0.09719835 -0.6844293 -0.3345097 0.44610918 -0.3043129 0.9471147 0.5934628
0.29951486 0.534207 0.42424592 0.8634359 -1.3480607 -0.1779507 -0.70866257 0.8561058
-0.59670866 0.22049858 1.340125 -0.40908948 -0.48166847 0.23945846 0.3636472 -0.6932784
-0.895964 -1.5063437 -0.26172256 -0.3262055 0.5619539 -0.6694972 0.5433804 0.2014088
0.88385785 -0.28412643 0.17753366 -0.8937285 0.46041653 -0.48018283 -0.030464092 -0.37978202
-0.2766595 -0.20642582 0.0731185 -0.017501839 0.20769273 -0.035006728 -0.10090819 1.214455
0.20984922 -0.1753985 0.5103121 -0.5341997 0.2160124 0.1922366 0.28771687 0.65237993
-1.2257315 -1.0964175 -0.20152387 0.38889724 -0.69534993 -0.24673356 -0.023115905 -0.911133
-0.98240745 -0.15521759 -0.87526065 -0.6946193 0.42404333 0.7665622 -0.410691 -0.68698275
0.03426341 -0.35699677 -0.22527424 -0.03245177 -0.5786885 0.7589191 -0.40296313 -0.8561891
-0.11499882 -0.47833523 0.5855192 -1.0572462 -1.4812764 0.017191686 -0.2513989 0.3221501
-0.38699114 0.21218032 0.12805507 0.34159636 -0.1865604 0.4830147 0.19361296 -0.49617976
-0.059376553 -0.825684 -0.16241537 -0.6919373 0.6882465 -1.3717498 0.82998586 -0.7042048
-0.11937362 0.19658889 0.110695295 -0.1830664 -0.61062235 -0.444899 -0.78357875 -0.07125604
-0.33174875 -0.14145188 0.42586848 0.35409656 0.5629696 0.41534668 -0.13246118 0.6456307
-0.6234369 1.402631 0.23646872 -0.13772428 -0.1956953 0.91026145 0.32625052 0.35234943
1.0781875 0.3224081 -0.08294712 0.06362842 -0.29997045 0.097332954 0.6156267 -0.23418024
1.3362495 0.23474856 0.6644317 0.5335946 -0.9603856 -0.87979954 0.15421022 0.1602866
-0.39046875 -0.54051757 -0.17765996 -0.61727005 0.38242283 0.348066 1.0194043 -0.54640657
-0.58991826 -0.03801098 0.6190476 0.66579956 1.1219475 0.28712708 0.56915635 1.015332
-0.37553215 -1.0148504 -0.73476774 -1.1304636 0.7660189 0.75644964 -0.9157743 -0.3060892
0.8168415 -0.027308235 -0.15924107 0.49669725 -0.59923863 0.96481484 0.06882141 -0.935808
0.27405727 0.1572126 -0.18736751 -0.44160423 1.0254077 -0.34646377 -0.7488223 0.24323489
1.0119604 -0.065993994 -0.26447058 0.29072085 -0.90599716 0.38043028 -0.31104916 0.45726505
0.17491637 -0.13716315 0.23038699 -0.22290714 -0.6776275 0.61818767 0.5145713 0.7411345
0.21414486 -0.62589085 -0.07857768 0.052824218 -0.2309446 0.8116371 -0.5058303 -0.13890539
-0.5599759 0.14667396 0.10368345 -0.68612033 0.63601613 -0.8624996 -0.9567048 0.27794507
-0.77148294 -1.069246 0.24726331 -0.5982911 -0.6796068 -0.31605422 -0.038889375 -0.28253928
0.4040325 -1.0535686 -0.2957515 -0.8167792 -0.9769399 -0.19030912 0.8392673 -0.26608878
0.2408759 -0.5143429 -0.8903616 0.50954545 -1.2415297 -0.3454131 -0.11629247 -0.15217076
-0.7324984 -0.019257357 -0.0877849 -0.1855865 -0.58529633 0.2061182 -0.41771445 -0.9497823
0.3057923 -0.9663761 -0.7897112 -1.11962 -0.73068035 -0.82023126 -0.60580057 0.37221953

rnn.bias_ih f4 [600]
00000000: 1c16 aa3e c2c9 f3be 2bb3 08bf ac80 b9be
00000010: d309 e1be 7e76 623e 4167 0cbf ab95 403d
00000020: 6a86 b1be f1a1 3ebe 23cf 25be c448 9dbe
00000030: f6af c13e 1099 583c 220e 03bf a13e efbe
00000040: 0da2 f4be fd7b ff3d e8dc 1fbf 4965 2abe
00000050: 3f3e 293f f8a4 60be bde6 8bbe f405 303e
00000060: c32b 2c3e 42f7 d5be ebe3 cfbe e220 2ebe
00000070: 812f 31bf 606e a83d 0f5f b2be 58d3 cfbe
00000080: e236 163e f38c a33e a081 a23f 8865 5cbe
00000090: c1e9 c73e aadc 36be 0d64 60be fb16 9fbe
000000a0: 03ae 5ebd f866 1cbe 0045 17bb a7cf 05bf
000000b0: e42f 953e c877 b03d 4649 94be 9dcb 93be
000000c0: 8627 84be e231 babd 173e b2ba b831 77be
000000d0: 0c4d 7d3e a0f0 17bf adeb 49be f5c0 f6be
000000e0: 7e8d ce3c 1add 423e bf28 e8be 37eb 91be
000000f0: c295 f1be db7e 8abc e0df cabe 6c33 5dbe
00000100: 2cf4 d23c ed48 233f 69a3 aebe a426 dabe
00000110: 87b7 b6be 6b17 7fbe 45f6 a0be 2c74 c8be
00000120: bba5 33be 917a 0c3e 461e 07bf 85dc 583e
00000130: f911 95be fdb4 e23c 98ec a6be f9e0 723e
00000140: c00c 1abd bf9b bd3e 9aff 6dbd 6bc6 4cbe
00000150: 0314 cabe cbdc ea3d 66e3 00bd 868e fcbe
00000160: 9a41 453e 5e13 9cbe 1c98 f0be 05de a43d
00000170: 3698 23be e111 88be 8fd0 19be 6379 953e
00000180: ae7f 9dbe f0f8 50be da7d c73e f669 e2be
00000190: 1610 08bf 0b0b 363d f529 8c3e 0107 a63e
000001a0: caa1 843d 36c4 00bf a538 f9be c7e6 acbe
000001b0: a2e9 1c3e 1809 00bf 5e5c 233e 4645 c0be
000001c0: 0090 edbe 629e fa3d f5e6 a23e 8bc8 dabe
000001d0: f198 b8be 3794 cdbe bac4 7f3e 1df6 023f
000001e0: 113a 18bf 67f7 d5bd 13dd dd3b 28b8 f4bd
000001f0: 3510 41bd 4fcf 01bf 3226 b4be 09c2 c0bd
00000200: 3321 a8bd fa53 8abe 7eec 95bd 5c75 f6bc
00000210: 862d afbe 5650 ecbd 07c1 aabe 0819 8d3d
00000220: 7ec3 c8be fd02 bdbe 85df e43e f7e7 29bf
00000230: fe9a c8be f263 203e debe 45be aeb4 6cbe
00000240: 64fe 91be eec9 e4be 32ef 1c3e ca54 fabc
00000250: b465 b9be 515b a7be 748d 823e f36d 2c3f
00000260: b692 ddbe 40dc 6d3f 8ac4 82be a11b 1ebf
00000270: b27e 82be e7a1 53be b999 f8b8 6185 82be
00000280: c665 bfbe 10ce a9be c824 85be b611 943e
00000290: d055 48bf a00e 02bf f2c3 33bf 6911 81be
000002a0: 8d79 adbe 74a8 f4bc 5c4f de3d cdc7 52be
000002b0: 5b42 99be f8fc a73e 091b 95be 54ef 03bf
000002c0: 932c 0a3f 0a0e 67be d600 12bf b626 09bf
000002d0: 6c55 26bf 09b7 20bf eef1 31bf a992 8f3f
000002e0: 1ce2 343f 0bc1 2fbe 84c1 b3be 3729 0dbf
000002f0: 35de 2f3e 29ad 97be 9ea2 743f 6b1d f7bd
00000300: eb2c 0abf 42db c0be a3bb a4be 2721 cabe
00000310: abf0 45be 7967 11bf 1944 26be 654e 59be
00000320: 0e34 cdbc a71c 8dbe 1d27 863e 89e5 1fbf
00000330: 189b b3bc 40d6 a3be 1b09 e7be c532 04bf
00000340: 99e4 01bf 0ea2 2cbf cada 8bbe 08a2 46be
00000350: 1074 88be 8973 65bd 6cb2 56bf b56f adbe
00000360: 6c81 c5be a2a5 2ebf c296 61be 6ba3 acbe
00000370: 5945 e6be 525d 3cbe c1e8 9cbe 9f23 813f
00000380: 496a 45be 8888 4bbf 5714 06bf e1c9 a3be
00000390: 06e2 8fbd 3198 e8be 56fd d3be 39d1 d0be
000003a0: e228 d4be 64f5 f2be f0aa c4bc 10e8 26bf
000003b0: 83b6 bdbc ab32 cfbe 495b 8abe 337b 80be
000003c0: 1964 dbbe 7db0 31bf 44d4 2ebf ba0a cbbd
000003d0: 7636 6dbe 42b7 023f 7541 17bf 266c 0dbf
000003e0: f8fd fe3d 34d3 acbe ed91 2ebf 169a 033e
000003f0: 7012 b9be 7c61 2dbe e960 cdbc 937e 4dbe
0.33219993 -0.47614866 -0.5339839 -0.3623098 -0.43952808 0.22115514 -0.5484505 0.047017734
-0.34672862 -0.18616463 -0.16192298 -0.30719578 0.3782956 0.013220087 -0.5119344 -0.4672747
-0.47779885 0.12474821 -0.6244645 -0.166402 0.66110605 -0.2193793 -0.27324477 0.17189771
0.16813569 -0.41790205 -0.40603575 -0.17004731 -0.6921311 0.08224177 -0.3483815 -0.4059093
0.14669374 0.31943473 1.2695808 -0.21523106 0.39045528 -0.17857614 -0.21913166 -0.3107222
-0.05436517 -0.15273654 -0.0023081899 -0.5226998 0.291381 0.086165965 -0.28962153 -0.28866282
-0.25811404 -0.09091546 -0.0013598826 -0.2414006 0.24736422 -0.5935154 -0.1971881 -0.4819409
0.025213953 0.19029656 -0.45343587 -0.28499767 -0.4718457 -0.016906193 -0.39623928 -0.21601647
0.025751196 0.6378315 -0.34109047 -0.42607605 -0.35686895 -0.24911277 -0.3143789 -0.39151132
-0.1754369 0.1371863 -0.5278057 0.21177872 -0.29115275 0.027674193 -0.32602382 0.23718633
-0.037609816 0.37032887 -0.05810509 -0.19997565 -0.39468393 0.11467894 -0.031466864 -0.49327487
0.19263306 -0.30483526 -0.4699105 0.08050159 -0.15976033 -0.2657614 -0.15020965 0.29194173
-0.30761474 -0.20407462 0.38963205 -0.44221467 -0.53149545 0.044444125 0.2737576 0.3242722
0.06476171 -0.50299394 -0.4867603 -0.3376982 0.15323499 -0.50013876 0.15953204 -0.3755285
-0.46398926 0.122372404 0.3181683 -0.42731127 -0.36054185 -0.4015214 0.24977389 0.5115679
-0.594636 -0.10447579 0.006770739 -0.119491875 -0.047134597 -0.5070695 -0.3518539 -0.09412009
-0.08209457 -0.27017194 -0.07320498 -0.030085258 -0.3421442 -0.1153876 -0.33350393 0.0688954
-0.3921165 -0.36916342 0.44701782 -0.66369575 -0.3918075 0.15663126 -0.19311091 -0.23115799
-0.28514397 -0.4468531 0.15325621 -0.030558009 -0.36210406 -0.32686856 0.25498545 0.6735527
-0.43275994 0.929142 -0.25540572 -0.6176091 -0.25487286 -0.2066723 -0.000118541946 -0.25492385
-0.37382334 -0.33165026 -0.26004624 0.28919762 -0.7825594 -0.50803566 -0.70220864 -0.25208595
-0.33881798 -0.029865481 0.1085498 -0.2058403 -0.29933438 0.32810187 -0.2912219 -0.5153706
0.53974265 -0.22563949 -0.57032526 -0.53574693 -0.64974093 -0.6277929 -0.6950978 1.1216632
0.70657516 -0.17163484 -0.35108578 -0.55141014 0.17174609 -0.29624298 0.95560634 -0.12066158
-0.5397479 -0.3766728 -0.32174405 -0.39478418 -0.19330089 -0.5679851 -0.16236915 -0.21221311
-0.025049236 -0.27560923 0.26201716 -0.6245962 -0.02192454 -0.31999397 -0.45124134 -0.5163997
-0.5073944 -0.67434776 -0.2731536 -0.19397748 -0.2665105 -0.056018386 -0.83866 -0.33874288
-0.38575304 -0.68221486 -0.22030166 -0.33718428 -0.44974783 -0.18394974 -0.30646327 1.0088996
-0.19278826 -0.79505205 -0.52374786 -0.3198996 -0.070255324 -0.45428613 -0.41404217 -0.40784624
-0.4143744 -0.47452843 -0.02400729 -0.6519785 -0.023158317 -0.40468344 -0.2702277 -0.25093994
-0.42849806 -0.69409925 -0.6829264 -0.09914155 -0.23165306 0.5106088 -0.59084255 -0.55243146
0.124507844 -0.33754885 -0.68191415 0.12851748 -0.3614688 -0.16931719 -0.025070624 -0.20067815

rnn.bias_hh f4 [600]
00000000: 74fc a93e 7e46 c3be 9711 18bf 2c08 b6be
00000010: 2808 dcbe 30bc 6c3e d0de 23bf 4f20 6539
00000020: 3ef1 bdbe 55ef 1fbe 5dbe 96be 639e cebe
00000030: 9dba c43e 83c7 383d 2655 04bf d31d c8be
00000040: eab9 0fbf 6ef5 713d 0d36 0dbf 92bc 7cbe
00000050: 8e91 213f 5e2a 2fbe a857 96be c7a0 2c3e
00000060: acc7 953e cd0f e3be 3d6c ebbe 94b9 a5bd
00000070: 7660 2dbf 545e 9d3d f50c d9be 684c b2be
00000080: 24f5 943d 3adb 843e 1341 a43f f928 e9bd
00000090: 08f2 c73e a6a9 fdbd af81 8abd 42b4 60be
000000a0: ed4c 74bd 70db ddbb 6860 08be f3a9 05bf
000000b0: 27f5 a73e 9951 a43c fceb 5ebe fd1b b9be
000000c0: 0123 cbbe d194 1b3b 0e38 8f3d ea40 a0be
000000d0: 980b 363e e7da 24bf 0410 2cbe 89ef bbbe
000000e0: be25 903c a8f8 073e b7a3 e3be bc52 7ebe
000000f0: 4b6d c4be c939 2e3b d9a2 cdbe 4f3a 68be
00000100: 296b 22bd 7986 263f ce1b 97be 8561 bbbe
00000110: 2a9b 9cbe 6bb1 45be 4792 8bbe 17bb b2be
00000120: b772 86be 142b 663e 4937 0bbf 9a9e 0b3e
00000130: 35a5 2ebe 5bd3 603c 511d 91be e66d 553e
00000140: c3d6 8bbd a9cc b23e 452d abbd 7771 1abe
00000150: cf0b a0be 511c 173d c26c 9cbc f4f8 c5be
00000160: 54e2 313e 9264 c4be ddaf e5be 0804 883d
00000170: 4baa 1ebe 8dab 8abe f399 edbd 4e90 443e
00000180: cc41 96be a369 6abe fce0 bb3e 3dcf edbe
00000190: b3a0 e3be c487 f33c db08 7c3e 05bf a53e
000001a0: 93ee fe3c 8e4f 0bbf cab8 c1be 9679 79be
000001b0: 2498 253e fd96 13bf 475b 4c3e b2fd dabe
000001c0: 1fde d6be e694 143e 55d0 3c3e 6922 0ebf
000001d0: 6221 dabe 095c c1be 79bc 4b3e 4a96 e83e
000001e0: 41bb 28bf f9e9 8bbd 4e1d afba f91f 203c
000001f0: c044 c4bd 25ab e7be 6e7c bfbe 8e9c 19be
00000200: 9a5b dbbd 4c7e 2ebe 603b 6bbd e1c7 2dbb
00000210: a12e bdbe a690 67be 0a26 a2be 9c18 073e
00000220: 83d0 d4be 1f19 cebe 4072 ad3e 3b9f 33bf
00000230: 6849 aabe 72af 363e 0a90 22be fe5b b8be
00000240: a181 17be 5e34 f4be e641 563e a60d 9abd
00000250: 76ae b1be e678 a3be 763e 983e daa9 2a3f
00000260: c6df f1be 6e3e 5c3f 2e04 99be 8e7d 25bf
00000270: ab93 4ebe 6aea 25be ddc0 95bd 34cb 9fbe
00000280: f6cd eebe 6814 c5be 9184 a0be 5cab b73e
00000290: 0b0b 36bf 4547 f1be 35d0 17bf d36b 6abe
000002a0: 2ee2 b2be 70ce 14be 192c d13d cf80 a1be
000002b0: 31d7 93be f7ca d73e 7531 90be ebd7 19bf
000002c0: 143f fa3e cc48 81be b4a0 08bf c49e 0fbf
000002d0: f485 34bf b2c6 13bf 5634 35bf 862e 8d3f
000002e0: 89dd 333f 00f7 44be 86ef c1be 081a 11bf
000002f0: 6615 5a3e bdbf 9fbe b42e 803f d243 23be
00000300: e62c d3be 8e65 c7be 4d60 d8be 1ca5 02bf
00000310: 0cc9 31be 5080 0cbf c6c1 45be 4233 e3bd
00000320: 9ac0 e2bc 5a41 5dbe d985 233e 0206 20bf
00000330: 9cbb e2ba cc59 c5be f0d4 b1be 9876 d2be
00000340: 9ffa 0bbf cb39 13bf 20dd 4bbe cb2e 1fbe
00000350: 4ae9 9fbe 68be 9fbd 5fbb 4ebf 0b5e 46be
00000360: ac3c aabe 8924 34bf aabd 00be 873a c1be
00000370: 991d 04bf 0e13 33be dc3e 67be 2c84 833f
00000380: a00f 0cbe 9819 43bf c7c7 16bf d52a bebe
00000390: 9dbb a3bd c704 fcbe a691 01bf 64cd 97be
000003a0: 030c 0dbf cf7d eabe eb42 9b3d 1b09 1dbf
000003b0: 78d0 fdbc a4a4 b8be 308f 93be 387d b1be
000003c0: 0116 cbbe 7da1 2ebf 8e83 0ebf 92fe 2fbe
000003d0: 9899 27be 4734 db3e 79da 3dbf a82b d3be
000003e0: 06d2 083e 159e c0be 51c2 12bf 3ed9 043e
000003f0: e40c a5be 8be1 82be be60 7dbd 0e51 7abe
0.3320042 -0.3813972 -0.5940184 -0.3555311 -0.42974973 0.23118663 -0.6401186 0.00021851178
-0.37098116 -0.15618642 -0.2944211 -0.40355214 0.38423625 0.045112144 -0.51692426 -0.39085254
-0.5614306 0.05907195 -0.551606 -0.24681309 0.63112724 -0.17106006 -0.2936375 0.16858207
0.292539 -0.44347993 -0.45981017 -0.08092037 -0.6772531 0.07684007 -0.42392698 -0.34823918
0.07273319 0.25948507 1.2832359 -0.11384768 0.39051843 -0.123858735 -0.067630164 -0.21943763
-0.059643675 -0.0067705438 -0.13318026 -0.52212447 0.32804224 0.02005844 -0.21769708 -0.36154166
-0.39675143 0.0023739825 0.069931135 -0.31299525 0.1777786 -0.6439652 -0.16802984 -0.36706188
0.017596122 0.13278449 -0.44460842 -0.24836248 -0.38364634 0.0026584736 -0.40163305 -0.22678493
-0.039652977 0.6504894 -0.295134 -0.3659784 -0.3058713 -0.19305961 -0.27260038 -0.34908363
-0.26259395 0.2247737 -0.54381233 0.1363472 -0.17055209 0.013722266 -0.2834268 0.20842704
-0.06828072 0.34921768 -0.08358244 -0.15082346 -0.3125901 0.03689224 -0.019094829 -0.386665
0.17371494 -0.3835798 -0.44860736 0.06641394 -0.15494649 -0.27084008 -0.11601629 0.19195673
-0.29347074 -0.2289186 0.36695087 -0.46447173 -0.4445854 0.029727824 0.24612753 0.323723
0.03111962 -0.54418266 -0.37836295 -0.24362788 0.16171318 -0.57652265 0.19956695 -0.4277168
-0.4196634 0.14509925 0.18438847 -0.55521256 -0.42603594 -0.3776553 0.19896115 0.4542716
-0.65910727 -0.06831736 -0.0013360174 0.009773248 -0.095834255 -0.4524776 -0.3739962 -0.15001127
-0.10710831 -0.17040366 -0.05742967 -0.0026516842 -0.36949638 -0.22613773 -0.31669647 0.13192981
-0.41565332 -0.4025354 0.33876228 -0.7016484 -0.3325913 0.17840365 -0.15875259 -0.36007684
-0.14795543 -0.47696203 0.20923576 -0.075221345 -0.34703416 -0.31928176 0.29735154 0.6666542
-0.47241038 0.8603276 -0.29886 -0.64644706 -0.20173518 -0.16202703 -0.073121764 -0.3120972
-0.4664151 -0.3849213 -0.3135114 0.35872924 -0.711106 -0.47124687 -0.59302074 -0.22892694
-0.34938186 -0.14531875 0.10213489 -0.31543586 -0.28875116 0.42147037 -0.28162733 -0.6009509
0.4887625 -0.25250852 -0.53370214 -0.5610163 -0.70516896 -0.5772506 -0.70782983 1.1029823
0.7025991 -0.19234848 -0.37878054 -0.56680346 0.21297225 -0.31200972 1.0014253 -0.1594384
-0.41245192 -0.38944668 -0.42260972 -0.51033187 -0.1736185 -0.5488329 -0.193122 -0.11093761
-0.02767973 -0.21606961 0.15969028 -0.6250917 -0.0017298344 -0.38545072 -0.3473277 -0.41106105
-0.5467929 -0.5751006 -0.19908571 -0.15545194 -0.31232673 -0.07799989 -0.80754656 -0.19371812
-0.33249414 -0.7036825 -0.12572351 -0.37739965 -0.5160766 -0.17487738 -0.22582573 1.0274711
-0.13677835 -0.7621093 -0.58898586 -0.37142053 -0.07994769 -0.49222395 -0.50612867 -0.29648888
-0.55096453 -0.4579911 0.07581123 -0.6134202 -0.030983195 -0.3606311 -0.2882018 -0.34665847
-0.39665225 -0.6821516 -0.55669487 -0.17186955 -0.16367185 0.42813322 -0.7416149 -0.41244245
0.13361368 -0.37620607 -0.57327753 0.12973496 -0.32236397 -0.255627 -0.06185984 -0.24444982

fc.weight f4 [100, 150]
00000000: bda5 f6be 924e 303f 3e2e 913f 386a 1a3e
00000010: d4c9 45bf db3e 8c3f 5e03 72bf ca02 a1be
00000020: 6f77 b3bf c7bf afbf 02bc 933f 6321 a0be
00000030: c7b6 233f 85b1 b3be 96fe b2bf cc9c 8ebf
00000040: ec13 923f b227 413e e178 03bf 0e47 d53e
00000050: b536 1140 c6da 2cbf ebd9 0a3f b3ad 293f
00000060: ca50 1440 2b00 ec3f 6a77 dabe 56ca 0940
00000070: bec8 21c0 bab3 6f3f 10c7 10c0 9d9e d23d
00000080: f3b8 e4bf 19db fa3e 997f 9cbf 5b29 11bf
00000090: 9fd1 53bf feaa a43f 95ef af3f 1484 613f
000000a0: 402e ab3f eef1 c2bf 6db1 63be 3920 7f3f
000000b0: 32ad 463f 267a fa3f fadc 233f f496 9dbe
000000c0: a567 0cbf a6cc 02c0 78b2 033e 02d7 5a3f
000000d0: a416 89bf 7c37 eabe dc09 5cbe acde 28c0
000000e0: 11bf 233f 989b 673f 0c9a 583f 6993 f3be
000000f0: 4ce5 dabe b269 613e 3e8f 42c0 d48f ae3e
00000100: 1708 013f daf5 d6bf f533 e83f 1178 32bf
00000110: dfca e8be 0817 0f3f 3598 ac3f 3ab1 2fbe
00000120: 9484 f13c 1e24 aabe f570 84c0 c6d9 983f
00000130: 3cc8 3740 a9f0 f23d 4cbe e43f 25c2 ca3f
00000140: 5190 3cbe 4d6c 1a3f 0d2f c9bf aa7b be3f
00000150: f047 a63f 0c53 673f 3971 3a40 2874 583e
00000160: bd29 0e3e 25e6 2cc0 df53 873e b779 c43a
00000170: db9a 1ebf 53c9 33bf e5aa 2240 ceab 1b3f
00000180: 6c99 c23e 4ee7 da3f 752e 0740 7e91 db3e
00000190: 8245 a33e d088 073f dcee 18c0 947a 9f3f
000001a0: 0310 a83e a464 ae3d c6fc b03f 3ca2 14c0
000001b0: 3069 eb3e bfa3 6d3f 0e29 5b3f 4ec8 babe
000001c0: c008 7fbf 97d1 c6be aea2 3cbf 88fe 31bf
000001d0: bd3a b7bf fb42 bdbf 0e93 e23e 9810 8b3e
000001e0: f9b5 f7bf 7ffc 49bd b670 f73e 1e13 e73d
000001f0: c942 d53e 72c9 05c0 86ef 4740 5078 95bf
00000200: 31ae aebe 9add 953f fdc6 363f ca6b 88bf
00000210: f6f3 803f 1e98 27bc afe8 a1be b690 1f3f
00000220: bae1 cabe 851b d5bd b1fd 0d3f 5348 db3f
00000230: b37b 953e 0c4d 58bd f4c7 ed3e 8644 093f
00000240: 4658 4e3f 2308 d03d 34c3 01c0 b6ed 8f3f
00000250: e053 80bf a740 08be a218 c5bf e5d1 ba3f
00000260: cf17 913f 9288 0abf 3bc8 fcbe 4a73 303f
00000270: 3236 44bf f645 c1bf d591 f7bf d73f ebbf
00000280: 0239 ab3f 17d7 9fbe 2c1a 133e a563 e03e
00000290: 1054 d1be b1ad 72bf ab45 143f 460f 7abf
000002a0: 60b1 83bf 2fbd 06bf 615e 1b3f deb6 01bf
000002b0: 3131 293e 7fb6 2e3f 1c9b a63f 0b99 4440
000002c0: cfb4 7cbf 8b7b 7f3f 2102 a0bf 7eae 453f
000002d0: de9f d3bf 3ec3 bc3f b032 bebe ff46 fd3f
000002e0: c358 88bf 3d98 dc3e 65f7 69be 3161 f43f
000002f0: f1fe 9e3f c2b8 683f 3433 d23f ce7c 31bf
00000300: be28 55be 9126 5f3e ff2c 1dbc 8a8f 2a3f
00000310: 8279 a23f bcae b6be 6cbd 55bf 163c 10c0
00000320: ab11 f0bd bc9d 703f efaf 8dbf d8c8 b4bf
00000330: d8d1 a2bf 3af9 29c0 1e00 aa3e ba6e 783e
00000340: b669 983f d4cd ebbe 8545 c03f 4d6d b83f
00000350: 4b37 92bf 61f2 5d3f 631c 033e dac3 04bf
00000360: ac74 b03f 73cc b0bf 66c0 a3bf 162e 9abe
00000370: 5a71 183f 44a6 753f 8176 37bf e747 f6be
00000380: 31fe bdbf 02b6 513e 6f8a 0740 5026 c63e
00000390: db4d fe3f 6af1 bd3f 3da8 93bf da49 fbbc
000003a0: bcf8 34bf de66 5d3f c295 223f b74d 3f3f
000003b0: d9b1 0040 3700 3e3f 9074 9cbe 9316 d0bf
000003c0: 1adb 6d3f bb94 58bf 57c2 edbe b4a6 2bbf
000003d0: f325 a93f 9dd1 0140 a93d a83f 281b 0240
000003e0: b0a8 e43f 7608 313e af24 f9be 266a 313f
000003f0: 6ed6 1fbf 69fb b83f fc85 cc3e 0379 653e
-0.48173323 0.6886989 1.1342237 0.15079582 -0.7726109 1.0956682 -0.9453639 -0.3144744
-1.4020823 -1.3730401 1.154175 -0.31275472 0.6395077 -0.35096374 -1.3983943 -1.1141601
1.141233 0.18862799 -0.5135632 0.41655773 2.268964 -0.6752132 0.54238766 0.6628067
2.317431 1.8437551 -0.4266923 2.1529746 -2.5278773 0.93633616 -2.2621498 0.10284159
-1.7868942 0.48995283 -1.222644 -0.5670373 -0.8274173 1.2864683 1.374499 0.8809216
1.3373489 -1.5230081 -0.22235651 0.9965854 0.77608025 1.9568527 0.6400906 -0.3077923
-0.5484565 -2.0437407 0.12861049 0.85484326 -1.0710034 -0.45745456 -0.21488136 -2.6385908
0.6396342 0.9047179 0.84610057 -0.47573403 -0.42753065 0.22012976 -3.0399928 0.34094107
0.5040297 -1.6793778 1.8140856 -0.69714457 -0.45467278 0.5589452 1.348395 -0.1715745
0.029482163 -0.3323068 -4.1387887 1.1941459 2.8715963 0.118623085 1.7870574 1.5840498
-0.18414427 0.60321504 -1.5717484 1.4881489 1.2990704 0.90361094 2.9131606 0.2113806
0.1388311 -2.701547 0.26431176 0.0014989887 -0.6195504 -0.7022907 2.5416806 0.6080903
0.38007677 1.7101839 2.1122105 0.4288444 0.31888968 0.52943134 -2.3895788 1.2459283
0.32824716 0.085152894 1.382714 -2.322402 0.4597869 0.9282798 0.8560952 -0.36480945
-0.99622726 -0.3883178 -0.7368573 -0.6952901 -1.43148 -1.4786066 0.4425282 0.27161098
-1.9352409 -0.049313065 0.4832818 0.11282943 0.41652516 -2.0904202 3.1239944 -1.1677341
-0.34117272 1.1708252 0.7139738 -1.0657895 1.0074451 -0.010229139 -0.31622836 0.62330186
-0.3962534 -0.104056396 0.5546523 1.7131447 0.29195938 -0.052807853 0.46441615 0.53620183
0.80603445 0.10157802 -2.0275393 1.1244419 -1.0025597 -0.13305913 -1.5398142 1.4595305
1.1335391 -0.5411464 -0.49371514 0.6892592 -0.76645195 -1.5099475 -1.934138 -1.8378857
1.3376772 -0.31218788 0.14365453 0.43826023 -0.40884447 -0.9479628 0.57918805 -0.97679555
-1.0288506 -0.5263242 0.60690886 -0.5066966 0.16522671 0.68247217 1.3016086 3.071841
-0.9871339 0.99797887 -1.250065 0.7721938 -1.6533163 1.4747083 -0.37148046 1.9787291
-1.0652088 0.430849 -0.2284828 1.909216 1.2421552 0.9090692 1.6421876 -0.6933106
-0.20816323 0.21792056 -0.009593247 0.66625273 1.2693331 -0.35680187 -0.8349216 -2.2536674
-0.1172212 0.93990684 -1.1069316 -1.4123793 -1.2720289 -2.6558366 0.33203214 0.24260989
1.190726 -0.46055472 1.5021216 1.4408356 -1.1423124 0.86697966 0.12803797 -0.51861346
1.3785605 -1.3812393 -1.279309 -0.30113286 0.5954796 0.95956826 -0.716652 -0.48101732
-1.4843198 0.20479587 2.1178243 0.38701105 1.986751 1.4839299 -1.1535717 -0.030674864
-0.7069204 0.8648509 0.6350976 0.7472796 2.010855 0.7421908 -0.3055768 -1.6256889
0.9291245 -0.84601945 -0.46437332 -0.67051244 1.3214706 2.0284188 1.3143817 2.0329075
1.7863979 0.17288384 -0.486608 0.69302595 -0.6243657 1.4451724 0.39945972 0.22409444

fc.bias f4 [100]
00000000: f4c5 10bf 1175 21bf 91d3 82be 5cc6 20bf
00000010: c7c9 9cbe 369d 47bf eddb 91be 65b9 39bf
00000020: bfaa 56bf 8d27 c1be ec26 023f 8692 ac3d
00000030: 1d98 193d d715 b0bc bc8a 093f 0e82 a6bc
00000040: f8d9 9ebe 514d c3bd 2833 a53e dd55 2bbf
00000050: 7024 fabe 3f29 613e 054d d63e e637 1b3d
00000060: 1919 b5bc 5f2b 8bbe 9191 77bf 40b3 943e
00000070: 7199 413f 504f f43e ec52 9fbe 49c3 b3be
00000080: e466 a8bd 31de 83bf 3032 d4bd 7e90 32bf
00000090: 06b5 05be 5fed 8ebe 592e 97be 4418 f9be
000000a0: ac2f c0be 3ee9 ccbe 8a89 e4be 605a c2be
000000b0: 713f adbd 2262 eabe 4f6b 14bf 30e1 07bf
000000c0: ee7b a6be 6df5 47be c547 abbe 7d91 bcbe
000000d0: 97e2 2abf 3ea2 e4be 4203 78be 08e2 75be
000000e0: 9e99 20bf b0ac 60be a55b 65be 916c 17bf
000000f0: b849 01bf 9e62 1abf c3c7 39bf 086f 1abf
00000100: a54a 6bc0 b022 63c0 3e76 64c0 fb33 51bf
00000110: 9f23 c0be 63ba 6ebf 056c 21bf 8634 94bf
00000120: cb95 5dc0 eebe 68be 385b bdbe 8abb 23be
00000130: e069 b3bf 6273 2bbf f262 90bf 6cfb 53c0
00000140: 8b1b 76c0 f7ea 5fc0 7e51 8ebf 5eea 73c0
00000150: 7a18 4bbf fc73 64c0 6b14 d7be 4340 65c0
00000160: 5f59 5cc0 c7a1 0bc0 f973 80c0 492c 59c0
00000170: 3f35 5ec0 9fb2 56c0 1bc3 5b3f 0438 6bc0
00000180: 6bae a2bf 59c1 71c0 8c81 48c0 bb82 72c0
-0.5655205 -0.63069254 -0.25552037 -0.6280267 -0.30622694 -0.7797426 -0.28488103 -0.72548515
-0.8385429 -0.37725487 0.5084064 0.08426385 0.037498582 -0.021494789 0.53727317 -0.020325687
-0.31025672 -0.09536231 0.32265592 -0.6692789 -0.48855925 0.2198839 0.41855636 0.037895106
-0.022106694 -0.27181527 -0.9670649 0.29043007 0.7562476 0.4771676 -0.31117952 -0.35109928
-0.0822275 -1.0302182 -0.10361135 -0.6975173 -0.13057336 -0.27915475 -0.29527548 -0.48651326
-0.3753637 -0.400217 -0.44636184 -0.37959576 -0.08459366 -0.45777994 -0.5797624 -0.53077984
-0.32516426 -0.19527216 -0.33453193 -0.3682975 -0.66752 -0.4465503 -0.24219993 -0.24012005
-0.627344 -0.21940875 -0.22398241 -0.59150034 -0.5050311 -0.6030673 -0.7257044 -0.6032567
-3.676431 -3.5489922 -3.569717 -0.8171994 -0.37527177 -0.93253154 -0.6305545 -1.1578529
-3.4622676 -0.22729084 -0.36983657 -0.15989509 -1.4016685 -0.66972935 -1.1280196 -3.3122206
-3.845431 -3.498716 -1.111862 -3.8111796 -0.79334223 -3.5695791 -0.42007765 -3.5820472
-3.4429548 -2.181749 -4.014157 -3.393328 -3.472 -3.3546522 0.8584458 -3.675294
-1.2709478 -3.777426 -3.132907 -3.7892292
