Results/Complete Sherlock Holmes/RNN/Adam/1/200/model.pt (torch, 324319 bytes, 6 tensors)

rnn.weight_ih f4 [200, 100]
00000000: 11c6 abbe ee34 e6be 16c7 4bbd e1fa 52be
00000010: 8e0e 41be 7fb3 9ebc c98a d4be da57 3d3b
00000020: ebfe 62be 8cc3 d3bd 26df 693e 7844 ac3f
00000030: bfcc 67bf c6ba 453f 8e2a b9be 0671 a3be
00000040: 9b95 7cbf dadc e03e b4b2 11be 56c3 e6be
00000050: f317 2abe 75df b33e f7be 223f 863e 57be
00000060: 475a febe 79c8 cfbe 75bc ba3e a96b 00bf
00000070: 1d57 30bf 719d 2e3f 8767 95bf 4be1 a53f
00000080: dcd7 edbd 2460 cfbc 92d7 8dbc b5ed 6a3e
00000090: 42d5 91bd 8fff a6be 4e78 52be d0d3 6d3e
000000a0: 2f1d e7be 9aa0 97be b7e5 33be 327a 963d
000000b0: df5a 3bbf ba48 dcbd 587b 7f3e 5ec9 3a3f
000000c0: 27c3 09be 31c9 573f 9e44 c5be d104 f53d
000000d0: 670b 2f3f 7c69 f0be 0edc 733e 15ca b73d
000000e0: f8bd 5cbe 85dd 3a3f 0463 ab3d 7da1 fb3d
000000f0: f7ad b33e f61a 1c3c f5f4 d3be e948 93be
00000100: 83ff 84bd e005 4d3c 348c ea3c 2225 133e
00000110: 5389 4fbf 9bf3 d5bb cf78 25bd c9bf 46bd
00000120: 0813 623c 7a64 b9be 21e3 e9be 880f f7be
00000130: 0ab0 503d bf2e 12bf b06f 24be ca09 13bd
00000140: 7822 4c3c ac28 2fbd 6111 27be 4860 5d3d
00000150: 6467 733e c80a 15bc f193 5abd c891 733c
00000160: 18c1 303c 7fd3 61bd de09 6e3d 84f3 8f3c
00000170: 268a 783d 5df5 823d ca9a 463f 90f8 0fbc
00000180: b1ca 5a3d c2df 6c3d 484c 41bd e0d5 393b
00000190: c71a babe 2401 04bf 99ca f4be 7412 0bbf
000001a0: 9b88 f6be 4409 21be 9bcc 393e 9ed3 873d
000001b0: 2fe1 05bf e6d2 34be 42fc c9be ea72 093e
000001c0: abca 813e 3af7 f33e 0aad 073f ccfc 053d
000001d0: e032 803f eb85 f0be 5e80 23bb 41a3 98be
000001e0: df6f 653f 4f9d 9a3f 8075 c73e b63a 8f3f
000001f0: 0505 d13e d0f8 7b3f fc7a 76bf f002 c53f
00000200: 3890 4b3e f1ae 33bf 8451 9f3f c577 343f
00000210: c0ec 233f 0cd4 2bbf 39c5 e8be a304 303d
00000220: 04e9 34be 5f13 c9bf 6398 33bf 3e24 163e
00000230: 4412 6dbe ddc5 02bf eeed 153c 9eb1 cfbe
00000240: 8503 b7be a69e d2bd 4f83 373e 136e f83e
00000250: 80ab 82bd 3681 693e c5ec e53e 9dab 25bf
00000260: 197f ddbe 9a74 20be 3605 7abf 14c3 dbbe
00000270: 8f69 9dbd 5b0d 583e d975 a9bc c060 e1bd
00000280: 1762 a6be 4e65 4abd ef55 323f d18e 8dbd
00000290: f0f0 d33c a465 8e3c 809e e9bb 1d1d c73e
000002a0: 0085 5dbe e6af 7abe cc9c 7c3e 22bb 0e3d
000002b0: 5ea5 d5bc 7b96 713e 3a2c ef3e a4bc c33e
000002c0: 3c14 2abd 63e3 c4bc d1b2 d33e f561 903d
000002d0: 7ea9 683d 88ee f1bc 3989 3a3f 3851 393c
000002e0: 6fca b03d 532d 8a3d 75d6 1a3e a238 e0bc
000002f0: 3805 2e3c 28ae 05bc 75d8 40bd 4219 693d
00000300: 3ca7 eabc 945b 103d ad33 ff3d 3a5d 153d
00000310: b9f7 103f 08e7 acbc c87e 013c 888a 8a3c
00000320: 2920 58bb e2bb 80be f009 883e 0f56 8f3d
00000330: 1988 283e f005 453d 3a53 15bd 1952 8b3d
00000340: 3494 4cbe d040 9ebe 97b0 67bf 894e c43e
00000350: 6b75 373f f9ea 72bf 1c16 fabe 550e dbbe
00000360: 6d3f d93d be8c a03f 4cdf ba3f a959 85bf
00000370: ade7 7ebf 65a7 22bf 69f0 90bf 4a56 34be
00000380: f12e 3cbf 885c a7bf b502 b8bf e230 b4bf
00000390: d057 46bf ad71 2e3f e5cf c23f 1869 093f
000003a0: c942 adbe b77b 9ebc 0257 9ebf e451 6cbe
000003b0: 41de bb3d 4a01 673e 7f52 523d 4a4a 2f3f
000003c0: c431 9bbe 1293 21bf a595 b03e 6803 2ebe
000003d0: 16f7 393e f233 12be d222 d83e 5087 043e
000003e0: f92b ae3e e0e7 783e 4173 2abf 84ef a53e
000003f0: a55f e6be 07fa 9dbe 62b3 f63e 612b 9b3e
-0.3354955 -0.44962257 -0.04975041 -0.20603515 -0.18853208 -0.0193727 -0.41512135 0.0028891475
-0.22167556 -0.10340032 0.2283903 1.3458395 -0.9054679 0.7723812 -0.3616528 -0.31922168
-0.9866578 0.43918496 -0.14228326 -0.45070904 -0.16610698 0.35131422 0.6357264 -0.21019945
-0.4967825 -0.40582636 0.36471906 -0.50164276 -0.68882924 0.68208987 -1.1672219 1.2959379
-0.116134375 -0.025314398 -0.017314706 0.2294224 -0.07120754 -0.3261685 -0.20553705 0.23225331
-0.45139453 -0.29614717 -0.17568098 0.07347526 -0.73185533 -0.10756059 0.24949396 0.7296351
-0.13453351 0.8429137 -0.38528913 0.11963809 0.68376774 -0.46955478 0.23814413 0.08974091
-0.21556842 0.7299426 0.08368495 0.12286661 0.35093662 0.009527912 -0.41397825 -0.28766564
-0.064940475 0.012513608 0.028631307 0.14369634 -0.81068915 -0.006529284 -0.040398415 -0.048522744
0.013798483 -0.3620947 -0.45681098 -0.48254037 0.050949134 -0.5710258 -0.1605823 -0.035898007
0.01245939 -0.042763397 -0.16315223 0.0540469 0.23769909 -0.009096809 -0.053363744 0.0148663
0.010788225 -0.05513334 0.05811488 0.017572172 0.060678624 0.063944556 0.7757994 -0.008787289
0.053415958 0.05783058 -0.047191888 0.002835624 -0.36348554 -0.5156424 -0.4781082 -0.5432503
-0.48151097 -0.15726191 0.18144457 0.0663216 -0.5229673 -0.17658576 -0.3945027 0.13422742
0.25349936 0.47649556 0.5299841 0.03271179 1.0015526 -0.4697717 -0.002494834 -0.29812053
0.89623827 1.2079257 0.38956833 1.1189792 0.40824142 0.9842653 -0.9628141 1.5391521
0.19879234 -0.70188814 1.2446752 0.70495254 0.64033127 -0.6712043 -0.4546297 0.042973172
-0.17667013 -1.5709037 -0.701544 0.14662263 -0.23151499 -0.51083165 0.009150965 -0.405652
-0.35744873 -0.10284166 0.17921184 0.4852148 -0.06380367 0.22803196 0.44907203 -0.64714986
-0.4326103 -0.1566948 -0.976642 -0.4292227 -0.07686149 0.21098845 -0.020686077 -0.11004782
-0.32496712 -0.049413018 0.69662374 -0.06912006 0.025871724 0.01738245 -0.0071294904 0.388894
-0.21632767 -0.24481162 0.24669188 0.034846433 -0.02607983 0.2359256 0.4671343 0.3822986
-0.041523203 -0.024034208 0.41347364 0.07049934 0.056802265 -0.029532686 0.72865635 0.011310868
0.08632361 0.06746926 0.15120871 -0.027370755 0.010621361 -0.008159198 -0.04708143 0.056908853
-0.028644197 0.035243586 0.12461028 0.03646586 0.56627995 -0.021106258 0.007903762 0.01691176
-0.0032978153 -0.25143343 0.26570082 0.06998836 0.16458167 0.048101366 -0.036456324 0.06802768
-0.1997841 -0.30908823 -0.9050383 0.38341168 0.7166354 -0.9488979 -0.48844993 -0.42784372
0.10607801 1.2542951 1.4599395 -1.0417987 -0.9957226 -0.63536674 -1.1323367 -0.17611042
-0.73509127 -1.3075113 -1.4375826 -1.4077418 -0.7747774 0.68142205 1.5219694 0.53675985
-0.33840016 -0.019346101 -1.2370303 -0.23078114 0.09173251 0.22559085 0.051348206 0.6847273
-0.30311406 -0.63115036 0.3448917 -0.16993487 0.18160662 -0.14277628 0.42214066 0.12942243
0.34017923 0.24307203 -0.66582114 0.32409298 -0.44994846 -0.30854818 0.48183733 0.30306533

rnn.weight_hh f4 [200, 200]
00000000: 891c 78be 9c93 bdbe 6095 b13e aead a43e
00000010: 60b7 5dbe 76fa 3fbe f04b bfbe 3901 3bbf
00000020: 4b8b 893e e1c2 85be 4b7a c3be 504e 20bf
00000030: d66e c73e 29f8 0fbf a80f 1c3d 44d1 093c
00000040: 25e2 ebbe d9be 91bd 24e4 b1bd 2a52 b2be
00000050: 25df dfbe 61dc 22bf 7697 b2be 8e74 203f
00000060: 44a6 b33e c401 17be e91d ebbe dfb3 5fbe
00000070: 6566 febd 0256 ccbd 0e63 a73e fe57 07bf
00000080: 54e1 903e f32f 27be 519f 1ebf f8d3 073f
00000090: 8a2b 03be 191b d1bd 243e 6d3e eb6e 81bd
000000a0: f970 cc3e 80c5 fd3c eeaa 1c3d af7b 79be
000000b0: d0c2 8fbd 646c 4bbe 32e3 a93e 2999 343f
000000c0: d362 87be c281 53be 69b6 c7be e92b 893e
000000d0: 77ca 16be 822f 723f 6fa0 293f 2945 eb3c
000000e0: 7e32 3bbe 71cd cabe 595c 323e 8537 9a3e
000000f0: 8ace 893a d0c2 393d 6574 eebe 58e5 5f3d
00000100: 20ad 803e a114 38bf 1e19 df3d c193 25be
00000110: 0435 cc3d e0f2 72bd bb16 9bbe 06f0 d43e
00000120: 7894 25bf 5d6a 58be bade 013f f519 d7bb
00000130: d0a3 4a3e 7649 1bbe e748 173c bd1a 3d3e
00000140: 8dc6 22bf 39b7 c3be 0e39 863a 30ee 9dbd
00000150: 4705 933e 4cf5 c2be 4a40 3c3e 3d81 abbe
00000160: c191 683f 33a9 293e 35a1 99be f821 3f3e
00000170: 0ec5 11bd 92e1 e53d d96e 233e 5848 d7bd
00000180: 7b83 aa3d dcaa e3be 5e8b c03e c90b 89be
00000190: 2ac4 da3e 3d81 6ebf 43ae 60be 95e8 9fbe
000001a0: 62e4 bbbe 5e32 3cbe 740e c23e e23c 02bc
000001b0: ce5f 693f 5a82 9d3e 2fa5 d9bd 4dfe 1cbf
000001c0: 8547 e03e 691a f23c 309d 703e 5961 a63e
000001d0: 3752 61bd 2cd8 543e 7f92 393f 4cfe b43e
000001e0: 9cb7 bfbe 69b9 253f dd94 073e 3a51 3abf
000001f0: b746 873e 0e93 f13c 9804 f53d 1f88 15be
00000200: b87b 413f e078 283e 1355 0f3d fe9a cc3e
00000210: 4c8c 893c 63f6 c73e 2ef3 94bd d818 c23d
00000220: e030 623f 75e6 003e 8b83 74be 6e22 b33e
00000230: b6c1 0ebf fe25 8a3e 0c77 593f 0f1d 6e3e
00000240: 4e83 f63d 0012 82be 2b70 b5bd 4b38 7dbe
00000250: ac6a 2a3e fc5e 7a3e 96dd 8d3e a827 adbe
00000260: 1117 193f 12d4 87be 2509 96be 5ea9 fa3e
00000270: 4e17 b73d 412b f3bc 4c8b 903e fb4a 223f
00000280: 87cd bf3e fc40 36be 0cd6 ce3e 4e7d 8b3e
00000290: 8062 8bbe 4a8f ca3e 872d 4b3e 9420 733e
000002a0: 27ae 543e f539 41be 6f70 913e cfcf 81be
000002b0: b397 75bf 4a31 113f eb23 c1be 3ace e43c
000002c0: f6db 813e aa28 043f fae1 613d b99c 503e
000002d0: e8f8 003e 2f73 cb3e 6bae 293f 2672 93be
000002e0: 9e4d 403e 8f3c 0bbf 805e 2c3f 6d0a 4ebf
000002f0: ba68 7b3d 74da 903e 2a6c 77bc e25b 7bbe
00000300: 4acd 16bf ab8c 1ebe 38e1 e73c 07d9 14bf
00000310: ce74 acbd c54a f3be b4ca ccbe d4f7 bcbe
00000320: f03f c53c 9a37 113e 41e9 cabd 464c 46be
00000330: 3d4f 6c3b 8713 5fbd 6130 1cbe ff5e c73d
00000340: ae5b 5bbd c6d6 2a3e c6b7 a73e e769 bc3e
00000350: d746 babe 3af7 b03c 2558 a83e 0a84 3c3d
00000360: 77ff 76be ce16 6bbe f034 80bc 6ca8 8d3d
00000370: 5a77 48be fc56 853e d24d c03e f23d 16bd
00000380: fa9f a13e f573 fdbd 771b 803e 67ed 3bbe
00000390: bf40 873e fb7b 7a3e 1860 14be 1ef6 9f3e
000003a0: 27df 22bd 8c78 fbbd 139d bc3d f745 78bd
000003b0: e728 383d 5ce7 883d 9395 4dbd 71af ce3d
000003c0: b3e0 febd eb47 5f3d 4a17 1a3d 2139 d33e
000003d0: 3c45 5b37 2f68 a9bd 0d9a df3d 72a0 aebc
000003e0: b1ef 163e d354 5bbe 2498 2bbd 62f7 aeba
000003f0: 5324 103d 1207 88bd 1d1f f1bd f9a4 aa3e
-0.24229635 -0.3702668 0.34684277 0.32163757 -0.21651983 -0.18747887 -0.37362623 -0.7304874
0.26864085 -0.26125243 -0.3817924 -0.62619495 0.3895175 -0.5623804 0.03810087 0.008411709
-0.46070972 -0.071164794 -0.086860925 -0.3482831 -0.43724933 -0.6361752 -0.3488118 0.6267785
0.35087788 -0.14746767 -0.45921257 -0.21845959 -0.12421874 -0.09977342 0.3269276 -0.5286864
0.28296912 -0.16326885 -0.6196185 0.53057814 -0.12809578 -0.102102466 0.23168236 -0.06319984
0.3992994 0.030977964 0.03824895 -0.24363588 -0.070195794 -0.19865566 0.3318115 0.70546204
-0.26442584 -0.20654967 -0.39006355 0.26791313 -0.14725672 0.9460374 0.6626043 0.028719502
-0.1828098 -0.39609864 0.1741804 0.30120483 0.0010513824 0.045351803 -0.46573177 0.05466208
0.25132084 -0.7190648 0.108934626 -0.16169645 0.099710494 -0.059313655 -0.3029078 0.41589373
-0.6467967 -0.21134324 0.5073048 -0.0065643736 0.19789052 -0.15164742 0.00923369 0.18467231
-0.63584214 -0.38225725 0.0010240392 -0.07711446 0.28714964 -0.38077772 0.183839 -0.33497038
0.908474 0.1656845 -0.30005804 0.18665302 -0.035588317 0.11224665 0.15960254 -0.10511845
0.08325859 -0.44466293 0.3760633 -0.26766804 0.42727786 -0.9316595 -0.21941476 -0.31232134
-0.3669768 -0.18378589 0.37901652 -0.007949086 0.9116181 0.30763513 -0.106272094 -0.6132553
0.43804565 0.029553609 0.23497462 0.32496145 -0.055010047 0.20785588 0.7248916 0.35350263
-0.3744477 0.6473604 0.1324038 -0.7278019 0.2642114 0.029489066 0.11963767 -0.14602707
0.75579405 0.1645236 0.034993242 0.39962 0.016790532 0.39055166 -0.07272945 0.09477395
0.8835583 0.12587912 -0.23878305 0.34987205 -0.5576433 0.2698211 0.84947276 0.23253272
0.12036763 -0.25404358 -0.08859285 -0.24728505 0.16642255 0.24450296 0.2770812 -0.33819318
0.5980082 -0.26528984 -0.29303852 0.48957342 0.08939992 -0.029683711 0.28231275 0.6339566
0.37461492 -0.17798227 0.4039768 0.27244037 -0.27223587 0.39562446 0.19841586 0.23742896
0.20769559 -0.18869765 0.28406093 -0.25353858 -0.959346 0.56715834 -0.37722716 0.027930368
0.2536313 0.5162455 0.05514715 0.20372285 0.1259495 0.39736316 0.66281766 -0.28798026
0.18779609 -0.5438928 0.67331696 -0.8048466 0.061379172 0.28291667 -0.015101472 -0.2454677
-0.58906996 -0.15483348 0.028305635 -0.5814366 -0.08420716 -0.47517982 -0.399984 -0.36907828
0.02407834 0.14181367 -0.09907771 -0.19365034 0.0036057972 -0.054461982 -0.1525283 0.09734916
-0.05355423 0.16683492 0.32757396 0.36799547 -0.36382172 0.021602262 0.3287975 0.04602436
-0.2412089 -0.22957918 -0.015650243 0.069168895 -0.19576779 0.26042926 0.37559372 -0.03668017
0.31567365 -0.12375633 0.25020954 -0.1835228 0.26416585 0.24461357 -0.14489782 0.3124246
-0.039763596 -0.12278852 0.09209647 -0.0606136 0.044960883 0.06684753 -0.050191473 0.100920565
-0.12445202 0.054511946 0.037619866 0.41254523 1.3069537e-05 -0.082718246 0.10918055 -0.02131674
0.14739873 -0.21419077 -0.04189314 -0.0013348872 0.03519089 -0.066419736 -0.117735125 0.3332899

rnn.bias_ih f4 [200]
00000000: 8ef4 aebe 04ea 663f 3053 e0be 1e31 19bf
00000010: b440 e2bd 9677 e63e 6c5e 063e 770f ae3d
00000020: 3d87 0a3e 931f 2c3e 9306 893f acff 3d3f
00000030: 18f4 b9be 808b ee3e 4f54 ba3e 0f06 8a3e
00000040: 2aa7 5c3e 51bd 4a3b 1632 b6be 100e c0be
00000050: 9df2 643e 3ce7 4a3f 5c3a 8f3f 810a 31be
00000060: 73bc 43be 8ed2 8cbe 70de 2c3f 5ce5 193f
00000070: 92a5 ff3d b40e 953d 0faa ddbe ab00 063f
00000080: 2687 c83e 7a40 9fbc 9466 d03c 9861 bbbe
00000090: a9ee c0bc 01f0 19be 146a 603e eab0 a4be
000000a0: 7769 03be c501 863d c459 f53d 613c 633d
000000b0: 9527 9fbe f83f 833e 9237 d93e f9e4 8abe
000000c0: 3774 723e f4e6 ea3e b441 f5bd 7d47 c03e
000000d0: efb4 60be 55bc 49bc 79ea 9dbe cfe5 9f3f
000000e0: e540 c23e 18c2 703e 517d 56bf ba49 67bf
000000f0: 38b7 693e 5203 29bf a5af 183f aa30 a63e
00000100: 1b86 903e 6877 a63d 085c abbe df65 d0bc
00000110: 8aa1 01bf 26b8 c2bd 1ff3 9f3e ce1b 8c3e
00000120: e6ee a4bd 90d3 dbbe 2aac e9be cd12 28be
00000130: 7337 eabd 1900 ae3e 8faa 48bf e7be 5cbd
00000140: de25 c73c 9101 363f f287 2e3f 0f4a bfbd
00000150: 7e5f 91bf 7026 173e 0c83 4cbf 3ded 953f
00000160: b836 47be 24e3 77be 4864 8dbe 44ee 0c3e
00000170: 5b69 c73e 7baa 4ebe 3973 1abe 3fd3 98be
00000180: bb1b 2cbe 00d7 ba3e 79da 05bf 872c 253f
00000190: 799e 31bf 0f34 853e 0fb2 c7bc 474f 773f
000001a0: 9ffd 973e cd55 a83e 508d afbe fa3d 933e
000001b0: 400f 16bf b0ab 6fbd 5410 043c 8050 89bd
000001c0: 2175 ae3d 094f cd3e 263c efbc 15a3 a2be
000001d0: 6e61 bc3e 8ce2 87be 4ba8 0dbf d757 69bf
000001e0: 0d08 c73e 1932 9fbe b551 173e abfa ed3e
000001f0: 2118 e1be 5a7d 7cbd 136d e33d fb02 35be
00000200: 3715 b4bd 9217 d9be 6f68 ea3e af50 9cbe
00000210: 1961 8d3e e69a 0ebf 2aeb f63e 799e 133f
00000220: ec5b cbbd 2570 6ebf 549a 783c 4c52 44bf
00000230: 7ea9 873d ab99 9abe cbf5 303e c5de 093e
00000240: 1469 10bf ee3e a2be 2f5e 043f d584 873f
00000250: bf4d e03e 0d4d 3b3e f6d3 ad3e 6f4f ad3d
00000260: ba3a fbbe a4ad 10bf 5f52 a33e 9506 0cbf
00000270: fab0 9fbf de8b 5e3e 7c7c 87be eb67 03be
00000280: c34f 30be eef6 ea3e 89c4 73be 15d9 5cbf
00000290: 995e 173f 1bdf cdbe c3f7 85be ac13 ecbe
000002a0: b350 f8be 2c63 f4be 1710 f2bd 5dec 483d
000002b0: ff6b 283c 5bd9 94bd 46ed 6a3f 9b91 f7be
000002c0: 2a02 aabf 9cbb 3bbd a0b6 d8be 41d3 a33e
000002d0: bcc3 723f 34ea 91bf 583e 30bf 6262 323e
000002e0: bde2 83be e484 063e 4048 cb3d bf3c a43e
000002f0: a3c9 28be 709d b0be 28b5 043e cf9c ff3c
00000300: 8b1c 05be 194a 233f b979 363e 77f9 553d
00000310: c536 5e3f bc76 c53d 9582 0c3f 4824 1f3f
-0.34170955 0.9020083 -0.43813467 -0.5984057 -0.110474974 0.45013112 0.13121957 0.084990434
0.13528152 0.1680892 1.0705131 0.7421825 -0.3631904 0.46590805 0.36392447 0.26957747
0.21548143 0.0030935595 -0.35585088 -0.3751073 0.22358175 0.79259086 1.1189685 -0.17289163
-0.19114856 -0.2750439 0.6752691 0.601156 0.12482752 0.07278195 -0.43293807 0.5234477
0.3916561 -0.019439925 0.025439538 -0.36597896 -0.023551302 -0.1503296 0.21915466 -0.32166225
-0.128332 0.06543306 0.11980012 0.055477504 -0.31084886 0.25634742 0.4242521 -0.27127817
0.23677145 0.45879328 -0.119754225 0.3755454 -0.2194402 -0.012312968 -0.3084295 1.2492007
0.37940136 0.23511541 -0.8378497 -0.9034687 0.22823799 -0.6602069 0.5964301 0.32459003
0.28227314 0.08128244 -0.33468652 -0.0254392 -0.50637114 -0.0950778 0.31240174 0.27364963
-0.08053379 -0.42934847 -0.45639163 -0.16413422 -0.11436357 0.3398445 -0.7838525 -0.053892996
0.024310049 0.7109614 0.68176186 -0.093402974 -1.1357267 0.14760756 -0.7988746 1.1713024
-0.19454467 -0.24207741 -0.2761557 0.13762766 0.38947567 -0.2018222 -0.15083016 -0.29848668
-0.16807453 0.36492157 -0.5228649 0.6452107 -0.69382435 0.2601628 -0.024376897 0.9660534
0.29685685 0.3287796 -0.342875 0.28758222 -0.5861702 -0.058513343 0.008060534 -0.06704807
0.08518434 0.40099362 -0.029203486 -0.31765047 0.36793083 -0.2654003 -0.5533492 -0.9114966
0.3887333 -0.3109291 0.14777263 0.46480307 -0.4396372 -0.061642982 0.11104789 -0.17676918
-0.08793109 -0.42400795 0.45782802 -0.30530307 0.27613142 -0.55705106 0.4822629 0.57663685
-0.09929642 -0.9313987 0.015173513 -0.76688075 0.06624125 -0.30195364 0.17281263 0.13463886
-0.56410336 -0.31688637 0.5170621 1.0587412 0.43809316 0.18291111 0.33950776 0.084624164
-0.49068242 -0.56514955 0.31898782 -0.54697543 -1.2475884 0.21733043 -0.26462162 -0.1283261
-0.17217927 0.45891517 -0.23805441 -0.8626874 0.5912872 -0.40209278 -0.2616559 -0.46108758
-0.4849907 -0.47731912 -0.11819475 0.04905354 0.0102796545 -0.0726802 0.917683 -0.48353276
-1.328191 -0.045833215 -0.42326832 0.3199711 0.94829917 -1.1399598 -0.6884513 0.17420343
-0.25758925 0.13136631 0.0992589 0.32077596 -0.16483168 -0.34495115 0.1295973 0.031202702
-0.1299917 0.6378494 0.17819871 0.05223986 0.8680232 0.096417874 0.5488675 0.62164736

rnn.bias_hh f4 [200]
00000000: 436b a4be 16be 5b3f f6d3 03bf e9e0 02bf
00000010: ff0e f5bd 71cf fc3e 042b 313d 4eb9 adbc
00000020: b0a2 3c3d beaa 603e 1476 8b3f a0cc 4d3f
00000030: 4dd6 b3be 10eb eb3e 3c53 9c3e 942a 4f3e
00000040: c14c 403e e70e 68bd 771b bebe f9ba a4be
00000050: 4f49 4d3e ada2 4d3f cb0e 8c3f 5b6e 71be
00000060: a480 18be 8e04 8dbe 98b1 1d3f 2246 1f3f
00000070: ae90 0d3e aac3 f5bc a288 dcbe e2a0 e33e
00000080: 5eb7 b53e 2c43 07be ced6 643d 90f8 b6be
00000090: c651 2bbd 7384 3dbd ac9a 7e3e da0b bbbe
000000a0: 4a47 1bbd 662c 1d3e 46e5 4b3e fa2c 98bd
000000b0: e3e6 cabe 5775 873e 4ece b43e 93a0 b8be
000000c0: 7307 993e 1a12 eb3e 984f ffbc 6ea6 b23e
000000d0: 41f5 98be a041 fcbd e53c 82be e8f9 963f
000000e0: 1bce a63e 9027 b23e d346 4ebf 4ebc 6cbf
000000f0: 1205 533e 25b4 25bf 5cb0 1f3f 9014 403e
00000100: 18c1 993e 44a3 043e f4fb 9fbe f0be 55bd
00000110: 8f7d c7be 8cac dcbd 5957 843e 7843 9c3e
00000120: 4a0f b1bd f5f1 eabe c9ff c8be 53f9 febd
00000130: ee59 0fbe 8d52 9b3e 3169 53bf 5501 0fbe
00000140: 80ec a6bd 44dd 383f a832 1c3f 3c1d 03be
00000150: 8c14 90bf 24d4 c93c a81e 4bbf e320 963f
00000160: ac0f 04be 6fe2 40be d84e 8fbe d1d6 133d
00000170: a128 cf3e 0b42 12be dbae 09be b61a d4be
00000180: b9f4 cbbd 73c9 c53e 4233 1dbf 5469 173f
00000190: 0711 2dbf 4c07 8a3e 4ce2 463b ddc4 773f
000001a0: 62ac 943e 5ed5 d03e c83f b6be 6245 793e
000001b0: dd0b 11bf a590 993c 7633 b93d 2708 7ebd
000001c0: ae9e f73c 7ff6 cf3e cf40 bbbc 784d 45be
000001d0: d93e 983e f422 1ebe ac18 0dbf 5988 63bf
000001e0: d53f e83e 17b4 b1be b301 e83d 16c1 023f
000001f0: cae6 f6be d825 c5bc b3f9 fa3d e117 f4bd
00000200: 9399 49be 8c49 f1be d612 fd3e f26c cfbe
00000210: 33bd 843e e89e 1dbf 759d cd3e ae08 ef3e
00000220: 4a20 03be d142 66bf 7375 943c 3a40 3abf
00000230: 2289 123e 93fe acbe ea33 213e 592c 1d3e
00000240: 6a6d 10bf e71c aebe 58d5 0c3f ad3e 863f
00000250: 9c9a 013f abe9 243e 455a c83e e441 3e3d
00000260: 9f30 08bf 4775 06bf 4946 9d3e 3433 00bf
00000270: 1e11 a1bf 5697 153e c34a 90be 1595 e5bd
00000280: f93c 2dbe 3691 cf3e 6a1b 3bbe 6703 4cbf
00000290: 324e 1b3f cbc2 c6be 6b30 babe 8ab8 c8be
000002a0: 9200 dabe f00c c8be 35d6 8abd 7ad1 c93d
000002b0: ad5a 13bd 713a 17be d743 5c3f af98 f6be
000002c0: 4e52 b0bf ec11 0dbd 0c17 b5be 1934 af3e
000002d0: 5206 593f 7f4f 8bbf 0944 2bbf d428 4d3e
000002e0: 98fd a4be 17f3 7d3e cfe1 d23d 9fe4 b23e
000002f0: 3b3b 85bd da58 b6be 8484 053e 2d88 2abd
00000300: 85d9 23be 1d5f 0d3f e07a 9e3d 636f b33d
00000310: 2cb9 603f 01c0 0c3e 4fc5 1a3f 8cc2 283f
-0.32113084 0.85836923 -0.514953 -0.51124436 -0.11965751 0.49377015 0.043253914 -0.021206524
0.04605359 0.21940133 1.089541 0.8039036 -0.35124436 0.46077776 0.30532253 0.20231086
0.1877928 -0.056654837 -0.3713033 -0.321739 0.20047496 0.8032635 1.0942014 -0.23577254
-0.14892823 -0.27542537 0.6159911 0.6221639 0.13824722 -0.030000526 -0.43072993 0.4445868
0.3549146 -0.13209218 0.055868916 -0.35736513 -0.041826032 -0.04626889 0.2486369 -0.3653248
-0.037909783 0.15348968 0.1991168 -0.074304536 -0.39629278 0.2645671 0.35313648 -0.36060008
0.29888496 0.45912248 -0.031165883 0.348926 -0.29874614 -0.123172045 -0.25437084 1.1795015
0.3257912 0.3479581 -0.8057682 -0.9247483 0.20607403 -0.64728004 0.6237848 0.18757844
0.3003013 0.12952906 -0.31246912 -0.052184045 -0.3896298 -0.10775098 0.2584789 0.30520225
-0.08645494 -0.45887724 -0.3925765 -0.124498986 -0.13999149 0.3033642 -0.82582384 -0.13965352
-0.081505775 0.72212625 0.61014795 -0.12804121 -1.125627 0.02463729 -0.7934365 1.1728786
-0.12896603 -0.18836378 -0.2798984 0.036093537 0.40460685 -0.14283006 -0.13445608 -0.4142663
-0.099587865 0.38630256 -0.6140634 0.5914509 -0.67604107 0.26958692 0.0030347286 0.96784765
0.29037768 0.40787786 -0.35595536 0.24342874 -0.56658727 0.01874573 0.090430185 -0.062019493
0.030227032 0.4061775 -0.022858052 -0.19267833 0.2973545 -0.15443021 -0.5511577 -0.88879925
0.453612 -0.3470771 0.11328449 0.51075876 -0.48222953 -0.024065897 0.122546576 -0.11918617
-0.1968749 -0.47126424 0.49428433 -0.40512806 0.25925598 -0.61570597 0.40159193 0.4668631
-0.12805286 -0.89945704 0.01812241 -0.7275425 0.14310125 -0.33787975 0.1574246 0.15348949
-0.5641695 -0.34006426 0.55013037 1.0487877 0.5062654 0.16104762 0.3913137 0.046449557
-0.5319919 -0.525227 0.30717686 -0.5007813 -1.2583349 0.14608511 -0.2818204 -0.11210076
-0.1691779 0.40540475 -0.18272176 -0.7969269 0.6066619 -0.3882049 -0.36365065 -0.39203292
-0.4257856 -0.3907237 -0.06779138 0.098544076 -0.035975147 -0.14768387 0.86041015 -0.48163363
-1.3775117 -0.03444092 -0.35369146 0.34219435 0.8477527 -1.0883635 -0.6690069 0.20035106
-0.32224727 0.24799763 0.10296976 0.3494005 -0.06505438 -0.35614663 0.13038832 -0.041633774
-0.16000946 0.55223256 0.0773828 0.0876148 0.8778255 0.13745119 0.6045732 0.65921855

linear.weight f4 [100, 200]
00000000: e0c1 4bbc 547d 69be 5311 f23d 742a 133e
00000010: dd29 243e d920 80bc 625a 8f3d b6b3 dfbd
00000020: a252 983d d77c 2abc b943 5ebe 5ec1 65bd
00000030: d5c3 c53e 1f04 1ebd 5c71 1ebe 6394 56bf
00000040: 4d8a 1e3e 1986 263e cffe 813d 70d0 89bc
00000050: 7459 0f3e 407e 88bd 8653 1bbe 282e 493e
00000060: 8561 1ebd 85bb f83d bf0f 003e 4af4 103e
00000070: 8a66 c5bf 900a fdbe 0fe3 7d3e b9a7 14be
00000080: 4690 c73d 6131 863d 8e9c 4dbf 88a3 8d3d
00000090: 76d0 adbe c2aa 253f da60 003d ef63 dfbc
000000a0: d018 163e 52c9 8d3d 645b 5b3f 8114 53be
000000b0: e039 903d ece1 0dbc 6bea cc3d ef2c ae3b
000000c0: 33b6 ff3d 8181 ec3d 652d 7cbe 7968 e03d
000000d0: b20a 46be 4237 a03f 467f b73d 4ad9 d3bd
000000e0: ebd0 223c 2e01 17be 7484 1a3e 4005 3e3e
000000f0: cde4 04be 2f04 693d 85fe 053d e783 0abe
00000100: 7895 3abe 3874 c8bd 778d 20bf 835a b5bd
00000110: 4055 543e 3a75 6fbc a168 50bf 7ae3 b1bc
00000120: cf7b 41be 053e 9ebd cfc1 f8bd 7c28 133d
00000130: eb09 153f c223 ce3c cc49 083e 43ba 65bd
00000140: 52f9 c73d 31ce 64be f544 2f3e dd89 2dbf
00000150: af24 6e3e 01df 87bf 9c36 41bc 8fbf 80be
00000160: 9cb8 a73c 3802 30bd 8c8a 4f3d 33fa e4bd
00000170: df61 c93e bdc5 653e c5a1 5bbe 6add 69bd
00000180: f95a b0bd 1e5a 29be a982 893e 20d5 503d
00000190: 1c94 373e e54f f0bd 06cc 803c 2888 7dbe
000001a0: b0e0 7dbd 21e7 413d a692 ec3d 4acc febd
000001b0: 361e 5cbe adfe 03be 9232 fbbd fd91 debc
000001c0: 9ca7 893d ff90 e6bd 8d66 93bf 1c5b 0a3e
000001d0: 4b9e 0abf 7110 84be 2fe2 0fbc 6105 1cbc
000001e0: 7d78 c93c 60d2 04be dafb 3d3e ec6c 1dbe
000001f0: 18fe 423e ef15 bb3f c043 babd b0a4 143e
00000200: 018f 383d 9e2b 973d 1bf7 303d 2d69 b13d
00000210: 9b4e 8dbd aae0 883e 5610 f93d 5081 0dbd
00000220: c222 503d 928b f63d 72dd 53be 3d37 113e
00000230: 6a9e b63d 9f28 173d 4c7b 803e 432c 973e
00000240: 3090 05bc e79c b73d f54c e6bd 06a6 d7bc
00000250: 1c19 2ebd 66e5 293c bbad 933c ab11 5bbe
00000260: a089 b7be 9e2e d8bc 7acc 603e f5c3 273e
00000270: 05d6 b6bd c7fa af3e 71cb 9b3e 881c 35bd
00000280: c112 a2bd c544 cdbc 3a8f 2f3e 94be 2f3e
00000290: 9ea7 c6bd 7d90 0a3d 9acc 42be cba4 003e
000002a0: ba4f 1b3e a685 7b3c 7b26 70be bb7c 65be
000002b0: 7506 bdbd f8ef 6abe db37 93be 0950 9d3f
000002c0: 79a9 2d3e c10e 923e 2f6d 9d3d d48e 593e
000002d0: f18d 01bf b74a 873e 23ba a93d daa1 db3e
000002e0: ea67 a93d 8705 f8bd 33be 953d 4151 ad3c
000002f0: 145f 9abe 6a6a 953e 24d3 d73e eb07 cfbe
00000300: 4582 e23d b343 67bd 7980 57be f5fa 13bd
00000310: 7f42 3ebe e980 f7be b38f 5bbd f1c3 82bd
00000320: 45bb 93bb fbb9 21be 2721 e43d 5251 033e
00000330: 690f 383e 8a78 50be 881a b83d 2bad 35be
00000340: b825 563d 06a3 35be cfd6 8fbe 39ff e33b
00000350: 91d0 963e 3847 c9bc 1a3f 55bd 4ea6 41be
00000360: cc1d 1bbf 42ca 4b3e 6fc0 12bd 796c 67bd
00000370: b75b 653e 2bd1 b0bd 7bcb b0bd c7eb 393e
00000380: ac2d 78bd 0066 2c3e 99be 5a3e 552c 343e
00000390: b8d2 abbf e390 12be d1e5 b53e d0ae 3bbe
000003a0: 701c fb3d 3ad4 183d 2db8 a4bd e93c 29be
000003b0: ca54 89be 9614 f03e 87f8 903d 50a6 85bc
000003c0: b3c5 5c3e 3efd 4a3d d82e 343e ac06 3abe
000003d0: d4a8 00bc 4a38 8bbd 249e b7be 2ddc 883c
000003e0: 6481 11be 89be 7c3e d446 e1bd e6c2 9d3b
000003f0: 7788 043e 4ea6 0d3f 5b94 5f3d 15a5 cfbd
-0.01243636 -0.22801715 0.118197106 0.14371663 0.16031595 -0.015640663 0.06999661 -0.10922949
0.07437636 -0.010405741 -0.21705522 -0.056092612 0.3862597 -0.03857815 -0.1547293 -0.8382017
0.15482445 0.16262092 0.06347429 -0.016823024 0.13998967 -0.06664705 -0.1516858 0.19646513
-0.03866722 0.121451415 0.12506007 0.14155689 -1.5421917 -0.4942212 0.24793647 -0.14517106
0.09744315 0.06552387 -0.8031701 0.06915957 -0.33948106 0.6471368 0.031342365 -0.027269332
0.14657903 0.069231644 0.85686326 -0.2061329 0.07042289 -0.008659821 0.10005649 0.005315415
0.124859236 0.115481384 -0.24626692 0.109574266 -0.19340017 1.2516863 0.08959822 -0.10344179
0.009937505 -0.14746544 0.1508959 0.1855669 -0.12977906 0.056888755 0.032713432 -0.13526879
-0.1822108 -0.09787792 -0.6271586 -0.08855154 0.20735645 -0.014615351 -0.8140965 -0.021714915
-0.18894885 -0.07726673 -0.12146341 0.03592728 0.5821826 0.025163535 0.13309401 -0.056085836
0.09764351 -0.22344281 0.17116149 -0.6778849 0.23256181 -1.061493 -0.011792805 -0.25146148
0.02047377 -0.042970866 0.050669238 -0.11180534 0.39332482 0.22438712 -0.21448429 -0.057095923
-0.08611102 -0.16538283 0.26857498 0.0509845 0.17927593 -0.11733989 0.015722286 -0.2475897
-0.061981857 0.047339562 0.115514085 -0.12441309 -0.214959 -0.1289012 -0.12265505 -0.027169222
0.06721422 -0.112581246 -1.1515671 0.13511318 -0.54147786 -0.25793794 -0.008781954 -0.009522767
0.024593586 -0.12970877 0.18553105 -0.15373582 0.19042242 1.4616069 -0.090949535 0.14515948
0.045058254 0.07381366 0.04320441 0.08662639 -0.068997584 0.26733905 0.12161319 -0.03454715
0.050814398 0.1203834 -0.20689943 0.14181228 0.08916934 0.036903974 0.25094068 0.29525957
-0.008152053 0.089654736 -0.11245147 -0.026324283 -0.042504415 0.010369634 0.018027177 -0.21393459
-0.35847187 -0.026389416 0.21953002 0.16383345 -0.0892754 0.34371015 0.3042865 -0.044216663
-0.07913733 -0.025057206 0.1714448 0.17162544 -0.09699939 0.0338292 -0.19023362 0.12562864
0.15167132 0.0153516885 -0.23452179 -0.22410862 -0.09229747 -0.22943103 -0.28753552 1.229005
0.1695918 0.2852688 0.07686841 0.21245891 -0.5060721 0.2642419 0.08287456 0.4289692
0.08271773 -0.12110429 0.07311668 0.021156909 -0.30150664 0.2918275 0.42153275 -0.40435728
0.11060003 -0.056461047 -0.21045102 -0.036128003 -0.18580054 -0.48340538 -0.05360384 -0.06385029
-0.0045084083 -0.15793602 0.11139136 0.1282399 0.17974629 -0.20358482 0.089894354 -0.1774184
0.052282065 -0.1773797 -0.28093573 0.006957915 0.29456 -0.024570093 -0.05206213 -0.18911096
-0.6059234 0.19901374 -0.03582805 -0.056499932 0.22398268 -0.086336456 -0.08632561 0.18156348
-0.06059043 0.16835785 0.2136177 0.17595036 -1.3423681 -0.14313082 0.35526899 -0.18328404
0.122612834 0.03731177 -0.08042941 -0.16527142 -0.268225 0.46890706 0.07078653 -0.016314656
0.21559791 0.049557917 0.17595994 -0.18166608 -0.007852752 -0.06797846 -0.3586284 0.01670655
-0.14209515 0.24682058 -0.109998375 0.0048144935 0.12942682 0.55331886 0.054584842 -0.10138909

linear.bias f4 [100]
00000000: a383 4ebe be31 71be 1d4b 56be f4ba 3dbe
00000010: 0ef1 f3bd 361d 9abe b888 83be fdf7 77be
00000020: 7fd4 88be 541b 5cbe cc0e c63d f195 27bc
00000030: 9b12 ec3c 00fd 833c 96e4 a53d 9be9 0f3d
00000040: f518 b1bc 04ea 5fbd 8388 833d 5327 49be
00000050: 1623 2fbc 73fc 283d 157f 4c3d dbcb ed3d
00000060: c402 013e bee1 293d 3624 a6bd 56d8 e63d
00000070: 6e71 f53d 947a 163e 263c e63a a269 a7bc
00000080: 2ece ee3b c9ed 7bbe 8555 f4bb e349 f9bd
00000090: 95ed 16be 47ef 1abe fe76 febd 85dc 42be
000000a0: 8226 6abe 8131 35be 2853 30be eda9 7dbe
000000b0: 8481 34be 0ee6 88be 4d66 69be 3a69 31be
000000c0: acff 42be 2c0f ecbd 1193 57be 9a11 2fbe
000000d0: bc36 67be 33ce 57be 10a1 6cbe dab3 6dbe
000000e0: 56ef 57be b8c2 0cbe d14a 9dbd 8624 cfbd
000000f0: 66a4 d5bd e9bb 45be 3f99 1dbe f5ce dcbd
00000100: a050 55be 8e03 4abe 78c9 2ebe 7299 aebe
00000110: 0c47 d2bc 691b 94be 9946 52be 487b 23be
00000120: 5c4c cdbd f0df 723b 06ca 1abd 43e4 c4bd
00000130: ad6d 53be b3de 68be 2f8b 4dbe 4008 e9bd
00000140: de4a bdbd 4084 57bd a249 58be b659 38be
00000150: 8bcb 87be 9b4b 1bbe 86d9 86be 13eb 73be
00000160: 7fd7 1abe 5100 c0bd b822 22be a12c 0fbe
00000170: 7ec9 bfbd 17cd 2dbe b9fe 423e 9586 f2bd
00000180: 5c4c 323d f2e1 dabd 2165 1fbe db94 8ebd
-0.20167403 -0.23554131 -0.20927091 -0.18528348 -0.11911212 -0.3010041 -0.25690246 -0.24215694
-0.26724622 -0.214948 0.09670791 -0.01022862 0.028817466 0.01611185 0.0810024 0.035134893
-0.021618346 -0.054666534 0.06422522 -0.19643907 -0.0106895175 0.04125638 0.049925882 0.11611148
0.12598711 0.04147505 -0.081123754 0.112717316 0.119845256 0.14695197 0.0017565533 -0.020436112
0.007287762 -0.24602427 -0.007456484 -0.12172296 -0.14739068 -0.1513034 -0.1242504 -0.19029434
-0.22866252 -0.17694665 -0.17219222 -0.24771853 -0.17627531 -0.26738018 -0.22792931 -0.17325297
-0.19042844 -0.11526331 -0.21052195 -0.17096558 -0.22579473 -0.21074753 -0.23108315 -0.23213139
-0.21087393 -0.13746154 -0.07680286 -0.10114388 -0.10431747 -0.19309963 -0.1539049 -0.107816614
-0.20831537 -0.19727919 -0.17069042 -0.34101444 -0.025668643 -0.28927162 -0.20534743 -0.15964997
-0.1002433 0.0037059747 -0.03779032 -0.0961385 -0.20647307 -0.22741203 -0.20072626 -0.11378527
-0.092427954 -0.052616358 -0.21121839 -0.18002972 -0.26522478 -0.1516556 -0.26337832 -0.23820142
-0.15121268 -0.0937506 -0.15833557 -0.13981868 -0.093646035 -0.16972767 0.19042481 -0.11842076
0.043529853 -0.10687627 -0.15565921 -0.06961986
