Results/Complete Sherlock Holmes/LSTM/ASGD/3/50/model.pt (torch, 309727 bytes, 14 tensors)

rnn.weight_ih f4 [200, 100]
00000000: b5bb cebe f01c 8b3f 1af2 893d 9420 c23e
00000010: ca31 973e 7fb0 0d3e 7b92 2b3c e7a0 8f3e
00000020: 9ac6 c13e 21f7 30bf 5bab 0a3f 7d9e dfbe
00000030: 7d48 a83e 98bf be3d 9b14 46bf 2ce1 0c3f
00000040: 0c91 5bbe 7818 d4bf 1dba 74c0 3a9f c53f
00000050: 591a 213f f45b 79bf fde9 633f 110c 413e
00000060: 09a8 78bf a512 b5bf 999f 83bf f22e 02bf
00000070: bcfe 6c3e 3c54 f6be 4b5f b1bf 3068 d43e
00000080: a080 b13f 0fe9 22bf 0685 823f c441 1dbf
00000090: d92a 75bf e222 97bf cb16 783f 45d9 a13d
000000a0: f623 a8bf 824b 95bf 65c2 86be ad34 7b3f
000000b0: ba55 c5be bc47 523f 9270 b9bf f6a0 b4bf
000000c0: 2237 51bf 5b20 803f 9762 e2bf 22c0 60bf
000000d0: 1b11 d8be 569e 20c0 6f6c dd3f 87e8 1c40
000000e0: 0abd cebe 9bf9 5b3f d42e 273f 38da a13e
000000f0: c280 3d3f 62b0 b53e a9de 263f cdba ec3e
00000100: 40e0 5c3c 2094 b3bd ea6d b4bd 53e2 30bf
00000110: 5355 02bf 6809 ca3d b4d3 cb3e eb55 02bc
00000120: 30e7 c2bc 7d61 a43e 1892 1dbf c33e fd3e
00000130: 10c0 9a3d 16f2 ed3e c820 b53e 18dd fbbd
00000140: be5d 0fbd 6189 d1bd 7914 333f b4e1 823d
00000150: f907 913e 6003 da3d e9bb a03e 20a5 e43c
00000160: 3eca 2dbd 3a70 cdbd 586c ab3c afa9 f3bd
00000170: 1081 d73d 94d8 24bd bb98 96bf 602a a1bc
00000180: 0162 ed3f d690 f93d d4a9 aebc 2576 bebd
00000190: 789d 26bd 256e 923e 6c9d 8c3e 551c 12bf
000001a0: d0d6 4abf dd2e 1bbf 63b9 323d ade1 e2be
000001b0: fa31 b5bd 53a5 e1bd d69f 753e f159 4a3e
000001c0: f22a 963f d3b9 37be e1f2 18bf 5d8d a83f
000001d0: 204d 743f 0d55 78bf f6c5 b33e 593a ed3d
000001e0: f5b3 423e 29cc e7bf 63a0 aebe af7f 70bf
000001f0: aea9 95bf a9e0 043b bd3e 4b3f 1745 2a3e
00000200: 7c04 3c3f e7da cb3e dc06 143e f380 afbe
00000210: 339a 0abf a9a2 203f 35a8 323f 3711 dd3e
00000220: 8b96 543d 5f59 5a3f d4cc 0d3f 0258 4d3f
00000230: 4d32 f33e f771 fe3e 50b4 bd3e 38ac aa3f
00000240: a94f d0bf abd4 39be dddc b53c d1a4 723f
00000250: ba87 cd3f 55bc c33e 6a9d 3ebf 3d76 18be
00000260: 70e6 933e f071 bc3e 7616 d63f b39b 503e
00000270: d28d 27be 464d 09bf f169 59bf e4c9 90be
00000280: db5c 0f3f a7b4 e43e 5f25 8cbf 4157 5bbe
00000290: 90c0 693d 2642 e7bd b687 e1bd 1c08 943d
000002a0: 524d c2bd 12b4 3a3d bb34 26bf f8e7 b13d
000002b0: 884f 0fbe a583 21bf 2a6e a93e 8c94 a73e
000002c0: c861 22bd 77ee bdbf 24ea 9dbf 3cc5 7ebd
000002d0: fe94 10be 2162 f7bd ae8e edbe cfb3 f7bd
000002e0: d9dd 11bf da9c c9bd ec2a b7be e0cf 8fbc
000002f0: a0a6 d23b 1ab3 b5bd c0de aebb f23c ccbd
00000300: 60a1 ac3c 7bf5 0b3e 8aaf 83bf a479 b0bd
00000310: 0335 febd f21d 82bd b23f 02be 3c8f 983d
00000320: c2fb e83c e921 aa3e bfda b43e 1d94 8c3e
00000330: a9fe 82be 2727 f73d cb5a abbd 8d27 78bd
00000340: 5d6c 883e b627 683e 7706 95bf 3557 803f
00000350: 9783 72bf 3053 6dbf f829 763f 0c5b 85bf
00000360: f346 93be 31d0 d43e 6898 7c3f bedd da3e
00000370: b1f9 e0be 4eb6 85be e889 043f 6a5f 90bf
00000380: 9d44 bbbf 7345 be3d eb16 683b aae5 a43c
00000390: cb8e 87be 1c63 a43e e410 403e 815a 87be
000003a0: 07c7 6e3f 3feb 5a3f 9b2d cc3e a9f4 ed3e
000003b0: f964 633f 427e d8be 8ce2 3a3e dd84 e13e
000003c0: 628d 1a3f 3776 83bf 78cc bcbd db5b 8f3e
000003d0: db7d afbf 1d45 c83e 12ba 6b3e f654 19bb
000003e0: 2f79 24bf 8406 40bd 7e67 63be 835d ebbd
000003f0: eca8 e63d 54b9 403f 2ebe fb3e 91e2 60be
-0.40377584 1.0868206 0.0673563 0.3791548 0.29530174 0.13836859 0.010471935 0.28052446
0.37846833 -0.6912709 0.5416772 -0.43675604 0.32867804 0.09313887 -0.7737519 0.55031085
-0.2144205 -1.6569967 -3.8238595 1.5439217 0.6293083 -0.97405934 0.8902891 0.18852259
-0.971314 -1.4146315 -1.028308 -0.5085288 0.23144048 -0.4811114 -1.3857206 0.4148574
1.3867378 -0.6363687 1.0196846 -0.61428475 -0.95768505 -1.180752 0.9690978 0.07902769
-1.3135974 -1.1663668 -0.26320186 0.9812725 -0.38541967 0.8214071 -1.4487479 -1.4111621
-0.8172475 1.0009874 -1.7686337 -0.8779317 -0.4220055 -2.509664 1.7298716 2.4516923
-0.403786 0.8592774 0.6530583 0.316118 0.74024594 0.35486132 0.651835 0.46236268
0.0134812 -0.08768487 -0.08810027 -0.69095343 -0.50911444 0.09865075 0.39809954 -0.007955055
-0.02379188 0.32105628 -0.61551046 0.49461946 0.07556164 0.4647376 0.35376573 -0.1229803
-0.03500151 -0.10231281 0.69953114 0.06390706 0.28326395 0.10645175 0.31393364 0.027910769
-0.0424292 -0.10031171 0.020925686 -0.11897599 0.105226636 -0.040245607 -1.176536 -0.019673526
1.8545533 0.121858284 -0.021321215 -0.09299878 -0.040677518 0.2859966 0.27463853 -0.5707448
-0.7923403 -0.6061838 0.04363383 -0.44312802 -0.08847423 -0.11017861 0.23986754 0.19760872
1.1731856 -0.1794198 -0.59745604 1.3168141 0.95430183 -0.9700478 0.3511197 0.115833946
0.1901396 -1.810918 -0.3410674 -0.9394483 -1.1692407 0.002027551 0.79392606 0.16627918
0.7344434 0.39815447 0.14455742 -0.34278068 -0.5414154 0.627482 0.69787914 0.43177196
0.05190138 0.8529262 0.5539067 0.80212414 0.47499314 0.49696323 0.3705163 1.3333807
-1.627431 -0.18147533 0.022200042 0.9478274 1.6057045 0.38229623 -0.74458945 -0.14888854
0.28886747 0.36805677 1.6725605 0.20371895 -0.16362694 -0.53633535 -0.8492728 -0.2827903
0.5600106 0.44669077 -1.0948905 -0.21420003 0.057068408 -0.11291914 -0.11012213 0.07228109
-0.09487404 0.045581885 -0.6492421 0.08686823 -0.13995183 -0.630915 0.3309186 0.3273052
-0.039644033 -1.4838399 -1.2337079 -0.062199816 -0.14119336 -0.120792635 -0.46397918 -0.12094843
-0.5697914 -0.0984437 -0.35774934 -0.017555177 0.0064285547 -0.088720515 -0.0053366125 -0.09972562
0.021073043 0.13667862 -1.0287945 -0.08616951 -0.12412455 -0.06353368 -0.1271961 0.07449195
0.02844036 0.33228996 0.3532314 0.2745675 -0.25584915 0.120680146 -0.08366927 -0.060584594
0.26645175 0.22671399 -1.1642598 1.0026613 -0.9473204 -0.9270506 0.9615779 -1.041841
-0.28765067 0.41565087 0.98670053 0.427473 -0.439405 -0.2611565 0.5177293 -1.1279118
-1.4630314 0.0929059 0.003541405 0.020129044 -0.2647613 0.32106864 0.18756443 -0.26436237
0.9327244 0.8551521 0.39878544 0.46475723 0.8882595 -0.42283827 0.18250483 0.4404668
0.60371983 -1.0270451 -0.09218687 0.27999768 -1.3710283 0.3911523 0.23020199 -0.0023396588
-0.6424741 -0.046881214 -0.22207448 -0.11492445 0.11262688 0.7528279 0.49168533 -0.21961428

rnn.weight_hh f4 [200, 50]
00000000: 3d80 aa3e c0f6 843f 4abc d4be be16 953f
00000010: dd03 6abf e9b6 9c3f 2dc3 32bf 7b87 873e
00000020: 168d f6be fad9 45bd 5c9a d6be 9cbf 0b3c
00000030: 9667 3cbf a3a0 0040 fd14 3e3f 0631 b3bf
00000040: ae04 6f3f 0c7d b33c 1a34 5cc0 0fb1 993e
00000050: 7fa2 9abf 2597 d4bd 6bf2 3abf c658 d4be
00000060: 5018 03c0 82ca 7fbf e2ae 08bf deec e33e
00000070: 75b7 40be dccd 993f 8107 c23e 2f10 66be
00000080: 2d9c c6bf f1af b3be 0910 1bbf 63a3 c5be
00000090: 816a 7fbf ba03 7e3f 8883 1940 9a4e bdbf
000000a0: bf0e a53f e40d 553f 4985 2fbf c1ea 8f3d
000000b0: 3e80 35bf 5a28 71be 6862 e13e f7bb afbd
000000c0: c3dc 69bf 5a0a a1bf 76f8 22bf b992 e8be
000000d0: 6227 4f3f 8ec4 303f f9fb 6abf e3d3 20bf
000000e0: 72d4 583e 6be3 6a3f 49d9 9fbd aa9a 38bf
000000f0: 9e00 a1bf 0482 c53e fa68 1fbf c789 d1be
00000100: cf0f c33f 8e1e 10bf ff05 40bf 6ff7 2c3f
00000110: 41df 30bf fcb4 563d 9b09 b6bf 0c8c 07bf
00000120: 37ae 8d3f 46da 923f 208e 5e3f af16 7ebf
00000130: f29b d6bf 3b4c fa3e e6fb f63c 6ee7 4abe
00000140: cb1b bcbf 9262 c4be 4271 233f 0c1c d13f
00000150: e47a 30bd fba3 3ebf 6d1a 41bf ead4 40bf
00000160: 1b38 463f 5429 4c3e ea99 913f cd1d fbbe
00000170: 9ecc ba3d d1de b9bf 2cbb e53e 49ac 4e3d
00000180: 1d31 3a3f b1c2 2cbe 00d2 d7be 0637 903f
00000190: 1df2 c8bf 708d 053f a700 e33e 3a31 793e
000001a0: 2d3f 8ebe 59fa 84bd a45e ecbf a860 b83f
000001b0: e275 93bf 3ee0 4a3f 409c f73d 4e34 debe
000001c0: 6320 883f 8bd0 ffbe c633 223f 7821 cdbe
000001d0: 3b9e 9a3f c8d1 98bf d23b 80be 4bd8 933e
000001e0: c21e 37bf 7e36 24bf 9d4a 043f 1414 de3f
000001f0: e91f c5be 0bd9 2abe afaf 5bbf e240 2a3e
00000200: eb6d 90bf eb5d 403e 82aa d73d e9a4 90be
00000210: 50a8 40be 6d4e 4b3f bf8f 1cbc a2a7 5cbf
00000220: e42a 3b3e b525 0abb 2a16 2a3e 5d8a bfbe
00000230: f524 c33e e3b6 ca3e f036 38bf 79d4 7fbf
00000240: 2ab2 ddbc cef4 a8bf 5a01 423f 76ab 063f
00000250: 3359 953f 52c8 ce3f ba2b 6d3e e57b 943e
00000260: 105b 9e3d c3b7 6f3f d02c 1cbf f0e1 9c3b
00000270: 20c8 81bf 96ee 363f 9bc2 88be 5460 2abd
00000280: 8c15 54bd 8cea e4bf 67ed 153e 10f0 483d
00000290: d78a dabe 513b 473c 7c32 c73e 14bb 1b3f
000002a0: b959 29bf 7c16 11bd 998b 35bf 9fbd 373d
000002b0: 5f47 1ebf b1a3 103f 211a b53e d667 07be
000002c0: 7b41 f7bf 2aeb b93e 4c34 953e e03d b93e
000002d0: 5987 68bf 3486 30bf 3a40 0fbd 1dcc af3e
000002e0: 17bf 413e bb8a 6a3f f1da f03e 727a 2fbe
000002f0: f9fd 0c3e 185c 67bf 5e39 cc3e 7f9b f4be
00000300: 37f8 8e3e 39d7 e1be 9b3e c53e a46e 3dbf
00000310: dbbc 2d3f 454c 693f f217 21bf d6d3 25bd
00000320: 2640 57bf 61fa f9bd 8106 483f d1e5 7ebf
00000330: 9fb9 1bbf 48f8 6a3f fc30 d1bf 4db3 c03f
00000340: f1af d1bf 9138 353f 7de2 ab3e ecc9 da3d
00000350: 0daa 0a3f 06ad a5bc 2230 8d3f 793e c0bf
00000360: 89d6 873f d22f 83bf f1ed ed3e fcbf 0e3f
00000370: 68c9 b33b 4be0 a3bf 91ae 813e 1a37 2c3f
00000380: 2d8b c1bf 069d fcbd 420c afbf f856 b63f
00000390: 3781 06bf fd7c a73f 9298 803e de87 843f
000003a0: af7b 91bf be52 d0be 16d5 c93f fdfe 323c
000003b0: 8cb0 5ebf 3ac9 a13f 0b42 7a3f 639e 61be
000003c0: 3a03 7f3f d4c6 733f 6eb7 873e 06a2 8fbf
000003d0: 1c52 a7be 7ea4 3abf 5f7e 943f dd52 363e
000003e0: 1441 013e 9e16 343f 8e1b 053e f2a0 bcbb
000003f0: ba99 47bd 6fea ca3d fa68 1cbf d9cc babc
0.33300963 1.0387802 -0.41549903 1.1647565 -0.91412145 1.224332 -0.69829065 0.2647055
-0.48154515 -0.04830358 -0.41914642 0.00852957 -0.7359556 2.0098045 0.74250776 -1.3999336
0.93366516 0.021910213 -3.44068 0.30017897 -1.208084 -0.10380391 -0.7302615 -0.4147398
-2.048359 -0.9991838 -0.5339185 0.44516653 -0.18819983 1.2015948 0.3789635 -0.22467111
-1.5516411 -0.3509517 -0.6057134 -0.38601217 -0.9977189 0.99224436 2.398653 -1.4789612
1.2895125 0.8322432 -0.6856275 0.07027198 -0.7089881 -0.23550549 0.4402039 -0.08580773
-0.9135248 -1.2581284 -0.6366037 -0.4542444 0.8091947 0.6904992 -0.9179073 -0.62823313
0.21174791 0.9175326 -0.07805116 -0.72111 -1.2578313 0.38575757 -0.62269557 -0.40925428
1.5239199 -0.5629662 -0.7500915 0.67565054 -0.6909066 0.052418694 -1.4221681 -0.5294807
1.1068791 1.1472862 0.86935616 -0.9925336 -1.6766341 0.48886284 0.030149411 -0.19814846
-1.4695982 -0.38356453 0.6384469 1.6336684 -0.043085948 -0.74468964 -0.7543095 -0.7532488
0.7742936 0.1993764 1.1375096 -0.49046174 0.09121059 -1.4521123 0.44869363 0.050457273
0.7273119 -0.16871144 -0.42152405 1.1266792 -1.5698887 0.5216894 0.44336435 0.24335185
-0.27782574 -0.064930625 -1.8466382 1.4404497 -1.152035 0.79248416 0.12090349 -0.4339928
1.0634884 -0.49963793 0.6336025 -0.40064597 1.2079538 -1.193902 -0.2504564 0.28875956
-0.7153131 -0.6414565 0.5167635 1.7349877 -0.38500908 -0.16684358 -0.85814947 0.16626313
-1.1283544 0.18785827 0.10530569 -0.28250816 -0.18814206 0.79416543 -0.009555756 -0.8619329
0.1827808 -0.0021079604 0.16610017 -0.3741025 0.38114133 0.39592656 -0.7195883 -0.9993358
-0.027062494 -1.3199708 0.7578331 0.5260538 1.1667846 1.6154883 0.23161212 0.29000774
0.077322125 0.93639773 -0.6100588 0.004787676 -1.0139198 0.71457803 -0.26710972 -0.041595772
-0.05177836 -1.7884078 0.14641343 0.049057066 -0.4268405 0.012160138 0.38905704 0.60832334
-0.6615253 -0.035421833 -0.70916134 0.04485857 -0.61827654 0.56499773 0.35371497 -0.13223204
-1.9316858 0.36312228 0.29141462 0.3618002 -0.90831524 -0.6895478 -0.03497336 0.34335414
0.18920551 0.91617936 0.4704204 -0.17136553 0.13768758 -0.903749 0.39887518 -0.47774884
0.27923748 -0.44109514 0.38524327 -0.7399695 0.67866296 0.91132003 -0.6292716 -0.040485226
-0.8408226 -0.12205959 0.78134924 -0.9956942 -0.6083011 0.917851 -1.6343074 1.5054718
-1.6381818 0.7078944 0.33571234 0.10683045 0.54165727 -0.020224106 1.1030314 -1.5019065
1.0612346 -1.0248969 0.46470597 0.55761695 0.005486656 -1.2802824 0.25328496 0.6727158
-1.5120598 -0.12334637 -1.3675616 1.4245291 -0.52540916 1.3085018 0.25116402 1.0353963
-1.136587 -0.40688127 1.5768154 0.010925052 -0.8698814 1.2639534 0.97757024 -0.22033076
0.996143 0.9522526 0.26507133 -1.1221321 -0.32679832 -0.72907245 1.1601065 0.17805047
0.12622482 0.7034701 0.12998793 -0.005756491 -0.04873059 0.09907996 -0.6109768 -0.022802757

rnn.bias_ih f4 [200]
00000000: fb9b 4ebe a0b8 3cbe e6f3 dbbe 5824 ea3d
00000010: 14bf a5bd 738d 923e a58c 733e 3931 c43f
00000020: c7f7 373f d78b 283f 5d28 0a3f 74fc cfbe
00000030: dfa9 443f 1d75 5b3f 4ae3 6e3f 2c54 543f
00000040: 8827 c4be db73 143f 7cc3 9abe 5ccd 913d
00000050: 813c 043e f878 19be 9272 cbbd a3f0 903e
00000060: cbe5 303f b6e3 72bd 829c b23e 19d2 103e
00000070: e801 2e3f d48e d53e 33c2 18be 706a 113f
00000080: 5f83 c73e 7505 0d3f bfe8 90be 93a5 643c
00000090: 2245 bd3e d60f 243f fbbc 2c3f e9e0 073f
000000a0: 7424 8cbe 031d 4b3e b0ee 863e 9107 89bd
000000b0: d3c7 443f 1804 c23e 7549 87be 556b dd3e
000000c0: a36c b0bd 6221 0f3f af38 dfbe 61b3 513e
000000d0: 8ab5 c73e ce05 8a3f cb12 013f 3f8f 6a3e
000000e0: d6b6 063f 2b12 57bd 07bc bf3e a135 09be
000000f0: aefa 4a3f be1d 28be 1da3 cf3d 96ae 96bd
00000100: ff92 a13e c740 fb3d 7cd9 2c3f c91d 153e
00000110: b503 de39 cd32 7f3c 521f 99be 6cbd c4bd
00000120: a754 5fbe 1c80 1dbf 19bb 4f3d 7486 dbbd
00000130: fbf2 b7bd f564 963e 6cb0 4abe abb6 69be
00000140: 9720 ed3d 050a dcbd 0260 953e 3f2a dbbe
00000150: c355 883f bdf5 e1be e541 9f3d 025b 72be
00000160: 848f 0c3f fc27 ab3f f8ff 2ebe b32d c7be
00000170: 91b2 4abe d115 013b 1c38 4cbe aa9b aabd
00000180: 710b 58be 2077 913e 8ed9 5f3d 3ceb bbbe
00000190: 1668 8dbd d963 1d3f 6d5f dd3e 2890 1ebf
000001a0: 80b0 02bf e0fc 3d3f 96a2 07bf 65b6 be3f
000001b0: 7f87 19bf 14a2 683f abb8 18bf fa6b b3be
000001c0: 6b6b 523f fc7a 3f3f ac5e 013e e4c4 7abf
000001d0: ad03 493f 0599 86bf d50f 98be 5168 333e
000001e0: 1ed8 17bf 570e debd 0deb 643d 457c 89bc
000001f0: ec25 59bf 6490 19bf ece0 65be 9b8c 283f
00000200: 6caa 67bf 80bf 183e 9cf6 23bf 5d74 503f
00000210: 4348 78bf 21ba c2be 8d43 a13e bbd9 dabd
00000220: 373b 48bf 193f 043f 8f69 543f 2171 87bf
00000230: 645a 9e3e 58d1 443e cd9b 2f3f b411 67bf
00000240: 4386 39bf e76b dbbe 146d ff3d 51c4 2b3f
00000250: 67a5 abbd afbe a03e 6c83 a63c 8f29 56be
00000260: ea92 8a3b 4010 ecbe 882f f6be 8358 c7be
00000270: 9979 07be bf8e a7be 1f2d 21bf 5de4 0cbf
00000280: 23d9 ccbe 160c 033f 9170 4cbf 47d5 54bf
00000290: f7f3 9abe 87fb 84be ebe1 01ba f27a 8fbe
000002a0: 79e5 80be 6808 2b3f d303 acbe 643f fdbd
000002b0: ee76 7a3e 957f 6c3e 0783 58be f2f1 c4bd
000002c0: 2ba3 573f b169 b0be b50b ecbe c16e 6b3e
000002d0: 9347 efbe 282d 4bbf 2797 91be 4841 2b3f
000002e0: 5410 4fbe 089f a13e 7ba1 ccbe 3a55 073f
000002f0: d12e e8be 52f5 053e d8d1 16be 0faa 803e
00000300: d9b4 46be 3a33 08bf 50d0 ddbe 49ad d3bc
00000310: 3196 c3bd ee59 02bf b839 bfbc 2fa2 bdbe
-0.2017669 -0.18429804 -0.42959517 0.11432713 -0.08093086 0.28623542 0.2378412 1.5327522
0.71862453 0.6583838 0.5396784 -0.40622294 0.768217 0.85725576 0.93315566 0.82940936
-0.3831141 0.5798928 -0.30227268 0.07119247 0.12913705 -0.14987552 -0.09933962 0.2830859
0.69100636 -0.059299193 0.3488503 0.14142646 0.6797166 0.41710532 -0.14917831 0.56803036
0.38967416 0.5508645 -0.2830257 0.013955492 0.36966807 0.64086664 0.6747586 0.5307756
-0.27371562 0.19835286 0.2635398 -0.06690896 0.7686741 0.37893748 -0.2642323 0.4324595
-0.08614471 0.55910313 -0.43597934 0.20478584 0.3900569 1.0783021 0.504193 0.22906207
0.52622736 -0.05250756 0.3744814 -0.13399364 0.79288757 -0.16417596 0.10138533 -0.073575184
0.31557462 0.12268215 0.67519355 0.14562143 0.00042345902 0.015576077 -0.29906708 -0.09606442
-0.21809636 -0.61523604 0.05071554 -0.10719004 -0.08981892 0.293739 -0.19793862 -0.22823589
0.11578482 -0.107440986 0.2917481 -0.4280567 1.0651172 -0.44132796 0.0777624 -0.23667529
0.5490649 1.3371577 -0.17089832 -0.38902053 -0.1979468 0.0019696841 -0.19943279 -0.08330472
-0.21098115 0.28411198 0.054650836 -0.36702907 -0.069046184 0.6148048 0.43236867 -0.61938715
-0.5105057 0.7421398 -0.5298246 1.4899412 -0.59972376 0.9087231 -0.5965678 -0.35043317
0.82195157 0.74797034 0.1263377 -0.9795668 0.78521234 -1.0515448 -0.2969958 0.17520262
-0.59314144 -0.10842579 0.055888224 -0.01678289 -0.8482349 -0.5998595 -0.22449082 0.65839547
-0.9049442 0.14916801 -0.6404817 0.81427556 -0.9698526 -0.3803263 0.3149685 -0.1068606
-0.78215355 0.5165878 0.8297357 -1.0581399 0.30928338 0.19220483 0.6859711 -0.9026139
-0.7247049 -0.4285576 0.12471977 0.6709643 -0.08381157 0.3139548 0.020326339 -0.20914291
0.0042289393 -0.46106148 -0.48083138 -0.38934717 -0.1322998 -0.32726094 -0.62959474 -0.55035955
-0.40009412 0.51190317 -0.7985926 -0.83137935 -0.30264255 -0.2597315 -0.0004954624 -0.28023487
-0.25175074 0.668097 -0.33596668 -0.123656064 0.2445943 0.23095544 -0.21143733 -0.0961646
0.8423335 -0.34455636 -0.46102682 0.22991468 -0.46734294 -0.7936578 -0.28435633 0.66896486
-0.20221072 0.31566644 -0.3996695 0.5286442 -0.45348218 0.13081864 -0.14728487 0.25129744
-0.19404925 -0.53203166 -0.43322992 -0.025839465 -0.09550131 -0.5091847 -0.023342952 -0.370378

rnn.bias_hh f4 [200]
00000000: 45f6 9bbe 203e 573d 82bf e0be a19c 7c3d
00000010: e0aa 51bd 0c18 9c3e eda2 813e 08e9 be3f
00000020: f7a6 423f 4163 273f 1a86 003f 88d6 babe
00000030: 058f 443f 0fe8 4f3f c619 6b3f bae0 3a3f
00000040: e607 2bbe a373 b63e 71c7 cfbe f090 573d
00000050: 934f 8b3e 9011 2abe c519 9c3d 0d63 e73e
00000060: ddc0 2b3f 1543 48be 21af 173e 1177 003e
00000070: f69e 293f 0ee7 b53e ddca 99bd 1126 143f
00000080: 7814 103f 8030 143f 881a 39bd aa5e 15be
00000090: 7ef1 4f3e c165 fa3e d096 3b3f ffb4 943e
000000a0: 2a52 82bd 5ace b73e de95 163e 1329 b73c
000000b0: 6e69 513f 2ef9 a73e 2b5a aabe a967 bc3e
000000c0: 0405 c4bd 2fe2 123f c3a0 dbbe 47f8 123e
000000d0: c3bd d33e bfce a73f efa9 fe3e 4581 bb3e
000000e0: 3976 073f 56d0 52be a545 e13e 2e36 20bd
000000f0: 9c61 4f3f 3dd9 12be bdc1 033e 2a36 673d
00000100: 34dd 5a3e 34d8 f33d 05b8 2e3f cfe7 033e
00000110: b509 9c3d ecb9 c93d f8af b9be d8b9 b6bd
00000120: 5e04 f4be c1b8 12bf 227c 81bc 0041 1ebe
00000130: 87f7 a5be ac35 c03d 0bba 67be c6c6 85be
00000140: 22b1 773e 979c a93d 2083 6f3e f108 debe
00000150: ecf9 9a3f f1c1 9bbe 56db 35bb b6f4 7cbe
00000160: 66ca f93e eb14 b13f 730a 6abe 7322 00bf
00000170: f831 e83b 765f 5cbd d610 a8be 50ad 0bbe
00000180: f9a5 cbbd 540d ad3e ed87 d4bd 9e04 03bf
00000190: d45f 353d 379d 183f 45de ac3e 4162 1fbf
000001a0: 03a1 8abe abec 463f 88a3 8ebe 2e5c ce3f
000001b0: 53d5 22bf b494 423f f021 40bf 68bd 1cbe
000001c0: 1fc4 863f eeb7 3a3f 9ee9 cbbd 3931 88bf
000001d0: e0b2 4c3f e13a 96bf 6c47 97be 92c5 373e
000001e0: 04cd 2dbf 5fed 76be 6242 e33d 3449 c7bc
000001f0: df0f 7cbf 3aa0 18bf c62e 85be bc09 333f
00000200: 78a6 4abf b11a 9c3e cc27 0dbf 2523 583f
00000210: 05db 68bf 3231 89be 4fc3 bb3e 3111 4abe
00000220: f068 6bbf 5eaa 3d3f 7ac4 7b3f 3040 88bf
00000230: 9481 b03e c8ea 373e 6d2b e83e add6 5cbf
00000240: ad19 3bbf 68d7 14bf 9d90 e33d a1fc 243f
00000250: f07f 9cbe 4fcc c33e 9fb1 0f3e 3bba acbe
00000260: 38d7 99bd 050c d2be bc2c eebe 17d1 70be
00000270: 068e bebe 6b51 9dbe 48e5 13bf ae0f 00bf
00000280: fd66 ecbe 370c be3e 941f 54bf 7a53 28bf
00000290: 95c1 aabe a0fa 31bc 0339 babc c9a8 7cbe
000002a0: f3c3 21be 27f2 f53e 9281 a4be 94c6 20be
000002b0: 48a6 413e 6588 2f3e 867b 81be 3922 08be
000002c0: c424 633f 22dd 9bbe 51e1 10bf 6856 de3e
000002d0: ae1a b4be 0ae6 1fbf 1c9f 61be 9672 0c3f
000002e0: abfe 84be cfeb 013f 2af7 e9be 467f 163f
000002f0: a549 bfbe f02f 2b3d 2bd8 07be 9192 3a3e
00000300: 56bb 37be 1926 41bf 5123 c9be 4804 163e
00000310: bb4b 26be e1c6 e6be cc4a a9bd 6556 82be
-0.30461326 0.05254948 -0.4389611 0.06167281 -0.05118835 0.30487096 0.25319615 1.4914865
0.7603602 0.65385824 0.5020462 -0.364918 0.7678073 0.8121347 0.918362 0.72999156
-0.16702232 0.356351 -0.4058185 0.052628458 0.27209148 -0.16608262 0.07622103 0.45192757
0.6709116 -0.1955684 0.148129 0.1254542 0.6625818 0.35527843 -0.07509396 0.57870585
0.5628123 0.57886505 -0.045191318 -0.14586893 0.20306966 0.48905757 0.73276997 0.2904434
-0.06363328 0.3589962 0.14705607 0.022358453 0.818015 0.32807297 -0.33271918 0.36797836
-0.09571269 0.5737638 -0.4289609 0.14352523 0.41355714 1.3109969 0.49739024 0.36622062
0.5291477 -0.20587286 0.43998447 -0.03911417 0.81008315 -0.14340682 0.12866874 0.05644814
0.21373445 0.11906472 0.6824954 0.12881397 0.07619039 0.09849915 -0.36267066 -0.08922166
-0.47659582 -0.5731316 -0.015806261 -0.15454483 -0.3241541 0.09385237 -0.22629564 -0.26128215
0.24188665 0.0828182 0.23389864 -0.43366197 1.210752 -0.30421403 -0.0027749143 -0.24702725
0.4878723 1.3834509 -0.22855549 -0.50052565 0.007086035 -0.053801976 -0.32825345 -0.13640332
-0.09943766 0.3379923 -0.10377488 -0.5117892 0.044280842 0.5961489 0.33763328 -0.622593
-0.27075967 0.77704877 -0.2785914 1.6121881 -0.63606757 0.7600815 -0.75051785 -0.15306628
1.0528601 0.72936904 -0.09956668 -1.0640022 0.7996044 -1.1736718 -0.29546678 0.17946461
-0.67890954 -0.24113987 0.11096646 -0.024326898 -0.9846172 -0.59619486 -0.26012248 0.6993673
-0.7916026 0.30489114 -0.5513885 0.84428626 -0.909592 -0.26795346 0.36672446 -0.1973312
-0.91956997 0.74088085 0.98346674 -1.0644588 0.3447386 0.17960656 0.4534563 -0.8626507
-0.73086053 -0.58141184 0.11111567 0.6444798 -0.3056636 0.38241813 0.14032601 -0.33735833
-0.07511753 -0.41024795 -0.46518505 -0.23517261 -0.3721773 -0.3072618 -0.5777173 -0.50023925
-0.46172324 0.37118694 -0.82860684 -0.65752375 -0.33350816 -0.010862976 -0.022732263 -0.24673761
-0.15797405 0.4803631 -0.32130104 -0.15700752 0.18911088 0.17141874 -0.25289553 -0.13294305
0.88727975 -0.30442148 -0.56593806 0.43425298 -0.35176605 -0.62460387 -0.22033352 0.54862344
-0.25975546 0.5075044 -0.45696384 0.58787954 -0.37360874 0.041793764 -0.13266055 0.18219973
-0.17942557 -0.7544876 -0.39284757 0.1465007 -0.16239826 -0.45073608 -0.082662195 -0.2545654

rnn2.weight_ih f4 [200, 50]
00000000: 8bd6 64bf 8a65 903e 1126 6d3f 8451 99be
00000010: 9808 e53d d8d6 153f d56c 92be 104e 143f
00000020: a1ea adbe fd3b ad3f 6838 b2bf 77cd e93e
00000030: 0afa 893f 0779 7a3f 2226 e1be cfd5 1bbe
00000040: 7c36 0c3f fef7 74be 7d94 73bc c0af 393f
00000050: 6573 a2bf 0359 8cbf 70bc 28bf e084 833f
00000060: 5841 a4be c08b 9abf f328 513c d601 2d3d
00000070: 5489 adbf f669 c43f f995 9ebe dadd c53f
00000080: 1163 4ebe 901c d2bf 349b a93b dfbe 4cbe
00000090: 70c5 bfbe 3b62 993f be3f c93e 53ae 08bf
000000a0: a455 0c3f 5433 ee3f 97b0 723f a882 99bf
000000b0: f212 afbf 022f 02bf dea5 1f3e eeba 4d3f
000000c0: aac2 ba3e b04b 5e3f d7c6 c1bf 3ce9 02bf
000000d0: 870f 653f 9a22 c33e 2421 c63d 1e5b e2be
000000e0: b1de 843e 5ccc 8f3f fb3b f8be 091e ea3d
000000f0: a8af 42be 007f b93f fe14 183f 02c9 fcbe
00000100: 3913 7e3f b417 6d3b 630c 1c3d 9c19 37bf
00000110: 77c9 ca3d eeb7 113e c3b4 56bf 7e3b dabf
00000120: 9772 c2be cbfa 503f aabd ec3d b5a7 6bbf
00000130: d27b 93bf 84b8 bd3e 920e 4ebf 1508 4b3d
00000140: a0f9 1dbf 22ea 33be 7faa 583e bab3 583e
00000150: b636 263f 2ff1 96bf 5cbe 8fbf bfeb 90be
00000160: a7a3 5abe 4ada a6be a49b 393f 6045 31bf
00000170: 3733 d8be 2665 e7bf a6e0 17bd 61e5 22bf
00000180: 768a 893f f476 473f 4729 c83e 9c63 023f
00000190: 82e7 403f b96c b43e bd36 9cbe cd2c aabf
000001a0: 45a5 0cbf cd88 8f3f 0614 ca3f 955e 9fbe
000001b0: 866f f7bd eadf b63c b674 2cbf 9c97 a73f
000001c0: f741 41be e2ae 10bc 6e2d 0440 ad52 e1bf
000001d0: 6a3a e2bf fb53 25bd 8adc 333d 4336 6abf
000001e0: 909b 2dbe 7383 40bf 26a8 9abe 5642 69bd
000001f0: da9c 60bf 5e5d b0bf e932 8cbe 2e2f cbbd
00000200: 0804 07be dfba 1abf 504f 28bf 55e9 d937
00000210: 730f 81bf db1f fb3e fa6b c6be 5136 163f
00000220: 4a9c e8be 76cd bc3f fe69 e83f de84 013f
00000230: 4d9f b63f dd46 273f 54d1 d53f fabe 57be
00000240: c19f 56be 5b3f 723f db00 2bbf 329a 5bbe
00000250: 7ff2 173f 707d 803e 22ff 91bf 51b9 9f3f
00000260: 006c 8b3f 3e5e a5bf f513 243d 0cf9 4b3d
00000270: 0095 f43e 50d4 f8be 6815 313f 5eb3 1c3f
00000280: 8f17 03bf 5b1a a0be 635b 453e 86ca 00bf
00000290: 1a86 d63e 67a3 49bf 6c29 d6be 6dd0 693f
000002a0: a287 81bf 9d56 3cbf b7a8 f83e 490e 743f
000002b0: e9d0 81bf 115c 77bd c216 d9bf c2c5 2e3f
000002c0: 3283 be3f 9839 2abf 6071 38be 1a1a a7bf
000002d0: ee66 05be 173f 57bf 22b0 91bf 9c2f 553f
000002e0: 279c 433e fba5 2b3f 14f2 6abe dcbc d13f
000002f0: 7e8f a33e 19ed 0e3f 5de9 633f 1a23 ce3f
00000300: d444 893f 6df8 9c3f 90c8 01bf 6fa1 87bd
00000310: 037f 7c3f efae 623e 1689 a7bf be1a f43e
00000320: 23ee 0fbf 9c0a 9c3f ad2b 803f e64f 263e
00000330: 8caf 7bbe 6c08 7d3e 52e8 7abf 9ee9 6b38
00000340: 92dc 65bf 69c8 b23e befb 5e3e c8a8 843f
00000350: e19b 41be 1dc2 14bf 9389 c23f aaa6 93be
00000360: 31dd d33e 85fe e83d 45c2 88bf d34c cebe
00000370: 12b5 bc3e aaa3 babf 9c64 4d3e 228b be3f
00000380: d336 9ebf ca6b 313f 601b c53f 6ba2 56bf
00000390: f198 9dbc 2e55 213f dc1a ddbe 8f36 86bf
000003a0: 0685 99bf 8745 a6be 1627 d83e fc69 8dbf
000003b0: 5068 133d 6047 803f 8c99 6a3e bc13 093e
000003c0: 108d af3f d6ad 1c40 7291 5d3f 591e a33e
000003d0: 25d6 acbe b433 74be d010 df3d 4985 87be
000003e0: ec66 f2bd ec2f 393f e036 8fbf 9c3c 5e3f
000003f0: 36bc 523f 27b6 fabe a8b7 48bf 57a3 133f
-0.89389867 0.28202468 0.9263621 -0.29945004 0.1118328 0.5853095 -0.28598657 0.57931614
-0.3396807 1.3533932 -1.3923464 0.4566457 1.0779431 0.97840923 -0.43974406 -0.1521828
0.54770637 -0.23922727 -0.014866945 0.725338 -1.2691466 -1.0964664 -0.6591253 1.0274925
-0.32081103 -1.2073898 0.012766111 0.04223808 -1.3557534 1.5344837 -0.30973795 1.5458329
-0.20154978 -1.6414967 0.0051759724 -0.19994687 -0.3745532 1.1983103 0.39306444 -0.53391
0.5481818 1.8609414 0.94800705 -1.1992998 -1.3677657 -0.5085298 0.15590617 0.8036336
0.36476642 0.8683424 -1.5138806 -0.5113714 0.8947682 0.38112336 0.0967429 -0.44210142
0.2595115 1.123424 -0.4848326 0.1143151 -0.1901232 1.4491882 0.5940703 -0.49372107
0.9924808 0.0036177458 0.03809775 -0.7152345 0.099017076 0.1423032 -0.8386957 -1.7049406
-0.3797805 0.8163268 0.11559613 -0.92052776 -1.1522162 0.37054837 -0.8049098 0.049568255
-0.6170902 -0.17569783 0.21158789 0.2116231 0.6492723 -1.1792353 -1.1229968 -0.2830486
-0.21351491 -0.32588416 0.72503114 -0.6924648 -0.42226574 -1.8077743 -0.037079476 -0.63631254
1.074538 0.77915883 0.39093992 0.5093324 0.7535325 0.352392 -0.30510512 -1.3294922
-0.5493968 1.1213623 1.5787361 -0.31126848 -0.12081818 0.022323567 -0.67365587 1.3093143
-0.1887282 -0.008830758 2.0652728 -1.7603356 -1.7674077 -0.040363293 0.043911494 -0.91489047
-0.16953874 -0.75200576 -0.30206412 -0.05694803 -0.87739336 -1.3778493 -0.2738259 -0.09921108
-0.13185132 -0.6044139 -0.6574602 2.597707e-05 -1.008284 0.4904774 -0.38754255 0.5867663
-0.4543174 1.4750202 1.8157346 0.50593364 1.4267365 0.65342504 1.6704507 -0.21068946
-0.20959379 0.9462792 -0.6679818 -0.2144554 0.59354395 0.250957 -1.1405985 1.2478429
1.0892334 -1.2919385 0.040058095 0.049798056 0.47769928 -0.48599482 0.6917329 0.6121119
-0.5120782 -0.31270108 0.19273143 -0.50309026 0.41899186 -0.7876496 -0.41828477 0.9133366
-1.0119517 -0.7356966 0.4856622 0.953343 -1.0141879 -0.060390536 -1.696007 0.68270504
1.4883788 -0.6649413 -0.18011999 -1.305484 -0.13027546 -0.8408064 -1.1381876 0.8327577
0.19102536 0.6705014 -0.22943908 1.638576 0.31945413 0.5583053 0.8902796 1.6104462
1.072413 1.2263314 -0.5069666 -0.06622588 0.98631305 0.22137044 -1.308871 0.47676653
-0.5622274 1.2190738 1.0013329 0.16241416 -0.24578685 0.24710244 -0.9801074 5.624594e-05
-0.8978969 0.34918526 0.2177572 1.0364008 -0.1890712 -0.58108693 1.5198234 -0.28838092
0.41379693 0.11376671 -1.0684286 -0.40292987 0.36856896 -1.4581196 0.2005791 1.488621
-1.2360481 0.693051 1.5398979 -0.8384158 -0.019237967 0.630206 -0.43184555 -1.04854
-1.199372 -0.3247492 0.4221732 -1.1047969 0.035988152 1.0021782 0.22910136 0.13386434
1.3714924 2.44811 0.86550057 0.3185909 -0.3375713 -0.23847848 0.108918786 -0.26468876
-0.11836037 0.7233875 -1.1188622 0.8681123 0.8231844 -0.48967096 -0.7840524 0.5767111

rnn2.weight_hh f4 [200, 50]
00000000: 92e6 033e be56 ffbe eb88 023f 83df 463e
00000010: 4193 a93e 234e bcbe 569f 84bf 35f8 70bf
00000020: 0130 2c3f 9462 e93e 16dd 53bd 6da6 f1bf
00000030: 582e f03e 3b4e 4c3f dce9 22be ce17 ad3d
00000040: 99f9 323f 85c3 b8bf b02a cd3f 3680 d7be
00000050: 4ca1 72bf 9c74 75bf c146 d1be 3039 973e
00000060: 9a84 cbbe b460 a23e 0d47 6ebb c2f5 05bf
00000070: a225 60bd c0e9 1f3e d480 7ebe c1de dfbe
00000080: 7e6f b83e ac3a 523f 7796 c03e ecf5 1a3e
00000090: c1de ba3f d0a6 8bbf 8c3d 433e 6ebb 143f
000000a0: 721a 9ebd b502 263f 8837 7e3f 298e 6c3f
000000b0: 87c6 d93e c7f0 8c3f 606b 59be 90a1 a6bf
000000c0: c9d7 3cbf 15fc 36bf 59ce c63e 20a8 e33e
000000d0: af7f 723e 9c98 30bf c2e4 a2bc 4469 1dbf
000000e0: babd babe 0a5e 09bf 8452 883d cd7c cebe
000000f0: 7f72 e23e 09a0 77bd 5eb7 2e3d 6adf af3e
00000100: d2b9 2e3e 49e1 2dbf 64c8 473e 49ba 22be
00000110: 075e a5be 0ef5 14bf 4470 9a3e 5c22 213f
00000120: e17a 213d c261 7c3e f91e c0be a020 023f
00000130: 6544 6d3e f472 d03e ebd4 b53e a0e4 c3be
00000140: 2aa7 8c3e c4a2 28bf 0779 8e3e 6494 003f
00000150: aaac 033f e242 83bf c8f3 18bf a91c adbe
00000160: 2bf9 d0be c5e2 5c3e 035c 173f 2780 7c3f
00000170: 194b ff3e b067 9bbc df40 d6be c8ca 2b3f
00000180: 0cd8 663d d9c1 0ebf 48ca 9b3e 8451 71be
00000190: 2fdc 39be 60a1 7bbf f705 643f 3fa5 c7be
000001a0: 4f58 cf3e 1aa8 18be 0c9c c9be c250 33be
000001b0: a4e3 fcbe 6130 a0be 60c5 5dbe 68d3 0f3e
000001c0: 891c 26bc eba5 75bd 6777 613e fede acbd
000001d0: 1971 113e 52b6 9cbd 14ce 4d3e acb3 933e
000001e0: a821 093f 48fe 08bf 8152 c6bd 927b e63e
000001f0: 995a 90be 092c 3d3e 72d5 61be f6ca 273f
00000200: a705 0f3f 457c 3c3f a87d 7dbd 3d9a f03e
00000210: 957b a3bb 9dd8 fa3d 54d3 853e 043a 573e
00000220: f34b 823e 6f77 bf3e c760 76be 4442 d1be
00000230: 8501 1c3f 3174 5a3e 1317 acbe 30a7 32be
00000240: 6c0e 2f3e 3266 68be d133 6a3f de20 d93e
00000250: 8cc9 7abf 58d6 1e3e c367 233e 31d2 3ebd
00000260: 13a5 583f 7b1d a63f 1492 58bd 663a fbbd
00000270: ac64 a93f 8581 f0bc 6d6b d5be ac08 09bf
00000280: 03e0 5c3e e436 0e3e dc00 0cbf 9712 94bc
00000290: 9424 10bf 09bc 4a3f 31bb 93bd 5eca 9cbf
000002a0: c482 17bf e80a a33f 7251 b2be 11f8 9abf
000002b0: ffce 123f b24f 323d a739 6dbf 2b10 4cbf
000002c0: 858b d63e 7dae 183e 22d2 083f 6b46 79be
000002d0: 64de db3e a2cc 673f be54 17bf 2546 0fbe
000002e0: 6013 0bbf 057c ac3e 7415 843e 15cb 6ebc
000002f0: 4856 f93d e41e 18bf ebab 053e 6dac d2be
00000300: dd26 24be ba35 113f c7ec c73e 0d9f 9abe
00000310: 8fce de3e 5910 3cbe 43f6 90bf 110c 983e
00000320: 1225 ffbe d458 553f 24d6 6ebf f90b d9be
00000330: 8310 8bbe 597f bcbb f36c d4be 90ca d4be
00000340: 5df8 1cbe f903 0d3f ad9f 47be 43b6 e73e
00000350: b5c3 60bf 2322 79be 3a73 a0bd ec09 3dbe
00000360: fa31 65be 88d8 013f 3c8f 25bf 9ee2 36bf
00000370: b34b 16bf 6789 aa3f 358e 86be aed4 d1bd
00000380: c31b 0e3f ad3f fb3e 976b 423f 23c7 32be
00000390: df68 093f df64 95be 8cb9 2fbf 9b00 76bf
000003a0: 4513 65be 5e2c 4dbe b83c d73c d171 96bf
000003b0: 4a40 90bf 9519 253f 1c16 ae3d acc2 4a3f
000003c0: c406 dcbd e0b1 563f 4593 7cbd ead8 0ebe
000003d0: 1ad1 1dbe 6cf4 623d 42be 5ebf 7912 3ebf
000003e0: f8cb 8a3f 7536 083f 2da9 ea3e 2ab7 343e
000003f0: d5b3 f63d b1b6 613d 027d 0cbe f66b b43d
0.12880924 -0.49870867 0.5099017 0.194212 0.33120158 -0.36778364 -1.0361125 -0.94128734
0.6726075 0.45583022 -0.051724516 -1.8878914 0.46910357 0.7980687 -0.15909523 0.08451806
0.69912106 -1.4434668 1.6028652 -0.42090005 -0.9477737 -0.95881057 -0.40874293 0.29535818
-0.39749604 0.31714404 -0.0036358268 -0.5232812 -0.05472339 0.15616512 -0.24853832 -0.43724635
0.36022562 0.82120776 0.37614796 0.15132874 1.4599229 -1.0910282 0.19066447 0.58098495
-0.07719888 0.6484788 0.99303484 0.9240442 0.42534277 1.101098 -0.21232367 -1.3018055
-0.7376676 -0.71478397 0.38829306 0.44464207 0.2368152 -0.68982863 -0.01988447 -0.6148875
-0.36472875 -0.5365912 0.066563636 -0.4032959 0.4422798 -0.060455356 0.04265534 0.3435014
0.17063072 -0.6792188 0.19510037 -0.15891375 -0.322983 -0.58186424 0.30163777 0.62943053
0.039423827 0.24646667 -0.3752363 0.5083103 0.23170622 0.40712702 0.35514006 -0.38260365
0.27471286 -0.6587336 0.27826712 0.50226426 0.5143534 -1.0254786 -0.5974698 -0.33810928
-0.408151 0.2157088 0.59124774 0.98633045 0.49861982 -0.01897034 -0.41846368 0.67106295
0.056358382 -0.5576454 0.30427766 -0.23566252 -0.181504 -0.98293114 0.890716 -0.3899326
0.40497062 -0.14907876 -0.39376867 -0.17511275 -0.49392426 -0.3128691 -0.21657324 0.14045489
-0.010138639 -0.059972685 0.22018205 -0.0844097 0.142033 -0.07651962 0.20098144 0.28848016
0.5356698 -0.53513 -0.09683705 0.45016152 -0.2819412 0.1847383 -0.22054079 0.6554407
0.55868 0.7362712 -0.061887413 0.46992674 -0.0049890974 0.12248347 0.26137793 0.21018225
0.2544857 0.37395808 -0.24060355 -0.4087087 0.6093982 0.21333386 -0.33611354 -0.1744659
0.17095345 -0.22695234 0.91485316 0.42407888 -0.97963786 0.15511453 0.1595755 -0.046587173
0.84626883 1.2977747 -0.052873686 -0.12266998 1.3233848 -0.029358635 -0.41683522 -0.5352886
0.21569829 0.13888127 -0.5468881 -0.01807527 -0.56305814 0.7919317 -0.07213438 -1.2249258
-0.5918391 1.2737703 -0.34827763 -1.2106954 0.573471 0.043533035 -0.92666095 -0.7971217
0.4190332 0.14910312 0.5344564 -0.24343269 0.42943108 0.9054662 -0.5911368 -0.13991602
-0.5432644 0.3368837 0.25797617 -0.014574786 0.1217466 -0.59422135 0.13053863 -0.41147175
-0.1603045 0.56722605 0.39047834 -0.3019947 0.43516967 -0.18365611 -1.1325153 0.29696706
-0.4983297 0.83338666 -0.932955 -0.42391947 -0.27161035 -0.0057524857 -0.41489372 -0.41560793
-0.15329118 0.55084187 -0.19494505 0.45256242 -0.87798625 -0.24329428 -0.07834478 -0.18460816
-0.22382346 0.50721025 -0.64671683 -0.7143954 -0.5870926 1.3323182 -0.2628037 -0.102456436
0.5551111 0.49072018 0.7594542 -0.17458777 0.53675646 -0.2917852 -0.686425 -0.96094674
-0.22370632 -0.20036456 0.02627407 -1.1753484 -1.126962 0.6449216 0.08500311 0.79203296
-0.10743478 0.83865166 -0.061663885 -0.13949934 -0.15411797 0.05540888 -0.8700906 -0.7424694
1.0843496 0.53208095 0.45832196 0.17647997 0.12046019 0.05510587 -0.13719562 0.088096544

rnn2.bias_ih f4 [200]
00000000: b9c2 213f d3e7 3b3e 3da5 22bf d946 38be
00000010: 3ea5 d73e 94dd 9e3f 7576 cd3d d7d0 f4be
00000020: c224 e0be e37c b83d 6a7b 673f b586 873f
00000030: ff13 32be 689b 873e 8982 043e 67f5 d83e
00000040: 1403 3b3f 2479 8e3d a51a 143f dca7 c63d
00000050: c97f b4be 699f b23e f230 7c3f 4dca b73e
00000060: 7672 1ebf 6969 17bf 8bca 72bd dd5e 853f
00000070: 129e b33e 750c 97be 3212 b33e cc76 923e
00000080: 999f 653f 70fd 7f3e 41a9 d0be dffa 40bf
00000090: b6b9 f4bc 6eb3 733d d5c8 a03e dec1 883e
000000a0: b667 243f a0da a8be a02a f2be 232d ff3e
000000b0: 619c f9be 4442 46bd e6f2 e7bd 3d2c fbbe
000000c0: 9bf1 82bf 474b 0a3f 250f d5be 2d7f 3a3e
000000d0: 93a4 e13e 6d7e 883e b41a ba3e 88db 0dbe
000000e0: ecf3 c33e 1d70 b13e f593 f9bc 6ff3 32bc
000000f0: f71a 393e 20cd 24bf 74f2 303f 0121 303e
00000100: f84f cb3e 0d00 f6be 90a6 2cbf ab3a ae3e
00000110: 1cf2 c13d 078f 0bbe cb84 b53e 22e0 c0be
00000120: ec13 0a3f d1cf 5a3e 5f15 06be 43fc 9b3e
00000130: bae7 df3e 42de 2a3f 05c5 623e f1d1 7a3e
00000140: f46f ecbe ee6c fc3d d573 073f fa9f 023f
00000150: 146e ac3e 715a 713e 5cfb 1f3e bbdd f33d
00000160: a179 c93e d518 9d3e 94c0 93bd e236 1b3e
00000170: 4b3e 1c3f 93d7 1f3e 754e e83e 90ee c53e
00000180: 831c 403e 09d5 083e d275 f23e d389 bf3e
00000190: 6cd6 f53e 4dd7 19bf 1648 523c cd14 bdbe
000001a0: 1e3c 9fbe e19b 17bf d9f3 34bf df7c e9bd
000001b0: 31bb f23e 7652 2dbf 69e3 0e3f ae8e 6fbf
000001c0: 4e36 073f c876 3b3f ab90 de3e 0b6c 33bf
000001d0: fab5 563f acf6 a5be 1b22 153f 99d9 48bf
000001e0: 1ab2 283f fc75 21be c58a 4c3f ebf8 bf3e
000001f0: 7601 03bf 05b1 f2bd 349c 64bd 671b 383f
00000200: 8335 9c3e e50b 4d3e c588 253f cf13 1cbf
00000210: e2a8 493f d28a fb3e 826e f93e b7db 71be
00000220: 7454 a23d 147d 12bf 7dcc 41bf 9dd9 5e3e
00000230: aaed 033f dace fd3e 8c28 603d b289 66bf
00000240: c063 bebe 54fb e8be 735e 823e 4913 bebd
00000250: 49a4 4f3e dab2 d1be c965 0e3f af32 1d3e
00000260: 86da 40be 5362 bcbd 4766 4bbd 7511 b63d
00000270: 162c b9be 48c9 bdbe 29c5 483e 8fa3 15be
00000280: 3520 82bd 1f82 963e 283d 5a3f f4b9 60be
00000290: e0af 4dbe 56e5 6dbe ea36 083e ee18 39bd
000002a0: b55b cb3e 4e28 febd 009a e3be 0678 a63e
000002b0: a329 14be 2cf3 e43e ff90 d1bd 7bc9 ebbd
000002c0: 17e7 323d 6397 b63e 9d62 8abc 2f66 9cbe
000002d0: 47ca 4d3e 25c2 c23d eb9f 053e db60 e93d
000002e0: f694 7cbe 46ca be3d 24c0 ccbb a021 0c3e
000002f0: d0b2 973d c398 14be 3bc5 06bf b4ab cfbe
00000300: ba3d 56be 2d23 033c 1d52 d7be 4e71 2dbf
00000310: e2f8 1d3e 2a30 a2be dd11 ed3e 111c 0f3e
0.6318775 0.18350153 -0.63533384 -0.17995776 0.42118257 1.241137 0.100323595 -0.47815582
-0.43778044 0.09008195 0.9042269 1.0587984 -0.1739044 0.26485753 0.1294042 0.42374727
0.7305157 0.069566995 0.57853156 0.096999854 -0.35253742 0.34887245 0.98512185 0.3589653
-0.61893404 -0.5914522 -0.05927519 1.0419575 0.35081536 -0.2950169 0.3497482 0.2860626
0.8969665 0.24999022 -0.4075413 -0.753828 -0.02987371 0.05949729 0.31403223 0.2671041
0.6422075 -0.32979298 -0.47298145 0.49839124 -0.4875212 -0.04840304 -0.11325626 -0.4905719
-1.0229982 0.54021114 -0.41613117 0.18212576 0.44070873 0.26658955 0.36348498 -0.13853276
0.38272035 0.34655848 -0.03046606 -0.010922297 0.18076693 -0.64375496 0.69119954 0.1720009
0.3970945 -0.48046914 -0.67441654 0.34029135 0.09470007 -0.1362878 0.35452875 -0.37671
0.5393665 0.21368338 -0.1309409 0.30465898 0.4373148 0.6674539 0.2214547 0.24494149
-0.46179163 0.12325464 0.5291112 0.51025355 0.33677733 0.23569657 0.1562323 0.11907526
0.39350608 0.30683008 -0.07214466 0.15157655 0.6103255 0.15609579 0.45372358 0.3865857
0.18760876 0.13362516 0.47355515 0.3740984 0.48015153 -0.6009415 0.012834569 -0.36929932
-0.31100553 -0.5922223 -0.7068458 -0.114007704 0.4740844 -0.6770395 0.5581575 -0.93577087
0.5281724 0.7322812 0.43469748 -0.70086735 0.83871424 -0.32414758 0.58255166 -0.7845703
0.6589676 -0.15767664 0.79899246 0.37494597 -0.51174104 -0.1185017 -0.05581303 0.7191681
0.30509576 0.20024069 0.6466182 -0.60967726 0.7877332 0.4912935 0.48717123 -0.23618971
0.079262644 -0.57222104 -0.7570265 0.217627 0.5153452 0.49571878 0.05472617 -0.90053856
-0.37185478 -0.45504248 0.25462684 -0.09281022 0.20277514 -0.40956765 0.5562406 0.15351366
-0.1883336 -0.09198441 -0.049658086 0.088900484 -0.36166447 -0.37067628 0.1960646 -0.14613174
-0.06353799 0.2939615 0.8524957 -0.21945935 -0.20086622 -0.23232016 0.13302198 -0.04518979
0.39718404 -0.12410031 -0.4445343 0.32513446 -0.14469008 0.44716775 -0.10232734 -0.11513039
0.043677416 0.35662374 -0.016892726 -0.3054671 0.20096694 0.095096864 0.13049285 0.11395427
-0.24666199 0.09315924 -0.006248491 0.13684702 0.07407153 -0.14511399 -0.526447 -0.40560687
-0.20921984 0.008003992 -0.42054835 -0.67751014 0.15426973 -0.3167737 0.4630269 0.1397555

rnn2.bias_hh f4 [200]
00000000: 08b9 213f c8a3 313e bcc9 2fbf 68cc 6ebe
00000010: 76a0 893e f58d 983f fa7d 80bd c341 93be
00000020: 26c2 eabe 7274 81bd cae9 413f 5ca5 7b3f
00000030: 6ed5 35be 9a25 583e 8d1d 913d 4839 123f
00000040: cd06 2a3f 0a1a 16be 54ae dc3e f5be bf3d
00000050: 0ae5 b6be bb60 c43e b821 673f e939 7a3e
00000060: 6f6f cfbe 5ee8 27bf 8429 c4bd e93c 543f
00000070: f47a 093f 4658 93be 7969 ac3e 4d55 843e
00000080: 7161 353f 51ee 833e 28cf 66be d041 7dbf
00000090: 2aaf 72be 7efb fdbd bf3a ea3e 143b e93d
000000a0: 3d7d 1b3f b217 68be 01c5 e0be c74c 023f
000000b0: 4854 a6be b642 213e b884 263d f915 12bf
000000c0: 87ae 62bf 5732 153f 72e5 0dbf 4d5f 8f3e
000000d0: dae0 ac3e 7777 673e 01ab 123f f949 efbd
000000e0: 7303 d53e d5a0 aa3e c297 0f3e 2a4c 5cbd
000000f0: 93a1 c13d db81 0dbf 7793 143f 5c58 973e
00000100: 7f23 f03e de28 7abe 423b 23bf c498 723e
00000110: 17ee 8e3d 6bcf 11bd 15cd 753e 51a9 14be
00000120: 74c1 ff3e e1f6 233e c053 edbd 124d 3f3e
00000130: 634c 643e b838 173f 90f1 833e 0831 683b
00000140: cf8c abbe 73db c13d 8d98 e63e 9d05 a93e
00000150: afb4 ed3e f0f0 643e 0a2c 7e3e c8f9 c3bb
00000160: b64d 103f 0006 723e 84db 1fbe f403 ce3e
00000170: ffbc 1f3f a10e 423e 0b57 e83e ee89 a33e
00000180: 511a fb3c c7d3 78bd b940 2b3f c963 b43e
00000190: 06d3 243f d7ce 09bf 343b f6bd 92a4 ccbe
000001a0: 009d f7be a58a 22bf 5b56 5cbf f7c4 b13a
000001b0: 5449 fe3e 8d6d 17bf 306f 213f b923 6abf
000001c0: 6400 bf3e 31e1 273f c5d6 e23e bbf5 32bf
000001d0: 6c85 513f 42b3 7ebe 3287 1e3f 50e8 12bf
000001e0: 04f0 093f 8c0b 27be 5d1f 5f3f 67b1 d63e
000001f0: b6cb 39bf 967f eabc 6619 73be 5bd6 303f
00000200: 8f62 943e 6ab2 403d a5a2 163f 596a 1dbf
00000210: b5e1 5c3f dfc8 113f 5842 d33e 95a8 82be
00000220: 8c72 273e 442a 24bf bdef 46bf df17 a73e
00000230: 67f7 073f d40d 9a3e f833 d83d bffb 60bf
00000240: 982c 03bf fe96 7ebe 5266 263d bad2 09bd
00000250: fa28 833e 2145 b7be c5f3 0d3f 0ca4 9b3d
00000260: d390 2dbe 8db5 91be dfb7 6b3d f17c b83d
00000270: 40a3 9bbe cf63 12bf c70b 873e 622a 9bbc
00000280: 346a c2bd 14e4 c43d 4ec6 493f 3a5b 74be
00000290: 8a41 f9bd a8b3 99bd 1648 d73d 428c aebc
000002a0: b896 993e 86dc 15be 6be2 02bf eeed c93e
000002b0: e808 c7bd 5a93 da3e 9f4a 0abe 062c acbe
000002c0: 10f3 323e 3e29 973e 2466 1a3e b1c5 f8be
000002d0: 2684 383e 9fc7 15bd 84c6 cdbc 299e d7bc
000002e0: 9e54 8bbe 8f3f 153e 36ee 21bd a451 693e
000002f0: 8a85 9f3e 770d 39bd 4ab1 a9be 254a 04bf
00000300: 77b6 88be 8767 c53d d27a ebbe f193 28bf
00000310: bdad 4c3e bfbf 26be 360e e83e 82c8 363e
0.6317296 0.17347634 -0.686672 -0.23320162 0.26880234 1.1918322 -0.06274028 -0.2876111
-0.45851249 -0.06321038 0.7574736 0.98299193 -0.17757198 0.21108094 0.070857145 0.57118654
0.6641663 -0.1465837 0.43101752 0.09362594 -0.35721618 0.3835505 0.90285826 0.24436153
-0.40514705 -0.6558894 -0.09578231 0.8290544 0.53703237 -0.28778285 0.3367422 0.2584633
0.7085181 0.25767758 -0.22539961 -0.98928547 -0.23699632 -0.12401484 0.45747945 0.113882214
0.60737973 -0.22665289 -0.43900302 0.508984 -0.32486176 0.15748104 0.040653914 -0.5706478
-0.8854756 0.5827994 -0.5542823 0.28002396 0.33765298 0.22604166 0.5729218 -0.11684031
0.41604194 0.3332583 0.14022735 -0.053783573 0.09454646 -0.5527627 0.58037513 0.295596
0.4690208 -0.24429652 -0.63762295 0.23691088 0.06979006 -0.0355982 0.24004014 -0.14517714
0.4995228 0.16012146 -0.1158824 0.18681744 0.22294764 0.5907092 0.25770235 0.0035429616
-0.33505866 0.09465685 0.45038262 0.33012095 0.46426913 0.22357535 0.24821487 -0.005980704
0.5636858 0.23635101 -0.15611082 0.4023739 0.6239776 0.18950893 0.4537891 0.3194117
0.030652197 -0.06074884 0.66895634 0.3523238 0.64384496 -0.5383124 -0.12023011 -0.39969307
-0.4836197 -0.63492805 -0.8606927 0.0013562728 0.4966532 -0.59151536 0.63060284 -0.9146076
0.37304986 0.6557799 0.4430448 -0.69906205 0.8184421 -0.24873069 0.6192504 -0.5738573
0.5388186 -0.16312999 0.8715723 0.41932222 -0.72576463 -0.02862529 -0.23740157 0.6907708
0.28981444 0.04704515 0.58841926 -0.614904 0.862819 0.5694713 0.41261554 -0.25519243
0.1635229 -0.6412699 -0.7770956 0.326354 0.5311188 0.30088675 0.10556787 -0.87884134
-0.5123992 -0.24862286 0.040624924 -0.03364823 0.256172 -0.3579493 0.5545009 0.07599649
-0.16949777 -0.28458825 0.0575484 0.09008206 -0.30397987 -0.57183546 0.26376173 -0.018941108
-0.09492913 0.09613815 0.78818214 -0.23862925 -0.12170704 -0.0750497 0.10511796 -0.021307115
0.29997802 -0.14634904 -0.51126736 0.39439338 -0.097184956 0.42690545 -0.13505028 -0.33627337
0.17475533 0.29523653 0.15078026 -0.48588327 0.1801916 -0.036567327 -0.025119074 -0.026320534
-0.27212995 0.14575027 -0.039533816 0.2278505 0.3115657 -0.045178857 -0.33143073 -0.51675636
-0.2670171 0.09638887 -0.45992142 -0.6585074 0.19988151 -0.16284083 0.45323342 0.17849925

rnn3.weight_ih f4 [200, 50]
00000000: 6b0e 9f3e d365 d93d 118c babe 148b aabe
00000010: 0479 05bf 6a63 173d 9f9d 3bbe b81a 9abe
00000020: 22cb 133f c24c 003e f7f1 943e 05de 00bf
00000030: 54de b33e 5e15 3f3e e209 2a3f 4907 85bd
00000040: 5651 e63d cbd0 673f e59f 313f 8108 c8be
00000050: b276 d93e 1786 473e 344f ec3d 06ba 7ebd
00000060: 0090 103d 7dcd f93e 5376 babe c9d2 93bb
00000070: dc8d c43e b1f5 133f 98b8 a03e 3ec9 00bf
00000080: 8fe4 bb3f 86dd bf3e 752f 713f a97c 07be
00000090: 9b43 cf3b 663b f1be 85bf c3be e9ba 583f
000000a0: 4058 a7bd 1108 073f 806e 0b3f f335 cdbd
000000b0: 3ff6 5fbf 038a 9e3e ac1d 08bf 99e0 32bf
000000c0: 0584 763f ce5c 43be 48e3 663f 1204 30be
000000d0: ebf8 2ebe 31ee 613e 1b97 4cbf f265 6ebe
000000e0: cfa6 94be 53c4 10bd e412 403f bbc1 34be
000000f0: 49e0 753f 5549 47bf db25 3b3f 8ebb d83e
00000100: 2c97 f33e 30e7 59be 6534 163f 3fa9 45bf
00000110: 9318 3f3f 25b0 34bd ba55 c0be cd1b c03e
00000120: a5ae 103f eebd eb3e fd35 b4bd 1316 d83d
00000130: 6fc5 fbbe b0f8 023f bce4 d93e 367b 7c3f
00000140: 60a1 f63e ea0e 64be 8e3f 0d3f ffba 913d
00000150: cb12 7c3e fad4 02bf a027 7d3f 6b57 3abf
00000160: fb52 ffbd 0d23 283f aa05 333e c2b5 b93c
00000170: 79a2 fa3e 842a b0be 1142 b9be 5849 1f3e
00000180: 9e76 5f3e 5150 5ebe 6da7 01be f3c4 2abf
00000190: 6875 67bd ce18 dfbe 19f9 563e 0a38 b3bf
000001a0: 5c0f a53f 4fce 10be 2738 353d 4843 1abf
000001b0: 50a0 78bf 1cc5 5bbe 95f4 d63e c843 b13f
000001c0: 4e6a a73e 00c5 17bd 8de9 003f 4065 56bf
000001d0: 7516 513e 98af 9a3f e26f 12bf ed75 1abf
000001e0: e6ce 063f 4570 06be e2e4 c1be f66e 8f3f
000001f0: d35c 58bc 7931 ab3e e564 b2bf 2505 c13f
00000200: 7e8e 7d3e 834b a83f 802a b9be ffbe 28bf
00000210: ec52 663e 7e07 4b3e 1725 ce3e 555e 3dbf
00000220: e488 6c3f fa5e 593f ff80 c2bc 3983 2cbf
00000230: 5eb7 2e3f 8235 9b3d e2ab 3fbf 5b71 d83e
00000240: aa22 1f3e 2608 8c3d 42cc 133f 41ad bbbf
00000250: d290 073f 8d25 90bd 1a2d 4f3e 2f73 cdbc
00000260: ca8a b83e 4e6c 193f 81a3 87bf 94a9 2cbe
00000270: 0ef4 fe3d f137 25bf d7ce fabc 31ae ccbe
00000280: 5178 cabc fbc9 26bc 8ba0 1abd b8db 9dbd
00000290: 989f cbbe b7e6 033f 0195 933d e557 3fbf
000002a0: af30 40bf 7cdc 503f 96f2 bcbd d9f1 c83e
000002b0: 72bc 003f bda6 bebd a8f7 89be bb24 32bf
000002c0: 72ab 803e 70b2 76bd 317f 653f 5c0a c5be
000002d0: e167 b93e 2d60 313f b7bf f6be dedd b43e
000002e0: 7277 d8be 6bff d43c a27e 05bd 78be 00bf
000002f0: 258a 953c d1ad a43e 8a9f a0bd 840d 443e
00000300: 0b91 ac3e c5ad ce3e 3014 d6be 01f2 263c
00000310: a67c 43be dfa4 b7bf da4b ff3e 1825 a0bd
00000320: 3e36 a33f 7f4d 423e 0a7c c7be a98b 8abe
00000330: dae0 36bf e639 3cbf f645 bfbe a1a6 193e
00000340: 87d4 113f 0330 e5be a912 8f3f 95b0 08bf
00000350: 1dc1 1b3f 4fc2 2b3f b6ca 313f 4527 66bf
00000360: 1f7f 3f3f 7e2e a2be 6e06 1b3f 8f8d 8dbe
00000370: c6bb d8bc 9bcb 01bf 59ac 2e3f cfa1 163f
00000380: 9721 f3be 2cf5 0b3d 0994 7e3c 835d e03d
00000390: 7fe5 303f 641f 3b3d ba33 4b3f 0bdd 1d3d
000003a0: c498 ce3e 796f 153f 9af6 823e 19b4 bcbe
000003b0: c544 24be 6e83 30bf 5298 d1be 91c5 a63e
000003c0: 2004 0d3f 92cf e73e 4dd3 523f 5037 dbbe
000003d0: 116c 14bf 8bb2 973e dd09 8f3d cd5f 2c3c
000003e0: 09ae 463f 730e 93bf 984a d1bd 594c 89bf
000003f0: 95c8 5cbf e182 2ebf bcaf 25bf 3c4d e4be
0.31065688 0.106151246 -0.36434987 -0.33309233 -0.5213778 0.036960043 -0.18321846 -0.3009851
0.5773183 0.12529281 0.29090855 -0.50338775 0.3513056 0.18660495 0.6642133 -0.0649553
0.11245982 0.9055297 0.69384605 -0.39068988 0.4247337 0.19484745 0.11538544 -0.062189125
0.03529358 0.48789588 -0.364184 -0.0045112115 0.3838948 0.5779677 0.31390834 -0.5030707
1.4679126 0.37473696 0.9421304 -0.13231148 0.006325198 -0.4711563 -0.38232055 0.846602
-0.08171129 0.52746683 0.54465485 -0.100200556 -0.87485117 0.3096467 -0.53170276 -0.6987396
0.96295196 -0.19078371 0.90190554 -0.17189053 -0.17087142 0.22063519 -0.7991807 -0.23281077
-0.29033515 -0.03534348 0.75028825 -0.17652027 0.96045357 -0.7784627 0.7310464 0.42330593
0.47576272 -0.21279597 0.586737 -0.77211374 0.7464687 -0.044113297 -0.37565404 0.3752121
0.56516486 0.46043342 -0.0879936 0.10551085 -0.49174067 0.51160717 0.42557323 0.98625505
0.48169994 -0.22271314 0.551751 0.07115745 0.24616544 -0.51106226 0.9888859 -0.7278964
-0.12466999 0.65678483 0.1748263 0.022669677 0.48952082 -0.34407437 -0.36183217 0.15555322
0.21822593 -0.21710326 -0.12661524 -0.6670677 -0.05650845 -0.43573612 0.2099346 -1.4001477
1.2895312 -0.141412 0.044243004 -0.60258913 -0.9711962 -0.2146191 0.41983476 1.384881
0.32698292 -0.03705311 0.5035637 -0.83748245 0.20418723 1.2084837 -0.5720197 -0.6033619
0.5265945 -0.13128765 -0.37869936 1.1205738 -0.013205725 0.33436182 -1.393704 1.5079695
0.24761388 1.3148044 -0.36165237 -0.65916437 0.2249257 0.19827077 0.40262672 -0.73972064
0.9239638 0.8491055 -0.02374315 -0.6738773 0.68248546 0.07578565 -0.7487165 0.42273983
0.15540567 0.06837492 0.5773355 -1.4662248 0.52955353 -0.07038412 0.20232049 -0.025079338
0.36043388 0.59930885 -1.0596772 -0.16861564 0.124488935 -0.64538485 -0.030616207 -0.39976647
-0.024715574 -0.010179992 -0.037750762 -0.07707924 -0.39770198 0.5152392 0.072061546 -0.7474349
-0.75074285 0.8158643 -0.09225957 0.39247015 0.50287545 -0.093091466 -0.2694676 -0.69587296
0.25130802 -0.060228765 0.89647204 -0.38484466 0.36212066 0.6928738 -0.48193142 0.3532552
-0.4227863 0.026000699 -0.03259147 -0.5029063 0.018254349 0.3216386 -0.0784293 0.19145781
0.3370441 0.4036695 -0.41812277 0.010189534 -0.19090518 -1.434719 0.49862558 -0.07819575
1.2750928 0.18974875 -0.38961822 -0.27059677 -0.71436846 -0.73525846 -0.37358063 0.1500497
0.56964916 -0.44763193 1.117757 -0.5339444 0.6084154 0.67093366 0.6944994 -0.8990367
0.74803346 -0.31676096 0.60556686 -0.27647063 -0.026456725 -0.507013 0.6823173 0.5884065
-0.47486565 0.03416936 0.015538224 0.10955336 0.69100183 0.045684233 0.79375803 0.03854088
0.40350926 0.5837322 0.25578767 -0.36856154 -0.16041858 -0.68950546 -0.40936524 0.32572606
0.5508442 0.4527555 0.8235367 -0.42815638 -0.57977396 0.29628405 0.06984303 0.010520888
0.77609307 -1.1488785 -0.10219306 -1.0726424 -0.86243564 -0.68168455 -0.64721274 -0.44590175
