Results/Complete Sherlock Holmes/GRU/ASGD/2/100/model.pt (torch, 528575 bytes, 10 tensors)

rnn.weight_ih f4 [300, 100]
0	0xbe968e2a	-0.29405338
1	0xbf673fbc	-0.90331626
2	0x3e9b7a00	0.30366516
3	0xbedead11	-0.43491414
4	0x3e786b08	0.24259579
5	0x3e83ee91	0.2576795
6	0x3f43d1d1	0.7649203
7	0xbca2b9ea	-0.019864041
8	0x3f62e055	0.88623554
9	0xbe03989f	-0.12851189
10	0x3d79ff1e	0.061034314
11	0xbf5bf632	-0.8592254
12	0x3f840b3f	1.0315932
13	0xbd78e976	-0.06076952
14	0x3fc56145	1.5420309
15	0xc00df2ef	-2.2179525
16	0xbf2976d1	-0.66196924
17	0xbf287439	-0.6580234
18	0x3ee917a0	0.45525837
19	0xbf77f86d	-0.9686344
20	0xbd31d8e3	-0.04341973
21	0x402feb93	2.7487533
22	0xbf657aa1	-0.8964024
23	0x3e9df988	0.3085444
24	0x3e43add4	0.19109279
25	0xbe78c605	-0.24294288
26	0xbd991537	-0.074747495
27	0x4026e0c7	2.6074693
28	0xbb853fc1	-0.004066438
29	0x3a5c1365	0.0008395224
30	0x3e85b98f	0.26118132
31	0xbfc52bbc	-1.5403972
32	0xbfd3f66c	-1.6559577
33	0xbfff4504	-1.9942937
34	0xbff02d27	-1.8763779
35	0x3e96fd57	0.29490158
36	0xbeda051e	-0.4258203
37	0x3fd0f392	1.6324332
38	0xbec2226e	-0.37916893
39	0x3f918ace	1.1370485
40	0x3f00d6b9	0.5032764
41	0x3ed8e630	0.4236312
42	0x3e95d679	0.29265192
43	0xbdce92d8	-0.10086602
44	0x3f75bd63	0.95992106
45	0xbee0ebb3	-0.43929824
46	0x3e9a8130	0.30176687
47	0xbf05df3c	-0.52293754
48	0x3e8db433	0.27676544
49	0x3e91c4ee	0.28470558
50	0xbd80e8a1	-0.062943704
51	0xbebcdb67	-0.3688614
52	0x3cd8385e	0.026394065
53	0xbf24b8aa	-0.64344275
54	0x3ecda45c	0.4016446
55	0xbf3b069a	-0.7305695
56	0x3f30dcb0	0.6908674
57	0xbe657587	-0.22408114
58	0xbe680a7b	-0.22660248
59	0x3d84a5ee	0.06476961
60	0xbdcf3130	-0.10116804
61	0xbe5033fd	-0.20332332
62	0xbf992128	-1.1963243
63	0x3f007a1b	0.5018632
64	0x3d65460e	0.055975012
65	0x3dc88f19	0.09792919
66	0x3db48abb	0.08815523
67	0x3e5a9622	0.21346334
68	0x3e06bc8a	0.1315786
69	0x3e23d850	0.16000485
70	0xbe8f0957	-0.27936813
71	0xbd382501	-0.044957165
72	0x3d863ebb	0.06554934
73	0xbfb3f507	-1.4059151
74	0x3f28cd7c	0.65938544
75	0x3e00ce85	0.12578781
76	0xbde74430	-0.112923026
77	0x3f95f513	1.1715416
78	0xbffad04e	-1.959482
79	0xbd9f5bf5	-0.07781211
80	0x3da5e2f9	0.08099932
81	0x3d7e0f6e	0.062026434
82	0xc00f5005	-2.239259
83	0xbcfdc638	-0.030978307
84	0x3ea51531	0.3224273
85	0xbcefbe0c	-0.029265426
86	0x3e8022f0	0.25026655
87	0xbca52340	-0.02015841
88	0xbd5b7b6d	-0.053584505
89	0xbdba3508	-0.09092146
90	0x3d8a1211	0.06741727
91	0xbd841a30	-0.06450307
92	0x3d634b2a	0.055491604
93	0x3d123ada	0.035700656
94	0xbfdb4bed	-1.7132546
95	0xbd92b8ca	-0.07164152
96	0x3d80da91	0.06291688
97	0xbd8106e5	-0.06300143
98	0x3c65f028	0.0140343085
99	0x3d10ce0a	0.035352744
100	0xbecfb46f	-0.40567347
101	0x3ed37ff6	0.41308564
102	0x3ea4db5d	0.3219861
103	0xbc84fbbb	-0.016233316
104	0xbe8ed0a9	-0.2789357
105	0xbf0f371c	-0.55943465
106	0xbd0b1aa1	-0.033960942
107	0xbeb1b21b	-0.34706196
108	0x3f929ec5	1.1454703
109	0x3f5c5fc4	0.86083627
110	0xbf549dbd	-0.8305319
111	0xbfae5e24	-1.362248
112	0x3f2cf8ad	0.6756695
113	0xbee5cc13	-0.4488226
114	0xbe8c5386	-0.27407473
115	0xbf158842	-0.5841104
116	0x3eb5ad0c	0.35483587
117	0x400451fc	2.067504
118	0xbf0700e8	-0.5273576
119	0xbea97d0e	-0.33103222
120	0xc0127f36	-2.2890143
121	0xbe54271c	-0.20718044
122	0xbfea5da9	-1.8309833
123	0xc0331e6c	-2.7987318
124	0xbdfd6970	-0.12373626
125	0xbede589e	-0.43426985
126	0xbecf554c	-0.40494764
127	0xbf543d11	-0.8290568
128	0xbfec29c0	-1.8450241
129	0x402675e0	2.6009445
130	0xbfc4ba6b	-1.536939
131	0x3f6b5a95	0.9193509
132	0x3ec91716	0.39275426
133	0xbf9710d4	-1.180201
134	0xbd29007e	-0.041260235
135	0xbf204a7b	-0.6261365
136	0xbee91fa2	-0.45531946
137	0x3e898697	0.26860496
138	0xbe9cc620	-0.30619907
139	0x3e440d25	0.19145639
140	0xbe6a8577	-0.22902475
141	0xbe9a25d9	-0.30107
142	0x3f168415	0.5879529
143	0x3fecb795	1.8493525
144	0xbed5431e	-0.4165277
145	0x3e959fba	0.29223424
146	0x3e3f0c73	0.18657093
147	0xbf3c457e	-0.73543537
148	0x3efedaac	0.49776208
149	0xbc8c29c1	-0.017109754
150	0xbfe2ed7c	-1.7728724
151	0xbf346add	-0.7047556
152	0xbd34f320	-0.044177175
153	0xbf01c0a8	-0.50684595
154	0xbf880eb5	-1.0629488
155	0xbf8284da	-1.0196793
156	0xbe6f4a4a	-0.23368183
157	0x3f239b8c	0.6390922
158	0xbe9ab520	-0.30216312
159	0x3f36e7ec	0.71447635
160	0xbe81c459	-0.25345114
161	0x3f468b79	0.7755657
162	0xbeb76c69	-0.35824898
163	0x3e9f8c82	0.31161886
164	0x3dc42567	0.095774464
165	0xbdbeacd7	-0.0931031
166	0x3b4a68c0	0.003088519
167	0xbe7832f0	-0.24238181
168	0x3e1ba074	0.15197927
169	0x3cd103be	0.02551448
170	0xbf0b27ce	-0.5435761
171	0xbea39e00	-0.31956482
172	0x3cf25724	0.029582568
173	0xbf90479c	-1.1271853
174	0xbe6b7b76	-0.22996315
175	0xbe2e0434	-0.16993791
176	0xbe775315	-0.24152787
177	0xbef167f2	-0.47149616
178	0x3e093183	0.13397793
179	0xbcd43ca0	-0.025907815
180	0xbd9701f6	-0.07373421
181	0xbda6a878	-0.081376016
182	0xbe319e12	-0.17345455
183	0x3db117f1	0.086471446
184	0xbe573c3b	-0.2101907
185	0xbc1958a8	-0.009359516
186	0x3f3bbabe	0.7333182
187	0x3d804ea1	0.06264997
188	0xbd8a92d6	-0.06766288
189	0x3d6ec3ba	0.05829213
190	0xbd4fd787	-0.050742652
191	0xbda73ef3	-0.081663035
192	0x3dbc7d1b	0.092035495
193	0xbd4b6cda	-0.049664356
194	0xbf0f8a16	-0.5607008
195	0xbd897ce2	-0.06713273
196	0x3ee32049	0.4436057
197	0xbd8df1ad	-0.069308616
198	0x3d9992d3	0.074987076
199	0xbd3ac98a	-0.04560236
200	0xbf1a8ea2	-0.6037389
201	0xbe463e8f	-0.19359802
202	0xbec45497	-0.38345787
203	0xbf085667	-0.5325684
204	0x3f775128	0.9660821
205	0x3eb617f7	0.3556516
206	0x3eb238c0	0.34808922
207	0xbec451da	-0.38343698
208	0xbc856ec4	-0.016288169
209	0x3ed7a6fc	0.42119586
210	0xbebfac3c	-0.37436092
211	0x3ead4b9c	0.33846748
212	0xbe589dfa	-0.21154013
213	0xc00b2faa	-2.1747842
214	0xc030334c	-2.753131
215	0xc068563c	-3.6302633
216	0x3f04fafc	0.5194547
217	0xbf6ae59d	-0.9175661
218	0x40163710	2.3471107
219	0x3e49ad3f	0.19694994
220	0xc0230d78	-2.547697
221	0xbf8dca16	-1.1077297
222	0x3fd8c340	1.6934586
223	0x3f88d63a	1.0690377
224	0x3eee88e6	0.4658882
225	0x3eb11339	0.34584978
226	0x3e9951fa	0.29945356
227	0xc003c792	-2.0590558
228	0xbefaa9b2	-0.48957592
229	0xbc4ef59d	-0.012631801
230	0x3e415f4c	0.18884009
231	0x3ee57632	0.44816738
232	0xbec39dd3	-0.38206348
233	0xbe8279a6	-0.25483435
234	0xc006290e	-2.0962558
235	0xbe0e9bc6	-0.1392661
236	0x3f3be407	0.7339482
237	0xbfb72c31	-1.4310361
238	0xbf7edbee	-0.99554336
239	0xbf5684f9	-0.8379665
240	0xbf9e9aeb	-1.2391027
241	0x3f3be3b0	0.733943
242	0xbfe7e453	-1.8116554
243	0xbf9e4d1b	-1.2367281
244	0xbe6c1f63	-0.23058848
245	0xbe23a906	-0.15982446
246	0xbf32a8f4	-0.6978905
247	0xbdec606c	-0.115418285
248	0xbf57fba4	-0.8436835
249	0xbf73d98f	-0.95253843
250	0x3f937da3	1.1522716
251	0xbead2fb1	-0.33825448
252	0x3f0e63c0	0.55620956
253	0x3e63bf92	0.22241047
254	0x3f5452a2	0.8293859
255	0x3f802ea5	1.0014235

rnn.weight_hh f4 [300, 100]
0	0x3fc84b47	1.5647973
1	0x3f3d6751	0.73985773
2	0x3dca0dd4	0.09865919
3	0xbe273791	-0.1632979
4	0xbe2ceede	-0.16887996
5	0x3d964fe0	0.07339454
6	0x3f665abd	0.89982206
7	0xbef9da15	-0.48799196
8	0x3f8b46fc	1.0881038
9	0x3d8f48c4	0.06996301
10	0xbe995fe4	-0.2995597
11	0xbf9f958e	-1.2467515
12	0xbe7d1f59	-0.2471899
13	0xbe2541d2	-0.1613839
14	0xbecce5bc	-0.40019023
15	0x3ee36fc9	0.44421223
16	0xbf702062	-0.9379941
17	0xbfb3d415	-1.4049097
18	0xbe00e446	-0.1258708
19	0x3eb487bb	0.35259804
20	0xbe05044b	-0.12989919
21	0x3f01b2df	0.5066356
22	0xbf1693cf	-0.5881929
23	0x3e8dcd3e	0.2769565
24	0xbf8fee31	-1.1244565
25	0x3eb6656b	0.3562425
26	0xbe54035d	-0.20704408
27	0x3eb99810	0.36248827
28	0xbeffd752	-0.49968964
29	0xbea42adf	-0.32063958
30	0xbfbbdd17	-1.4676846
31	0xbefe4027	-0.4965832
32	0xbe990da3	-0.29893216
33	0xbbf54ffb	-0.007486341
34	0xbf92a6fc	-1.145721
35	0xbebd370d	-0.36956063
36	0x3d82d0fa	0.06387515
37	0x3e8c5349	0.27407292
38	0xbf3452f8	-0.704391
39	0x3e360abd	0.17777534
40	0xbf610d30	-0.8791075
41	0xbf0b07ca	-0.5430876
42	0x3e988e85	0.29796234
43	0xbfb8ce1b	-1.4437898
44	0x3d8ff83f	0.07029771
45	0x3ed0db99	0.4079254
46	0xbed86e85	-0.4227182
47	0x3f02f684	0.51157403
48	0x3f396d30	0.7243223
49	0x3f04ad36	0.518268
50	0x3e2e550e	0.17024633
51	0xbf2dace9	-0.67841965
52	0x3f0884a3	0.5332739
53	0x3f0c5cd5	0.5482915
54	0x3f5d3264	0.86405015
55	0xbeebdb63	-0.46065816
56	0xbeddda2b	-0.4333051
57	0xbea56d15	-0.32309785
58	0x3e3e9cc4	0.18614489
59	0xbeda0746	-0.42583674
60	0x3f1e93f8	0.6194453
61	0xbd4b10b5	-0.04957648
62	0x3f9c0ce4	1.2191434
63	0x3ec3d7fd	0.38250723
64	0xbd810cd9	-0.063012786
65	0x3e91bad1	0.28462842
66	0xbe116d48	-0.14201844
67	0xbf11654b	-0.56795186
68	0xbf5a8fb0	-0.853755
69	0xbe2fe22d	-0.17176123
70	0xbe976d0e	-0.2957539
71	0x3fd60405	1.6719977
72	0x3dd5c366	0.1043766
73	0x3f56b3d8	0.8386817
74	0x3f008466	0.50202024
75	0x3ee6f077	0.45105335
76	0x3ecd39d6	0.40083188
77	0xbef771cf	-0.48329017
78	0xbf6ffc3d	-0.9374426
79	0xbc5490a0	-0.012973934
80	0x3f5eb569	0.8699556
81	0x3eea8980	0.4580803
82	0xbd86567a	-0.06559463
83	0x3c4450a9	0.0119821215
84	0xbfb32b8b	-1.3997663
85	0xbf3d4f74	-0.7394936
86	0x3eb3c62f	0.3511214
87	0x3f8235ab	1.0172628
88	0x3e34dd0c	0.17662448
89	0x3f592a80	0.84830475
90	0x3e16e7c7	0.14736854
91	0x3eda66cd	0.42656556
92	0x3e8ea3af	0.27859256
93	0xbe82d2e1	-0.25551513
94	0x3d781356	0.060565315
95	0xbe1e7ee4	-0.15478092
96	0x3ae669e5	0.0017579166
97	0xbfa379c4	-1.2771535
98	0x3d7a7d9f	0.061154958
99	0x3eaeba36	0.34126443
100	0xbe4849c1	-0.19559385
101	0xbfdf80a5	-1.7461134
102	0x3f4aee2f	0.7926969
103	0x3ee56e80	0.44810867
104	0x3f12ee1f	0.57394594
105	0xbec08223	-0.37599286
106	0xbd4e7f24	-0.05041422
107	0xbf17f9f0	-0.5936575
108	0xbecef748	-0.40423036
109	0x3ef61cc2	0.48068815
110	0x3f97f00f	1.1870135
111	0xbe90fae8	-0.28316426
112	0xbd0fe770	-0.035132825
113	0x3ef938f7	0.48676273
114	0x3f02fe18	0.51168966
115	0xbde6efd8	-0.11276215
116	0xbed15d95	-0.4089171
117	0xbd0c6b58	-0.03428206
118	0xbc0af62b	-0.008481543
119	0x3d58e854	0.05295594
120	0xbe250d22	-0.16118291
121	0xbeb957f4	-0.36199915
122	0xbf4983b5	-0.78716594
123	0x3d3bc49d	0.045841802
124	0x3e97e42f	0.29666278
125	0xbed977b0	-0.42474127
126	0x3e17e7bd	0.14834495
127	0x3f899632	1.0748961
128	0xbc285525	-0.010274206
129	0x3f433df8	0.7626643
130	0xbe9baba5	-0.30404392
131	0x3e99d0ea	0.300422
132	0x3f2a3b5e	0.6649684
133	0x3e388e1c	0.1802296
134	0x3df9732a	0.12180169
135	0xbf14c499	-0.58112484
136	0xbf7007d7	-0.9376196
137	0xbf988a67	-1.1917237
138	0xbe1b7bf1	-0.15183999
139	0x3f361751	0.7112933
140	0x3f52ade5	0.8229659
141	0x3f2a763c	0.6658666
142	0xbe87d00b	-0.26525912
143	0x3e8fc72e	0.2808165
144	0xbf0cbdd1	-0.54977137
145	0x3efe0d8a	0.49619704
146	0xbe716f5f	-0.23577641
147	0x3f8c7e9c	1.0976138
148	0xbdc28fb1	-0.09500063
149	0xbee52cf5	-0.44760862
150	0x3ea3c483	0.31985864
151	0xbcbe083a	-0.023197282
152	0x3f3efd5a	0.74605334
153	0xbf587430	-0.8455229
154	0xbe9e2291	-0.30885747
155	0xbeeca0a5	-0.46216312
156	0x3f1da439	0.6157871
157	0xbf2928aa	-0.66077673
158	0x3f4f8de5	0.8107589
159	0xbddc8a30	-0.10768545
160	0x3c8ee1c6	0.017441642
161	0x3e53ab72	0.2067087
162	0x3ebef93c	0.37299526
163	0x3e3eb26f	0.18622755
164	0x3f91bef8	1.1386404
165	0xbfa61b6c	-1.2977118
166	0x3eda9d40	0.42698097
167	0xbe941a2b	-0.28926215
168	0xbcee7c7d	-0.029112095
169	0x3d47cdee	0.048780374
170	0x3ef9bee1	0.48778442
171	0x3ebf6654	0.37382758
172	0xbd7a16f5	-0.06105705
173	0x3e74395c	0.23850006
174	0xbfc2397d	-1.5173794
175	0xbf09deb7	-0.5385546
176	0xbd209035	-0.039200027
177	0x3e16e111	0.14734294
178	0x3f3957d1	0.7239962
179	0x3f814169	1.0098087
180	0xbec9b0d6	-0.39392728
181	0x3d89aacc	0.0672203
182	0xbf8552dc	-1.0415912
183	0xbe9feddc	-0.3123616
184	0x3f1da3ec	0.6157825
185	0xbe0d3ccf	-0.13792728
186	0xbf33dd9e	-0.70260036
187	0xbf18ae31	-0.59640795
188	0x3eba749f	0.364171
189	0x3f877f0a	1.0585644
190	0x3f4837e2	0.7821027
191	0xbf6b8eef	-0.92014974
192	0xbdbcca2a	-0.09218247
193	0xbf3ad3a4	-0.7297919
194	0x3ecc2d65	0.39878383
195	0xbe06f9d5	-0.13181241
196	0x3cb4b668	0.022059634
197	0x3e864674	0.26225626
198	0xbebf056d	-0.37308827
199	0x3e55a5ff	0.20864104
200	0x3e330b6a	0.17484823
201	0xbee13868	-0.43988347
202	0x3f5bc869	0.85852677
203	0xbf191f00	-0.5981293
204	0x3c034723	0.008012566
205	0xbdbd4dc0	-0.09243345
206	0x3d132097	0.035919752
207	0xbd1bd65f	-0.038046237
208	0xbec3a9ba	-0.3821543
209	0x3ed61af7	0.41817448
210	0x3f2f072a	0.68370306
211	0xbf0096bb	-0.50229996
212	0x3f453566	0.77034605
213	0xbf0214e0	-0.508131
214	0xbe0f1e1f	-0.13976334
215	0x3e584a72	0.21122149
216	0x3f3b4a96	0.73160684
217	0x3eb6cd6a	0.35703593
218	0xbf15374d	-0.5828751
219	0xbe5f74c2	-0.21821883
220	0x3dcd2065	0.100159444
221	0x3f7b6d2d	0.98213464
222	0xbea1a16e	-0.31568474
223	0xbe92aabd	-0.28645888
224	0x3ed53ad9	0.4164646
225	0x3f295366	0.6614288
226	0xbf29881c	-0.6622331
227	0x3ef24b99	0.473233
228	0x3f456c46	0.7711834
229	0xbec91bf4	-0.3927914
230	0xbf28e96e	-0.65981185
231	0xbe6ccaeb	-0.23124282
232	0x3e884565	0.26615444
233	0xbf006c96	-0.5016569
234	0x3f5d37b8	0.86413145
235	0xbec0021f	-0.37501618
236	0xbf2fa3d6	-0.6860937
237	0xbf635ddf	-0.8881511
238	0xbdc05be1	-0.093925245
239	0xbf5b2df3	-0.8561699
240	0x3f3adc0d	0.7299202
241	0x3fb4a34a	1.4112332
242	0xbe89b4a8	-0.26895642
243	0xbe37e2d0	-0.17957616
244	0xbf6adb44	-0.9174082
245	0x3f5ada07	0.85488933
246	0xbdfc5921	-0.123216875
247	0x3e52299d	0.20523687
248	0xbe735b1e	-0.23765227
249	0xbe0e30df	-0.1388583
250	0x3c23fe53	0.010009366
251	0x3d9d7f8c	0.07690343
252	0x3eab2074	0.33423197
253	0xbe294034	-0.16528398
254	0x3d3bddaf	0.04586571
255	0x3df83c11	0.12120832

rnn.bias_ih f4 [300]
0	0xbec4a5c8	-0.3840773
1	0xbf8304ee	-1.023588
2	0xbf501732	-0.81285393
3	0xbe905fb7	-0.28198025
4	0xbf590142	-0.84767544
5	0xbf730597	-0.94930404
6	0xbf496db9	-0.7868305
7	0xbf8fd551	-1.1236974
8	0xbf5a42a6	-0.8525795
9	0xbf4b20ae	-0.7934674
10	0xbf3ff36a	-0.74980795
11	0xbf337512	-0.7010051
12	0xbe8b5fc3	-0.27221498
13	0xbf292689	-0.66074425
14	0xbfb804b3	-1.4376434
15	0xbf6fa54d	-0.93611604
16	0xbe8dfaf7	-0.27730533
17	0xbf794ea2	-0.9738561
18	0xbf4cf2ab	-0.8005778
19	0xbf47ae9f	-0.78000826
20	0xbf7fdce6	-0.9994644
21	0xbf1393ca	-0.57647383
22	0xbe78a8b9	-0.24283113
23	0xbf468c85	-0.77558166
24	0xbf7df5e5	-0.9920333
25	0xbfa0ee63	-1.257275
26	0xbfcd6dbe	-1.6049116
27	0xbe9967ff	-0.29962155
28	0xbf39d346	-0.72588
29	0xbee84e66	-0.45372313
30	0xbf476a84	-0.77896905
31	0xbe0f82e4	-0.14014775
32	0xbe899bad	-0.26876584
33	0xbf80a8dc	-1.0051532
34	0xbf3eb5fb	-0.7449643
35	0xbf7bd417	-0.983705
36	0xbec9d8a5	-0.394231
37	0xbf83ac20	-1.0286903
38	0xbf6dde44	-0.92917275
39	0xbf4d3318	-0.8015609
40	0xbe9081a2	-0.28223902
41	0x3c0d9909	0.008642443
42	0xbdbce889	-0.0922404
43	0xbf137080	-0.57593536
44	0xbf074b53	-0.5284931
45	0xbf397172	-0.7243873
46	0xbf8251c1	-1.0181199
47	0xbf70359a	-0.9383179
48	0xbf8ef1ac	-1.1167502
49	0xbe966cab	-0.29379782
50	0xbeb0fdc7	-0.34568617
51	0xbf71a9c9	-0.94399697
52	0xbee70887	-0.45123693
53	0xbe01d66a	-0.12679449
54	0xbf909e70	-1.1298351
55	0xbf31eef2	-0.69505227
56	0xbf22061a	-0.6329056
57	0xbe7ace6e	-0.24492809
58	0xbf13b06c	-0.57691073
59	0xbf944bac	-1.1585593
60	0xbf9ba3b6	-1.2159336
61	0xbf3f920b	-0.7483222
62	0xbf5da3e9	-0.8657823
63	0xbf8352df	-1.0259665
64	0xbeaf8cad	-0.34287015
65	0xbfd90ce0	-1.6957054
66	0xbf4cdf80	-0.80028534
67	0xbe353ab1	-0.1769817
68	0xbeec8063	-0.461917
69	0xbebf4d6e	-0.37363762
70	0xbf5a2c07	-0.8522343
71	0xbf79fd21	-0.9765187
72	0xbef54444	-0.47903645
73	0xbf37fdfd	-0.7187193
74	0xbed53787	-0.41643927
75	0xbfa50230	-1.2891293
76	0xbf627153	-0.8845417
77	0xbf136e39	-0.5759006
78	0xbf5a0436	-0.85162675
79	0xbf5d8e4c	-0.8654525
80	0xbecf4f36	-0.4049012
81	0xbf41f9d3	-0.75771827
82	0xbee3882a	-0.44439822
83	0xbf9bd6af	-1.2174891
84	0xbf875730	-1.0573483
85	0xbf9a1759	-1.2038375
86	0xbf6efe90	-0.9335718
87	0xbeccee71	-0.40025666
88	0xbf31e1ac	-0.6948497
89	0xbf6c8596	-0.92391336
90	0xbf8265c0	-1.0187302
91	0xbfb378e8	-1.4021273
92	0x3f65350c	0.8953407
93	0xbf416da0	-0.755579
94	0xbf898c0b	-1.0745863
95	0xbf46c806	-0.7764896
96	0xbf3e9d57	-0.7445883
97	0xbea97f22	-0.33104807
98	0xbe84ad26	-0.25913352
99	0xbf30a7d4	-0.69006085
100	0xbebe3909	-0.3715289
101	0xbd714661	-0.05890501
102	0xbfa8a861	-1.3176385
103	0xbf979c7d	-1.1844631
104	0xbf81626d	-1.0108162
105	0xbf132d9c	-0.5749147
106	0xbf13ca1c	-0.5773027
107	0xbf346688	-0.7046895
108	0xbe6e45eb	-0.23268859
109	0xbf2ada84	-0.6673968
110	0xbf6bb547	-0.9207348
111	0xbf5df4a8	-0.8670144
112	0xbe57e704	-0.21084219
113	0xbf7946f4	-0.9737389
114	0xbf689061	-0.90845305
115	0xbeff898f	-0.49909636
116	0xbf0a2e9a	-0.5397736
117	0xbeeb48ee	-0.45954078
118	0xbfcb4ed0	-1.5883427
119	0xbfae771c	-1.3630099
120	0xbf48b37b	-0.78398865
121	0xbed1449c	-0.40872657
122	0xbf97372d	-1.1813713
123	0xbf851bd6	-1.039912
124	0xbf93cd8a	-1.15471
125	0xbf598ecb	-0.8498351
126	0xbe2434ec	-0.16035813
127	0xbf5e7a42	-0.869053
128	0xbecbd738	-0.39812636
129	0xbfcbfa6a	-1.5935795
130	0xbf46869f	-0.77549165
131	0xbf85fc67	-1.0467652
132	0xbf8718c4	-1.0554433
133	0xbf51ae1c	-0.81906295
134	0xbf3af456	-0.7302908
135	0xbf0b0310	-0.5430155
136	0xbe0d5bf6	-0.13804612
137	0xbda3b13c	-0.07992789
138	0xbfa28bc8	-1.2698908
139	0xbf5f9144	-0.8733103
140	0xbf0d2333	-0.55131835
141	0x3eb2ce74	0.34923136
142	0xbdf666d7	-0.12031334
143	0xbf66f9d4	-0.9022496
144	0xbf4aae4d	-0.7917221
145	0xbdda3a76	-0.10655682
146	0xbebe2922	-0.37140757
147	0xbf170179	-0.5898662
148	0xbea9ccaf	-0.33163974
149	0xbf0b0ab1	-0.5431319
150	0xbf293485	-0.66095763
151	0xbf5ec66b	-0.8702151
152	0xbe097f17	-0.13427387
153	0xbf845caf	-1.0340785
154	0xbfd6edc0	-1.6791306
155	0xbf20b6fa	-0.627792
156	0xbf835468	-1.0260134
157	0xbf739396	-0.95147073
158	0xbf24131e	-0.6409167
159	0xbf854718	-1.0412321
160	0xbf53d173	-0.8274147
161	0xbf1744c0	-0.5908928
162	0xbf50f35b	-0.8162133
163	0xbf31c64e	-0.69443214
164	0xbf29311b	-0.66090554
165	0x3f135159	0.57546
166	0xbf9f1f64	-1.2431455
167	0xbf5c50a9	-0.8606058
168	0xbf90948f	-1.1295336
169	0xbe865ba1	-0.26241782
170	0xbf32458a	-0.6963736
171	0xbfa5db10	-1.2957478
172	0xbf5c0e7d	-0.8595961
173	0xbef7c77c	-0.48394382
174	0xbf8b804c	-1.0898528
175	0xbfad739a	-1.3550904
176	0xbf1e9c03	-0.61956805
177	0xbe1d4aa5	-0.15360506
178	0xbe7dd5f1	-0.24788643
179	0xbf25d178	-0.6477275
180	0xbf71aca4	-0.94404054
181	0xbf88d71b	-1.0690645
182	0xbed0b60c	-0.4076389
183	0x401b1ea2	2.4237447
184	0xbfa37d5a	-1.2772629
185	0xbe84b63a	-0.25920278
186	0xbf2c9d27	-0.67427295
187	0xbf94ac91	-1.1615163
188	0xbf9bfbff	-1.2186278
189	0xbf4b752c	-0.79475665
190	0xbf02f61b	-0.5115678
191	0xbf0bf4fd	-0.546707
192	0x3f168c4e	0.5880784
193	0xbe1efb8f	-0.1552565
194	0xbf3f271d	-0.7466906
195	0x40141f1c	2.3143988
196	0xbf92b1f8	-1.1460562
197	0xbf0d5c3e	-0.55218875
198	0xbd84cf6c	-0.06484875
199	0xbda68f36	-0.08132784
200	0x3e1dc127	0.15405713
201	0xbcfa7ec1	-0.03057802
202	0x3bea38c1	0.007147879
203	0x3db985e3	0.0905874
204	0xbdd50619	-0.10401554
205	0x3c0f4092	0.008743422
206	0xbd861c8d	-0.065484144
207	0x3da7aa4a	0.08186777
208	0x3ddc6ee3	0.107633375
209	0x3da6f375	0.081519045
210	0xbe0328ab	-0.12808482
211	0xbe169467	-0.14705049
212	0x3b8c3987	0.0042793187
213	0x3de858a5	0.113450326
214	0x3d80f2d7	0.06296318
215	0xbd6061d8	-0.05478081
216	0xbe5d918f	-0.21637557
217	0x3d875277	0.06607526
218	0x3cb09c2e	0.021558847
219	0xbd96faa5	-0.073720254
220	0x3c827dd5	0.015929142
221	0xbd04f70c	-0.032462165
222	0x3def475d	0.11683533
223	0x3e00b838	0.12570274
224	0x3c83768b	0.016047737
225	0x3e19efbf	0.15032862
226	0x3e06b1dc	0.13153785
227	0xbde65e70	-0.11248481
228	0xbd40c10d	-0.047059108
229	0xbd45cd47	-0.04829147
230	0x3c98cceb	0.0186524
231	0x3de12e0d	0.109951116
232	0xbd9da5b0	-0.07697618
233	0x3cb8d70b	0.022563478
234	0xbd0e02d1	-0.034670655
235	0x3be87a94	0.0070946906
236	0xbbeca609	-0.0072219414
237	0x3d9bb77c	0.07603356
238	0x3e1b12ec	0.15143937
239	0x3dec3bbf	0.11534833
240	0xbea34a7b	-0.31892762
241	0xbdad47a1	-0.08460928
242	0xbccbda67	-0.024884416
243	0xbd3a4914	-0.04547985
244	0xbe4b4a79	-0.19852628
245	0xbccb2303	-0.024796968
246	0x3d67665f	0.056494113
247	0xbe30a3ec	-0.17250031
248	0x3e1b31a9	0.15155663
249	0xbe5d8749	-0.21633638
250	0xbd353c23	-0.044246804
251	0x3d19934c	0.03749399
252	0xbdcc1312	-0.09964575
253	0x3e20e944	0.15713984
254	0x3ea23dc1	0.3168774
255	0xbe1b5197	-0.15167843

rnn.bias_hh f4 [300]
0	0xbeec4cde	-0.46152395
1	0xbf6fdfb9	-0.9370075
2	0xbf6f83f3	-0.93560714
3	0xbdce310d	-0.100679494
4	0xbf5856f5	-0.84507686
5	0xbf783346	-0.9695324
6	0xbf4437a2	-0.7664739
7	0xbf836ebb	-1.0268167
8	0xbf3bfc84	-0.73432183
9	0xbf62791e	-0.8846606
10	0xbf3ba40b	-0.73297185
11	0xbf562240	-0.8364601
12	0xbe74f61c	-0.23922008
13	0xbf1e267d	-0.6177748
14	0xbfadfe2d	-1.3593193
15	0xbf768a39	-0.9630466
16	0xbed67420	-0.4188547
17	0xbf8ecf64	-1.115704
18	0xbf6503f2	-0.89459145
19	0xbf36bf0f	-0.7138528
20	0xbf8aa307	-1.0831002
21	0xbf182e98	-0.59446096
22	0xbe7dc310	-0.24781442
23	0xbf691748	-0.9105115
24	0xbf56d9aa	-0.8392588
25	0xbfa3a6cf	-1.2785281
26	0xbfc8ef51	-1.5698034
27	0xbeb2feba	-0.34959966
28	0xbf3efdee	-0.74606216
29	0xbf078646	-0.5293926
30	0xbf34f6ef	-0.7068929
31	0x3d31d722	0.043418057
32	0xbec40d2f	-0.38291308
33	0xbf81123d	-1.0083691
34	0xbf2d83af	-0.6777906
35	0xbf79ee70	-0.9762945
36	0xbec3292d	-0.38117352
37	0xbf856bee	-1.0423563
38	0xbf6e07a8	-0.9298043
39	0xbf2a3d0a	-0.6649939
40	0xbea294d2	-0.31754166
41	0x3d04f127	0.032456543
42	0xbe206db7	-0.15666853
43	0xbf30ceae	-0.6906537
44	0xbeec5a7b	-0.4616278
45	0xbf2be9ec	-0.6715381
46	0xbf7a0f5a	-0.97679675
47	0xbf896af0	-1.073576
48	0xbf9696e8	-1.1764803
49	0xbe89384b	-0.2680076
50	0xbe9c80b3	-0.3056694
51	0xbf859011	-1.043459
52	0xbedc99b4	-0.43086016
53	0xbe3a212a	-0.18176714
54	0xbfa1384b	-1.2595304
55	0xbf236f5c	-0.63841796
56	0xbf44503f	-0.76684946
57	0xbeda26ab	-0.42607626
58	0xbeeaceb9	-0.45860842
59	0xbf9b00a2	-1.2109568
60	0xbfa35d8c	-1.2762923
61	0xbf428226	-0.7597984
62	0xbf851777	-1.0397786
63	0xbf986b61	-1.190777
64	0xbe3b64ed	-0.18300219
65	0xbfde8c93	-1.738665
66	0xbf4c3560	-0.79768944
67	0xbe14828e	-0.14502928
68	0xbef82691	-0.48466924
69	0xbef7fc3e	-0.48434633
70	0xbf703b85	-0.9384082
71	0xbf6f2ba1	-0.9342595
72	0xbeebd9da	-0.46064645
73	0xbf5bc2bf	-0.85844034
74	0xbef8ce2c	-0.48594797
75	0xbfa2faa0	-1.2732735
76	0xbf5f988a	-0.8734213
77	0xbf1730e1	-0.5905896
78	0xbf74d6a2	-0.95640004
79	0xbf5d6b85	-0.86492187
80	0xbe6b00f1	-0.22949578
81	0xbf528bfa	-0.8224484
82	0xbf11fd7e	-0.57027423
83	0xbfa6adfa	-1.3021843
84	0xbf8b1d87	-1.0868386
85	0xbfa835b8	-1.3141394
86	0xbf6b625e	-0.9194697
87	0xbe8a4733	-0.27007446
88	0xbf401829	-0.75036865
89	0xbf69de5f	-0.91354936
90	0xbf6c183d	-0.92224485
91	0xbfbda243	-1.4815143
92	0x3f7b3639	0.9812961
93	0xbf4ca809	-0.799439
94	0xbf7abef1	-0.97947603
95	0xbf556fb1	-0.8337355
96	0xbf48ba9d	-0.7840975
97	0xbeb8ee7f	-0.36119458
98	0xbe2e22bf	-0.17005442
99	0xbf3a5347	-0.7278332
100	0xbeca84c5	-0.3955442
101	0xbe2ebc09	-0.17063917
102	0xbf9b682d	-1.2141167
103	0xbf9541f0	-1.1660748
104	0xbf76159c	-0.96126723
105	0xbf081ea4	-0.53171754
106	0xbf21ac30	-0.6315336
107	0xbf4419de	-0.7660197
108	0xbeb2b83c	-0.34906185
109	0xbf434948	-0.76283693
110	0xbf69620b	-0.91165227
111	0xbf475aa4	-0.7787268
112	0xbe40fa19	-0.18845405
113	0xbf508eaf	-0.8146772
114	0xbf55c3ad	-0.835017
115	0xbebd8c42	-0.3702107
116	0xbedd98bb	-0.43280587
117	0xbf203c8c	-0.6259239
118	0xbfc31d70	-1.5243359
119	0xbfa926c6	-1.3214958
120	0xbf3f0f2f	-0.74632543
121	0xbecc3e9c	-0.39891517
122	0xbfa0b1f8	-1.2554312
123	0xbf91fd19	-1.1405364
124	0xbf8e07b2	-1.1096098
125	0xbf5bb942	-0.85829556
126	0xbe4541ad	-0.19263335
127	0xbf5b09f2	-0.8556205
128	0xbf04eeae	-0.51926696
129	0xbfc8336e	-1.5640695
130	0xbf620eaf	-0.88303655
131	0xbf86add9	-1.0521804
132	0xbf78b3c7	-0.9714932
133	0xbf30a826	-0.69006574
134	0xbf219ef3	-0.6313316
135	0xbeeebed7	-0.46629974
136	0xbe75cb79	-0.240034
137	0xbdb25ece	-0.08709489
138	0xbfa98f3c	-1.3246837
139	0xbf49f899	-0.78894955
140	0xbf0bc931	-0.5460387
141	0x3e6ab87f	0.22921942
142	0xbdf3dfc5	-0.11907915
143	0xbf57c8b5	-0.8429063
144	0xbf4ff1f9	-0.81228596
145	0xbdf1eb14	-0.11812416
146	0xbefffa15	-0.49995485
147	0xbef159e9	-0.47138909
148	0xbed91303	-0.42397317
149	0xbefd12be	-0.49428362
150	0xbf31677f	-0.6929855
151	0xbf59ba12	-0.85049546
152	0xbe445898	-0.19174421
153	0xbf6eb81a	-0.93249667
154	0xbfe4bdeb	-1.7870458
155	0xbf39abd2	-0.725278
156	0xbf797269	-0.974402
157	0xbf7f732d	-0.9978512
158	0xbf2a7de4	-0.66598344
159	0xbf7bb691	-0.9832545
160	0xbf571ee8	-0.84031534
161	0xbee5c492	-0.44876534
162	0xbf2fbe31	-0.68649584
163	0xbf2985d9	-0.6621986
164	0xbf230eb1	-0.6369429
165	0x3f2d2761	0.6763821
166	0xbfa09883	-1.2546543
167	0xbf7164ef	-0.9429464
168	0xbf9f6253	-1.2451881
169	0xbe995862	-0.29950243
170	0xbf21df83	-0.63231677
171	0xbfa91520	-1.3209572
172	0xbf2e7de6	-0.68160856
173	0xbf0d08a0	-0.55091286
174	0xbf7a960e	-0.97885215
175	0xbfa1fbe8	-1.2655001
176	0xbf25cc8a	-0.64765227
177	0xbd0757df	-0.033042785
178	0xbe8fb0d3	-0.28064594
179	0xbf3a79ec	-0.7284229
180	0xbf55f8da	-0.8358284
181	0xbf9a4ff6	-1.2055652
182	0xbec3ce92	-0.38243538
183	0x401de91a	2.4673524
184	0xbf9e8b11	-1.238619
185	0xbe98f246	-0.2987234
186	0xbf2fc6c0	-0.68662643
187	0xbfa0b1e6	-1.255429
188	0xbfa865b2	-1.3156035
189	0xbf2d4a09	-0.67691094
190	0xbed977c0	-0.42474174
191	0xbf06a530	-0.52595806
192	0x3f11f2ad	0.5701092
193	0xbe092c8f	-0.13395904
194	0xbf48767f	-0.7830581
195	0x4015f1b5	2.3428776
196	0xbf956b53	-1.1673378
197	0xbeea3fe7	-0.4575188
198	0xbe2a3cf3	-0.16624813
199	0xbd518526	-0.05115237
200	0x3e537644	0.20650584
201	0x3e45453d	0.19264694
202	0xbe9b6a26	-0.30354422
203	0x3f4471cb	0.76736134
204	0xbd23c320	-0.039981008
205	0xbde263c1	-0.11054183
206	0xbda5b628	-0.08091384
207	0x3f49689b	0.7867524
208	0xbe494057	-0.1965345
209	0xbe805ba1	-0.25069907
210	0xbf4b6bd5	-0.79461414
211	0xbf487340	-0.7830086
212	0x3e497ed8	0.19677293
213	0x3f3a92a8	0.7288003
214	0x3f6bbc3a	0.92084086
215	0x3ea37626	0.31926078
216	0x3f0a8d46	0.54121816
217	0x3f32687c	0.6969068
218	0xbf46aaef	-0.77604574
219	0xbf93c7e1	-1.1545373
220	0x3ec26831	0.37970117
221	0xbec954f7	-0.39322636
222	0x3f72dff1	0.9487296
223	0x3e50de15	0.20397218
224	0xbe648b3b	-0.22318737
225	0x3d945b25	0.07243947
226	0x3e01582d	0.12631293
227	0xbf1e6dd1	-0.61886317
228	0x3ed43c83	0.41452417
229	0x3f3cb6bf	0.7371635
230	0xbe97d0db	-0.29651532
231	0xbee298ea	-0.4425729
232	0xbdc8c8b5	-0.09803907
233	0x3eef7248	0.46766877
234	0xbefef37e	-0.49795145
235	0x3cb870c8	0.022514716
236	0x3f62a8a2	0.88538563
237	0xbe5693c8	-0.20954812
238	0x3bbe60ac	0.005809864
239	0x3f5c1ccd	0.85981447
240	0xbf92078f	-1.1408557
241	0xbf1734e0	-0.59065056
242	0xbf396ddb	-0.7243325
243	0xbf455698	-0.77085257
244	0xbfc7bdbe	-1.560478
245	0xbee40fcd	-0.44543305
246	0x3f2935fb	0.6609799
247	0xbf7862a7	-0.9702553
248	0xbe26c8af	-0.16287492
249	0xbf74fc85	-0.95697814
250	0xbec3f327	-0.38271448
251	0x3e814838	0.2525041
252	0xbe23baa8	-0.15989172
253	0x3f6ff749	0.937367
254	0x3df0ee33	0.11764183
255	0xbf98f59e	-1.1949956

rnn2.weight_ih f4 [300, 100]
0	0x40089088	2.1338215
1	0x3f20b377	0.6277384
2	0x3d2c1680	0.042013645
3	0x3d106f1d	0.035262216
4	0x3e5d5f92	0.21618488
5	0x3f9e1a36	1.2351749
6	0x3e80867d	0.25102606
7	0x3f1b7888	0.6073079
8	0x3f82ea3c	1.0227733
9	0xbef38d79	-0.47568873
10	0xbe109bc2	-0.14121917
11	0xbeeda2e6	-0.46413344
12	0x3cfd05ce	0.030886557
13	0x3e8c2a2c	0.27375925
14	0xbea34b38	-0.31893325
15	0x3f80507e	1.0024564
16	0x3f43b19b	0.7644288
17	0xbd818f3d	-0.06326149
18	0xbd80b1e8	-0.06283933
19	0xbdaab946	-0.08336119
20	0x3eefa728	0.46807218
21	0x3e5f27e2	0.21792558
22	0xbf7693b8	-0.9631915
23	0x3f356eb4	0.70872045
24	0xbef6d285	-0.4820749
25	0xbf74f0ce	-0.9567994
26	0xbf01838a	-0.5059134
27	0x3f684719	0.90733486
28	0x3edc9856	0.43084973
29	0x3e839d00	0.2570572
30	0x3e8aaa60	0.2708311
31	0xbcb0fcf8	-0.021605
32	0xbefa7279	-0.4891546
33	0xbf369a6f	-0.71329397
34	0x3f2f8f16	0.68577707
35	0x3f091293	0.53543967
36	0xbe538300	-0.20655441
37	0x3f3c212b	0.7348811
38	0x3f0667f9	0.525024
39	0x3f3ac393	0.7295467
40	0xbef979b4	-0.48725665
41	0x3f188e6d	0.59592324
42	0xbe965256	-0.29359692
43	0xbe26243a	-0.16224757
44	0xbf0437df	-0.5164775
45	0xbed6242d	-0.41824475
46	0x3f0293dd	0.5100687
47	0x3fdaf959	1.7107345
48	0x3f565c43	0.8373453
49	0x3f291630	0.6604948
50	0xbfb344fe	-1.400543
51	0xbf0b24c2	-0.5435296
52	0x3f9cca87	1.2249306
53	0xbe7a4537	-0.24440466
54	0x3ec8e917	0.39240333
55	0x3f281f5b	0.65672845
56	0xbf8783ff	-1.0587157
57	0x3d8ff101	0.0702839
58	0xbe9fd873	-0.31219825
59	0xbf25a470	-0.64704037
60	0x3eeb2ab5	0.4593102
61	0x3c2eb414	0.010663051
62	0xbf8a51df	-1.0806235
63	0xbe5bc203	-0.21460728
64	0xbf170897	-0.5899748
65	0xbe4ab866	-0.19796905
66	0xbe80fa70	-0.2519107
67	0xbf15d74e	-0.58531654
68	0xbe832dfe	-0.25621027
69	0x3d4adc34	0.04952641
70	0x3f6d80c5	0.9277461
71	0x3f96d7ae	1.178457
72	0x3db46605	0.08808521
73	0xbed37c60	-0.41305828
74	0xbef521d7	-0.4787738
75	0x3f315780	0.6927414
76	0xbf9d61c3	-1.229546
77	0x3ea518c9	0.32245472
78	0xbf8cf811	-1.1013204
79	0xbf896030	-1.0732479
80	0x3ed2df5c	0.41186035
81	0xbdd0ea0d	-0.10200892
82	0x3fc3f227	1.5308274
83	0xbef97d42	-0.48728377
84	0x3e234bb3	0.15946846
85	0xbf309fc3	-0.6899378
86	0xbeb1a279	-0.3469427
87	0x3eef30c0	0.4671688
88	0x3eef399b	0.46723637
89	0xbf5f8450	-0.8731127
90	0x3fd5fb5c	1.6717334
91	0xbf02878a	-0.50988066
92	0xbeae2db7	-0.34019253
93	0x3f474314	0.7783673
94	0xbf2de033	-0.67920226
95	0xbeeedc93	-0.4665266
96	0x3e2e3778	0.17013347
97	0xbf61ac9e	-0.8815402
98	0xbe74cd5e	-0.23906466
99	0x3f07ad88	0.5299916
100	0x3e231ed8	0.15929735
101	0xbdc490f5	-0.09597961
102	0xbefc89d2	-0.493239
103	0x3f2427ef	0.64123434
104	0x400dcb91	2.2155497
105	0x3f2137dc	0.6297586
106	0xbf87a753	-1.0597938
107	0x3f484c0b	0.7824103
108	0x3eceeea3	0.4041644
109	0x3f202316	0.62553537
110	0x3ff6ed14	1.92911
111	0x3c8ba002	0.017044071
112	0xbea0b28c	-0.3138622
113	0xbffa050a	-1.9532788
114	0xbf4ba0b5	-0.79542094
115	0x3ead855f	0.33890817
116	0xbe131b06	-0.14365777
117	0xbf25b309	-0.6472631
118	0xbf6a314a	-0.9148146
119	0x3eca74e6	0.3954231
120	0x3fd27d0a	1.6444409
121	0x3f37d77f	0.71813196
122	0x3f79ca2d	0.9757412
123	0xbf86497d	-1.0491177
124	0xbe7e7386	-0.24848756
125	0x3ed53b54	0.41646826
126	0xbf35d837	-0.7103304
127	0x3e980b33	0.29696044
128	0x3f81acea	1.0130894
129	0x3f58e483	0.8472368
130	0x3d38b5b8	0.045095176
131	0x3f9d2fcf	1.2280215
132	0xbeb5c1a0	-0.35499287
133	0x3f7560ff	0.9585113
134	0xbf6e582d	-0.93103296
135	0xbfb83ae8	-1.4392977
136	0x3d39d923	0.045373093
137	0xbe7ee58a	-0.2489225
138	0xbe8326c9	-0.25615528
139	0xbee34c34	-0.44394076
140	0xbe917e18	-0.28416514
141	0x3f8972ae	1.0738122
142	0x3f606d8a	0.87667143
143	0xbeea8a93	-0.4580885
144	0x3f844d8a	1.0336163
145	0xbf5c3d50	-0.86031055
146	0x3e07ccf3	0.13261776
147	0xbf1b5977	-0.6068339
148	0x3ead4ab0	0.33846045
149	0xbefadf8c	-0.48998678
150	0x3f6e28f0	0.93031216
151	0xbf88a73f	-1.067604
152	0x3ede2c1d	0.4339303
153	0xbb2bb8c6	-0.0026202663
154	0xbf1d74c0	-0.6150627
155	0x3f89e693	1.0773491
156	0x3fa4dad5	1.2879282
157	0x3cb4fedc	0.022094183
158	0x3e8504bd	0.25980178
159	0xbfa72062	-1.3056757
160	0x3ec5dc6f	0.3864474
161	0xbf61a276	-0.8813852
162	0xbe624e1a	-0.22100106
163	0x3f6a11b6	0.91433275
164	0xbeddf6d4	-0.43352377
165	0xbd062834	-0.032753184
166	0x3f58e436	0.8472322
167	0x3e220629	0.15822662
168	0x3f100f49	0.56273323
169	0xbe33bb22	-0.17551854
170	0xbf0fba88	-0.56144
171	0x3faf3f8e	1.369127
172	0xbd2ffd99	-0.04296646
173	0xbd060bbb	-0.03272603
174	0x3ee03c87	0.4379618
175	0xbef72ff5	-0.48278776
176	0xbfdf664c	-1.7453094
177	0x3f296afa	0.6617886
178	0xbf275010	-0.6535654
179	0xbee42448	-0.4455893
180	0xbf03af00	-0.51438904
181	0xbf7d831f	-0.990282
182	0x3db43090	0.08798325
183	0x3c55d8ad	0.013052148
184	0xbfbc8b37	-1.4729985
185	0xbde9451d	-0.113901354
186	0xbf9dfe64	-1.2343259
187	0xbf197933	-0.5995056
188	0x3f1f8ad0	0.62321186
189	0xbfa1913c	-1.2622447
190	0x3f14d046	0.581303
191	0x3e597246	0.21234998
192	0xbe9de34c	-0.30837476
193	0xbf8fcc29	-1.123418
194	0x3ea7ad03	0.32749185
195	0xbda93a29	-0.08263046
196	0xbe4c084e	-0.19925043
197	0xbf82db9f	-1.0223273
198	0xbf67f614	-0.9060986
199	0x3fb88e2d	1.4418389
200	0xbea557c3	-0.3229352
201	0xbf2e33a2	-0.68047535
202	0xbf27ffb0	-0.65624523
203	0xbddb629a	-0.10712166
204	0xbe0d88c0	-0.13821697
205	0xbed7b893	-0.42133006
206	0x3eec9fc9	0.46215656
207	0xbf297688	-0.6619649
208	0x3eb4e7bf	0.35333058
209	0x3f2b74da	0.66975176
210	0xbe84af35	-0.25914922
211	0xbeffbecb	-0.4995025
212	0xbd84e4ac	-0.06488928
213	0x3ecfd0e1	0.4058905
214	0xbebc7584	-0.36808407
215	0x3def6f96	0.11691205
216	0xbe53f31c	-0.20698208
217	0xbe9015ca	-0.28141624
218	0x3dbf5ffc	0.093444794
219	0x3e83fc00	0.25778198
220	0x3de0ea82	0.10982229
221	0xbf0da5c5	-0.5533107
222	0x3ef86a21	0.4851847
223	0x3e60e688	0.2196294
224	0xbed02205	-0.40650955
225	0x3f526155	0.82179767
226	0xbe62de94	-0.2215522
227	0x3dda31d3	0.106540345
228	0xbe0342b6	-0.12818417
229	0x3d44a79d	0.04801141
230	0x3e3c0503	0.18361287
231	0x3e27af3c	0.1637544
232	0xbe9e77e3	-0.3095084
233	0xbe7d3c8e	-0.24730131
234	0xbe5b1bf2	-0.21397379
235	0xbcef8082	-0.029236082
236	0xbe48cc14	-0.196091
237	0xbe21f5db	-0.15816443
238	0xbe28e6df	-0.1649432
239	0xbe7d9016	-0.24761996
240	0x3e13d1a6	0.14435443
241	0xbea1ab23	-0.3157588
242	0xbd57edbe	-0.052716963
243	0x3eb721f1	0.35768083
244	0xbe78e804	-0.24307257
245	0x3daf78ba	0.08567949
246	0xbeeff13f	-0.46863744
247	0xbef9a1af	-0.48756167
248	0xbe6dca28	-0.23221648
249	0xbeac87b3	-0.3369728
250	0x3ef079c3	0.46967897
251	0xbe80890c	-0.25104558
252	0x3f354e4b	0.7082259
253	0x3ecdb6ca	0.4017852
254	0x3f1033d7	0.563291
255	0x3e985136	0.2974946

rnn2.weight_hh f4 [300, 100]
0	0xbe8ee39c	-0.27908027
1	0x3f620d6b	0.88301724
2	0xbcb08ad9	-0.021550583
3	0x3da0f417	0.078590564
4	0xbfac0716	-1.3439662
5	0x3f27fb95	0.6561826
6	0x3f0b4177	0.54396766
7	0x3ebbf866	0.3671295
8	0xbd814416	-0.063118145
9	0x3e4a3421	0.19746448
10	0xbe4df6d2	-0.20113686
11	0x3fdbcbee	1.7171609
12	0x3e5e842c	0.21730107
13	0xbea6ace3	-0.32553777
14	0xbf3fe506	-0.7495884
15	0x3d2630be	0.040573828
16	0xbea9e663	-0.33183584
17	0xbf0da531	-0.5533019
18	0xbc9956fe	-0.018718239
19	0x3f0b06b2	0.5430709
20	0x3ed85168	0.42249608
21	0xbf0fc31e	-0.561571
22	0x3e1d5eb8	0.15368164
23	0x3dac7b2e	0.08421932
24	0x3e613698	0.21993482
25	0xbe823ce5	-0.25437084
26	0x3d5f3311	0.05449206
27	0x3ed4e1d0	0.4157853
28	0x3d7d01de	0.06176936
29	0x3e8c9911	0.2746053
30	0x3dbea51f	0.09308838
31	0xbe3407dc	-0.17581123
32	0x3dc43f73	0.095824145
33	0xbfc87e98	-1.5663633
34	0xbf223328	-0.6335931
35	0x3d4315f1	0.047628347
36	0x3f40d1eb	0.7532031
37	0x3eea467f	0.4575691
38	0xbe84b837	-0.25921795
39	0xbf673337	-0.9031252
40	0x3f2b0cdd	0.668165
41	0x3f01414b	0.50490254
42	0xbf9c2284	-1.2198033
43	0x3ec7295c	0.38898742
44	0xbec8a42d	-0.39187756
45	0x3f1d4424	0.614321
46	0x3f826e8f	1.018999
47	0x3ec3468d	0.38139763
48	0xbcd89d92	-0.026442323
49	0x3fa942c1	1.3223497
50	0xbf962efb	-1.1733087
51	0xbc7cbe3a	-0.015426213
52	0x3f07c69a	0.53037417
53	0xbefbf7b7	-0.4921243
54	0xbe1a5cf6	-0.15074524
55	0x3f00c2ae	0.5029706
56	0xbe254efe	-0.16143414
57	0x3e18a466	0.14906463
58	0x3fb47417	1.4097928
59	0x3f2d2be0	0.6764507
60	0xbefd9348	-0.4952643
61	0x3e690975	0.22757514
62	0xbea1f2c7	-0.31630537
63	0xbd844afb	-0.06459614
64	0x3db8d296	0.09024541
65	0xbf17d57a	-0.59310114
66	0xbee94430	-0.45559835
67	0xbe84d429	-0.25943115
68	0xbf120747	-0.57042354
69	0x3e923361	0.28554824
70	0xbf425c1e	-0.7592181
71	0x3e8c6148	0.2741797
72	0xbf58c8f0	-0.84681606
73	0x3f1a2c51	0.6022387
74	0xbf26398d	-0.64931566
75	0xbfb78c59	-1.4339706
76	0x3f14621a	0.5796219
77	0x3f0bd57b	0.5462262
78	0x3f3881fe	0.7207335
79	0xbefa4755	-0.48882547
80	0x3ec61c2e	0.38693374
81	0x3e0336a8	0.12813818
82	0xbe92614f	-0.28589866
83	0xbf37ede5	-0.71847373
84	0xbedf45e3	-0.43608007
85	0xbf423a40	-0.7587013
86	0x3e461329	0.19343247
87	0x3dd52018	0.10406512
88	0xbe2f5558	-0.171224
89	0x3f7f2db7	0.9967913
90	0xbefef3ae	-0.49795288
91	0xbed76855	-0.42071787
92	0x3e2d931a	0.16950646
93	0xbea72580	-0.32645798
94	0xbfa0246d	-1.2511116
95	0x3f557958	0.8338828
96	0x3ed06577	0.40702412
97	0xbec7e256	-0.39039868
98	0x3ec90cff	0.39267728
99	0x3f0ce3c4	0.5503504
100	0xbe4941e3	-0.1965404
101	0xbf3e83de	-0.74419963
102	0xbd3bcd04	-0.045849815
103	0xc00f3c9f	-2.238075
104	0xbf37b89b	-0.7176606
105	0xbfa230e7	-1.2671174
106	0x3cb6cb89	0.02231385
107	0x3e65d910	0.22446084
108	0x3fdeaab5	1.7395846
109	0x3ec2f78f	0.38079497
110	0xbda0f96e	-0.07860075
111	0xbf62e242	-0.8862649
112	0xbf701c43	-0.93793124
113	0x3f7156ec	0.9427326
114	0x3e3873be	0.18012902
115	0xbeba5a0f	-0.36396834
116	0xbc986831	-0.01860437
117	0xbe4517d4	-0.19247371
118	0xbfbceac9	-1.4759151
119	0xbe8d1d73	-0.2756153
120	0xbf675f37	-0.9037966
121	0x3f013bcb	0.5048186
122	0x3eb1addd	0.3470296
123	0xbee9d79c	-0.4567231
124	0x3ef3e4ea	0.47635585
125	0x3ec93913	0.39301357
126	0x3e3a3b0c	0.18186587
127	0x3e698f48	0.22808564
128	0xbe90be78	-0.28270316
129	0xbe6e35e9	-0.23262753
130	0xbe6870d9	-0.22699298
131	0xbee039d6	-0.43794125
132	0x3ee00a6a	0.43757945
133	0x3ecef863	0.4042388
134	0xbe4c8574	-0.19972783
135	0x3ed47d74	0.41501963
136	0xbfb10283	-1.3828892
137	0x3f2f40d2	0.6845828
138	0x3edd76de	0.4325475
139	0xbf19f59a	-0.60140383
140	0x3f1423cd	0.5786713
141	0x3e3bb4a2	0.18330625
142	0xbdfaf67e	-0.12254046
143	0xbf4dc44a	-0.8037764
144	0xbef6dbec	-0.48214662
145	0xbe6e763d	-0.23287292
146	0x3e9620d4	0.2932192
147	0xbf33eb98	-0.7028136
148	0xbd22fd8d	-0.039792586
149	0xbe99697d	-0.29963294
150	0x3ef5a628	0.4797833
151	0xbf0986c5	-0.53721267
152	0xbe41b9ff	-0.18918608
153	0xbf048aaa	-0.51774085
154	0xbf41897d	-0.75600415
155	0xbf1c6e9b	-0.6110627
156	0x3f7da4b6	0.99079454
157	0x3f6eb3d5	0.9324315
158	0xbfeb5086	-1.8383949
159	0x3e9f0b78	0.31063437
160	0xbed5697f	-0.4168205
161	0x3e25bcd2	0.1618531
162	0xbd8163da	-0.06317873
163	0x3f43c17f	0.76467127
164	0x3ebfc5ad	0.37455502
165	0x3f555365	0.83330375
166	0xbeec9591	-0.4620786
167	0x3ec7d0c7	0.39026472
168	0x3e803a90	0.2504468
169	0xbe960b52	-0.29305512
170	0x3ef48238	0.477556
171	0xbe1d018a	-0.15332618
172	0x3f98b9ba	1.1931679
173	0xbedf5425	-0.43618885
174	0x3f0448ea	0.5167376
175	0x3ec24124	0.37940323
176	0xbeadd384	-0.33950436
177	0xbe53636c	-0.20643395
178	0xbeb29031	-0.34875634
179	0xbdbf33e2	-0.09336068
180	0xbe209ae0	-0.1568408
181	0x3bc11669	0.005892564
182	0x3ed27334	0.41103518
183	0xbe755dde	-0.23961589
184	0xbf102250	-0.56302357
185	0x3d2d93eb	0.042377394
186	0xbef541aa	-0.4790166
187	0xbcd9e1e1	-0.026596965
188	0xbe36987d	-0.17831607
189	0xbded5f93	-0.11590495
190	0x3e1ae7b6	0.15127453
191	0xbf129c73	-0.5726997
192	0xbdb5f2c2	-0.08884193
193	0x3fb7a46f	1.4347056
194	0x3f5d04f5	0.8633569
195	0xbe661bef	-0.22471593
196	0x3e183cae	0.14866897
197	0xbd4f1d6a	-0.05056516
198	0xbf36c0aa	-0.7138773
199	0x3ebd0ed9	0.3692539
200	0x3da16150	0.07879889
201	0xbf1e67a4	-0.61876893
202	0x3e6b39f7	0.2297133
203	0xbe950660	-0.29106426
204	0x3e5ef280	0.21772194
205	0x3e6978b3	0.2279995
206	0xbed8e6b9	-0.42363527
207	0xbddecc31	-0.1087879
208	0x3dbc0697	0.091809444
209	0x3d8c2799	0.0684349
210	0x3f13bdb4	0.5771134
211	0xbeea82e1	-0.45802978
212	0x3d7b90fa	0.061417557
213	0xbe937b9b	-0.2880524
214	0x3ee85f67	0.45385286
215	0x3de7b2be	0.11313389
216	0xbe112e7b	-0.14177887
217	0x3dc37e4c	0.095455736
218	0xbd643fce	-0.05572491
219	0x3efe3ef8	0.49657416
220	0xbea2ebc5	-0.31820503
221	0xbc56a00e	-0.013099683
222	0xbd1cbe44	-0.03826739
223	0x3e1ee0fa	0.15515509
224	0x3f049b84	0.517998
225	0x3e956f5d	0.29186526
226	0xbd63349f	-0.055470105
227	0x3d18c00d	0.03729253
228	0x3d28757b	0.041127663
229	0xbf0cf855	-0.55066425
230	0xbd95b27c	-0.07309434
231	0x3db2b72d	0.08726344
232	0xbe0c8fb7	-0.13726698
233	0xbd7cc17e	-0.061707966
234	0xbe83fe4f	-0.2577996
235	0x3d14ea1b	0.036356073
236	0xbebaac86	-0.3645975
237	0xbe131e03	-0.14366917
238	0x3f2cecd2	0.6754886
239	0xbdfcd0d7	-0.123445205
240	0xbe894f98	-0.26818538
241	0x3e2278cf	0.15866397
242	0xbce78521	-0.028261723
243	0xbd319395	-0.043353636
244	0x3e3cbcee	0.18431446
245	0xbd89ecbf	-0.06734609
246	0xbf3c78cf	-0.7362184
247	0xbc85f27f	-0.016350983
248	0x3ecefaa6	0.40425605
249	0xbe6ab2b4	-0.22919732
250	0xbf01b3d1	-0.50665003
251	0x3eca76f5	0.39543882
252	0x3e9e106a	0.30871898
253	0xbe8fc227	-0.28077814
254	0xbec03f1c	-0.3754815
255	0xbebadc32	-0.3649612

rnn2.bias_ih f4 [300]
0	0xbd460a57	-0.048349705
1	0xbe1eba51	-0.15500762
2	0x3e21746c	0.15767068
3	0xbebdf904	-0.37104046
4	0xbf9085d2	-1.1290839
5	0x3e4477a9	0.19186272
6	0x3eb51eac	0.35374963
7	0xbe90a279	-0.28248957
8	0xbf22ab1f	-0.6354236
9	0xbe487a18	-0.19577825
10	0xbdc7c4b7	-0.09754317
11	0xbf619b5e	-0.88127697
12	0xbf5773e0	-0.84161186
13	0xbe54569b	-0.20736162
14	0xba1b1256	-0.0005915513
15	0x3e92f2ea	0.28700954
16	0xbf51ee90	-0.8200464
17	0x3cfa7580	0.030573606
18	0xbf23a018	-0.6391616
19	0xbe47c5eb	-0.19509093
20	0xbf3f03f0	-0.74615383
21	0xbe0c143d	-0.13679595
22	0xbe4efcb0	-0.2021358
23	0x3ee933cb	0.45547327
24	0xbf1a24f7	-0.60212654
25	0xbc769c3b	-0.015051897
26	0xbebc6fa0	-0.36803913
27	0xbeb94ab1	-0.36189798
28	0xbe270f55	-0.16314442
29	0xbf849920	-1.035923
30	0xbf5f1509	-0.8714147
31	0x3dc5c5ac	0.096568435
32	0xbeea8944	-0.4580785
33	0xbd3b74c8	-0.04576567
34	0x3ed6ff31	0.4199157
35	0xbe41de98	-0.18932569
36	0xbf2a9ce9	-0.66645676
37	0xbea997ee	-0.33123726
38	0xbe794ec3	-0.24346451
39	0xbf00abc4	-0.50262094
40	0x3e247a2c	0.1606223
41	0xbf5bcdea	-0.85861075
42	0xbea487f9	-0.3213499
43	0xbefffea7	-0.49998972
44	0xbe61dd70	-0.22057128
45	0xbe12ba2d	-0.14328833
46	0xbf0826a4	-0.5318396
47	0xbbb69842	-0.0055723498
48	0x3ea4919d	0.32142344
49	0x3d82100d	0.06350718
50	0xbf05b938	-0.52235746
51	0xbf3ff250	-0.74979115
52	0xbeaacc4e	-0.33358997
53	0xbf1a2838	-0.6021762
54	0xbd1a7206	-0.037706397
55	0xbebd89cb	-0.3701919
56	0xbd82f361	-0.06394077
57	0xbece67a5	-0.4031345
58	0xbf772dfa	-0.9655453
59	0xbec0a05f	-0.37622353
60	0xbeae4072	-0.34033543
61	0x3e809559	0.25113943
62	0xbf8a26b0	-1.0793056
63	0xbf3d6082	-0.73975384
64	0xbe17bf77	-0.14819132
65	0x3dea7ff1	0.11450184
66	0xbe760c39	-0.240281
67	0xbeaacb12	-0.33358055
68	0xbf8306ea	-1.0236485
69	0xbd2e1b12	-0.042506285
70	0xbf625dae	-0.88424194
71	0x3f6e2d42	0.9303781
72	0xbf7bdf7a	-0.98387873
73	0x3eecb61b	0.46232685
74	0xbf0a04fa	-0.53913844
75	0xbefb84b9	-0.49124697
76	0xbeff7db0	-0.4990058
77	0x3e00e20a	0.12586227
78	0xbe866bb5	-0.2625405
79	0xbe889458	-0.26675677
80	0xbe0604da	-0.13087788
81	0x3ee4dcc3	0.44699678
82	0x3e099308	0.13434994
83	0xbe93013f	-0.28711888
84	0xbe3e6846	-0.18594465
85	0xbf1eaf78	-0.61986494
86	0x3b4d2250	0.003130097
87	0xbe75c336	-0.24000248
88	0xbf63b0d4	-0.88941693
89	0x3ebb1951	0.36542752
90	0xbe81209c	-0.2522019
91	0xbee7b575	-0.45255628
92	0xbe88b023	-0.26696882
93	0xbe88ba2f	-0.26704547
94	0xbf01689d	-0.5055025
95	0x3f4d0480	0.8008499
96	0xbf224e36	-0.6340059
97	0x3e1429ce	0.14469072
98	0xbe412067	-0.18860017
99	0x3d7076e0	0.058707118
100	0xbf09d1db	-0.5383584
101	0x3eb89156	0.36048383
102	0x3fe269d9	1.7688552
103	0xbe89da07	-0.26924154
104	0x3eebfee2	0.46092898
105	0xbf2d8c00	-0.6779175
106	0x3fc7a7fd	1.5598141
107	0xbf0f49d4	-0.5597203
108	0xbd8d89c0	-0.06911039
109	0xbec32580	-0.38114548
110	0xbfa69a3f	-1.3015822
111	0xbf2f1b74	-0.68401265
112	0xbe5c0fca	-0.21490398
113	0xbf893e59	-1.0722152
114	0xbf68a1e6	-0.9087204
115	0xbf5abf66	-0.854483
116	0x3fb029e8	1.3762789
117	0xbeab8a8f	-0.3350415
118	0xbe540276	-0.20704064
119	0xbf44754d	-0.76741487
120	0xbf57edbf	-0.84347147
121	0x3fef563a	1.8698189
122	0x3fcd74b2	1.6051238
123	0xbf2bfd4d	-0.6718338
124	0x3e7395e3	0.23787646
125	0x3fd2a0b3	1.6455292
126	0x3fe12fb5	1.7592684
127	0xbf4326ce	-0.76231086
128	0x3feb8b81	1.8401948
129	0xbe0068c5	-0.12539966
130	0xbf028cea	-0.5099627
131	0x3fa0bdff	1.2557982
132	0xbf35a3dc	-0.70953155
133	0xbf34bcde	-0.7060069
134	0xbf20a99b	-0.627588
135	0x3fdd4354	1.7286172
136	0xbf160de2	-0.58614933
137	0x3fde8267	1.7383546
138	0xbe859ab4	-0.26094592
139	0xbf76ffeb	-0.9648425
140	0x3fe9008d	1.8203293
141	0x3fb70e95	1.4301325
142	0xbf2a3770	-0.6649084
143	0x3fbabdb4	1.4589143
144	0x3fe78dff	1.8090209
145	0xbdac2ca6	-0.084069535
146	0xbeeb5d6a	-0.45969707
147	0x3fb577b7	1.4177159
148	0xbf4ba4ce	-0.79548347
149	0xbf75c583	-0.96004504
150	0xbf8f1ef2	-1.1181319
151	0x3fd254e2	1.6432154
152	0x3fb8a491	1.4425222
153	0x3f42ae2f	0.76047033
154	0xbebf512f	-0.37366626
155	0xbe8ef3f0	-0.27920485
156	0x3ea4b8f1	0.3217235
157	0xbf44bea1	-0.76853377
158	0x3dc92c38	0.09822887
159	0x3dbad8e6	0.09123401
160	0xbf3bddaa	-0.7338511
161	0xbf77a0ff	-0.96730036
162	0xbf37d44e	-0.71808326
163	0x3e21cd22	0.15800908
164	0xbf228d7b	-0.6349713
165	0xbeefcabe	-0.46834368
166	0xbe638de3	-0.22222094
167	0x3fd8bb91	1.6932241
168	0x3de6c975	0.11268894
169	0x3fea3530	1.8297482
170	0x3fbde983	1.4836887
171	0x3ef841df	0.48487756
172	0xbf1f22e6	-0.62162626
173	0xbd9033e0	-0.07041144
174	0xbf864a33	-1.0491394
175	0xbf56d60e	-0.8392037
176	0xbf056476	-0.52106416
177	0xbf974948	-1.1819239
178	0xbf8bee11	-1.0932027
179	0xbec4800a	-0.38378936
180	0x3e2c8c95	0.16850503
181	0xbf127e78	-0.57224226
182	0xbe93d3b3	-0.2887245
183	0x3fd17daf	1.636648
184	0xbf27dcc9	-0.65571266
185	0xbea4238f	-0.3205838
186	0xbe060b9a	-0.13090363
187	0x3fe9d8a2	1.8269236
188	0xbf27e441	-0.6558266
189	0xbecb9c7c	-0.39767826
190	0x3f02eedd	0.51145726
191	0x3fe64880	1.7990875
192	0x3fbc987b	1.4734033
193	0xbee0c385	-0.4389917
194	0xbe452307	-0.19251643
195	0x3fcb0909	1.5862132
196	0xbec7f30c	-0.39052618
197	0x3fc68944	1.551064
198	0xbf83c4f8	-1.0294485
199	0xbf080228	-0.5312829
200	0x3f0e21e8	0.55520487
201	0x3e621e22	0.22081807
202	0x3e88a02f	0.2668471
203	0xbe74a247	-0.23890029
204	0xbe9ab0d4	-0.30213034
205	0x3f3e77b9	0.7440143
206	0xbf2e22d0	-0.6802187
207	0xbe756e31	-0.23967816
208	0xbecdef8b	-0.4022182
209	0xbf3c5d43	-0.73579806
210	0x3f0438a7	0.51648945
211	0x3f0d3a32	0.55166924
212	0x3d5aec50	0.05344802
213	0xbe2474ad	-0.16060133
214	0xbe22ce56	-0.15899023
215	0x3f6d7bae	0.92766845
216	0xbe7e9931	-0.24863125
217	0xbf6120fb	-0.8794095
218	0x3e138f63	0.14410166
219	0x3f3020a4	0.68799806
220	0xbe1bada2	-0.15202954
221	0xbe64413e	-0.22290513
222	0xbda4d6c3	-0.08048775
223	0x3f7b7182	0.98220074
224	0xbf275540	-0.65364456
225	0xbb368925	-0.002785274
226	0xbe0f9025	-0.1401983
227	0xbe939a8d	-0.2882885
228	0xbd9e6707	-0.07734495
229	0xbe2a4bd5	-0.1663049
230	0x3e319bd1	0.17344595
231	0xbecebb6e	-0.40377373
232	0x3f136c0d	0.5758675
233	0xbf40ba73	-0.752845
234	0x3e17667e	0.14785191
235	0x3e0bc4a2	0.13649228
236	0x3df8f801	0.12156678
237	0x3eac5ba4	0.33663666
238	0xbf3cb0b2	-0.73707116
239	0xbf4ec126	-0.8076347
240	0x3eba966b	0.36442885
241	0x3e87d809	0.2653201
242	0xbc81318a	-0.015770692
243	0xbe946d09	-0.28989437
244	0xbda3a79c	-0.07990953
245	0x3f0ab093	0.5417568
246	0xbf4456f2	-0.7669517
247	0x3e3c95c5	0.18416508
248	0x3f8bf687	1.0934609
249	0x3f262d2f	0.64912695
250	0xbf3c547f	-0.7356643
251	0x3d96d4e8	0.073648274
252	0xbc7e6819	-0.0155277485
253	0xbebe63a4	-0.37185395
254	0x3f5832d3	0.8445255
255	0xbed3571e	-0.41277403
