Results/Complete Sherlock Holmes/RNN/ASGD/2/200/model.pt (torch, 647039 bytes, 10 tensors)

rnn.weight_ih f4 [200, 100]
-0.1909923 0.11997277 0.117163144 0.35626453 -0.19053808 -0.43569404 0.2943494 0.41777772
-0.045447946 0.20506516 0.11061046 -0.14338826 0.5336254 -0.2556173 -0.16328417 -0.2896429
-0.38341314 -0.2512444 0.36296782 -0.16250075 -0.16661656 0.17517388 -0.16564031 0.30816898
-0.6820604 -0.3706977 -0.5210296 0.008775811 0.5484814 0.27227986 0.028324451 1.4019046
0.24526688 0.2831791 0.20446941 0.29146177 -0.07986569 0.64342463 0.038312837 -0.24065752
-0.040052257 -0.23725304 0.30480424 0.51376224 0.22499956 0.5393695 0.27198184 0.23527065
-0.10141585 -0.29912218 -0.15585996 0.15552641 0.4823998 0.02796688 0.563741 0.7179797
0.1376531 0.46052054 0.81177604 -0.0149584515 0.059872597 0.108894184 -1.1012212 -0.6400668
-0.016348824 -0.02972839 -0.022230398 0.125977 -0.6593283 0.10643929 -0.27457634 -0.028944932
0.02724778 -0.46570656 -0.10997088 -0.36440554 0.0074316934 -0.4461222 -0.5733499 0.055458196
-0.014960751 0.033877447 -0.22038485 -0.047532678 0.38025093 0.046967857 0.080311924 -0.056913555
-0.040527865 -0.217449 -0.033407077 0.03385768 0.04407721 -0.028057639 -0.7889995 -0.018489875
-1.3283131 -0.010886084 -0.039064854 -0.047937803 0.100519076 -0.12167848 0.052649163 -0.046279393
-0.09175642 -0.09598846 -0.19694135 -0.077083796 0.108858764 -0.2643385 -0.21694416 -0.51779884
0.055859353 -0.46592027 -0.089012876 0.3746331 -0.07647874 -0.08645164 -0.11378743 -0.45975202
0.44931263 0.13214505 0.1000293 0.61546654 -0.2782302 0.6293289 0.05695244 0.053160656
-0.18891406 -0.009098601 -0.12778413 0.17915028 1.0166528 0.46182013 -0.6958555 -0.10022626
0.0047767744 -0.3570633 0.62888193 0.16451088 -0.44273272 0.122228965 0.4879688 0.3803517
-0.253688 0.16129057 -0.19954182 0.8845729 -0.61867124 0.3595132 -0.3975584 0.96942914
-0.12106463 -0.12360076 0.5095642 0.44028148 -0.6836498 0.20995966 -0.28524944 0.0052432693
0.17517526 0.1099455 0.4538711 0.55624396 -0.032452695 -0.070375435 -0.025344409 0.02005737
-0.27121824 -0.032530136 0.2413397 -0.04728707 -0.014475774 -0.762826 0.7175693 0.19984083
0.050110765 0.112276115 -0.113726534 0.016827337 0.0023630783 0.05700908 -0.09341175 -0.06766691
0.06400577 -0.020659983 0.09019756 -0.0019098446 0.017776504 -0.22066788 0.008526467 -0.057256587
0.03836108 0.009066477 -0.12676801 -0.008799747 -0.33568308 -0.016383931 0.0496222 -0.024376068
-0.069155626 -0.15357566 0.22063619 0.18728894 0.018658735 -0.20912662 -0.04412843 0.053965166
-0.080322966 0.11543159 -0.7301621 -0.13181362 1.65679 -0.8620569 -0.8492567 -0.19074033
0.16511077 0.5696377 0.9313478 0.51264 -0.07718662 -0.08664408 -0.30238298 -0.9815933
0.41253126 -0.07320825 0.5925317 -0.31262454 -0.13128848 0.70204717 -0.117478736 0.3135192
0.42350322 -0.15090574 -0.74085003 -0.33476958 -0.03698725 0.12605159 0.8454147 -0.23093413
-0.12198056 1.0477407 0.33276063 0.90973306 -0.2530051 0.16152564 -0.42264152 0.7784775
0.6926181 0.41148126 -0.4883474 0.8532558 0.43428138 -0.24805787 1.053491 0.4963679
00000000: 7c93 43be 49b4 f53d 3bf3 ef3d 4e68 b63e
00000010: 6a1c 43be 4a13 dfbe f7b4 963e f6e6 d53e
00000020: a027 3abd 9afc 513e bd87 e23d 5fd4 12be
00000030: ad9b 083f 45e0 82be f733 27be 134c 94be
00000040: ba4e c4be 1ba3 80be ebd6 b93e 9966 26be
00000050: 889d 2abe c860 333e 9d9d 29be 53c8 9d3e
00000060: 839b 2ebf 17cc bdbe 3262 05bf 6bc8 0f3c
00000070: 4769 0c3f 4468 8b3e ae08 e83c 9c71 b33f
00000080: 3e27 7b3e dafc 903e 6e60 513e 7a3a 953e
00000090: 9f90 a3bd 7ab7 243f eced 1c3d ed6e 76be
000000a0: d60d 24bd 76f2 72be 4d0f 9c3e ec85 033f
000000b0: 4966 663e 1f14 0a3f 3441 8b3e caea 703e
000000c0: 1db3 cfbd 8b26 99be c199 1fbe 5142 1f3e
000000d0: 1bfd f63e cc1a e53c 5551 103f 85cd 373f
000000e0: eff4 0c3e 59c9 eb3e 8ed0 4f3f 4b14 75bc
000000f0: f83c 753d ea03 df3d d1f4 8cbf 6bdb 23bf
00000100: f8ed 85bc f488 f3bc 861c b6bc 1d00 013e
00000110: bdc9 28bf d8fc d93d 4595 8cbe ec1d edbc
00000120: bc36 df3c 1771 eebe 6a38 e1bd 5d93 babe
00000130: 9085 f33b 216a e4be 0fc7 12bf 2228 633d
00000140: f01d 75bc 14c3 0a3d 91ac 61be a0b1 42bd
00000150: 40b0 c23e 5e61 403d 947a a43d 301e 69bd
00000160: 8c00 26bd f3aa 5ebe dcd5 08bd 5aae 0a3d
00000170: 4e8a 343d 22d9 e5bc dffb 49bf 1478 97bc
00000180: 2a06 aabf 8c5b 32bc 7802 20bd 6e5a 44bd
00000190: f2dc cd3d 9132 f9bd a6a6 573d 768f 3dbd
000001a0: caea bbbd 9995 c4bd feaa 49be 1cde 9dbd
000001b0: 58f1 de3d 6057 87be 9c26 5ebe 778e 04bf
000001c0: c7cc 643d 1a8d eebe 624c b6bd e9cf bf3e
000001d0: e3a0 9cbd 8f0d b1bd 6209 e9bd 9e64 ebbe
000001e0: 4e0c e63e 0851 073e 29dc cc3d 378f 1d3f
000001f0: 3074 8ebe b31b 213f f646 693d fdbe 593d
00000200: b072 41be 4c12 15bc d8d9 02be 2c73 373e
00000210: ae21 823f b073 ec3e 9623 32bf 6d43 cdbd
00000220: 7d86 9c3b 00d1 b6be 68fe 203f 8a75 283e
00000230: ddad e2be 2e53 fa3d 0cd7 f93e 75bd c23e
00000240: 65e3 81be 5b29 253e b154 4cbe 5f73 623f
00000250: 3d61 1ebf 1d12 b83e c68c cbbe 822c 783f
00000260: bcf0 f7bd 6522 fdbd cd72 023f 936c e13e
00000270: ac03 2fbf aaff 563e 370c 92be bbcf ab3b
00000280: 2561 333e 1b2b e13d cb61 e83e 0166 0e3f
00000290: 1eed 04bd ff20 90bd 149f cfbc 5b4f a43c
000002a0: 1edd 8abe 523e 05bd c121 773e 16b0 41bd
000002b0: cc2b 6dbc 9148 43bf 9fb2 373f 13a3 4c3e
000002c0: f240 4d3d 05f1 e53d 75e9 e8bd 7cd9 893c
000002d0: e0dd 1a3b 5a82 693d a94e bfbd f394 8abd
000002e0: 7515 833d 203f a9bc 80b9 b83d c053 faba
000002f0: 08a0 913c c3f6 61be 98b2 0b3c e285 6abd
00000300: 8220 1d3d 908b 143c 79cf 01be d02c 10bc
00000310: a7de abbe 9837 86bc a640 4b3d 52b0 c7bc
00000320: 77a1 8dbd f042 1dbe 74ee 613e acc8 3f3e
00000330: 34da 983c 4a25 56be 03c0 34bd 940a 5d3d
00000340: 5e80 a4bd 6667 ec3d e7eb 3abf 26fa 06be
00000350: b211 d43f c3af 5cbf e368 59bf 6f51 43be
00000360: cc12 293e c7d3 113f cf6c 6e3f 603c 033f
00000370: 0514 9ebd 7472 b1bd f1d1 9abe b349 7bbf
00000380: 4c37 d33e 35ee 95bd 28b0 173f 5310 a0be
00000390: 7d70 06be 5db9 333f b198 f0bd 9785 a03e
000003a0: 6ad5 d83e 0987 1abe 59a8 3dbf eb66 abbe
000003b0: f17f 17bd ab13 013e 196d 583f ff79 6cbe
000003c0: f2d0 f9bd 5e1c 863f 9a5f aa3e 44e4 683f
000003d0: e289 81be fa66 253e 7864 d8be 4d4a 473f
000003e0: 6b4f 313f acad d23e ac08 fabe f96e 5a3f
000003f0: 215a de3e e202 7ebe cbd8 863f ef23 fe3e

rnn.weight_hh f4 [200, 200]
-0.80488163 0.08535958 0.4686157 -0.31883678 0.43968475 -0.1636414 0.14299841 0.033899043
0.11743841 -0.063946955 -0.13888398 -0.10394287 0.039398585 -0.14899623 0.40015435 0.48949474
-0.2802904 -0.18219464 -0.4272992 -0.0038509052 -0.35531226 -0.03407894 0.1490431 -0.46570337
-0.08424857 -0.084460884 0.20320112 -0.09303335 0.17087097 -0.09848999 -0.11519874 -0.3258256
-0.23921813 0.38045326 0.044270176 -0.09090252 -0.40789896 0.18721402 -0.17293608 -0.16855234
0.06359049 0.07819992 -0.30879965 0.23984033 -0.38042215 -0.48431557 0.385856 0.22912358
0.0408026 0.5447796 -0.3924561 -0.2639934 -0.06180263 0.59938806 0.17738523 0.24166292
-0.07248207 -0.4773736 -0.061591197 -0.3117154 0.6798144 -0.22321428 0.274682 -0.006446906
0.630337 -0.35710993 -0.11882674 0.43335176 -0.05900047 -0.47753367 -0.038075227 0.13745627
-0.4785973 -0.40152013 0.24925148 0.39342958 -0.0047208117 0.28174296 0.24665621 0.28396887
0.10432252 -0.14262974 0.08871929 0.051055588 0.15745266 -0.15121791 -0.021949653 -0.0826248
-0.7497402 -0.91235816 -0.07132011 -0.13351083 -0.2791929 0.14029582 -0.29402608 -0.7060247
0.7885369 -0.15600017 0.5968438 0.031325314 0.70302767 -0.69408625 0.44642067 -0.15260538
0.16091631 0.471064 0.22829373 -0.085959874 0.11524114 -0.15568747 -0.13227591 -0.64466685
-0.5174738 -0.74044317 -0.3074286 0.1546861 0.48724973 -0.21059741 0.09643946 -0.19809853
0.15895838 -0.2862447 -0.06760032 -0.02030748 0.095281936 -0.11130949 -0.3062123 0.71490365
0.14530514 0.29100102 -0.09314398 0.03374408 -0.16914678 0.42022327 -0.00063234713 -0.46334893
0.07741276 0.22561467 -0.16276792 0.37444636 -0.21357995 -0.08784975 -0.12320366 -0.067109294
-0.11214228 0.45398825 0.4280318 -0.1317476 -0.027539138 -0.77810377 0.15119395 -0.16868605
-0.17064452 -0.05694505 -0.36922702 0.20029248 0.48593864 0.17010576 -0.0584771 0.05898627
-0.7586427 -0.09510526 0.5025994 -0.23233756 0.32755387 0.26186943 -0.2237762 -0.23303758
0.49901578 -0.70650697 0.1417512 -0.24054779 0.07172696 -0.15112594 0.289135 0.11791759
0.17656206 0.1210892 -0.5812211 0.1516995 -0.38627842 -0.41346097 -0.13264607 0.074278794
0.53410053 0.19860666 -0.11225521 -0.05605667 0.15418303 -0.15612711 0.18316987 0.40511855
-0.66904366 -0.16271892 -0.055728663 0.3192644 -0.31323412 -0.36620986 -0.4678276 -0.011661584
-0.20967576 0.35395342 0.40008837 -0.18033332 0.018570041 -0.75548893 0.43443272 0.1140086
0.18123507 -0.2763121 0.04520179 -0.48426944 -0.28891763 -0.13445757 0.22547762 0.32987145
-0.08442784 -0.22955564 -0.15621567 0.46204728 -0.21990389 -0.12871966 0.202853 -0.15339562
0.6987305 -0.36684793 0.12632816 0.23408018 0.44041586 -0.08104877 -0.034611534 -0.7397522
0.26818585 0.93402565 -0.30817172 -0.30759308 -0.21825369 0.032067537 -0.43141037 0.22587472
0.33248293 0.2191886 -0.47616157 -0.15702009 -0.7438119 0.02463746 0.26112655 0.2843498
-0.5950247 0.16799098 -0.8413386 -0.034317154 0.100589834 0.46253896 0.029576482 -0.05930611
00000000: b90c 4ebf 01d1 ae3d 66ee ef3e 933e a3be
00000010: 5c1e e13e 9c91 27be 2d6e 123e b9d9 0a3d
00000020: 8d83 f03d 9ff6 82bd 9a37 0ebe 00e0 d4bd
00000030: 6960 213d 7892 18be 08e1 cc3e 0e9f fa3e
00000040: 3982 8fbe 3b91 3abe f6c6 dabe 785f 7cbb
00000050: 7deb b5be 5c96 0bbd c19e 183e ac70 eebe
00000060: 848a acbd d4f9 acbd f413 503e 4588 bebd
00000070: cdf8 2e3e 1fb5 c9bd 51ed ebbd 9dd2 a6be
00000080: 99f5 74be c5ca c23e a554 353d 1a2b babd
00000090: 22d8 d0be 08b5 3f3e 2816 31be fc98 2cbe
000000a0: bb3b 823d 4827 a03d fd1a 9ebe b498 753e
000000b0: b1c6 c2be 36f8 f7be eb8e c53e 5f9f 6a3e
000000c0: a120 273d ad76 0b3f 02f0 c8be 252a 87be
000000d0: c124 7dbd 7f71 193f 79a4 353e 7c76 773e
000000e0: 7b71 94bd 506a f4be 0d47 7cbd 2999 9fbe
000000f0: 5108 2e3f 4992 64be 1ea3 8c3e 9140 d3bb
00000100: c45d 213f 1dd7 b6be 6f5b f3bd 48e0 dd3e
00000110: 7aaa 71bd 4b7f f4be c5f4 1bbd 56c1 0c3e
00000120: b50a f5be 0c94 cdbe c83b 7f3e 9a6f c93e
00000130: 0ab1 9abb 9d40 903e 7293 7c3e 5e64 913e
00000140: 0ca7 d53d 880d 12be 76b2 b53d aa1f 513d
00000150: 453b 213e ded8 1abe c2cf b3bc 3137 a9bd
00000160: f9ee 3fbf 4e90 69bf 4710 92bd 10b7 08be
00000170: 5ff2 8ebe b5a9 0f3e 968a 96be 09be 34bf
00000180: 8edd 493f 82be 1fbe c1ca 183f f94e 003d
00000190: 9ff9 333f a3af 31bf 4091 e43e 9644 1cbe
000001a0: 3fc7 243e 4d2f f13e d5c5 693e bb0b b0bd
000001b0: 8c03 ec3d 896c 1fbe 5673 07be e308 25bf
000001c0: 2a79 04bf af8d 3dbf 4867 9dbe 0866 1e3e
000001d0: cc78 f93e d9a6 57be 0d82 c53d 57da 4abe
000001e0: fcc5 223e aa8e 92be 0972 8abd df5b a6bc
000001f0: 2d23 c33d 3bf6 e3bd dcc7 9cbe ed03 373f
00000200: dfca 143e 16fe 943e 45c2 bebd 3c37 0a3d
00000210: d034 2dbe 8127 d73e 19c4 25ba 123c edbe
00000220: 958a 9e3d 8807 673e a2ac 26be 6fb7 bf3e
00000230: b4b4 5abe 92ea b3bd 3352 fcbd 9970 89bd
00000240: daaa e5bd 2671 e83e fc26 db3e d8e8 06be
00000250: c299 e1bc cf31 47bf 96d2 1a3e 09bc 2cbe
00000260: 70bd 2ebe 363f 69bd 530b bdbe 7919 4d3e
00000270: f3cc f83e 3430 2e3e af85 6fbd 969b 713d
00000280: 6836 42bf 8cc6 c2bd 5baa 003f e6e9 6dbe
00000290: 24b5 a73e c013 863e 9725 65be 67a1 6ebe
000002a0: ff7e ff3e a4dd 34bf 3a27 113e 2952 76be
000002b0: 96e5 923d c2c0 1abe 8109 943e c77e f13d
000002c0: afcc 343e 9dfd f73d e8ca 14bf 1d57 1b3e
000002d0: 49c6 c5be 28b1 d3be 5fd4 07be 7b1f 983d
000002e0: d0ba 083f 8b5f 4b3e 0fe6 e5bd ae9b 65bd
000002f0: 28e2 1d3e c9df 1fbe e290 3b3e b36b cf3e
00000300: 7246 2bbf ca9f 26be bd43 64bd a076 a33e
00000310: 3960 a0be dc7f bbbe 1987 efbe 3a10 3fbc
00000320: 3eb5 56be 6239 b53e 62d8 cc3e 4ca9 38be
00000330: 3320 983c b967 41bf f76d de3e 577d e93d
00000340: b095 393e c878 8dbe 8325 393d 2af2 f7be
00000350: 03ed 93be 3faf 09be 9be3 663e e9e4 a83e
00000360: 81e8 acbd a210 6bbe 00f7 1fbe 7691 ec3e
00000370: 7c2e 61be 16cf 03be b2b8 4f3e be13 1dbe
00000380: 01e0 323f 7ed3 bbbe 2b5c 013e b7b2 6f3e
00000390: 307e e13e e6fc a5bd d3c4 0dbd 6660 3dbf
000003a0: a84f 893e 4e1c 6f3f afc8 9dbe d77c 9dbe
000003b0: e57d 5fbe 4059 033d d2e1 dcbe b44b 673e
000003c0: 343b aa3e fa72 603e 73cb f3be e0c9 20be
000003d0: 756a 3ebf 80d4 c93c 61b2 853e 4c96 913e
000003e0: 8a53 18bf d405 2c3e f761 57bf 2590 0cbd
000003f0: 0b02 ce3d e8d1 ec3e 614a f23c f7ea 72bd

rnn.bias_ih f4 [200]
-0.99690074 0.16466805 -0.6581753 0.65275604 0.60461605 0.363051 0.57424766 0.11561318
-0.28342438 -0.052507546 -0.77827877 -0.037205838 0.63296264 -0.497987 0.6108246 -0.43037662
-0.003784654 -0.4504603 0.038584117 0.44683796 -0.17669606 -0.66638774 0.29481745 0.34097686
-0.0057921913 -0.13122079 0.084067136 -0.06377645 0.51580393 0.016535087 0.68641657 -0.21103892
-0.2172183 0.7082857 0.23394458 -0.032094665 -0.26308233 0.36839873 0.7587197 0.41810697
0.08935344 -0.64029783 0.5544483 0.68940806 0.6183102 -0.67057925 0.3762273 -0.24152142
0.12161062 0.848438 0.005307012 0.3115079 0.11874957 0.3265971 -0.96034265 -0.47072875
-0.1413433 -0.22256853 -0.33518222 -0.13248737 0.0026137421 -0.74214166 0.123539515 0.7803462
0.73216176 0.16156095 -0.048942067 1.0474972 0.35620865 0.03587061 -0.41946834 -0.15640804
0.42668802 -0.22077657 0.39135915 -0.15561862 -0.3215836 0.44392094 0.64430463 -0.32397947
-0.14556207 0.06607285 -0.1521967 0.15930589 0.69080126 -0.3751173 -0.646193 -0.18187243
-0.5532166 0.12985627 0.51101655 -0.70670694 0.9386119 -0.8655879 -0.009785476 0.314326
0.051624212 0.18701254 0.7067804 0.36560205 0.23533028 -0.67195165 -0.093515895 -0.22897567
0.47612536 -0.09825599 0.83734393 -0.048165623 0.39112893 -0.07506274 1.0790215 -0.38772833
-0.09912085 -0.43314192 0.41652805 -0.25393435 1.0307713 0.14403592 0.12118334 0.31166735
0.7332683 0.10965587 -0.028610218 -0.31175408 -0.44469452 -0.50076747 -0.15885599 0.435252
0.7300402 -0.36396584 0.6519058 -0.17248681 0.10071849 -0.140192 -0.78248733 -0.485519
-0.10470052 -0.7702842 -0.19193046 -0.7648255 -0.7984428 -0.22653586 -0.4432663 0.23041491
-0.30063906 0.09694 0.18422163 0.20376104 -0.3021073 -0.2087548 0.69809604 -0.087049544
0.08475462 0.7125625 0.12130704 0.15913017 0.82195044 0.08196125 -0.033807743 -0.47452435
-0.7528688 -0.4631682 -0.046807382 -0.5466009 -0.50052774 0.066104636 0.09085255 -0.022330167
-0.8760832 -0.52068174 -0.4490624 -0.21275043 -0.76680106 -0.08887277 0.35485554 -0.72401685
0.02502443 0.28747046 0.26357418 0.0036928896 -0.0921602 0.7550757 -0.30325472 0.9131141
-0.890411 0.11531005 0.37415352 -0.56381166 -0.03771177 -0.15045768 -0.20901331 0.0020893908
-0.6221856 -0.5740422 0.1160567 0.08425322 0.11046621 0.13180313 -1.0710427 0.41573372
00000000: e334 7fbf be9e 283e 2d7e 28bf 051b 273f
00000010: 1ec8 1a3f d2e1 b93e e501 133f 9ac6 ec3d
00000020: 001d 91be 2712 57bd 473d 47bf 2665 18bd
00000030: d709 223f 27f8 febe 005f 1c3f 535a dcbe
00000040: f507 78bb bca2 e6be 610a 1e3d f2c7 e43e
00000050: d0ef 34be 6398 2abf 50f2 963e 8594 ae3e
00000060: 6ccc bdbb be5e 06be 642b ac3d 3a9d 82bd
00000070: ba0b 043f 9774 873c ffb8 2f3f 961a 58be
00000080: 796e 5ebe 3652 353f 2b8f 6f3e b275 03bd
00000090: bab2 86be c29e bc3e 743b 423f 1e12 d63e
000000a0: f0fe b63d 8fea 23bf 53f0 0d3f 0c7d 303f
000000b0: 9449 1e3f 15ab 2bbf dda0 c03e 6451 77be
000000c0: fd0e f93d 3c33 593f 71e6 ad3b f77d 9f3e
000000d0: f932 f33d bc37 a73e 04d9 75bf 5c03 f1be
000000e0: 4cbc 10be 01e9 63be 019d abbe c5aa 07be
000000f0: 514b 2b3b fffc 3dbf 4902 fd3d c5c4 473f
00000100: f46e 3b3f 3c70 253e 7a77 48bd 6314 863f
00000110: fb60 b63e 10ed 123d 8ec4 d6be 6e29 20be
00000120: da76 da3e 4113 62be 3a60 c83e 7d5a 1fbe
00000130: 9ba6 a4be 9b49 e33e 26f1 243f a3e0 a5be
00000140: 390e 15be 3451 873d 74d9 1bbe 1521 233e
00000150: 5ad8 303f 600f c0be e86c 25bf c43c 3abe
00000160: 9a9f 0dbf 0bf9 043e fbd1 023f bfea 34bf
00000170: df48 703f 2b97 5dbf 4353 20bc 56ef a03e
00000180: e973 533d 3780 3f3e 8fef 343f 3130 bb3e
00000190: 6cfa 703e 0605 2cbf 4385 bfbd 9978 6abe
000001a0: b4c6 f33e 703a c9bd 2c5c 563f 5149 45bd
000001b0: 0d42 c83e 7eba 99bd 601d 8a3f 5484 c6be
000001c0: dfff cabd c7c4 ddbe 2a43 d53e af03 82be
000001d0: 50f0 833f 277e 133e f92e f83d dd92 9f3e
000001e0: 79b7 3b3f 4293 e03d fa5f eabc 3b9e 9fbe
000001f0: 00af e3be 4c32 00bf 25ab 22be 5ad9 de3e
00000200: eae3 3a3f bb59 babe 4ce3 263f 62a0 30be
00000210: 7f45 ce3d 7e8e 0fbe 1751 48bf f295 f8be
00000220: 3a6d d6bd 5831 45bf 6b89 44be 9bcb 43bf
00000230: bf66 4cbf 04f9 67be cdf3 e2be e3f1 6b3e
00000240: 5ded 99be 7b88 c63d 98a4 3c3e bca6 503e
00000250: cfad 9abe d1c3 55be 6cb6 323f 0847 b2bd
00000260: d593 ad3d 7f6a 363f d36f f83d 05f3 223e
00000270: 586b 523f 4ddb a73d fd79 0abd dbf4 f2be
00000280: 02bc 40bf 6224 edbe 19b9 3fbd 09ee 0bbf
00000290: 9622 00bf de61 873d e710 ba3d c1ed b6bc
000002a0: fd46 60bf 664b 05bf 82eb e5be 40db 59be
000002b0: 134d 44bf ed02 b6bd a0af b53e 2b59 39bf
000002c0: 0900 cd3c 542f 933e 32f3 863e 6804 723b
000002d0: 7dbe bcbd a44c 413f 3444 9bbe d8c1 693f
000002e0: faf1 63bf ad27 ec3d 0d91 bf3e f655 10bf
000002f0: a877 1abd 9411 1abe 9607 56be 29ee 083b
00000300: 8e47 1fbf 6ef4 12bf 23af ed3d f48c ac3d
00000310: 1c3c e23d 66f7 063e ed17 89bf 0ddb d43e

rnn.bias_hh f4 [200]
-0.93406206 0.2044237 -0.6882551 0.69308037 0.6776379 0.47166076 0.5982787 0.11715296
-0.21645398 0.05508844 -0.7085323 -0.07071112 0.61434865 -0.4422239 0.6987448 -0.44187152
-0.020308206 -0.45553386 -0.03786315 0.58182925 -0.17796172 -0.7353308 0.3461502 0.38969022
0.018197153 -0.059855387 0.03834188 -0.11983134 0.5089296 -0.014836312 0.68497825 -0.17122462
-0.23798291 0.7364238 0.14332712 0.010346162 -0.25652447 0.38779432 0.8046259 0.38767433
0.08242089 -0.578853 0.6349386 0.6321211 0.70205534 -0.7388421 0.37345952 -0.18693912
0.119615875 0.877809 0.036466353 0.33364666 0.10239847 0.33286083 -0.88534284 -0.47039476
-0.10684679 -0.20072189 -0.3464418 -0.1702898 -0.07906731 -0.805546 0.16799733 0.8198932
0.78184366 0.25070748 -0.00065177813 0.97456485 0.3011092 0.0782998 -0.50266397 -0.13072811
0.4919129 -0.13609177 0.40346336 -0.17548512 -0.3906382 0.35618433 0.61165875 -0.33516687
-0.15681674 0.13652542 -0.11879788 0.20025484 0.7308318 -0.31550074 -0.67192525 -0.1815668
-0.53796923 0.15909037 0.39556965 -0.76050204 0.8955471 -0.83291495 -0.050325815 0.30145475
0.059609957 0.25940698 0.7453324 0.45883217 0.24694288 -0.70398194 -0.06496712 -0.3602885
0.41429996 -0.041629653 0.91966397 -0.09218058 0.50680995 -0.11145139 1.039069 -0.46981537
-0.14738983 -0.4730025 0.35645542 -0.30851448 1.0576695 0.12154904 0.08953353 0.23622744
0.65218085 0.0990441 -0.02437465 -0.3535678 -0.343442 -0.5790157 -0.08188674 0.529034
0.7051584 -0.34620333 0.6836858 -0.077363655 0.088096164 -0.19218124 -0.7231561 -0.5721311
-0.1680177 -0.7770188 -0.20756225 -0.7368179 -0.743633 -0.21221177 -0.3721392 0.1832408
-0.24879414 0.090551265 0.19050041 0.14848806 -0.2699751 -0.29743657 0.79589576 -0.11442946
0.06971681 0.6821702 0.10516153 0.2902316 0.9546749 -7.611832e-05 0.05521104 -0.5267374
-0.6872952 -0.34707865 0.056652036 -0.66967773 -0.5130082 0.08763403 -0.029569145 -0.008521987
-0.89271986 -0.49819773 -0.40227103 -0.2888092 -0.67135364 -0.12494476 0.30818895 -0.6516797
0.10705373 0.36642447 0.2220765 0.022522595 -0.047414865 0.7330757 -0.3281146 0.9613171
-0.8267856 0.06599283 0.40124092 -0.5512159 0.02111549 -0.112003855 -0.31708288 0.013818515
-0.7250673 -0.6325073 0.1133788 -0.02091783 0.09934848 0.090189494 -1.1348083 0.38705742
00000000: b11e 6fbf 7254 513e 7c31 30bf b76d 313f
00000010: ad79 2d3f 857d f13e cb28 193f e4ed ef3d
00000020: 1da6 5dbe 6ba4 613d 5f62 35bf fed0 90bd
00000030: f445 1d3f 2c6b e2be f0e0 323f fc3c e2be
00000040: 655d a6bc bc3b e9be 6416 1bbd c3f2 143f
00000050: 993b 36be a43e 3cbf 993a b13e 7a85 c73e
00000060: 3212 953c ec2a 75bd 600c 1d3d 226a f5bd
00000070: 3649 023f 0114 73bc bc5a 2f3f 8255 2fbe
00000080: cbb1 73be 4586 3c3f 58c4 123e f382 293c
00000090: 2d57 83be fa8c c63e f7fb 4d3f 407d c63e
000000a0: 49cc a83d b62f 14bf 568b 223f b0d2 213f
000000b0: e6b9 333f c224 3dbf 1636 bf3e f86c 3fbe
000000c0: 2bf9 f43d 17b8 603f be5d 153d bcd3 aa3e
000000d0: 4ab6 d13d bc6c aa3e d4a5 62bf 95d7 f0be
000000e0: 7dd2 dabd 0a8a 4dbe d260 b1be 7360 2ebe
000000f0: 0bee a1bd 4338 4ebf 7e07 2c3e 85e4 513f
00000100: e826 483f bb5c 803e 17dc 2aba 157d 793f
00000110: fc2a 9a3e a55b a03d 96ae 00bf 97dd 05be
00000120: 02dc fb3e a45b 0bbe c092 ce3e 5fb2 33be
00000130: bb01 c8be cb5d b63e ab95 1c3f fe9a abbe
00000140: 9194 20be 52cd 0b3e 4e4c f3bd 9b0f 4d3e
00000150: cb17 3b3f 5089 a1be 4b03 2cbf a6ec 39be
00000160: 5ab8 09bf 96e8 223e 1b88 ca3e 43b0 42bf
00000170: 9342 653f ea39 55bf 7122 4ebd 4758 9a3e
00000180: 9229 743d fed0 843e 1bce 3e3f 0dec ea3e
00000190: 98de 7c3e 2938 34bf 7b0d 85bd bc77 b8be
000001a0: 201f d43e db83 2abd 196f 6b3f 2cc9 bcbd
000001b0: 4cbe 013f a040 e4bd 3700 853f a48b f0be
000001c0: 5ced 16be 622d f2be 5381 b63e 9cf5 9dbe
000001d0: b761 873f b4ee f83d 5b5d b73d 9be5 713e
000001e0: 53f5 263f a2d7 ca3d 59ad c7bc d706 b5be
000001f0: a1d7 afbe 5f3a 14bf 3cb4 a7bd c66e 073f
00000200: 4385 343f 9041 b1be 0806 2f3f d670 9ebd
00000210: c36b b43d 29cb 44be c220 39bf 2f77 12bf
00000220: d50c 2cbe b4ea 46bf 338b 54be 19a0 3cbf
00000230: bb5e 3ebf 0b4e 59be 0789 bebe 7aa3 3b3e
00000240: e4c3 7ebe f172 b93d 8a12 433e 410d 183e
00000250: 2d3a 8abe 9b49 98be d3bf 4b3f fe59 eabd
00000260: b0c7 8e3d b5a2 2e3f ee5e d73d 3c99 943e
00000270: 9365 743f b6a1 9fb8 f924 623d 43d8 06bf
00000280: 94f2 2fbf 4bb4 b1be f70b 683d 0070 2bbf
00000290: 8154 03bf 7879 b33d fe3a f2bc ce9f 0bbc
000002a0: 4a89 64bf c613 ffbe 78f6 cdbe cdde 93be
000002b0: d5dd 2bbf 0ae3 ffbd f1ca 9d3e 7bd4 26bf
000002c0: fc3e db3d fd9b bb3e 0668 633e 4e81 b83c
000002d0: 1736 42bd d9aa 3b3f a3fe a7be e118 763f
000002e0: 39a8 53bf 4027 873d 736f cd3e 7c1c 0dbf
000002f0: 64fa ac3c 4762 e5bd b058 a2be 0e67 623c
00000300: 039e 39bf 00ec 21bf 2533 e83d de5b abbc
00000310: 3777 cb3d 45b5 b83d 6641 91bf 642c c63e

rnn2.weight_ih f4 [200, 200]
0.23796599 0.63312757 -0.8647678 0.08409226 0.022384398 0.7389161 0.51708347 0.3869382
-0.056417968 0.18891509 -1.1651096 -0.00029659644 -0.27466738 -0.48768345 0.45281753 0.83000845
-0.6827052 -0.24949479 -0.41452828 0.47927845 -0.78682816 -0.33374545 0.14425522 -0.77412504
-1.1299219 0.05351252 0.21988629 0.20122765 0.27651498 -0.09705695 0.6511786 -0.38332313
-0.14093456 0.186227 -0.23325077 -0.19420308 -0.19535345 -0.6784541 0.8631695 0.1342631
0.5187484 -0.16477697 0.5996309 0.47843525 0.22800763 -0.2522875 0.837873 0.5685252
0.5453782 -0.21241415 0.19813323 -0.23773523 -0.50799066 0.023010837 -1.1698174 -0.19497947
-0.14891699 -0.28947985 -0.41869655 0.019086147 0.55372936 -0.45655516 -0.24494085 0.59931964
0.11533167 0.66922605 -0.08975377 0.24253722 0.9081431 -0.32463765 -0.7612333 0.11018151
0.22073843 -0.65344805 0.44788072 -0.02091472 -0.4010687 0.12854713 -0.22885418 0.112699226
-0.47794184 0.1505074 0.76383185 0.43421957 0.9206789 0.04493866 -0.52721334 -0.45614058
-0.34431067 0.42067045 0.62968737 0.16157651 0.39928624 -0.5919826 -0.09154359 -0.03953641
0.08328128 0.46602702 0.5325189 1.1453267 0.61089617 0.080407225 -0.69203126 -0.4646415
0.33893436 -0.2807338 0.95575345 -0.237282 0.45578176 -0.25970328 0.79537886 -0.45595905
0.57766473 0.057621967 0.7791901 -0.8456143 0.3854053 0.53245044 -0.1090199 0.93930835
1.4381236 -0.08973005 -0.0047419425 -0.26001444 -0.7547686 -0.7249033 0.23911528 0.7406524
0.6899302 -0.7168813 0.358513 -0.045315344 -0.05049062 -0.6165228 -0.3207214 0.001363941
-0.25794446 -0.47915384 -0.44762057 -0.5003504 -0.16820715 0.2505432 0.07863022 1.2997065
-0.36713445 -0.27828425 0.7849398 -0.016860686 0.71173084 -0.09078648 0.39987957 0.2948324
-0.025371745 0.19262119 -0.19863565 0.047692347 0.13073103 0.38947123 0.07580937 0.68517053
0.26895288 -1.1412106 -0.78627855 -0.71229213 -0.35984096 -0.71474713 0.17636697 0.7023031
-0.0398005 -0.5238537 0.4607819 -0.30131054 -0.015876528 0.12962173 0.8008242 -0.70515025
0.28555477 0.91608304 -0.2431828 0.25619948 -0.30460876 0.90800345 0.106032446 1.3072948
-0.07749107 -0.18696448 0.9258904 -0.70422834 -0.19959986 -0.1564814 0.23727086 0.3086602
-0.34099048 -0.39549392 0.030775446 -0.80971664 -0.16102397 1.0166742 -0.17836364 0.008179712
-0.40435535 0.76796454 -0.2944772 0.81104237 0.78548396 -0.040989306 0.7063685 -0.77325886
-0.16205822 -0.5803013 -0.13268729 -0.5490339 0.52053684 0.115596 0.89007443 -0.8302719
-0.27279916 -0.614995 0.09455204 0.91419137 -0.058879446 -1.1682117 0.09351192 0.26381576
0.3921051 -0.5201227 0.074957415 0.7011407 0.4002031 -0.51316744 -0.3135663 -0.7625472
-0.112042196 0.29858539 -0.44665122 -0.5760187 -0.80090874 0.45903668 0.1858406 0.21390353
0.5604057 -0.9235442 0.7066651 0.38794258 0.05004625 -0.03795902 0.010063794 -0.704768
0.6174323 -0.5814757 -0.6247102 0.61744344 -0.42994913 -0.34724596 -0.2350449 -0.9521696
00000000: 5bad 733e a614 223f 6c61 5dbf 9038 ac3d
00000010: 7c5f b73c 9b29 3d3f 955f 043f c41c c63e
00000020: 8716 67bd f572 413e 5022 95bf 8080 9bb9
00000030: 34a1 8cbe a5b1 f9be b3d7 e73e 6f7b 543f
00000040: c5c5 2ebf 907b 7fbe 0d3d d4be fc63 f53e
00000050: 926d 49bf afe0 aabe a4b7 133e 0f2d 46bf
00000060: 48a1 90bf f22f 5b3d df29 613e 9f0e 4e3e
00000070: 5f93 8d3e cbc5 c6bd a4b3 263f ee42 c4be
00000080: 2651 10be 4ab2 3e3e 4ad9 6ebe 2cdd 46be
00000090: bc0a 48be 2baf 2dbf adf8 5c3f 447c 093e
000000a0: b2cc 043f 4bbb 28be 6981 193f 77f5 f43e
000000b0: d57a 693e d42b 81be d87e 563f de8a 113f
000000c0: e89d 0b3f 1883 59be 70e3 4a3e dd70 73be
000000d0: ad0b 02bf 3981 bc3c 94bc 95bf b3a8 47be
000000e0: b27d 18be b436 94be 655f d6be 8d5a 9c3c
000000f0: 35c1 0d3f 99c1 e9be c6d1 7abe 036d 193f
00000100: 0333 ec3d 6652 2b3f d3d0 b7bd ad5b 783e
00000110: 117c 683f e836 a6be 30e0 42bf d8a6 e13d
00000120: 4109 623e 5f48 27bf 9f50 e53e 5955 abbc
00000130: e058 cdbe dca1 033e c058 6abe dace e63d
00000140: cbb4 f4be 9d1e 1a3e 7c8a 433f 0752 de3e
00000150: 9db1 6b3f 9a11 383d 74f7 06bf 428b e9be
00000160: 7d49 b0be 1e62 d73e 3133 213f 5074 253e
00000170: 3f6f cc3e 2c8c 17bf 357b bbbd eef0 21bd
00000180: 608f aa3d 189b ee3e 2953 083f 119a 923f
00000190: b163 1c3f 8bac a43d f628 31bf 7ee5 edbe
000001a0: ce88 ad3e 57bc 8fbe 42ac 743f 0dfa 72be
000001b0: 3a5c e93e d4f7 84be f39d 4b3f 7773 e9be
000001c0: d6e1 133f 0305 6c3d 0179 473f 2e7a 58bf
000001d0: d853 c53e ac4e 083f d345 dfbd 8376 703f
000001e0: 6f14 b83f 63c4 b7bd 4c62 9bbb 9d20 85be
000001f0: 8438 41bf 4393 39bf a3da 743e 659b 3d3f
00000200: 449f 303f 8885 37bf 048f b73e 959c 39bd
00000210: 41cf 4ebd 70d4 1dbf 9835 a4be 44c6 b23a
00000220: 4c11 84be a753 f5be 862e e5be f716 00bf
00000230: 7f3e 2cbe 3347 803e e108 a13d c85c a63f
00000240: 0cf9 bbbe 467b 8ebe d1f1 483f 6c1f 8abc
00000250: fe33 363f 43ee b9bd 04bd cc3e 46f4 963e
00000260: 68d8 cfbc 7d3e 453e 2567 4bbe 0d59 433d
00000270: 5bde 053e c668 c73e f141 9b3d 5667 2f3f
00000280: 31b4 893e 3013 92bf 8d49 49bf c758 36bf
00000290: 133d b8be abf9 36bf 8b99 343e 23ca 333f
000002a0: d905 23bd 471b 06bf 9beb eb3e 6045 9abe
000002b0: 7e0f 82bc 8fbb 043e d102 4d3f ba84 34bf
000002c0: 3c34 923e 6b84 6a3f e904 79be 942c 833e
000002d0: aef5 9bbe ea72 683f 8a27 d93d 7055 a73f
000002e0: a3b3 9ebd 9e73 3fbe 2707 6d3f 4f48 34bf
000002f0: e863 4cbe a93c 20be 22f7 723e b608 9e3e
00000300: 4e96 aebe 2e7e cabe ca1c fc3c 9749 4fbf
00000310: 78e3 24be 6122 823f f5a4 36be 3304 063c
00000320: aa07 cfbe 5399 443f b7c5 96be 79a0 4f3f
00000330: 7a15 493f 67e4 27bd 91d4 343f 4bf4 45bf
00000340: 97f2 25be a08e 14bf 2ddf 07be 7c8d 0cbf
00000350: e741 053f 98bd ec3d ebdb 633f b38c 54bf
00000360: 55ac 8bbe 5070 1dbf 80a4 c13d 7208 6a3f
00000370: 932b 71bd f687 95bf 2d83 bf3d dc12 873e
00000380: 00c2 c83e c326 05bf 4683 993d f57d 333f
00000390: 6ce7 cc3e f15e 03bf c38b a0be 4b36 43bf
000003a0: 6176 e5bd 2fe0 983e 78af e4be f675 13bf
000003b0: 5b08 4dbf db06 eb3e 004d 3e3e 8709 5b3e
000003c0: bf76 0f3f 656d 6cbf 01e8 343f 69a0 c63e
000003d0: 4cfd 4c3d eb7a 1bbd 9de2 243c ad6b 34bf
000003e0: 0b10 1e3f 97db 14bf 02ed 1fbf c610 1e3f
000003f0: 4b22 dcbe 39ca b1be 9caf 70be 63c1 73bf

rnn2.weight_hh f4 [200, 200]
0.5382246 -0.086573645 -0.28324142 -0.1204126 -0.34271735 0.7121793 -0.25728428 0.15312706
0.13969962 0.2955012 -0.7186261 0.11916356 -0.24288869 -0.24406426 -0.26771954 -0.30438688
-0.6031668 -0.040050883 -0.61134845 -0.24221717 0.104560554 0.23379022 -0.021076746 0.6715099
0.5500312 0.17251594 0.23645234 0.28531542 0.14884755 -0.47652 -0.0842459 -0.011634311
0.03322459 -0.10099792 -0.09055446 0.1602435 0.43442842 0.36149064 -0.24827018 0.13938971
0.6168476 0.25414965 -0.2863157 0.18922335 0.36798912 0.5773464 0.32518062 0.46405283
0.87518924 -0.22043812 -0.5589294 -0.11460548 -0.39899975 -0.019833378 0.5318896 0.21299236
-0.41975382 -0.5280916 -0.536438 0.45016927 -0.328209 -0.059542485 -0.1610758 0.23856254
0.80533236 -0.3286831 -0.24052013 0.18590982 0.37317654 -0.44555962 0.04271968 -0.4437989
-0.8651317 -0.5016873 -0.6029438 0.3555637 0.67775726 0.1760638 -0.29627416 -0.043769397
0.20705537 0.4246982 0.4107937 0.11335877 0.3588573 0.28940997 0.46419433 -0.5324956
0.3264437 -0.3445179 0.37323585 -0.05741484 0.7164256 -0.5090402 -0.55891985 0.33656195
0.4516592 0.3859143 0.3289445 0.44258302 -0.12864958 -0.36559367 -0.22369313 0.17466502
0.5669503 -0.24960902 -0.39638674 -0.13849436 0.30030227 0.019499794 0.11371549 0.23597157
-0.5016938 0.12498709 0.08434264 -0.09474307 0.08088611 -0.45137364 0.5761222 -0.13758719
-0.054684125 0.31312132 -0.3069222 0.08221287 0.22248963 -0.3846901 -0.6897585 -0.32494128
-0.06002265 0.20561677 0.0018170937 -0.07280666 0.5506788 0.21197815 0.18789726 -0.24812256
0.3120068 -0.23298815 -0.9125721 0.10436994 0.24613972 0.5849557 0.013534265 0.37581328
0.06446644 1.2456173 0.10152387 0.029368134 -0.21199928 -0.21301995 -0.10409061 -0.04155272
-0.6024724 -0.11815612 -0.1398902 -0.09133023 -0.5532124 -0.5288886 0.44447663 -0.2249059
0.51289576 -0.07706287 0.3971047 -0.31669846 0.5517809 -0.20692055 -0.4799628 0.09954113
0.52915657 0.585811 0.08094088 0.36823353 -0.5410301 -0.07476692 0.17635535 -0.06420984
-0.33631834 0.3027933 0.7595782 -0.5075807 -0.33527848 -0.09851694 0.1477407 -0.09521523
0.060103744 -0.20629556 -0.5433175 0.19674464 -0.47606203 -0.1695746 0.0279782 0.6919167
0.022555996 -0.09747931 -0.61867744 -0.7381595 0.055094313 0.44586182 -0.9348403 -0.86537987
-0.18185377 -0.029604688 -0.8890812 -0.5897047 -0.5455657 -0.62636817 -0.10375457 -1.3215663
0.01883335 -0.3820855 -0.17176338 1.0216702 -0.29707593 0.2521224 0.686387 0.6795653
0.9788658 0.91968906 0.49653855 -0.04200747 0.7724816 0.24137892 -0.7161387 -0.56055015
-0.6756616 -0.63501316 1.5663105 -0.5313703 0.52069247 0.77843314 1.0682831 -0.018346395
-0.23264928 0.32744536 -0.2620266 0.6150317 -0.34447664 -0.6690664 -0.6264379 -0.3981701
-0.35855427 0.46101043 0.22191817 -1.0899525 -0.33076334 -0.1198448 -0.21070132 -0.38215646
-0.46257555 0.28375006 0.41095722 -0.70620894 0.36364725 0.42713964 -0.4491348 -0.3081478
00000000: 16c9 093f 864d b1bd 0505 91be e29a f6bd
00000010: a678 afbe 6251 363f c4ba 83be 57cd 1c3e
00000020: 6b0d 0f3e ef4b 973e e1f7 37bf 060c f43d
00000030: d0b7 78be fbeb 79be 8912 89be 99d8 9bbe
00000040: 2469 1abf 650c 24bd 5581 1cbf c707 78be
00000050: d823 d63d b466 6f3e 24a9 acbc 13e8 2b3f
00000060: d8ce 0c3f 05a8 303e 9020 723e dd14 923e
00000070: 7e6b 183e 6efa f3be 1d89 acbd d69d 3ebc
00000080: 8216 083d ffd7 cebd 9e74 b9bd df16 243e
00000090: 676d de3e 4d15 b93e 8a3a 7ebe 2dbc 0e3e
000000a0: b9e9 1d3f e71f 823e f997 92be c4c3 413e
000000b0: 1269 bc3e f9cc 133f 137e a63e 5598 ed3e
000000c0: 670c 603f 88ba 61be ff15 0fbf 47b6 eabd
000000d0: b249 ccbe 9c79 a2bc eb29 083f ab1a 5a3e
000000e0: f9e9 d6be 0331 07bf 0054 09bf 967c e63e
000000f0: 030b a8be d2e2 73bd 0ef1 24be bd49 743e
00000100: 432a 4e3f 2749 a8be e94a 76be 255f 3e3e
00000110: ff10 bf3e 6420 e4be d5fa 2e3d 9c39 e3be
00000120: 4579 5dbf 946e 00bf 865a 1abf 720c b63e
00000130: 8081 2d3f 124a 343e 3fb1 97be 8a47 33bd
00000140: 5306 543e 0b72 d93e 8d53 d23e a528 e83d
00000150: 25bc b73e 8b2d 943e e1aa ed3e a251 08bf
00000160: a123 a73e a664 b0be c518 bf3e d32b 6bbd
00000170: ab67 373f 7550 02bf 5f15 0fbf d951 ac3e
00000180: e03f e73e 8f96 c53e 6a6b a83e 3e9a e23e
00000190: b7bc 03be 182f bbbe d00f 65be 63db 323e
000001a0: a823 113f 8299 7fbe 34f3 cabe 77d1 0dbe
000001b0: 38c1 993e 08be 9f3c abe3 e83d 88a2 713e
000001c0: 016f 00bf 3bf9 ff3d d6bb ac3d a808 c2bd
000001d0: 9ea7 a53d 721a e7be bf7c 133f a8e3 0cbe
000001e0: 76fc 5fbd 7051 a03e e824 9dbe 395f a83d
000001f0: 52d4 633e 1af6 c4be 0394 30bf b45e a6be
00000200: 4fda 75bd 348d 523e 8c2b ee3a a81b 95bd
00000210: 49f9 0c3f cd10 593e 2468 403e d713 7ebe
00000220: 5bbf 9f3e 7294 6ebe 539e 69bf e8bf d53d
00000230: 0d0c 7c3e a8bf 153f d2be 5d3c 996a c03e
00000240: fb06 843d 6370 9f3f bfeb cf3d 7195 f03c
00000250: 5716 59be e721 5abe 752d d5bd 2f33 2abd
00000260: a23b 1abf d6fb f1bd 603f 0fbe 580b bbbd
00000270: 549f 0dbf 3e65 07bf 7192 e33e bb4d 66be
00000280: 234d 033f 23d3 9dbd 4f51 cb3e 4d26 a2be
00000290: 8341 0d3f fbe2 53be afbd f5be 38dc cb3d
000002a0: ce76 073f b6f7 153f 55c4 a53d 1b89 bc3e
000002b0: f380 0abf 661f 99bd 7f96 343e 7380 83bd
000002c0: eb31 acbe b907 9b3e b873 423f cff0 01bf
000002d0: 9fa9 abbe 40c3 c9bd 5749 173e 3400 c3bd
000002e0: 582f 763d 253f 53be db16 0bbf 6d77 493e
000002f0: 67be f3be f7a4 2dbe 8a32 e53c 7421 313f
00000300: 5ac7 b83c 3ca3 c7bd a561 1ebf 05f8 3cbf
00000310: 93aa 613d 0048 e43e b251 6fbf 8989 5dbf
00000320: e037 3abe 8885 f2bc d39a 63bf e3f6 16bf
00000330: 32aa 0bbf aa59 20bf 477d d4bd 1629 a9bf
00000340: 6648 9a3c b6a0 c3be bde2 2fbe 17c6 823f
00000350: 561a 98be 3016 813e 0fb7 2f3f fef7 2d3f
00000360: f396 7a3f be70 6b3f 4d3a fe3e 0610 2cbd
00000370: 5bc1 453f 092c 773e de54 37bf 3780 0fbf
00000380: 29f8 2cbf 3990 22bf dd7c c83f e207 08bf
00000390: 1a4c 053f 6547 473f 80bd 883f 2e4b 96bc
000003a0: 9d3b 6ebe eba6 a73e 5a28 86be b872 1d3f
000003b0: 3e5f b0be f047 2bbf 3c5e 20bf f4dc cbbe
000003c0: 6d94 b7be 8f09 ec3e 843e 633e 9083 8bbf
000003d0: d059 a9be 3171 f5bd 16c2 57be 03aa c3be
000003e0: b4d6 ecbe b047 913e fc68 d23e 1cca 34bf
000003f0: f92f ba3e 0cb2 da3e fff4 e5be 8cc5 9dbe

rnn2.bias_ih f4 [200]
0.32444414 0.07294491 0.6225123 0.15365705 0.6747948 1.1602818 1.0403893 0.31394202
0.0286223 0.68403506 0.6607848 -0.33865005 0.4753858 0.17783336 -0.99795854 -0.11598148
-1.0423561 -0.57510984 0.4987476 0.66297424 -0.7167719 0.3045883 0.2809403 -0.3090568
0.2532439 0.3480949 -1.282766 -0.0857199 0.7750647 -0.17477769 -0.87635535 0.113779776
0.3182958 -1.0031631 0.33922845 -0.18155162 -0.41398802 0.60794604 0.549762 0.6162024
-0.020216381 0.43252298 -0.37246132 0.8097849 -0.121436 0.12476971 0.95880926 -0.36437023
-0.30995017 -0.38885623 -0.96757406 0.6828679 -0.17904806 -0.9113598 -0.37771517 0.15010901
0.99862564 0.072993614 -0.12899171 0.6794653 0.19295491 0.51452297 -0.104356825 -0.18375432
1.713851 -0.7112227 -0.12465291 0.508003 -0.21194525 -0.017344903 -0.45636874 0.3171901
-0.8486479 0.46251634 0.08307555 -0.3365034 1.4409398 -0.32176775 0.32588032 -0.013497339
-0.0046076765 -0.86093795 -0.3542525 0.5057335 -0.69995517 0.436124 0.5009038 -0.18531182
-0.34343177 -0.3774022 -1.1324569 -0.48950413 1.1272334 0.044279147 0.27917144 -0.9072053
-0.110186405 -0.04176825 -0.099252954 -0.06329389 -1.1464578 -0.2694801 -0.11370169 0.19613917
-0.08608485 0.28202534 -0.13602619 -0.10138944 0.4688735 0.266422 -1.144259 0.59230167
1.0193224 -0.117025465 0.7271785 -0.026643816 -0.21855627 -1.212815 0.15428539 0.61295927
0.11595549 -1.1938587 -0.63655823 -1.1890886 1.2848295 -0.6689096 -1.0463392 1.0077825
0.7220968 0.16990796 1.3299472 -1.0735979 -0.28047535 0.4636968 0.28660992 -0.92290443
0.40909237 -0.84793484 -0.7151363 -0.63558704 -0.24787907 -0.029555624 -0.946459 -0.25979686
0.90078354 1.0521182 0.8675595 0.046698883 -1.1308657 0.94288856 0.10792386 -0.025770254
-0.73132527 -0.08391029 -0.025236217 -0.041489087 -0.51127565 0.12603986 0.20878986 -0.72609925
0.012239273 -0.114015296 0.5051588 -0.34915623 0.35447076 -0.6397717 -0.8366989 -0.17278993
0.38749373 0.65754783 0.89397925 -0.6208279 0.4098537 0.19442168 -0.7781603 0.09996739
0.31413943 -0.1855857 0.5701426 0.6798846 0.41490012 -0.7779282 0.2562699 -1.1094375
-0.4516005 -0.5416141 -0.43584627 0.41687885 0.030651927 -0.20142889 -0.4750091 -0.5894203
-0.041698053 0.9330414 -0.90829855 0.32954583 -0.65777117 0.43791965 -0.74801344 -0.5021975
00000000: 8b1d a63e 2464 953d f75c 1f3f 4658 1d3e
00000010: 5abf 2c3f 1d84 943f 7a2b 853f 02bd a03e
00000020: 5079 ea3c ec1c 2f3f 3129 293f 8a63 adbe
00000030: c465 f33e f319 363e 367a 7fbf b387 edbd
00000040: ed6b 85bf 663a 13bf d85b ff3e aeb8 293f
00000050: 5d7e 37bf fff2 9b3e 68d7 8f3e b13c 9ebe
00000060: 2fa9 813e 7f39 b23e ad31 a4bf ea8d afbd
00000070: a46a 463f ecf8 32be d358 60bf 5f05 e93d
00000080: abf7 a23e a667 80bf 5aaf ad3e abe8 39be
00000090: 3df6 d3be 5aa2 1b3f 34bd 0c3f 71bf 1d3f
000000a0: d39c a5bc a773 dd3e 40b3 bebe 104e 4f3f
000000b0: 70b3 f8bd 4387 ff3d 8674 753f bc8e babe
000000c0: cab1 9ebe 2a18 c7be efb2 77bf 6ed0 2e3f
000000d0: 6058 37be e04e 69bf e263 c1be 2db6 193e
000000e0: eea5 7f3f ad7d 953d 6716 04be 70f1 2d3f
000000f0: f995 453e c7b7 033f 08b9 d5bd 182a 3cbe
00000100: 785f db3f b112 36bf 064a ffbd 7c0c 023f
00000110: 2d08 59be e616 8ebc 2aa9 e9be be66 a23e
00000120: fd40 59bf f1ce ec3e 8423 aa3d 2c4a acbe
00000130: b770 b83f bebe a4be c9d9 a63e f123 5dbc
00000140: fefb 96bb 6e66 5cbf 9560 b5be c077 013f
00000150: 4330 33bf a54b df3e 3b3b 003f 62c2 3dbe
00000160: 4ad6 afbe dc3a c1be 59f4 90bf 49a0 fabe
00000170: 2f49 903f 0d5e 353d 8fef 8e3e 9b3e 68bf
00000180: 69a9 e1bd 2f15 2bbd 2245 cbbd 3aa0 81bd
00000190: 21bf 92bf 4cf9 89be 6fdc e8bd b5d8 483e
000001a0: 414d b0bd a065 903e 734a 0bbe 44a5 cfbd
000001b0: 3010 f03e 7768 883e 1477 92bf 15a1 173f
000001c0: 2879 823f 0cab efbd 5f28 3a3f 2244 dabc
000001d0: 37cd 5fbe 863d 9bbf fdfc 1d3e e6ea 1c3f
000001e0: 127a ed3d 5dd0 98bf 7bf5 22bf 0e34 98bf
000001f0: 4b75 a43f a93d 2bbf 71ee 85bf 04ff 803f
00000200: 56db 383f 5afc 2d3e b63b aa3f a86b 89bf
00000210: 779a 8fbe ab69 ed3e 89be 923e 7743 6cbf
00000220: 8e74 d13e 4212 59bf 2c13 37bf d5b5 22bf
00000230: 03d4 7dbe a31e f2bc 234b 72bf 1804 85be
00000240: c099 663f cfab 863f 6118 5e3f 5447 3f3d
00000250: 35c0 90bf 2561 713f 2f07 dd3d 241c d3bc
00000260: 2238 3bbf 28d9 abbd 2fbc cebc 76f0 29bd
00000270: f6e2 02bf 9810 013e 02cd 553e a4e1 39bf
00000280: 3b87 483c da80 e9bd 1652 013f 9bc4 b2be
00000290: 317d b53e 14c8 23bf e631 56bf d8ef 30be
000002a0: 9465 c63e 0e55 283f d3db 643f 94ee 1ebf
000002b0: 58d8 d13e 7a16 473e 8335 47bf b4bb cc3d
000002c0: e2d6 a03e 2e0a 3ebe def4 113f eb0c 2e3f
000002d0: ca6d d43e 4d26 47bf cf35 833e 0c02 8ebf
000002e0: 2e38 e7be 39a7 0abf 3e27 dfbe 2571 d53e
000002f0: c019 fb3c 6043 4ebe 6534 f3be 40e4 16bf
00000300: 94cb 2abd cddb 6e3f 4186 68bf 3bba a83e
00000310: b163 28bf 0137 e03e cf7d 3fbf 0490 00bf

rnn2.bias_hh f4 [200]
0.3628788 0.08427919 0.5756528 0.22484803 0.6763811 1.0787957 1.0266701 0.23608762
0.025981026 0.7020988 0.6441182 -0.33136252 0.39272684 0.1796712 -1.0443722 -0.1732906
-1.0759522 -0.5109411 0.46343097 0.57961917 -0.67176217 0.3588029 0.30248046 -0.31918377
0.20541109 0.25705105 -1.2276365 -0.16436306 0.8348663 -0.07452297 -0.8693136 0.10537157
0.3356645 -1.1164626 0.28220385 -0.1497307 -0.3833701 0.6643366 0.6478686 0.6678956
-0.020155733 0.4819306 -0.40608212 0.7929645 -0.17886673 0.17274861 0.9620058 -0.33637834
-0.22945952 -0.36445013 -0.9137798 0.70315886 -0.08457457 -0.8874979 -0.39738208 0.03236855
0.9787547 -0.019727912 -0.22458385 0.7194489 0.24323016 0.45237538 -0.14380386 -0.2517083
1.7709557 -0.7117685 -0.09648688 0.54788595 -0.14472611 -0.023152702 -0.47518936 0.27619022
-0.84926623 0.47218487 0.07854504 -0.47568527 1.4225564 -0.316463 0.35445452 -0.089654654
-0.08951491 -0.9239649 -0.34627944 0.52344453 -0.7589176 0.39319474 0.46152186 -0.1950156
-0.26828066 -0.33960193 -1.0499295 -0.4922628 1.1635475 0.06121622 0.35946095 -0.81145465
-0.05861071 -0.17233193 -0.0287725 -0.08032247 -1.136789 -0.34312758 -0.23248072 0.12222674
-0.05961456 0.25546154 -0.079634085 -0.101989016 0.5777991 0.38204366 -1.121719 0.56611913
1.1263522 -0.09687786 0.75095767 0.056662694 -0.14807855 -1.1683776 0.13900672 0.629885
0.08720289 -1.2396375 -0.66114765 -1.1709234 1.3633986 -0.6143918 -1.0241377 0.9978029
0.70589405 0.12320011 1.2647096 -1.1665796 -0.28137162 0.4603299 0.28177455 -0.93427575
0.4580184 -0.8135319 -0.68812096 -0.5505062 -0.22924823 -0.049975663 -0.9704063 -0.31198394
0.86254716 1.0202714 0.82995397 -0.02750587 -1.1634157 0.9192359 0.08350524 -0.03719904
-0.7347346 -0.012451905 0.004775893 -0.006214867 -0.46752378 0.1516823 0.21715283 -0.72646195
-0.087040156 -0.12903719 0.57189965 -0.23630932 0.41745037 -0.5943094 -0.8088063 -0.15893872
0.44302824 0.60430604 1.0214336 -0.56744045 0.40188566 0.15827855 -0.7154648 0.16532625
0.29540235 -0.18336289 0.52813435 0.69978297 0.40517202 -0.8080244 0.23945247 -1.109089
-0.46981394 -0.48731983 -0.48264286 0.3988636 0.12828186 -0.24692501 -0.5697527 -0.49625987
0.022309758 0.9334009 -0.85628355 0.39429024 -0.7192758 0.4648045 -0.7652857 -0.38742203
00000000: 40cb b93e 919a ac3d fb5d 133f 903e 663e
00000010: 5027 2d3f fa15 8a3f ed69 833f f4c0 713e
00000020: 29d6 d43c bfbc 333f eee4 243f 59a8 a9be
00000030: 7e13 c93e bafb 373e fdad 85bf 1773 31be
00000040: cdb8 89bf 09cd 02bf d346 ed3e ec61 143f
00000050: 9bf8 2bbf 04b5 b73e b8de 9a3e 0e6c a3be
00000060: 4957 523e 329c 833e 3123 9dbf ca4e 28be
00000070: ccb9 553f 809f 98bd 568b 5ebf 0dcd d73d
00000080: 38dc ab3e 3fe8 8ebf 067d 903e 0153 19be
00000090: 1649 c4be f711 2a3f b7da 253f 35fb 2a3f
000000a0: a31d a5bc 9cbf f63e ffe9 cfbe b9ff 4a3f
000000b0: d728 37be 03e5 303e 0346 763f c839 acbe
000000c0: 70f7 6abe 3599 babe 79ed 69bf 3802 343f
000000d0: 6f35 adbd 1033 63bf aa75 cbbe e294 043d
000000e0: ab8f 7a3f 6e9c a1bc 4ff9 65be ce2d 383f
000000f0: 5411 793e bf9d e73e 5241 13be e9df 80be
00000100: adae e23f 7636 36bf ea9a c5bd 4142 0c3f
00000110: 1533 14be bcaa bdbc 054c f3be ce68 8d3e
00000120: 8369 59bf 37c2 f13e 39dc a03d 058d f3be
00000130: 5416 b63f 7007 a2be 107b b53e dc9c b7bd
00000140: 9853 b7bd f788 6cbf 8a4b b1be 7600 063f
00000150: 6d48 42bf d250 c93e 984c ec3e 2bb2 47be
00000160: 155c 89be 4ee0 adbe 1764 86bf df09 fcbe
00000170: 20ef 943f dcbd 7a3d 440b b83e 7ebb 4fbf
00000180: c911 70bd c877 30be 4eb4 ebbc 1b80 a4bd
00000190: 4d82 91bf 6bae afbe 6d0f 6ebe 0352 fa3d
000001a0: 662e 74bd dbcb 823e 3217 a3bd 9edf d0bd
000001b0: a4ea 133f 3a9b c33e 7d94 8fbf 2fed 103f
000001c0: 4f2c 903f e667 c6bd c33e 403f 2417 683d
000001d0: e7a1 17be 668d 95bf c757 0e3e 2540 213f
000001e0: 6e97 b23d 71ac 9ebf f940 29bf d1e0 95bf
000001f0: d883 ae3f c848 1dbf f216 83bf 0370 7f3f
00000200: 79b5 343f 5750 fc3d 01e2 a13f 7b52 95bf
00000210: f10f 90be 5cb0 eb3e c144 903e b22c 6fbf
00000220: 6381 ea3e a043 50bf b228 30bf f9ed 0cbf
00000230: 0cc0 6abe 48b3 4cbd 8c6c 78bf 5cbc 9fbe
00000240: e4cf 5c3f 4198 823f dd77 543f fe53 e1bc
00000250: ceea 94bf 0b53 6b3f cc04 ab3d 055e 18bd
00000260: 9117 3cbf 1303 4cbc 187f 9c3b 15a6 cbbb
00000270: 475f efbe 9b52 1b3e 505d 5e3e 69f9 39bf
00000280: 1c42 b2bd 5322 04be 0468 123f 12fb 71be
00000290: 0ebc d53e a924 18bf ee0d 4fbf d5c0 22be
000002a0: 99d4 e23e cdb3 1a3f 56be 823f c743 11bf
000002b0: f5c3 cd3e c613 223e b328 37bf 494b 293e
000002c0: fa3e 973e 7bc3 3bbe d033 073f fa24 333f
000002d0: b572 cf3e b0da 4ebf 0733 753e a1f6 8dbf
000002e0: 748b f0be fc81 f9be f71c f7be da37 cc3e
000002f0: 525c 033e e9d9 7cbe 50db 11bf c615 febe
00000300: f4c2 b63c 5df3 6e3f 6635 5bbf 69e0 c93e
00000310: 7522 38bf dbfa ed3e c3e9 43bf 2e5c c6be

linear.weight f4 [100, 200]
0.11368056 -0.06526344 -0.09093001 0.09537163 -0.21342692 -0.047865782 -0.18426941 0.10408031
-0.056562085 -0.009760167 -0.07541039 -0.049246598 0.03084887 -0.00378951 0.28264198 -0.10120225
0.20787427 0.09953694 -0.39361763 0.017440354 0.3378662 0.10827096 0.07490036 -0.031911895
0.05043179 -0.049486995 0.08997498 0.115033805 -0.24143124 -0.09932259 -0.05847645 -0.085072316
0.023955997 0.053376213 -0.070120096 0.15904163 0.015978003 -0.12526609 -0.13727574 -0.1328275
0.08811757 0.11999706 -0.16510619 -0.30143693 0.1539653 -0.031611487 0.0046247425 0.15391164
0.23082125 0.079255655 0.02102812 0.20285618 -0.033316858 0.100849055 -0.05456269 -0.32078934
-0.035708204 -0.07854313 -0.083507985 0.081032954 0.5332111 -0.06816484 0.0032648558 0.083283044
-0.063034534 0.120191105 0.08431476 -0.3225096 0.0745126 -0.019168237 -0.0039584897 -0.14519204
0.07211772 -0.115574546 0.019250095 0.21215089 -0.24361478 -0.09900453 -0.13712014 -0.062184338
-0.11591132 0.10618994 0.17190588 -0.13317513 0.23809135 -0.015532167 -0.075798705 -0.12717219
-0.06724363 0.03568234 0.093842424 0.0984014 -0.0002547491 0.11017949 0.07550062 0.57196146
-0.039017666 0.086066745 0.010524697 -0.1265358 0.3349837 -0.1143774 0.1410051 -0.052231714
-0.039943766 -0.03162514 -0.15932868 -0.23112763 -0.17562537 -0.043841176 -0.006644835 -0.22017714
-0.005408454 0.022568598 -0.17432576 0.10479826 -0.0076383543 0.60046494 -0.12326589 0.0015568028
-0.041129593 0.10234152 -0.06732926 0.3322496 -0.5382941 0.2637865 0.07154788 -0.026354944
0.015053941 -0.33583146 0.16151682 0.26502073 0.13319777 -0.048597462 -0.17172217 -0.035070274
0.0062833247 0.24559483 -0.010776935 -0.057965964 0.0234323 0.08074346 -0.052610558 -0.07114775
-0.05789082 0.1488287 -0.23581006 -0.10260664 0.08633702 -0.053496733 0.18585454 0.017104378
0.096753486 -0.1767213 0.023633389 -0.06339606 0.09373355 -0.04926257 0.008239776 -0.0037761559
0.11698168 0.14279751 -0.08750205 0.081924185 -0.09914283 0.065235764 -0.023730226 0.052532215
-0.006475847 -0.10901702 0.055458203 0.16182044 0.006004583 -0.12626918 0.13535573 0.032687817
0.11143678 0.029653596 -0.029828347 -0.3782122 -0.18653941 0.013517517 0.027201997 0.34890193
0.12954012 -0.01650572 0.15307006 -0.04662756 0.046261057 -0.061013605 0.18704267 0.049313627
-0.22429886 0.008872569 0.08384508 -0.14816819 -7.8458055e-05 -0.009911699 -0.24367866 0.07933262
0.06506964 -0.06984204 -0.14588006 0.039860148 -0.18300879 -0.07048592 -0.19446664 0.049642038
-0.13867179 -0.072707124 0.09063443 0.09952893 0.05160989 -0.1700532 0.30161315 -0.07180922
0.25530505 -0.08587287 -0.23507097 -0.058245942 0.21867853 0.103395514 0.0803329 0.044089217
-0.020726442 -0.19133589 0.02732197 0.08286849 -0.23659319 0.060152326 -0.099568374 0.09971329
0.032149963 0.052503966 -0.1138499 0.17161798 0.1094125 -0.050327215 -0.027080378 -0.23628876
0.06828717 0.046300184 -0.089791745 -0.20662497 0.0018527206 0.09679469 -0.015171718 0.16028455
0.16464433 -0.058305807 0.07991865 0.017912 0.0037855592 0.13864423 -0.03597117 0.019855812
00000000: 5ad1 e83d d7a8 85bd 8339 babd 3352 c33d
00000010: 968c 5abe e90e 44bd 1fb1 3cbe 0f28 d53d
00000020: a5ad 67bd 1ce9 1fbc c370 9abd cdb6 49bd
00000030: c5b6 fc3c 6e59 78bb 73b6 903e 2043 cfbd
00000040: fedc 543e 06da cb3d 4088 c9be 13df 8e3c
00000050: ccfc ac3e 2abd dd3d 5c65 993d 0cb6 02bd
00000060: 9191 4e3d e0b2 4abd cd44 b83d d896 eb3d
00000070: c039 77be a469 cbbd 0185 6fbd 653a aebd
00000080: 5e3f c43c 04a1 5a3d 209b 8fbd cfdb 223e
00000090: 4de4 823c c145 00be 0392 0cbe ef03 08be
000000a0: fc76 b43d 05c1 f53d 9911 29be f155 9abe
000000b0: 14a9 1d3e 0c7b 01bd 278b 973b 039b 1d3e
000000c0: 685c 6c3e ca50 a23d 2a43 ac3c 88b9 4f3e
000000d0: 4277 08bd f389 ce3d 217d 5fbd 803e a4be
000000e0: c442 12bd 38db a0bd 3c06 abbd 9bf4 a53d
000000f0: 8680 083f 029a 8bbd 31f7 553b 4d90 aa3d
00000100: 4018 81bd c126 f63d 38ad ac3d fa1f a5be
00000110: 109a 983d b506 9dbc 38b6 81bb 39ad 14be
00000120: 75b2 933d 59b2 ecbd 60b2 9d3c 153e 593e
00000130: 2776 79be e3c2 cabd 3969 0cbe 01b5 7ebd
00000140: ea62 edbd 1c7a d93d 1808 303e 105f 08be
00000150: 38ce 733e a17a 7ebc 5a3c 9bbd 6d39 02be
00000160: 07b7 89bd a527 123d 7530 c03d ac86 c93d
00000170: d88f 85b9 c9a5 e13d 12a0 9a3d 116c 123f
00000180: fdd0 1fbd c343 b03d c76f 2c3c 9a92 01be
00000190: fc82 ab3e b33e eabd a463 103e ecf0 55bd
000001a0: 139c 23bd 5d89 01bd 0f27 23be b9ac 6cbe
000001b0: 23d7 33be ce92 33bd ebbc d9bb 1e76 61be
000001c0: 6739 b1bb c8e1 b83c 7482 32be 78a0 d63d
000001d0: 294b fabb 12b8 193f d472 fcbd a20d cc3a
000001e0: 8177 28bd 6e98 d13d ece3 89bd 9f1c aa3e
000001f0: a4cd 09bf 060f 873e b287 923d 53e6 d7bc
00000200: cea4 763c 1af2 abbe aa64 253e ccb0 873e
00000210: ff64 083e 220e 47bd f0d7 2fbe d9a5 0fbd
00000220: 59e4 cd3b 367d 7b3e be91 30bc b86d 6dbd
00000230: 18f5 bf3c d45c a53d 2b7e 57bd e9b5 91bd
00000240: ed1e 6dbd 8d66 183e 3178 71be 6e23 d2bd
00000250: 77d1 b03d 641f 5bbd a750 3e3e 7b1e 8c3c
00000260: b126 c63d 6ef6 34be cf9a c13c cbd5 81bd
00000270: 60f7 bf3d 8cc7 49bd 2000 073c 6279 77bb
00000280: 1794 ef3d 8339 123e 4634 b3bd dec7 a73d
00000290: 650b cbbd 549a 853d e465 c2bc 052c 573d
000002a0: 5833 d4bb 5144 dfbd 2428 633d 42b4 253e
000002b0: 18c2 c43b b54c 01be b19a 0a3e a9e3 053d
000002c0: f738 e43d 19ec f23c 945a f4bc 08a5 c1be
000002d0: 3004 3fbe 9378 5d3c b9d6 de3c 46a3 b23e
000002e0: 2aa6 043e 0137 87bc 66be 1c3e 8afc 3ebd
000002f0: 3c7c 3d3d 67e9 79bd 1d88 3f3e 16fd 493d
00000300: 9aae 65be 405e 113c f8b6 ab3d 67b9 17be
00000310: d989 a4b8 ae64 22bc e686 79be 2479 a23d
00000320: 3b43 853d 5809 8fbd 9561 15be 6544 233d
00000330: a866 3bbe ec5a 90bd 4322 47be 7355 4b3d
00000340: faff 0dbe 79e7 94bd 8b9e b93d d3d5 cb3d
00000350: e464 533d 6d22 2ebe 0a6d 9a3e b610 93bd
00000360: 58b7 823e 1ede afbd 72b6 70be 4c93 6ebd
00000370: 44ed 5f3e 07c1 d33d 9385 a43d e596 343d
00000380: 80ca a9bc 8eed 43be 53d2 df3c f4b6 a93d
00000390: 7c45 72be 4962 763d 81ea cbbd 7b36 cc3d
000003a0: aeaf 033d 660e 573d 232a e9bd a0bc 2f3e
000003b0: a913 e03d e923 4ebd abd7 ddbc aef5 71be
000003c0: 25da 8b3d 43a5 3d3d bce4 b7bd 7f95 53be
000003d0: fdd6 f23a 4b3c c63d cc92 78bc a221 243e
000003e0: 8698 283e 12d2 6ebd 64ac a33d 30bc 923c
000003f0: 2517 783b c1f8 0d3e 8156 13bd a8a8 a23c
