Results/Complete Sherlock Holmes/LSTM/Adam/2/50/model.pt (torch, 227007 bytes, 10 tensors)

rnn.weight_ih f4 [200, 100]
0	0xbe17ee7c	-0.14837068
1	0x3d94999d	0.07255862
2	0x3c6674b5	0.014065911
3	0xbea6f8b0	-0.32611609
4	0xbdbb0fe0	-0.09133887
5	0x3d9e311c	0.077242106
6	0x3ca804d2	0.020510111
7	0x3dbb2c90	0.09139359
8	0xbeb97bde	-0.36227316
9	0x3ccb93e2	0.02485079
10	0xbf70f5ad	-0.9412487
11	0x3f452f0a	0.770249
12	0xbd941826	-0.072311684
13	0xbf30b3bf	-0.6902427
14	0x3f08dcb2	0.53461754
15	0x3f370b71	0.71501833
16	0xbecdf67f	-0.40227124
17	0xbecb7438	-0.39737105
18	0xbec30aa1	-0.38094047
19	0xbf340216	-0.7031568
20	0xbe0dbb25	-0.13840921
21	0x3edc3efe	0.4301681
22	0xbed64e59	-0.4185665
23	0x3f710393	0.9414608
24	0xbfc69ab9	-1.5515968
25	0xbfb56f4d	-1.4174591
26	0x3f2ce04c	0.6752975
27	0x3f7f3eed	0.9970539
28	0x3f5ea6bf	0.86973184
29	0x3f554dd2	0.8332187
30	0xbfda0f21	-1.7035867
31	0x3d9bfe17	0.07616823
32	0xbfb500a2	-1.4140818
33	0xbf0669e7	-0.52505344
34	0x3e807f67	0.250972
35	0x3dc1d913	0.09465232
36	0xbebf9803	-0.37420663
37	0x3f216900	0.6305084
38	0x3e42f0bb	0.19037144
39	0xbd2fa8dc	-0.042885646
40	0xbf87c97e	-1.0608366
41	0xbe0430ec	-0.12909287
42	0xbe6c7336	-0.23090824
43	0xbf0a9df6	-0.5414728
44	0xbcc563c2	-0.02409542
45	0xbec8f9cf	-0.3925309
46	0x3e4ed613	0.2019885
47	0xbdfa0304	-0.122076064
48	0x3f9ca56e	1.2237985
49	0x3da0dc69	0.0785454
50	0xbf841ebf	-1.0321883
51	0xbf32c1ff	-0.69827265
52	0x3e776561	0.24159767
53	0xbea8ee17	-0.32994148
54	0x3d9cd62a	0.07658036
55	0xbebe5e27	-0.37181208
56	0xbeac5f65	-0.3366653
57	0x3dfd59c7	0.12370639
58	0xbefa82c3	-0.48927888
59	0x3d325a5e	0.043543212
60	0xbd4e3a26	-0.050348423
61	0xbd102358	-0.035189956
62	0xbe90c5b4	-0.28275836
63	0xbf301d41	-0.6879464
64	0x3da67fe0	0.08129859
65	0x3d0a2308	0.033724815
66	0xbdb9dbeb	-0.09075149
67	0x3d2c38cb	0.04204635
68	0x3efb361b	0.49064717
69	0xbd12ed11	-0.035870615
70	0x3d1bdca7	0.038052227
71	0x3e0bb155	0.13641866
72	0xbd633c64	-0.055477515
73	0x3f58a049	0.84619576
74	0xbf3b597d	-0.73183423
75	0xbee61ed8	-0.44945407
76	0xbde4610a	-0.11151321
77	0x3e0f999c	0.14023441
78	0x3d7298d7	0.05922779
79	0x3d0c8874	0.03430982
80	0x3c208680	0.009797692
81	0xbcbc04b8	-0.022951469
82	0xbf819d78	-1.0126181
83	0xbd4c8852	-0.049934693
84	0x3d2c7044	0.042099252
85	0xbcbacc80	-0.022802591
86	0xbe474159	-0.19458522
87	0x3de9e066	0.11419754
88	0xbdcece44	-0.10097936
89	0x3c95b8e0	0.018276632
90	0xbdac5589	-0.08414752
91	0x3d5b8eb0	0.053602874
92	0xbd4f6dac	-0.0506417
93	0x3c795140	0.015217125
94	0xbde6af4e	-0.112639055
95	0x3db519c6	0.088428065
96	0x3f4afa06	0.79287755
97	0xbdc80260	-0.09766078
98	0xbdb3c290	-0.08777344
99	0x3db415dc	0.08793232
100	0xbe3f85fd	-0.18703456
101	0xbf012c5b	-0.50458306
102	0xbe005afb	-0.12534706
103	0xbf369b38	-0.71330595
104	0x3e00761d	0.12545057
105	0xbf872133	-1.0557007
106	0xbf028513	-0.50984305
107	0xbf5f35c6	-0.87191427
108	0xbe12318b	-0.14276712
109	0xbf035ebe	-0.5131644
110	0x3f9224b9	1.1417457
111	0x4008509b	2.1299198
112	0x3ec3f604	0.38273633
113	0xbe5bbaba	-0.2145795
114	0xbe0f0049	-0.13964953
115	0xbf91d7a9	-1.1393939
116	0x4014ae9d	2.3231575
117	0x3f3a924d	0.7287949
118	0x3f8494e8	1.0357943
119	0x3e06ced9	0.13164844
120	0x3e027baa	0.12742487
121	0x3f429d72	0.7602149
122	0x3ee46aa7	0.4461262
123	0xc0433804	-3.050294
124	0x3f9acc9c	1.2093692
125	0x3ed2b58f	0.41154143
126	0xbe5308fb	-0.20608895
127	0xbeea4a25	-0.45759693
128	0xbc65c60c	-0.014024269
129	0x3e86c3a6	0.26321143
130	0x3f29bee1	0.66306883
131	0x3f00d863	0.5033018
132	0xbe9b3f2b	-0.3032163
133	0x3e90702b	0.28210577
134	0xbff57a4a	-1.9177945
135	0x3f28af12	0.65892136
136	0x3efff4de	0.49991506
137	0x3f3ce2ac	0.73783374
138	0x3bc119f5	0.005892987
139	0x3e9dc387	0.30813238
140	0xbeae46f4	-0.34038508
141	0xbf13c8bb	-0.57728165
142	0x3f38875a	0.7208153
143	0x3f64b639	0.8934055
144	0x3f7509a3	0.9571783
145	0x3e98536e	0.29751152
146	0x3ebb2771	0.3655353
147	0xbf92dc44	-1.147347
148	0xbe949af4	-0.2902447
149	0xbe43e955	-0.19131978
150	0x3ea26493	0.31717357
151	0xbd208928	-0.039193302
152	0x3e0436fb	0.12911598
153	0xbe0e8f4d	-0.13921852
154	0xbf5dd32d	-0.86650354
155	0x3ecb8208	0.39747643
156	0x3c0abfea	0.008468607
157	0x3e82f9d1	0.2558122
158	0x3f1d0f18	0.61351156
159	0xbeb83a38	-0.35981917
160	0xbef3879d	-0.47564402
161	0x3d5b4263	0.05353011
162	0x3db91027	0.09036284
163	0xbf250059	-0.64453655
164	0xbd1d4300	-0.038393974
165	0xbd863de7	-0.06554776
166	0xbd03ee0e	-0.03220945
167	0x3e708627	0.23488675
168	0x3f47dbd4	0.78069806
169	0x3ee4064e	0.4453606
170	0x3dddbe38	0.10827297
171	0x3c981528	0.018564776
172	0xbdfec739	-0.124403425
173	0xbf5fff5f	-0.8749904
174	0xbfe2128e	-1.7661912
175	0xbeb20054	-0.34765875
176	0x3d5ccd88	0.053906947
177	0xbe96f3f1	-0.29482988
178	0xbf0e86be	-0.5567435
179	0x3ccdb478	0.025110468
180	0xbc9eb1cc	-0.01937189
181	0x3b070bc0	0.0020606369
182	0x3ead05f8	0.33793616
183	0xbd8b5a95	-0.068043865
184	0xbeb66f78	-0.3563192
185	0xbc429dc0	-0.011878431
186	0xbd870695	-0.06593052
187	0x3db9e160	0.0907619
188	0x3dd8e018	0.105896175
189	0xbdbe0578	-0.09278387
190	0xbd5e8fd6	-0.05433639
191	0x3da26bdc	0.07930729
192	0xbd575aa0	-0.05257666
193	0xbe002c12	-0.12516811
194	0x3f076bdb	0.5289895
195	0xbde1ca5e	-0.110249266
196	0xbfad4e19	-1.3539459
197	0x3d5f2e84	0.05448772
198	0xbd61321e	-0.054979436
199	0xbd0262a4	-0.031832352
200	0xbe4b531b	-0.19855921
201	0x3df4333d	0.119238354
202	0xbe0d9173	-0.13825016
203	0xbd1ec279	-0.038759682
204	0x3e82c3d8	0.25540042
205	0xbdb203c1	-0.08692122
206	0x3d8e4712	0.06947149
207	0x3e8ecfb6	0.27892846
208	0xbe4e258b	-0.20131509
209	0xbe87eb86	-0.26546878
210	0x3ea36dd8	0.31919742
211	0x3eaa8c2e	0.33310074
212	0x3ea2dcbf	0.3180904
213	0xbf5bd9b9	-0.85879093
214	0xbf9e0e54	-1.2348123
215	0xbcc2b58c	-0.023768209
216	0x3f253e54	0.6454823
217	0x3ec5ee2f	0.38658282
218	0x3e8c8a8b	0.2744945
219	0x3de0b0a3	0.10971191
220	0xbec1329a	-0.37733918
221	0x3fb9ef33	1.4526123
222	0xbe777606	-0.24166116
223	0xbe05a32a	-0.13050523
224	0xbeb425fa	-0.35185224
225	0xbf120bf8	-0.5704951
226	0xbf517f35	-0.8183473
227	0x3f1f4e41	0.6222878
228	0xbe8e8b5b	-0.27840695
229	0x3faafacd	1.3357788
230	0x3dec8724	0.115492135
231	0x3f8ca7f0	1.098875
232	0xbeede79b	-0.46465763
233	0xbeaefbcb	-0.34176478
234	0xbf8b4c82	-1.0882723
235	0x3f434e4f	0.76291364
236	0x3f4904f5	0.7852319
237	0xbf4991e7	-0.78738254
238	0xbe71510b	-0.23566072
239	0x3e44b36d	0.1920907
240	0x3e0ba32b	0.13636462
241	0xbddd85fa	-0.108165696
242	0xbf4ee600	-0.808197
243	0xbecdf36d	-0.40224782
244	0x3ed8e8ca	0.42365104
245	0xbd326c9a	-0.0435606
246	0xbe540d78	-0.20708263
247	0xbf54d88c	-0.83142924
248	0xbf0a643c	-0.54059196
249	0xbf19a289	-0.60013634
250	0xbe83e47f	-0.25760266
251	0xbf177fef	-0.59179586
252	0xbe4fe8a9	-0.20303597
253	0xbe8fbfc8	-0.28076005
254	0xbf67e977	-0.90590614
255	0x3ec932f3	0.39296684

rnn.weight_hh f4 [200, 50]
0	0x3d16f6e3	0.036856543
1	0x3f684659	0.9073234
2	0x3f481e77	0.78171486
3	0x3f2b3152	0.6687213
4	0xbf7f8fdf	-0.99828905
5	0xbf91bf61	-1.1386529
6	0x3f5c0314	0.85942197
7	0x3f571c70	0.8402777
8	0xbec8d4cf	-0.3922486
9	0x3f3205b5	0.6953996
10	0x3eaed991	0.34150365
11	0xbc60430b	-0.013687859
12	0xbf40af72	-0.7526771
13	0x3f1da9be	0.6158713
14	0x3f6e98a9	0.9320169
15	0x3f1d463c	0.61435294
16	0xbedc3487	-0.43008825
17	0xbf12d4bf	-0.57355875
18	0x3f172b5f	0.59050554
19	0x3f92133a	1.1412117
20	0xbea8273d	-0.32842436
21	0xbf03e14c	-0.5151565
22	0x3f4a826a	0.79105246
23	0x3f165ee0	0.5873852
24	0x3f1054d4	0.5637944
25	0xbe955e35	-0.29173437
26	0x3ed4fb68	0.41598058
27	0xbf1f5a5d	-0.6224726
28	0xbe73bc34	-0.23802263
29	0xbece540d	-0.402985
30	0xbf13f602	-0.57797253
31	0xbf1f65fc	-0.6226499
32	0xbf0a3f17	-0.5400252
33	0x3f5755d8	0.8411536
34	0xbf8dff0d	-1.109346
35	0xbee9517e	-0.45569986
36	0xbf384f51	-0.7199603
37	0xbf3a6894	-0.72815824
38	0xbee7cb04	-0.45272076
39	0x3f7d2493	0.9888393
40	0xbec2e8f8	-0.38068366
41	0x3edb89c2	0.42878538
42	0x3f52421b	0.8213212
43	0x3f0f78d9	0.56043774
44	0x3f575ff2	0.84130776
45	0xbeb11dbd	-0.34593
46	0xbed28136	-0.41114205
47	0x3f148b70	0.58025265
48	0x3f23387d	0.6375807
49	0x3e7f0dda	0.24907628
50	0x3ff5c5eb	1.9201025
51	0xbeca0027	-0.3945324
52	0xbf20904a	-0.6272017
53	0x3eae97e1	0.3410025
54	0x3f356c66	0.7086853
55	0x3f119e77	0.56882423
56	0xbeb976e7	-0.36223528
57	0x3ecb5920	0.39716434
58	0xbf83cec0	-1.029747
59	0xbf6f5197	-0.9348387
60	0x3f929866	1.1452758
61	0x3fbc1edb	1.4696916
62	0xc0184c2f	-2.3796499
63	0xbeee7212	-0.46571404
64	0x3f36f8fe	0.7147368
65	0x3e552a04	0.20816809
66	0x3f3abb52	0.7294208
67	0xbf8f2b23	-1.1185039
68	0x3ea3d90b	0.32001528
69	0xbf840298	-1.0313292
70	0xbf90ee53	-1.1322731
71	0xbd6eda9c	-0.05831395
72	0xbf3cb989	-0.73720604
73	0xbf659892	-0.8968593
74	0x3e9e98ad	0.30975857
75	0xbe80bdc8	-0.25144792
76	0x3ebb46a6	0.36577338
77	0xbdd77b8a	-0.1052161
78	0x3e401b84	0.18760496
79	0xc002f93a	-2.0464616
80	0x3f0e04cd	0.55476075
81	0x3e209501	0.1568184
82	0x3ee7b7b2	0.45257336
83	0x3ee7d0be	0.45276445
84	0x3d082609	0.0332394
85	0x3d0580fc	0.032593712
86	0x3e9bb175	0.30408826
87	0xbe2adeca	-0.1668655
88	0xbf7dedb7	-0.9919085
89	0x3e1ec176	0.15503487
90	0xbfa73600	-1.3063354
91	0x3f2b6812	0.66955674
92	0x3dfd9e6e	0.12383734
93	0x401cab7e	2.447967
94	0xbec4cb15	-0.3843619
95	0xbf6275b5	-0.88460857
96	0xbfb7af06	-1.4350288
97	0xbf4b3cd1	-0.79389673
98	0xbdbd07d9	-0.092300124
99	0x3c8ce6df	0.017199932
100	0xbda6eed9	-0.08151025
101	0x3f7a3d7f	0.97750086
102	0x3ead9b4f	0.33907554
103	0x3e62d0f8	0.22150028
104	0xbfc3f5c9	-1.5309383
105	0xbf6231e1	-0.8835736
106	0xbd2086f6	-0.03919121
107	0xbe0fe8a1	-0.14053585
108	0xbf795920	-0.9740162
109	0x3defea90	0.11714661
110	0xbdd8dd35	-0.10589067
111	0x3f80a90d	1.005159
112	0xbe8cd90f	-0.27509353
113	0xbe3dc8ad	-0.18533583
114	0xbd492bc1	-0.049113993
115	0x3f64a4c5	0.8931392
116	0xbf3bae0f	-0.7331247
117	0xbe25236e	-0.16126797
118	0x3f4fc84d	0.8116501
119	0x3f37de92	0.7182399
120	0xbf328425	-0.69732887
121	0x3d9f0940	0.07765436
122	0x3ee0f713	0.43938503
123	0xbe043371	-0.12910248
124	0x3f31ccb4	0.6945298
125	0xbe738a5d	-0.2378325
126	0x3e9b056f	0.30277583
127	0xbf742ac8	-0.9537778
128	0xbe52443d	-0.20533843
129	0x3d96cc83	0.07363226
130	0xbfaca1e4	-1.3486905
131	0xbfa5ed20	-1.296299
132	0xbf6c1694	-0.9222195
133	0x3e4a8879	0.19778623
134	0xbf64fdaf	-0.8944959
135	0xbe20ce59	-0.15703715
136	0x3e568ada	0.20951405
137	0x3a4f3b70	0.000790528
138	0xbed1d202	-0.40980536
139	0x3f12ccdf	0.5734386
140	0xbee9fc6c	-0.45700395
141	0x3eccf3ac	0.40029657
142	0x3f240091	0.64063364
143	0x3d736831	0.059425537
144	0x3eb70e5d	0.35753146
145	0xbf5ed426	-0.8704246
146	0xbe85fb30	-0.26168203
147	0x3e3d0ba9	0.18461479
148	0x3f468a35	0.7755464
149	0x3fbfb9f1	1.497862
150	0x40192031	2.3925898
151	0xbf9a8c05	-1.207398
152	0x4024e7e2	2.576653
153	0x40074e67	2.1141603
154	0xbf001fa9	-0.5004831
155	0x3f0795e7	0.5296311
156	0xbedaa200	-0.4270172
157	0xbe68bfb6	-0.22729382
158	0x3ec59055	0.3858668
159	0xbea00f21	-0.31261542
160	0xbf115f1d	-0.56785756
161	0x3ed78737	0.42095348
162	0x3e3a35c7	0.18184577
163	0x3fc108a8	1.5080767
164	0xbdf30a3c	-0.118671864
165	0x3fdce14b	1.7256254
166	0xbfaddedf	-1.358364
167	0x3eb7e646	0.35917872
168	0x3f9911bb	1.1958536
169	0xbf1f0a18	-0.62124777
170	0x3f18b203	0.59646624
171	0x3f9383e1	1.1524621
172	0xbebb621d	-0.36598292
173	0x3f49c524	0.7881644
174	0xbc9b6621	-0.018969597
175	0xbd78290c	-0.06058602
176	0x3f8cc002	1.0996096
177	0xc008cfd3	-2.1376846
178	0xbf25f239	-0.6482273
179	0xbe90412e	-0.28174728
180	0xbef57408	-0.47940087
181	0x3f258dd7	0.64669555
182	0xbf829ca4	-1.0204053
183	0xbf046a91	-0.5172511
184	0x3f9b825a	1.2149155
185	0x3d9b2d0f	0.075769536
186	0xbef39a9b	-0.47578892
187	0x3e93dcfb	0.28879532
188	0x3ecf14b4	0.40445483
189	0xbeeb383b	-0.45941338
190	0x3f7aabe9	0.97918564
191	0x3f3263a2	0.6968328
192	0x3f058de1	0.52169615
193	0xbf05eff9	-0.52319294
194	0x3e6d6b0d	0.23185368
195	0xbd45bac7	-0.048273828
196	0x3ec0e484	0.37674344
197	0x3e5b3632	0.21407393
198	0xbf6c18ad	-0.9222515
199	0xbec40b35	-0.382898
200	0xbf8837b4	-1.0641999
201	0x3ee55057	0.44787857
202	0xbe9207e9	-0.2852166
203	0xbeb1ee34	-0.34752047
204	0xbfe390d8	-1.7778578
205	0xbef3fd7f	-0.4765434
206	0x3f5f74aa	0.8728739
207	0xbefa22c4	-0.4885465
208	0xbeb0c6fe	-0.3452682
209	0xbff40d8a	-1.9066632
210	0xbeb8b416	-0.36074895
211	0x3f3a8508	0.7285924
212	0x3f020eea	0.5080401
213	0x3f7d9d54	0.9906819
214	0xbf2b4b53	-0.6691181
215	0xbee6930b	-0.4503406
216	0x3f084335	0.5322755
217	0x3ed7602d	0.42065564
218	0x3fd38f4d	1.6528107
219	0x3d848dd5	0.06472365
220	0x3eb717ea	0.35760432
221	0xbe819578	-0.25309348
222	0x3ec5d3ea	0.3863824
223	0x3f7f8786	0.9981617
224	0x3f4cb2f1	0.7996054
225	0xbe92a7f2	-0.28643757
226	0x3f36bd2f	0.7138242
227	0xbde02443	-0.109444164
228	0xbf9855a2	-1.1901133
229	0xbb1f4be2	-0.0024306704
230	0x3e7c5a0d	0.24643727
231	0xbf02f6c7	-0.511578
232	0xbf987b47	-1.1912621
233	0x3ead174c	0.33806837
234	0xbf36829b	-0.7129304
235	0xbf09fa8a	-0.5389792
236	0x3cbf7f93	0.023376262
237	0xbf1d36af	-0.61411566
238	0x3efd0f3d	0.49425688
239	0x3f6adb71	0.9174109
240	0xbe913092	-0.2835737
241	0x3f4f2ab4	0.80924535
242	0x3fdb90bd	1.7153546
243	0xbe82530a	-0.2545398
244	0x3fa572ce	1.2925661
245	0xbf416a9e	-0.7555331
246	0x3f6432dc	0.89140105
247	0x3ef80d3f	0.48447606
248	0xbf9574aa	-1.1676228
249	0xbde4c728	-0.111707985
250	0x3ec9807d	0.3935584
251	0xbe8c9e53	-0.27464542
252	0x3e88690c	0.26642644
253	0xbe6b2b74	-0.22965795
254	0x3dd06017	0.10174578
255	0x3e36b79a	0.17843476

rnn.bias_ih f4 [200]
0	0x3e39412d	0.18091269
1	0x3eaa16af	0.3322043
2	0xbb15f1b7	-0.002287967
3	0x3f1fe080	0.62451935
4	0x3f02d41f	0.5110492
5	0x3ecb185e	0.39667028
6	0xbe8c6379	-0.27419642
7	0x3f618e21	0.88107497
8	0x3e598aa1	0.21244289
9	0xbd2db8a0	-0.0424124
10	0x3f72f687	0.9490742
11	0x3d34f393	0.044177603
12	0x3f3dc6bb	0.74131364
13	0x3f5783d7	0.84185547
14	0x3f6fcf60	0.93675804
15	0x3f81abea	1.0130589
16	0x3e95603e	0.2917499
17	0x3d77d675	0.060507257
18	0x3f5b429f	0.8564853
19	0xbed4af77	-0.4154012
20	0xbd96f868	-0.073715985
21	0x3e4b8d0b	0.19878022
22	0x3df10cdd	0.117700316
23	0x3e7508ca	0.23929134
24	0x3fc6416b	1.5488714
25	0x3d9a04a2	0.07520415
26	0x3eaba9d6	0.33528012
27	0x3ef4671d	0.4773492
28	0xbeb45163	-0.35218343
29	0x3ef681b4	0.4814583
30	0xbe40e0bc	-0.1883573
31	0xbe61ed4c	-0.22063178
32	0xbe4a13ad	-0.19734068
33	0x3f21d719	0.6321884
34	0x3e9a115b	0.30091366
35	0x3f93157a	1.1490929
36	0x3ed75a31	0.42060998
37	0x3f33f700	0.7029877
38	0xbd7caff3	-0.061691236
39	0x3ed3424e	0.41261524
40	0xbf01f884	-0.5076983
41	0x3fcf2b44	1.6185079
42	0x3f81c093	1.0136894
43	0x3f425967	0.7591767
44	0x3f1a9921	0.60389906
45	0x3ea97e84	0.33104336
46	0xbeddfdae	-0.43357605
47	0x3f834145	1.0254294
48	0x3efdf48b	0.49600634
49	0x3e25ca13	0.16190366
50	0x3eff8d27	0.49912378
51	0xbd7af934	-0.061272815
52	0x3eb335c7	0.35001966
53	0x3cbbb73d	0.022914523
54	0xbdf92bf1	-0.12166584
55	0x3f193dd6	0.5985998
56	0x3f34e185	0.70656615
57	0x3f185ae4	0.5951369
58	0x3ea3f5c8	0.32023454
59	0xbda1f12b	-0.07907327
60	0x3d9cefea	0.076629475
61	0x3ce0bbad	0.02743324
62	0x3eee74b5	0.46573415
63	0x3f212d88	0.629601
64	0xbd6f1961	-0.058373813
65	0x3e126cc9	0.1429931
66	0x3d777f75	0.060424287
67	0x3e90e23e	0.2829761
68	0x3e2c6f30	0.1683929
69	0xbbb56e68	-0.005536843
70	0x3f0cde5e	0.55026805
71	0x3eef8083	0.46777734
72	0x3d9f2f4e	0.077726945
73	0x3ec01be6	0.37521285
74	0x3f06534e	0.5247086
75	0x3ef1c72a	0.47222263
76	0x3eb04d78	0.34434104
77	0xbe488492	-0.19581822
78	0x3f0acf67	0.5422272
79	0xbde7a81a	-0.1131136
80	0x3e0578da	0.13034382
81	0x3e39a14f	0.1812794
82	0x3d8a74e4	0.06760576
83	0x3d82b9f3	0.06383123
84	0x3eec60ab	0.46167502
85	0x3ed8ed4d	0.42368546
86	0x3e07b5a4	0.13252884
87	0x3d396fcb	0.04527263
88	0x3e414107	0.18872462
89	0xbdb29994	-0.08720699
90	0xbe2fb67b	-0.17159455
91	0xbe1efdb0	-0.15526462
92	0xbe09e5a1	-0.13466503
93	0x3f195865	0.59900504
94	0x3e9c54b2	0.30533367
95	0x3e25550e	0.16145727
96	0xbdbe00b6	-0.09277479
97	0xbe15e9e0	-0.14639997
98	0x3e97f20a	0.2967685
99	0x3e7676eb	0.24068801
100	0x3f1da5eb	0.61581296
101	0x3f4c95f9	0.7991634
102	0x3f0a4871	0.54016787
103	0x3f2ddf1d	0.6791857
104	0xbf063b91	-0.5243464
105	0xbf10657a	-0.5640484
106	0x3e9e0bff	0.30868527
107	0x3e9d4fa0	0.30724812
108	0xbf356b44	-0.708668
109	0x3f2dd8ee	0.67909133
110	0x3f63e3a0	0.89019203
111	0x3e880512	0.26566368
112	0xbf9eb0a6	-1.2397659
113	0x3f4a662b	0.79062146
114	0x3f30c91e	0.6905688
115	0x3f873f70	1.0566235
116	0xbf1a13e8	-0.60186625
117	0xbefa70b5	-0.48914114
118	0x3f4424f3	0.7661888
119	0x3e0c2ad8	0.13688219
120	0xbf244185	-0.64162475
121	0xbf1bd868	-0.60877085
122	0x3f2901bf	0.6601829
123	0x3f2225d4	0.6333897
124	0x3fa4a446	1.2862632
125	0xbf6e0be2	-0.9298688
126	0x3f72d8ad	0.9486187
127	0xbdb5a24d	-0.08868847
128	0xbdd1c762	-0.102431074
129	0xbf61a328	-0.8813958
130	0xbe690620	-0.22756243
131	0xbd114589	-0.035466705
132	0xbf090442	-0.5352212
133	0x3f5be5d3	0.8589756
134	0xbf22e8b6	-0.6363634
135	0xbf5ef8bf	-0.87098306
136	0xbf1db52c	-0.6160457
137	0xbf997c12	-1.1990988
138	0xbf081131	-0.5315123
139	0x3f149c38	0.5805087
140	0xbebd2215	-0.36940065
141	0x3f801a96	1.0008113
142	0x3f63828d	0.8887108
143	0x3f66b099	0.90113217
144	0x3ece3a64	0.40278924
145	0xbedbacdb	-0.42905316
146	0xbec285a7	-0.37992594
147	0x3ed488a5	0.41510502
148	0x3f562fe2	0.83666813
149	0x3f801ddd	1.0009114
150	0xbd253e43	-0.04034258
151	0xbc8ffbac	-0.017576061
152	0xbcbe01cb	-0.023194214
153	0xbe2e2f1e	-0.17010161
154	0xbd4ff334	-0.050769046
155	0xbe0f5c97	-0.14000164
156	0xbdcba3c4	-0.09943345
157	0x3e837f91	0.25683263
158	0xbc060870	-0.008180723
159	0x3e974cf1	0.2955089
160	0x3d7e8e20	0.06214726
161	0x3ed33ab7	0.41255733
162	0xbaa27fa3	-0.0012397658
163	0xbd37def9	-0.044890378
164	0x3cfb951e	0.030710753
165	0xbdd5f5f5	-0.10447303
166	0xbe9c0fb1	-0.30480722
167	0xbe7cda68	-0.2469269
168	0x3ea3f640	0.3202381
169	0xbdda798c	-0.106677145
170	0xbee65a00	-0.4499054
171	0xbe5dde9c	-0.2166695
172	0x3e95af6f	0.29235408
173	0xbbf0c9f9	-0.0073482958
174	0x3c175689	0.00923694
175	0xbe87973d	-0.26482573
176	0x3d9879e8	0.07445127
177	0xbec8d471	-0.3922458
178	0xbe00f0ae	-0.12591812
179	0xbe696e10	-0.22795892
180	0x3db6495c	0.08900711
181	0xbdb51ab6	-0.08842985
182	0x3beb4400	0.007179737
183	0x3ea720fe	0.3264236
184	0x3e57475e	0.21023318
185	0xbce5a32e	-0.028031912
186	0x3cfe81ef	0.031067817
187	0xbe811bfa	-0.25216657
188	0x3d058577	0.032597985
189	0xbda24a0e	-0.07924281
190	0x3de3d69f	0.1112492
191	0x3cdd970c	0.027049564
192	0xba7e77a6	-0.000970716
193	0x3c127fbe	0.008941589
194	0xbdf550b6	-0.11978285
195	0xbb284346	-0.0025674864
196	0x3d872e18	0.066005886
197	0x3e6c116a	0.23053518
198	0xbdbd4207	-0.09241109
199	0x3a0e1b0b	0.00054209

rnn.bias_hh f4 [200]
0	0x3dd3672c	0.10322413
1	0x3e91c1ba	0.28468114
2	0x3c2633ec	0.010144215
3	0x3f21ff35	0.6328004
4	0x3e92acfa	0.28647596
5	0x3eeb167c	0.45915592
6	0xbe865ada	-0.2624119
7	0x3f2dee11	0.67941386
8	0x3e32b989	0.17453589
9	0xbc62e4c1	-0.0138484845
10	0x3f4d9359	0.8030296
11	0x3dc69638	0.09696621
12	0x3f49c10d	0.788102
13	0x3f4834fe	0.7820586
14	0x3f5aeed0	0.8552065
15	0x3f7b27a4	0.9810736
16	0x3ea1e774	0.31621897
17	0xbdbe1caa	-0.09282811
18	0x3f8efd73	1.1171097
19	0xbe3b73dd	-0.18305917
20	0x3cd52bb8	0.026021823
21	0x3e4ee4cb	0.20204465
22	0x3e803270	0.2503848
23	0x3ddc6c57	0.10762852
24	0x3fd58091	1.667986
25	0x3e959f1e	0.2922296
26	0x3f165a37	0.58731407
27	0x3f0dc6c9	0.5538145
28	0xbed2072d	-0.410211
29	0x3f1ea3cc	0.61968684
30	0xbe2ecfe2	-0.17071488
31	0xbe017d16	-0.12645373
32	0xbe9ad3f3	-0.3023983
33	0x3ed02578	0.40653586
34	0x3e868954	0.26276648
35	0x3f642733	0.89122313
36	0x3f0d792c	0.5526302
37	0x3f0766b8	0.5289111
38	0xbb900d46	-0.0043961136
39	0x3e83f376	0.25771683
40	0xbef42def	-0.47691295
41	0x3fb04a09	1.3772594
42	0x3f843390	1.0328236
43	0x3f686b29	0.90788513
44	0x3f08e274	0.5347054
45	0x3e82660a	0.25468475
46	0xbed57738	-0.4169252
47	0x3f48b15c	0.7839563
48	0x3ef4ce1d	0.47813502
49	0x3dcc196c	0.09965786
50	0x3ef1130f	0.47084853
51	0xbcec3bad	-0.02883705
52	0x3eee1a24	0.4650432
53	0xbcde89ae	-0.02716526
54	0x3d98eb87	0.07466798
55	0x3f24e136	0.64406145
56	0x3f0f2438	0.5591464
57	0x3f1cba5d	0.6122187
58	0x3e70d729	0.23519577
59	0xbd3312e0	-0.043719172
60	0x3e71885c	0.23587173
61	0x3cc53001	0.024070742
62	0x3f007482	0.50177777
63	0x3f21cbeb	0.6320178
64	0xbda84501	-0.082162865
65	0x3d32da17	0.043665018
66	0xbd6fd22d	-0.05855005
67	0x3eac3fa7	0.33642313
68	0xbd9080e7	-0.07055836
69	0xbc08387f	-0.008314251
70	0x3ec1e462	0.37869555
71	0x3ef6f91a	0.48236924
72	0x3db70ba1	0.08937765
73	0x3ec2fe92	0.38084847
74	0x3f0926bd	0.53574735
75	0x3f3a4935	0.72767955
76	0x3f074ddf	0.52853197
77	0x3c7214b5	0.014775445
78	0x3f15739e	0.5837954
79	0xbdec724b	-0.11545237
80	0x3e4f46ab	0.20241801
81	0x3db6b614	0.089214474
82	0xbdd80d26	-0.10549383
83	0x3d4cb400	0.04997635
84	0x3ee1d7f5	0.44110075
85	0x3ebfaf84	0.37438595
86	0x3e92acda	0.286475
87	0x3d1960a5	0.037445683
88	0x3e9f9862	0.31170946
89	0xbe8b3556	-0.2718913
90	0xbe3f0f49	-0.18658175
91	0x3ba7f667	0.005125809
92	0xbe4d452c	-0.20045918
93	0x3f421bac	0.75823474
94	0x3e9c838f	0.3056912
95	0x3e7ad0ad	0.24493666
96	0xbdf2d78b	-0.11857518
97	0xbda8f3db	-0.08249637
98	0x3ec2c62b	0.38041815
99	0x3e3da50e	0.18519995
100	0x3f1f4929	0.6222101
101	0x3f55a249	0.8345075
102	0x3f3295f5	0.69760066
103	0x3f36b6ef	0.71372885
104	0xbf07b370	-0.53008175
105	0xbf0c6906	-0.54847753
106	0x3f0a1ffc	0.53955054
107	0x3eb007c7	0.34380934
108	0xbf5197e1	-0.81872374
109	0x3f5e2716	0.8677839
110	0x3f82b2f4	1.0210862
111	0x3df92074	0.12164393
112	0xbf99df99	-1.2021362
113	0x3f71bf03	0.94432086
114	0x3eef46e9	0.46733788
115	0x3f8d3deb	1.1034521
116	0xbf1ca09c	-0.6118257
117	0xbedafaad	-0.42769375
118	0x3f69c82f	0.9132108
119	0x3e9aa52e	0.30204147
120	0xbf4f043a	-0.80865824
121	0xbf32d802	-0.6986085
122	0x3f37c0c8	0.71778536
123	0x3f2ecde2	0.682829
124	0x3f9f2aac	1.2434897
125	0xbf5f9afb	-0.87345856
126	0x3f447c2a	0.7675196
127	0xbd6cc0e4	-0.057801142
128	0x3e1d1f59	0.1534399
129	0xbf44a47f	-0.768135
130	0xbe20bb6d	-0.15696497
131	0xbe917e27	-0.2841656
132	0xbea4e334	-0.32204592
133	0x3f535a74	0.82559896
134	0xbf31d3ba	-0.69463694
135	0xbf6ec020	-0.9326191
136	0xbf26bb47	-0.6512951
137	0xbf8d4a76	-1.1038349
138	0xbf27ccff	-0.65547174
139	0x3f3603a7	0.71099323
140	0xbe955679	-0.29167536
141	0x3f9b4bbc	1.2132487
142	0x3f533ec8	0.8251767
143	0x3f7b1537	0.98079246
144	0x3f0c54c7	0.5481686
145	0xbf25f6e8	-0.64829874
146	0xbf21c0e6	-0.63184965
147	0x3f080069	0.53125626
148	0x3f33d618	0.70248556
149	0x3f4ff2a3	0.8122961
150	0xbd9a2985	-0.075274505
151	0xbd9e6f1d	-0.07736037
152	0xbc88fa23	-0.016720837
153	0xbe3b02f7	-0.1826285
154	0x3dfb6ff5	0.122772135
155	0xbebb94d5	-0.36636987
156	0xbe5167ab	-0.20449702
157	0x3cabc694	0.020968713
158	0xbd644a24	-0.05573477
159	0x3f05d872	0.52283394
160	0x3e84b571	0.2591968
161	0x3edf84d5	0.4365603
162	0xbdd7e44b	-0.1054159
163	0xbdf5913d	-0.11990593
164	0x3e1fa8b5	0.155917
165	0xbe67b7d3	-0.22628717
166	0xbe8c8b78	-0.27450156
167	0xbe6cadb3	-0.23113136
168	0x3dcbc062	0.099488035
169	0xbdb2741d	-0.08713553
170	0xbe994b3b	-0.2994021
171	0xbec0cc48	-0.37655854
172	0x3ebcb14b	0.36854014
173	0x3d041810	0.03224951
174	0x3e0442c1	0.1291609
175	0xbe7b7fd1	-0.24560477
176	0x3d15c348	0.036563188
177	0xbed68298	-0.4189651
178	0xbe906ba4	-0.28207123
179	0xbe84a0ba	-0.25903875
180	0x3dc33157	0.09530895
181	0xbd067f01	-0.032835964
182	0x3e817516	0.25284642
183	0x3dfe8d1a	0.12429257
184	0x3dcb4c1f	0.09926628
185	0xbc9f1a8b	-0.019421836
186	0xbdd679df	-0.10472464
187	0xbe792143	-0.24329095
188	0xbe06903c	-0.13140959
189	0xbe41082a	-0.1885077
190	0x3db1d57a	0.086832955
191	0x3dc04fb4	0.09390202
192	0x3d93687d	0.07197664
193	0x3d41ee47	0.04734638
194	0xbdc32e1c	-0.09530279
195	0xbe8e02c7	-0.27736494
196	0xbc78e612	-0.015191572
197	0x3e26c2d2	0.16285256
198	0xbd20b388	-0.039233714
199	0xbda2b3d8	-0.07944459

rnn2.weight_ih f4 [200, 50]
0	0xbe3ea22f	-0.18616556
1	0x3f9f24e2	1.2433131
2	0xbec9dfe9	-0.39428642
3	0x3eb4c02b	0.35302863
4	0x3f4a855e	0.7910975
5	0xbf203fc1	-0.6259728
6	0xbdf8adb9	-0.1214251
7	0x3f38077b	0.71886414
8	0xbea75abd	-0.32686415
9	0x3f41ced9	0.7570625
10	0x3c283e13	0.010268706
11	0xbee601ad	-0.44923154
12	0x3efbdea5	0.49193302
13	0xbe7c2d2d	-0.24626608
14	0xbf2511e6	-0.64480436
15	0x3c0fac12	0.008769052
16	0x3e5c0d6a	0.21489492
17	0xbe5004da	-0.2031435
18	0x3fc5aa5e	1.5442617
19	0x3f01174a	0.5042616
20	0xbcac0c9c	-0.021002106
21	0xbf941693	-1.1569389
22	0xbe6048aa	-0.21902719
23	0x3f713677	0.9422373
24	0xbecdce64	-0.40196526
25	0xc00245bf	-2.035507
26	0xbfae94d6	-1.3639171
27	0x3f50f3a2	0.81621754
28	0xbe37ed33	-0.17961578
29	0x3e162848	0.14663804
30	0xbfb19bb2	-1.387564
31	0xbfb54c3a	-1.4163888
32	0x3eb0dec9	0.34544972
33	0x3df5c603	0.12000658
34	0xbddf05a2	-0.10889746
35	0xbf4f9645	-0.8108867
36	0xbe147b85	-0.14500244
37	0xbcd4c72a	-0.025973875
38	0x3eca459d	0.39506236
39	0x3f3adef6	0.7299646
40	0x3dbc5c71	0.09197319
41	0x3f3cb34a	0.73711073
42	0x3fa7a224	1.3096356
43	0x3eee580c	0.4655155
44	0xbe6f80a7	-0.2338892
45	0xbf27e25e	-0.65579784
46	0xbfcab39b	-1.5836061
47	0xbf28c86d	-0.65930825
48	0xbb5fdf0d	-0.0034160048
49	0x3e6e57a1	0.23275615
50	0xbf3545ed	-0.70809823
51	0x3e26963f	0.16268252
52	0xbe4a8f60	-0.19781256
53	0xbe0c8967	-0.1372429
54	0xbe69b54c	-0.22823066
55	0xbfae4551	-1.3614904
56	0x3ef65eeb	0.48119292
57	0xbf3569a7	-0.7086434
58	0x3d94e642	0.07270481
59	0xbea6abcb	-0.32552943
60	0xbdb15911	-0.08659566
61	0xbebf9ce0	-0.37424374
62	0xbece0038	-0.40234542
63	0xbda21f8b	-0.079161726
64	0xbf2f1d18	-0.6840377
65	0x3f0088d0	0.5020876
66	0x3da56e3c	0.08077666
67	0x3da5c4b8	0.08094162
68	0xbdc211cf	-0.09476053
69	0x3eb5569d	0.35417643
70	0x3f2ff839	0.6873813
71	0x3ca5b1e5	0.020226428
72	0xbfb80d26	-1.4379013
73	0xbf0fd925	-0.5619071
74	0xbe1647ea	-0.1467587
75	0xbe182105	-0.14856346
76	0x3ef39c92	0.4758039
77	0xbf458dbe	-0.77169406
78	0xbedc98d5	-0.43085352
79	0x3dc5c64d	0.096569635
80	0xbfa35acf	-1.2762088
81	0x3db655e1	0.08903099
82	0x3f3703a8	0.71489954
83	0xbf0a586a	-0.5404116
84	0xbf28a544	-0.65877175
85	0x3e735037	0.23761068
86	0x3eb32d93	0.34995708
87	0xbe501555	-0.20320638
88	0xbf3e382e	-0.74304473
89	0x3e27cf1f	0.16387604
90	0xbe2b60b2	-0.16736105
91	0x3df4d806	0.11955266
92	0x3e91fb79	0.2851217
93	0xbebceec7	-0.36900923
94	0x3f5b227c	0.85599494
95	0x3f582e1c	0.8444536
96	0x3f2ce31c	0.6753404
97	0xbf6392d9	-0.88895947
98	0x3fc1a5ed	1.5128762
99	0x3f512d87	0.81710094
100	0x3f7609e5	0.9610885
101	0x3df8c374	0.12146655
102	0xbe10af66	-0.14129409
103	0x3e05073f	0.12991045
104	0x3ee90dc9	0.4551833
105	0x3f0716b6	0.5276903
106	0xbf78d9e5	-0.9720748
107	0x3f63d9a5	0.89003974
108	0xbfb7a239	-1.4346381
109	0x3c58a61d	0.013223198
110	0x3fd3b6db	1.6540178
111	0x3fb7a124	1.4346051
112	0xbf36c9b8	-0.7140155
113	0xbe372aba	-0.17887393
114	0x3ee77503	0.4520646
115	0x3e3d5833	0.18490677
116	0xbe0a124d	-0.13483544
117	0xbf83bd74	-1.0292192
118	0x3f9c98c6	1.2234123
119	0x3e2e70d1	0.17035224
120	0xbfafea5d	-1.3743397
121	0xbfafecdb	-1.3744158
122	0x3f3087eb	0.68957394
123	0x3e85514c	0.26038587
124	0x3df75b65	0.12077979
125	0xbe777bd8	-0.24168336
126	0xbed7bf5f	-0.42138192
127	0x3ed29659	0.4113033
128	0xbeb39598	-0.35075068
129	0xbfaa2fcd	-1.3295838
130	0x3eed9a64	0.46406853
131	0xbfc5a4e3	-1.5440944
132	0xbf0f232a	-0.5591303
133	0x3d323191	0.0435043
134	0xbeb0545f	-0.3443937
135	0xbf9dce53	-1.232859
136	0xbe288738	-0.16457832
137	0xbf65ff36	-0.89842546
138	0xbf6abb45	-0.91692
139	0x3e6c68b1	0.23086812
140	0xbef8e9fb	-0.48616013
141	0x3e9250ad	0.28577176
142	0x3fa74bee	1.3070047
143	0x3fc8b3d6	1.5679882
144	0x3e0fe1d3	0.14050989
145	0x3dae7061	0.08517528
146	0xbec7f0d6	-0.3905093
147	0x3ee49a6e	0.4464907
148	0x3d0f085d	0.034920085
149	0x3d8ade11	0.06780637
150	0x3f0ae9ed	0.5426319
151	0x3ef85811	0.4850469
152	0x3f1b69af	0.60708135
153	0x3ef3da87	0.4762766
154	0x3d49f65f	0.049307223
155	0xbdc6c2e5	-0.09705142
156	0x3da78a48	0.08180672
157	0x3ec40584	0.38285458
158	0xbf33bba2	-0.7020818
159	0x3eac46e0	0.33647823
160	0xbe2223ba	-0.15833941
161	0x3f3d309b	0.7390229
162	0x3e94e1f8	0.2907865
163	0xbdf39fc5	-0.11895708
164	0xbe94384a	-0.28949195
165	0x3e9ae3a4	0.302518
166	0xbd0ecb71	-0.034861986
167	0xbeed55d6	-0.4635455
168	0x3f77425d	0.9658564
169	0x3e98b25e	0.29823583
170	0xbf0afb81	-0.54290015
171	0xbe9a3d81	-0.3012505
172	0x3eda2564	0.42606652
173	0xbe84c90c	-0.25934637
174	0x3f410486	0.7539753
175	0xbe1413b6	-0.14460644
176	0xbf025c64	-0.50922227
177	0xbe831b86	-0.25606936
178	0xbf2b39e1	-0.6688519
179	0xbb9e909e	-0.004839017
180	0xbfb6823d	-1.4258496
181	0xbee9d3b8	-0.4566934
182	0xbf1feb8c	-0.6246879
183	0x3d82dee7	0.063901715
184	0xbeff16eb	-0.49822173
185	0xbf95b404	-1.1695561
186	0xbea91b82	-0.330288
187	0x3d285c53	0.041103672
188	0xbeadb17d	-0.33924475
189	0x3eaf033d	0.34182158
190	0xbf48ce84	-0.7844012
191	0x3f4dd219	0.8039871
192	0x3f57b21d	0.84256154
193	0xbec0395a	-0.37543756
194	0xbe717e3f	-0.23583315
195	0xbf014e82	-0.5051042
196	0xbf3d8768	-0.7403474
197	0x3c3562f9	0.01107096
198	0x3e6ec254	0.23316318
199	0x3cc946e1	0.02456993
200	0xbf4b1457	-0.7932791
201	0x3e9ab934	0.30219424
202	0x3f290d62	0.66036046
203	0xbe2f379c	-0.17111057
204	0xbee3a337	-0.4446046
205	0x3f8ffa68	1.1248293
206	0x3f5bcebb	0.8586232
207	0xbee947f7	-0.45562717
208	0x3f17c2b0	0.59281445
209	0x3f5bd838	0.858768
210	0xbf66fdec	-0.90231204
211	0x401fd6eb	2.4974926
212	0x3fb0f9ad	1.3826195
213	0x3e26122c	0.1621787
214	0xbf8ce059	-1.1005965
215	0xbf00dd28	-0.5033746
216	0xbf37b148	-0.71754885
217	0x3f8ed14f	1.1157626
218	0x3fa3c00e	1.2792985
219	0x3ead6270	0.33864164
220	0x3f1b19c0	0.60586166
221	0x3ed89fc2	0.42309386
222	0x3e83dccf	0.257544
223	0x3f2da3b1	0.678279
224	0xbf1fd377	-0.62432045
225	0xbf133348	-0.57500124
226	0x3f6be78c	0.9215019
227	0xbdd258c1	-0.10270835
228	0xbfab5e6f	-1.3388194
229	0xbe9f6074	-0.31128275
230	0xbe417589	-0.18892492
231	0x3f317c1d	0.69330007
232	0xbf146b28	-0.5797601
233	0x3d6499bf	0.055810686
234	0xbe143e85	-0.14476974
235	0xbf01f83e	-0.5076941
236	0x3f37834d	0.71684724
237	0x3f4128cc	0.75452876
238	0x3fbac831	1.4592344
239	0xbf1a898f	-0.6036615
240	0xbda9bdd6	-0.082881615
241	0xbe57457f	-0.21022604
242	0x3f513adc	0.8173044
243	0xbf6c2edc	-0.92259
244	0x3ed29cdf	0.41135308
245	0x3f333f2a	0.70018256
246	0x3f3c5b35	0.7357667
247	0x3f5c0312	0.85942185
248	0xbf2e5752	-0.6810199
249	0x3e4fc280	0.2028904
250	0xbe33b65d	-0.17550035
251	0xbd31a046	-0.04336574
252	0xbe773125	-0.24139841
253	0xbf0e1b6d	-0.555106
254	0x3e3623ba	0.17787066
255	0xbef02338	-0.4690187

rnn2.weight_hh f4 [200, 50]
0	0xbedc7abd	-0.43062392
1	0xbd7bf854	-0.06151612
2	0x3eea405f	0.45752236
3	0xbe4f2493	-0.20228796
4	0xbe979116	-0.2960288
5	0xbd1b8f9d	-0.037978757
6	0x3c0be57c	0.0085386
7	0x3ca5c41d	0.020235116
8	0x3ea4e37d	0.3220481
9	0xbe27e6ca	-0.16396633
10	0x3e55fb6f	0.20896696
11	0x3d83d68d	0.06437407
12	0xbdd1b491	-0.102395184
13	0xbdb4c668	-0.088269055
14	0x3e9be53c	0.3044833
15	0xbe2dd4a8	-0.16975653
16	0xbcb8c9f8	-0.022557244
17	0x3e630e7b	0.22173493
18	0x3d0a16d8	0.03371319
19	0x3ea42f67	0.32067415
20	0xbdfa5512	-0.12223257
21	0x3d9f67fb	0.077835046
22	0x3e9c15d5	0.30485407
23	0x3e0a6144	0.13513666
24	0xbe19c494	-0.15016395
25	0x3e496323	0.19666724
26	0x3f97b394	1.1851678
27	0x3df21358	0.11820096
28	0x3e6fef6a	0.23431173
29	0xbe11fc3b	-0.14256375
30	0x3e9ecb96	0.310147
31	0xbd8fd26b	-0.07022556
32	0x3e1948e8	0.14969218
33	0xbed9b913	-0.42524013
34	0x3ef80127	0.4843838
35	0x3ddfd5f3	0.109294794
36	0xbe912fec	-0.28356874
37	0x3ea4917b	0.32142243
38	0x3d24649c	0.04013501
39	0xbe67f440	-0.22651768
40	0xbcfc8c04	-0.030828483
41	0x3de47127	0.111543946
42	0xbe25c694	-0.16189033
43	0x3edc337d	0.43008032
44	0x3d9bca68	0.07606965
45	0x3cd9c12d	0.026581371
46	0x3e594b64	0.21220165
47	0x3d7a061e	0.06104099
48	0xbd993c23	-0.07482173
49	0xbf0a04b0	-0.539134
50	0xbdaa9658	-0.08329457
51	0x3d9b7a44	0.0759168
52	0x3f957ee3	1.1679348
53	0x3fa763f0	1.3077374
54	0xbef41ff0	-0.47680616
55	0x3f8d3aea	1.1033604
56	0x3e8f8728	0.28032804
57	0xbea20cd5	-0.31650415
58	0xbf2ec0f1	-0.68263155
59	0xbfd79fdf	-1.6845664
60	0x3e6a38d0	0.22873235
61	0xbd2515e0	-0.040304065
62	0xbe860a31	-0.2617965
63	0xbf0a3e15	-0.5400098
64	0x3f39b847	0.7254681
65	0xbe9fb48d	-0.31192437
66	0x3f8d8455	1.105601
67	0x3e2a1743	0.16610436
68	0x3f6aea02	0.9176332
69	0xbf914bc3	-1.1351246
70	0xbfe4680b	-1.7844251
71	0x3f23ef22	0.6403676
72	0xbf66f38e	-0.90215385
73	0x3f6954ba	0.9114491
74	0xbebbcee7	-0.3668129
75	0xbf0b2c67	-0.5436463
76	0xbf5a778f	-0.8533868
77	0x3dab618c	0.08368215
78	0x3ea108fb	0.31452164
79	0xbeeb708d	-0.45984307
80	0x3f33cb3a	0.70231974
81	0x3f710695	0.9415067
82	0xbfbdc9af	-1.4827174
83	0xbf08c3d7	-0.5342383
84	0xbe2ebd47	-0.17064391
85	0xbff4a676	-1.91133
86	0xbf4e7b1a	-0.8065659
87	0xbfa991c8	-1.3247614
88	0x3f5df6b5	0.8670457
89	0xbf25f6c8	-0.64829683
90	0x3e2d558b	0.16927163
91	0x3ed2d6f8	0.41179633
92	0xbf058998	-0.52163076
93	0xbf365e28	-0.7123742
94	0xbf3d3d83	-0.73921984
95	0x3f433ea9	0.76267487
96	0x3e806014	0.25073302
97	0x3f226d35	0.63447887
98	0xbf5bba17	-0.85830826
99	0xbf6d315f	-0.9265346
100	0xbf094a3c	-0.536289
101	0xbe313fcf	-0.17309497
102	0x3f9a0f85	1.2035986
103	0xbe7ecd3d	-0.2488298
104	0xbed4004c	-0.41406476
105	0x3ed4f259	0.41591147
106	0xbf889ee2	-1.0673487
107	0xbebe2008	-0.37133813
108	0x3e94fa5f	0.29097268
109	0xbf2259d8	-0.6341834
110	0xbdc74963	-0.09730794
111	0xbcfb7f1b	-0.030700257
112	0x3e8e018a	0.2773555
113	0xbf4410ab	-0.76587933
114	0x3fba06df	1.4533347
115	0xbf7d173b	-0.9886357
116	0xbe765abf	-0.24058054
117	0xbf07e18d	-0.5307854
118	0xbea8121e	-0.32826322
119	0x3ba8deb9	0.0051535037
120	0x3f10aa82	0.56510174
121	0xbf91d94f	-1.1394442
122	0xbea0c449	-0.31399754
123	0xbea777e7	-0.32708666
124	0x3efd45dd	0.49467364
125	0xbe9db739	-0.3080385
126	0xbf6bf4b6	-0.92170274
127	0xbf1f96d6	-0.6233953
128	0xbf31c49a	-0.69440615
129	0xbf2e1b66	-0.68010557
130	0xbe890594	-0.26762068
131	0xbf0ce57a	-0.55037653
132	0x3d0e0b1e	0.03467857
133	0x3f88c9b6	1.0686557
134	0xbe90a63f	-0.28251836
135	0xbdd6365a	-0.104595855
136	0xbe6b31a2	-0.22968152
137	0xbf455b15	-0.77092105
138	0x3ef52626	0.47880667
139	0xbef51d46	-0.47873896
140	0x4009628f	2.1466405
141	0xbec76a7f	-0.38948438
142	0x3fa99e7e	1.3251493
143	0xbd80ad36	-0.06283037
144	0x3ead7170	0.33875608
145	0x3f41160d	0.7542427
146	0x3f595ffc	0.84912086
147	0x3dc8ca12	0.09804167
148	0xbf94a22b	-1.161199
149	0x3f6510df	0.8947887
150	0xbedfa8d3	-0.4368349
151	0x3e71d233	0.23615341
152	0xbec111e0	-0.3770895
153	0x3edffa97	0.43745872
154	0xbe65dbf1	-0.22447182
155	0x3e73234c	0.23743933
156	0x3d8c5e71	0.06853951
157	0xbef82e45	-0.484728
158	0x3dfc920e	0.12332545
159	0x3ef52b4c	0.47884595
160	0x3f343d5a	0.70406115
161	0xbe9576d0	-0.2919221
162	0xbec407d5	-0.38287225
163	0x3f3abee8	0.7294755
164	0x3db3e20e	0.08783351
165	0xbe22ce10	-0.15898919
166	0x3e5fee2e	0.21868202
167	0xbe0b9c2c	-0.13633794
168	0x3db6f457	0.08933323
169	0xbd9e2267	-0.077214055
170	0x3e3e24cf	0.18568729
171	0x3f6552e2	0.89579594
172	0x3ec77fce	0.38964695
173	0xbea46f98	-0.3211639
174	0xbd0d9497	-0.034565534
175	0xbe5fa36f	-0.21839689
176	0x3f34f6af	0.7068891
177	0x3ede48ff	0.43415067
178	0xbd9f74a0	-0.07785916
179	0xbf51ddcd	-0.81979066
180	0x3ea59df9	0.32347086
181	0x3f2981b5	0.6621354
182	0xbd7319df	-0.059350844
183	0xbfa93e87	-1.3222207
184	0x3d2f7c0a	0.042842902
185	0xbd5bbdfe	-0.053647988
186	0x3d8a6fce	0.06759606
187	0x3ea09280	0.3136177
188	0x3e1c469d	0.15261312
189	0xbb82ff2c	-0.003997704
190	0x3e66ad96	0.22527155
191	0x3e8f35af	0.27970645
192	0xbf21ca44	-0.6319926
193	0xbe0b825d	-0.13623948
194	0xbf721c68	-0.94574594
195	0x3a256d60	0.00063105486
196	0x3ed49626	0.41520804
197	0x3f506117	0.8139815
198	0x3e4e4f75	0.20147498
199	0x3e9dff0c	0.30858648
200	0x3f65a834	0.8970978
201	0xbf845790	-1.0339222
202	0x3f5cda3c	0.862705
203	0x3f6880a1	0.9082127
204	0xbac79514	-0.0015226924
205	0xbf20c450	-0.6279955
206	0xbe6d12f5	-0.23151763
207	0xbedea3df	-0.434844
208	0x3eb9d7b3	0.36297378
209	0xc0129ea9	-2.2909338
210	0x3f101d09	0.56294304
211	0xbe9a460c	-0.30131567
212	0x3f0a704e	0.54077613
213	0x3e081c40	0.13292027
214	0x3dc39ed1	0.09551776
215	0x3da9166a	0.08256228
216	0xbf14fb78	-0.5819621
217	0xbe369913	-0.1783183
218	0x3d5a41de	0.053285472
219	0x3f02f4a3	0.51154536
220	0x3f0135dd	0.50472814
221	0xbf26eeae	-0.65207946
222	0xbe366a5d	-0.17814012
223	0x3f229a0f	0.63516325
224	0xbe2719b4	-0.16318399
225	0x3ee69b48	0.45040345
226	0x3fc5f437	1.5465153
227	0xbec899c8	-0.39179826
228	0xbf19c24b	-0.6006209
229	0xbee2668b	-0.4421886
230	0x3ec30018	0.3808601
231	0xbf316be4	-0.69305253
232	0xbf4c68de	-0.79847515
233	0xbde61f0e	-0.11236392
234	0x3f141d8a	0.57857573
235	0x3df650c2	0.12027122
236	0xbefee1c6	-0.49781626
237	0x3d30c290	0.0431543
238	0xbf5b9ee9	-0.8578935
239	0xbf849d0d	-1.0360428
240	0x3fb573cc	1.4175963
241	0x40098a51	2.1490672
242	0x3f6d28f4	0.92640615
243	0x3f760254	0.960973
244	0xbea42f73	-0.3206745
245	0xbfa9f8d4	-1.3279061
246	0x3f25d1e9	0.6477342
247	0xbeb54b7f	-0.3540916
248	0xbf5f93cf	-0.87334913
249	0xbf505385	-0.8137744
250	0xbfa9633e	-1.3233411
251	0xbe37912a	-0.1792647
252	0xbe09bdbe	-0.13451287
253	0x3f8bbf27	1.091771
254	0xbe60b6df	-0.2194476
255	0x3ed00751	0.40630582

rnn2.bias_ih f4 [200]
0	0xbd2c27b9	-0.04203007
1	0x3d42726b	0.0474724
2	0xbd84fff2	-0.0649413
3	0x3ecf9c82	0.40549093
4	0xbd33023f	-0.043703314
5	0x3e25c756	0.16189322
6	0x3e82a243	0.2551442
7	0xbf28dcbc	-0.65961814
8	0x3ef4f162	0.4784041
9	0x3ef1b62e	0.47209305
10	0x3e8e2dfd	0.2776946
11	0xbeb333b9	-0.350004
12	0xbe0e8034	-0.13916093
13	0x3d9bf2e7	0.07614689
14	0x3e8661a3	0.26246366
15	0xbca20345	-0.01977695
16	0xbdc48b52	-0.09596886
17	0x3f540988	0.82827044
18	0x3ec7ef16	0.39049596
19	0x3ea10f6e	0.31457084
20	0x3f26b671	0.65122133
21	0x3c21c85f	0.009874432
22	0x3ea27c8b	0.31735644
23	0x3ef1000a	0.47070342
24	0xbdebd87b	-0.115159
25	0x3f019210	0.506135
26	0x3f3b5261	0.73172575
27	0x3ef31517	0.47477028
28	0xbe370c04	-0.17875677
29	0x3e8fe27c	0.2810248
30	0xbdb262da	-0.08710261
31	0x3eaf9b50	0.34298182
32	0x3e558927	0.208531
33	0xbf17e153	-0.5932819
34	0xbd9816f4	-0.07426253
35	0x3db515e7	0.08842068
36	0xbcd72b31	-0.026265712
37	0x3eb01d3e	0.3439731
38	0xbf236071	-0.6381903
39	0x3c13be2a	0.009017507
40	0x3e76f3aa	0.24116388
41	0x3ce7097b	0.028202763
42	0xbe677f5b	-0.22607176
43	0x3e5d91bb	0.21637623
44	0x3dd6f4fc	0.10495946
45	0xbe502f33	-0.20330505
46	0xbef04b38	-0.46932387
47	0xbdb457ed	-0.08805833
48	0x3ec6ac66	0.38803405
49	0x3e1dd1bf	0.15412043
50	0x3ec0be18	0.3764503
51	0x3f14617f	0.5796127
52	0xbbc3359b	-0.005957318
53	0x3e15d46a	0.14631811
54	0xbd7621df	-0.060090896
55	0x3e6450bb	0.22296421
56	0xbe3e40d5	-0.18579419
57	0xbe1e50bf	-0.1546049
58	0x3e5371ed	0.20648928
59	0x3d2d28a2	0.04227508
60	0x3dfbd361	0.12296177
61	0x3ec0af97	0.37633964
62	0xbec761d8	-0.38941836
63	0xbe81e684	-0.25371182
64	0x3eb06d16	0.34458226
65	0x3ed0f8b6	0.4081475
66	0x3d6354b5	0.055500705
67	0x3ec3af7d	0.38219824
68	0x3ec873d4	0.3915087
69	0x3e0d6d58	0.13811243
70	0x3e870cb8	0.2637689
71	0xbe56c1ce	-0.20972368
72	0x3ec2fe5f	0.38084695
73	0x3d54e234	0.051973537
74	0x3d872faa	0.06600888
75	0x3eb7e809	0.35919216
76	0xbe98bea7	-0.29832956
77	0x3e86af03	0.26305398
78	0xbdfe504a	-0.12417658
79	0x3d3fdc92	0.04684121
80	0x3ed4544a	0.41470557
81	0x3ebdf9c2	0.37104613
82	0x3e1ee4f2	0.15517023
83	0x3ebc3b37	0.36763927
84	0x3e5c4486	0.21510515
85	0x3e16f0c5	0.14740284
86	0x3efb1c20	0.49044895
87	0x3d549eb2	0.051909156
88	0x3d430f1a	0.047621824
89	0x3d4bafdc	0.04972826
90	0x3e722549	0.23647036
91	0x3e8c1901	0.27362826
92	0x3e8d13e1	0.2755423
93	0x3e787890	0.24264741
94	0xbde62fc5	-0.1123958
95	0x3e1ac926	0.15115795
96	0x3e8ff6f2	0.28118092
97	0xbe17ec7d	-0.14836307
98	0xbe9400f0	-0.28906965
99	0x3d970929	0.07374794
100	0xbec53df8	-0.3852384
101	0x3f2b1619	0.66830593
102	0x3ee6c7c0	0.45074272
103	0x3eeb50c3	0.45960054
104	0xbe92be1b	-0.28660664
105	0x3ec9c6e2	0.39409548
106	0x3eab6117	0.3347251
107	0xbebdb361	-0.37050918
108	0xbeb07de6	-0.34471053
109	0xbed3e7c5	-0.41387764
110	0x3e8c2b17	0.27376625
111	0x3e54832e	0.20753166
112	0xbe19d0b8	-0.15021026
113	0x3d5e8923	0.054330003
114	0x3e94f465	0.29092708
115	0xbeb526b4	-0.3538109
116	0x3eaa111a	0.33216172
117	0xbf184602	-0.59481823
118	0x3ea0b100	0.3138504
119	0xbf09b74a	-0.537953
120	0xbe542c71	-0.20720078
121	0x3f0ba3ef	0.5454702
122	0xbee96833	-0.4558731
123	0x3f01e245	0.50735885
124	0xbec8cd45	-0.39219108
125	0xbebf27a7	-0.3733494
126	0x3e091c0e	0.13389608
127	0x3ebc1339	0.36733416
128	0xbe8ccf92	-0.27502114
129	0xbe55b995	-0.20871575
130	0x3ea53a83	0.32271203
131	0x3f09c426	0.53814924
132	0xbe70ab3e	-0.23502824
133	0xbe73de72	-0.23815325
134	0x3ed561eb	0.41676268
135	0xbeed5766	-0.46355742
136	0xbec7fdb1	-0.3906074
137	0xbeaec018	-0.3413093
138	0x3e2c994b	0.16855352
139	0xbeb234fc	-0.3480605
140	0x3f02b882	0.51062787
141	0x3ec2e695	0.38066545
142	0xbd95e1e5	-0.073184766
143	0xbf29a9be	-0.6627463
144	0xbed76c3d	-0.42074767
145	0x3ef5ebaa	0.4803136
146	0x3e7d6a24	0.2474752
147	0x3ecfa365	0.40554348
148	0xbebd4416	-0.36966008
149	0xbea2decb	-0.31810603
150	0xbcad2e75	-0.021140317
151	0xbe9195e2	-0.28434664
152	0xbe335f4c	-0.17516822
153	0xbe4cdff7	-0.20007311
154	0xbe147913	-0.14499311
155	0xbdf2c799	-0.118544765
156	0xbd4144fd	-0.047184933
157	0xbf14ada6	-0.58077466
158	0x3db65b90	0.08904183
159	0xbe3667c2	-0.17813018
160	0xbd91fd91	-0.07128442
161	0xbf147327	-0.5798821
162	0x3d1f19cf	0.038842972
163	0xbec11cef	-0.37717387
164	0xbe7d412b	-0.24731891
165	0xbd8e12c9	-0.06937177
166	0x3d82e620	0.06391549
167	0xbe958553	-0.2920328
168	0x3be1de43	0.0068929507
169	0xbe8108b7	-0.2520196
170	0x3df2950b	0.11844834
171	0xbe1c9c1a	-0.15293923
172	0xbcb4a4e2	-0.022051279
173	0xbdf4a1c9	-0.119449206
174	0x3db13551	0.086527474
175	0xbe162677	-0.1466311
176	0x3edff450	0.43741083
177	0x3ed7ce1d	0.4214944
178	0x3ebd5a36	0.36982888
179	0xbdfb0515	-0.12256829
180	0xbea75324	-0.3268062
181	0xbd444ed3	-0.047926735
182	0xbda6bb00	-0.08141136
183	0xbe939dfc	-0.2883147
184	0xbf3627ac	-0.71154284
185	0x3d85fb23	0.06542041
186	0xbe9d4cd1	-0.3072267
187	0xbdf3f7c4	-0.11912492
188	0xbd54056c	-0.051762983
189	0xbe7f7f5f	-0.24950932
190	0xbf0f98fe	-0.5609282
191	0x3e88f0c3	0.26746187
192	0x3c22e9b3	0.009943414
193	0x3dd4f609	0.1039849
194	0x3d79119e	0.060807817
195	0x3db10dc1	0.086452015
196	0xbdac7b98	-0.08422011
197	0x3ea4b589	0.3216975
198	0xbd58c5f5	-0.05292316
199	0xbe01e4ff	-0.12685011

rnn2.bias_hh f4 [200]
0	0x3bad23e7	0.005283821
1	0x3e3bf39f	0.18354653
2	0xbdba5504	-0.09098247
3	0x3f07a63f	0.52988046
4	0x3d82c70b	0.06385621
5	0x3d81c43c	0.06336257
6	0x3e208063	0.15673976
7	0xbf1faa30	-0.6236906
8	0x3e84e155	0.25953165
9	0x3e61776f	0.22018217
10	0x3e040c88	0.12895405
11	0xbeac3124	-0.3363124
12	0xbe947ece	-0.29002994
13	0xbdc39493	-0.09549823
14	0x3e530790	0.20608354
15	0xbd0b3b16	-0.033991896
16	0xbca1df0f	-0.019759683
17	0x3f41d918	0.75721884
18	0x3ed61bbe	0.4181804
19	0x3ec192b0	0.37807226
20	0x3ed4042a	0.41409427
21	0x3e8236da	0.25432473
22	0x3ec3a512	0.38211876
23	0x3ec146d6	0.37749356
24	0xbb353a1c	-0.0027653044
25	0x3ee0a6d0	0.43877268
26	0x3f16a97d	0.5885237
27	0x3ef40232	0.47657925
28	0xbd86f721	-0.06590105
29	0x3e29da88	0.1658727
30	0xbe5992f3	-0.21247463
31	0x3eaf91b9	0.34290865
32	0x3e64718b	0.22308938
33	0xbec4887a	-0.38385373
34	0xbcfccf59	-0.03086059
35	0x3c028e50	0.0079685
36	0x3dc71299	0.09720344
37	0x3eb18d9d	0.34678355
38	0xbef6ae6c	-0.48179948
39	0x3e2d6752	0.16933945
40	0x3d819a5b	0.06328269
41	0x3d131ad0	0.035914242
42	0xbe5716bf	-0.2100477
43	0x3cc22da2	0.0237034
44	0x3aefdec0	0.0018300638
45	0xbddfe535	-0.1093239
46	0xbed0a66f	-0.4075198
47	0x3dc19f8c	0.09454259
48	0x3eac2df5	0.33628812
49	0x3dc965a1	0.09833837
50	0x3e950c10	0.29110765
51	0x3f045a6d	0.5170048
52	0x3cfceef7	0.030875666
53	0x3d8b100e	0.067901716
54	0x3cfba7e0	0.030719697
55	0x3e9cf13d	0.306528
56	0xbe56e44e	-0.20985529
57	0xbe273bd8	-0.16331422
58	0x3e92ca2f	0.2866988
59	0xbd718b8f	-0.058970984
60	0x3d54cc16	0.051952444
61	0x3eba9601	0.3644257
62	0xbee3ba6e	-0.44478172
63	0xbe681912	-0.22665814
64	0x3edd06e3	0.43169317
65	0x3f053bf2	0.52044594
66	0x3de532ca	0.11191328
67	0x3e87bcdd	0.2651128
68	0x3e88e591	0.26737645
69	0x3e1a7c30	0.15086436
70	0x3e648d89	0.22319616
71	0xbeb0bef1	-0.34520677
72	0x3f0d11ef	0.5510549
73	0x3e4f6688	0.20253956
74	0x3e409f63	0.18810801
75	0x3eaacab6	0.3335778
76	0xbeb0677e	-0.34453958
77	0x3e7f8215	0.24951966
78	0xbe568f62	-0.20953134
79	0x3d967f46	0.07348494
80	0x3e593244	0.21210581
81	0x3ecd9abf	0.40157124
82	0x3b95f148	0.004575882
83	0x3f0a3e48	0.54001284
84	0x3e6cf577	0.23140512
85	0x3dc193fd	0.09452055
86	0x3efd69e0	0.4949484
87	0x3d02b748	0.031913072
88	0xbdd1c39f	-0.1024239
89	0x3e60da83	0.21958356
90	0x3d2ccd2c	0.042187855
91	0x3edd5e75	0.43236127
92	0x3eb3a2f9	0.35085276
93	0x3ef456dd	0.4772252
94	0x3e264c7c	0.16240114
95	0x3dbf5c62	0.093437925
96	0x3e6e455a	0.23268643
97	0xbeaa619c	-0.33277595
98	0xbdfc30c0	-0.12313986
99	0x3d8f8657	0.07008045
100	0xbec18235	-0.37794653
101	0x3f0bf334	0.54667974
102	0x3ec658af	0.38739535
103	0x3efbf220	0.49208164
104	0xbec2651f	-0.37967774
105	0x3eded61f	0.43522736
106	0x3ecf9006	0.4053957
107	0xbec2f703	-0.3807908
108	0xbe635146	-0.22198972
109	0xbf14e718	-0.5816512
110	0x3ee71ddd	0.4513997
111	0x3e86eea9	0.26353958
112	0x3d7f2b87	0.06229737
113	0x3dcd18ef	0.10014521
114	0x3e8408c6	0.25787944
115	0xbec6adb0	-0.38804388
116	0x3ee8934d	0.45424882
117	0xbee05bf9	-0.4382017
118	0x3f0ed37c	0.5579145
119	0xbed639af	-0.41840884
120	0xbe247a43	-0.16062264
121	0x3f073be8	0.52825785
122	0xbf0b0be8	-0.5431504
123	0x3ea9b391	0.3314481
124	0xbef42b85	-0.47689453
125	0xbec1fa8d	-0.37886468
126	0x3e0d30c7	0.13788138
127	0x3f06ec84	0.52704644
128	0xbe90a5d0	-0.28251505
129	0xbe21ac70	-0.15788436
130	0x3e8a3131	0.26990655
131	0x3f158446	0.5840496
132	0xbec9786a	-0.3934968
133	0xbe72e624	-0.23720604
134	0x3ef9493d	0.4868869
135	0xbebeb01d	-0.3724374
136	0xbeac407d	-0.3364295
137	0xbeefc61e	-0.4683084
138	0x3e654184	0.22388273
139	0xbef83693	-0.48479137
140	0x3ee69f46	0.4504339
141	0x3ed8edac	0.4236883
142	0x3e14596f	0.14487241
143	0xbf18a877	-0.59632057
144	0xbf0631db	-0.52419823
145	0x3ed628c1	0.41827968
146	0x3ee58a02	0.44831854
147	0x3e504ddf	0.20342205
148	0xbee21b8c	-0.44161642
149	0xbebbcd4d	-0.3668007
150	0xbd81dfbd	-0.06341503
151	0xbecaa854	-0.3958155
152	0xbde6b7e8	-0.11265546
153	0xbe99732f	-0.2997069
154	0xbe24c46f	-0.16090558
155	0xbd4b8a7c	-0.049692616
156	0x3c1d6057	0.009605489
157	0xbf23b6d2	-0.63950837
158	0x3df3dc72	0.11907281
159	0xbe90318e	-0.28162807
160	0xbe10a0b4	-0.14123803
161	0xbf127223	-0.5720541
162	0x3d38e2ff	0.045138355
163	0xbe7119df	-0.23545025
164	0xbe496166	-0.19666061
165	0x3dd95bbf	0.10613202
166	0x3d592cd7	0.05302128
167	0xbd970f8b	-0.073760115
168	0xbc81b19b	-0.01583176
169	0xbe296812	-0.16543606
170	0x3d565a12	0.05233199
171	0xbc1d5732	-0.0096033085
172	0x3e28ea0c	0.16495532
173	0xbe8f4599	-0.27982786
174	0xbdcfb7d5	-0.10142485
175	0xbdc4923e	-0.09598206
176	0x3f32bf0d	0.6982277
177	0x3eb99898	0.36249232
178	0x3e956839	0.29181078
179	0xbebb7a26	-0.3661663
180	0xbe9271e4	-0.28602517
181	0xbcfcd1e5	-0.030861804
182	0xbe108f23	-0.14117102
183	0xbea362ac	-0.31911218
184	0xbf18f6b5	-0.59751445
185	0x3e5739ee	0.21018192
186	0xbeab6d46	-0.33481807
187	0x3e1405ce	0.1445534
188	0xbde2e6c3	-0.110791706
189	0xbea2c98d	-0.31794396
190	0xbec9bfc7	-0.39404127
191	0x3e8c5449	0.27408054
192	0xbe72b619	-0.23702277
193	0xbd8fc6b5	-0.07020322
194	0x3e1eabe1	0.15495254
195	0x3e9786b6	0.29594964
196	0xbe1ea09a	-0.15490952
197	0x3ec533ab	0.38515982
198	0xbde64232	-0.112430945
199	0xbd22c4da	-0.039738514
