Results/Complete Sherlock Holmes/GRU/Adam/1/200/model.pt (torch, 807519 bytes, 6 tensors)

rnn.weight_ih f4 [600, 100]
0	0xbe7bdc32	-0.24595717
1	0xbedc4c1b	-0.43026814
2	0xbec8c1a0	-0.39210224
3	0xbcb9a8d3	-0.02266351
4	0xbe66a9ab	-0.2252566
5	0xbf0537ab	-0.5203807
6	0x3eb9c09d	0.36279765
7	0x3de10813	0.10987868
8	0xbee62fdf	-0.44958398
9	0x3f5aa2fe	0.85404956
10	0xbedd9567	-0.43278047
11	0xbfa4a709	-1.2863475
12	0x3fb6f4b6	1.429343
13	0x3f63daf4	0.8900597
14	0xbe71e607	-0.23622905
15	0xbf413728	-0.75474787
16	0xbdde1c36	-0.108452246
17	0x3f200f52	0.62523377
18	0xbf23ba04	-0.6395571
19	0x3f9c8ec8	1.2231073
20	0x3e7d232d	0.2472045
21	0xbfef2bf9	-1.8685294
22	0x3c6b65df	0.01436755
23	0xbfeb4811	-1.8381368
24	0x3f55330c	0.83281016
25	0x3f28c99f	0.6593265
26	0x3f86e5fe	1.0538938
27	0x3f797e30	0.9745817
28	0x3fc624a4	1.5479932
29	0xc0797166	-3.8975463
30	0x3fdd8d8c	1.7308822
31	0x3db31ee6	0.08746128
32	0xc01c57d6	-2.442861
33	0xbe617745	-0.22018154
34	0x3f0525a9	0.5201059
35	0xbfe99802	-1.8249514
36	0x3e799f60	0.24377203
37	0xbf354db4	-0.7082169
38	0xbdf893e2	-0.121375814
39	0x3ca98e00	0.020697594
40	0xbf28f7f9	-0.66003376
41	0xbe1827db	-0.14858954
42	0xbe1368c2	-0.1439543
43	0x3f899fe9	1.0751926
44	0xbece8499	-0.4033554
45	0xbdcbbe9a	-0.09948464
46	0xbcdbc6c3	-0.026828175
47	0x3e6aac5a	0.2291731
48	0xbf27caf8	-0.6554408
49	0x3e9bd4d5	0.30435815
50	0x3d7d67ec	0.061866686
51	0x3f7d6b7a	0.9899212
52	0x3f029a12	0.5101634
53	0x3f33cf8b	0.7023856
54	0x3e2e11b7	0.16998945
55	0xbe6e64c7	-0.23280631
56	0x3f15d19b	0.5852296
57	0x3eb54c15	0.35409608
58	0xbf42ceb2	-0.7609664
59	0xbe3debb1	-0.1854694
60	0xbef07457	-0.4696376
61	0xbed0a029	-0.40747193
62	0xbf388f51	-0.72093683
63	0xbfb91a52	-1.4461157
64	0x3d269950	0.040673554
65	0xbc59f1c4	-0.01330227
66	0xbd877a74	-0.06615153
67	0x3ed9520f	0.42445418
68	0x3f81be79	1.0136253
69	0xbe7aac66	-0.24479827
70	0xbef61be4	-0.48068154
71	0x3d9a3e95	0.07531468
72	0x3ade8940	0.001697816
73	0xbf8299c6	-1.0203178
74	0xbf980614	-1.1876855
75	0xbf05d686	-0.5228046
76	0x3d78eea2	0.060774453
77	0xbf17a250	-0.59232044
78	0xbeb80f6f	-0.35949275
79	0xbc9d87e0	-0.01922983
80	0x3d83cb4f	0.064352624
81	0x3c61b850	0.013776854
82	0x3f2e3423	0.68048304
83	0x3d819325	0.06326894
84	0x3f09db74	0.53850484
85	0xbd81ec62	-0.063439146
86	0x3ea58d14	0.32334197
87	0x3d29e5a2	0.04147876
88	0x3c5cdc78	0.013480298
89	0xbe4f97c7	-0.20272742
90	0x3cf1aacc	0.029500388
91	0xbc3336e4	-0.01093838
92	0x3d389228	0.04506126
93	0xbb1ade20	-0.0023630932
94	0xbfb56d3a	-1.4173958
95	0x3d7af706	0.061270736
96	0xbea69333	-0.3253418
97	0x3d31aa88	0.043375522
98	0xbd44bfae	-0.048034362
99	0xbd5f36f0	-0.05449575
100	0x3d7d5360	0.06184709
101	0x3ebc37c3	0.36761293
102	0xbc979014	-0.018501319
103	0x3d3f9e4f	0.046781834
104	0x3f4a000b	0.78906316
105	0x3d37ebc2	0.04490257
106	0xbdece82f	-0.11567723
107	0xbe9825f6	-0.29716462
108	0x3eee0d79	0.46494654
109	0x3d6f75cf	0.05846196
110	0x3ec6763f	0.3876209
111	0x3f9fcec9	1.2484981
112	0xbf526440	-0.8218422
113	0x3d951249	0.07278878
114	0xbf7f870b	-0.99815434
115	0x3f48c5e3	0.7842695
116	0xbf3381c0	-0.7011986
117	0xbd859821	-0.06523157
118	0xc011104a	-2.2666192
119	0x3f1b4117	0.60646194
120	0x3fbab8e1	1.458767
121	0x3e87da30	0.2653365
122	0xbe1c40c9	-0.15259089
123	0x3f5454b5	0.8294175
124	0x3e95537e	0.29165262
125	0xbf283d53	-0.65718573
126	0xbee78733	-0.45220336
127	0x3f8e80db	1.1133074
128	0x3e91a2fa	0.28444654
129	0x3ea37ca1	0.31931022
130	0xbf29c65b	-0.6631829
131	0x3f1239ca	0.5711943
132	0xbf54d90e	-0.831437
133	0xbf762ab9	-0.9615894
134	0xbe277f9f	-0.16357277
135	0xbea7ae18	-0.3275001
136	0x3f6d81d8	0.9277625
137	0xbf75e3b0	-0.9605055
138	0xbf0a7020	-0.5407734
139	0x3f6f522e	0.9348477
140	0xbf45144a	-0.76984084
141	0xbed09b37	-0.4074342
142	0xbdc1c994	-0.09462276
143	0x3e0e4317	0.1389278
144	0xbf43afc1	-0.76440054
145	0xbe94d1e4	-0.29066384
146	0xbefbdf63	-0.49193868
147	0xbe524a2f	-0.20536111
148	0xbf2234f0	-0.63362026
149	0x3f4a6038	0.7905307
150	0xbdc9bd83	-0.098505996
151	0xbe2caef4	-0.16863614
152	0xbebfb71f	-0.37444398
153	0xbf1dbb6f	-0.61614126
154	0xbf50478f	-0.8135919
155	0xbeeb8918	-0.46003032
156	0x3f76b642	0.96371853
157	0x3ec7d79f	0.39031693
158	0xbf56b73f	-0.8387336
159	0xbe20d8b5	-0.15707667
160	0x3f90f8f7	1.1325978
161	0x3e76d42f	0.24104379
162	0x3df21b57	0.11821621
163	0xbf489b0a	-0.7836157
164	0x3a53ff80	0.00080870837
165	0xbd7f3cc1	-0.0623138
166	0x3d334146	0.04376342
167	0xbed54973	-0.416576
168	0x3edd2345	0.4319097
169	0xbe94f454	-0.29092658
170	0xbd19d611	-0.037557665
171	0xbeb492c5	-0.35268226
172	0xbc4582e8	-0.012055136
173	0x3e95dda8	0.29270673
174	0xc0212744	-2.5180216
175	0x3f0447ce	0.51672065
176	0x3d386fcc	0.045028493
177	0xbee55125	-0.4478847
178	0xbecd156c	-0.40055406
179	0xbc0ec8cc	-0.008714866
180	0xbd0c1d17	-0.03420743
181	0x3d50a806	0.05094149
182	0xbf5e4af5	-0.86833125
183	0x3b2dc520	0.00265152
184	0xbefa2c73	-0.48862037
185	0x3ab4e9c0	0.0013802573
186	0xbf2b9ecf	-0.670392
187	0xbd806a90	-0.06270325
188	0xbd298ed9	-0.041395996
189	0x3dcdb779	0.1004476
190	0x3d4ea060	0.050445914
191	0xbd76889e	-0.060188882
192	0xbd38487f	-0.044991013
193	0x3d292b72	0.0413012
194	0xbf93d46f	-1.1549205
195	0x3d2a3b48	0.04156044
196	0xbf1ddba8	-0.61663294
197	0xbd2451d2	-0.040117092
198	0xbc278aa8	-0.010225929
199	0x3d75b5de	0.059987895
200	0x3fa5a204	1.2940068
201	0x3dc00185	0.0937529
202	0xbd6420ef	-0.05569547
203	0x3e7bd7dd	0.24594064
204	0xbf209234	-0.6272309
205	0x3f43cf9a	0.7648865
206	0xbe2fac17	-0.17155491
207	0xbee4720d	-0.44618264
208	0xbf364424	-0.71197724
209	0x3cf916f7	0.030406458
210	0xc03003a9	-2.7502234
211	0xbedf5bfb	-0.43624863
212	0x3f13adf0	0.5768728
213	0xc0524eef	-3.2860677
214	0x400b3586	2.1751418
215	0xbfae8f91	-1.3637563
216	0x3fa814fd	1.3131405
217	0x3fb1611c	1.385776
218	0x403690a6	2.8525786
219	0xbdfae03e	-0.12249802
220	0xbf0766da	-0.52891314
221	0x3ff17890	1.8864918
222	0xbfd974e8	-1.6988802
223	0xc010aa2d	-2.2603867
224	0x3e3c6620	0.18398333
225	0x3fe5df5a	1.7958786
226	0x3f47a5db	0.7798745
227	0x403b4243	2.9259193
228	0xc022fc6f	-2.5466573
229	0xbecc159e	-0.39860243
230	0x3f6937bc	0.9110067
231	0x3ec9c4b0	0.39407873
232	0x3fae8007	1.3632821
233	0xbfafd4d8	-1.373683
234	0xc0357ccf	-2.8357427
235	0x3efd745b	0.49502835
236	0x3d3e89d1	0.04651815
237	0x3dcccc2c	0.0999988
238	0xbee0bdd3	-0.43894824
239	0x3e9175f3	0.284103
240	0xbf062fcb	-0.52416676
241	0xbeb1513e	-0.34632295
242	0xbf978a08	-1.1838999
243	0xbe0219f1	-0.12705208
244	0xbea80347	-0.32815
245	0xbf37c63c	-0.71786857
246	0xbea926ff	-0.33037564
247	0xbe1038e1	-0.14084198
248	0x3f0389a2	0.51381886
249	0x3e245b2a	0.16050401
250	0xbea2fa9b	-0.31831822
251	0x3fd0e9ca	1.6321347
252	0xbf29eb4a	-0.6637465
253	0x3e8ba969	0.27277687
254	0xbeed6a97	-0.46370384
255	0x3fc071a7	1.5034684

rnn.weight_hh f4 [600, 200]
0	0x3e83ed5a	0.25767022
1	0xbe4c3768	-0.19943011
2	0x3e187c73	0.14891224
3	0x3d87feac	0.06640372
4	0xbf062aca	-0.5240904
5	0x3e547646	0.20748243
6	0xbeb614b3	-0.35562667
7	0xbebb1312	-0.36537987
8	0xbeb11914	-0.34589446
9	0xbfb10eb9	-1.3832618
10	0xbf09681a	-0.5367447
11	0x3d4701fc	0.048585877
12	0xbdeaac27	-0.11458617
13	0x3f113794	0.5672543
14	0xbf6ad394	-0.9172909
15	0x3f46214b	0.7739455
16	0xbe83e1a7	-0.25758097
17	0x3f557e34	0.83395696
18	0x3f66ca58	0.901525
19	0xbf562def	-0.8366384
20	0xbe02253c	-0.12709516
21	0x3e92194f	0.28534934
22	0xbf3c706c	-0.7360904
23	0x3f122511	0.5708781
24	0x3efd92b2	0.49525982
25	0xbf485002	-0.7824708
26	0x3ed11d08	0.40842462
27	0xbeccdbee	-0.40011543
28	0xbc2f808f	-0.010711803
29	0xbfa488bb	-1.2854227
30	0x3ef0eec7	0.47057173
31	0xbf14199f	-0.57851595
32	0xbf496e48	-0.786839
33	0xbe7ea1ba	-0.24866381
34	0xbf02da92	-0.5111476
35	0x3f54bc34	0.83099675
36	0xbf113b41	-0.5673104
37	0x3def44bc	0.11683032
38	0x3f25552a	0.64583075
39	0xbf0478a4	-0.51746583
40	0xbf7be1a7	-0.98391193
41	0xbf37dd69	-0.7182222
42	0x3ef2d33f	0.47426793
43	0x3fae3144	1.3608785
44	0xbf1e6f28	-0.6188836
45	0x3f66bbda	0.9013039
46	0xbea2da1b	-0.31807026
47	0xbef5aee1	-0.47984985
48	0x3e79ccd2	0.24394539
49	0xbf94b2c8	-1.161706
50	0x3e37baf3	0.17942409
51	0x3e678e48	0.2261287
52	0x3e3d259b	0.18471377
53	0xbdf45c3a	-0.11931653
54	0xbf8555fd	-1.0416867
55	0xbf9acb87	-1.2093362
56	0x3e324368	0.17408526
57	0x3e46ee54	0.19426852
58	0xbf88f865	-1.0700804
59	0x3f154661	0.58310515
60	0x3f225eb8	0.6342578
61	0xbf9588eb	-1.1682409
62	0xbe17231f	-0.14759491
63	0x3c38f469	0.011288741
64	0xbdedda92	-0.116139546
65	0x3c1938b4	0.009351898
66	0xbfb63f73	-1.4238113
67	0xbebde943	-0.37092027
68	0x3f992107	1.1963204
69	0xbe85213a	-0.26001912
70	0xbf2117f1	-0.62927157
71	0x3ea8c1a2	0.3296023
72	0x3f6e089d	0.9298189
73	0x3e75c83c	0.24002165
74	0xbd9ecc69	-0.07753832
75	0xbf1644c1	-0.5869866
76	0x3e8d85e8	0.27641225
77	0x3f8cb7c8	1.0993586
78	0x3f0d1850	0.5511522
79	0x3eb9365d	0.36174288
80	0xbe002a5c	-0.12516159
81	0x3f569f6d	0.83837014
82	0xbf3559ba	-0.70840037
83	0x3fa72610	1.3058491
84	0xbf7e1a69	-0.9925905
85	0x3e508aab	0.20365398
86	0x3e687942	0.22702506
87	0xbe7da0c6	-0.24768361
88	0x3f21f3ca	0.6326262
89	0x3eb1a993	0.34699687
90	0xbea679fb	-0.3251494
91	0x3f8e8cf9	1.1136771
92	0x3df55ebc	0.1198096
93	0x3da56e5c	0.0807769
94	0x3cef9cd4	0.029249586
95	0x3d94bad1	0.07262195
96	0x3f40c79d	0.75304586
97	0xbb8d21dd	-0.0043070153
98	0xbeb6f0c8	-0.35730577
99	0x3f974f5e	1.1821096
100	0xbf241a92	-0.64103043
101	0x3c3c2e80	0.011485696
102	0x3e14495c	0.1448111
103	0x3e94a348	0.29030824
104	0x3f9d2610	1.2277241
105	0xbf50255a	-0.81306994
106	0xbe8c56e4	-0.27410042
107	0xbe890b47	-0.26766416
108	0x3e2bbdf5	0.16771682
109	0xbf6267b3	-0.8843948
110	0xbe964d8b	-0.29356036
111	0xbf1a83f1	-0.60357577
112	0x3e803c4a	0.25045997
113	0x3e0255c9	0.12728037
114	0xbf2a5136	-0.6653017
115	0xbedac3bd	-0.4272746
116	0x3e3b0e6e	0.18267223
117	0xbe007ccd	-0.12547608
118	0xbf487b88	-0.78313494
119	0xbe268470	-0.16261458
120	0xbea8502d	-0.3287367
121	0xbea0d0fa	-0.31409436
122	0x3f2a3074	0.66480184
123	0xbe868341	-0.26272014
124	0x3e29ac6c	0.1656968
125	0x3f6590c9	0.8967405
126	0xbe2d0b4b	-0.16898839
127	0x3efd65ca	0.4949172
128	0x3f8551f8	1.041564
129	0xbf074167	-0.5283417
130	0x3f16ad69	0.5885835
131	0xbf380a98	-0.71891165
132	0x3f018d23	0.5060598
133	0xbe3cb478	-0.18428218
134	0xbe40f17f	-0.18842123
135	0xbe499c2f	-0.19688486
136	0xbf1f3577	-0.62190956
137	0x3e90f97e	0.28315347
138	0x3ed76d3c	0.42075527
139	0x3ed97848	0.4247458
140	0x3ee6cf6b	0.45080122
141	0x3f209a4c	0.6273544
142	0xbf1b7387	-0.60723156
143	0x3e1b4ae9	0.15165295
144	0xbe50b2a9	-0.20380653
145	0x3e2e6af9	0.17032994
146	0x3ee4c124	0.44678605
147	0x3e111f16	0.14172015
148	0x3f3ed5e5	0.7454513
149	0xbe0a96ef	-0.13534139
150	0x3eda7f7c	0.42675388
151	0xbea7008c	-0.32617605
152	0xbf194ffc	-0.5988767
153	0xbecefba8	-0.40426373
154	0xbe4cd31d	-0.20002408
155	0x3e655892	0.22397068
156	0xbea5c87f	-0.3237953
157	0xbec76bfd	-0.38949576
158	0xbf063f1a	-0.52440035
159	0xbef6f47c	-0.48233402
160	0x3ea49126	0.3214199
161	0xbe515bed	-0.20445223
162	0x3d2473d0	0.04014951
163	0xbd36e96c	-0.044656202
164	0x3e9e4369	0.30910805
165	0x3ebffea9	0.37498978
166	0xbe27d097	-0.16388164
167	0x3e98741d	0.29776087
168	0x3f5538dc	0.83289886
169	0xbd410e36	-0.047132693
170	0x3f73b3f8	0.95196486
171	0x3e5098b7	0.20370756
172	0x3e91210e	0.2834553
173	0x3f8e4910	1.1116047
174	0xbecb2aef	-0.39681193
175	0x3ec3c9ae	0.38239807
176	0xbe8305cb	-0.25590357
177	0xbeae4a0f	-0.34040877
178	0x3f1ed764	0.6204741
179	0x3eff52dd	0.49867907
180	0xbeaa7926	-0.33295554
181	0xbe4e98a2	-0.20175412
182	0x3f2af883	0.6678545
183	0xbf0b524b	-0.54422444
184	0xbf2edc44	-0.6830485
185	0x3f88cb3f	1.0687026
186	0xbf0419f8	-0.51602125
187	0xbf140b51	-0.5782977
188	0xbf2ef309	-0.6833959
189	0x3ed72c6d	0.42026082
190	0x3f1c4b4a	0.6105238
191	0xbef68a64	-0.4815246
192	0x3dba4844	0.09095815
193	0x3f50bd6d	0.8153904
194	0xbe26b71d	-0.1628079
195	0x3f46611a	0.77491915
196	0x3e4456d5	0.19173749
197	0xbed2846a	-0.4111665
198	0x3f05e3f7	0.5230097
199	0x3f00f059	0.5036674
200	0x3f3226bd	0.6959036
201	0x3fee68d1	1.8625737
202	0xbd8395ae	-0.064250335
203	0xbf7df95b	-0.9920861
204	0x3f76d665	0.9642089
205	0x3e9b1faf	0.3029761
206	0xbe04342f	-0.12910531
207	0x3f49c9c5	0.788235
208	0x3e1cf6f5	0.15328582
209	0xbf0021c8	-0.50051546
210	0x3efc98a1	0.49335197
211	0x3e4c77d5	0.19967587
212	0x3e908cf6	0.28232545
213	0x3eda5bf3	0.42648277
214	0x3e4a1088	0.19732869
215	0xbf73eb92	-0.95281327
216	0x3be2d496	0.006922315
217	0x3eeda844	0.4641744
218	0xbecbfab8	-0.3983972
219	0x3d5d0d64	0.05396785
220	0x3f2c61f2	0.6733695
221	0xbf6438cb	-0.8914916
222	0xbe4d6206	-0.20056924
223	0xbd3d9318	-0.046282858
224	0x3ec80de4	0.39073098
225	0x3de7b8b4	0.11314526
226	0xbee225b0	-0.44169378
227	0x3e61c6f8	0.22048557
228	0x3e82c597	0.25541374
229	0x3ea0b352	0.3138681
230	0x3ec4c5c9	0.38432148
231	0xbd6f1adb	-0.05837522
232	0xbfd658a4	-1.6745801
233	0x3f1caa15	0.61197025
234	0x3f31651e	0.6929492
235	0x3e67ab62	0.22623971
236	0x3f08ee0f	0.5348825
237	0xbf1419f6	-0.57852113
238	0x3ea3dbeb	0.32003722
239	0x3e321b6f	0.17393278
240	0xbe3cb912	-0.18429974
241	0x3f431347	0.7620129
242	0x3e696bbd	0.22795005
243	0x3f96dc20	1.1785927
244	0x3d9e2b57	0.0772311
245	0x3f0300ae	0.5117291
246	0xbeaa53b2	-0.3326698
247	0xbf23987c	-0.6390455
248	0x3d633f1c	0.055480108
249	0xbf1f8150	-0.6230669
250	0x3e42883b	0.1899728
251	0xbf16a3ee	-0.58843887
252	0x3dabd4e9	0.08390219
253	0xbdaa8174	-0.083254725
254	0xbf19ff06	-0.6015476
255	0xbf9c15b1	-1.219412

rnn.bias_ih f4 [600]
0	0xbf93076f	-1.1486644
1	0xbfa3f5de	-1.2809408
2	0xbf76bb6c	-0.96379733
3	0xbf9d109b	-1.2270693
4	0xbf467652	-0.7752429
5	0xbf8fcde4	-1.1234708
6	0xbf58965d	-0.84604436
7	0xbf72ac69	-0.9479433
8	0xbf722dc1	-0.94601065
9	0xbfa39c12	-1.2782004
10	0xbf4835be	-0.78207004
11	0xbf3478aa	-0.7049662
12	0xbf2dcbe7	-0.67889255
13	0xbf72686d	-0.9469059
14	0xbfa4d3b0	-1.2877102
15	0xbf0dc88d	-0.5538414
16	0xbef621d8	-0.48072696
17	0xbf552e59	-0.83273846
18	0xbf583391	-0.84453684
19	0xbf3a0f2b	-0.72679394
20	0xbf80a83f	-1.0051345
21	0xbf520ebb	-0.82053727
22	0xbf7cdb4b	-0.98772115
23	0xbfa184a2	-1.2618601
24	0xbfa1515b	-1.2602953
25	0xbeca9983	-0.39570245
26	0xbf954a2b	-1.1663259
27	0xbf836258	-1.0264387
28	0xbf1347e5	-0.5753158
29	0xbf1e456e	-0.6182469
30	0xbfc050b6	-1.5024631
31	0xbf852358	-1.0401411
32	0xbf1f9e32	-0.6235076
33	0xbf9691d0	-1.1763248
34	0xbf4311bb	-0.7619893
35	0xbfa34ad0	-1.2757206
36	0xbf814670	-1.0099621
37	0xbf877e3b	-1.0585397
38	0x3e87efbe	0.26550096
39	0xbf58ca8f	-0.8468408
40	0xbf1734be	-0.59064853
41	0xbf13063b	-0.5743138
42	0xbf885b64	-1.065289
43	0xbf8ad49c	-1.0846133
44	0xbf556f2c	-0.8337276
45	0xbf363bef	-0.711852
46	0xbf582a95	-0.84439975
47	0xbf3c01dc	-0.7344034
48	0xbf8fade6	-1.1224945
49	0xbf864aa1	-1.0491525
50	0xbf41da1b	-0.7572343
51	0xbf838130	-1.02738
52	0xbf7f29d4	-0.996732
53	0xbf624412	-0.8838512
54	0xbf37f733	-0.7186157
55	0xbf51c7a4	-0.8194525
56	0xbf5b3c3b	-0.8563878
57	0xbf42346b	-0.75861233
58	0xbf8ce830	-1.1008358
59	0xbfa17b8e	-1.2615831
60	0xbf64014d	-0.89064485
61	0xbf5f21cf	-0.8716096
62	0xbf837306	-1.0269477
63	0xbf117b9e	-0.5682925
64	0xbf95dadd	-1.1707417
65	0xbf663415	-0.8992322
66	0xbf28b959	-0.6590782
67	0xbf5225fb	-0.82089204
68	0xbf9415cf	-1.1569155
69	0xbf0908f6	-0.535293
70	0xbf3beadf	-0.7340526
71	0xbed74de4	-0.42051613
72	0xbf332cdc	-0.69990325
73	0xbf71e733	-0.94493407
74	0xbeaaeab4	-0.3338219
75	0xbf8b2799	-1.0871459
76	0xbf4cb1dd	-0.799589
77	0xbee929f3	-0.45539817
78	0xbf0c3759	-0.54771954
79	0xbf8a8227	-1.0820969
80	0xbfa587dd	-1.2932087
81	0xbf868172	-1.0508254
82	0xbe94f85b	-0.2909573
83	0xbf5a8ef3	-0.85374373
84	0xbf4775e4	-0.7791426
85	0xbf48758c	-0.7830436
86	0xbf95bb9c	-1.1697879
87	0xbfa6ed91	-1.304125
88	0xbf641dce	-0.8910798
89	0xbfb0b26c	-1.380445
90	0xbf2e13c1	-0.6799889
91	0xbf2b5dea	-0.66940176
92	0xbf87895b	-1.0588793
93	0xbf87fe95	-1.0624567
94	0xbf911610	-1.1334858
95	0xbf97e357	-1.1866254
96	0xbf0b1193	-0.5432369
97	0xbf9bddda	-1.2177079
98	0xbf8a7edb	-1.0819963
99	0xbf0f5276	-0.559852
100	0xbfb3a71f	-1.4035376
101	0xbf2900fd	-0.66017133
102	0xbf2597f4	-0.6468499
103	0xbf36a12e	-0.7133969
104	0xbeb70b72	-0.3575092
105	0xbf9031db	-1.1265215
106	0xbf53a387	-0.826714
107	0xbf516453	-0.8179371
108	0xbf8d49a7	-1.1038102
109	0xbf41cc20	-0.75702095
110	0xbf6917db	-0.91052026
111	0xbfacdb8e	-1.3504503
112	0xbfb4836d	-1.4102608
113	0xbf70d86f	-0.9408025
114	0xbea13492	-0.3148542
115	0xbf4c71ec	-0.7986133
116	0xbebf16d1	-0.37322095
117	0xbfc4eb14	-1.538424
118	0xbf661ad2	-0.89884675
119	0xbf0c9555	-0.5491536
120	0xbf3ccd7c	-0.73751044
121	0xbf4db40d	-0.8035286
122	0xbf3c3310	-0.73515415
123	0xbfca8f40	-1.5824966
124	0xbf408430	-0.752017
125	0xbf4301bd	-0.7617453
126	0xbfb78622	-1.4337809
127	0xbf3e6c1e	-0.74383724
128	0x3f1753f0	0.59112453
129	0xbfa0225e	-1.2510488
130	0xbf92ebae	-1.1478174
131	0xbfbb307c	-1.4624171
132	0xbf4c64a3	-0.7984106
133	0xbf89c2f2	-1.0762618
134	0xbf74c21e	-0.956087
135	0xbf27e52c	-0.65584064
136	0xbf762f01	-0.9616547
137	0xbf20cb4b	-0.628102
138	0xbf7cc768	-0.9874177
139	0xbf361c28	-0.71136713
140	0xbf245b76	-0.6420206
141	0xbf73dfeb	-0.95263547
142	0xbf814a40	-1.0100784
143	0xbf36f040	-0.7146034
144	0xbebffc35	-0.37497106
145	0xbf5636eb	-0.8367755
146	0xbe8fe362	-0.28103167
147	0xbed7b016	-0.4212653
148	0x3e903ccf	0.28171393
149	0xbf78f9d4	-0.9725621
150	0xbf6c52cb	-0.9231383
151	0xbea2f302	-0.31826025
152	0xbe9d2ddc	-0.3069905
153	0xbf4210b3	-0.7580673
154	0xbf216f1d	-0.6306017
155	0xbf802015	-1.0009791
156	0xbf31eb84	-0.69499993
157	0xbf56a8b3	-0.83851165
158	0xbf69fe0e	-0.9140328
159	0xbf9a2666	-1.2042968
160	0xbf667f92	-0.90038407
161	0xbf36270d	-0.71153337
162	0x3fbae423	1.4600872
163	0xbfb92704	-1.4465032
164	0xbf697213	-0.9118969
165	0xbf3c585b	-0.7357232
166	0xbf9681ef	-1.1758403
167	0xbf772adf	-0.9654979
168	0xbfb16dde	-1.3861654
169	0xbf2dbbc1	-0.67864615
170	0xbdf0383a	-0.11729474
171	0xbec2d16a	-0.38050395
172	0xbf40c958	-0.75307226
173	0xbf5e8185	-0.8691638
174	0xbec75ce0	-0.38938046
175	0xbf60d33c	-0.8782232
176	0xbf7971d1	-0.97439295
177	0xbf404b17	-0.7511458
178	0xbf5f8ecd	-0.8732727
179	0xbf07170e	-0.52769554
180	0xbf44f7ad	-0.76940423
181	0xbf6df112	-0.9294597
182	0xbf7ed5ff	-0.9954528
183	0xbf7cb72f	-0.98717016
184	0xbe9953ae	-0.29946655
185	0xbf613572	-0.87972176
186	0xbeaea79c	-0.3411225
187	0xbf4cd4dd	-0.80012304
188	0xbee880f6	-0.4541089
189	0x3c2317d1	0.009954409
190	0xbf98301f	-1.1889685
191	0xbf539f8c	-0.82665324
192	0xbe36cdd0	-0.17851949
193	0xbf236bef	-0.6383657
194	0xbf6a90e5	-0.9162734
195	0xbf52f2b7	-0.82401603
196	0xbf4fafce	-0.8112763
197	0xbf2cb25b	-0.6745965
198	0xbf2fd8d5	-0.68690234
199	0xbf985b65	-1.1902891
200	0xbf43b4de	-0.76447856
201	0xbeca4d4d	-0.395121
202	0xbed49cc4	-0.41525853
203	0x3e335858	0.17514169
204	0xbfa12983	-1.2590793
205	0xbf13fc7c	-0.57807136
206	0x3e3677ba	0.1781911
207	0x3e82b21d	0.25526515
208	0xbed0fd68	-0.40818334
209	0x3f8e77fc	1.1130366
210	0xbeb1f248	-0.34755158
211	0x4035de1e	2.841682
212	0xbe5dad93	-0.21648245
213	0x3da97a34	0.082752615
214	0xbd432306	-0.047640823
215	0xbf2edd01	-0.68305975
216	0x4028d83a	2.6381974
217	0xbc162eeb	-0.00916646
218	0xbf14ff71	-0.5820227
219	0xbed01f51	-0.40648893
220	0xbe74785d	-0.2387404
221	0x4010b9ff	2.2613523
222	0xbf03bfe8	-0.514647
223	0xbee7c3bb	-0.45266518
224	0x3d3706ad	0.0446841
225	0x3e6ab558	0.2292074
226	0x3daa2598	0.08307952
227	0xbeb75818	-0.35809398
228	0x40246b10	2.5690346
229	0xbf87875a	-1.0588181
230	0x3f89ef3e	1.0776136
231	0xbdf3d79b	-0.11906358
232	0xbf0c50a9	-0.5481058
233	0xbec23b2b	-0.37935767
234	0xbe7f435b	-0.24928038
235	0xbcbece96	-0.023291867
236	0x3e3cfec2	0.18456557
237	0xbef7ec98	-0.48422694
238	0xbf21de82	-0.63230145
239	0x3e0ba4b7	0.13637052
240	0xbf3e48c5	-0.7432979
241	0xbda9a79c	-0.08283922
242	0xbfa6d621	-1.3034097
243	0xbf014d14	-0.50508237
244	0xbf82578b	-1.0182966
245	0x3ecf23a1	0.4045687
246	0xbf11f704	-0.5701754
247	0xbe8415aa	-0.25797778
248	0xbe997ebb	-0.299795
249	0x3bd4dea6	0.0064962683
250	0x3e6d229a	0.2315773
251	0xbf4ca9d9	-0.79946667
252	0xbeed5705	-0.46355453
253	0xbf4e03b5	-0.80474406
254	0xbe86c8e5	-0.26325145
255	0xbf38968a	-0.72104704

rnn.bias_hh f4 [600]
0	0xbf8acc65	-1.0843626
1	0xbfa282ba	-1.2696145
2	0xbf81f63a	-1.0153267
3	0xbf90235e	-1.1260793
4	0xbf535788	-0.8255544
5	0xbf997f4a	-1.199197
6	0xbf5bc518	-0.85847616
7	0xbf715e55	-0.94284564
8	0xbf5e7e02	-0.8691102
9	0xbfafffc2	-1.3749926
10	0xbf484676	-0.78232515
11	0xbf2993d3	-0.66241187
12	0xbf3346ee	-0.70030105
13	0xbf7fcd55	-0.99922687
14	0xbfa3ceae	-1.2797449
15	0xbeec3747	-0.46135923
16	0xbef18ea0	-0.47179127
17	0xbf4fba47	-0.8114361
18	0xbf3dd3a9	-0.7415109
19	0xbf46cc95	-0.7765592
20	0xbf72de73	-0.9487068
21	0xbf3540b7	-0.7080187
22	0xbf865572	-1.0494826
23	0xbfb149a0	-1.3850594
24	0xbf9430b2	-1.1577361
25	0xbeddc698	-0.43315578
26	0xbf99f229	-1.2027026
27	0xbf7102b0	-0.94144726
28	0xbf0ff055	-0.5622609
29	0xbf16c4c3	-0.58893985
30	0xbfbea843	-1.4895099
31	0xbf7c4081	-0.98535925
32	0xbf0f4649	-0.5596662
33	0xbf95f799	-1.1716186
34	0xbf54e406	-0.83160436
35	0xbfa5f55b	-1.2965502
36	0xbf7dffe0	-0.9921856
37	0xbf9804a9	-1.1876422
38	0x3e7b5d6b	0.24547355
39	0xbf5def9a	-0.8669373
40	0xbef6ce20	-0.48204136
41	0xbf2c14a5	-0.67219
42	0xbf7f24a0	-0.9966526
43	0xbf8b9e0d	-1.0907608
44	0xbf58c316	-0.8467268
45	0xbf3b14af	-0.73078436
46	0xbf6c2184	-0.9223864
47	0xbf2b0ed1	-0.66819483
48	0xbf8dc360	-1.1075249
49	0xbf7e363d	-0.9930151
50	0xbf366ce1	-0.71259886
51	0xbf6f91a0	-0.9358158
52	0xbf71bcba	-0.944286
53	0xbf6469c4	-0.89223886
54	0xbf2a1715	-0.6644147
55	0xbf3e2a13	-0.7428295
56	0xbf5f0543	-0.87117404
57	0xbf47cd9d	-0.78048116
58	0xbf91a5fc	-1.137878
59	0xbf975b2d	-1.18247
60	0xbf4a3132	-0.78981316
61	0xbf540c6c	-0.82831454
62	0xbf8a45e7	-1.0802583
63	0xbf24f74d	-0.6443985
64	0xbf998381	-1.1993257
65	0xbf57004f	-0.83984846
66	0xbf46d842	-0.77673733
67	0xbf585fc8	-0.8452115
68	0xbf9d256c	-1.2277045
69	0xbee86e1c	-0.45396507
70	0xbf51c825	-0.8194602
71	0xbecd3aa9	-0.40083817
72	0xbf282a48	-0.65689516
73	0xbf7f3789	-0.99694115
74	0xbebababc	-0.36470592
75	0xbf8b68a8	-1.0891314
76	0xbf45be87	-0.77243847
77	0xbecf8d20	-0.40537357
78	0xbf159975	-0.5843728
79	0xbf9c32b3	-1.2202972
80	0xbf9c8183	-1.2227024
81	0xbf694ec9	-0.9113584
82	0xbe446be5	-0.19181783
83	0xbf51f48a	-0.8201376
84	0xbf4cc43f	-0.7998695
85	0xbf352577	-0.7076029
86	0xbf888dad	-1.0668236
87	0xbfa25c12	-1.2684348
88	0xbf475240	-0.7785988
89	0xbfaed9a1	-1.3660165
90	0xbf2e95ca	-0.6819731
91	0xbf362665	-0.71152335
92	0xbf94680d	-1.1594254
93	0xbf89c7c9	-1.0764095
94	0xbf86897a	-1.0510705
95	0xbf8ce206	-1.1006477
96	0xbf079f5d	-0.52977544
97	0xbf91f09a	-1.1401551
98	0xbf968c19	-1.1761504
99	0xbeec7567	-0.4618332
100	0xbfa86453	-1.3155617
101	0xbf3a94e2	-0.7288343
102	0xbf22c8ee	-0.63587844
103	0xbf50dca1	-0.81586653
104	0xbeb67a19	-0.35640028
105	0xbf9ac469	-1.209119
106	0xbf420a26	-0.75796735
107	0xbf4e05c2	-0.80477536
108	0xbf8e288a	-1.1106122
109	0xbf4ccc93	-0.79999655
110	0xbf5e4bab	-0.8683421
111	0xbfa318d1	-1.2741948
112	0xbfc31a5b	-1.5242418
113	0xbf74caf4	-0.9562218
114	0xbed809a6	-0.4219486
115	0xbf64017b	-0.8906476
116	0xbeb20db5	-0.34776083
117	0xbfc44b44	-1.5335469
118	0xbf4a92c0	-0.7913017
119	0xbf1a4d23	-0.6027395
120	0xbf4bcc70	-0.7960882
121	0xbf5b4b0f	-0.85661405
122	0xbf3caa12	-0.73697007
123	0xbfd29345	-1.6451193
124	0xbf47c6e9	-0.7803789
125	0xbf41cd78	-0.75704145
126	0xbfb8dc04	-1.4442143
127	0xbf532b6b	-0.82488126
128	0x3f15f8b1	0.585826
129	0xbfab2161	-1.3369561
130	0xbf9a28ec	-1.2043738
131	0xbfb603b2	-1.4219878
132	0xbf5742a7	-0.8408608
133	0xbf826910	-1.0188313
134	0xbf62406d	-0.88379556
135	0xbf12b895	-0.573129
136	0xbf7ec7ee	-0.9952382
137	0xbf30e91c	-0.69105697
138	0xbf79a6ac	-0.97519946
139	0xbf337de6	-0.7011398
140	0xbf3fd3ce	-0.74932563
141	0xbf87a5c4	-1.0597463
142	0xbf73589b	-0.95057076
143	0xbf3b1207	-0.7307438
144	0xbec5c448	-0.38626313
145	0xbf5ad88d	-0.8548668
146	0xbe88e6de	-0.26738638
147	0xbebbca31	-0.36677697
148	0x3e4492fd	0.19196697
149	0xbf881b24	-1.0633283
150	0xbf5480e0	-0.8300915
151	0xbec647da	-0.38726693
152	0xbe5b00aa	-0.21386972
153	0xbf48f8e5	-0.7850478
154	0xbf2204ae	-0.6328839
155	0xbf83cf4f	-1.029764
156	0xbf34d04f	-0.70630354
157	0xbf5d474d	-0.8643692
158	0xbf58b4d8	-0.84650946
159	0xbf9e1f4a	-1.2353299
160	0xbf60f106	-0.8786777
161	0xbf374006	-0.71582067
162	0x3fb8e949	1.4446193
163	0xbfae0206	-1.3594368
164	0xbf7bfece	-0.98435676
165	0xbf4190c9	-0.7561155
166	0xbf9dc9ae	-1.2327173
167	0xbf6a055a	-0.91414416
168	0xbfa60bd7	-1.2972363
169	0xbf323846	-0.69617116
170	0xbdc0f20d	-0.094211675
171	0xbebabd53	-0.36472568
172	0xbf492c04	-0.7858279
173	0xbf4e06f8	-0.80479383
174	0xbeb87de1	-0.36033538
175	0xbf7393c2	-0.95147336
176	0xbf80a188	-1.0049295
177	0xbf4a7511	-0.7908488
178	0xbf4f34dc	-0.8094003
179	0xbf15ed37	-0.58565086
180	0xbf5a0698	-0.8516631
181	0xbf7cc402	-0.98736584
182	0xbf9073c3	-1.1285328
183	0xbf7d7e5a	-0.9902092
184	0xbeb62eec	-0.35582674
185	0xbf4d275a	-0.8013817
186	0xbe93dcd1	-0.28879407
187	0xbf477efc	-0.7792814
188	0xbf0ad59f	-0.5423221
189	0x3c40de26	0.011771714
190	0xbf91965e	-1.1374013
191	0xbf4b341e	-0.793764
192	0xbe49b881	-0.19699289
193	0xbf371089	-0.71509606
194	0xbf7813bc	-0.9690511
195	0xbf4f683a	-0.8101841
196	0xbf5780b2	-0.8418075
197	0xbf1f28a6	-0.621714
198	0xbf45598c	-0.7708976
199	0xbf98d4fc	-1.1939998
200	0xbf2c6fc3	-0.67358035
201	0xbef25c86	-0.47336215
202	0xbe96f0e8	-0.29480672
203	0x3e49d4b9	0.19710054
204	0xbfa2c6d7	-1.2716931
205	0xbef1ce8c	-0.47227895
206	0x3db675ed	0.08909211
207	0x3e8c1b58	0.27364612
208	0xbefb69f7	-0.49104282
209	0x3f892fce	1.0717714
210	0xbead831a	-0.33889085
211	0x4030dad0	2.7633553
212	0xbe5174e0	-0.2045474
213	0x39075b3e	0.00012908594
214	0xbd06a8bd	-0.032875765
215	0xbf2cb107	-0.6745762
216	0x40292b0f	2.643253
217	0x3de6a381	0.11261655
218	0xbef6b3cc	-0.4818405
219	0xbef20237	-0.47267315
220	0xbea7acb5	-0.32748953
221	0x4018f8ac	2.3901777
222	0xbf105096	-0.56372964
223	0xbee4fcfa	-0.44724256
224	0x3ad7a68f	0.0016452837
225	0x3e2c496f	0.16824888
226	0x3de624cc	0.11237487
227	0xbec5108e	-0.38489193
228	0x402925e0	2.6429367
229	0xbf903cf9	-1.1268607
230	0x3f8d5eaa	1.1044514
231	0xbe28a895	-0.16470559
232	0xbf16d14b	-0.58913106
233	0xbee196af	-0.44060275
234	0xbe73a28c	-0.23792475
235	0x3c39b0ab	0.011333625
236	0x3e4df96c	0.20114678
237	0xbed55724	-0.41668046
238	0xbf26ad41	-0.65108114
239	0x3e10a620	0.14125872
240	0xbf3cfe9b	-0.73826
241	0xbd2ba4dc	-0.04190527
242	0xbfa3e841	-1.2805253
243	0xbf05fb0d	-0.523362
244	0xbf837a74	-1.0271745
245	0x3eb2f7bc	0.3495463
246	0xbf1ae57a	-0.60506403
247	0xbe6902ca	-0.2275497
248	0xbe952f4d	-0.2913765
249	0xbcb19659	-0.021678137
250	0x3e5e7a14	0.21726257
251	0xbf29d950	-0.6634722
252	0xbee92117	-0.45533058
253	0xbf56d1a5	-0.8391364
254	0xbe94d8d1	-0.29071668
255	0xbf4214ed	-0.7581318

linear.weight f4 [100, 200]
0	0x3ba469e5	0.0050175064
1	0x3d794710	0.060858786
2	0xbe1ea647	-0.15493117
3	0xbe29d0dc	-0.1658358
4	0xbd97927f	-0.07400989
5	0x3ea11f70	0.31469297
6	0x3de95772	0.11393632
7	0xbe241d1d	-0.16026731
8	0x3f2ced1a	0.6754929
9	0xbe84c544	-0.25931752
10	0xbea83b47	-0.32857725
11	0x3d4154f8	0.047200173
12	0xbf6624f3	-0.8990013
13	0x3ebacc0f	0.3648381
14	0x3e9bc7d1	0.30425885
15	0xbecabd60	-0.39597607
16	0x3ef2e1b7	0.47437832
17	0xbeaf8f92	-0.34289223
18	0x3ed45947	0.41474363
19	0x3f612d67	0.87959903
20	0x3e8d6f6e	0.27624077
21	0xbd1a94d1	-0.03773958
22	0x3f3cd823	0.737673
23	0xbe97c000	-0.29638672
24	0x3f275af4	0.6537316
25	0xbf50c030	-0.81543255
26	0x3e1b1678	0.1514529
27	0x3f1caad5	0.6119817
28	0x3e3475ce	0.17623064
29	0xbe660267	-0.22461854
30	0x3ed6d407	0.4195864
31	0xbeb652db	-0.3561009
32	0xbf30201a	-0.68798983
33	0x3e4b48a2	0.19851926
34	0x3f1e9826	0.6195091
35	0xbdc78a8c	-0.097432226
36	0x3db48893	0.08815112
37	0xbf2df33d	-0.6794928
38	0x400096f8	2.0092144
39	0x3c29ba79	0.0103594
40	0x3dbce625	0.09223584
41	0xbe1aced1	-0.15117957
42	0x3f50f5eb	0.8162524
43	0x3f42de9a	0.76120913
44	0xbea031fc	-0.31288135
45	0xbd79e88b	-0.061012786
46	0x3e20101a	0.15631142
47	0x3dda2efb	0.10653492
48	0x3ede85b9	0.43461397
49	0xbf67c91f	-0.9054126
50	0xbea8fa7f	-0.33003613
51	0x3e4bd887	0.19906817
52	0xbed0a385	-0.40749756
53	0xbeaf5999	-0.34248045
54	0xbf302364	-0.68804
55	0x3dee5c47	0.11638694
56	0x3d74f633	0.059805106
57	0x3eef0799	0.46685484
58	0xbf2ced9e	-0.67550075
59	0x3f0daf17	0.5534529
60	0x3f27011b	0.6523606
61	0x3ef04bb1	0.46932748
62	0x3e5a7fd9	0.21337833
63	0xbe2e9c3d	-0.17051788
64	0xbdab90fe	-0.083772644
65	0xbe107488	-0.14106953
66	0x3f287dd5	0.65817004
67	0xbebe9dd4	-0.37229788
68	0x3f7a5a2d	0.9779385
69	0xbef38030	-0.47558737
70	0xbf1bd8a6	-0.60877454
71	0xbe03e7bd	-0.1288137
72	0x3f5b8b05	0.85759
73	0xbf7b5038	-0.9816928
74	0xbac2ad55	-0.0014852682
75	0xbea7c66b	-0.32768568
76	0x3ea93d57	0.3305461
77	0x3db910bd	0.09036396
78	0xbe49fe99	-0.19726028
79	0xbf455731	-0.7708617
80	0x3e6e7730	0.23287654
81	0xbea1d63b	-0.31608757
82	0xbf737b10	-0.95109653
83	0xbe80531e	-0.25063413
84	0x3e3abc0b	0.18235795
85	0xbec6ec0d	-0.38851967
86	0xbd0671e3	-0.032823455
87	0x3e2272b2	0.15864065
88	0x3e60980f	0.21933006
89	0x3ccc265c	0.024920635
90	0x3ecfd0d8	0.40589023
91	0x3e161926	0.14658031
92	0x3ecc2253	0.39869937
93	0x3c82f802	0.0159874
94	0x3b088e4e	0.0020836773
95	0x3d28f431	0.041248504
96	0xbe1a127d	-0.15046115
97	0x3f050030	0.5195341
98	0xbe281c5b	-0.16417067
99	0xbdee1d72	-0.1162671
100	0xbf0b455a	-0.544027
101	0xbe9c023c	-0.30470455
102	0xbe74a2e7	-0.23890267
103	0xbe311502	-0.1729317
104	0x3f19695c	0.5992639
105	0xbf84f8c0	-1.0388412
106	0x3f680bec	0.9064319
107	0x3ea1d396	0.3160674
108	0xbe76b1a7	-0.24091206
109	0xbe8c4f18	-0.27404094
110	0x3eaf0b00	0.3418808
111	0xbf182c70	-0.59442806
112	0xbf5354ce	-0.82551277
113	0xbe63ea19	-0.2225727
114	0x3e814806	0.25250262
115	0x3e28690f	0.16446327
116	0xbf3da0dd	-0.7407358
117	0x3f832b6b	1.0247625
118	0x3e78574f	0.24252056
119	0x3eba2582	0.3635674
120	0xbf160ec4	-0.5861628
121	0xbe8909e5	-0.2676536
122	0x3f3f86eb	0.74815243
123	0xbe91a74f	-0.2844796
124	0xbf24c2df	-0.6435985
125	0x3ef0f0e6	0.4705879
126	0xbe8edfc9	-0.2790511
127	0x3ecb62f6	0.3972394
128	0x3f1600f2	0.5859519
129	0xbe796a26	-0.24356899
130	0xbf92a488	-1.1456461
131	0x3ee1ce23	0.44102582
132	0x3eda0c47	0.42587492
133	0x3e53a754	0.206693
134	0x3e835f6a	0.25658733
135	0x3d77103f	0.060318228
136	0xbf74d6ca	-0.9564024
137	0x3e9e9aa0	0.30977345
138	0x3eac033c	0.33596218
139	0x3e9bd1e7	0.3043358
140	0x3e96cce3	0.2945319
141	0x3dbf2083	0.09332373
142	0xbd926101	-0.07147408
143	0x3dcbbc73	0.09948053
144	0xbdfc9070	-0.12332237
145	0xbe9c6a20	-0.30549717
146	0x3e745bf6	0.23863205
147	0x3f12656d	0.57186013
148	0x3f19d78b	0.6009452
149	0xbdefdba1	-0.11711813
150	0x3c1e189c	0.009649422
151	0xbe3a37f5	-0.18185408
152	0xbe996d81	-0.29966357
153	0xbf12f0a0	-0.57398415
154	0xbf54432d	-0.82915
155	0x3cbad4b3	0.022806501
156	0x3ed06de4	0.4070884
157	0x3e1aa13f	0.15100573
158	0x3daecc98	0.08535117
159	0x3dfe9ab0	0.12431848
160	0x3d885a50	0.06657851
161	0xbdd4987c	-0.103806466
162	0x3f1ec215	0.62014896
163	0xbe1c9a8f	-0.15293334
164	0x3e019b76	0.1265696
165	0x3e58e726	0.21181926
166	0xbdf71a5a	-0.12065573
167	0xbe8dc35c	-0.2768811
168	0x3de0fc97	0.10985678
169	0x3da601b3	0.08105793
170	0x3e5d717e	0.21625325
171	0x3f693677	0.9109873
172	0x3f50e99a	0.8160645
173	0xbf40b34f	-0.75273603
174	0x3ebf8ae4	0.37410653
175	0xbe334c50	-0.1750958
176	0xbf4018e1	-0.7503796
177	0xbf4f1fc0	-0.8090782
178	0x3ed56c9f	0.41684434
179	0x3f42c6d2	0.76084626
180	0xbf0a92d8	-0.54130316
181	0xbf257147	-0.6462597
182	0x3ef95eb3	0.48705062
183	0xbefabd11	-0.4897237
184	0x3f03e601	0.51522833
185	0x3f390342	0.72270596
186	0x3f2adb43	0.66740817
187	0x3f636b86	0.8883594
188	0xbca8fb2f	-0.020627586
189	0x3d67c077	0.056580033
190	0x3ee853c7	0.45376417
191	0xbf2198da	-0.6312386
192	0xbed46f60	-0.41491222
193	0x3f2e1369	0.6799837
194	0x3e8bcc67	0.27304384
195	0x3f1c6422	0.6109029
196	0xbe1317b8	-0.14364517
197	0xbe90d1b4	-0.2828499
198	0x3f1be390	0.6089411
199	0xbc8d1c74	-0.017225482
200	0xbee6bb71	-0.4506488
201	0x3f8b0aca	1.0862668
202	0x3e065546	0.13118467
203	0xbef591cd	-0.479628
204	0xbeadd8fa	-0.33954602
205	0x3f2b86ef	0.6700277
206	0x3f0a63a8	0.54058313
207	0x3f1ab911	0.6043864
208	0x3e9700ac	0.294927
209	0x3ee7d457	0.4527919
210	0xbf2e5950	-0.6810503
211	0xbe39d26f	-0.1814668
212	0xbeb4b371	-0.35293153
213	0xbc6d52ca	-0.0144850705
214	0x3f100897	0.5626311
215	0xbf4af576	-0.79280794
216	0x3ecf137f	0.40444562
217	0x3f25f227	0.6482262
218	0x3e7218f2	0.23642328
219	0x3f50cbc9	0.8156095
220	0x3f373fb1	0.7158156
221	0xbedee413	-0.43533382
222	0x3ed20ca0	0.41025257
223	0xbeea7bf0	-0.45797682
224	0xbf2fd7cb	-0.6868865
225	0x3e5931b6	0.2121037
226	0xbf0c84fc	-0.5489042
227	0x3ebb391c	0.36567008
228	0xbe9c6d7c	-0.3055228
229	0x3df7025e	0.120609984
230	0x3e1feff4	0.15618879
231	0xbf211457	-0.6292166
232	0x3e48e815	0.19619782
233	0xbc5e39df	-0.013563602
234	0x3e6f67f1	0.23379494
235	0xbf003d63	-0.5009367
236	0xbe538f62	-0.20660165
237	0xbf4b8e05	-0.7951358
238	0x3f917616	1.1364162
239	0x3dba061c	0.090831965
240	0xbe0dd073	-0.13849048
241	0xbe786038	-0.24255455
242	0x3f711656	0.94174707
243	0x3f3cefe4	0.73803544
244	0xbf864d36	-1.0492313
245	0x3e88a964	0.26691735
246	0xbec3b9fc	-0.38227832
247	0xbe169ddf	-0.1470866
248	0xbb8ac892	-0.0042353356
249	0x3e17f73d	0.14840408
250	0x3f1894c4	0.59602
251	0xbe22daad	-0.1590373
252	0xbe3c7e31	-0.18407513
253	0xbe04bd77	-0.129629
254	0xbebcbbf2	-0.3686214
255	0x3d98579f	0.074385874

linear.bias f4 [100]
0	0xbf2cb0bc	-0.67457175
1	0xbed5593f	-0.41669652
2	0xbf0eb6fc	-0.5574796
3	0xbf26a68f	-0.650979
4	0xbf180351	-0.5938006
5	0xbf1105bf	-0.5664939
6	0xbe91ebc0	-0.28500175
7	0xbef45929	-0.47724274
8	0xbedbd31f	-0.4293451
9	0xbf312c38	-0.692081
10	0x3f0db1dc	0.55349517
11	0x3c951382	0.018197779
12	0xbd3bb10e	-0.04582315
13	0xbd2fdc27	-0.042934563
14	0x3eb709db	0.35749707
15	0xbc5e32a3	-0.013561877
16	0xbea5bf84	-0.32372677
17	0x3d5e6e1b	0.054304224
18	0x3ecaa88e	0.39581722
19	0xbf4d74f2	-0.8025657
20	0xbf176bd4	-0.5914891
21	0x3e803bac	0.25045526
22	0x3df9d6f3	0.121992014
23	0x3e67bd90	0.22630906
24	0x3e7547bc	0.23953146
25	0x3a1098f6	0.0005515957
26	0xbf3f5346	-0.7473644
27	0x3e4e44cd	0.20143433
28	0x3e4b7fce	0.19872972
29	0x3eb3a386	0.35085696
30	0x3e86db89	0.26339367
31	0xbd21fd29	-0.039548073
32	0x3d5b3521	0.053517465
33	0xbf796637	-0.9742159
34	0x3e1f3c1f	0.15550278
35	0xbf82d649	-1.0221645
36	0xbe3e0403	-0.18556218
37	0xbee15123	-0.44007215
38	0xbf0a2598	-0.53963614
39	0xbed1d3ec	-0.40981996
40	0xbf00cb7d	-0.503105
41	0xbf2278f1	-0.6346579
42	0xbf041d1f	-0.51606935
43	0xbe99439d	-0.29934397
44	0xbe013669	-0.12618412
45	0xbf39ff8c	-0.7265556
46	0xbefc92e4	-0.4933082
47	0xbee0e844	-0.43927205
48	0xbeaabe21	-0.33348182
49	0xbeaa6346	-0.33278865
50	0xbedec7fa	-0.43511945
51	0xbf0bee84	-0.5466082
52	0xbf13beb8	-0.5771289
53	0xbf19d9da	-0.6009804
54	0xbee23a44	-0.44185078
55	0xbda0dea4	-0.07854965
56	0xbf06aa1d	-0.5260332
57	0xbf172381	-0.5903855
58	0xbe900d0b	-0.2813495
59	0xbf7db88f	-0.9910974
60	0xbec920c8	-0.39282823
61	0xbf291599	-0.6604858
62	0xbf806e7b	-1.0033716
63	0xbebf7a17	-0.37397835
64	0xbfd54811	-1.6662618
65	0xbffda58f	-1.981615
66	0xbff7e222	-1.9365885
67	0xbf2bd88f	-0.6712732
68	0xbe463b5f	-0.19358586
69	0xbf15a64d	-0.5845688
70	0xbf5dd0d7	-0.8664679
71	0xbf7b973a	-0.9827763
72	0xbfe59bf8	-1.7938223
73	0xbec174b0	-0.37784338
74	0xbf3ba223	-0.73294276
75	0xbefb90d4	-0.49133933
76	0xbfe8e6b0	-1.81954
77	0xbf8577a5	-1.0427138
78	0xbfa35ba1	-1.2762338
79	0xbfe37a7c	-1.7771754
80	0xbfe31751	-1.7741491
81	0xbfcef319	-1.6167938
82	0xbf99f5b8	-1.2028112
83	0xbfd7fd53	-1.6874183
84	0xbf310091	-0.6914149
85	0xbfce5553	-1.6119789
86	0xbf4111ee	-0.75417984
87	0xbff1ec41	-1.8900224
88	0xbfe78c60	-1.8089714
89	0xbf47c707	-0.78038067
90	0xbff1ba70	-1.8885021
91	0xbfeb2fbd	-1.8373944
92	0xbfebdc66	-1.8426635
93	0xbffb46d8	-1.9630995
94	0x3f36287c	0.71155524
95	0xbfeb067f	-1.8361357
96	0xbf1a3faa	-0.60253394
97	0xbfdbc15e	-1.7168386
98	0xbfe117a1	-1.7585336
99	0xbfe6d8eb	-1.8034948
