Results/Complete Sherlock Holmes/GRU/Adam/1/100/model.pt (torch, 285087 bytes, 6 tensors)

rnn.weight_ih f4 [300, 100]
-0.011610162 -0.030873913 -0.3736096 0.51411164 0.06993005 -0.867718 -0.4411667 -1.4042057
0.1818176 -0.20967866 0.15883231 -1.0623845 -1.9824347 -1.0796714 -0.917 -2.2390122
1.2021774 1.1493019 -0.09645088 -1.0456749 -1.7629997 1.089162 -1.4404479 -1.3298228
2.448343 -0.7946215 -0.2656716 0.4337356 -0.9790801 -1.6427019 1.7544171 -2.2234855
-1.5252203 -0.023685811 -1.8921013 -1.1378436 -0.6782279 -1.8939323 -0.8077599 -1.3350239
-1.0809388 -1.3126842 0.90906376 -2.9392152 -2.0976906 -0.18633664 0.70409983 0.17091627
0.3212195 -1.1194276 0.013751476 0.5717745 0.29090375 -0.28439218 -1.7845116 -2.195652
0.12437231 0.64538974 0.49897859 -0.24405678 0.23784459 0.53786635 -0.63726276 -0.09271633
-0.00861679 0.0411788 0.04451569 -0.3048297 -3.4839275 0.3795091 0.059939507 -0.18522733
-0.004424855 -2.4647593 -1.2092949 0.5705701 0.16927138 0.78428936 -1.6350287 -0.06457183
-0.09896896 0.03217212 -1.8585652 -0.043010544 -0.6523767 -0.08761882 0.6669615 0.070195206
-0.0775734 -0.356398 -0.09656179 -0.036298834 0.08060854 -0.08497262 0.7652174 0.018110491
0.6084085 0.008240595 0.09812289 0.053252123 -0.5839845 -0.5577432 -0.8096313 0.09352097
0.7381029 -0.21823831 -0.36714336 -0.44539192 -0.1398463 -0.12676665 -3.7125483 -0.3264076
1.4645677 -0.646241 1.1361209 -2.0549793 2.8651874 0.47810614 0.29643455 -1.5881081
0.5846185 1.1241672 -1.7090003 -1.0774274 -0.83969086 -0.41489393 -1.492431 1.3983158
0.4612998 -3.4760368 2.3102841 -0.12808914 2.253347 -0.19229339 -1.1866126 0.88437355
-1.7186073 -3.440304 0.050539013 -1.2500297 1.2089566 -0.8792049 -0.7902888 0.8757688
-0.022795385 -0.71432847 -0.31991693 -1.5413227 -1.9240719 0.4784326 -0.6511055 -1.2735395
-0.19665042 0.91236013 0.09331858 1.8968518 -1.4334328 -0.75781167 0.5969422 -0.35853437
0.03993984 0.0066394913 -0.41276482 0.35516834 0.025922246 0.063597076 -0.03216435 0.49909207
-0.64323294 -0.59870046 0.844416 -0.24093127 0.06905233 -0.5600643 -3.291257 -1.4725685
0.084463745 -0.026990574 -0.6983158 -0.03467665 -0.07634984 0.091166906 -1.5796084 -0.095442906
0.4345872 -0.06990131 0.69579405 0.0985873 -0.093378246 0.27476263 -0.04242015 -0.08181517
-0.05662291 -0.07920827 -0.85461235 -0.06598071 -1.6928813 -0.081722006 0.05043354 0.013384901
-0.3283217 0.71322286 -0.18907215 1.5099431 0.35986263 0.7878837 -0.2713514 0.0059594386
-0.69511694 0.6903618 -2.2274885 -2.694569 0.7381763 -0.46579987 1.4135875 -0.78268856
-0.06303236 0.17975898 1.1851915 -0.1632648 0.09740199 -2.948522 0.61763316 -1.7853026
0.70971394 -0.016705167 -1.3324561 0.1040907 -0.55514103 -0.8137171 -1.9216546 0.83705956
-0.5182628 0.74602205 -0.13948357 0.19711573 -2.2265227 -0.2050295 -1.74783 -0.7054604
0.29082394 -1.0213878 -0.7728382 -0.3512219 -0.8325126 -0.6376707 -1.1691595 -1.0162789
-1.5702779 -0.59694004 -0.8706935 -1.8037441 -1.1045152 -0.19678213 -0.6796333 -1.538969
00000000: 8d38 3ebc 4aeb fcbc c249 bfbe d29c 033f
00000010: 7c37 8f3d c422 5ebf 9ae0 e1be 03bd b3bf
00000020: 652e 3a3e 01b6 56be f0a4 223e 37fc 87bf
00000030: 6cc0 fdbf ac32 8abf 83c0 6abf fa4b 0fc0
00000040: f3e0 993f 531c 933f 0a88 c5bd add8 85bf
00000050: f9a9 e1bf a969 8b3f 9960 b8bf a237 aabf
00000060: a7b1 1c40 516c 4bbf 1c06 88be 9812 de3e
00000070: fea4 7abf 0e44 d2bf bd90 e03f 964d 0ec0
00000080: 6b3a c3bf bf08 c2bc 6030 f2bf dca4 91bf
00000090: 58a0 2dbf 606c f2bf 5ac9 4ebf 10e2 aabf
000000a0: 345c 8abf 0906 a8bf 67b8 683f 1a1c 3cc0
000000b0: 9040 06c0 08cf 3ebe e33f 343f ad04 2f3e
000000c0: e276 a43e 6749 8fbf df4d 613c d05f 123f
000000d0: 56f1 943e da9b 91be e06a e4bf 9085 0cc0
000000e0: e9b6 fe3d 4338 253f 1f7a ff3e 05ea 79be
000000f0: 888d 733e 9cb1 093f a723 23bf 0fe2 bdbd
00000100: 702d 0dbc 1aab 283d 1656 363d a312 9cbe
00000110: abf8 5ec0 044f c23e 2183 753d 3cac 3dbe
00000120: 60fe 90bb 9ebe 1dc0 2dca 9abf e210 123f
00000130: 7a55 2d3e 30c7 483f 9f48 d1bf 3c3e 84bd
00000140: 3db0 cabd eac6 033d 77e5 edbf d32b 30bd
00000150: 2902 27bf 7f71 b3bd fdbd 2a3f 81c2 8f3d
00000160: cede 9ebd cc79 b6be 30c2 c5bd 16ae 14bd
00000170: 1716 a53d 2006 aebd 4ae5 433f 745c 943c
00000180: a9c0 1b3f 9003 073c a7f4 c83d e61e 5a3d
00000190: 0280 15bf 42c8 0ebf ff43 4fbf ec87 bf3d
000001a0: 50f4 3c3f dd79 5fbe 37fa bbbe 690a e4be
000001b0: de33 0fbe 1ecf 01be 649a 6dc0 e61e a7be
000001c0: f476 bb3f 0d70 25bf 696c 913f c884 03c0
000001d0: 3b5f 3740 54ca f43e 45c6 973e 2047 cbbf
000001e0: 8fa9 153f b6e4 8f3f 86c0 dabf 24e9 89bf
000001f0: fbf5 56bf fa6c d4be fb07 bfbf 03fc b23f
00000200: 7d2f ec3e 6377 5ec0 b2db 1340 cd29 03be
00000210: d636 1040 8fe8 44be ece2 97bf 4e66 623f
00000220: 53fb dbbf f12d 5cc0 ff01 4f3d f900 a0bf
00000230: 17bf 9a3f 9313 61bf 5e50 4abf 6232 603f
00000240: 63bd babc 3bde 36bf 27cc a3be 104a c5bf
00000250: fd47 f6bf 1ef5 f43e daae 26bf 5803 a3bf
00000260: ba5e 49be 6f90 693f d01d bf3d 0acc f23f
00000270: ba7a b7bf f2ff 41bf 34d1 183f d191 b7be
00000280: f597 233d 1790 d93b e955 d3be a0d8 b53e
00000290: e45a d43c 2f3f 823d c4be 03bd ff88 ff3e
000002a0: eaaa 24bf 6f44 19bf a62b 583f b0b6 76be
000002b0: 4f6b 8d3d 6060 0fbf f4a3 52c0 207d bcbf
000002c0: 54fb ac3d 561b ddbc d3c4 32bf 1a09 0ebd
000002d0: 4e5d 9cbd b7b5 ba3d 9c30 cabf 9277 c3bd
000002e0: 3782 de3e 6b28 8fbd 8f1f 323f 23e8 c93d
000002f0: 183d bfbd b0ad 8c3e c0c0 2dbd b68e a7bd
00000300: 6ded 67bd f237 a2bd e0c7 5abf e520 87bd
00000310: 56b0 d8bf de5d a7bd 6693 4e3d 584c 5b3c
00000320: c819 a8be c695 363f 219c 41be d145 c13f
00000330: ea3f b83e bfb2 493f 92ee 8abe 6547 c33b
00000340: 2ff3 31bf 8dbb 303f 2c8f 0ec0 d273 2cc0
00000350: 1ff9 3c3f 527d eebe 6ff0 b43f 475e 48bf
00000360: 1c17 81bd bd12 383e 5bb4 973f e32e 27be
00000370: b27a c73d 96b4 3cc0 351d 1e3f cc84 e4bf
00000380: d0af 353f 46d9 88bc ec8d aabf 812d d53d
00000390: b91d 0ebf c44f 50bf c7f8 f5bf 8949 563f
000003a0: dfac 04bf 4dfb 3e3f c8d4 0ebe b5d8 493e
000003b0: 597f 0ec0 41f3 51be e5b8 dfbf 0e99 34bf
000003c0: e0e6 943e d6bc 82bf b9d8 45bf 5bd3 b3be
000003d0: 8c1f 55bf 633e 23bf 05a7 95bf 6d15 82bf
000003e0: defe c8bf 10d1 18bf c5e5 5ebf 16e1 e6bf
000003f0: c160 8dbf 4181 49be 73fc 2dbf f0fc c4bf

rnn.weight_hh f4 [300, 100]
-1.3993535 -0.27534154 0.30145293 0.9162861 -0.3160389 0.044171277 -0.07576152 -0.17442709
0.12213067 -1.4250661 -1.1087189 0.45827466 1.0462761 0.6421116 0.9049553 0.22236845
-0.4653504 -1.5025659 0.1058283 1.1497827 0.5062518 0.3438915 0.46973085 -0.33478525
0.0060460903 -0.22029047 0.50549877 0.30009457 0.004189684 0.20141195 -1.0017503 -0.24328649
0.13312955 0.34588867 -0.5572771 0.76057774 0.5068472 0.11058209 -0.777036 0.19338286
-0.2431782 -0.28236854 -0.39323607 0.043256383 -0.37796625 0.79354995 -0.17616162 -0.23268393
-0.64526945 0.7836941 -0.27268034 0.17305212 -0.43242326 -0.34080556 0.30154842 -0.4382509
-0.5158153 -0.3147805 -0.10382767 -0.22272888 0.25002185 0.44115674 -0.45528418 0.2422389
-0.68480146 0.1457555 0.06623424 0.15313776 0.53684616 -0.17469838 0.6693278 -1.2393126
0.556347 0.06055582 -0.039561015 0.91128075 -0.25044274 0.38937607 0.66113114 0.8752923
-0.39493936 0.207103 0.34530312 -1.1701555 -0.6028796 1.276749 0.5748037 -0.074909635
-1.0534042 -0.37191603 -0.0997913 1.2335154 -0.39827734 -0.6144349 0.23394787 0.8775607
0.6866326 0.4825837 1.0284011 -1.0722756 -0.23711556 0.6104209 0.55624354 -0.70675796
0.91447806 -0.067982785 0.24064398 0.3685625 -0.661608 0.2682257 0.053489625 0.67891425
-0.3160895 -0.03858266 0.69856644 0.24411303 -0.91954887 0.29242617 -0.011654205 -0.23762242
0.20386745 0.39316192 0.29479757 -0.14849803 -0.18791923 -0.62107456 0.46594247 -0.56145287
-0.43437687 -0.042760886 -0.24697493 0.47661802 0.056724977 0.6076157 -0.32076487 -0.27883488
0.33492947 -0.23760775 -0.22169882 0.44224474 0.13222471 0.7627682 0.37149784 -0.0171267
0.41216207 0.4941987 0.3194522 -1.0607649 0.11373699 0.2512049 -0.08574639 -0.18250814
-0.9939371 0.148307 0.30168498 -0.30422702 0.002809566 -1.2141871 0.31895795 0.20011668
0.17369394 -0.80210227 -0.27274108 0.45144495 -0.3466671 -0.18689236 0.6021725 -0.18022875
-0.043438915 -0.5688222 -0.19932266 -0.5568388 0.5944015 0.48765236 -0.32268095 0.71867883
0.33147612 -0.2594054 -0.8462584 -0.14148661 0.12569764 -0.35764787 -0.20560925 -0.6613472
0.52730495 -0.19947234 0.46069628 0.32398587 0.2688734 0.54172975 0.59413975 0.8409592
-0.23077431 -0.071178034 -1.0429494 0.5003725 0.054616865 0.14277671 0.790654 -0.52778256
-0.26794204 0.54189295 1.2398263 0.20600009 -0.6918766 -0.2855763 -0.024889952 0.7227856
-1.3444027 0.45157307 -0.55154055 -0.15977743 0.068870924 0.8407683 -0.61420345 0.53005195
-1.1274252 0.51429814 0.7528187 -0.51290673 -0.5729805 -0.14566484 -0.34663808 -0.36585012
0.55318886 -0.81680167 -0.42737445 0.5320612 0.56036043 0.059981648 -0.07843803 -0.5019015
0.19377689 -0.5719483 1.0694761 0.07939206 1.7068837 0.45602527 0.21666896 -0.08367245
-1.0336039 0.7427988 0.22603787 0.29439512 -0.60467887 0.5781642 -0.19166513 -0.13382442
0.59718364 0.39695504 -0.39459187 0.62867606 1.2991747 0.36071405 -0.20872717 -0.710775
00000000: 041e b3bf 91f9 8cbe 0a58 9a3e ba91 6a3f
00000010: dacf a1be f1ec 343d db28 9bbd 049d 32be
00000020: a51f fa3d 9168 b6bf 80ea 8dbf faa2 ea3e
00000030: 60ec 853f 6d61 243f 27ab 673f 8eb4 633e
00000040: 6842 eebe 1454 c0bf 82bc d83d 142c 933f
00000050: b899 013f 8c12 b03e 9080 f03e f968 abbe
00000060: 481e c63b d393 61be 5e68 013f ffa5 993e
00000070: 9e49 893b ef3e 4e3e 5b39 80bf 1820 79be
00000080: 1d53 083e 5218 b13e b6a9 0ebf 39b5 423f
00000090: bdc0 013f dd78 e23d d5eb 46bf 2806 463e
000000a0: b503 79be 9c92 90be 3d56 c9be 9b2d 313d
000000b0: cb84 c1be 1726 4b3f b663 34be b244 6ebe
000000c0: 6130 25bf 2da0 483f c29c 8bbe 9334 313e
000000d0: 9566 ddbe 117e aebe 8e64 9a3e 6c62 e0be
000000e0: 790c 04bf e92a a1be 9aa3 d4bd 0a13 64be
000000f0: dd02 803e 4cdf e13e 021b e9be 790d 783e
00000100: 264f 2fbf ee40 153e d1a5 873d 25d0 1c3e
00000110: c06e 093f 22e4 32be 1159 2b3f cca1 9ebf
00000120: c26c 0e3f 6109 783d bb0a 22bd b249 693f
00000130: 083a 80be 4d5c c73e e43f 293f 2813 603f
00000140: 7e35 cabe cf12 543e 92cb b03e a8c7 95bf
00000150: 5156 1abf 836c a33f 5626 133f 396a 99bd
00000160: f3d5 86bf c76b bebe 625f ccbd d5e3 9d3f
00000170: 02eb cbbe 9b4b 1dbf 0890 6f3e d1a7 603f
00000180: 27c7 2f3f 3615 f73e a6a2 833f 5440 89bf
00000190: 6cce 72be 8b44 1c3f fa65 0e3f 17ee 34bf
000001a0: 3c1b 6a3f 8f3a 8bbd 606b 763e 39b4 bc3e
000001b0: 245f 29bf e154 893e f017 5b3d 53cd 2d3f
000001c0: 7cd6 a1be da08 1ebd 40d5 323f c4f8 793e
000001d0: 8e67 6bbf e2b8 953e 47f1 3ebc 4b53 73be
000001e0: a1c2 503e 854c c93e b5ef 963e de0f 18be
000001f0: e66d 40be befe 1ebf 0390 ee3e 60bb 0fbf
00000200: a566 debe 0a26 2fbd ffe6 7cbe 4707 f43e
00000210: 7358 683d b48c 1b3f 4b3b a4be 72c3 8ebe
00000220: e07b ab3e 724f 73be 0405 63be e76d e23e
00000230: ea65 073e c744 433f f734 be3e 4b4d 8cbc
00000240: e806 d33e 9d07 fd3e 3d8f a33e 25c7 87bf
00000250: f0ee e83d ee9d 803e ce9b afbd 6ae3 3abe
00000260: a972 7ebf cadd 173e 7476 9a3e a5c3 9bbe
00000270: b220 383b 7c6a 9bbf 754e a33e 63eb 4c3e
00000280: d3dc 313e 9356 4dbf b8a4 8bbe cb23 e73e
00000290: 5a7e b1be b660 3fbe fa27 1a3f e38d 38be
000002a0: 01ed 31bd 559e 11bf 3d1b 4cbe fd8c 0ebf
000002b0: b22a 183f 92ad f93e 7036 a5be 56fb 373f
000002c0: 3db7 a93e c9d0 84be 64a4 58bf dee1 10be
000002d0: e2b6 003e 9f1d b7be 3b8b 52be 0d4e 29bf
000002e0: 75fd 063f 7a42 4cbe 62e0 eb3e 7ae1 a53e
000002f0: c6a9 893e cdae 0a3f 8b19 183f 1a49 573f
00000300: 1a50 6cbe cac5 91bd 5e7f 85bf 6a18 003f
00000310: efb5 5f3d 0f34 123e 4d68 4a3f c21c 07bf
00000320: b32f 89be 7fb9 0a3f a1b2 9e3f b0f1 523e
00000330: d31e 31bf 0f37 92be 03e6 cbbc 7a08 393f
00000340: 6315 acbf 9634 e73e c331 0dbf b29c 23be
00000350: 330c 8d3d 973c 573f 703c 1dbf 7cb1 073f
00000360: 784f 90bf 0ba9 033f bab8 403f db4d 03bf
00000370: daae 12bf 2a29 15be 8c7a b1be b550 bbbe
00000380: c99d 0d3f ea19 51bf d3d0 dabe 2a35 083f
00000390: c873 0f3f 51af 753d 1ea4 a0bd 9e7c 00bf
000003a0: 736d 463e 346b 12bf 98e4 883f 4e98 a23d
000003b0: 2a7b da3f 257c e93e 78de 5d3e 765c abbd
000003c0: 224d 84bf 1028 3e3f 7976 673e f5ba 963e
000003d0: 3ccc 1abf 9202 143f dd43 44be 4509 09be
000003e0: 07e1 183f b13d cb3e f207 cabe eaf0 203f
000003f0: 5b4b a63f 83af b83e 93bc 55be 5af5 35bf

rnn.bias_ih f4 [300]
-0.9224998 -0.6691537 -1.0362006 -0.59412754 -0.8431398 -0.5828786 0.6151366 -0.89827317
-0.9902775 -0.61854595 -0.5082546 -0.99027467 -0.74875385 -0.91529864 -0.8699661 -0.65626216
-0.685259 -0.948364 -0.50418437 -1.1652758 -0.75091034 -1.1217015 -0.82552075 0.0907382
-0.35911447 -0.7555483 -0.8770241 -0.7654473 -0.8540906 -0.6482796 -0.6937082 -1.0198891
0.2072669 -0.6863814 -0.9645343 -1.160032 -1.0501595 -0.25020853 -1.1881081 -1.1316515
-0.4296904 -0.71383584 -0.71193784 -1.2680799 -1.0022258 -0.4003285 -0.8952343 -0.39037478
-0.94285005 -1.088673 -0.9499672 -0.54653245 -0.3570244 0.0016973773 -0.7073552 -0.95532185
-1.1648414 -0.3481758 -0.7510773 -1.029311 -0.43940634 -0.87016463 -0.8620855 -0.4601556
-1.106543 -0.42122617 -0.48892036 -0.7811538 -0.868237 -0.40330896 -0.77305883 -1.0683784
-0.8514879 -0.939047 -0.099126056 -0.9979493 -0.46990898 -0.15713423 -0.50275177 -1.1443938
-0.4236025 -0.3692661 -0.76942873 -0.94522935 -0.8923217 -0.85772926 -0.5884117 -1.1452951
-0.2914519 -0.8162149 -0.65808785 -0.8065783 -0.54243535 -0.9439223 -0.72499466 -1.19086
-0.88544303 -0.9205538 -1.0068641 -0.06519506 -1.2205439 -1.182903 -1.0921764 -0.65086865
-0.8450593 -0.8564059 0.9316549 -0.73567545 -1.3890275 -0.932799 -0.011296216 -1.2922876
-0.74619687 -1.0006893 -0.6419063 -1.1595749 -0.7915925 -0.79935944 0.05041214 -0.9283892
-0.74912447 -0.20462579 -0.7858616 -1.0108459 -1.1217629 -0.9505511 -0.78976077 -0.43611276
-0.7640269 -0.748965 -1.098228 -0.2876538 -1.1410962 -0.8606461 -0.6341398 -0.49413246
-1.157098 -0.27129588 -0.7822953 -0.63280797 -0.933334 -0.7486075 -1.0835153 -1.0968184
-0.78016704 -1.0406898 -0.782494 0.9023021 -1.2362554 -1.1238554 -0.9182406 -0.6466024
0.16093817 -0.7992192 -1.3863453 -0.117389634 -0.7252937 -0.40131658 -1.1928636 -0.63053006
-0.93682903 -0.65487707 -0.4899885 -0.038179234 -0.77152145 1.3444613 0.0018709097 -1.0747695
-0.63050926 -0.3446374 -0.44225898 -0.93117666 -0.5872211 -0.24122761 -0.39527416 -0.5515587
-1.0275928 -0.968348 -0.6877462 -1.6892686 -1.2029406 -0.6089221 -0.3084023 -0.57809025
-0.64728487 -1.171177 0.38969472 -0.004687882 -0.7029743 -0.99679494 0.02334402 -0.9042493
0.15191221 -0.7510397 -0.7275663 -0.5554945 -0.8168807 -0.5848174 -0.26954815 -0.70140445
0.091595195 -0.016484968 -0.036114927 -0.13891904 -0.18547335 -0.07827026 0.23902771 -0.058566
0.0022256125 0.069739535 -0.025780315 -0.03540636 0.022195913 -0.19812474 0.130449 0.0043835705
-0.07553012 0.008858383 0.17850345 -0.066425785 -0.02476068 -0.033698794 0.10492052 0.14081645
0.013151333 0.006536921 -0.020220935 0.017607719 0.029501483 -0.08836954 -0.052560955 0.08462189
-0.36296383 -0.103026986 0.13454413 0.26397422 -0.082892254 0.08704631 -0.18943287 -0.07913522
0.071223006 -0.015742855 0.04584195 -0.17895594 -0.058839925 -0.23341922 0.090407975 -0.05950338
-0.12423697 -0.17229658 0.06998944 0.033485696 -0.099953614 0.07592715 -0.008444917 0.0055616302
00000000: f228 6cbf a84d 2bbf 39a2 84bf be18 18bf
00000010: 03d8 57bf 8837 15bf 9879 1d3f 3bf5 65bf
00000020: d482 7dbf 0759 1ebf f91c 02bf a482 7dbf
00000030: 55ae 3fbf 0351 6abf 19b6 5ebf cc00 28bf
00000040: 226d 2fbf fcc7 72bf 3a12 01bf c227 95bf
00000050: a93b 40bf ea93 8fbf 5455 53bf f3d4 b93d
00000060: dadd b7be 9d6b 41bf a784 60bf 5bf4 43bf
00000070: aea5 5abf a7f5 25bf dc96 31bf ba8b 82bf
00000080: c63d 543e b1b6 2fbf b8eb 76bf ee7b 94bf
00000090: a06b 86bf 551b 80be ed13 98bf f5d9 90bf
000000a0: 6100 dcbe f2bd 36bf 8f41 36bf 7150 a2bf
000000b0: ef48 80bf dbf7 ccbe 132e 65bf 34df c7be
000000c0: 9f5e 71bf a359 8bbf 0d31 73bf 8de9 0bbf
000000d0: e7cb b6be 887a de3a 3b15 35bf f98f 74bf
000000e0: 8619 95bf 1944 b2be 9a46 40bf 76c0 83bf
000000f0: def9 e0be 1cc3 5ebf a3b1 5cbf 8499 ebbe
00000100: 33a3 8dbf f5aa d7be c553 fabe b2f9 47bf
00000110: c844 5ebf 837e cebe 2fe7 45bf a0c0 88bf
00000120: 1cfb 59bf 6265 70bf 9a02 cbbd 9b79 7fbf
00000130: e997 f0be cce7 20be 57b4 00bf 7f7b 92bf
00000140: 6de2 d8be 7210 bdbe 48f9 44bf 8dfa 71bf
00000150: 326f 64bf 2594 5bbf 26a2 16bf 0899 92bf
00000160: 2f39 95be 76f3 50bf 7278 28bf ea7b 4ebf
00000170: 0bdd 0abf e4a4 71bf 4099 39bf 1a6e 98bf
00000180: 65ac 62bf 6aa9 6bbf ece0 80bf fd84 85bd
00000190: c83a 9cbf 5e69 97bf 70cc 8bbf 549f 26bf
000001a0: ce55 58bf 6b3d 5bbf ef80 6e3f 3a55 3cbf
000001b0: a7cb b1bf eacb 6ebf c413 39bc ae69 a5bf
000001c0: c206 3fbf 9616 80bf f953 24bf f36c 94bf
000001d0: cea5 4abf d2a2 4cbf f67c 4e3d eaaa 6dbf
000001e0: 9fc6 3fbf 6c89 51be 3a2e 49bf 6663 81bf
000001f0: ed95 8fbf 5157 73bf c32d 4abf 2c4a dfbe
00000200: 4497 43bf 2cbc 3fbf bc92 8cbf 5c47 93be
00000210: 710f 92bf 4e53 5cbf fc56 22bf eefe fcbe
00000220: ca1b 94bf 4be7 8abe 8144 48bf b4ff 21bf
00000230: faee 6ebf bea4 3fbf a1b0 8abf 8c64 8cbf
00000240: 07b9 47bf 5335 85bf 8751 48bf 45fd 663f
00000250: 9e3d 9ebf 7eda 8fbf d111 6bbf bc87 25bf
00000260: facc 243e a199 4cbf c373 b1bf fa69 f0bd
00000270: d9ac 39bf 5e79 cdbe c1af 98bf 6b6a 21bf
00000280: 07d4 6fbf 06a6 27bf c6df fabe d461 1cbd
00000290: 6e82 45bf 4f17 ac3f 5039 f53a 0c92 89bf
000002a0: 0e69 21bf 5074 b0be c56f e2be 9861 6ebf
000002b0: 1f54 16bf 5f04 77be 6061 cabe f332 0dbf
000002c0: 2988 83bf a8e5 77bf 2310 30bf f439 d8bf
000002d0: f5f9 99bf 52e2 1bbf e8e6 9dbe b9fd 13bf
000002e0: 76b4 25bf 21e9 95bf 1186 c73e ce9c 99bb
000002f0: 20f6 33bf f42d 7fbf f53b bf3c e27c 67bf
00000300: e08e 1b3e 2344 40bf c941 3abf e334 0ebf
00000310: 181f 51bf 98b6 15bf 3702 8abe 3e8f 33bf
00000320: 4396 bb3d 7c0b 87bc 3fed 13bd cb40 0ebe
00000330: baec 3dbe 284c a0bd aec3 743e e7e2 6fbd
00000340: 95db 113b 9ad3 8e3d 3d31 d3bc 4206 11bd
00000350: 34d4 b53c 36e1 4abe 6c94 053e 0ea4 8f3b
00000360: 89af 9abd c022 113c 9cc9 363e 3e0a 88bd
00000370: e9d6 cabc bf07 0abd 92e0 d63d 3032 103e
00000380: b078 573c ab33 d63b 60a6 a5bc 103e 903c
00000390: 18ad f13c 17fb b4bd 284a 57bd 3e4e ad3d
000003a0: 65d6 b9be d0ff d2bd f0c5 093e a127 873e
000003b0: 6ac3 a9bd 5645 b23d b1fa 41be a511 a2bd
000003c0: 5edd 913d 29f7 80bc c5c4 3b3d 3a40 37be
000003d0: 2202 71bd 7305 6fbe d127 b93d d1b9 73bd
000003e0: f46f febd 846e 30be a056 8f3d 4c28 093d
000003f0: 7bb4 ccbd b27f 9b3d 8d5c 0abc 563e b63b

rnn.bias_hh f4 [300]
-1.0713179 -0.64159685 -1.077517 -0.6049297 -0.83401585 -0.5658243 0.6181657 -0.96683615
-0.9860301 -0.63807774 -0.61304677 -1.0668336 -0.6610139 -0.86507916 -0.8303289 -0.58483124
-0.6912717 -0.94184625 -0.64220434 -1.1224959 -0.7452721 -1.1494497 -0.807396 0.06647704
-0.22507283 -0.75820214 -0.87479246 -0.6253667 -0.92409664 -0.62829846 -0.67945546 -1.0063713
0.30573097 -0.78394574 -0.9826536 -1.0915561 -1.0122565 -0.30034462 -1.1596496 -1.1391071
-0.46879625 -0.74456555 -0.79745907 -1.1885165 -1.0039276 -0.2610032 -0.86340225 -0.23769878
-0.94074804 -1.1403493 -0.98242813 -0.4963935 -0.5212944 0.053250495 -0.76178306 -1.1102233
-1.0827863 -0.3517748 -0.66732144 -0.9906472 -0.38276765 -0.73505455 -0.9436593 -0.4031064
-1.1267239 -0.5413266 -0.4690314 -0.81195027 -0.9219472 -0.5309125 -0.8042865 -0.99164283
-0.8354762 -1.0567719 -0.1520312 -1.0147717 -0.64636254 -0.12336629 -0.5671511 -1.2648076
-0.43918 -0.3539006 -0.644324 -1.0732838 -0.82793564 -0.78805584 -0.559448 -1.0444441
-0.3246632 -0.7025039 -0.6194642 -0.88386434 -0.5671243 -0.99293983 -0.74189603 -1.24004
-0.8811788 -0.88476723 -0.9016768 -0.061389513 -1.2420805 -1.2665392 -1.0973467 -0.6555483
-0.8155419 -0.86222106 0.9558961 -0.5635737 -1.3433062 -1.0124726 -0.065119855 -1.3059608
-0.7616608 -1.055444 -0.6097765 -1.2110666 -0.789571 -0.8813438 0.06858965 -0.9746983
-0.92197543 -0.21714623 -0.6600733 -0.89927185 -1.2518668 -1.0631796 -0.8708691 -0.43574762
-0.62527317 -0.73599327 -1.2148095 -0.3780328 -1.1709259 -0.9011004 -0.4820335 -0.5017044
-1.1233059 -0.36206383 -0.80298585 -0.6038877 -0.775045 -0.6853415 -1.1395957 -1.1538421
-0.84631926 -0.92317843 -0.77269804 0.91190845 -1.3266846 -1.107775 -0.90253675 -0.68781435
0.13067128 -0.708472 -1.3647714 -0.18202524 -0.75171477 -0.4862881 -1.0680903 -0.6252525
-0.9885051 -0.63787794 -0.58479273 -0.023296086 -0.85704446 1.2213292 0.074022554 -0.9986834
-0.689355 -0.2550808 -0.44639546 -0.93418616 -0.42686304 -0.14281 -0.3326615 -0.5103657
-1.1525668 -0.98550093 -0.7373874 -1.7050426 -1.1785247 -0.61608744 -0.2043341 -0.47932622
-0.57269824 -1.0134828 0.3143399 0.05853483 -0.77263665 -0.994281 0.039869905 -1.0191025
0.24983911 -0.69625825 -0.6784118 -0.46881786 -0.901403 -0.65611345 -0.32788372 -0.6923048
1.0668359 -0.46724555 -0.13542274 0.36023125 -0.23961137 -1.0940522 -1.31447 -0.17713778
0.18728378 0.7041559 -0.9537168 -0.6778232 -0.93806696 -0.8724349 -0.49581426 -0.4007743
0.39529032 -0.069551714 -0.42744723 0.03760609 -0.23803587 -0.32764447 0.56742215 0.9452658
1.1671852 0.41428903 -0.65684634 0.15877359 0.44346943 -0.6259238 -0.09083586 0.7074132
-1.477634 -0.4926213 0.169717 0.17153387 0.53534365 -0.42960802 -0.4607457 -0.59123176
0.5343553 -0.06345179 -1.0397178 -0.07721948 -0.8981812 -0.44357643 -0.21356152 0.3005627
0.9109719 -0.26636928 0.46610743 0.7389413 0.29867056 -0.8949359 -0.9082394 0.0051292265
00000000: f220 89bf b13f 24bf 14ec 89bf acdc 1abf
00000010: 1082 55bf dcd9 10bf 1b40 1e3f 9382 77bf
00000020: 786c 7cbf 1059 23bf a2f0 1cbf 018e 88bf
00000030: 3538 29bf d475 5dbf 6f90 54bf 80b7 15bf
00000040: 2ff7 30bf d61c 71bf 8167 24bf f2ad 8fbf
00000050: 27ca 3ebf 2b21 93bf 81b1 4ebf 1d25 883d
00000060: 7e79 66be 8919 42bf 66f2 5fbf 0818 20bf
00000070: 9991 6cbf 2bd8 20bf cbf0 2dbf c6d0 80bf
00000080: c588 9c3e abb0 48bf 308f 7bbf 1cb8 8bbf
00000090: 9f91 81bf c5c6 99be 666f 94bf 43ce 91bf
000000a0: 1006 f0be d99b 3ebf 4726 4cbf 4f21 98bf
000000b0: b380 80bf 36a2 85be ee07 5dbf 4f67 73be
000000c0: ddd4 70bf f7f6 91bf 6980 7bbf 4a27 febe
000000d0: 8d73 05bf 311d 5a3d 3704 43bf cc1b 8ebf
000000e0: be98 8abf d41b b4be 94d5 2abf 0e9b 7dbf
000000f0: 1ffa c3be 892c 3cbf a893 71bf f663 cebe
00000100: 7d38 90bf 6194 0abf e224 f0be f9db 4fbf
00000110: bb04 6cbf e2e9 07bf b8e5 4dbf 4edc 7dbf
00000120: c5e1 55bf 4d44 87bf 11ae 1bbe 0ae4 81bf
00000130: 0478 25bf 77a7 fcbd d130 11bf 37e5 a1bf
00000140: 33dc e0be 7632 b5be 6bf2 24bf 5d61 89bf
00000150: 97f3 53bf 07be 49bf fc37 0fbf 58b0 85bf
00000160: 413a a6be 4cd7 33bf 3595 1ebf ef44 62bf
00000170: 0f2f 11bf 4e31 7ebf e6ec 3dbf a1b9 9ebf
00000180: ef94 61bf 1b80 62bf 4ad4 66bf 9273 7bbd
00000190: 7efc 9ebf f51d a2bf db75 8cbf 03d2 27bf
000001a0: 5bc7 50bf 85ba 5cbf 9bb5 743f 5e46 10bf
000001b0: 75f1 abbf b498 81bf 8f5d 85bd b929 a7bf
000001c0: 34fc 42bf ca18 87bf 501a 1cbf 3b04 9bbf
000001d0: 5321 4abf bf9f 61bf bb78 8c3d d485 79bf
000001e0: 9506 6cbf 955b 5ebe 90fa 28bf ae36 66bf
000001f0: 2c3d a0bf 4516 88bf 47f1 5ebf 501a dfbe
00000200: e711 20bf 0e6a 3cbf e17e 9bbf 848d c1be
00000210: e6e0 95bf 84ae 66bf 18cd f6be b36f 00bf
00000220: 7dc8 8fbf 6e60 b9be 7b90 4dbf 6298 1abf
00000230: 5969 46bf 8a72 2fbf 46de 91bf 19b1 93bf
00000240: 61a8 58bf 6c55 6cbf 8acf 45bf d572 693f
00000250: cdd0 a9bf 92cb 8dbf a60c 67bf 9a14 30bf
00000260: b1ce 053e 6c5e 35bf d4b0 aebf d364 3abe
00000270: 6170 40bf c1fa f8be 2fb7 88bf 8c10 20bf
00000280: ac0e 7dbf f84b 23bf fab4 15bf 6fd7 bebc
00000290: 4467 5bbf 8454 9c3f 2399 973d b7a9 7fbf
000002a0: 9279 30bf f399 82be f28d e4be d326 6fbf
000002b0: cb8d dabe c93c 12be 9c52 aabe 54a7 02bf
000002c0: 4f87 93bf ca49 7cbf 6cc5 3cbf d63e dabf
000002d0: e6d9 96bf e8b7 1dbf f53c 51be 3f6a f5be
000002e0: 5a9c 12bf ceb9 81bf 29f1 a03e 38c2 6f3d
000002f0: 84cb 45bf 3389 7ebf a04e 233d f371 82bf
00000300: d3d5 7f3e fb3d 32bf 65ac 2dbf e508 f0be
00000310: 59c2 66bf 0df7 27bf 60e0 a7be e33a 31bf
00000320: 148e 883f cf3a efbe 42ac 0abe 3b70 b83e
00000330: af5c 75be e709 8cbf 8e40 a8bf 9b63 35be
00000340: 52c7 3f3e 9043 343f c926 74bf d285 2dbf
00000350: 2825 70bf e557 5fbf 5edb fdbe 4a32 cdbe
00000360: 7e63 ca3e 2171 8ebd 5dda dabe d808 1a3d
00000370: adbf 73be 04c1 a7be 9442 113f f1fc 713f
00000380: 5366 953f b11d d43e 1527 28bf 8b95 223e
00000390: 6d0e e33e 8b3c 20bf 2708 babd 0819 353f
000003a0: 1c23 bdbf dc38 fcbe 4bca 2d3e 93a6 2f3e
000003b0: 480c 093f 95f5 dbbe dce6 ebbe f75a 17bf
000003c0: 82cb 083f 03f3 81bd 7915 85bf 3f25 9ebd
000003d0: 34ef 65bf 731c e3be dfaf 5abe 5be3 993e
000003e0: 7435 693f 8e61 88be a2a5 ee3e 422b 3d3f
000003f0: 59eb 983e 851a 65bf 6182 68bf 1213 a83b

linear.weight f4 [100, 100]
0.30831918 0.7466452 -0.044835113 0.3966829 0.40820137 1.4265661 0.032766335 -0.5758787
-0.7183683 -0.86314636 -0.26626322 1.1124715 0.091069385 -0.51033777 -0.047538918 1.3131658
-0.7862985 -0.97113353 1.2725637 -0.39566967 0.013241056 -0.5451247 0.57387614 -0.28261986
-0.16162139 -0.41050097 -0.17534624 0.58075494 -0.35117325 0.35861996 -0.58502173 0.06495434
1.0300796 0.93614984 -0.6303806 -0.0891076 -0.23332675 0.8137441 0.8104307 0.2149395
-0.53933245 0.44515947 0.4203143 -1.6300194 0.63079154 0.24721405 -0.78228766 -0.11762815
-0.68419546 -0.045361686 -0.2293679 -0.20107828 -0.9628152 -0.03152643 1.0712498 0.051317368
-0.5993307 0.28844312 0.2734941 -0.74617326 0.64884526 -0.95515364 0.0061469516 0.0938267
-0.53145766 0.8807305 0.1738878 -1.0462629 -0.67852116 -0.2834758 0.32862794 -0.5228851
-0.64936733 0.18335074 0.0099916775 0.71227145 0.06342613 0.3095042 -0.22859983 0.14082187
-0.468273 -0.48934844 0.85466486 0.05983275 -0.90141046 0.7503948 0.98850507 0.2532913
-0.71616507 1.0808854 -0.17213188 1.072368 -0.03640834 0.042628776 -0.24713807 0.71522033
-0.7045747 0.41158715 0.7110699 -0.783689 0.51518273 0.07308464 -0.05856057 0.28527993
0.33346516 0.90829605 0.1069603 -0.65966237 -0.6589518 -0.1731431 0.8352302 1.4945712
0.3585342 0.3944358 0.3622946 0.52059406 -0.07498416 -0.77138996 -0.061727595 0.13870274
-0.18041132 -0.6237709 0.33750036 -0.31846792 -0.83649725 -0.03372365 -0.05956922 0.5289949
-0.32553008 0.78525335 -0.63162184 -0.11301404 0.46421826 0.74976486 -0.59739107 -0.67801315
0.07986967 0.31880733 0.16586722 0.40199977 -0.29791322 -0.25662336 0.8753324 -0.96486425
0.14167425 0.37759256 -0.34560886 -0.6474932 -0.1283819 0.82540387 -0.19217223 0.2779756
0.015174642 -0.10745763 0.5625428 -0.07026559 -0.027852617 -0.45748267 -0.25667718 -0.58012575
0.1232348 -1.0052972 -0.43636936 0.07650052 -0.41452566 -0.052405875 0.9420363 -0.07805378
0.031577203 -0.20240916 0.15473963 -0.2442459 0.71637917 -0.35361618 -0.7765318 -0.12535475
-0.46231937 0.68306494 0.17317677 0.63886607 -0.11717238 -0.8078555 0.4628189 -0.25369316
-1.6107885 0.26318896 0.60583 -0.0062489174 -0.06159427 1.4864423 0.19845104 0.7080435
-0.45193172 0.27085406 -0.9231926 0.5394403 -0.0538971 0.60763335 0.04548085 -0.20140128
0.5483692 0.4587171 0.46954337 0.6067 0.9892855 0.8466779 -0.21018256 -0.3145787
-0.13343239 0.11389194 0.6221056 1.1043868 0.15547357 0.8719406 -0.4080069 0.5130775
-0.66378015 -0.3728727 0.46552813 0.24056417 -0.1445915 0.25830713 0.077791356 -1.1105279
-0.6642931 -0.53364056 0.09230099 0.63737285 -0.41731703 0.52311516 -0.64814305 -0.030075954
0.50187683 0.7348282 -0.7524976 -0.60917443 0.3188439 0.14870599 0.69128805 0.40666524
-0.5271786 0.6726196 0.33081618 -0.90945715 0.59743774 0.7101276 0.22552085 0.35191342
-0.8873438 0.93027437 -0.5480519 0.35595596 -0.4291948 0.27882272 1.7559047 0.7789832
00000000: 03dc 9d3e 2424 3f3f 06a5 37bd 051a cb3e
00000010: c5ff d03e b899 b63f fe35 063d c96c 13bf
00000020: fce6 37bf 29f7 5cbf a753 88be 7765 8e3f
00000030: 9682 ba3d 7fa5 02bf 2bb8 42bd d115 a83f
00000040: dc4a 49bf 359c 78bf 5ee3 a23f 3795 cabe
00000050: 04f1 583c 4b8d 0bbf 8ce9 123f 8db3 90be
00000060: 1480 25be 2f2d d2be f78d 33be 5bac 143f
00000070: fbcc b3be 099d b73e fcc3 15bf c806 853d
00000080: a6d9 833f 84a7 6f3f 9f60 21bf 0c7e b6bd
00000090: 35ed 6ebe 8951 503f 6378 4f3f 1a19 5c3e
000000a0: b111 0abf f1eb e33e 7033 d73e 7aa4 d0bf
000000b0: 8e7b 213f ae25 7d3e 0144 48bf 07e7 f0bd
000000c0: 6f27 2fbf 2dcd 39bd 6bdf 6abe 77e7 4dbe
000000d0: 0f7b 76bf dc21 01bd b71e 893f 2932 523d
000000e0: bd6d 19bf d1ae 933e 6b07 8c3e 3605 3fbf
000000f0: b91a 263f f384 74bf 5e6c c93b 3628 c03d
00000100: 9c0d 08bf 8e77 613f a50f 323e f1eb 85bf
00000110: 90b3 2dbf bd23 91be ec41 a83e ccdb 05bf
00000120: f03c 26bf 4cc0 3b3e 22b4 233c 6c57 363f
00000130: 8fe5 813d 5677 9e3e 1316 6abe 9c33 103e
00000140: 7bc1 efbe e18b fabe 51cb 5a3f 3013 753d
00000150: d6c2 66bf e019 403f ab0e 7d3f 66af 813e
00000160: 9856 37bf 745a 8a3f 5743 30be 5b43 893f
00000170: e920 15bd 839b 2e3d c311 7dbe ae18 373f
00000180: 025f 34bf 8dbb d23e ad08 363f d89f 48bf
00000190: 04e3 033f 66ad 953d 35dd 6fbd 3610 923e
000001a0: f2bb aa3e 1786 683f 000e db3d a2df 28bf
000001b0: 11b1 28bf 6d4c 31be a5d1 553f 1c4e bf3f
000001c0: cb91 b73e 7df3 c93e ae7e b93e a745 053f
000001d0: 4c91 99bd d079 45bf 13d6 7cbd 1708 0e3e
000001e0: bfbd 38be 73af 1fbf d9cc ac3e 3a0e a3be
000001f0: af24 56bf cf21 0abd dbfe 73bd 366c 073f
00000200: e1ab a6be 5d06 493f f8b1 21bf e873 e7bd
00000210: 04ae ed3e 97f0 3f3f 9fee 18bf 4592 2dbf
00000220: b692 a33d b73a a33e 19d9 293e ead2 cd3e
00000230: 1588 98be 2364 83be c915 603f 5801 77bf
00000240: 0e13 113e d053 c13e a5f3 b0be 1dc2 25bf
00000250: 8b76 03be ab4d 533f ccc8 44be d152 8e3e
00000260: 109f 783c bf12 dcbd ce02 103f 68e7 8fbd
00000270: 2c2b e4bc 2b3b eabe 316b 83be 1f83 14bf
00000280: 8762 fc3d 94ad 80bf ce6b dfbe 4eac 9c3d
00000290: b53c d4be 8ba7 56bd 4a29 713f a9da 9fbd
000002a0: 1957 013d 5944 4fbe 1174 1e3e 991b 7abe
000002b0: a064 373f 2e0d b5be caca 46bf ff5c 00be
000002c0: 20b5 ecbe 58dd 2e3f 4055 313e ba8c 233f
000002d0: 13f8 efbd 9ecf 4ebf 99f6 ec3e 12e4 81be
000002e0: 512e cebf b4c0 863e ad17 1b3f b8c3 ccbb
000002f0: 464a 7cbd be43 be3f c036 4b3e 5742 353f
00000300: 9863 e7be 62ad 8a3e 5a56 6cbf c218 0a3f
00000310: 35c3 5cbd dc8d 1b3f 214a 3a3d 233c 4ebe
00000320: ed61 0c3f f8dc ea3e fd67 f03e b150 1b3f
00000330: d141 7d3f e2bf 583f 193a 57be 7610 a1be
00000340: 80a2 08be 2d40 e93d 5042 1f3f 8c5c 8d3f
00000350: 7734 1f3e 8037 5f3f 48e6 d0be 0c59 033f
00000360: 7fed 29bf 2ce9 bebe b459 ee3e 7456 763e
00000370: cb0f 14be d540 843e 1351 9f3d c725 8ebf
00000380: 1d0f 2abf ab9c 08bf 4d08 bd3d de2a 233f
00000390: 94aa d5be e0ea 053f b4ec 25bf d961 f6bc
000003a0: 007b 003f b31d 3c3f afa3 40bf dbf2 1bbf
000003b0: 823f a33e 6246 183e 41f8 303f 6d36 d03e
000003c0: 2df5 06bf cc30 2c3f bd60 a93e 2fd2 68bf
000003d0: aef1 183f ecca 353f f0ee 663e ff2d b43e
000003e0: f728 63bf 7626 6e3f 214d 0cbf dc3f b63e
000003f0: 6cbf dbbe dac1 8e3e 7cc1 e03f 716b 473f

linear.bias f4 [100]
-0.5871822 -0.56635606 -0.22792436 -0.5199223 -0.3918971 -0.14977922 -0.4554022 -0.13191709
-0.2438646 -0.5070524 0.5315263 -0.17963558 0.37040147 -0.10062738 0.17317118 0.23857878
0.27432325 0.31021342 0.29652867 -1.0539927 -0.6963131 0.35828808 0.10030883 0.48600325
0.35915267 0.19026148 -0.990873 0.50056833 0.51010615 0.33984625 0.17865193 -0.1410626
-0.29153505 -0.9420642 0.041413974 -1.0237685 -0.2237083 -0.5809566 -0.59423953 -0.6047507
-0.4154532 -0.8014228 -0.6227279 -0.35052568 -0.085230745 -0.58741194 -0.6575163 -0.41397414
-0.52289873 -0.36584094 -0.50564384 -0.4470718 -0.8469254 -0.6024949 -0.322438 -0.30341825
-0.6308603 -0.7806093 -0.6642765 -0.6689589 -0.6768987 -1.2292322 -1.250814 -0.92253333
-2.1596622 -2.1502876 -2.0426638 -0.9182359 -0.5214305 -0.82561606 -0.37454426 -1.5523565
-2.189989 -0.20772447 -0.75723964 -0.16442055 -1.5322224 -1.090985 -1.4040548 -2.1084566
-2.0468955 -2.0710704 -1.6014739 -2.0158482 -0.7334614 -2.101119 -0.92372364 -2.1017962
-2.0464723 -1.4989278 -2.2056508 -2.1916995 -2.0538945 -2.0017924 0.5592736 -1.9719986
-0.8628815 -2.0684474 -2.0406919 -1.94648
00000000: 9351 16bf b6fc 10bf 0165 69be a119 05bf
00000010: bda6 c8be b95f 19be 7a2a e9be 4615 07be
00000020: a4b7 79be 30ce 01bf 1c12 083f 64f2 37be
00000030: 43a5 bd3e ba15 cebd c953 313e ff4d 743e
00000040: 1974 8c3e 4bd4 9e3e 9bd2 973e 3ce9 86bf
00000050: 9341 32bf 8971 b73e b76e cd3d 6bd5 f83e
00000060: dce2 b73e e8d3 423e daa9 7dbf 3f25 003f
00000070: 5196 023f 5400 ae3e 88f0 363e b772 10be
00000080: 1544 95be 1f2b 71bf b3a1 293d d90a 83bf
00000090: ca13 65be 92b9 14bf 1520 18bf f1d0 1abf
000000a0: 48b6 d4be 0b2a 4dbf 186b 1fbf 1a78 b3be
000000b0: 758d aebd a160 16bf fd52 28bf 6bf4 d3be
000000c0: b1dc 05bf 814f bbbe e071 01bf 98e6 e4be
000000d0: 1ad0 58bf 1b3d 1abf 9816 a5be a359 9bbe
000000e0: 1080 21bf 03d6 47bf 060e 2abf e440 2bbf
000000f0: 3c49 2dbf 7b57 9dbf ac1a a0bf 252b 6cbf
00000100: e837 0ac0 509e 09c0 01bb 02c0 8211 6bbf
00000110: 787c 05bf 935b 53bf 44c4 bfbe 9eb3 c6bf
00000120: c828 0cc0 b9b5 54be 75da 41bf dc5d 28be
00000130: dd1f c4bf 65a5 8bbf 11b8 b3bf f4f0 06c0
00000140: 5600 03c0 6b8c 04c0 19fd ccbf a803 01c0
00000150: 20c4 3bbf bc78 06c0 2779 6cbf d483 06c0
00000160: 67f9 02c0 dedc bfbf 6229 0dc0 ce44 0cc0
00000170: 0273 03c0 5e1d 00c0 8e2c 0f3f 736a fcbf
00000180: cde5 5cbf 7161 04c0 b29a 02c0 4226 f9bf
