Results/Complete Sherlock Holmes/RNN/ASGD/2/100/model.pt (torch, 205503 bytes, 10 tensors)

rnn.weight_ih f4 [100, 100]
0.05322987 0.6717062 -0.052084908 0.031282987 -0.27932426 0.27111018 -0.16252756 0.22195281
0.82116497 0.19450063 -0.23919708 -0.33396092 -0.20433529 -1.345774 0.5077181 -0.46716115
-0.62982345 -0.7055523 -0.7354152 -1.0804546 0.51560885 0.7094192 0.3535591 -0.86362535
-0.8014584 2.7311609 -1.238506 -1.3153279 1.6460285 -0.0038928562 1.0580417 -1.1235149
-0.54748166 -2.1023147 1.3584081 0.299788 1.0053184 1.0418808 0.5939199 0.8833593
0.39136088 1.3519266 -0.23949951 1.1786779 -0.72561806 -1.3633615 -0.890308 0.6457443
0.51522166 1.4886065 0.7375603 -0.2793807 0.074896656 1.0873489 1.1928428 0.5785679
-0.09767845 -0.18745568 0.2027864 0.01792573 1.5199208 0.1163462 1.746142 1.1274486
0.030145518 0.023366764 -0.00412675 0.2697875 -0.23076756 0.26718038 0.07552994 0.025034834
0.055417515 0.70251435 0.23774834 1.4325278 -0.012198925 0.76134694 0.7112819 0.075271465
0.04344771 -0.046027936 0.58887774 0.0670603 0.09782736 0.056203537 -0.34752834 0.076760836
-0.021570548 -0.009598777 0.025684379 0.06658649 0.01387316 0.0019906536 1.1937164 -0.08903878
1.0132183 0.06497521 0.060155608 -0.09005743 0.77400357 -0.4068362 0.05031409 0.34217045
0.58759636 0.77122045 0.44491255 0.25359404 0.0022694443 -0.5946588 0.0030614831 -0.13712811
-0.148457 -0.2718354 -0.19917764 -0.9270943 -1.5875047 0.8838621 0.7320927 -0.057547163
-0.30888218 0.14030495 -0.9285617 0.94804895 -1.9719995 -0.1241438 0.7561984 -0.12079053
-0.07582273 0.1673195 -0.0022131405 -1.0054259 -0.5482542 -1.0153168 0.5066962 0.14113034
-0.20530292 -0.021015005 -0.77413017 -0.6596112 -0.08613447 -0.38373354 -0.7928774 1.2946383
-0.62758666 -0.53406423 0.1682174 1.1637921 -1.3028423 -0.66432446 1.053877 -0.27604866
0.46942222 -1.4587966 -0.7384193 1.2322036 0.011356074 -0.39185172 1.8273175 0.27990618
0.7078668 -0.15535663 0.3673749 -0.08215531 -0.09347563 0.01514139 -0.06747721 -0.1617921
-0.25984508 -0.24996482 -0.043517772 -0.020746803 -0.08441079 0.32525703 0.0960024 0.6561993
0.05542528 0.1248616 -0.017282365 0.035376124 0.046705298 -0.08860185 0.5742081 -0.01870896
0.16304153 0.08889819 -0.22916347 0.030554123 0.034229703 -0.011468932 -0.09690733 -0.09115632
-0.01944115 -0.013417102 -0.834822 0.01427418 0.28453597 -0.09733756 0.09412921 0.012529492
-0.044208936 -0.22014923 0.67459095 -0.5162905 -0.87970245 0.70340914 0.3659515 0.63768727
0.0052024107 0.5797691 1.2392728 0.75302225 -5.309722 1.3026265 2.2957828 2.2388706
-0.015662007 2.0916219 0.23677911 -1.0386432 -1.5913998 2.3995807 0.4046822 0.4915529
-0.5098593 -3.8955848 1.8214425 3.6949964 1.132353 -0.18578987 -2.8619974 -3.500031
0.8816977 -2.0542765 0.050119236 -0.605049 1.1319531 0.99585056 -0.49586967 -0.48663643
-1.3375642 1.3712301 0.5067251 -0.40298527 -3.2954686 1.9389038 -0.30483273 -0.29617837
-0.48772466 0.027607083 0.39188707 0.7525873 -0.27195728 -0.3393264 1.7400695 -0.59187067
00000000: 9007 5a3d f0f4 2b3f fc56 55bd 9722 003d
00000010: 9703 8fbe f4ce 8a3e a06d 26be 9947 633e
00000020: de37 523f 2c2b 473e 14f0 74be edfc aabe
00000030: 453d 51be 5342 acbf d0f9 013f bf2f efbe
00000040: 1c3c 21bf 139f 34bf 2c44 3cbf 564c 8abf
00000050: f1fe 033f 7f9c 353f b305 b53e 8d16 5dbf
00000060: 612c 4dbf 57cb 2e40 5d87 9ebf aa5c a8bf
00000070: 10b1 d23f 4a1f 7fbb e96d 873f 56cf 8fbf
00000080: c227 0cbf 538c 06c0 51e0 ad3f d07d 993e
00000090: 46ae 803f 5a5c 853f 220b 183f d623 623f
000000a0: 7460 c83e ee0b ad3f 5c3f 75be ebde 963f
000000b0: 1bc2 39bf a182 aebf 3aeb 63bf 804f 253f
000000c0: 91e5 033f a88a be3f c0d0 3c3f fd0a 8fbe
000000d0: 6b63 993d 402e 8b3f 13af 983f 071d 143f
000000e0: a40b c8bd 62f4 3fbe 3da7 4f3e fbd8 923c
000000f0: c48c c23f eb46 ee3d 9581 df3f 3c50 903f
00000100: bcf3 f63c a86b bf3c b039 87bb 9621 8a3e
00000110: 554e 6cbe decb 883e 71af 9a3d da15 cd3c
00000120: 7afd 623d fbd7 333f 4d74 733e 125d b73f
00000130: 00de 47bc a2e7 423f 9216 363f ed27 9a3d
00000140: 3af6 313d ca87 3cbd b1c0 163f e956 893d
00000150: b659 c83d ae35 663d 3cef b1be c934 9d3d
00000160: b8b4 b0bc 3044 1dbc 0c68 d23c 7f5e 883d
00000170: 404c 633c a075 023b b3cb 983f f759 b6bd
00000180: 23b1 813f b911 853d ba65 763d 0870 b8bd
00000190: 1925 463f d64c d0be 2616 4e3d f730 af3e
000001a0: b76c 163f b46e 453f 94cb e33e 14d7 813e
000001b0: f5ba 143b 8f3b 18bf 2aa3 483b 506b 0cbe
000001c0: 1d05 18be 022e 8bbe 39f5 4bbe 0d56 6dbf
000001d0: 5b33 cbbf c944 623f 6d6a 3b3f 93b6 6bbd
000001e0: ce25 9ebe 1aac 0f3e 38b6 6dbf 56b3 723f
000001f0: 7b6a fcbf 1b3f febd 3896 413f 0761 f7bd
00000200: f348 9bbd ce55 2b3e 560a 11bb ccb1 80bf
00000210: 635a 0cbf e7f5 81bf d8b6 013f 7984 103e
00000220: ee3a 52be a927 acbc 652d 46bf 48dc 28bf
00000230: 4567 b0bd b978 c4be 03fa 4abf b5b6 a53f
00000240: 85a9 20bf 6fb8 08bf 2f41 2c3e 24f7 943f
00000250: 89c3 a6bf 2b11 2abf 71e5 863f 4056 8dbe
00000260: 1c58 f03e d9b9 babf 0c09 3dbf d9b8 9d3f
00000270: d40e 3a3c caa0 c8be 8ae5 e93f dd4f 8f3e
00000280: c236 353f cf15 1fbe 9018 bc3e 0b41 a8bd
00000290: 2770 bfbd 9813 783c 7e31 8abd d4ac 25be
000002a0: 6a0a 85be c7f6 7fbe b13f 32bd 33f5 a9bc
000002b0: 90df acbd 1788 a63e e89c c43d adfc 273f
000002c0: 9e05 633d 70b7 ff3d bf93 8dbc 8ee6 103d
000002d0: 0e4e 3f3d e374 b5bd 4dff 123f 8843 99bc
000002e0: 5cf4 263e 4110 b63d d4a9 6abe a44c fa3c
000002f0: 7234 0c3d 30e8 3bbc 5a77 c6bd 2ab0 babd
00000300: 0c43 9fbc 68d3 5bbc e5b6 55bf 40de 693c
00000310: b3ae 913e ea58 c7bd d1c6 c03d 8048 4d3c
00000320: 6e14 35bd cd6e 61be feb1 2c3f 9d2b 04bf
00000330: 2e34 61bf 9f12 343f ff5d bb3e 793f 233f
00000340: fc78 aa3b bf6b 143f 7ea0 9e3f 11c6 403f
00000350: 3ee9 a9c0 77bc a63f 1bee 1240 a849 0f40
00000360: 9c4d 80bc 22dd 0540 3976 723e 43f2 84bf
00000370: fdb2 cbbf bb92 1940 8132 cf3e d2ac fb3e
00000380: 2486 02bf 4351 79c0 0725 e93f d27a 6c40
00000390: f1f0 903f b33f 3ebe f72a 37c0 8200 60c0
000003a0: f1b6 613f 4479 03c0 d449 4d3d 7ee4 1abf
000003b0: d7e3 903f 10f0 7e3f a1e2 fdbe 6928 f9be
000003c0: 4e35 abbf 7884 af3f bcb8 013f 1654 cebe
000003d0: f5e8 52c0 002e f83f 0913 9cbe b1a4 97be
000003e0: 0cb7 f9be 4028 e23c 6ca5 c83e 90a9 403f
000003f0: fc3d 8bbe 31bc adbe 99ba de3f d684 17bf

rnn.weight_hh f4 [100, 100]
0.6920652 0.21412015 0.24596828 -1.4676738 -0.71287864 0.8113704 0.5340008 -0.23875956
0.039377343 0.15471423 -0.100932784 0.1615392 -0.29141897 -0.112293795 -0.06210651 -0.47551692
0.14092013 0.13498354 -0.29467294 -0.08575151 0.37501547 -1.0530475 0.62725836 0.7558448
-1.1285236 0.07748819 0.5339721 0.270185 -0.32561013 0.3447334 0.31909987 -0.43680698
-0.9107257 0.65235215 0.2951028 -0.7281896 -0.5567922 -0.6688268 0.7559227 -0.14468426
0.09733385 0.46880868 1.3506086 0.3637604 -1.117927 0.36152482 0.67951316 0.2651382
-0.43281886 0.09641354 0.060460024 0.73980737 -0.6386004 -0.36661702 -0.34707743 -0.5540374
1.6337255 -1.4407246 0.6350142 0.38642004 -0.9531887 0.6474964 0.40645108 -0.107406944
0.06841918 -1.4407256 -0.09306632 1.1447128 0.6275219 0.07451728 -0.15716952 -0.43567464
-0.20241438 0.08406447 0.58270055 0.078568 -1.0075696 -0.64350504 -0.7854192 -0.57118607
0.64575464 0.6206879 1.0052778 0.83370906 -0.11358282 -0.5503889 0.5855182 0.7032927
-0.8055797 0.5115169 -0.41265488 -1.1755116 -0.6547129 -1.4438295 0.3274174 -0.40614185
0.2727795 0.28281033 0.25327796 0.65521944 0.19143488 -0.22335993 1.0499858 1.5071907
-0.47961247 -1.267759 -0.1404276 0.3499833 -0.23407651 -0.57529235 -0.6838495 0.08270673
-0.048413508 -0.74480146 0.5099525 -0.270887 -0.9844733 1.1650717 0.49005768 0.170207
-0.1516736 0.19948636 1.4760665 -0.5681314 -0.63498515 0.3305526 -0.72982395 1.691328
0.5387473 0.4402931 -0.34249073 -0.5559787 1.6458894 0.1313223 0.2895161 0.41227502
-0.34744224 -0.42031014 0.2642516 0.69038427 0.17495105 -0.8781697 -0.559948 -0.36575255
-1.1207677 0.849716 -0.42261428 -1.5106355 1.067585 0.6865031 -0.003328353 -0.49764085
0.50620085 0.25212425 -0.11271151 -0.5678507 -2.1181211 0.22808237 -0.3068328 0.21908739
0.29556295 0.020155441 -0.68510264 0.56995356 0.16819362 -0.35887277 0.9083115 0.33947155
-0.6300752 0.21463375 0.16908576 -0.011585188 -0.63300055 0.10160923 -0.007052844 0.68204314
0.01217256 1.3973519 1.0372148 1.1817291 -0.6558781 0.96826804 -0.32507375 -1.4196584
0.11703728 -0.44884327 0.3213103 -0.26461625 0.3698784 -0.21070278 0.4083285 0.16966861
-0.43180344 0.795669 -0.23635346 0.35168335 -0.03647154 0.47324386 0.18486954 0.32144386
0.31700408 -0.3178189 -0.11330429 0.20302382 0.51388246 0.07680266 -0.034719568 0.02978156
0.24399081 -0.1013955 0.0383219 0.2758629 0.12568597 1.1394662 -0.17197715 -0.17887051
-0.43885306 0.25612518 0.31014496 -0.050795592 0.07269206 0.499141 0.21843828 0.29050216
0.08847236 0.03828879 -0.00016825892 -0.027526202 -0.4804749 0.30574736 0.011396983 -0.36523452
0.6694367 0.23110695 0.67344576 -0.3057103 0.06680183 -0.76592344 -0.3998099 -0.7338718
-0.33137965 -0.16321754 -0.2806274 0.30271545 -0.617397 -0.2921994 0.4389498 0.012661215
-0.7456286 0.17096296 0.42388597 0.28833282 -0.75358164 -0.30142373 -0.27855545 -0.2878899
00000000: 2f2b 313f 5042 5b3e 1cdf 7b3e bcdc bbbf
00000010: 377f 36bf f8b5 4f3f 47b4 083f 637d 74be
00000020: 234a 213d 686d 1e3e d9b5 cebd 886a 253e
00000030: de34 95be 4afa e5bd 6563 7ebd f476 f3be
00000040: 5e4d 103e 2039 0a3e 5fdf 96be 7d9e afbd
00000050: 0702 c03e 43ca 86bf 0194 203f 0b7f 413f
00000060: 7673 90bf 21b2 9e3d 65b2 083f b055 8a3e
00000070: 5fb6 a6be e580 b03e 0f61 a33e 2aa5 dfbe
00000080: 5225 69bf 8d00 273f b717 973e a26a 3abf
00000090: ef89 0ebf 3c38 2bbf 2684 413f 1c28 14be
000000a0: f856 c73d b107 f03e bee0 ac3f ce3e ba3e
000000b0: 3b18 8fbf c819 b93e 93f4 2d3f 32c0 873e
000000c0: 6f9a ddbe 7674 c53d eea4 773d 0464 3d3f
000000d0: 517b 23bf 3ab5 bbbe 22b4 b1be 65d5 0dbf
000000e0: eb1d d13f aa69 b8bf 4a90 223f d9d8 c53e
000000f0: 2d04 74bf 53c2 253f 5b1a d03e 2cf8 dbbd
00000100: 5b1f 8c3d b269 b8bf 8e99 bebd f385 923f
00000110: 46a5 203f 849c 983d 0cf1 20be bf10 dfbe
00000120: b745 4fbe fe29 ac3d dd2b 153f 42e8 a03d
00000130: 0af8 80bf bfbc 24bf 3c11 49bf 4039 12bf
00000140: 2d50 253f 67e5 1e3f f1ac 803f f56d 553f
00000150: 1c9e e8bd 49e6 0cbf 85e4 153f fe0a 343f
00000160: 793a 4ebf c6f2 023f 8047 d3be 2a77 96bf
00000170: 449b 27bf 68cf b8bf 41a3 a73e d3f1 cfbe
00000180: c1a9 8b3e 84cc 903e a6ad 813e 76bc 273f
00000190: 8107 443e 77b8 64be ef65 863f a0eb c03f
000001a0: c48f f5be ed45 a2bf 41cc 0fbe 0331 b33e
000001b0: c1b1 6fbe 5c46 13bf c310 2fbf 2562 a93d
000001c0: 3e4d 46bd 4fab 3ebf 3f8c 023f b3b1 8abe
000001d0: 7106 7cbf 1221 953f d7e8 fa3e be4a 2e3e
000001e0: 5350 1bbe 2746 4c3e bfef bc3f 0f71 11bf
000001f0: 638e 22bf 313e a93e bed5 3abf 707d d83f
00000200: 58eb 093f 196e e13e f25a afbe 9f54 0ebf
00000210: 81ac d23f 5a79 063e 743b 943e b615 d33e
00000220: f3e3 b1be e432 d7be fc4b 873e 06bd 303f
00000230: 5e26 333e bbcf 60bf c158 0fbf eb43 bbbe
00000240: 5175 8fbf fd86 593f e660 d8be 815c c1bf
00000250: a0a6 883f abbe 2f3f 7f20 5abb c8ca febe
00000260: 6196 013f 6e16 813e 4bd5 e6bd aa5e 11bf
00000270: 4c8f 07c0 6d8e 693e 3019 9dbe 7258 603e
00000280: 0754 973e 061d a53c e362 2fbf 7ae8 113f
00000290: f33a 2c3e 2cbe b7be 1a87 683f 37cf ad3e
000002a0: 9c4c 21bf f3c8 5b3e d124 2d3e cdcf 3dbc
000002b0: 530c 22bf 8018 d03d 8b1b e7bb 619a 2e3f
000002c0: 6b6f 473c 6ddc b23f 74c3 843f e642 973f
000002d0: a1e7 27bf 6ae0 773f 1170 a6be 5eb7 b5bf
000002e0: 3eb1 ef3d c9ce e5be c982 a43e c87b 87be
000002f0: b460 bd3e 78c2 57be 6f10 d13e 9cbd 2d3e
00000300: 5715 ddbe f7b0 4b3f a406 72be d70f b43e
00000310: 2e63 15bd 054d f23e 714e 3d3e 4a94 a43e
00000320: 5c4e a23e 29b9 a2be 140c e8bd 7ae5 4f3e
00000330: cd8d 033f b74a 9d3d 1b36 0ebd 75f8 f33c
00000340: bad8 793e 72a8 cfbd 6df7 1c3d e73d 8d3e
00000350: d3b3 003e 07da 913f c71a 30be d529 37be
00000360: 59b1 e0be d722 833e 52cb 9e3e 0a0f 50bd
00000370: 93df 943d 698f ff3e 49ae 5f3e b3bc 943e
00000380: ff30 b53d b5d4 1c3d a96e 30b9 a17e e1bc
00000390: ce00 f6be eb8a 9c3e 69ba 3a3c 0500 bbbe
000003a0: 3460 2b3f 4da7 6c3e f166 2c3f 0f86 9cbe
000003b0: 66cf 883d 8f13 44bf e2b3 ccbe 06df 3bbf
000003c0: 98aa a9be 8022 27be 65ae 8fbe 85fd 9a3e
000003d0: bb0d 1ebf 299b 95be 07be e03e fc70 4f3c
000003e0: 84e1 3ebf ea10 2f3e 9507 d93e 5ca0 933e
000003f0: baea 40bf 3654 9abe d29e 8ebe 4e66 93be

rnn.bias_ih f4 [100]
0.4165735 -0.64225066 0.6331005 -0.068352774 0.20816696 0.02851334 0.6003409 -0.29362455
0.09147117 -0.02431551 -0.21672258 0.3233445 -0.9286737 0.14317964 0.2873703 0.47718778
0.082760006 -0.09308206 0.11267308 -0.30528077 0.45234507 -0.16515459 -0.2338959 0.069899075
-0.5210046 -0.43406996 0.18878704 -0.27849427 -0.9631495 0.59819454 0.8284071 -0.3363367
-0.039166514 -0.050947323 0.69627106 -0.94217306 0.50114375 0.28131625 0.7450395 -0.69849867
0.82891566 -0.1714923 -0.046988264 0.07398244 0.4039971 0.0784936 0.59733206 0.33188295
-0.7008994 0.059653845 0.07001053 1.1293874 -0.34071204 -0.39112002 0.43969515 0.64588404
0.2488911 0.39179265 0.116510116 0.0645708 0.30309734 -0.25698233 0.36268464 0.32324517
0.01734815 -0.5027424 -0.6045754 0.15036787 0.48356652 0.7347362 0.15531369 -0.71373475
-0.23860154 0.38595077 -0.38871452 -0.6360952 -0.41556612 -0.21378203 -0.7151544 0.29474452
0.04912239 -0.56083316 -0.08389062 -0.12894695 -0.7280803 -0.07898478 -0.2510561 -0.05332578
0.297274 1.0059336 -0.82401735 -0.008953196 0.27974126 0.12857443 -0.37019488 0.2831317
0.11153632 -0.35841444 -0.1178205 -0.10377862
00000000: 1f49 d53e 8a6a 24bf e012 223f 8afc 8bbd
00000010: b829 553e cf94 e93c f1af 193f f555 96be
00000020: 3d55 bb3d 5231 c7bc 86ec 5dbe 698d a53e
00000030: 8fbd 6dbf af9d 123e 3322 933e f551 f43e
00000040: 147e a93d cfa1 bebd 25c1 e63d c34d 9cbe
00000050: c699 e73e 491e 29be 6882 6fbe 3f27 8f3d
00000060: 8f60 05bf 6b3e debe 6451 413e cd96 8ebe
00000070: f790 76bf 4723 193f 7d12 543f 5334 acbe
00000080: 116d 20bd 24ae 50bd d23e 323f 4132 71bf
00000090: f54a 003f af08 903e e9ba 3e3f cfd0 32bf
000000a0: d133 543f ad9b 2fbe c476 40bd 1b84 973d
000000b0: b5d8 ce3e 41c1 a03d c1ea 183f 90ec a93e
000000c0: 256e 33bf 9757 743d ae61 8f3d c48f 903f
000000d0: cf71 aebe e240 c8be b91f e13e a858 253f
000000e0: 4fdd 7e3e 0c99 c83e db9c ee3d b23d 843d
000000f0: 932f 9b3e 3093 83be cdb1 b93e 6480 a53e
00000100: b51d 8e3c bab3 00bf 74c5 1abf 09fa 193e
00000110: 0896 f73e ac17 3c3f 8d0a 1f3e 52b7 36bf
00000120: f653 74be 579b c53e 9705 c7be 23d7 22bf
00000130: 15c5 d4be ade9 5abe 5c14 37bf c1e8 963e
00000140: 8f34 493d c392 0fbf d8ce abbd ab0a 04be
00000150: 7863 3abf c6c2 a1bd 6d8a 80be 226c 5abd
00000160: 4c34 983e 6fc2 803f cdf2 52bf 6db0 12bc
00000170: 3f3a 8f3e 04a9 033e 2f8a bdbe a3f6 903e
00000180: 276d e43d 1982 b7be e04b f1bd e389 d4bd

rnn.bias_hh f4 [100]
0.5809966 -0.7096801 0.46699739 -0.12846744 0.31260386 -0.026133398 0.61859775 -0.17466213
-0.021561032 -0.18672682 -0.17269789 0.20357624 -0.9493477 0.27136356 0.4390051 0.3542275
-0.03863921 -0.056543924 -0.00061421865 -0.3384072 0.6017692 -0.15791161 -0.27298567 -0.015855351
-0.42210075 -0.44109967 0.23281462 -0.1789932 -0.8763392 0.5240748 0.911561 -0.22261183
-0.041373115 -0.12484362 0.74192023 -0.9994005 0.46705535 0.30728644 0.74858695 -0.7680576
0.89616054 -0.17691985 -0.15649907 0.15694876 0.35338023 0.2407682 0.54309624 0.3517598
-0.5785289 -0.04955184 0.216585 1.1243864 -0.36270857 -0.4172718 0.35116643 0.5291041
0.31738734 0.27156234 0.015566046 0.001689501 0.18187231 -0.31194144 0.52294743 0.22126421
0.09254451 -0.4856932 -0.5165452 0.26128417 0.37659946 0.7434136 0.106203355 -0.7018117
-0.36572456 0.45472148 -0.32858026 -0.635504 -0.4573577 -0.2998823 -0.7066898 0.19696486
0.19231215 -0.6981705 -0.14859386 -0.2753085 -0.8555117 -0.12135579 -0.15927024 -0.17785706
0.24363762 1.034659 -0.971321 -0.113886185 0.34226733 0.12352248 -0.27782804 0.2553396
0.1704913 -0.28349113 -0.25137022 -0.0021773174
00000000: 31bc 143f 98ad 35bf 481a ef3e f88c 03be
00000010: 9d0d a03e b515 d6bc 6c5c 1e3f a1da 32be
00000020: c3a0 b0bc 5135 3fbe b7d7 30be 4a76 503e
00000030: 7308 73bf 2af0 8a3e 47c5 e03e 4f5d b53e
00000040: 2644 1ebd 9a9a 67bd 8403 21ba b543 adbe
00000050: 8c0d 1a3f 95b3 21be c7c4 8bbe 15e3 81bc
00000060: 971d d8be d1d7 e1be f566 6e3e fe49 37be
00000070: c457 60bf c429 063f 105c 693f 5bf4 63be
00000080: db76 29bd 03ae ffbd 7cee 3d3f b6d8 7fbf
00000090: e121 ef3e a654 9d3e 65a3 3f3f 6c9f 44bf
000000a0: c76a 653f 7a2a 35be 4b41 20be 2db7 203e
000000b0: 41ee b43e f08b 763e 5b08 0b3f dc19 b43e
000000c0: 781a 14bf dff6 4abd 75c8 5d3e e5eb 8f3f
000000d0: f0b4 b9be a6a4 d5be 16cc b33e 5e73 073f
000000e0: 9880 a23e 380a 8b3e bb08 7f3c 3f72 dd3a
000000f0: bc3c 3a3e cab6 9fbe e2df 053f 1693 623e
00000100: fa87 bd3d c7ac f8be 4e3c 04bf 0ac7 853e
00000110: a5d1 c03e 5b50 3e3f 2581 d93d eea9 33bf
00000120: 4040 bbbe 41d1 e83e ac3b a8be 64b0 22bf
00000130: ca2a eabe 2c8a 99be 9fe9 34bf 28b1 493e
00000140: 7aed 443e 4dbb 32bf fd28 18be 3cf5 8cbe
00000150: d102 5bbf 6289 f8bd bd17 23be 2920 36be
00000160: 247c 793e b56f 843f 7ea8 78bf 293d e9bd
00000170: aa3d af3e 5bf9 fc3d 7a3f 8ebe dfbb 823e
00000180: 4595 2e3e c025 91be 99b3 80be 53b1 0ebb

rnn2.weight_ih f4 [100, 100]
0.024595525 -0.28653756 0.91185564 0.2627775 -0.84947354 0.25274536 0.052019987 -0.63959414
-0.24865139 -0.8841003 0.20915306 0.55508804 -0.35852605 0.07567903 -0.0024996789 -0.23098698
0.20867248 -0.36921102 -0.20568809 -0.61420804 0.45704728 0.7800813 0.13440658 -0.33374146
-0.2343288 -1.0448115 0.16835319 0.24748927 -0.28494534 -0.042697668 0.34325787 -0.47881183
0.15010424 -0.06272238 0.3494318 -0.46222425 0.2958174 -0.03955298 0.61875355 -0.025722476
-0.2576169 0.68617505 -0.6979873 0.39467362 0.41317075 -0.73613566 0.15737124 0.38456804
-0.3457925 0.7263744 0.24345636 0.44528037 -0.25096467 0.0718735 -0.01187944 0.23936528
0.36178094 0.6092619 0.29882815 -0.121337615 0.11029709 0.01795326 0.4292184 0.180392
0.100287676 -0.42975345 0.2829551 0.62259746 0.48738372 0.29722828 -0.33324262 -0.23958823
-0.078794 0.3298774 -0.68521047 -0.1410452 -0.5044605 0.34046334 -0.18452464 -0.19032541
0.10184678 -0.099982776 -0.051071506 -0.5654508 -0.39681518 -0.3332819 -0.09742476 0.5639891
0.1771819 0.51274586 -0.43557084 0.40896225 0.41209766 0.1095214 -0.02071105 -0.118099034
0.014121741 0.58535445 0.34915993 1.0885544 -0.24980424 0.36060804 -0.35994312 0.16314973
-0.003052277 0.020342745 -0.44817987 -0.21819483 -0.0016828554 0.31711477 0.12949826 -0.06807399
0.35241196 -0.27087465 0.01786861 -0.1618443 0.18244375 0.2141519 -0.33110818 0.16730495
-0.38438395 0.21221638 -0.09406603 -0.0039249873 -0.21348591 0.17688866 -0.3672029 0.079676524
0.46332452 0.016096639 -0.12979324 -0.11756171 0.10305894 -0.0030364532 -0.4960824 0.3626006
-0.23937532 -0.041040726 -0.32523394 0.18127775 -0.24806099 0.057984725 0.05232812 -0.18863657
0.05782951 -0.23605706 -0.331868 -0.1602335 0.18103984 0.2566556 0.08248285 -0.52325696
0.12945235 -0.13906065 0.07630941 -0.2022445 0.065269545 0.060148254 -0.14622457 -0.005573106
0.12389618 0.20059465 0.035074588 -0.009118942 0.107780136 0.3932148 -0.18750998 -0.34204477
-0.24243818 -0.18870935 0.05288302 0.39674813 -0.046554133 -0.36235967 0.034906346 0.20998749
0.40892482 0.028257508 0.14086251 0.2598865 0.17161714 0.21736751 0.28264773 0.087112285
0.27235293 -0.022022309 -0.15329015 -0.19063762 -0.3411202 -0.22402039 0.33184916 0.13196898
-0.0098774 0.12030994 -0.09927631 0.3189958 -0.18515795 0.55370826 0.25166976 -0.25701565
-0.40908036 0.06743912 -0.42705378 -0.26271302 -1.6372856 -0.35073054 1.0585055 -0.46928242
0.992526 -0.45363542 -2.163097 -0.40014932 0.40600362 0.45318347 0.1678986 0.11510331
-1.3567091 -0.28049877 -0.9811395 0.33200148 -0.18569337 -0.6550951 1.4491191 -1.6386995
-0.64715296 -1.1107543 -0.044933964 -1.2330747 1.18347 -1.1455482 -0.32369462 0.9330273
-0.42485416 -0.42066497 -0.34727642 -0.005654125 -0.84046465 -0.8736237 0.27458465 0.8133402
-0.13028105 0.41849163 -0.31567356 -0.29937074 -0.3705062 -2.1301131 -0.1872095 -0.30917135
1.0365247 0.17221609 0.7673156 -0.10214189 0.87139285 -1.4917603 -0.041158356 0.6058856
00000000: 8e7c c93c 0db5 92be 5f6f 693f c68a 863e
00000010: 1977 59bf d767 813e e912 553d 71bc 23bf
00000020: 789e 7ebe 6654 62bf 382c 563e 401a 0e3f
00000030: ba90 b7be 9bfd 9a3d a7d1 23bb da87 6cbe
00000040: 3dae 553e 3a09 bdbe e69f 52be bd3c 1dbf
00000050: 1a02 ea3e 68b3 473f e1a1 093e 29e0 aabe
00000060: e4f3 6fbe 62bc 85bf c764 2c3e d46d 7d3e
00000070: 5be4 91be c0e3 2ebd 7fbf af3e d326 f5be
00000080: edb4 193e 9774 80bd bae8 b23e a8a8 ecbe
00000090: 6175 973e 4e02 22bd a266 1e3f f1b7 d2bc
000000a0: 5de6 83be 2ba9 2f3f 4caf 32bf a912 ca3e
000000b0: 1e8b d33e 6373 3cbf ed25 213e 1ae6 c43e
000000c0: b70b b1be acf3 393f a04c 793e cafb e33e
000000d0: 717e 80be 6a32 933d fca1 42bc 2c1c 753e
000000e0: 5a3b b93e 96f8 1b3f 0100 993e db7f f8bd
000000f0: 71e3 e13d b712 933c 84c2 db3e aeb8 383e
00000100: a063 cd3d a508 dcbe 7edf 903e 8c62 1f3f
00000110: 5c8a f93e 4e2e 983e c79e aabe 9e56 75be
00000120: c05e a1bd b1e5 a83e f469 2fbf 276e 10be
00000130: 5324 01bf 3651 ae3e 07f4 3cbe aae4 42be
00000140: 0b95 d03d c5c3 ccbd 5b30 51bd 62c1 10bf
00000150: 5c2b cbbe eda3 aabe a286 c7bd 9761 103f
00000160: 2c6f 353e 5043 033f 2403 dfbe 8063 d13e
00000170: 77fe d23e c14c e03d 38aa a9bc e8dd f1bd
00000180: e05e 673c cad9 153f 17c5 b23e c055 8b3f
00000190: afcc 7fbe 9ea1 b83e 774a b8be b910 273e
000001a0: b608 48bb d4a5 a63c d577 e5be 776e 5fbe
000001b0: 4293 dcba de5c a23e 319b 043e 606a 8bbd
000001c0: 576f b43e 15b0 8abe 3161 923c 83ba 25be
000001d0: 89d2 3a3e a34a 5b3e 0387 a9be fd51 2b3e
000001e0: f9cd c4be 404f 593e b1a5 c0bd 2e9d 80bb
000001f0: 0d9c 5abe 4d22 353e 0502 bcbe 722d a33d
00000200: df38 ed3e 19dd 833c 85e8 04be 32c4 f0bd
00000210: 9110 d33d 3bff 46bb 83fe fdbe c9a6 b93e
00000220: ce1e 75be 521a 28bd 1085 a6be e0a0 393e
00000230: b303 7ebe 6481 6d3d 0356 563d f229 41be
00000240: a3de 6c3d f1b8 71be 9aea a9be 4014 24be
00000250: 8262 393e 5d68 833e c5ec a83d 2bf4 05bf
00000260: 288f 043e ea65 0ebe 1c48 9c3d 2f19 4fbe
00000270: 0aac 853d 045e 763d e5bb 15be 9a9e b6bb
00000280: 48bd fd3d af68 4d3e 5faa 0f3d 9d67 15bc
00000290: d5bb dc3d 7353 c93e 9e02 40be 7e20 afbe
000002a0: b741 78be 063d 41be de9b 583d 9222 cb3e
000002b0: 8caf 3ebd 3587 b9be f5f9 0e3d f606 573e
000002c0: 985e d13e 4a7c e73c 433e 103e d80f 853e
000002d0: 67bc 2f3e 9795 5e3e 34b7 903e ed67 b23d
000002e0: d871 8b3e 2168 b4bc 18f8 1cbe 8236 43be
000002f0: 4fa7 aebe 9a65 65be 22e8 a93e e022 073e
00000300: d1d4 21bc 0f65 f63d 6151 cbbd 6b53 a33e
00000310: 0c9a 3dbe d3bf 0d3f dcda 803e 8e97 83be
00000320: fb72 d1be 851d 8a3d cba6 dabe 5282 86be
00000330: 9392 d1bf f492 b3be 1c7d 873f c945 f0be
00000340: 2f16 7e3f e742 e8be 2e70 0ac0 5fe0 ccbe
00000350: b5df cf3e aa07 e83e 9ced 2b3e 49bb eb3d
00000360: a5a8 adbf 899d 8fbe f52b 7bbf 19fc a93e
00000370: 6726 3ebe 50b4 27bf bc7c b93f e8c0 d1bf
00000380: d1ab 25bf 322d 8ebf ad0c 38bd 64d5 9dbf
00000390: f27b 973f 53a1 92bf 4dbb a5be e1da 6e3f
000003a0: 7c86 d9be 6661 d7be 37ce b1be 3d46 b9bb
000003b0: b128 57bf cea5 5fbf 5c96 8c3e 1037 503f
000003c0: 6568 05be 8944 d63e f79f a1be 1f47 99be
000003d0: fdb2 bdbe c653 08c0 d9b3 3fbe b54b 9ebe
000003e0: d7ac 843f 6a59 303e cc6e 443f c42f d1bd
000003f0: 9a13 5f3f 00f2 bebf aa95 28bd 521b 1b3f

rnn2.weight_hh f4 [100, 100]
-0.7329512 -0.33763057 0.118416935 0.28679374 -0.009759659 -0.097697146 0.36661097 -0.3083924
-0.3724678 0.09543702 0.38499102 -0.21980391 0.31261128 -0.1871413 0.14781809 0.33472767
0.16686946 0.30872288 0.623354 -0.47353113 -0.088688 -0.33333993 0.16929919 -0.47169232
-0.47708288 0.20378253 0.2099474 -0.24549836 0.10342883 -0.1700384 -0.51650107 -0.25806543
0.25957072 0.22173284 -0.18306643 -0.21271485 0.2503303 -0.025933929 0.19356517 -0.032270495
0.2000518 0.07896508 0.3707103 -0.53495884 0.30685282 -0.33457887 -0.6577119 -0.2293627
0.15006526 0.57160145 0.38054913 0.061405927 0.19202085 -0.26807386 -0.38641977 0.24243395
-0.120549016 -0.20926355 0.16346164 -0.54272366 0.08108435 -0.31794375 0.23330867 0.10977387
-0.24576485 -0.39512166 0.45235965 -0.17569974 -0.093479134 -0.31045535 -0.25675517 -0.019900503
-0.19428192 -0.33983397 0.22498861 -0.37114987 0.41744667 -0.23826979 0.42715916 -0.029334964
-0.3525467 0.21230373 -0.20319533 -0.060487088 -0.3105864 0.3278056 0.02561861 -0.2590168
0.36968002 0.14138237 0.27695587 -0.57024366 0.025795717 0.36398268 -0.24829078 -0.28507593
-0.40574205 -0.4539149 -0.105410784 -0.1443608 -0.38173136 0.36275634 0.1127478 -0.29243946
-0.4370308 0.31327447 -0.2204877 0.27367485 -0.023648925 -0.29408702 -0.016967686 0.37286788
-0.32995582 0.13122134 -0.37257138 -0.22879867 -0.30599058 -0.42788416 0.16797748 -0.00075405155
0.1701511 0.26198578 -0.27012178 0.42563137 0.32705986 -0.17877999 -0.08161144 0.27384335
-0.16879976 0.24234012 0.22259237 0.10693359 -0.43180186 0.081801265 0.14318354 0.12957406
-0.23669137 -0.032518197 -0.3560107 -0.042963628 -0.4159281 0.03571878 -0.2698484 0.4436148
-0.47213513 -0.32421243 0.15023872 -0.22726129 0.41756716 -0.21195218 0.010473837 -0.22894129
-0.32261366 0.39681175 0.39436713 -0.41897088 0.19892165 0.3596309 -0.33302796 -0.26193577
-0.22130091 0.4407428 -0.4200252 0.0491013 0.19230832 0.13540992 -0.3210314 0.35356918
0.1471195 0.45593822 0.35017136 0.22549435 0.22038794 0.33696738 -0.20495532 0.28939342
-0.27057594 0.31030342 -0.24277028 0.39573327 0.3756414 -0.23509687 0.28890315 0.041769806
0.18029551 -0.45928627 -0.10064671 0.16504401 -0.28575477 -0.13529715 -0.31229302 0.23095101
0.20161012 0.07162147 0.06960202 0.10566301 -0.14665061 0.40451896 0.21998417 0.02190454
-0.19133067 0.19004115 1.0013744 -0.02277601 -1.9123423 -0.42057756 -0.25489932 0.24388534
-0.47923952 -0.30979064 0.35592243 0.08179755 -0.27763107 0.9349859 0.6156423 -0.24263631
-0.23580071 0.6255393 -1.2912378 0.21142116 0.023385847 -0.009677007 -0.44303295 0.08133197
0.46990716 -0.68348765 -0.29562008 0.17071083 0.6664688 0.005721116 0.012023283 0.041687742
-0.14192408 -0.20197669 -0.14986189 0.8524526 -0.020307966 0.29177853 -0.27042454 0.6686555
-0.26644948 -0.10940965 -0.07726475 -0.6593441 -0.109587215 0.27613682 -0.052773498 0.7536315
0.28783208 0.023665426 0.27200648 0.092709444 -0.23912998 0.1260478 0.14604539 0.2758794
00000000: b1a2 3bbf eadd acbe 9484 f23d a1d6 923e
00000010: fae6 1fbc 7115 c8bd 6fb4 bb3e 9ce5 9dbe
00000020: 19b4 bebe 7c74 c33d 8b1d c53e 4714 61be
00000030: 960e a03e f8a1 3fbe a05d 173e 6d61 ab3e
00000040: d4df 2a3e ed10 9e3e 2194 1f3f ac72 f2be
00000050: 0ea2 b5bd 88ab aabe c45c 2d3e a881 f1be
00000060: 3544 f4be 5eac 503e 74fc 563e ec63 7bbe
00000070: 7fd2 d33d 8c1e 2ebe 6a39 04bf 2721 84be
00000080: 74e6 843e ef0d 633e c475 3bbe ecd1 59be
00000090: 4b2b 803e 6473 d4bc f335 463e 112e 04bd
000000a0: 61da 4c3e 72b8 a13d becd bd3e 10f3 08bf
000000b0: d01b 9d3e ec4d abbe cf5f 28bf 0ede 6abe
000000c0: b5aa 193e 7954 123f 56d7 c23e c884 7b3d
000000d0: 1da1 443e fa40 89be d0d8 c5be 9b40 783e
000000e0: 67e2 f6bd 2f49 56be 7d62 273e f0ef 0abf
000000f0: 8d0f a63d 86c9 a2be 78e8 6e3e 1fd1 e03d
00000100: c8a9 7bbe 634d cabe af9b e73e a2ea 33be
00000110: fd71 bfbd 01f4 9ebe 6a75 83be 6106 a3bc
00000120: d7f1 46be b8fe adbe 6a63 663e 5b07 bebe
00000130: 92bb d53e fffc 73be 9bb4 da3e e14f f0bc
00000140: 0081 b4be 2666 593e 7012 50be 4fc1 77bd
00000150: 2e05 9fbe 23d6 a73e 1fde d13c da9d 84be
00000160: b346 bd3e 8ac6 103e 29cd 8d3e 7dfb 11bf
00000170: 8a51 d33c f05b ba3e f03f 7ebe 79f5 91be
00000180: 6cbd cfbe 8967 e8be 9ce1 d7bd 51d3 13be
00000190: 4b72 c3be 33bb b93e 52e8 e63d a0ba 95be
000001a0: 80c2 dfbe 8365 a03e 87c7 61be 1c1f 8c3e
000001b0: 64bb c1bc 9392 96be d1ff 8abc 8ae8 be3e
000001c0: f8ef a8be e35e 063e adc1 bebe 334a 6abe
000001d0: ccaa 9cbe a213 dbbe 4a02 2c3e 8bab 45ba
000001e0: 173c 2e3e 0023 863e 674d 8abe 5bec d93e
000001f0: 6474 a73e 1a12 37be e623 a7bd 3235 8c3e
00000200: d8d9 2cbe 0228 783e 41ef 633e ffff da3d
00000210: 2215 ddbe 6c87 a73d b59e 123e 10af 043e
00000220: 395f 72be cd31 05bd 0947 b6be a1fa 2fbd
00000230: 87f4 d4be db4d 123d 9229 8abe 7b21 e33e
00000240: b2bb f1be 2cff a5be 2ed8 193e 2fb7 68be
00000250: 5dcb d53e fe09 59be 759a 2b3c 966f 6abe
00000260: 9e2d a5be e92a cb3e 7dea c93e 5a83 d6be
00000270: 1eb2 4b3e 8b21 b83e a482 aabe 721c 86be
00000280: b59c 62be 0aa9 e13e 8b0d d7be 721e 493d
00000290: 79ec 443e e6a8 0a3e 3a5e a4be 0507 b53e
000002a0: 7fa6 163e bc70 e93e a949 b33e fee7 663e
000002b0: 60ad 613e fd86 ac3e cfdf 51be 602b 943e
000002c0: ee88 8abe 17e0 9e3e c698 78be 8d9d ca3e
000002d0: 1254 c03e 3cbd 70be 1deb 933e d116 2b3d
000002e0: 639f 383e 9227 ebbe dd1f cebd 4c01 293e
000002f0: 734e 92be 568b 0abe dfe4 9fbe 6c7e 6c3e
00000300: e272 4e3e 47ae 923d 818b 8e3d d965 d83d
00000310: 942b 16be 1c1d cf3e 8843 613e 2671 b33c
00000320: 30ec 43be 269a 423e 092d 803f c194 babc
00000330: a2c7 f4bf f155 d7be 2a82 82be 14bd 793e
00000340: e25e f5be e19c 9ebe 773b b63e 7985 a73d
00000350: a925 8ebe 3c5b 6f3f bc9a 1d3f a775 78be
00000360: be75 71be 5823 203f 4847 a5bf ca7e 583e
00000370: ad93 bf3c 4f8c 1ebc 37d5 e2be 6091 a63d
00000380: ac97 f03e 0cf9 2ebf 845b 97be d2ce 2e3e
00000390: b39d 2a3f 3378 bb3b 4efd 443c c4c0 2a3d
000003a0: 8c54 11be fad2 4ebe 6575 19be 553a 5a3f
000003b0: e45c a6bc ff63 953e 1675 8abe 022d 2b3f
000003c0: 116c 88be 2b12 e0bd fb3c 9ebd c6ca 28bf
000003d0: 436f e0bd ce61 8d3e 0629 58bd feed 403f
000003e0: ba5e 933e ffdd c13c 6f44 8b3e 73de bd3d
000003f0: 7dde 74be ad12 013e ec8c 153e 1140 8d3e

rnn2.bias_ih f4 [100]
0.48497772 -0.46655104 -0.119800225 -0.105766654 0.061546214 -0.113297924 0.2010947 -0.34597388
0.08574312 0.6044181 0.2536629 -0.5511451 0.40667158 -0.47369045 0.27843383 -0.060721118
-0.5105281 0.23953089 -0.18895651 -0.22113663 -0.06374354 0.13992052 0.40597603 -0.184846
-0.4828844 0.12168873 0.14012943 0.09810697 0.20939533 -0.4162998 0.3006639 -0.30937594
0.22101767 0.1990258 -0.07007328 -0.029330963 -0.19533828 0.0048715933 0.63019603 -0.31722835
0.32029128 0.3793978 0.010294368 -0.4079887 0.4232514 0.4571347 -0.039875157 0.023200937
-0.060910806 -0.0564223 0.29480803 0.3879772 0.47890046 -0.624547 -0.5958477 0.4506201
-0.39701924 -0.36985248 0.013163387 0.5684946 0.01439078 0.15068325 0.49587637 -0.006575025
-0.4451611 -0.43545142 0.31173334 0.2422236 -0.13177204 -0.52059436 -0.3217764 0.008284808
0.3574075 -0.32539657 0.7208504 -0.15196419 -0.24016616 -0.33956856 -0.21334964 -0.14511599
-0.33225015 0.076714836 -0.46219644 0.25037622 -0.27446178 0.2778925 0.22299431 -0.23312387
0.22732595 -0.62652737 0.46946675 -0.4247553 0.395231 -0.41586217 -0.3136816 0.21088521
-0.15644382 -0.033024266 -0.5586772 0.3784855
00000000: 004f f83e c7df eebe d259 f5bd 309c d8bd
00000010: e217 7c3d be08 e8bd c5eb 4d3e 7d23 b1be
00000020: 179a af3d 25bb 1a3f 1be0 813e d817 0dbf
00000030: 4237 d03e 8e87 f2be e18e 8e3e b5b6 78bd
00000040: f8b1 02bf 9647 753e d17d 41be a471 62be
00000050: f98b 82bd 5347 0f3e 17dc cf3e 4548 3dbe
00000060: a03c f7be f137 f93d 177e 0f3e 4fec c83d
00000070: bb6b 563e 3f25 d5be 9ef0 993e 8666 9ebe
00000080: 7552 623e 6bcd 4b3e 9482 8fbd 7d47 f0bc
00000090: c206 48be e3a1 9f3b 8754 213f c16b a2be
000000a0: 38fd a33e 6e40 c23e b5a9 283c e5e3 d0be
000000b0: 68b4 d83e 8f0d ea3e 2254 23bd e40f be3c
000000c0: 9c7d 79bd 121b 67bd 14f1 963e f3a4 c63e
000000d0: 7132 f53e 50e2 1fbf 7a89 18bf aeb7 e63e
000000e0: 1b46 cbbe 4e5d bdbe 3fab 573c dd88 113f
000000f0: 4ec7 6b3c b64c 1a3e 82e3 fd3e 4f73 d7bb
00000100: 28ec e3be 7df3 debe 839b 9f3e 7709 783e
00000110: 40ef 06be ac45 05bf e0bf a4be 01bd 073c
00000120: 1efe b63e 619a a6be a789 383f 809c 1bbe
00000130: 1eee 75be eedb adbe 5478 5abe 4999 14be
00000140: b11c aabe ab1c 9d3d 03a5 ecbe 5031 803e
00000150: 4186 8cbe ed47 8e3e 9f58 643e 06b8 6ebe
00000160: 22c8 683e 1964 20bf f25d f03e 8779 d9be
00000170: b85b ca3e e3eb d4be e09a a0be 4bf2 573e
00000180: cf32 20be 7444 07bd 7805 0fbf dac8 c13e

rnn2.bias_hh f4 [100]
0.45256385 -0.3547126 0.02049895 -0.020019943 0.009548427 -0.13454615 0.08202748 -0.3127511
0.0339063 0.5703233 0.23219483 -0.58909667 0.3825751 -0.4799023 0.43671885 -0.1426708
-0.39472517 0.26275828 -0.16462864 -0.21523884 -0.00019964602 0.08543579 0.48654643 -0.27867913
-0.45645344 0.12698689 0.3093588 0.03630824 0.1608028 -0.3378037 0.34703895 -0.2801793
0.16986263 0.18787289 0.005183976 -0.034554843 -0.14706685 0.013455281 0.66748536 -0.24263112
0.37233052 0.41676635 0.10587083 -0.40075415 0.3597559 0.38473207 0.07219682 -0.059635725
0.03850347 -0.08704035 0.239704 0.5122481 0.33505508 -0.5552111 -0.5271087 0.6155068
-0.30971038 -0.26617557 0.026146252 0.49534562 -0.031488977 0.08147444 0.49209356 0.08304826
-0.4957269 -0.3976703 0.373202 0.32340422 -0.21331039 -0.5071833 -0.15525968 -0.071170166
0.38731697 -0.2930456 0.58876216 -0.062113672 -0.31177104 -0.43211716 -0.19788305 -0.24743204
-0.30715474 0.021142565 -0.5552751 0.1937726 -0.2496193 0.22700565 0.13998625 -0.257483
0.20234506 -0.47957858 0.45526502 -0.42174405 0.32757586 -0.33364913 -0.30711615 0.1470655
-0.28417867 0.02367148 -0.43281665 0.4965845
00000000: 73b6 e73e e49c b5be 6aed a73c dd00 a4bc
00000010: 0171 1c3c 77c6 09be 06fe a73d ea20 a0be
00000020: 55e1 0a3d b500 123f 7bc4 6d3e 0acf 16bf
00000030: e2e0 c33e c1b5 f5be 9d99 df3e 4b18 12be
00000040: 6b19 cabe 4188 863e 6994 28be 9267 5cbe
00000050: 1258 51b9 f6f8 ae3d 9d1c f93e 08af 8ebe
00000060: 44b4 e9be da08 023e 4764 9e3e f3b7 143d
00000070: 7da9 243e 9bf4 acbe 17af b13e a973 8fbe
00000080: 78f0 2d3e c061 403e 58de a93b 6189 0dbd
00000090: b198 16be 8a73 5c3c 52e0 2a3f 4b74 78be
000000a0: 1ba2 be3e 6662 d53e ced2 d83d a62f cdbe
000000b0: ed31 b83e 9afb c43e eddb 933d 9744 74bd
000000c0: d1b5 1d3d 3642 b2bd f774 753e b122 033f
000000d0: 578c ab3e 5122 0ebf 99f0 06bf db91 1d3f
000000e0: 5c92 9ebe 2a48 88be aa30 d63c f19d fd3e
000000f0: 96fa 00bd 12dc a63d b0f3 fb3e 3515 aa3d
00000100: ebcf fdbe 719b cbbe 5514 bf3e 3d95 a53e
00000110: 0a6e 5abe c4d6 01bf 65fc 1ebe aac1 91bd
00000120: 694e c63e 130a 96be 1eb9 163f e86a 7ebd
00000130: 74a0 9fbe 763e ddbe dba1 4abe d35e 7dbe
00000140: 6343 9dbe 2c33 ad3c 8226 0ebf 536c 463e
00000150: 349c 7fbe 2b74 683e 8e58 0f3e d0d4 83be
00000160: 8b33 4f3e 538b f5be 7f18 e93e d6ee d7be
00000170: 06b8 a73e 0fd4 aabe 543e 9dbe 5798 163e
00000180: de7f 91be b1ea c13c 259a ddbe 5340 fe3e

linear.weight f4 [100, 100]
-0.22228803 0.14711106 -0.09044321 -0.18200833 -0.3092789 -0.4723905 -0.27716026 0.20901902
-0.44469547 -0.078348756 0.7979758 0.04541225 -0.22896878 0.383533 -0.51935375 -0.07592618
-0.010130819 0.09366202 0.30808276 1.2557331 -0.24522805 0.13755126 0.1073022 0.03579307
0.0017914369 0.118200235 -0.028572476 0.05737631 0.72662383 0.53526616 -0.10246119 0.21795511
-0.19598916 0.31404066 0.06819899 -0.14113918 0.0120213395 -0.06237785 -0.17932218 0.3016753
-0.20597978 -0.12170675 0.00073938724 -1.0513626 -0.24439994 0.32032934 0.15996076 0.16086644
-0.3690756 -0.024820242 0.010166138 0.028074263 -0.56892705 0.11067833 0.09943965 -0.15089671
-0.09739857 -0.33127028 -0.11443962 0.17909579 0.08475233 0.15984862 -0.10184912 0.0481257
0.017560381 0.11419635 -0.12005451 0.34060124 0.055613812 0.14989388 0.21536377 -0.13443981
0.25744957 0.11752228 -0.124759525 0.10088295 0.2216101 0.22196081 0.76796824 0.13892533
0.17593685 -0.054551583 0.21839483 0.27353203 0.16676244 -0.18463898 -0.11007963 -0.32199398
0.22851612 0.1389273 -0.2691831 -0.11895407 -0.102778204 0.20674647 -0.17593744 -0.11701463
0.014571846 -0.76364166 -0.06143221 0.27635714 -0.14538257 0.15552686 -0.22946988 -0.087253384
0.16900147 -0.41410625 -0.07902964 0.15817472 -0.560775 -0.069491945 -0.035815757 0.17403644
-0.21518669 -0.12739238 -0.42083743 -0.1115323 -0.048059955 0.114065565 -0.018660162 0.7577304
-0.16459717 0.14493318 -0.022809438 0.09432017 0.03610409 -0.022942426 -0.26380306 0.22094537
0.50623006 0.48312056 -0.052924693 0.049381897 -0.14703828 -0.10440915 -0.29970467 -0.12657622
0.08960213 -0.33098793 -0.1994956 0.30200362 -0.16782208 -0.0986626 -0.016820267 -0.21226938
-0.20205198 0.12587312 0.15246592 -0.10727369 -0.16457506 -0.26619956 -0.2021659 0.077158675
-0.3036878 0.10017833 0.13660051 -0.022736033 0.028710054 -0.11322207 -0.16319127 0.0976231
-0.06797995 0.1869401 0.094952196 -0.18864694 0.09227656 0.067081034 -0.033159193 0.18265697
0.14420758 0.14203386 0.15383382 0.10000095 -0.08084873 0.12283209 -0.14544472 0.052183483
-0.00028753496 0.12698145 0.48930606 0.08073464 0.2074797 -0.023740532 0.16457894 0.5393178
0.082633525 -0.085652135 0.10438924 -0.29126793 0.023307165 0.1410326 -0.19639288 -0.16622701
0.093225986 -0.10126154 -0.003973443 0.14937209 0.0056919134 -0.62425137 0.012525617 0.057094146
-0.0855539 0.16370192 -0.014856087 -0.2069584 -0.1611425 -0.28928655 0.22718446 0.18220389
-0.39987698 -0.20191091 -0.4650562 0.22332646 -0.17695849 -0.043070063 -0.6441234 -0.15298285
0.019748349 -0.58179206 0.17291689 0.50969297 -0.14045148 0.11505682 0.019558147 0.10457528
0.08128646 -0.12220945 -0.11758632 0.10564455 0.65497607 -0.078472234 -0.124454625 0.24433051
-0.24253657 0.28101075 -0.19236518 -0.19087572 0.097685605 -0.5406799 -0.13134974 0.09933161
-0.25889587 -0.08803011 -0.2606615 -0.036034886 -0.13293436 0.3118055 0.01230785 -0.19551371
0.14113732 -0.15725614 -0.05638216 0.054281373 0.17572397 0.21906084 0.11958482 -0.011177871
00000000: 799f 63be 48a4 163e 4a3a b9bd 6460 3abe
00000010: ce59 9ebe 2bdd f1be f3e7 8dbe 1509 563e
00000020: 20af e3be 5075 a0bd 2448 4c3f 3202 3a3d
00000030: cb76 6abe 705e c43e 5ef4 04bf 2f7f 9bbd
00000040: bcfb 25bc e0d1 bf3d 06bd 9d3e ddbb a03f
00000050: 101d 7bbe 3dda 0c3e 41c1 db3d c19b 123d
00000060: a6ce ea3a f712 f23d d310 eabc 6c03 6b3d
00000070: 0504 3a3f 3407 093f 2cd7 d1bd a02f 5f3e
00000080: 62b1 48be f0c9 a03e e9ab 8b3d ca86 10be
00000090: 27f5 443c eb7f 7fbd 3ca0 37be 2f75 9a3e
000000a0: 5dec 52be 6341 f9bd 70d3 413a 0d93 86bf
000000b0: fa43 7abe 3502 a43e c1cc 233e 2cba 243e
000000c0: 7af7 bcbe d253 cbbc e08f 263c fffb e53c
000000d0: 34a5 11bf 52ab e23d 04a7 cb3d ab84 1abe
000000e0: e778 c7bd 429c a9be 525f eabd e364 373e
000000f0: a192 ad3d 5baf 233e 4596 d0bd 741f 453d
00000100: cada 8f3c c7df e93d 24df f5bd 4963 ae3e
00000110: 4fcb 633d c87d 193e 5288 5c3e 97aa 09be
00000120: 6ed0 833e 85af f03d ec81 ffbd b89b ce3d
00000130: c2ed 623e b249 633e 9199 443f 7142 0e3e
00000140: ca28 343e 7b71 5fbd e5a2 5f3e 640c 8c3e
00000150: c6c3 2a3e 0012 3dbe 6e71 e1bd 65dc a4be
00000160: 2100 6a3e f542 0e3e 5ed2 89be 319e f3bd
00000170: 617d d2bd 59b5 533e f228 34be 5ea5 efbd
00000180: c1be 6e3c 057e 43bf 57a0 7bbd af7e 8d3e
00000190: 2bdf 14be 6f42 1f3e 27fa 6abe e7b1 b2bd
000001a0: b90e 2d3e bc05 d4be 4bda a1bd 8ef8 213e
000001b0: f38e 0fbf cb51 8ebd 8bb3 12bd 9c36 323e
000001c0: e659 5cbe 2673 02be 0178 d7be 0c6b e4bd
000001d0: 84da 44bd 359b e93d 32dd 98bc 9ffa 413f
000001e0: 298c 28be 5d69 143e dcda babc ef2a c13d
000001f0: e2e1 133d c1f1 bbbc 3211 87be 813f 623e
00000200: 4b98 013f 945b f73e 90c7 58bd ac44 4a3d
00000210: 3491 16be 77d4 d5bd e472 99be 329d 01be
00000220: 5281 b73d 4077 a9be 9348 4cbe 38a0 9a3e
00000230: 8dd9 2bbe 9e0f cabd a8ca 89bc 255d 59be
00000240: b7e6 4ebe e2e4 003e 0720 1c3e 4fb2 dbbd
00000250: 5d86 28be 4f4b 88be 9404 4fbe 5e05 9e3d
00000260: f87c 9bbe 4c2a cd3d 01e1 0b3e eb40 babc
00000270: 5931 eb3c f9e0 e7bd 9d1b 27be 9fee c73d
00000280: 1239 8bbd 3a6d 3f3e 4c76 c23d aa2c 41be
00000290: 7efb bc3d c861 893d efd1 07bd 6e0a 3b3e
000002a0: 27ab 133e 5371 113e 9d86 1d3e 4ccd cc3d
000002b0: 0594 a5bd 648f fb3d 76ef 14be 59be 553d
000002c0: 4ac0 96b9 6d07 023e 5386 fa3e 3458 a53d
000002d0: 8f75 543e 817b c2bc 6287 283e bb10 0a3f
000002e0: c43b a93d 636a afbd 07ca d53d 1221 95be
000002f0: abee be3c da6a 103e 371b 49be 6a37 2abe
00000300: 44ed be3d 3662 cfbd a833 82bb fff4 183e
00000310: 3b83 ba3b f0ce 1fbf 3f38 4d3c 8ddb 693d
00000320: e236 afbd 7aa1 273e f266 73bc e7ec 53be
00000330: 8a02 25be 5e1d 94be 0ba3 683e a893 3a3e
00000340: adbc ccbe bcc1 4ebe d91b eebe b1af 643e
00000350: 9b34 35be 3c6a 30bd 45e5 24bf 89a7 1cbe
00000360: 4ac7 a13c 53f0 14bf 2011 313e 3d7b 023f
00000370: 83d2 0fbe e9a2 eb3d 6838 a03c 902b d63d
00000380: 8479 a63d f348 fabd 19d1 f0bd 2b5c d83d
00000390: 83ac 273f 0db6 a0bd 11e2 febd c731 7a3e
000003a0: 825b 78be a4e0 8f3e 61fb 44be ed74 43be
000003b0: 640f c83d ff69 0abf 8c80 06be 5f6e cb3d
000003c0: 008e 84be 2149 b4bd 6d75 85be 5199 13bd
000003d0: f21f 08be f8a4 9f3e dda6 493c bf34 48be
000003e0: 4d86 103e c107 21be fbf0 66bd 2556 5e3d
000003f0: fcf0 333e 7c51 603e e3e8 f43d 6423 37bc

linear.bias f4 [100]
-0.071776524 -0.09560971 -0.14674175 -0.22230081 -0.1464923 -0.2652931 -0.12967163 -0.26392305
-0.16606666 -0.097598076 0.13098727 -0.114517115 -0.0033781317 0.03251468 0.05836127 0.057343636
-0.027119566 0.007874934 0.018957948 -0.2577267 -0.14431246 0.07662424 -0.089440234 0.17907922
0.046883773 0.07373283 -0.11148748 0.003973273 -0.009480831 0.15580201 0.05857416 -0.05956555
0.07279759 -0.27019852 0.10441947 -0.111202724 -0.04012404 -0.19721237 -0.09392584 -0.116405465
-0.044831473 -0.06339234 -0.096933044 0.031664923 -0.12776132 -0.101414084 -0.07357074 -0.044916544
-0.15846588 0.03319516 -0.09859456 -0.04690889 -0.11681623 -0.15030111 0.031296942 0.00042955132
-0.016614368 -0.20213266 -0.103935406 -0.07298069 0.01513154 -0.119980514 -0.1357192 -0.09908657
-0.123753086 -0.15216674 -0.14451405 -0.2983962 0.04740881 -0.06437473 -0.21325581 -0.12856202
-0.10342463 0.06495253 -0.099143684 -0.09081986 -0.10080777 -0.2144081 -0.17993656 -0.1006458
-0.10736532 -0.27478194 0.015777698 -0.16183458 -0.27974427 -0.25989565 -0.08712411 -0.153059
-0.3181778 -0.107017465 -0.15184556 -0.2851599 -0.13933268 -0.17401884 0.15897168 -0.20696677
0.11233178 -0.2748104 -0.24768211 -0.2435219
00000000: 92ff 92bd 06cf c3bd 7843 16be d3a2 63be
00000010: 1402 16be 7fd4 87be a4c8 04be ec20 87be
00000020: 610d 2abe 80e1 c7bd 8721 063e f387 eabd
00000030: a563 5dbb 1d2e 053d 3a0c 6f3d 29e1 6a3d
00000040: da29 debc de05 013c b34d 9b3c c1f4 83be
00000050: a5c6 13be 2bed 9c3d 712c b7bd 8b60 373e
00000060: 3309 403d 3d01 973d 8c53 e4bd 3b32 823b
00000070: 7d55 1bbc 908a 1f3e 75eb 6f3d 02fb 73bd
00000080: e716 953d 7657 8abe e0d9 d53d 41be e3bd
00000090: 1b59 24bd 0af2 49be 315c c0bd fd65 eebd
000000a0: 35a1 37bd d8d3 81bd d584 c6bd 14b3 013d
000000b0: ddd3 02be 30b2 cfbd 42ac 96bd 69fa 37bd
000000c0: e144 22be a6f7 073d f2eb c9bd 8923 40bd
000000d0: 593d efbd 89e8 19be 3931 003d 6735 e139
000000e0: db1a 88bc ddfb 4ebe 16dc d4bd e676 95bd
000000f0: 47ea 773c 58b8 f5bd f9f9 0abe e6ed cabd
00000100: 4272 fdbd 99d1 1bbe 7efb 13be 63c7 98be
00000110: be2f 423d e6d6 83bd bb5f 5abe c3a5 03be
00000120: 4bd0 d3bd d505 853d d80b cbbd c3ff b9bd
00000130: 4e74 cebd cc8d 5bbe 4a41 38be 631f cebd
00000140: 59e2 dbbd 38b0 8cbe 3b40 813c f7b7 25be
00000150: a43a 8fbe 0b11 85be 206e b2bd 80bb 1cbe
00000160: 33e8 a2be f92b dbbd 677d 1bbe 7a00 92be
00000170: 3aad 0ebe ff31 32be 79c9 223e 19ef 53be
00000180: 340e e63d f3b3 8cbe 61a0 7dbe ce5d 79be
