Results/Complete Sherlock Holmes/LSTM/ASGD/1/50/model.pt (torch, 144223 bytes, 6 tensors)

rnn.weight_ih f4 [200, 100]
0	0x3f98189d	1.1882511
1	0xbf7b0c47	-0.9806561
2	0xbf13142e	-0.57452667
3	0x3eff75e8	0.49894643
4	0xbf26bf04	-0.65135217
5	0x3d299ae9	0.0414075
6	0xbed8dcd0	-0.42355967
7	0xbda95df0	-0.0826987
8	0x3d77f735	0.06053849
9	0xbecb3bf3	-0.39694175
10	0x4004948c	2.0715666
11	0x3e850b25	0.25985065
12	0xbf39ce0e	-0.7258004
13	0x3eaa3ece	0.3325104
14	0x401c52ac	2.442546
15	0x3f82fe40	1.0233841
16	0x3e97c669	0.29643562
17	0xbe80ea75	-0.25178877
18	0xbe890149	-0.26758793
19	0x3f43058d	0.76180345
20	0xbea54a71	-0.32283357
21	0xbfac191c	-1.3445163
22	0xbdc4c314	-0.09607521
23	0xbf4b6826	-0.7945579
24	0x3f87c17d	1.0605923
25	0xbcd3ee8a	-0.02587058
26	0x3fd97f36	1.6991947
27	0x3e8d1895	0.27557817
28	0x3f9e7d3a	1.2381966
29	0x3ff9b82e	1.9509332
30	0xbece9505	-0.40348068
31	0xbecfa2c6	-0.40553874
32	0x3ea0ba68	0.31392217
33	0x3f3c9065	0.7365783
34	0x3f7e7bf0	0.99407864
35	0xbeb83ba7	-0.3598301
36	0xbf94cea5	-1.1625563
37	0x3efae35a	0.4900158
38	0x3ea1b24e	0.31581348
39	0x3e096adc	0.1341967
40	0x3ec321ee	0.38111824
41	0xbf3c46b9	-0.73545414
42	0xbef3475f	-0.4751539
43	0x3f7970d2	0.97437775
44	0xbecab291	-0.3958936
45	0xbf4ba5ef	-0.7955007
46	0xbee61544	-0.449381
47	0x3f758f4c	0.9592178
48	0x3e6f5b34	0.23374635
49	0x3e0abd4d	0.13548775
50	0xbd4e2b44	-0.05033423
51	0xbf3b2319	-0.7310043
52	0x3f20e6d9	0.62852246
53	0x3f08e9c0	0.53481674
54	0x3df5c475	0.12000362
55	0xbf0209a1	-0.5079594
56	0x3e0f82a5	0.1401468
57	0xbeee948a	-0.465977
58	0x3f0f27a9	0.5591989
59	0xbc2f627f	-0.010704636
60	0x3fbd1503	1.4772037
61	0x3e6a8565	0.22902448
62	0xbe001493	-0.12507848
63	0xbeac7169	-0.33680275
64	0xbd40636c	-0.046969816
65	0xbe09a8d2	-0.13443306
66	0x3c0e17d0	0.0086726695
67	0x3f6dd2a5	0.92899543
68	0xbed6a8f2	-0.4192577
69	0xbe8216b1	-0.25407937
70	0x3e0c5fd8	0.13708436
71	0x3d98566b	0.07438358
72	0xbd88fcfb	-0.06688877
73	0xbebb6bd5	-0.36605707
74	0xbd359f83	-0.044341575
75	0x3c8c6800	0.017139435
76	0xbd20bbfe	-0.039241783
77	0xbed93a35	-0.4242722
78	0xbef7d72d	-0.48406354
79	0x3e024431	0.12721325
80	0xbdf7f094	-0.121064335
81	0xbda8159e	-0.08207248
82	0x3ea043bc	0.31301677
83	0xbd789672	-0.06069035
84	0x3eed1924	0.46308243
85	0xbda2ddb4	-0.07952443
86	0x3d74ca7f	0.059763428
87	0xbb84d940	-0.0040542185
88	0xbcca5928	-0.024700716
89	0xbe090b72	-0.13383272
90	0xbcb0a59c	-0.021563344
91	0xbdbe4e06	-0.092922255
92	0xbd3e9816	-0.04653176
93	0xbd8f7cb5	-0.07006208
94	0x3de91ddf	0.113826506
95	0xbddd8cd4	-0.108178765
96	0x3ffc42f7	1.9707936
97	0x3c8d4180	0.017243147
98	0xbd12ade6	-0.035810374
99	0xbde72a12	-0.11287321
100	0xbf4da0db	-0.8032357
101	0xbf6b88a9	-0.920054
102	0xbdabc480	-0.08387089
103	0xbee416f8	-0.44548774
104	0xbf8f45dd	-1.1193196
105	0xbf14a6e5	-0.5806716
106	0xbf587645	-0.84555465
107	0xbe7c872c	-0.24660939
108	0xbea78b69	-0.3272355
109	0xbf5360b9	-0.8256946
110	0x3fbd8e9f	1.480915
111	0xbcdca841	-0.026935698
112	0x409b548d	4.854071
113	0xc036e826	-2.8579192
114	0x3f09c3cd	0.53814393
115	0x400b7f6c	2.1796522
116	0x400ecba7	2.23118
117	0x3feaa1b4	1.8330598
118	0xc0549265	-3.3214352
119	0x3fa5a7e4	1.2941861
120	0x40870221	4.21901
121	0x40365b0d	2.8493073
122	0x40376045	2.8652508
123	0xc0005a2b	-2.0055034
124	0x3fe5a459	1.794078
125	0x40846a93	4.1380095
126	0x404d7776	3.2104163
127	0xbd88b9e9	-0.066760845
128	0x401a1d9d	2.4080575
129	0x3f3899ea	0.72109854
130	0x3fcefb2b	1.61704
131	0xbf6f621d	-0.93509084
132	0x3f965378	1.1744223
133	0x3f0e57e2	0.5560285
134	0x40109fae	2.259746
135	0xbf2f79fd	-0.68545514
136	0xbeacf779	-0.33782557
137	0xbff19ac8	-1.887536
138	0x3f342a9b	0.7037751
139	0xbea44ce4	-0.32089913
140	0x3f3252e8	0.69657755
141	0x3f882f28	1.0639391
142	0x3f18aa2e	0.59634674
143	0xbf6f8e0e	-0.93576133
144	0xbecfa00a	-0.40551788
145	0x4014b897	2.3237665
146	0x3f8f4c77	1.119521
147	0xbf3a582f	-0.7279081
148	0xbfb12dd9	-1.3842117
149	0xbf518164	-0.8183806
150	0x3f9dd7dc	1.23315
151	0x3f87b5c7	1.0602349
152	0x4033f4ea	2.8118234
153	0x3e16d766	0.14730605
154	0x3ef50ac8	0.47859788
155	0x3ebdbe3e	0.37059206
156	0x3f535a21	0.825594
157	0x3f1fcea0	0.6242466
158	0xbef05b95	-0.46944872
159	0xbe269702	-0.16268542
160	0xbf21a1b2	-0.6313735
161	0xbda2d560	-0.07950854
162	0xbfa9694b	-1.3235258
163	0xc0541f99	-3.3144286
164	0x3bb43ee0	0.0055006593
165	0xbdf2c2ee	-0.11853586
166	0xbc8919ac	-0.016735874
167	0xbee6302a	-0.4495862
168	0xbfb53ddf	-1.4159507
169	0x3f1410e8	0.57838297
170	0x3e7714a0	0.24128962
171	0xbe8f38dd	-0.2797307
172	0x3c9ed408	0.019388214
173	0xbf00f127	-0.5036797
174	0xc0124d05	-2.285951
175	0x3fce65e9	1.612485
176	0x3e2e1c5a	0.17003003
177	0xc0219e57	-2.5252893
178	0xbfb167fb	-1.3859857
179	0xbe104c47	-0.14091597
180	0xbc320a80	-0.010866761
181	0xbd5c08a4	-0.053719178
182	0xbff52644	-1.9152303
183	0x3d28c808	0.04120639
184	0xbeb327f5	-0.34991422
185	0xbd206814	-0.039161757
186	0x3f1e78bc	0.61902976
187	0x3e0813a5	0.13288744
188	0x3dba5eae	0.0910009
189	0xbebfed15	-0.37485567
190	0x3dd7ec08	0.10543066
191	0x3d456c2c	0.048198864
192	0xbd620cb0	-0.05518788
193	0x3df08806	0.117446944
194	0xc00fb91e	-2.2456737
195	0xbe083115	-0.13299973
196	0x403d5689	2.9584067
197	0xbc51aaf0	-0.012797102
198	0x3d751d7c	0.05984257
199	0x3d55b738	0.052176684
200	0x3c3edc46	0.011649197
201	0xbea6e2a8	-0.325948
202	0xbfd6733f	-1.675392
203	0x3eb77d13	0.35837612
204	0xbfae5e87	-1.3622597
205	0xbf3527e3	-0.7076399
206	0xbf9a96d9	-1.2077285
207	0xbe2d14c1	-0.16902448
208	0xbf9287b4	-1.1447663
209	0xbf5b8b3e	-0.8575934
210	0xbef95eaa	-0.48705035
211	0x3f48dab5	0.7845872
212	0x40273fce	2.6132693
213	0xbeef1cc5	-0.46701637
214	0x3fbf7ae6	1.4959381
215	0x402ae973	2.6704986
216	0xbfcbeaa4	-1.5930982
217	0x3f116ba0	0.5680485
218	0xbf425b7a	-0.7592083
219	0x3f87ad25	1.0599715
220	0x3fe79f42	1.8095477
221	0x3ff8adfd	1.9428097
222	0x3ffc443c	1.9708323
223	0xbff139c0	-1.8845749
224	0x40340071	2.812527
225	0xbf5415d9	-0.82845837
226	0x3f2716de	0.6526927
227	0xbe93d7e8	-0.2887566
228	0x3fcaacaf	1.5833949
229	0x400eccd5	2.231252
230	0x3f0af1b3	0.54275054
231	0x40570f49	3.360308
232	0x4005db4d	2.09151
233	0xbdd33052	-0.10311951
234	0xbffe1ca8	-1.9852495
235	0xbea53d37	-0.32273266
236	0xbfe9488a	-1.8225262
237	0xbf5a2f85	-0.8522876
238	0x3eff6f47	0.49889585
239	0x3f3a6151	0.72804743
240	0x3fdeacd9	1.7396499
241	0xbf1a0265	-0.60159904
242	0x3f631bb2	0.88714135
243	0x4045765b	3.0853488
244	0x3fb31276	1.3990009
245	0x3f93fc37	1.1561345
246	0x3eadb19f	0.33924577
247	0xbf573a91	-0.8407374
248	0xbfcec085	-1.6152502
249	0x3f90fcb8	1.1327124
250	0x40aca982	5.395692
251	0x3f004e92	0.5011989
252	0x3fc2d28c	1.5220504
253	0xbf0ee285	-0.5581439
254	0x3fa6bf72	1.3027174
255	0x3e8829c3	0.26594362

rnn.weight_hh f4 [200, 50]
0	0xbf08a726	-0.5338005
1	0xbf5e5552	-0.8684894
2	0x3ef02870	0.4690585
3	0x3ec81860	0.39081097
4	0x3f4bd2b8	0.79618406
5	0xbe3dbb1d	-0.1852841
6	0xbf9495e8	-1.1608248
7	0x3ecfa964	0.40558922
8	0x3fa669b8	1.3001013
9	0x3e37e4c8	0.17958367
10	0xbf1f487d	-0.62219983
11	0x3e6bd750	0.23031354
12	0x3e58041e	0.2109532
13	0x3e043b65	0.12913282
14	0x3f72ff3d	0.9492071
15	0x3f581be7	0.84417576
16	0x3e2b6183	0.16736417
17	0xbe388723	-0.180203
18	0xbfb27372	-1.3941481
19	0xbdc62091	-0.0967418
20	0x3f860633	1.0470642
21	0xbe51b6e9	-0.20479931
22	0x3e7e5361	0.24836494
23	0x3e9e9038	0.30969405
24	0x3f8ac9de	1.0842855
25	0x3f265b3d	0.6498297
26	0xbf97b4ca	-1.1852047
27	0x3e3347ce	0.1750786
28	0xbddbdf72	-0.10735978
29	0xbe7023bc	-0.23451132
30	0x3f687789	0.90807396
31	0x3efbd408	0.49185205
32	0x3f1f3030	0.62182903
33	0x3f41bc80	0.75678253
34	0xbf0d3e32	-0.5517303
35	0xbf3e1ff1	-0.7426749
36	0xbf575c84	-0.8412554
37	0xbe90f674	-0.2831303
38	0x3ec07293	0.37587413
39	0xbf2f7007	-0.68530315
40	0xbed8d5b0	-0.4235053
41	0xbf0da8a6	-0.5533546
42	0xbf3547b5	-0.7081254
43	0x3e795d55	0.2435201
44	0xbfa89da0	-1.3173103
45	0xbe013695	-0.12618478
46	0xbfbbf1c3	-1.4683155
47	0x3fa4e0fa	1.2881157
48	0xbf8650e5	-1.0493437
49	0x3eebdbd6	0.4606616
50	0xbf21d54f	-0.6321611
51	0xbfd3a173	-1.6533645
52	0xbf53ab02	-0.8268281
53	0xbf4b8a79	-0.7950817
54	0xbf2b8c6b	-0.67011136
55	0x3f935a90	1.1512012
56	0xbf902855	-1.1262308
57	0xbf66151f	-0.8987598
58	0xbe68a6b1	-0.22719838
59	0x3bb800b4	0.005615318
60	0x3f90f9b0	1.1326199
61	0x3e8aa5da	0.2707966
62	0x3e5e88e6	0.2173191
63	0xbedca6ed	-0.43096104
64	0x3f8cc4a4	1.099751
65	0xbf5246e4	-0.8213942
66	0x3ed16295	0.40895525
67	0xbea29d15	-0.3176047
68	0x3e95e38d	0.2927517
69	0xbf5bf988	-0.8592763
70	0x3eefacd2	0.4681154
71	0x3f929f5c	1.1454883
72	0xbf3933d9	-0.7234474
73	0xbe744b25	-0.2385679
74	0xbe45f37c	-0.19331163
75	0x3e89eaa3	0.26936826
76	0xbf73287c	-0.9498365
77	0x3f584e6a	0.8449465
78	0xbe96d2a3	-0.29457578
79	0x3d90cc2e	0.07070194
80	0xbfb92ed2	-1.4467413
81	0x3e809a30	0.25117636
82	0x3f3b1487	0.730782
83	0xbf296d1a	-0.661821
84	0x4000abef	2.010494
85	0xbe8e60c0	-0.2780819
86	0x3d1bb962	0.03801859
87	0xbf9d23f5	-1.2276598
88	0x3f67168c	0.9026878
89	0x3f97d64e	1.1862276
90	0x3e1d2c91	0.15349032
91	0x3ef9bc65	0.48776546
92	0xbe1790eb	-0.14801376
93	0xbe6fa904	-0.23404318
94	0xbe95fb3b	-0.29293236
95	0xbfba454d	-1.4552399
96	0x3ebc796a	0.36811382
97	0x3f8199b3	1.012503
98	0x3f6a3e7b	0.9150159
99	0x3f48938d	0.78350145
100	0xb9002cfc	-0.00012223789
101	0x3f0c8619	0.54892117
102	0x3f239bc0	0.6390953
103	0xbfc216fd	-1.5163265
104	0x3e97b20b	0.29628024
105	0xbd8461ac	-0.06463942
106	0xbee1a393	-0.4407011
107	0xc0067221	-2.1007159
108	0xbf55ce40	-0.8351784
109	0xbd44021b	-0.04785357
110	0xbf6914e1	-0.91047484
111	0xbf634d89	-0.88790184
112	0xbf8c4fad	-1.0961815
113	0xbf844273	-1.0332779
114	0x3f34e31d	0.7065905
115	0x3f5ed81a	0.87048495
116	0xbfe761a6	-1.8076675
117	0xbec62015	-0.38696352
118	0x3f23481f	0.63781923
119	0xbffcd473	-1.9752334
120	0x3c46f013	0.012142199
121	0x3eab81cf	0.33497474
122	0x3dd0accc	0.101892084
123	0xbf8e15e5	-1.1100432
124	0x3f22e97e	0.6363753
125	0x3f479588	0.7796254
126	0x3e97216e	0.29517692
127	0xbedcb75f	-0.4310865
128	0x3efb9b83	0.49142084
129	0xbee9a27f	-0.45631787
130	0x3f22570c	0.63414073
131	0x3fad1fb1	1.3525296
132	0xbeccb9ba	-0.39985448
133	0x3f5514e8	0.83235025
134	0x3f90dae2	1.1316798
135	0xbddffd30	-0.109369636
136	0x3e6ea027	0.23303281
137	0xbfaf10fc	-1.3677058
138	0x3eb67895	0.35638872
139	0x3e16b6ee	0.1471822
140	0xbf5c3397	-0.8601622
141	0x3f32a812	0.69787705
142	0x3f5859ef	0.8451223
143	0x3ea21786	0.31658572
144	0x3f2b0963	0.668112
145	0xbe48db6b	-0.19614951
146	0xbf113395	-0.5671933
147	0x3f1e31e7	0.61794895
148	0xbd89d4b6	-0.067300245
149	0x3f96f687	1.1793984
150	0xbf7dfd7d	-0.9921492
151	0xbd30396e	-0.04302352
152	0x3da9038f	0.08252632
153	0xbec8897c	-0.39167392
154	0x3f1f6428	0.622622
155	0x3ee98ca9	0.45615128
156	0x3f1bbed1	0.6083804
157	0xbe9510e8	-0.2911446
158	0xbe305851	-0.1722119
159	0xbefca481	-0.49344257
160	0x3e1db405	0.15400703
161	0x3f170693	0.58994406
162	0x3feea9f2	1.8645613
163	0xbef5f96a	-0.4804185
164	0x3e723da1	0.23656322
165	0xbf85b3fa	-1.044555
166	0xbf249ffb	-0.6430661
167	0xbec811e4	-0.3907615
168	0xc002ff87	-2.0468462
169	0x3f5bbd3b	0.8583562
170	0x3f409a9f	0.75235933
171	0x3ec99dc5	0.3937818
172	0x3ee3080a	0.4434207
173	0xbf5cc276	-0.86234224
174	0xbeb61944	-0.3556615
175	0xbf0d605f	-0.55225176
176	0x3f93d4e8	1.1549349
177	0x3fef423e	1.869209
178	0xbfdaf029	-1.7104541
179	0xbf2659dc	-0.64980865
180	0x3e3034db	0.17207663
181	0x3f061a34	0.5238373
182	0xbfd5ed2f	-1.6713008
183	0xbf08c33f	-0.5342292
184	0x3f0c4d48	0.5480542
185	0xbeb063fa	-0.34451276
186	0x3f850e28	1.0394945
187	0x3c8e211d	0.017349774
188	0xbee06748	-0.43828797
189	0xbe64e022	-0.22351125
190	0x3f5c46f0	0.8604574
191	0xbee458bf	-0.44598958
192	0x3f5e2e86	0.8678974
193	0x3fcd73d5	1.6050974
194	0xbe9f2263	-0.31080922
195	0xbfe07f67	-1.753888
196	0xbf37c013	-0.71777457
197	0x3f40c17f	0.7529525
198	0x3efb6a66	0.49104613
199	0xbf818506	-1.011872
200	0x3ee2a372	0.44265324
201	0x3e81a2bd	0.25319472
202	0x3e6c908f	0.2310202
203	0x3d9bf00c	0.07614145
204	0xbef089da	-0.46980172
205	0xbeb08de1	-0.34483245
206	0x3e8001d0	0.25001383
207	0x3e1ca65a	0.15297833
208	0x3ed0f1da	0.40809518
209	0xbe519c99	-0.20469894
210	0xbeb50ce3	-0.35361394
211	0xbeddbaf3	-0.43306693
212	0xbf3f5bb9	-0.7474933
213	0xbf02e055	-0.51123554
214	0xbcf3e08b	-0.029770156
215	0x3ed37fd5	0.41308466
216	0xbf3791fc	-0.7170713
217	0xbf3a50d5	-0.7277959
218	0xbe2c9f68	-0.16857684
219	0xbeefca3c	-0.4683398
220	0x3ee029d2	0.43781906
221	0xbebc9a5e	-0.36836523
222	0x3f759d6b	0.95943326
223	0xbff27699	-1.8942443
224	0x3f13b301	0.57695013
225	0x3de3f950	0.11131537
226	0xbe472197	-0.19446407
227	0xbe577cc7	-0.21043693
228	0xbf1383c4	-0.57622933
229	0xbf0aaee5	-0.5417312
230	0xbee1eed2	-0.44127518
231	0x3ebde7ab	0.3709081
232	0x3ea2f5d9	0.31828192
233	0xbfb08dc5	-1.3793265
234	0xbf058a1c	-0.52163863
235	0x3e1e801b	0.15478556
236	0xbe8ff0b3	-0.28113326
237	0x3e2dd77a	0.16976729
238	0x3e8f6c84	0.28012478
239	0xbfa0e1da	-1.2568924
240	0x3d36c202	0.044618614
241	0x3f1e0047	0.61719173
242	0x3efae0ad	0.4899954
243	0x3e998103	0.2998124
244	0xbea1d10e	-0.3160481
245	0x3f40a200	0.7524719
246	0xbdc2b16e	-0.09506498
247	0x3e4a1bce	0.19737169
248	0xbf2cf895	-0.67566806
249	0x3f01b396	0.5066465
250	0x3e8abbdd	0.27096453
251	0xbf0088d2	-0.5020877
252	0x3f1e8f0e	0.61937034
253	0x3f37691c	0.7164476
254	0x3ddcf612	0.10789122
255	0x3f6a4266	0.91507566

rnn.bias_ih f4 [200]
0	0x3edab4e6	0.4271614
1	0x3e0832e2	0.1330066
2	0x3f22a181	0.63527685
3	0x3d6a0261	0.057131175
4	0x3e9bd4d3	0.3043581
5	0xbdf9a206	-0.12189107
6	0x3d66155a	0.056172706
7	0xbde2df20	-0.11077714
8	0x3f709b31	0.93986803
9	0x3edaaf17	0.42711708
10	0x3e4f9bc0	0.20274258
11	0x3f1500ad	0.58204156
12	0x3f02cc59	0.5109306
13	0x3f37480b	0.71594304
14	0xbbc082aa	-0.0058749514
15	0x3e8e1716	0.27751988
16	0x3e8484b9	0.2588251
17	0x3f54ca7e	0.8312148
18	0x3dc9f118	0.09860438
19	0x3f0e58af	0.5560407
20	0x3f5813e4	0.8440535
21	0x3d0fbb03	0.035090458
22	0x3f033b4c	0.51262355
23	0x3f88ab6c	1.0677314
24	0x3e481f0d	0.19543095
25	0x3f1ac38e	0.6045464
26	0x3ebc226e	0.36745018
27	0x3e18f8ca	0.14938655
28	0x3f0148b6	0.50501573
29	0x3ec9ebf2	0.39437824
30	0x3f19e2ac	0.601115
31	0x3e3686f0	0.17824912
32	0x3eac0f6e	0.33605522
33	0x3ee6260c	0.44950902
34	0x3f1a2450	0.6021166
35	0x3d950bd3	0.07277646
36	0x3e577ad0	0.21042943
37	0x3e6b808a	0.22998253
38	0x3f45d9c6	0.7728542
39	0x3e300f8d	0.17193432
40	0x3e22a5a5	0.15883501
41	0x3d6b268d	0.05740981
42	0x3f66e0e4	0.90186906
43	0x3f53dfd7	0.8276343
44	0x3ed15ad8	0.4088962
45	0x3e7a7468	0.24458468
46	0xbdd05570	-0.10172546
47	0x3f634adb	0.88786095
48	0x3f2a3622	0.6648885
49	0x3e3bdcc6	0.18345937
50	0xbd95610c	-0.07293901
51	0xbed1bc97	-0.40964195
52	0xbe153ba2	-0.1457353
53	0x3dd49a2d	0.10380969
54	0x3c27524e	0.010212494
55	0x3f18980e	0.5960702
56	0xbe264cb7	-0.16240202
57	0xbeaa31f0	-0.33241224
58	0xbd9b2e99	-0.07577247
59	0xbe59fac5	-0.21287067
60	0xbdf45631	-0.11930502
61	0xbe4b046a	-0.19825903
62	0xbd9677a3	-0.07347038
63	0xbe961142	-0.29310042
64	0xbf018079	-0.5058666
65	0x3eec8ded	0.4620203
66	0xbe8179e7	-0.25288317
67	0xbeb5a7ad	-0.3547949
68	0xbf081f20	-0.53172493
69	0xbe256646	-0.16152295
70	0xbedd3f0b	-0.4321216
71	0x3dc14966	0.09437828
72	0xbe02426c	-0.1272065
73	0xbd782622	-0.06058324
74	0x3cdad75b	0.026714018
75	0xbf2c4114	-0.672868
76	0xbe0445ff	-0.12917326
77	0xbeb61a63	-0.35567006
78	0xbdb49388	-0.08817202
79	0xbe9673d1	-0.29385236
80	0xbe3d90d1	-0.18512274
81	0xbe500b08	-0.20316708
82	0xbe9b5108	-0.3033526
83	0xbe26cb2d	-0.16288443
84	0xbe03d029	-0.12872376
85	0x3f3c06c7	0.7344784
86	0x3d933107	0.071870856
87	0xbed2576c	-0.41082323
88	0xbed7301f	-0.420289
89	0xbeafaaf1	-0.34310105
90	0xbd8de526	-0.06928472
91	0x3dd110ac	0.10208258
92	0xbebbbe7c	-0.36668766
93	0x3df7275e	0.120680556
94	0xbeaf7ad9	-0.34273413
95	0xbd4fe6a4	-0.050757065
96	0x3f2a85be	0.66610324
97	0x3e91cd45	0.2847692
98	0xbc12951b	-0.008946682
99	0xbe397dee	-0.18114445
100	0xbe8c0ea7	-0.2735493
101	0x3ee51f03	0.44750223
102	0xbe4997d5	-0.19686826
103	0x3ea5899b	0.32331547
104	0xbf1c0bb8	-0.6095538
105	0xbf101c17	-0.5629286
106	0xbf2249b0	-0.6339369
107	0xbefaefca	-0.4901107
108	0x3f44f6b8	0.7693896
109	0x3e649b2f	0.22324823
110	0x3ef93ecf	0.48680732
111	0x3ef68022	0.48144633
112	0x3e874289	0.2641795
113	0xbf03a18c	-0.51418376
114	0xbf300e01	-0.6877137
115	0xbef61e5b	-0.48070034
116	0x3ef0ab04	0.47005475
117	0x3f2cd2bf	0.67509073
118	0xbd98d9df	-0.074634306
119	0xbf69ba85	-0.9130023
120	0x3eddb24d	0.43300095
121	0xbeb1a80f	-0.3469853
122	0x3f229016	0.6350111
123	0xbf4ecab2	-0.8077804
124	0x3f02ef7c	0.51146674
125	0xbe8945a7	-0.26810953
126	0x3e88883a	0.26666433
127	0x3f12711b	0.57203835
128	0xbf2dc25d	-0.678747
129	0xbf0abb7a	-0.54192317
130	0xbf33200b	-0.6997077
131	0x3eff88b4	0.49908984
132	0x3e675016	0.22589144
133	0xbf2bbf1f	-0.670885
134	0x3e54fba8	0.20799124
135	0xbe6b5c0b	-0.2298433
136	0xbcbc2cc9	-0.022970574
137	0x3f1dbedb	0.6161935
138	0x3e2fff32	0.17187193
139	0xbe728f12	-0.2368739
140	0xbe78d0d4	-0.24298412
141	0xbf3eed4d	-0.7458084
142	0xbdac2368	-0.08405191
143	0x3f3b4a90	0.7316065
144	0xbe0e57fe	-0.13900754
145	0xbf05710d	-0.52125627
146	0xbeff1c0b	-0.49826083
147	0x3ec38835	0.38189855
148	0xbeed1a8d	-0.4630932
149	0xbe8a65ed	-0.27030888
150	0x3de00975	0.10939304
151	0xbccdc622	-0.025118891
152	0xbdb77689	-0.08958156
153	0xbedd7cf4	-0.43259394
154	0xbec89dd9	-0.39182928
155	0x3dd7c3ae	0.1053537
156	0xbed6240b	-0.41824374
157	0xbe7a48af	-0.24441789
158	0xbda6eda5	-0.08150796
159	0x3f126223	0.57180995
160	0xbe11e187	-0.14246188
161	0x3e5f2d50	0.21794629
162	0xbe312fb1	-0.17303349
163	0x3eebc39a	0.4604767
164	0xbee0a6c0	-0.4387722
165	0xbe3ea803	-0.18618779
166	0xbe923ee9	-0.28563622
167	0xbdaff4f7	-0.08591645
168	0x3f00acfb	0.5026395
169	0x3d099222	0.03358663
170	0x3d3fd628	0.046835095
171	0xbf0f6714	-0.5601666
172	0xbd37f804	-0.04491426
173	0xbe7a7cfb	-0.24461739
174	0x3cbb548e	0.022867467
175	0x3f379380	0.7170944
176	0x3df7ba9b	0.12096139
177	0x3e884506	0.2661516
178	0xbe93d975	-0.28876844
179	0xbd2f3ba5	-0.04278149
180	0x3d263aa5	0.04058327
181	0xbdd28023	-0.102783464
182	0xbe3b93b1	-0.18318059
183	0xbe8fab55	-0.28060403
184	0x3fa3daf2	1.2801192
185	0xbd9a0f7f	-0.07522487
186	0x3eff7f80	0.49901962
187	0xbc7f638c	-0.015587699
188	0xbf193a94	-0.5985501
189	0xbcdf622a	-0.027268488
190	0x3c89ca6d	0.016820157
191	0xbede85d8	-0.4346149
192	0x3eca9eb1	0.39574197
193	0xbf24a4e4	-0.64314103
194	0x3e36469a	0.1780037
195	0xbe8ebca6	-0.27878302
196	0xbe623d12	-0.22093609
197	0xbed7c6eb	-0.4214395
198	0xbe55e1d7	-0.20886932
199	0xbf2d3891	-0.6766444

rnn.bias_hh f4 [200]
0	0x3e6c7539	0.23091592
1	0x3e5b35f4	0.214073
2	0x3f099da2	0.53756154
3	0xbd93b2b9	-0.07211823
4	0x3ea39966	0.3195297
5	0x3c9808f9	0.018558966
6	0x3bc9e0b0	0.006160818
7	0x3dd4d1c0	0.10391569
8	0x3f6b1c03	0.9183962
9	0x3f1c662a	0.6109339
10	0x3e730a9d	0.23734517
11	0x3efb1480	0.49039078
12	0x3ef85b07	0.48506948
13	0x3f08e17d	0.5346907
14	0x3d60632b	0.054782074
15	0x3e988aeb	0.29793486
16	0x3ed5f164	0.4178573
17	0x3f4de043	0.8042032
18	0x3e901654	0.28142035
19	0x3eaf3cc9	0.34226063
20	0x3f478272	0.7793342
21	0xbdb9e1ba	-0.09076257
22	0x3f272064	0.652838
23	0x3f690428	0.91021967
24	0x3ee07187	0.43836614
25	0x3ec7417f	0.38917157
26	0x3ebc97a5	0.36834446
27	0x3d8ceb21	0.06880785
28	0x3f0ff0a4	0.56226563
29	0x3ef8c736	0.48589486
30	0x3eccea81	0.40022662
31	0x3e227929	0.15866531
32	0x3e1a9a0e	0.1509783
33	0x3f186dcd	0.5954254
34	0x3ef172a1	0.47157767
35	0x3d4d5397	0.050128546
36	0x3e8875c2	0.26652342
37	0x3ea4ddf6	0.32200593
38	0x3f1d6b86	0.6149219
39	0xbbd81284	-0.006594004
40	0x3e20a55d	0.15688081
41	0x3d3fd1b9	0.046830866
42	0x3f87601f	1.0576209
43	0x3f4d9e6d	0.80319864
44	0x3f26e0a5	0.6518653
45	0x3ea5817f	0.3232536
46	0xbd2e5f28	-0.042571217
47	0x3f8560a4	1.0420117
48	0x3f2cb992	0.6747066
49	0x3e669398	0.2251724
50	0xbdcdb66c	-0.1004456
51	0xbed9bff8	-0.42529273
52	0xbda06a82	-0.07832815
53	0x3de23600	0.11045456
54	0x3dcc3ffe	0.09973143
55	0x3f042135	0.5161317
56	0xbd3d8364	-0.046267882
57	0xbdcb347f	-0.09922122
58	0xbe4a7ec0	-0.19774914
59	0xbe432199	-0.19055785
60	0xbe93e494	-0.2888533
61	0x3cd4cfca	0.025977988
62	0xbc84c6cc	-0.016208075
63	0xbe92080d	-0.28521767
64	0xbf16ea8e	-0.5895165
65	0x3ef10275	0.47072187
66	0xbe3ea080	-0.18615913
67	0xbe4c53bf	-0.19953822
68	0xbf17393b	-0.590717
69	0xbe0ae43f	-0.13563631
70	0xbedb6e39	-0.4285753
71	0x3e5217dd	0.20516916
72	0xbdcf3952	-0.10118355
73	0xbd161a94	-0.03664644
74	0x3dc9a36b	0.09845623
75	0xbf0de45d	-0.5542658
76	0xbdeaaaac	-0.11458334
77	0xbe4b882a	-0.19876161
78	0xbe332c70	-0.1749742
79	0xbe9dc1e5	-0.30811992
80	0xbdbed9bd	-0.09318874
81	0xbca13662	-0.019679252
82	0xbe8c5ebd	-0.2741603
83	0xbd2d7b5c	-0.042353973
84	0xbe312da0	-0.17302561
85	0x3f168287	0.5879292
86	0x3e1d4a59	0.15360393
87	0xbed6e7f8	-0.41973853
88	0xbe8bc854	-0.27301276
89	0xbe56118a	-0.20905128
90	0xbbc653ab	-0.0060524545
91	0x3d0ccdcd	0.034375954
92	0xbe0ac927	-0.13553296
93	0x3e570890	0.2099936
94	0xbf0e6ace	-0.5563172
95	0xbd3666b7	-0.04453155
96	0x3f0482c8	0.51762056
97	0x3e723c9d	0.23655935
98	0x3d3b9e9a	0.04580555
99	0xbe9d1a75	-0.30684248
100	0xbefd6f38	-0.49498916
101	0x3e8047c1	0.25054744
102	0xbe2d05af	-0.168967
103	0x3e9a029d	0.3008012
104	0xbebc8831	-0.36822656
105	0xbf28ff1f	-0.66014284
106	0xbf32873a	-0.6973759
107	0xbf1385d0	-0.57626057
108	0x3f4de277	0.8042368
109	0x3e65c5df	0.22438763
110	0x3f2b0cd4	0.6681645
111	0x3f08c928	0.5343194
112	0x3ed5bf14	0.41747344
113	0xbf210688	-0.6290059
114	0xbf148018	-0.58007956
115	0xbf28314b	-0.65700215
116	0x3eb99d8e	0.36253017
117	0x3efa7762	0.48919207
118	0xbe46e051	-0.19421507
119	0xbf5b8f1c	-0.8576524
120	0x3f247b14	0.642503
121	0xbdf52131	-0.119692214
122	0x3f3a24cb	0.7271239
123	0xbf5923be	-0.84820163
124	0x3f1fd83b	0.62439317
125	0xbe8885d6	-0.2666461
126	0x3e1b11fd	0.1514358
127	0x3edaa407	0.42703268
128	0xbef96e26	-0.4871685
129	0xbef62839	-0.48077562
130	0xbf249f47	-0.6430554
131	0x3eff7de0	0.49900723
132	0x3e7f5371	0.24934174
133	0xbeff6a08	-0.49885583
134	0x3e644851	0.22293212
135	0xbe81da02	-0.2536164
136	0xbdb665cf	-0.08906137
137	0x3f16b572	0.58870614
138	0x3e9f677e	0.31133646
139	0xbedba221	-0.42897132
140	0xbe961533	-0.2931305
141	0xbf370e07	-0.7150578
142	0x3cb6f072	0.02233145
143	0x3f320cc9	0.6955076
144	0xbe7b2760	-0.24526739
145	0xbee6d81c	-0.45086753
146	0xbec0ac53	-0.37631473
147	0x3f12a5fc	0.5728452
148	0xbf1fb825	-0.6239036
149	0xbe80d7ae	-0.2516455
150	0xbcfcaa00	-0.030842781
151	0x3d448f3b	0.047988158
152	0xbd8162d0	-0.06317675
153	0xbe979ef6	-0.29613465
154	0xbee1f7c5	-0.44134346
155	0x3e7e88ec	0.24856919
156	0xbedfb2a2	-0.43690974
157	0xbeae40df	-0.34033868
158	0xbded9b0a	-0.11601837
159	0x3f057b38	0.5214114
160	0xbd30cc77	-0.043163743
161	0x3ebd9b21	0.37032416
162	0x3c1dbddb	0.009627785
163	0x3ee96331	0.4558349
164	0xbf305ce2	-0.6889173
165	0xbe79648d	-0.24354763
166	0xbe021590	-0.12703538
167	0xbe439677	-0.19100367
168	0x3eb885f9	0.36039713
169	0xbd428987	-0.047494438
170	0x3ccb2715	0.02479891
171	0xbef21ba2	-0.47286707
172	0xbd445026	-0.047927998
173	0xbe8c9481	-0.2745705
174	0xbd4c92af	-0.049944576
175	0x3f3b21d4	0.7309849
176	0xbdebce17	-0.11513918
177	0x3e95719e	0.29188246
178	0xbea422e1	-0.3205786
179	0x3cacbd9f	0.021086512
180	0xbdfc1c03	-0.1231003
181	0xbde1b146	-0.1102014
182	0xbe43c326	-0.19117412
183	0xbf0118e9	-0.50428635
184	0x3f8a6744	1.0812764
185	0xbda946f2	-0.08265485
186	0x3ede7f85	0.43456665
187	0x3e36442e	0.17799446
188	0xbf286160	-0.6577358
189	0xbe3aea5e	-0.18253466
190	0x3e392aa1	0.18082668
191	0xbe597e2f	-0.21239541
192	0x3eb8d2ff	0.36098477
193	0xbf2629f6	-0.6490778
194	0x3ea0a2bb	0.31374153
195	0xbdf62669	-0.12019045
196	0xbe11387e	-0.14181706
197	0xbf13ed05	-0.5778354
198	0xbe64aa1d	-0.22330518
199	0xbf386dd6	-0.72042596

fc.weight f4 [100, 50]
0	0x3e348b6c	0.1763131
1	0xbfcef9ab	-1.6169943
2	0x3eadc16c	0.33936632
3	0x3d2781d0	0.040895283
4	0x3f9810d3	1.1880134
5	0x3e2de7bf	0.16982935
6	0x3f4bb593	0.79573935
7	0x3ea348be	0.31891435
8	0xbecf45a5	-0.40482822
9	0x3fcc81c0	1.5977097
10	0xbe4538cd	-0.19259949
11	0xbfdeeaab	-1.7415365
12	0xbfb25bfc	-1.3934321
13	0xbf24b6d0	-0.6434145
14	0x3fdc54da	1.7213395
15	0x3ea4f58c	0.32218587
16	0xc00991bb	-2.1495197
17	0xbf823b13	-1.0174278
18	0x3fa48a72	1.285475
19	0x3f909888	1.1296549
20	0xbfbc462f	-1.4708918
21	0x3f872a14	1.0559716
22	0xbf6df903	-0.92958087
23	0x3fd317d1	1.6491643
24	0xbfb50c5a	-1.4144394
25	0xbfad00aa	-1.3515828
26	0x3e33461b	0.17507212
27	0x3ed9ef6a	0.4256547
28	0x3fa1e4a7	1.2647904
29	0x3f8c39b1	1.0955106
30	0x3f8ef4cf	1.116846
31	0xbe9bc4d6	-0.3042361
32	0xbeeacfea	-0.4586175
33	0x3efcab13	0.4934927
34	0x3fd2ac0d	1.6458756
35	0x3e9cd196	0.3062865
36	0xbf1378d7	-0.5760626
37	0x3cdaf8da	0.02672999
38	0xbe02b3a7	-0.12763844
39	0x3f890ec3	1.070763
40	0x3f5a930a	0.85380614
41	0x3ec45480	0.38345718
42	0xc0027f14	-2.0390062
43	0xbeccb632	-0.39982754
44	0x3fa62340	1.2979507
45	0x3f520d47	0.8205151
46	0x3e461c4a	0.19346729
47	0xbffb7e4a	-1.9647915
48	0xbe410fe8	-0.18853724
49	0x3e0b0eb0	0.13579822
50	0x3f625b72	0.88420784
51	0xbffe3dea	-1.9862645
52	0x3f7743b1	0.96587664
53	0x3e550888	0.20804036
54	0x4011dd1d	2.2791207
55	0x3f70312b	0.93825024
56	0x3ee865f5	0.45390287
57	0x3fae88a7	1.3635453
58	0x3e8cfcbe	0.27536577
59	0x3ef75347	0.48305723
60	0xbebbae2d	-0.36656323
61	0xbe8ecee8	-0.27892232
62	0xbffddfba	-1.9833901
63	0x3e484d41	0.1956072
64	0x4035b633	2.8392456
65	0xbea7af1c	-0.32750785
66	0xbf8a7a28	-1.0818529
67	0xbf1bfb32	-0.6093017
68	0xbdfa9951	-0.12236274
69	0x4003512a	2.0518289
70	0xbf1eb891	-0.62000376
71	0xbe8acf85	-0.2711145
72	0xbe38db1e	-0.18052337
73	0x3f97d381	1.1861421
74	0xc00135a0	-2.018898
75	0xbf253627	-0.64535755
76	0xbf8ba034	-1.0908265
77	0xbf35c938	-0.7101016
78	0xbe589de3	-0.21153979
79	0x3faf1154	1.3677163
80	0x3ee0faec	0.43941438
81	0xbd86796b	-0.065661274
82	0xbf57a3aa	-0.84234107
83	0x3eab1d49	0.3342078
84	0xbca2f47e	-0.019891974
85	0x3efdf67b	0.49602112
86	0x3b067c26	0.0020520776
87	0x3e7c6c6a	0.24650732
88	0x3f2daa3d	0.6783789
89	0x3feb1430	1.8365536
90	0x3f508256	0.81448877
91	0x400d72ff	2.2101438
92	0xbfc37b9a	-1.5272095
93	0x3caca514	0.02107481
94	0x3f9d4fe9	1.2290012
95	0x3fa25185	1.2681128
96	0x3f444f6f	0.76683706
97	0xbf83ef70	-1.0307446
98	0x3eaa26ac	0.3323263
99	0xbe8c2587	-0.2737238
100	0x3f348d04	0.7052767
101	0xbfb3e9f3	-1.4055771
102	0x3f9e3ce9	1.2362338
103	0xbddd98e8	-0.1082018
104	0x3fb184ec	1.386869
105	0x3f06c3f1	0.5264273
106	0x3f4eeadf	0.80827135
107	0x3f5c478f	0.8604669
108	0xbf617e80	-0.8808365
109	0x3ec19ad4	0.37813437
110	0xbf458d52	-0.7716876
111	0xbed06b6b	-0.40706953
112	0xbf7e9611	-0.99447733
113	0x3edec14c	0.4350685
114	0x3f97760f	1.1832904
115	0x3e10a5ff	0.14125822
116	0xbfabefea	-1.3432591
117	0xbf739183	-0.9514391
118	0x3f1bb043	0.6081583
119	0x3fa19870	1.2624645
120	0xbf398406	-0.72467077
121	0x4015b918	2.3394222
122	0xbf49da01	-0.7884827
123	0x3f745c8c	0.95453715
124	0xbfae3765	-1.3610655
125	0xbf2fd137	-0.6867861
126	0xbf86f068	-1.0542116
127	0xbf30136c	-0.68779635
128	0x3e979d2d	0.29612103
129	0x3fb8cab7	1.4436864
130	0x3fd4f2c7	1.663659
131	0xbdfe9f0a	-0.12432678
132	0xc02f2aa8	-2.7369785
133	0x3f2f6a74	0.6852181
134	0x3ea47188	0.32117867
135	0x3f0ee674	0.55820394
136	0x3d1b853a	0.03796885
137	0xbf383282	-0.7195207
138	0x3e8423d4	0.25808585
139	0x3fc52017	1.5400418
140	0x3fb3a3a9	1.403432
141	0x3eef5300	0.4674301
142	0xbf74110b	-0.95338506
143	0xbf2488e7	-0.64271396
144	0x3fc27105	1.5190741
145	0x3f191672	0.59799874
146	0x3f2c5dc4	0.67330575
147	0xbeb82108	-0.359627
148	0x3ebab1cc	0.36463773
149	0xbc49d86f	-0.012319668
150	0x3e87cc72	0.26523167
151	0xbffe3b81	-1.9861909
152	0x3f2b62a1	0.6694737
153	0x3e4b6c87	0.19865619
154	0x3f932b65	1.1497618
155	0x3eb580b3	0.35449752
156	0x3e688626	0.22707424
157	0x3fee79aa	1.8630879
158	0xbef9f6a7	-0.48820993
159	0x3f664868	0.89954233
160	0xbf44b1d7	-0.7683386
161	0xbec34f18	-0.3814628
162	0xbf7953c1	-0.97393423
163	0x3da912b3	0.0825552
164	0x3ffca8f4	1.973906
165	0x3f297daf	0.662074
166	0xbfaf4f20	-1.3696022
167	0xbf648f0e	-0.89280784
168	0x3e574e1d	0.21025892
169	0x3f97c37f	1.1856536
170	0xbf7d97de	-0.99059856
171	0x3fcf7407	1.6207284
172	0xbf550966	-0.83217466
173	0x3f9253e2	1.1431849
174	0xbfbf4353	-1.4942421
175	0xbf19d325	-0.60087806
176	0x3c8d0d4d	0.017218256
177	0xbe9623c7	-0.2932417
178	0x3fa7e9d3	1.3118232
179	0x3f423b11	0.7587138
180	0x3fed833f	1.8555678
181	0x3ed9039c	0.42385566
182	0xbfa2ae2b	-1.2709402
183	0x3f3100e0	0.6914196
184	0x3e5b2f9f	0.21404885
185	0x3f6e2f41	0.93040854
186	0xbc40e9fc	-0.011774536
187	0xbdcdd5f4	-0.10050574
188	0x3f4000f4	0.75001454
189	0x3fd59685	1.668656
190	0x3f8991c2	1.0747607
191	0x3f79a731	0.9752074
192	0xbf64e16c	-0.89406466
193	0xbf82b85c	-1.0212512
194	0x3faf3823	1.3689007
195	0x3ed9d49d	0.42545024
196	0x3e2c0ec9	0.16802515
197	0x3d80f728	0.06297141
198	0x3f2864b5	0.65778667
199	0x3f82c02b	1.0214895
200	0x3f5ef290	0.8708887
201	0xc01c3ce4	-2.4412165
202	0x3f83cc50	1.0296726
203	0x3efb7de7	0.49119493
204	0x3f895680	1.0729523
205	0x3ea407ca	0.32037193
206	0x3e829c7c	0.25510013
207	0x3fd1d3dc	1.6392779
208	0x3e78c3cd	0.24293442
209	0x3f75bd6e	0.9599217
210	0xbe983a22	-0.29731852
211	0xbf0a4648	-0.5401349
212	0xbf5545e2	-0.8330976
213	0xbd82af4d	-0.06381092
214	0x3ff90b5d	1.9456593
215	0x3f635576	0.8880228
216	0xbfb5453b	-1.4161752
217	0xbec6a53e	-0.38797945
218	0x3e143372	0.1447275
219	0x3fad7413	1.3551048
220	0xbf9202a1	-1.1407052
221	0x3e9bf75c	0.30462158
222	0xbf1db235	-0.6160005
223	0x3fcfd25a	1.6236069
224	0xbfc02a66	-1.5012939
225	0xbeed5387	-0.4635279
226	0x3d4e5bca	0.050380506
227	0xbdeddbc4	-0.116141826
228	0x3f3ad216	0.72976816
229	0x3fc498db	1.5359148
230	0x3f838e8d	1.0277878
231	0x3df62cf3	0.12020292
232	0xbf8e8793	-1.1135124
233	0x3f45559c	0.77083755
234	0x3ed536a7	0.4164326
235	0x3e175e27	0.1478201
236	0x3e9e015d	0.30860415
237	0xbeeab793	-0.4584318
238	0x3f462f42	0.7741586
239	0x3f609b67	0.87737125
240	0x3f8fd013	1.1235374
241	0x3f77a311	0.96733195
242	0xbfc7eefa	-1.5619805
243	0xbf491186	-0.78542364
244	0x3fd315ee	1.6491067
245	0x3f2b7f3b	0.66991013
246	0x3f859298	1.0435362
247	0xbefd338a	-0.49453384
248	0x3f78ff20	0.9726429
249	0x3f194b39	0.59880406
250	0x3f9c50ca	1.2212155
251	0xbfe5488f	-1.7912768
252	0x3f4670b2	0.7751571
253	0x3ddc9145	0.107698955
254	0x3f900985	1.1252905
255	0x3ebd15ea	0.36930782

fc.bias f4 [100]
0	0xbdb5bf9e	-0.08874439
1	0x3e1e881d	0.1548161
2	0x3db330bf	0.08749532
3	0x3e0201f5	0.12696059
4	0x3de630eb	0.11239799
5	0x3eac52f0	0.33657026
6	0xbdac0491	-0.083993085
7	0x3dd692d1	0.10477222
8	0xbd84796c	-0.06468472
9	0xbe4886f5	-0.19582732
10	0x3f03a150	0.5141802
11	0xbe8440fb	-0.25830826
12	0xbc8acd49	-0.01694359
13	0x3e857790	0.2606778
14	0x3e1c4f4b	0.15264623
15	0xbf669703	-0.90074176
16	0xbcca70a2	-0.02471191
17	0xbe3f2e66	-0.18670043
18	0x3f041635	0.51596385
19	0xbe8b004a	-0.27148658
20	0x3c290132	0.010315226
21	0x3ed340af	0.41260287
22	0x3ddfebcd	0.10933647
23	0xbde1b90a	-0.110216215
24	0x3eca9cff	0.39572904
25	0x3e906e35	0.2820908
26	0xbf780ce5	-0.96894675
27	0x3e1736b5	0.14766963
28	0xbe35525d	-0.177072
29	0xbebba0aa	-0.36646014
30	0xbf04ad9b	-0.518274
31	0xbe762ed2	-0.24041298
32	0xbe5f31ac	-0.21796292
33	0xbf3ba89a	-0.7330414
34	0x3eb3ab0b	0.35091433
35	0xbf581ff5	-0.8442376
36	0x3e8bd502	0.2731095
37	0xbd9f41f6	-0.07776253
38	0xbd39c6c1	-0.045355562
39	0xbe333fa7	-0.1750475
40	0x3eccb0ad	0.39978543
41	0xbde76d7d	-0.1130018
42	0x3e0a9e26	0.13536891
43	0xbe1fbdb6	-0.15599713
44	0x3e3bd810	0.1834414
45	0xbdc229fa	-0.09480663
46	0xbeb4d241	-0.3531666
47	0xbd44ea93	-0.04807527
48	0x3d3738a8	0.044731766
49	0x3e5e388f	0.21701263
50	0xbdfadf7b	-0.12249657
51	0xbc39af3c	-0.011333283
52	0xbe828c65	-0.25497738
53	0x3e907307	0.2821276
54	0xbe0cc49b	-0.13746874
55	0x3d9d61c1	0.07684661
56	0x3e296123	0.16540961
57	0xbe47c9d1	-0.1951058
58	0xbcf2b1ca	-0.029625792
59	0xbf038535	-0.5137513
60	0xbdbac9f0	-0.09120548
61	0xbf332e71	-0.6999274
62	0xbf5b50fa	-0.85670435
63	0xbe9b19d6	-0.3029315
64	0xc01a47d8	-2.410635
65	0xc02f1db9	-2.7361891
66	0xc03148c4	-2.7700663
67	0xbef5dfcd	-0.4802231
68	0xbee41000	-0.44543457
69	0xbef9c991	-0.48786595
70	0xbf14a2d0	-0.5806093
71	0xc0073f08	-2.1132221
72	0xc02c930f	-2.6964757
73	0x3e01b67e	0.12667271
74	0x3d36f74f	0.044669446
75	0xbdf4555e	-0.11930345
76	0xc02ab651	-2.6673777
77	0xbf237676	-0.6385263
78	0xbf2d6aae	-0.67740905
79	0xc03af913	-2.9214523
80	0xc02d394e	-2.7066226
81	0xc027f2f0	-2.6242027
82	0xbf484dcb	-0.782437
83	0xc01718f4	-2.360898
84	0xbe8f98f9	-0.28046396
85	0xc01e8cf1	-2.4773524
86	0xbf019661	-0.50620085
87	0xc027f19f	-2.6241224
88	0xc031c9cd	-2.777942
89	0xbf79b2a5	-0.97538215
90	0xc024ba7e	-2.5738826
91	0xc028b8aa	-2.636271
92	0xc03459b7	-2.8179758
93	0xc018769a	-2.3822389
94	0x3f20dabf	0.6283378
95	0xc022e0c3	-2.5449684
96	0xbf5b1a74	-0.8558724
97	0xc01b32e2	-2.4249806
98	0xc0100cb2	-2.2507749
99	0xc024c4c9	-2.5745108
