Results/Complete Sherlock Holmes/GRU/Adam/2/100/model.pt (torch, 528575 bytes, 10 tensors)

rnn.weight_ih f4 [300, 100]
000000 a8 5b 11 3f c6 dd 05 3e a3 db d5 3e c0 8b 01 3e
       0.5678048 0.13072881 0.41769132 0.12650967
000010 30 f3 4c bf 3a b3 13 3f 58 65 83 bf e7 fc 17 3f
       -0.80058575 0.57695353 -1.0265303 0.59370273
000020 21 9b 38 be 0c a7 8a 3e ff bd 11 40 59 95 44 3e
       -0.18027927 0.27080572 2.2772214 0.19197597
000030 b2 7c ed bd 6b b9 ab be 82 9d ad 3f 32 c9 8f 3f
       -0.11596049 -0.335399 1.3563693 1.1233275
000040 4e ac b2 be 40 09 53 bf f0 09 b2 3f 84 1f 70 3f
       -0.34897083 -0.8243599 1.3909283 0.9379809
000050 ea cb 31 40 9c 46 66 c0 c5 65 77 3f ea f3 b7 bf
       2.778071 -3.5980597 0.96639663 -1.4371312
000060 ab f8 9c 3f 19 6a 9c 3f 1e 77 fa 3e 0e 3c a2 bf
       1.2263387 1.2219878 0.48919004 -1.2674577
000070 19 58 b8 be 07 7b d0 3e 16 6d 88 3f 71 bd 9d 3c
       -0.36004713 0.40718862 1.065829 0.019255372
000080 3a d1 e3 be 4a 00 12 3e c0 0d 91 c0 2d 81 9e 3f
       -0.44495565 0.14257923 -4.5329285 1.2383171
000090 59 46 56 3e d7 2b 14 3f c8 a4 e6 3e a3 4b 93 3f
       0.20925273 0.57879394 0.45047593 1.1507457
0000a0 bd 26 75 bf 92 69 95 3f be 48 ed 3e b6 85 4f bf
       -0.95762235 1.1672843 0.4634456 -0.810634
0000b0 ce 6a 87 bf 84 d5 40 3e f7 83 a2 3e fe 6e 7d 3e
       -1.0579469 0.1883145 0.31741306 0.24749371
0000c0 aa 66 e2 bf 48 f9 57 be 49 2d 8b 3e d3 6a 94 3e
       -1.768758 -0.21091187 0.27182987 0.2898775
0000d0 fd df e4 3e 36 a3 6c 3e 69 14 ec be 1f 3e 28 3f
       0.4470214 0.23109135 -0.46109322 0.6571979
0000e0 07 c5 09 bf 37 92 b1 be ab d9 e9 3e c1 5b d5 3e
       -0.53816265 -0.34681866 0.4567388 0.41671565
0000f0 da 15 bf bf 22 cc a9 3e 89 06 52 bf b0 35 16 bd
       -1.4928544 0.33163553 -0.8204122 -0.036672294
000100 7d 29 4b bd 20 a9 58 bd df a6 99 3d 4a b6 38 be
       -0.049600113 -0.052895665 0.07502531 -0.18038288
000110 67 e8 0f 40 eb 12 68 3e 07 1a ef be 77 ef 92 bd
       2.2485597 0.22663467 -0.46699545 -0.071745805
000120 8a 0a 8f bd ad 82 76 3e 2c d5 b7 3f 3d 26 14 3e
       -0.06984432 0.24073286 1.436193 0.14467712
000130 ff 6d 7a 3e a8 f4 84 3e 1b 8b e0 3e 40 24 ad bc
       0.24456023 0.25967908 0.4385613 -0.02113545
000140 28 e1 c0 3c 20 c1 87 3c c9 ac 28 bf dd f9 81 bd
       0.023544863 0.016571581 -0.6588865 -0.06346486
000150 db 96 04 bf 13 47 ae 3d 11 de ef 3e 54 b8 f5 bc
       -0.5179269 0.0850965 0.4684911 -0.029995121
000160 f5 bc a1 bd cc bb ad bc fc 32 8b bd 58 c7 8c 3c
       -0.07897369 -0.021207713 -0.06796834 0.017184898
000170 d8 3e 64 3c 42 07 a3 bd fb 41 c9 3f de 67 8e bd
       0.013930999 -0.07960369 1.5723261 -0.06953405
000180 a2 20 3f 40 4e 82 06 3d f2 74 76 3d ae 05 42 3d
       2.9863667 0.032839112 0.06017012 0.047368698
000190 39 5a f5 be 9e 1c 87 bf 8d 13 5b bf 4e 36 01 3f
       -0.47920397 -1.0555608 -0.8557671 0.5047349
0001a0 fc e4 12 be bc ed 16 bf 05 38 50 bf a3 41 05 3d
       -0.14345163 -0.58956504 -0.8133548 0.0325333
0001b0 fc c9 17 3c ef 0d 3b bf 02 20 dc 3e c1 39 d6 bf
       0.009264465 -0.73068136 0.4299317 -1.6736375
0001c0 3c 0b a9 bd c8 24 b4 bf f1 3d 1c 3f 03 e6 cd bf
       -0.08254096 -1.4073725 0.61032015 -1.6085819
0001d0 2a c7 89 3f ca 90 0a 40 61 fc 40 bf 13 41 a8 3f
       1.0763905 2.1650872 -0.753851 1.3144859
0001e0 e1 43 aa be 9b 8e 21 be 43 b2 24 3f 59 e7 23 3f
       -0.33254912 -0.15777056 0.64334506 0.64024884
0001f0 64 f5 00 3f 59 94 07 40 30 fa ed bd df fc 88 bf
       0.50374436 2.1184294 -0.11619985 -1.070217
000200 c8 f3 27 40 e8 05 a0 be be 50 e7 3f f4 6d 41 3f
       2.6242542 -0.31254506 1.8071516 0.755584
000210 1f 51 ce bd 5a ec 95 bf 1b 36 92 bf b9 b8 ae 3f
       -0.10074066 -1.1712754 -1.1422762 1.3650123
000220 85 10 69 bf bb 18 2a bf 0b d1 81 bf ea 22 96 bd
       -0.9104083 -0.66443986 -1.014192 -0.07330878
000230 d0 d1 f7 be 71 82 c4 3e 02 03 a2 bf 85 54 9b bf
       -0.48402262 0.3838077 -1.2657168 -1.2135168
000240 fa 2c 9c 3f 2b 6b bc 3f 3f 1b 26 3f 0b 34 7a bf
       1.2201226 1.4720205 0.64885324 -0.9773566
000250 9e f5 1c be 9e c6 7c bf 9d 01 c5 3e 51 bc 45 3e
       -0.1532807 -0.98740566 0.38477793 0.19310118
000260 72 5a 6a 3f f3 b2 a6 3e 33 72 08 be d0 3e b1 bf
       0.9154426 0.32558402 -0.13324814 -1.3847294
000270 ab 1f 99 bf 05 15 fc 3e 11 f7 06 40 73 32 20 bf
       -1.1962789 0.49234787 2.1088297 -0.6257698
000280 ff 4e cc 3e 47 5d 65 be c9 66 6d bf 37 d3 49 3f
       0.3990402 -0.22398864 -0.9273496 0.78837913
000290 60 b5 0f bb a0 54 a1 bb c0 77 4c 3c 57 66 37 3c
       -0.0021928176 -0.004923418 0.0124797225 0.011193833
0002a0 de f4 cd 3f b9 08 92 bd d5 56 76 be 55 5b ed bd
       1.6090353 -0.0713057 -0.24056561 -0.11589686
0002b0 90 e0 a7 bd 35 20 18 bf bc 9b e3 bf 8c 14 1f c0
       -0.08197129 -0.59424144 -1.7781901 -2.485629
0002c0 83 88 9c 3e 06 40 0f c0 a3 0f 8a 3d ad 84 6d bd
       0.305729 -2.2382827 0.06741264 -0.057987858
0002d0 00 94 11 bb 48 e2 f4 bc 1f 64 7c 3d f9 d1 b2 3d
       -0.002221346 -0.029893056 0.06161892 0.08731455
0002e0 87 86 1b bf f7 37 87 3d 80 de c7 3d 6e b9 8c bd
       -0.6075215 0.06602471 0.097592354 -0.068713054
0002f0 20 a6 a2 bc ba d8 4a bd 9e 7f 9c bd 6a 8b 77 bd
       -0.019854605 -0.049523093 -0.076415285 -0.06043569
000300 18 09 53 3c 33 24 6f bd 35 85 9d be f6 07 13 3d
       0.012880586 -0.05838413 -0.3076569 0.035896264
000310 24 e6 02 bf 1c c8 e3 3c ba 6c 34 bd d6 e7 aa bd
       -0.51132417 0.02780538 -0.044049002 -0.083450004
000320 99 de 71 3e 6f f9 6f be a5 e6 dc 3d c6 1c 13 bf
       0.2362007 -0.23434995 0.107861795 -0.5746578
000330 bd a6 32 3f 04 b5 ed be 9f 60 93 3b 4c 37 9d 3f
       0.6978567 -0.46427166 0.004497602 1.22825
000340 92 76 b2 3d f3 15 6c be 6b bd ac 3f 4f 1f 98 3f
       0.08714022 -0.23055248 1.3495306 1.1884555
000350 07 e0 1d 3f 27 bc 60 3f 10 b4 62 3f 54 08 2e 3f
       0.61669964 0.877871 0.88556004 0.6798146
000360 c0 36 aa 3f b9 76 ae 3e 93 79 c6 3e 4b ee 95 be
       1.3297958 0.34074953 0.3876463 -0.29283366
000370 16 3c 0b bd e6 68 06 3f e2 71 b3 bf fd c6 59 bf
       -0.03399285 0.5250381 -1.4019129 -0.8506926
000380 27 95 32 c0 fc 8f 85 3e 3f ca 95 bf 52 13 1c be
       -2.7903535 0.26086414 -1.1702346 -0.15241745
000390 1b 87 80 bf 04 89 42 40 3b e7 20 3e 66 b4 4c c0
       -1.0041231 3.0396128 0.15713207 -3.1985106
0003a0 be 51 15 40 9b af d5 3e a5 39 4e bf 81 32 f1 3f
       2.3331141 0.4173554 -0.8055671 1.8843538
0003b0 a6 61 45 bf 40 9c 3f bf 2f 84 c0 bf 98 d2 76 bf
       -0.77102125 -0.74847794 -1.5040339 -0.9641509
0003c0 5d 25 05 bf 3b 67 98 3d e3 7f 7c 3f 8c 9f 10 3d
       -0.52010137 0.07441565 0.9863264 0.035308406
0003d0 bd 5a b2 bf 59 3d 75 bf af 2b b3 3d 97 b9 ba 3f
       -1.3933941 -0.95796734 0.08748566 1.4587888
0003e0 be 1f d1 3d 6c 23 95 3f 95 d5 83 bf 46 26 35 bf
       0.102111325 1.1651435 -1.0299555 -0.70761526
0003f0 a0 eb f1 be b4 64 26 3d 0e 85 9b bf 3f d7 d4 bf
       -0.4725008 0.04062338 -1.214998 -1.6628188

rnn.weight_hh f4 [300, 100]
000000 c8 c5 b6 3e b8 8b e8 3e ee be be 3b 47 1b 06 3e
       0.3569777 0.45419097 0.0058211004 0.13096343
000010 6a ee 2f 3e f1 61 52 be 99 48 39 3f 66 84 2c bf
       0.17180791 -0.20545174 0.723764 -0.67389524
000020 3d cd 81 3e 56 6b a3 3e 3b d2 80 3d 41 8c 28 bf
       0.25351897 0.31917828 0.06290098 -0.6583901
000030 9e 6b a4 bf d0 4f 16 bf ab 3c 56 3e 16 7d 7d bf
       -1.2845342 -0.58715534 0.2092158 -0.9901899
000040 ee 0e 34 3e 17 2b 87 bf a2 e5 af bd 12 fa 02 3e
       0.1758382 -1.0560025 -0.08588721 0.12790707
000050 fb 8b c6 3d 06 3d 8e bf d8 28 ff bd d6 47 ab be
       0.09694668 -1.1112373 -0.12458962 -0.33453244
000060 bf de 7f 3f 8b 0e 20 3f 4d d4 63 3e c3 29 58 3d
       0.9994926 0.6252219 0.22248955 0.052774202
000070 8b 00 c9 be 4e 7d d3 3e 64 cc ce bf cc 7f 8f bc
       -0.39258227 0.41306537 -1.6156125 -0.017516993
000080 56 7d a7 3d 82 77 1e bf 7b 9a 54 3e 4c 7a e8 be
       0.08178203 -0.61901104 0.20762055 -0.45405805
000090 8e 7e 87 3f 04 8d 37 3f 2f ba 19 bd c9 79 da be
       1.0585496 0.7169955 -0.037531074 -0.4267104
0000a0 5a a3 2d 3e bf 49 a6 3e 56 c5 fb 3e 51 10 07 bf
       0.16956845 0.3247814 0.49173993 -0.5275927
0000b0 dc fa d6 3e 62 e5 48 3f bc 12 87 be 4d 73 cf be
       0.41988266 0.7847501 -0.2638148 -0.40517655
0000c0 14 08 1d be df a2 78 3d 6b ab 19 bf 45 3d 47 bf
       -0.15335113 0.0607022 -0.6002719 -0.77827865
0000d0 f6 8a 8f 3d 26 f2 36 3e c6 03 c6 bd 07 37 8b be
       0.070089266 0.1786581 -0.096686885 -0.2719042
0000e0 65 10 90 3e 18 64 2f 3f e6 9c 18 3f fe 8c 22 be
       0.28137508 0.68512106 0.5961441 -0.15874097
0000f0 34 51 28 bf 5b 56 17 be e4 0f 2d 3e f9 18 15 bf
       -0.65748906 -0.14779036 0.16900593 -0.5824123
000100 cd 3f 2c 3e 42 06 6e 3f 74 01 e2 3d 5c 32 7c 3f
       0.16821213 0.929783 0.110354334 0.9851434
000110 dd 6b 1c be e1 43 55 bf 9e b0 13 3f ac 11 6c 3f
       -0.15275522 -0.833067 0.5769137 0.92214465
000120 32 2c 26 3f f1 dc 3f be 9b 6c e0 be ed e2 d6 be
       0.64911187 -0.18736626 -0.4383286 -0.41970006
000130 1f 7a 1e bf 6e 52 9a 3e 45 f1 ae 3f 1b 53 24 bf
       -0.6190509 0.30141014 1.366738 -0.6418931
000140 7b 04 30 3f 99 d1 f4 3e ce 00 1e bf 54 2f 4e be
       0.68756837 0.4781616 -0.6171998 -0.20135242
000150 fe 86 0a 3e df ca 88 bd aa be 9a 3e 56 9c ec be
       0.13528058 -0.066793196 0.3022359 -0.46213025
000160 7f ef e1 3e 52 02 1f 3f 99 70 1a 3f 1c c4 04 bf
       0.44128034 0.62112916 0.6032806 -0.5186174
000170 13 2b 22 bf bd 7e ec be 14 69 1f 3f a3 01 a6 bd
       -0.63346976 -0.46190444 0.6226971 -0.08105781
000180 f6 c0 48 bf 8e 30 fe 3e de e9 86 3e 9f 08 12 bf
       -0.78419435 0.4964642 0.26350302 -0.57044405
000190 14 29 09 be 77 e5 9b be ef 61 9c be 37 3c b1 3e
       -0.13394576 -0.30448505 -0.30543467 0.34616253
0001a0 f4 ad d2 3e 0e 7b c1 3e e4 ea 39 3e 96 9b d7 3f
       0.4114834 0.37789196 0.1815601 1.6844356
0001b0 a2 82 bf be 2d 57 29 3f 28 59 0e bf d6 44 b5 3f
       -0.37404352 0.66148645 -0.5560479 1.4161632
0001c0 61 74 93 bf 26 ca 36 bd e1 3f 88 bf 99 aa 11 3e
       -1.1519891 -0.044626378 -1.0644494 0.14225234
0001d0 df 5e 46 be 0d 9f 89 3f ef f3 33 be 6a 4b b3 3c
       -0.19372128 1.0751663 -0.17573522 0.021886546
0001e0 17 82 78 3f 06 59 29 3f 3a cc 1e 3f 17 85 cb be
       0.970735 0.66151464 0.62030375 -0.39749977
0001f0 99 1a 99 bf 27 ac e2 3e 88 b3 14 3e 8c 47 ab 3f
       -1.1961242 0.44271967 0.1452161 1.3381209
000200 b4 1b 3e bf 27 bb a9 bf d1 7b b2 3e 80 f4 84 be
       -0.7426102 -1.3260239 0.3486009 -0.2596779
000210 93 05 4c 3f 51 72 18 3e 58 70 12 bf 06 9a 9d be
       0.79696006 0.14887358 -0.5720267 -0.30781573
000220 6c 8f 16 bf b4 df 8c bf 0a 70 da 3e 8b 5a f8 3d
       -0.58812594 -1.1005769 0.42663604 0.12126645
000230 b4 83 15 bf e3 47 cb 3e 45 4b 55 bf ae 9f c6 3e
       -0.5840409 0.39703283 -0.8331798 0.387937
000240 cd e5 ab be c6 ad c1 be 18 86 ef 3d eb f3 92 3f
       -0.33573762 -0.3782789 0.11695498 1.1480688
000250 62 6e 74 3f 9a a8 52 bf 80 05 47 be a3 f6 4f bf
       0.9548093 -0.82288516 -0.19435692 -0.8123571
000260 98 f6 80 bf 92 d1 0d bf 06 d7 b4 3f ce f3 85 bd
       -1.0075254 -0.55397904 1.412812 -0.06540643
000270 5f be 6c bf 5d 3f e8 3e 91 02 0b be 9a 59 a1 3f
       -0.92477983 0.45360842 -0.13575198 1.2605469
000280 1d 34 37 3f b3 49 ac 3f cd 3a 95 bd 2c 27 c1 3e
       0.71563894 1.3459991 -0.07286606 0.37725198
000290 24 ea 5f bf 37 fc 38 3f 41 b8 c5 be 74 ea 97 3f
       -0.87466645 0.7225985 -0.38617137 1.1868424
0002a0 f7 ef 1a bd 5a 8e bc 3e a8 5a 58 bf d5 e2 f6 3d
       -0.037826505 0.36827356 -0.8451333 0.120549835
0002b0 a3 09 1e 3f 76 0f a1 3f fe 66 af be 95 a9 25 bf
       0.61733454 1.2582843 -0.34258264 -0.64711887
0002c0 05 a2 df 3f 1b a6 05 be 8e c2 e9 be 33 ae ba 3e
       1.747132 -0.13051645 -0.45656246 0.36461028
0002d0 78 47 91 3e cc 9e 31 bf e7 92 e1 3d 30 f1 d7 3c
       0.2837484 -0.6938293 0.110143475 0.026360124
0002e0 11 c5 dc bd 20 62 02 bf 29 d5 be be a4 b1 b4 bf
       -0.10779775 -0.50930977 -0.37272003 -1.4116712
0002f0 41 f6 a4 be be 4e 99 be f8 aa 9a 3f ec c1 53 3f
       -0.32219127 -0.29942888 1.2083426 0.82717776
000300 b6 9a 89 3e db 8b fe bd ad 60 98 3f ba d6 6d be
       0.26875848 -0.12429019 1.1904503 -0.23226443
000310 50 a0 6e bf b1 79 d1 3d 85 5f 48 3e 78 72 99 bf
       -0.9321337 0.10228289 0.19567688 -1.1988058
000320 34 5f 11 3e 46 52 06 3f c6 ca d6 3e 2e 8a 81 3e
       0.14196473 0.5246929 0.4195158 0.25300735
000330 20 b1 f0 bd 2e 16 92 be e8 5f 52 bf 1a ec d0 3d
       -0.11752534 -0.28532547 -0.8217759 0.10201283
000340 5d 75 22 be 80 42 c9 be 6b dd c8 be b0 29 73 3f
       -0.15865083 -0.39308548 -0.39231429 0.94985485
000350 7d 2d 3a 3f 66 de 1e 3f e9 5c 51 3f 4d 67 9b 3f
       0.7272566 0.62058103 0.81782395 1.21409
000360 2a f4 26 be 21 0f 5d bd dc d5 8d be ff 2a 16 3f
       -0.16304079 -0.053969506 -0.27702224 0.58659357
000370 18 4c 02 3f c9 29 f7 3d 2b e2 f8 3e 26 2f 02 3f
       0.5089736 0.12068517 0.48610052 0.5085319
000380 bc 3e dd 3e 7b 51 48 bf a4 aa 8c 3e e2 2f 40 be
       0.43211925 -0.7824933 0.27473938 -0.18768266
000390 47 6a 53 bf 52 ed 2a 3f c9 d8 1b 3f bf b2 9a 3f
       -0.8258404 0.6676837 0.6087766 1.2085799
0003a0 49 aa a6 bf af a8 07 bf 64 8d bf 3e ec 19 2e 3e
       -1.3020717 -0.52991766 0.3741256 0.17002076
0003b0 5b b3 16 3e b9 79 03 bf 52 c1 06 bf c0 a4 0f 3f
       0.14716856 -0.5135761 -0.52638733 0.56110764
0003c0 53 ac c8 bc 9d 0e 03 bb 83 dd e5 3e ad bd 56 bf
       -0.024496233 -0.0019997724 0.44895563 -0.8388317
0003d0 81 b9 3d bf 5d 57 38 3f d8 5d a1 3f f3 4c d3 3f
       -0.7411118 0.72008306 1.2606764 1.6507858
0003e0 26 1f c0 be 8a fe 2d 3f 3b 50 67 3f 83 93 89 3e
       -0.37523764 0.6796652 0.90356797 0.26870355
0003f0 69 b3 5f be d9 44 00 3f e0 29 8a bd 61 5b a9 bd
       -0.21845783 0.50105053 -0.06746268 -0.08269382

rnn.bias_ih f4 [300]
000000 34 5b b3 be c0 a9 84 3d ac 14 de be 88 42 00 be
       -0.3503052 0.0647769 -0.43375146 -0.1252538
000010 41 90 f0 3c 3f 83 8c bf 18 1f 82 bf f9 56 88 bf
       0.02936566 -1.0977553 -1.0165739 -1.0651542
000020 d6 e3 eb be 78 91 6d be 9c 0a 27 bf b9 80 30 bf
       -0.46072263 -0.23200023 -0.65250564 -0.68946415
000030 f0 43 89 bf f9 dd fc be fc 2f a6 be 5a 29 c8 bf
       -1.0723858 -0.49388102 -0.32458484 -1.563762
000040 74 93 86 bf b1 07 19 bf df 48 17 3e 8d 56 9a bf
       -1.0513749 -0.5977736 0.14773892 -1.2057663
000050 a3 3c 36 bf 7f f2 8b bf 75 c3 5e be 68 fc 0b bf
       -0.71186274 -1.0933379 -0.21754248 -0.54682016
000060 e6 45 9e bf 24 37 53 bf 28 47 a4 be e0 ee 25 bf
       -1.2365081 -0.8250601 -0.32085538 -0.6481762
000070 b9 a4 aa bf a5 2e 9a bf 30 67 b8 bf 6f 00 99 bf
       -1.3331519 -1.2045485 -1.440649 -1.1953257
000080 30 9a 41 bf 49 56 e1 be 31 e7 b6 be 08 29 0a bf
       -0.75625896 -0.44011143 -0.3572326 -0.5396886
000090 b2 4f 25 bf de a0 02 bf 73 f7 4c bf 3e 7b d6 be
       -0.6457473 -0.51026714 -0.8006508 -0.418909
0000a0 e7 f6 97 3e 20 10 19 bf 9f d9 9a be cd 89 ad be
       0.2968056 -0.5979023 -0.30244157 -0.33894196
0000b0 12 6e 2b bd c2 b8 53 bf a8 9c 72 bf 04 00 34 bf
       -0.041853018 -0.82703793 -0.9477029 -0.70312524
0000c0 c9 d4 7c bf ca 10 73 bf ff 57 26 3e d8 b8 87 3d
       -0.98762184 -0.94947493 0.16244505 0.06627053
0000d0 a8 d0 55 bf 49 b8 71 be ab c2 9e 3e 3a 43 03 3e
       -0.8352151 -0.23605455 0.31007895 0.12818614
0000e0 87 5e 85 3d 9d dd 30 bf 41 ea 3c bf 18 91 5b be
       0.0651217 -0.69088155 -0.73794943 -0.21442068
0000f0 86 06 30 bf 8f 2e 3e bf 6b 73 2b bf 3e 0a 90 bf
       -0.68759954 -0.7428979 -0.6697299 -1.1253126
000100 e1 2a 30 bf 97 f0 97 bf f8 72 0c bf 51 75 23 bf
       -0.6881543 -1.1870297 -0.5486293 -0.63850886
000110 c6 68 63 bf 4a 38 1b bf 53 aa 25 bf 06 49 40 bf
       -0.88831747 -0.60632765 -0.6471302 -0.75111425
000120 d3 46 47 bf ba f1 35 3e 74 50 c9 be 1b 65 06 bf
       -0.77842444 0.17767993 -0.39319193 -0.52498025
000130 3f 32 91 be 9c 00 95 bf 78 2c 36 bf f5 84 85 bf
       -0.28358647 -1.1640811 -0.71161604 -1.04312
000140 04 12 47 3f b7 59 8e bf 96 f3 0c bf 71 f5 11 be
       0.77761865 -1.1121129 -0.5505918 -0.14253785
000150 fb 06 00 bf 95 a0 17 bf 99 ce d2 be 62 46 59 bf
       -0.5001065 -0.59229404 -0.41173247 -0.8487302
000160 a4 b5 09 bf 98 65 74 bd 5d fc a5 be 9b 58 5e bd
       -0.53792787 -0.0596672 -0.324191 -0.05428372
000170 e3 35 af 3c 24 6d 1b bf c9 14 d1 bf 52 5b 01 3f
       0.021388 -0.6071341 -1.6334468 0.5052997
000180 74 a0 1a bf 33 4e df be f4 00 e2 bf d2 e9 36 bf
       -0.6040108 -0.4361435 -1.7656541 -0.7145053
000190 75 4d a1 bf a8 d2 50 bf 22 b8 42 bf ec c2 98 bf
       -1.2601763 -0.81571436 -0.76062214 -1.1934485
0001a0 53 e3 f9 bd bf 38 f2 3f 3a 00 fd be df ef 2d bf
       -0.12201562 1.8923568 -0.49414235 -0.6794414
0001b0 2c 76 67 bf d5 20 ab bf bc 34 db be 8b bc 74 3e
       -0.9041469 -1.3369395 -0.4281367 0.23900048
0001c0 1e 7a 17 bf 70 d8 63 3d 6a e5 b5 3d 9e 2d 32 bf
       -0.5917071 0.055626333 0.08881648 -0.69600856
0001d0 dc 87 32 bf dc 9b 0d bf 4a d2 47 bf 4e 66 05 40
       -0.69738555 -0.5531595 -0.7805525 2.0843692
0001e0 84 c5 95 bf 80 45 96 be bf 29 ec be 81 6d d8 bf
       -1.1700902 -0.293499 -0.461256 -1.6908418
0001f0 9d 07 86 bf ba cb d1 3c 08 fa 12 bf b1 7a 5c bf
       -1.0471073 0.02560984 -0.5741277 -0.8612471
000200 c4 48 e7 be b2 ff dd bf f4 14 80 bf 26 b9 6b bf
       -0.45172703 -1.7343657 -1.0006394 -0.9207939
000210 3b d2 84 bf 8c fe 15 40 2a 89 9d bf c4 c1 39 bf
       -1.0376657 2.3436613 -1.2307484 -0.7256129
000220 93 96 5a be ae 03 90 bf de 26 ab bf 24 e3 0f bf
       -0.21346502 -1.1251123 -1.3371236 -0.56205964
000230 70 a5 58 3e fb b3 30 bf 39 e3 79 bf da 2e 2a bf
       0.2115686 -0.6902463 -0.9761234 -0.6647774
000240 8a c9 50 bf f3 f2 7c bf 77 22 27 bf 08 7c 75 be
       -0.81557524 -0.9880821 -0.65286964 -0.23973095
000250 99 67 bc bf 95 a0 fd 3f 2b b1 77 bf 30 52 9d be
       -1.4719115 1.9814631 -0.9675471 -0.30726767
000260 3c b8 c2 bf 10 48 21 bf ad 89 d2 be fa c0 00 c0
       -1.5212474 -0.63000584 -0.41120663 -2.0117784
000270 12 ac 1d 3e 57 f7 ef be fc ea 5c bf d5 ed aa be
       0.15397671 -0.46868393 -0.8629606 -0.33384576
000280 e7 35 f9 3d 2a b6 28 bf e5 bb 6a bf 8a 91 46 bf
       0.12168484 -0.6590296 -0.91692954 -0.77565825
000290 cc 9f 02 bf 5a d2 41 bf 34 c7 72 bf b1 69 cb bd
       -0.5102508 -0.75711596 -0.9483521 -0.099322684
0002a0 77 86 2b bf 6d 5e d2 be 41 d6 12 bf 94 ec 1d 40
       -0.6700205 -0.41087666 -0.57358176 2.4675646
0002b0 a4 b6 9d bf ab 22 25 bf 5e 0c 85 bf 65 7f ad bf
       -1.2321362 -0.64506024 -1.0394399 -1.3554503
0002c0 3d 49 81 bf af a5 18 bf 2e 37 2a bf 67 6b 92 bf
       -1.0100476 -0.59627813 -0.6649045 -1.1439027
0002d0 20 d7 cd bf 54 d0 37 bf a2 ec 55 bf 13 67 ea be
       -1.6081276 -0.7180226 -0.835642 -0.45781764
0002e0 bb b3 b1 3e 36 69 2c bf 1b f1 05 bd af ff bc bf
       0.34707436 -0.6734804 -0.03270064 -1.4765528
0002f0 11 56 fd be 7f 55 82 bf 9e 84 11 be 2f 52 23 bf
       -0.49479726 -1.0182341 -0.14210746 -0.6379728
000300 2c 46 5b bf 6f 0c 04 bf 06 0d 9a 3e 48 bd 87 bf
       -0.8565395 -0.5158147 0.3008806 -1.0604639
000310 fc c8 1b 40 3f ae 1b bf 48 97 0b 40 e1 70 4a bf
       2.434142 -0.60812753 2.1811085 -0.7907849
000320 1c 76 ed 3c ae 92 4b bd 8c 1c c6 3d c3 9b 68 3e
       0.028986983 -0.04970043 0.09673414 0.22715668
000330 56 6c 89 be 1c 0e 1f 3e 45 f2 2d 3d 3d 6b 28 be
       -0.26840466 0.15532726 0.042467374 -0.16447158
000340 72 0f b9 3b 93 82 40 3e c6 ac 33 bd 2a 07 30 3e
       0.005647593 0.1879981 -0.04386594 0.17190233
000350 e0 a8 99 3c 2d f7 87 3c 7a f0 5d bd 70 08 66 be
       0.018757284 0.016597355 -0.054184414 -0.22464156
000360 47 77 eb bc 80 d6 bf be f1 94 cd bd 75 e6 7c be
       -0.0287434 -0.37468338 -0.10038174 -0.24697287
000370 38 25 32 bd d0 11 b1 bd b5 97 8a bc 23 87 83 be
       -0.043492526 -0.086459756 -0.016918043 -0.2568904
000380 4c 7a 1c bc c2 ae 2e 3e 94 8b 1e 3e 1e d3 50 3d
       -0.009550642 0.17058852 0.15482932 0.050982587
000390 a9 fd 88 bc 70 52 da bc b1 28 ca 3c d2 86 dc bd
       -0.016722517 -0.026650637 0.024677606 -0.107679024
0003a0 23 8d 6b 3c 18 a8 3d be e1 39 80 bd 65 d9 d0 3e
       0.014376911 -0.18521154 -0.062610395 0.4079086
0003b0 70 1f 1a 3d 7c 71 8d 3d 0f 64 6e 3d 88 a2 5b be
       0.037627637 0.06906411 0.058200892 -0.2144872
0003c0 8a 89 6d be b5 b2 f0 3c 69 79 4d 3d 84 78 3b bd
       -0.23196998 0.02938209 0.050164614 -0.04576923
0003d0 32 06 1f 3e b4 06 9f bd 48 c3 82 bd 7c 15 ec 3b
       0.15529707 -0.077649504 -0.06384903 0.0072047096
0003e0 c4 d6 2b 3e 5c 13 3a bd fd 1d a5 bd a6 32 f0 bd
       0.16781145 -0.04542862 -0.080623604 -0.117284104
0003f0 97 da c4 bc e1 b7 39 be 01 25 8b 3d fe a3 5c be
       -0.024030013 -0.1813655 0.06794167 -0.21546933

rnn.bias_hh f4 [300]
000000 5e c3 e1 be 52 62 ec 3d 01 8e fd be d9 30 10 bd
       -0.44094366 0.115421906 -0.49522403 -0.035202835
000010 87 89 38 3e 79 43 87 bf fb d3 6d bf de b7 94 bf
       0.18021213 -1.0567466 -0.9290158 -1.1618612
000020 e6 97 05 bf 40 8f 8b be 91 12 f3 be 4e 58 25 bf
       -0.52184904 -0.2725773 -0.47475103 -0.6458787
000030 fa d4 8b bf 8d ac e7 be 54 28 77 be 5f b2 c3 bf
       -1.092437 -0.45248833 -0.24136478 -1.528881
000040 00 50 73 bf 84 fc 1f bf 26 5c 37 3d 14 fa 96 bf
       -0.95043945 -0.62494683 0.044765614 -1.1795068
000050 74 d0 12 bf 25 90 8c bf 9d 6c 4f be 59 81 03 bf
       -0.57349324 -1.098149 -0.20256276 -0.51369244
000060 9d 6f a4 bf 90 1b 56 bf dd 0c 86 be 7d 39 19 bf
       -1.2846562 -0.8363581 -0.2618169 -0.59853345
000070 4c a7 c2 bf e6 0c 8f bf 60 28 b1 bf 4c e6 97 bf
       -1.5207305 -1.1175811 -1.3840446 -1.1867156
000080 d7 22 46 bf 9c 3a ef be 7d 69 eb be 5f 43 ec be
       -0.7739691 -0.46724403 -0.4597892 -0.4614515
000090 58 93 13 bf e6 4e f9 be 0d 45 4f bf d8 05 0b bf
       -0.57646704 -0.48693007 -0.8096474 -0.5430579
0000a0 ef ee 41 3e f7 69 0b bf eb 82 83 be fc 28 cf be
       0.18938802 -0.54458565 -0.2568582 -0.40460956
0000b0 f7 f8 13 be b4 36 64 bf c9 5e 83 bf f4 50 37 bf
       -0.14450441 -0.8914597 -1.0263301 -0.716079
0000c0 47 d8 6e bf 0e 7e 5d bf 7d fa 68 3e 3d 6a 2c 3d
       -0.93298763 -0.8652047 0.22751804 0.042093504
0000d0 20 c2 60 bf 26 d4 9e be 1f e2 78 3e 7b 76 c9 3c
       -0.8779621 -0.3102123 0.24305008 0.024592629
0000e0 86 55 e0 3d cb 56 2a bf 34 aa 26 bf 8e b9 89 be
       0.10953812 -0.66538686 -0.6510346 -0.2689938
0000f0 4e c9 19 bf e8 a7 39 bf a1 af 1d bf 64 28 9e bf
       -0.6007279 -0.7252183 -0.61596113 -1.2356076
000100 99 8a 25 bf 71 92 aa bf f5 19 ee be fc b8 23 bf
       -0.6466461 -1.332594 -0.4650418 -0.6395414
000110 8f 92 33 bf 9f 14 1b bf 25 02 0c bf c9 91 36 bf
       -0.70145506 -0.6057834 -0.5469077 -0.713162
000120 a6 db 33 bf 09 77 60 3d b7 3c e8 be ad 5c 03 bf
       -0.7025703 0.05480102 -0.45358822 -0.51313287
000130 55 90 6b be d8 43 8e bf d4 ff 46 bf a3 5c 82 bf
       -0.23004277 -1.1114454 -0.7773411 -1.018452
000140 e5 b8 54 3f 9d 15 86 bf ed 0c cf be 61 24 5f be
       0.83094627 -1.0475346 -0.4043955 -0.21791221
000150 7d dd 1b bf 05 d8 26 bf a7 98 ec be 40 bf 77 bf
       -0.6088484 -0.6517337 -0.46210214 -0.967762
000160 33 af e7 be f7 d1 4b 3b 67 a0 c7 be 2d db 85 3b
       -0.45250854 0.003110049 -0.38989565 0.0040849657
000170 4a e3 a4 3c 12 b8 1e bf 46 9e d6 bf 1e 61 c2 3e
       0.020127911 -0.6199962 -1.6767051 0.3796472
000180 07 38 09 bf 26 77 ff be b7 ce e3 bf 8f b9 23 bf
       -0.53601116 -0.4989559 -1.7797459 -0.63955015
000190 6b 1b a1 bf 18 6d 5d bf 72 68 3d bf f9 e7 a7 bf
       -1.2586492 -0.8649459 -0.73987496 -1.3117667
0001a0 1f f9 5f bd 0d 22 00 40 df ad 13 bf c8 70 15 bf
       -0.05468094 2.0020783 -0.5768718 -0.58375216
0001b0 82 4d 66 bf 70 1f b1 bf 6b 20 da be fb a9 a7 3e
       -0.8996202 -1.3837719 -0.42602858 0.32746872
0001c0 9a 71 35 bf 44 ad 80 3d 53 16 29 3e 14 06 39 bf
       -0.7087647 0.06283048 0.16512422 -0.722749
0001d0 db ea 52 bf 44 1f 1b bf e6 13 46 bf 60 c6 02 40
       -0.8238961 -0.6059458 -0.7737411 2.0433578
0001e0 f1 16 96 bf 55 19 bc be b9 03 0b bf c8 52 d1 bf
       -1.1725751 -0.36738077 -0.54302555 -1.6353388
0001f0 2e 06 84 bf 29 a4 05 be e0 01 1e bf ec b9 60 bf
       -1.0314386 -0.13050903 -0.6172161 -0.87783694
000200 ca d5 c9 be ad b8 d3 bf 28 dd 84 bf 15 40 5a bf
       -0.3942092 -1.6540734 -1.0379992 -0.8525403
000210 ce 6d 81 bf f3 1e 13 40 a8 6a 99 bf 99 0a 5b bf
       -1.0111635 2.298764 -1.1985674 -0.85563046
000220 18 27 c8 bd d0 71 94 bf 86 c7 94 bf 58 bb e0 be
       -0.097730815 -1.1597233 -1.162339 -0.43892932
000230 d2 16 e7 3d 50 b0 3f bf 7d e0 74 bf 13 0f 35 bf
       0.112836495 -0.74878407 -0.9565504 -0.70726126
000240 93 9f 56 bf 7e 64 8d bf 8d 5a 29 bf a4 de 17 be
       -0.8383724 -1.1046293 -0.66153795 -0.14831024
000250 0c 69 b4 bf 8d 91 f7 3f 3a f0 86 bf d5 b9 b7 be
       -1.4094558 1.9341294 -1.0542061 -0.35883966
000260 aa 9c bd bf e1 c6 24 bf 62 21 d6 be bd 55 f0 bf
       -1.4813435 -0.64365965 -0.41822344 -1.8776165
000270 13 03 d5 3d 3f f7 12 bf 2d a1 47 bf 03 96 64 be
       0.10400977 -0.5740852 -0.7798031 -0.2232285
000280 93 fc d8 bb 58 d4 1c bf 62 20 55 bf d1 b7 39 bf
       -0.006621906 -0.6126151 -0.8325254 -0.72546107
000290 d5 cb d8 be 79 1e 5d bf 29 d3 6f bf d5 62 0b be
       -0.42343011 -0.8637462 -0.9368158 -0.1361192
0002a0 8c b9 2a bf ad c2 ce be 52 06 20 bf f3 74 15 40
       -0.6668937 -0.403829 -0.62509644 2.335263
0002b0 8f 84 9b bf 3c 65 0d bf e2 a0 83 bf 5c b3 98 bf
       -1.2149829 -0.55232596 -1.0283473 -1.1929736
0002c0 c7 47 67 bf 60 cb 24 bf d8 97 17 bf 28 96 96 bf
       -0.903439 -0.64372826 -0.5921607 -1.1764574
0002d0 73 70 d2 bf 54 3a 4f bf e1 6f 2e bf 2e 3a d7 be
       -1.6440567 -0.80948377 -0.68139464 -0.42036575
0002e0 0a 45 a1 3e bb 50 44 bf 2f 51 a6 3c f4 e1 bb bf
       0.31497985 -0.76685685 0.020302383 -1.467833
0002f0 ac 1e cf be d6 23 82 bf d8 81 6f be 3d 97 2b bf
       -0.40453088 -1.0167186 -0.23389375 -0.67027646
000300 c2 cc 38 bf 37 9d 1c bf f7 b1 b8 3e 02 3e 8a bf
       -0.72187436 -0.6117739 0.36073276 -1.0800173
000310 7f 97 1c 40 e8 13 1e bf b0 7a 11 40 46 be 35 bf
       2.4467466 -0.61749125 2.2731133 -0.7099346
000320 b5 14 a1 bd 02 1a 92 bf f4 bc 2b bd d8 84 8e 3e
       -0.07865278 -1.1414187 -0.041928247 0.27835727
000330 bf 35 8b bf 70 48 c4 ba de d9 87 3e 5b 41 d3 3c
       -1.0875777 -0.0014975201 0.26533407 0.025788
000340 f8 e8 27 bd 49 f6 33 3f d2 c1 47 3f 05 1d f7 3e
       -0.04099366 0.70297676 0.7803012 0.48264328
000350 a0 60 67 3e 89 5a de be 37 03 6b be 3f 4f 8c bc
       0.22595453 -0.43428448 -0.22950445 -0.017127631
000360 c1 84 0b 3e 49 98 61 3f 6e 67 7d 3f a4 10 d1 bd
       0.1362486 0.88122994 0.98985946 -0.10208252
000370 b0 7d 2f 3f 88 b1 82 bf 2d e7 37 be 24 9d 35 bf
       0.6855116 -1.0210428 -0.1795928 -0.709429
000380 a8 71 bb 3e 0d a4 b3 bd 27 d6 32 bf 66 25 23 bf
       0.3661015 -0.087715246 -0.6985802 -0.6372894
000390 b1 a9 66 bf e0 26 3c bf b8 b9 04 3e 8a ec 00 3e
       -0.9010268 -0.7349682 0.12961471 0.12590232
0003a0 01 02 88 3f e9 c1 f1 be 9f bd 43 3f 28 28 37 3f
       1.0625612 -0.47218254 0.76461214 0.7154565
0003b0 9d c5 96 3e a9 5a dc be 19 05 45 bf b3 33 a5 bf
       0.29447642 -0.43037918 -0.76960903 -1.2906402
0003c0 85 05 aa 3f f7 52 7b 3d d2 58 24 3f b3 58 9d bd
       1.3282934 0.06135842 0.6419803 -0.07682934
0003d0 ab 79 20 3f a4 87 37 3e 5f 80 3e bf 53 b4 39 3e
       0.6268565 0.17922837 -0.7441463 0.18135194
0003e0 56 ee 04 3f 5b ad a4 3d 3b 84 36 bf c8 fb 92 3f
       0.5192617 0.080408774 -0.7129552 1.1483088
0003f0 9e 82 82 bf a2 65 82 3e 58 de db be e7 7e cb bf
       -1.0196111 0.25468165 -0.42943072 -1.5898103

rnn2.weight_ih f4 [300, 100]
000000 cb 87 06 be ef e2 89 3e 1e a0 67 bf 01 5b 12 bf
       -0.13137738 0.2693095 -0.90478694 -0.5717011
000010 eb dc b6 3f f3 6b 57 bc 04 5d d1 3a 7d 69 ac 3f
       1.4286169 -0.013148296 0.0015973155 1.3469692
000020 ae 11 fd 3e a6 63 bc 3d a1 95 e1 3f 22 bd ba bf
       0.4942755 0.09198694 1.7623788 -1.4588969
000030 74 2d 55 bf b0 1f 57 be f2 b2 6b be b0 ae ac 3e
       -0.8327248 -0.21008182 -0.23017481 0.33727026
000040 37 54 b3 3f 9e 80 8e 3f 6e 93 a5 3c 84 d7 f4 3e
       1.4010075 1.1133001 0.020211902 0.47820675
000050 f8 79 bd bc 08 5a a7 be 98 1b 76 3f 20 89 c4 3e
       -0.023129448 -0.32685876 0.96135855 0.38385868
000060 a4 09 c8 bf 21 0e a8 be 33 09 da bf b1 3a 2d be
       -1.5627942 -0.3282328 -1.7034057 -0.1691692
000070 d2 96 80 3e 70 e9 40 3f 86 73 27 3f 14 f3 04 c0
       0.25115067 0.753562 0.6541065 -2.0773363
000080 1c d5 e5 be a4 b0 00 3f da 6b b9 bd ee 9c af 3f
       -0.44889152 0.5026953 -0.09053774 1.3719766
000090 5d 0d a5 be a8 18 48 bf 31 15 15 3f 29 40 79 3f
       -0.32236758 -0.7816262 0.5823546 0.97363526
0000a0 35 32 8c 3f fb c3 0f c0 c2 4e ad 3e ae 69 16 3f
       1.0952822 -2.2463367 0.3384915 0.58755004
0000b0 6a 04 0c 3f 56 56 5b 3f 29 02 d9 3f 56 a2 41 bf
       0.54694235 0.85678613 1.6953784 -0.7563833
0000c0 a9 3a bd 3f 8f b0 39 3f 2e 35 ae 3c fa 20 f1 3e
       1.4783527 0.7253503 0.021265592 0.47095472
0000d0 9a 7e a0 be fc d2 0b bf d7 54 b2 3f 99 95 1b bf
       -0.3134659 -0.5461881 1.3932141 -0.6077514
0000e0 80 aa 2f 3f be c6 40 bf 8a e0 35 bf 3c de 6b 3e
       0.6861954 -0.75303257 -0.71045744 0.23033994
0000f0 c1 d7 8e 3e 5a a4 98 bf 3d 2b 59 3f 78 d0 81 bf
       0.27898982 -1.1925156 0.848316 -1.0141745
000100 e2 ed ad 3d 3a ab fd 3e 5d 07 5d bf 3d 6d c1 3a
       0.08492638 0.49544698 -0.8633936 0.0014757287
000110 65 24 3c bf a1 31 ce be 0e 8b 83 3f 2d e3 4b be
       -0.73493034 -0.4027224 1.0276811 -0.1991088
000120 48 f0 90 3f a4 2c 38 3f ea 16 5e 3f 6b de 02 3f
       1.1323328 0.71943116 0.86753714 0.5112063
000130 9d 61 4f 3f 3e cc c6 bf f1 4f 00 c0 a1 b7 c8 3f
       0.8100832 -1.553108 -2.0048792 1.5681039
000140 4c ec 6b 3e 94 4a 95 bd a7 32 25 3f 43 3c 23 3e
       0.23039359 -0.07289615 0.64530414 0.15940957
000150 69 67 53 3e df 49 96 3d 25 d1 e2 3f 15 d9 1f bf
       0.20644917 0.073383085 1.7720076 -0.62440616
000160 59 54 07 bf 81 50 90 3f 56 42 e5 bf 3f 72 17 bf
       -0.5286308 1.1274568 -1.7910869 -0.591587
000170 44 d9 d6 3d 16 1e 50 bf 5b b8 f7 bd 8e f9 2e 3f
       0.10490659 -0.8129591 -0.1209571 0.6834954
000180 4e de 0d 3f f0 ac 18 3d fd ee 0a 3f 31 f1 41 bf
       0.55417335 0.0372743 0.5427092 -0.75758654
000190 07 0b e9 be 5d 13 9d bf e9 2f 74 bf 41 37 04 bf
       -0.45516226 -1.2271534 -0.95385605 -0.5164681
0001a0 ab 04 2d bf 7a 5b 67 bf dd 98 23 3f af 8f 0a bf
       -0.6758525 -0.9037396 0.63905126 -0.54125494
0001b0 86 08 e2 be 16 f7 0c be af 92 00 3e 6f 81 84 3e
       -0.44147128 -0.13766131 0.12555955 0.2588
0001c0 4c 3f 9e be 98 4c d5 be 11 f3 93 3f 9e d4 cc 3e
       -0.30907667 -0.4166 1.1558553 0.40005964
0001d0 10 d8 e5 be 13 3f 2e 3e cb 09 8e 3e 5b c7 c6 be
       -0.44891405 0.17016248 0.27741846 -0.3882397
0001e0 1c c6 2d bf 0d 56 37 3e 73 f5 61 be 64 06 04 3d
       -0.67880416 0.1790392 -0.22066288 0.032232657
0001f0 9a c7 18 be aa e6 c4 3f bb 42 44 3f f4 ec 1c 3f
       -0.14919892 1.5382893 0.7666432 0.6129906
000200 05 12 d9 3e 4f 09 71 3c 6b b2 a2 be 50 ad f4 be
       0.4239656 0.014711692 -0.31776747 -0.47788477
000210 4f 53 23 3e 3c 29 65 be 4d a5 78 be 72 ba bc be
       0.15949748 -0.22379011 -0.24281807 -0.36860996
000220 f0 3d 73 3e 1f 0a 9a 3b 82 3b 77 3f 60 60 b5 3f
       0.23754096 0.0047009136 0.96575177 1.4170036
000230 d7 b0 ab 3e 71 9a 8a bc 56 fe e4 be fa 14 1a 3d
       0.33533356 -0.016919347 -0.44725293 0.03761766
000240 b1 af 44 bf c1 30 eb be 18 ba 80 bf bd 21 d6 bf
       -0.76830584 -0.45935634 -1.0056791 -1.6729046
000250 57 c9 93 bb 2b 08 76 bf cb a6 73 bf 6e ae 74 bd
       -0.0045100856 -0.96106213 -0.9517638 -0.05973666
000260 b2 5d bd be e2 52 2c bf 7b a9 3b bf ab 42 3f be
       -0.36985546 -0.6731397 -0.7330548 -0.18677776
000270 6a 73 14 be 0a 61 91 bd ce 4b 0d bf b7 98 9e bf
       -0.14497152 -0.07098587 -0.55193794 -1.2390355
000280 12 00 8e bf 3d 2f c5 3e 88 56 5f bf 2d 47 24 3e
       -1.1093771 0.38512602 -0.8724141 0.16042776
000290 e2 b1 bc be 64 4c 20 3f 7f 03 2f be 48 16 a1 be
       -0.36854464 0.6261656 -0.17091177 -0.31462312
0002a0 0b db 8a 3e 12 c4 65 3f 36 fd 8f 3f 00 c1 a7 3e
       0.27120242 0.89752305 1.1249149 0.32764435
0002b0 7c 10 3b be ec 5e 27 be bd 91 a3 bf ab 5b 04 c0
       -0.18268007 -0.16344804 -1.2778851 -2.068095
0002c0 a2 cf b5 be 38 ef 01 bf 47 03 d1 be 73 87 4c 3f
       -0.35509974 -0.50755644 -0.40822813 0.7989418
0002d0 fa 04 4c bf 3b 11 ce 3e 30 b9 26 bf 1c 3f 14 3f
       -0.79695094 0.4024752 -0.65126324 0.579088
0002e0 b2 26 57 3f e8 e3 1c bf e5 2b a3 3e dc 19 7f 3f
       0.8404342 -0.6128526 0.31869426 0.99648833
0002f0 f4 3c 0c be ed 54 c2 be 4b c0 39 be cc dd 9c 3f
       -0.13695127 -0.37955418 -0.1813976 1.2255187
000300 99 f3 4d 3f 61 f8 68 bf 5b dd 99 bf 94 73 8a 3e
       0.80449826 -0.91003996 -1.2020677 0.27041304
000310 3b 61 66 3e 90 b6 9f be ef e3 12 be b9 c3 60 be
       0.22498028 -0.31193972 -0.14344762 -0.21949662
000320 dc cd 9e 3b fe 3f f5 3d f6 e4 be be 5d 72 2c 3f
       0.0048463177 0.11975096 -0.37284058 0.67362005
000330 b5 a9 ac 3e 2e a2 18 bf 38 e6 90 3e 17 b9 13 3f
       0.33723226 -0.59622467 0.28300643 0.577043
000340 6e f3 7f be 36 84 f6 be 5d c9 16 3f 08 fe a7 3b
       -0.24995205 -0.48147744 0.58901006 0.0051267184
000350 fa d3 01 3d 75 f2 fd 3e 15 dd c1 3e af 4b f6 3d
       0.031696297 0.49599043 0.37863985 0.12026154
000360 8e e9 90 bc a1 36 81 bf 1e 36 c6 bd 10 35 5f 3e
       -0.017689493 -1.0094796 -0.09678291 0.21797585
000370 82 0b ae be 54 1c a8 be 3d 29 2f 3f 16 b2 2b 3f
       -0.33993155 -0.32834113 0.684223 0.6706861
000380 08 4e 75 3f 99 50 6d 3b 61 d5 a3 3e 3c ac 8c be
       0.9582219 0.003621137 0.31998733 -0.27475154
000390 b8 99 a2 be 3c e4 ca be 62 1b 74 bf ab 94 ac 3f
       -0.31757903 -0.39627254 -0.9535428 1.348287
0003a0 94 d2 40 bf 5f de 11 3f a0 d4 21 bf a8 aa f7 bd
       -0.75321317 0.56979936 -0.63215065 -0.12093097
0003b0 05 fa 2e 3f 43 be 6b 3f ba bb db 3c fc 45 2d bd
       0.6835025 0.9208719 0.026822913 -0.04230307
0003c0 8b b3 e1 be af 3d f2 be 04 4a 93 be ea 4e c2 be
       -0.44082293 -0.47312686 -0.28767407 -0.37950832
0003d0 7d 63 9b be 8b 16 53 be b3 0e db 3e be 78 5b 3e
       -0.3034934 -0.20614068 0.42784652 0.21432778
0003e0 54 16 8b 3e 0e f0 34 be e0 73 a3 be 10 dc 2b bf
       0.27165473 -0.17669699 -0.31924343 -0.67132664
0003f0 e8 0a 6c bf 79 37 dc 3e 91 43 0b 3f e7 ab 1e be
       -0.9220414 0.43011072 0.54399973 -0.15495263

rnn2.weight_hh f4 [300, 100]
000000 7d 8b 5c 3e 5f 84 1d 3f 9f d6 81 bf fb ad 94 be
       0.21537586 0.6153011 -1.0143622 -0.29038987
000010 8d df a7 3c 5a 60 1b 3f 75 cd 03 3f c4 de 76 be
       0.02049234 0.60693896 0.5148538 -0.24108416
000020 ef 26 ed 3d 4c b5 5a be f7 16 65 3e bd 18 62 bf
       0.115796916 -0.21358222 0.22372042 -0.88319
000030 00 45 26 bf f3 8c ec be aa 6b 2c 3f 09 f5 47 be
       -0.64949036 -0.46201286 0.6735178 -0.19527067
000040 8e 92 c3 bc 3b ab d3 be 67 73 f3 3e 14 5c b6 bf
       -0.023873594 -0.41341576 0.47548983 -1.424685
000050 48 58 ab 3e b2 ef 89 3e 49 fe 16 3f c0 25 f8 3d
       0.3346579 0.26940686 0.5898176 0.12116575
000060 78 67 a1 be 60 bf 6a 3f 77 41 85 be ff 36 53 bf
       -0.31524253 0.91698265 -0.26026508 -0.8250579
000070 d8 0f 01 bf 84 99 1c bf 4c 40 0a 3f 00 07 a5 3e
       -0.504148 -0.61171746 0.5400436 0.32231903
000080 a2 11 d5 3e b5 5b 19 bf 17 1d 38 bf 7d f9 86 3e
       0.41615015 -0.5990556 -0.7191939 0.2636222
000090 19 d5 0e 3e d8 e7 1f 3f da 90 36 bd 17 f5 51 3f
       0.13948478 0.6246314 -0.044571735 0.820146
0000a0 3e 5b 0a 3d 11 7c 8b 3e 73 a3 26 be b1 aa a6 3c
       0.03377842 0.27243093 -0.16273288 0.020345064
0000b0 e2 c9 f5 3d 3e 04 75 3d 42 c4 1b 3f 08 89 7f be
       0.12001397 0.0598185 0.6084634 -0.24954617
0000c0 31 79 cf be 31 da bb bd 0a 49 3b bf 4e 54 24 3f
       -0.4052215 -0.09172476 -0.73158324 0.6419114
0000d0 92 44 ea be 2f 3b 04 bf d7 77 05 be 82 a2 0f 3f
       -0.4575544 -0.51652807 -0.13033997 0.5610734
0000e0 87 30 8a 3e a7 97 b5 be 2e c2 57 3d 11 fe 11 3e
       0.26990148 -0.35467264 0.05267542 0.14257075
0000f0 9d 16 d6 be 5b 5b 7d be 42 71 5d be 4b d4 25 be
       -0.41814128 -0.2474188 -0.21625236 -0.16194265
000100 31 fe 85 bf 7d c5 10 3e 7b aa f5 be 1e 45 8e 3c
       -1.0468198 0.14137836 -0.4798163 0.017366942
000110 7c 6a b4 bc 35 66 fe 3e 97 5e e3 be f4 41 fb 3d
       -0.022023432 0.49687353 -0.44408104 0.12268439
000120 8b 4d 11 be c9 4c 65 3f fb ca 43 bd 0b d5 6a 3f
       -0.14189737 0.8957029 -0.047801 0.9173133
000130 27 70 37 bf 6e d4 a4 3d 6b 56 de 3e 9c 58 79 3f
       -0.71655506 0.0804833 0.43425307 0.9740083
000140 fe f6 52 be a9 4a 30 bf d4 6d 5e be c7 bd 49 3f
       -0.20602033 -0.6886392 -0.21721584 0.788052
000150 6c d5 12 bc 3f 46 77 bf e8 86 7f 3f 81 eb a7 3e
       -0.008962017 -0.9659156 0.99815226 0.32796863
000160 a3 c3 b3 3f af d6 a5 bd af c3 33 3f b9 00 93 3c
       1.4044079 -0.08097588 0.70220464 0.01794468
000170 1b 30 cb 3f ac 81 01 3f fe 70 0e bf 91 f9 67 3e
       1.5874056 0.5058849 -0.5564116 0.22653796
000180 ad 50 94 be bd 0e 14 3d 77 75 02 be 08 74 7a 3f
       -0.289678 0.036146868 -0.12740122 0.978333
000190 28 e5 5e bc 12 82 cb bf ae c8 ff 3e cd 7c f2 3e
       -0.01360444 -1.5899069 0.49957794 0.4736084
0001a0 ff 46 83 be 3e d1 16 bf 18 a7 f1 be a1 24 9d bd
       -0.25640103 -0.5891303 -0.47197795 -0.07673002
0001b0 5b 55 39 be 7c d5 48 3f c6 5c c8 b8 e2 fa de 3e
       -0.18098967 0.7845075 -9.5540236e-05 0.43550783
0001c0 0b 49 82 bf 56 6e 8a 3e 12 77 2a bf 44 02 53 be
       -1.0178541 0.27037305 -0.66587937 -0.20606333
0001d0 73 71 2d be 21 e8 bf be 8f 2b d5 3d 28 ee 6d be
       -0.16937809 -0.37481788 0.10408699 -0.2323538
0001e0 58 68 9e bf 9f 1f a1 bd 87 27 c5 be 9e 85 80 3e
       -1.2375593 -0.07867359 -0.3850672 0.25101942
0001f0 d3 47 33 bf 20 8c d7 bc da 70 c7 be 83 54 5d be
       -0.7003147 -0.026311934 -0.38953286 -0.2161427
000200 95 d9 87 3e bd f9 dd be af 9a 9a 3d 79 7b 39 3f
       0.2653319 -0.43354598 0.07549035 0.7245403
000210 2e 34 01 3f 6b 45 d0 bc 79 ad 60 be 8a eb dd be
       0.50470245 -0.025423726 -0.21941175 -0.43343765
000220 a4 31 ab 3e a1 ec 14 bf 35 1c c2 bf 95 13 f5 be
       0.3343631 -0.5817357 -1.5164858 -0.47866502
000230 37 0d 10 3f e0 03 bf 3e 9e bd 9b be 71 f6 37 3f
       0.56270164 0.37307644 -0.30418104 0.71860415
000240 17 ed 2b 3e cf 8b 82 3f 99 a0 c5 bd e6 4a 00 3f
       0.16789661 1.0198916 -0.09649772 0.50114286
000250 f0 f1 1a be 90 ab b7 be 0a bb bd 3f 40 fe 54 3e
       -0.15131354 -0.3587308 1.4822705 0.20800114
000260 f2 4b 48 3e 9e d3 ab 3e d2 dd cd bc 2e fa ca be
       0.19560221 0.3355989 -0.025130186 -0.39643997
000270 c6 65 b1 bc e2 98 51 bf 66 18 b8 bd a7 9a 3f bf
       -0.021654975 -0.81873906 -0.08989029 -0.74845356
000280 e3 ba bb bd c0 3b a3 bf 6c e6 3e 3f 50 26 87 bf
       -0.09166505 -1.2752609 0.74570346 -1.0558567
000290 00 e1 17 3e c9 cd 55 3e 23 6b 29 3e e3 45 03 3f
       0.14831924 0.20879282 0.16544776 0.51278514
0002a0 8b 5f c0 3e f0 08 a1 bf 8b b9 ff bd d8 1f 87 3e
       0.37572894 -1.2580853 -0.124865614 0.26391482
0002b0 93 ae 1e 3f 4b 0f 60 bd 39 00 9e be e5 91 dc be
       0.6198513 -0.054702085 -0.30859545 -0.4308006
0002c0 e9 c3 2a 3e 7c 09 c5 3e 5c 67 d0 3d 9f 43 a5 be
       0.16676296 0.38483799 0.10175964 -0.32278153
0002d0 45 14 07 3e ac 9e 01 bf 9f 0a 77 3f 91 13 98 be
       0.13191326 -0.5063274 0.9650058 -0.29702428
0002e0 52 c6 54 3f 81 0a 91 3f 53 f1 c3 3d 9d 9b 9a 3e
       0.8311511 1.133133 0.09567513 0.3019685
0002f0 85 18 49 bf 74 92 5b 3e 0e 06 bd bd 8f 13 4c 3d
       -0.7855304 0.21442586 -0.092296705 0.04982334
000300 c3 8d a2 bf 76 1a 03 3f 64 66 7c be 90 eb 5c bf
       -1.2699512 0.5121225 -0.24648434 -0.8629694
000310 78 e3 82 bf 79 37 19 bf f9 4d fa 3d 77 06 26 3f
       -1.0225668 -0.5985027 0.12221903 0.64853615
000320 f3 5e 85 bf e0 15 b0 3e aa cf 5a 3e 8c 1a b5 be
       -1.0419601 0.3439169 0.2136828 -0.35371816
000330 b8 6b 0b 3f 85 50 ad be 67 64 c2 3e 7b 6b aa bd
       0.5446124 -0.33850494 0.37967226 -0.083212815
000340 67 08 78 be 41 33 8b bf 17 3a b9 bf 41 f6 f3 be
       -0.24221955 -1.0875016 -1.4470853 -0.47648814
000350 22 f0 05 bd 0d 02 c8 bf 44 47 82 3c c6 4c 06 bd
       -0.03269971 -1.5625626 0.015903123 -0.03278806
000360 71 7d 41 3f 4e 14 2c bf e9 dc 1f 3e 45 87 07 3f
       0.75582033 -0.6721848 0.15611614 0.5294078
000370 8b 5c b2 3e 99 aa 23 3e 63 c9 f6 be 23 15 61 be
       0.3483623 0.15983047 -0.4820052 -0.2198072
000380 28 6b a3 be 2f 3b ab 3e eb 93 21 be ea b4 35 3f
       -0.3191769 0.3344359 -0.15779082 0.7097918
000390 4b fe 13 be 20 40 ef 3e d7 22 77 be be e8 2d bf
       -0.14452474 0.4672861 -0.24134384 -0.6793326
0003a0 8a 99 16 3f 52 6d 05 3f 63 f6 29 be ff 3e a0 3f
       0.5882803 0.52119935 -0.16597895 1.2519225
0003b0 ca 5e 2f bf 2a 9e 19 be a5 e9 d1 be 28 31 fe be
       -0.6850401 -0.15001741 -0.4099857 -0.49646878
0003c0 7d 07 78 3e 99 54 6a be 01 c7 44 3f 8c 4b 44 bf
       0.24221607 -0.22883834 0.76866156 -0.76677775
0003d0 82 02 25 bd 23 50 31 bf ba 7a 1c 3f 01 fb 92 bf
       -0.040285595 -0.69262904 0.61124766 -1.148285
0003e0 82 52 66 3c b7 73 22 3f c8 c0 fd 3d ed 4f 5f 3d
       0.014057757 0.63457817 0.12390286 0.054519583
0003f0 e4 41 35 3d 24 8d 35 3e 57 8e db 3d 79 e3 7a 3c
       0.04425229 0.17729622 0.107205085 0.015313023

rnn2.bias_ih f4 [300]
000000 49 48 78 bc c8 d6 13 3f aa 80 57 bf 06 98 d9 be
       -0.015153953 0.57749605 -0.841807 -0.42498797
000010 fc e2 5c bd 34 56 21 3e 1f 2c 85 3d 31 1b b9 be
       -0.053927407 0.1575554 0.06502556 -0.36153558
000020 ed aa cf 3d 9d 9a a7 be c7 57 82 bf ef 3f 9f bd
       0.101400234 -0.32735148 -1.0183038 -0.07775866
000030 82 77 51 bf 9d f0 12 bf 10 34 c9 be c7 d4 be be
       -0.8182298 -0.57398397 -0.39297533 -0.3727171
000040 ef 34 35 3f 87 df 99 be df fa 42 be cf 1c 63 bf
       0.70783895 -0.3005335 -0.19041012 -0.88715833
000050 df 59 86 be ca bc ea be 66 6f 7c bf 54 f1 2f be
       -0.2624044 -0.4584716 -0.9860748 -0.17181903
000060 76 49 0e bf db 8a da be 2f 09 9a be e9 e9 55 bf
       -0.5558084 -0.42684063 -0.30085132 -0.83560044
000070 b6 1e 49 be b8 97 cc ba 2c 87 07 bf 88 f6 6a 3d
       -0.19640622 -0.001560918 -0.5294063 0.057364017
000080 ea 44 6d be b0 e1 56 bf 22 53 82 3e f9 8b 06 bf
       -0.2317082 -0.8393812 0.2545405 -0.5255733
000090 1a e0 fa 3e f9 46 39 3d 72 9f 3f bf e4 41 e5 be
       0.489991 0.0452337 -0.7485267 -0.44776833
0000a0 01 d0 be be 29 a8 92 be 34 fe 00 3f 3d c7 8d bd
       -0.3726807 -0.2864392 0.50387883 -0.06922767
0000b0 01 4f 2a 3e 70 f8 28 bf f8 63 31 be 6b 54 be 3d
       0.166317 -0.66004086 -0.17323291 0.09293445
0000c0 89 88 45 bf 3f c4 06 be 77 ac ea be 18 8b c6 3d
       -0.7716146 -0.131608 -0.45834705 0.09694499
0000d0 61 86 06 bf 2f 12 5d be 80 17 51 3e a5 f2 b3 be
       -0.52548796 -0.21588968 0.20419121 -0.3514606
0000e0 be 6f 1c be e9 74 3c bf 89 24 0f bf 1d b7 9c 3d
       -0.15277001 -0.7361589 -0.55915123 0.076521136
0000f0 ad c0 8c 3e 57 e2 f4 3b b4 9b 9b 3e 97 22 49 bf
       0.2749075 0.007473271 0.3039223 -0.78568405
000100 21 3e 45 bf 7a 62 28 bc 75 f0 6d be a1 39 37 3f
       -0.77047926 -0.010277385 -0.23236258 0.7157231
000110 0f ea 10 be 74 8f 3f bf 9e 8a 09 be 61 ae 8b be
       -0.14151786 -0.7482827 -0.13431785 -0.27281478
000120 fb 62 6c 3d 46 c4 94 be 05 30 88 bd a3 71 66 3f
       0.057711583 -0.29055995 -0.06649784 0.90017146
000130 ff 85 55 bf f4 90 07 bf db a9 bd be 10 c0 06 be
       -0.83407587 -0.52955556 -0.37043652 -0.13159204
000140 22 b8 26 bf 62 34 fb bc ef cb 4e bf e5 33 54 bf
       -0.65124714 -0.030664627 -0.8077993 -0.82891685
000150 2d 6b 7f be 52 75 99 3e 7e f2 91 bc a2 26 7c bf
       -0.24943228 0.2997232 -0.017815825 -0.9849645
000160 c0 51 02 bf d0 77 ee be 2a 8c 97 be 09 71 c1 3e
       -0.5090599 -0.46575785 -0.29599124 0.3778155
000170 69 e1 75 bf 74 39 cc be f5 0c 18 be 09 75 6d 3e
       -0.96047074 -0.39887583 -0.14848693 0.23189177
000180 81 ee db 3e 4b 15 d5 bd fd ea ed 3d b4 0d fe bd
       0.42955402 -0.10404452 0.11617086 -0.124049574
000190 1c 11 8f be 98 7d 65 bf 30 dd 7d bf 3f 29 8c bf
       -0.2794274 -0.89644766 -0.9916563 -1.0950087
0001a0 61 af 16 bf e5 37 ef 3f 78 8c a2 3f 52 11 a9 be
       -0.58861357 1.8688933 1.2699118 -0.33021027
0001b0 09 0b 43 bf fc fb ac 3e 30 c4 d5 be 3a cf 0c bf
       -0.76188713 0.33786 -0.41751242 -0.550037
0001c0 f9 d7 91 3e f7 cf a8 be 3a 45 a0 3f 4e ee e9 3e
       0.28485087 -0.32971165 1.2521126 0.45689625
0001d0 80 f9 28 bf cb d8 3c bf bd 9e eb 3f 6b d7 cf 3f
       -0.66005707 -0.737683 1.8407818 1.6237615
0001e0 9d 1f ba 3f d2 2d 5b bf b4 fe 5e 3f 38 5d d8 3f
       1.4540898 -0.8561679 0.87107396 1.6903448
0001f0 f3 bd 28 be b5 3c e6 be 98 6d 40 3f 37 93 9e bf
       -0.1647871 -0.4496819 0.75167227 -1.2388676
000200 c6 75 96 be 19 dd 28 3e 61 f0 85 bf 34 4b db 3d
       -0.2938673 0.16490592 -1.0463983 0.10707703
000210 21 c4 44 bf 66 88 76 bf 07 50 bb 3f 8b 48 d1 be
       -0.7686177 -0.9630188 1.4633797 -0.40875658
000220 b2 0d b3 bf 6d 96 85 3e bb d2 43 be 5c 45 9b be
       -1.3988554 0.26091328 -0.19123356 -0.30326355
000230 78 9c d0 3f 47 d4 c6 3f a6 64 e9 3d b4 f9 45 bf
       1.629775 1.5533532 0.1139615 -0.7733414
000240 a1 e4 82 3f 83 db 86 bd b8 fc bb 3f b9 96 bb be
       1.0226022 -0.06584837 1.4686499 -0.3663843
000250 c0 2c 0a 3e 07 c1 4c bf 18 94 50 bf d6 91 d5 3f
       0.13493633 -0.79982036 -0.81475973 1.6685131
000260 f3 e5 15 bf 5e c4 4a be 2b aa e1 be 85 45 c1 3f
       -0.58554 -0.1980147 -0.4407514 1.5099341
000270 1a 56 d2 3f 6c d9 1c bf a0 bf 0e 40 46 2c 6a bf
       1.6432526 -0.6126926 2.2304459 -0.91473806
000280 82 34 0a bf 16 74 bc 3f 5b ae 1e bd 1f f4 30 ba
       -0.5398637 1.4722927 -0.038740497 -0.0006750244
000290 34 81 15 bf 68 6a 4f bc d9 50 41 bf d1 f4 50 bf
       -0.58400273 -0.012659647 -0.7551399 -0.8162356
0002a0 e7 9c 8d bf 0a 5b 60 bf f1 67 b9 3f dc df bf 3f
       -1.1063508 -0.87638915 1.4484845 1.4990191
0002b0 f4 45 ac 3f c3 a8 d2 3f 20 be b4 3f 78 64 25 bf
       1.3458848 1.6457752 1.4120522 -0.6460643
0002c0 c3 46 f4 bd b2 02 41 bf 1d 9d 00 bf b8 56 87 3f
       -0.11927559 -0.7539474 -0.50239736 1.057334
0002d0 37 79 48 be ca d1 b8 3f a6 bc 97 be 1d 04 3c bf
       -0.1957749 1.4439023 -0.29636115 -0.73443776
0002e0 50 a2 ca bc 43 5e 08 bf d1 ce bd be de 01 09 bf
       -0.0247356 -0.5326883 -0.3707185 -0.53518474
0002f0 86 8c bf 3c 82 7a 09 3d 69 ae a4 be fc ed 9e 3f
       0.023382436 0.0335641 -0.32164314 1.2416377
000300 ee 36 35 3b 67 c7 42 bf 4f a3 f6 3f c5 bf 3d bf
       0.002765115 -0.76085514 1.9268588 -0.7412074
000310 bb 9e 04 be e3 0a bc 3f 94 db 42 3d 44 ac 4e bf
       -0.12951176 1.4690822 0.047572687 -0.80731606
000320 69 0a 94 3e bb 29 77 bf f5 bc aa be 99 4a 70 3f
       0.28914192 -0.9654805 -0.33347288 0.93863827
000330 6d 55 a8 bf c2 0f f7 bc 42 aa ef be fa 76 b5 bd
       -1.315107 -0.030158881 -0.46809584 -0.088605836
000340 09 50 8b 3e 7a 91 5d 3e ed e7 dd 3d f1 8f f7 3e
       0.272095 0.21637526 0.10835252 0.48352006
000350 d4 a1 5e 3d 61 7b bd 3e 87 39 99 be d9 2f da 3d
       0.05435355 0.37008193 -0.29926702 0.106536575
000360 98 87 c6 be 9c c3 04 3f f2 4e 50 be c2 0b 92 3e
       -0.38775325 0.51860976 -0.20342615 0.28524595
000370 b2 f7 58 3d d0 ad 99 be 37 82 3d 3f ad db 82 3c
       0.052970596 -0.3001542 0.7402682 0.01597389
000380 5a 45 8a 3e 94 b9 d8 3d 1b c3 73 3f 7d 7e 1c bf
       0.27006036 0.10582271 0.9521958 -0.61130506
000390 3e a2 6e 3f d0 1f 42 bf 22 ea 96 bc 74 6a d4 3e
       0.9321631 -0.7582979 -0.01842219 0.41487467
0003a0 da 54 5e be a8 70 2c 3c f2 b3 35 bf 89 66 ef be
       -0.21712056 0.010524906 -0.709777 -0.46757916
0003b0 98 d9 64 3f 5d 11 11 3e 75 af 53 be 2a f4 07 be
       0.8939452 0.1416678 -0.206724 -0.13276735
0003c0 14 5c 4c be 28 a8 2f be fb 3a b6 be 51 c5 4e 3f
       -0.19957 -0.1715399 -0.35591874 0.8076983
0003d0 9d 77 19 bf 20 33 73 3e b4 ca 8c 3d c7 14 34 3e
       -0.5994814 0.23749971 0.068746 0.17586051
0003e0 e7 c0 4f be 29 13 6d bf 81 83 ee bd fe 4f 2e bf
       -0.2028843 -0.9260736 -0.11646176 -0.6809081
0003f0 8e 3c 94 bf 8c 10 12 3f 10 78 5d bf b3 73 9a 3e
       -1.158098 0.570565 -0.86511326 0.30166396
