Results/Complete Sherlock Holmes/RNN/Adam/1/100/model.pt (torch, 123551 bytes, 6 tensors)

rnn.weight_ih f4 [100, 100]
-0.5889408 -0.62989736 -1.50448 -1.4286289 -1.5507177 -0.2896894 -1.0131648 -0.552033
-1.1987227 -0.6483705 3.5973642 1.2525805 -1.4659376 4.966584 -2.2004783 -1.6030662
-0.22960734 1.2776747 -1.4302839 -2.372911 0.73116773 1.3314911 0.08346927 -0.74845856
-2.7629447 2.5943947 3.916734 2.2094274 -1.4489485 1.5576844 2.8944 2.3638747
4.6169734 0.055693306 -3.7820833 -1.1237462 2.079348 -0.7450975 0.090101294 1.5555581
-1.3909271 0.1362975 -0.34158453 -1.5474696 -1.6942303 -1.6844425 0.3236526 -1.2507902
-2.0030046 -0.68077093 -0.28885418 0.580642 0.84419316 0.61646765 -2.4068913 1.368456
-2.234714 -0.08532419 2.565531 -0.6322296 -1.4071945 0.71219456 -1.0647146 -0.7039586
0.03996285 0.060837485 -0.020061955 0.56391513 3.8219008 -0.018812595 0.23340969 -0.06767106
-0.07473387 2.849571 0.9576337 -0.47344962 -0.01671584 -0.93058336 1.8291172 -0.09410409
-0.052956022 0.007477984 0.6289766 -0.045632996 0.98183995 0.036882885 -0.8938089 0.022636548
-0.07072822 0.01244586 -0.008724079 0.0662759 0.036207415 0.020077527 3.8276434 -0.028036632
0.13294289 -0.0069018453 -0.026205681 -0.08278608 1.0787934 1.2947518 -0.030977944 0.3613697
-0.5290844 -0.09955197 0.118522525 -0.7701112 0.050364826 0.09787355 -3.5055592 3.0915945
-3.1527548 1.4302508 4.070406 -2.9181106 -2.9956632 -0.53562117 2.0755873 -3.0323026
-0.6020658 -0.16127092 -3.678682 0.08820581 0.44918355 -2.4759293 -3.2116818 1.160175
-3.19055 1.109927 1.3790948 -3.2700312 3.3985448 2.777182 -2.9388428 0.23627932
-1.3888721 1.2262883 -1.4737198 1.1163079 0.8517152 -0.54170614 -1.3685157 1.3430895
-0.36398715 -0.6797035 -0.8618924 -0.6831936 0.9883656 1.3626403 2.3553832 0.4307631
-1.5512112 0.88594025 -2.8876731 1.173179 0.21721981 -2.5341196 2.7655878 -0.25594172
-4.1237397 0.19744626 1.7669622 -2.2988257 -0.09773606 0.043981202 -0.007952049 -1.5049679
-3.0605056 -0.21916252 -0.30346313 0.39618757 -0.044616796 -1.5696114 -2.262392 -1.2287847
-0.08419621 -1.4540038 -1.04457 0.02102679 -0.027599946 0.09108872 1.6739678 -0.054487552
-0.45408195 0.0032285675 -1.532992 -0.049053323 0.067893215 -0.37499884 -0.05028646 0.060877033
0.056256108 -0.08314724 -2.2709966 -0.030195192 -3.2793417 0.02812954 0.0031562597 -0.045058932
-0.3167165 -2.1627555 -1.5881286 -1.7344553 -1.5290382 -0.5198303 -1.0194343 -1.06673
-1.172897 -0.50064045 -0.71395934 0.3187513 -1.1735082 2.6024587 -2.5228198 -0.34308717
3.2145672 -2.4221108 -3.9227943 1.7526574 2.1104636 3.3509176 4.926936 -2.8093855
2.1954713 -1.3775465 3.2229946 -1.5231497 -1.3736576 0.14842118 -3.0594568 2.6986425
-2.1953173 -0.6983441 -1.2081676 -0.5215055 1.3910209 0.2258404 2.215119 1.465169
-0.3424344 -0.022385238 1.0590261 1.1687001 -1.5912203 0.83666253 1.3455443 2.5234146
-1.0725281 -1.049585 1.6333514 0.14974134 1.9371628 1.1637832 -1.3783828 1.6196465
00000000: d3c4 16bf f440 21bf cd92 c0bf 50dd b6bf
00000010: eb7d c6bf 2b52 94be 62af 81bf 0952 0dbf
00000020: bf6f 99bf 9cfb 25bf 373b 6640 8f54 a03f
00000030: d8a3 bbbf 42ee 9e40 a3d4 0cc0 4631 cdbf
00000040: 301e 6bbe d88a a33f 8b13 b7bf c6dd 17c0
00000050: cf2d 3b3f 4d6e aa3f f0f1 aa3d fb9a 3fbf
00000060: 16d4 30c0 900a 2640 c5ab 7a40 4267 0d40
00000070: 2577 b9bf 3462 c73f d93d 3940 b949 1740
00000080: 3fbe 9340 aa1e 643d a70d 72c0 ead6 8fbf
00000090: 0a14 0540 b6be 3ebf 0787 b83d 871c c73f
000000a0: e609 b2bf 9291 0b3e 2be4 aebe 7c13 c6bf
000000b0: 8adc d8bf d09b d7bf cbb5 a53e e519 a0bf
000000c0: 3a31 00c0 0147 2ebf b2e4 93be f4a4 143f
000000d0: 0b1d 583f d3d0 1d3f 820a 1ac0 9129 af3f
000000e0: 8e05 0fc0 73be aebd a931 2440 cdd9 21bf
000000f0: f31e b4bf 6252 363f 9148 88bf a136 34bf
00000100: 16b0 233d ba30 793d f858 a4bc be5c 103f
00000110: 069a 7440 df1c 9abc f302 6f3e 2097 8abd
00000120: 120e 99bd 5f5f 3640 7b27 753f fd67 f2be
00000130: a8ef 88bc b63a 6ebf 8320 ea3f a5b9 c0bd
00000140: 6ae8 58bd e009 f53b 9c04 213f aae9 3abd
00000150: dd59 7b3f 8212 173d a9d0 64bf 4870 b93c
00000160: f5d9 90bd b8e9 4b3c 70ef 0ebc a9bb 873d
00000170: 3a4e 143d a079 a43c 1cf8 7440 14ad e5bc
00000180: 2e22 083e e028 e2bb 4cad d6bc c08b a9bd
00000190: e715 8a3f 6dba a53f 75c5 fdbc 7305 b93e
000001a0: 1372 07bf e7e1 cbbd f0bb f23d 0226 45bf
000001b0: 594b 4e3d ee71 c83d 155b 60c0 afdc 4540
000001c0: bcc6 49c0 7512 b73f c440 8240 53c2 3ac0
000001d0: f2b8 3fc0 781e 09bf 6cd6 0440 3f11 42c0
000001e0: fc20 1abf 3424 25be 876f 6bc0 3fa5 b43d
000001f0: 63fb e53e a075 1ec0 328c 4dc0 9d80 943f
00000200: f931 4cc0 1712 8e3f 2e86 b03f 3148 51c0
00000210: c281 5940 5abd 3140 0016 3cc0 35f3 713e
00000220: 90c6 b1bf 04f7 9c3f daa2 bcbf 2de3 8e3f
00000230: 020a 5a3f 41ad 0abf 862b afbf 5bea ab3f
00000240: 865c babe 0c01 2ebf fba4 5cbf c7e5 2ebf
00000250: 8705 7d3f ff6a ae3f 99be 1640 fb8c dc3e
00000260: 178e c6bf fbcc 623f a3cf 38c0 bb2a 963f
00000270: df6e 5e3e 042f 22c0 64ff 3040 cb0a 83be
00000280: adf5 83c0 5a2f 4a3e d12b e23f f61f 13c0
00000290: d829 c8bd a225 343d 5049 02bc caa2 c0bf
000002a0: 53df 43c0 246c 60be 855f 9bbe 19d9 ca3e
000002b0: 1ac0 36bd 07e9 c8bf 08cb 10c0 d148 9dbf
000002c0: 106f acbd cc1c babf 78b4 85bf 6040 ac3c
000002d0: 4819 e2bc b98c ba3d 9444 d63f 572e 5fbd
000002e0: 6e7d e8be 6096 533b 1539 c4bf 23ec 48bd
000002f0: 990b 8b3d d9ff bfbe 2df9 4dbd 325a 793d
00000300: ce6c 663d 1a49 aabd 0258 11c0 e85b f7bc
00000310: bce0 51c0 ec6f e63c 40d9 4e3b b78f 38bd
00000320: aa28 a2be 966a 0ac0 cc47 cbbf a202 debf
00000330: 86b7 c3bf 9913 05bf d37c 82bf 9c8a 88bf
00000340: 7d21 96bf f929 00bf 0ac6 36bf 5f33 a33e
00000350: 8435 96bf af8e 2640 e175 21c0 1fa9 afbe
00000360: 78bb 4d40 dd03 1bc0 100f 7bc0 1457 e03f
00000370: d611 0740 6f75 5640 76a9 9d40 f9cc 33c0
00000380: 9a82 0c40 7253 b0bf 8b45 4e40 92f6 c2bf
00000390: 03d4 afbf b9fb 173e 24ce 43c0 8fb6 2c40
000003a0: 1480 0cc0 aec6 32bf 3ca5 9abf 6281 05bf
000003b0: f90c b23f b542 673e 82c4 0d40 a88a bb3f
000003c0: 9053 afbe 3f61 b7bc 2b8e 873f f797 953f
000003d0: 1bad cbbf 842f 563f cc3a ac3f a07f 2140
000003e0: 9a48 89bf cd58 86bf a911 d13f cb55 193e
000003f0: f3f4 f73f d9f6 943f d96e b0bf 9450 cf3f

rnn.weight_hh f4 [100, 100]
-0.017188018 -0.31188664 0.0833003 -0.30541384 -0.0718907 0.31404144 0.06432196 0.94589853
0.32235986 -0.37648997 -0.2712285 0.06935038 0.08113778 0.417964 0.38735703 0.110086255
-0.07365472 -0.1584497 -0.0531597 -0.3042417 0.12395797 -0.34054193 0.24856828 0.05916684
0.08932672 0.46423286 0.4190493 -1.105892 -0.106812604 0.5938841 -0.28139704 0.91351664
-0.2819121 0.36255398 0.6143199 -0.020661073 -0.21579409 -0.5338803 0.4031755 -0.028302617
0.32162753 -0.2262079 0.15620287 0.07731245 -0.024818543 0.24484214 -0.42899418 0.093379624
0.06605285 -0.13582833 -0.3937079 -0.5440831 0.09761914 0.17041235 -0.17867115 0.04477353
0.56786036 -0.11224304 -0.4569521 0.09577836 -0.2666322 0.25580454 -0.06336483 0.23102118
0.21965355 -0.09148795 0.047895115 0.008569293 0.22626953 -0.07665099 -0.67851055 -0.39061362
0.41780898 -0.38396615 0.0641362 -0.15414514 -0.026453502 0.1806377 0.04270867 0.128055
0.2232043 0.38743928 -0.52659005 0.025120879 -0.1889142 0.10883874 0.49782526 0.015517351
-0.2924384 0.12837663 0.36451665 -0.03665891 0.01617044 -0.109081745 -0.14071645 0.22167547
0.8223345 -0.0199769 -0.46689513 0.27091673 -0.08748592 -0.38697752 -0.15628326 0.29242423
0.07340779 -0.042160884 -0.26250637 0.18208422 -0.1717341 -0.23705688 0.18641739 -0.4489576
-0.075490795 -0.017578958 -0.30558464 -0.2874125 0.19416472 -0.8726339 0.14849167 0.141909
-0.0033223599 0.43987718 -0.35511014 0.014431687 -0.5842898 -1.0836159 -0.04245766 0.12759534
0.34301886 0.46793702 -0.32124212 0.57006246 0.25180727 -0.080765255 -0.06608024 0.29983038
-0.16145773 -0.323636 -0.10450266 -0.1966551 0.13087578 -0.10423706 0.11259714 -0.058744613
0.25268617 -0.21743394 0.15828088 0.06247949 0.12279525 0.22240975 -0.124601625 0.21929039
-0.264761 0.23470296 0.14820586 -0.022342136 0.08488933 -0.38542894 0.09514968 -0.34155086
0.029169677 0.048951093 0.16200416 -0.3688607 -0.3067255 0.008685414 0.04713797 0.42574397
0.017524945 0.47005028 0.4507721 0.12751001 0.16188835 -0.09384887 -0.1228338 -0.471389
0.009395792 0.16123395 0.25402728 -0.10598187 0.05081586 -0.11047528 -0.6376517 -0.12298294
0.23817274 -0.2291162 0.007185799 0.04832838 -0.30318037 0.10969677 0.027306287 0.31042272
-0.4276662 -0.5063564 -0.2834921 -0.019443773 -0.47645152 -0.20913655 0.3885442 -0.2330703
-0.23665184 -0.19980441 -0.27912834 -0.037052535 0.06810697 -0.041092835 0.14979449 -0.023514234
0.09720997 0.11024491 0.121812694 0.18327129 -0.15118477 -0.12970926 -0.077698015 0.2466832
0.35175294 0.27345484 -0.16746046 -0.16805816 0.19653143 0.09395381 0.24326946 -0.09990938
0.052922092 0.5929548 -0.31947702 -0.1636638 0.29992428 0.173866 -0.038413953 0.2212379
-0.57461715 0.26904684 -0.30172524 -0.064286634 0.33589008 -0.059242275 -0.21805428 0.033150632
-0.19590595 0.10085432 0.18464749 0.04897312 -0.15079574 0.2397167 -0.10306673 0.41040713
0.039275233 -0.045697194 0.4980665 0.105583474 0.15607417 -0.28446856 -0.14712912 -0.071162455
00000000: e3cd 8cbc 9baf 9fbe 5999 aa3d 345f 9cbe
00000010: 6e3b 93bd 0aca a03e 3bbb 833d 6826 723f
00000020: 5a0c a53e 4bc3 c0be 76de 8abe 9207 8e3d
00000030: 902b a63d 61ff d53e a953 c63e e774 e13d
00000040: 49d8 96bd a340 22be fcbd 59bd 91c5 9bbe
00000050: addd fd3d 835b aebe af88 7e3e ee58 723d
00000060: edf0 b63d eeaf ed3e a18d d63e de8d 8dbf
00000070: 91c0 dabd ca08 183f 4613 90be 3adc 693f
00000080: c856 90be ada0 b93e 1244 1d3f 6941 a9bc
00000090: 20f9 5cbe 61ac 08bf 056d ce3e e4da e7bc
000000a0: 5dac a43e 0ba3 67be a5f3 1f3e fd55 9e3d
000000b0: 4250 cbbc e6b7 7a3e 20a5 dbbe d13d bf3d
000000c0: b746 873d 9516 0bbe 1594 c9be 0849 0bbf
000000d0: 8bec c73d 9380 2e3e 92f5 36be 7364 373d
000000e0: 4c5f 113f aedf e5bd a0f5 e9be 7227 c43d
000000f0: 0484 88be d0f8 823e 6cc5 81bd d190 6c3e
00000100: dcec 603e 095e bbbd ab2d 443d 3866 0c3c
00000110: 33b3 673e 32fb 9cbd deb2 2dbf 82fe c7be
00000120: 0feb d53e 3697 c4be d759 833d 39d8 1dbe
00000130: 04b5 d8bc 17f9 383e 49ef 2e3d da20 033e
00000140: ab8f 643e 715e c63e 9bce 06bf 4dca cd3c
00000150: b972 41be d8e6 de3d f4e2 fe3e 7d3c 7e3c
00000160: 7cba 95be 2a75 033e eda1 ba3e a727 16bd
00000170: df77 843c 4066 dfbd f917 10be e5fe 623e
00000180: 8484 523f 99a6 a3bc e10c efbe 99b5 8a3e
00000190: d12b b3bd eb21 c6be b808 20be a1b8 953e
000001a0: d356 963d e4b0 2cbd 3c67 86be 4974 3a3e
000001b0: 10db 2fbe 0abf 72be 33e4 3e3e c5dd e5be
000001c0: eb9a 9abd bf01 90bc 9775 9cbe bb27 93be
000001d0: 1ed3 463e ef64 5fbf 330e 183e 9850 113e
000001e0: f3bb 59bb 9537 e13e ffd0 b5be e272 6c3c
000001f0: 0494 15bf edb3 8abf 15e8 2dbd 5aa8 023e
00000200: 2ba0 af3e 7195 ef3e d979 a4be 9def 113f
00000210: e2ec 803e 4168 a5bd 1455 87bd 5e83 993e
00000220: 2d55 25be 9eb3 a5be 7e05 d6bd f45f 49be
00000230: 4d04 063e 3d7a d5bd 5499 e63d 319e 70bd
00000240: 1560 813e 01a7 5ebe 6214 223e 7eea 7f3d
00000250: 137c fb3d 62bf 633e 232f ffbd a98d 603e
00000260: c18e 87be f955 703e 47c3 173e db06 b7bc
00000270: 75da ad3d f156 c5be d6dd c23d c1df aebe
00000280: 3ff5 ee3c f180 483d 6be4 253e 4fdb bcbe
00000290: 200b 9dbe 444d 0e3c be13 413d 1dfb d93e
000002a0: 7990 8f3c 6eaa f03e 9acb e63e fc91 023e
000002b0: 0fc6 253e d633 c0bd 4a90 fbbd e659 f1be
000002c0: cff0 193c 831a 253e dd0f 823e 060d d9bd
000002d0: 4b24 503d dd40 e2bd 243d 23bf 7bde fbbd
000002e0: 8ee3 733e 709d 6abe da76 eb3b fbf3 453d
000002f0: 753a 9bbe b3a8 e03d 6fb1 df3c baef 9e3e
00000300: 10f7 dabe 93a0 01bf e025 91be 8c48 9fbc
00000310: 74f1 f3be e427 56be 44ef c63e fba9 6ebe
00000320: dc54 72be 8799 4cbe e9e9 8ebe 66c4 17bd
00000330: ab7b 8b3d f650 28bd ba63 193e eca0 c0bc
00000340: 0516 c73d 15c8 e13d ef78 f93d 78ab 3b3e
00000350: 2ed0 1abe 81d2 04be 2320 9fbd 859a 7c3e
00000360: f618 b43e 4602 8c3e c17a 2bbe 7017 2cbe
00000370: 893f 493e db6a c03d a11b 793e 4a9d ccbd
00000380: d6c4 583d e3cb 173f 7e92 a3be 7c97 27be
00000390: ad8f 993e ee09 323e f357 1dbd 308c 623e
000003a0: 1c1a 13bf 82c0 893e bb7b 9abe b6a8 83bd
000003b0: c9f9 ab3e 07a8 72bd 9f49 5fbe f5c8 073d
000003c0: 929b 48be b68c ce3d 3b14 3d3e 0a98 483d
000003d0: 336a 1abe 4b78 753e a614 d3bd e220 d23e
000003e0: 11df 203d fb2c 3bbd 9302 ff3e 263c d83d
000003f0: e8d1 1f3e dda5 91be 04a9 16be 9fbd 91bd

rnn.bias_ih f4 [100]
0.7540035 -1.0009972 -0.024143457 -0.836085 0.41871467 -0.6620051 0.5191294 -0.13905229
-0.52348375 -0.30619282 0.88208425 0.2579648 0.023874925 -0.44325224 0.3540702 -0.8149864
-1.3114581 -0.018532906 0.3713241 -0.15117267 0.19673125 -0.8068668 0.06946187 0.25914446
-0.7252918 -0.33559144 -0.052718587 -0.7217076 -0.5176937 -0.17593966 -0.5314929 -0.5330324
0.5785174 0.15541375 -0.47725126 -0.5881876 -0.50421494 -0.12078149 0.5944826 -0.21546903
-0.29761577 0.13899967 -0.37428823 0.05581481 0.045748003 -0.25428477 -0.6714586 -0.25421882
0.49975726 -0.13142256 -1.185153 0.4520809 0.11015459 0.052408215 -0.63422316 0.1463375
0.052645463 -1.0993096 -0.87862945 -0.22319785 -0.7835017 0.7604333 0.24417095 0.76453966
0.9806207 -0.026725544 0.0031481718 0.070165895 -0.11248287 -0.92062014 0.5334591 -0.17675105
0.24530646 0.29193074 0.30217108 0.08522446 0.33377308 -1.0210248 -0.9148253 -0.05528529
0.30117235 0.24880454 -0.20876238 0.13524109 -0.24702176 0.122989655 -0.5429125 0.12669624
0.24980737 -0.14707126 -0.28152034 -0.26736304 0.68431205 -1.3165017 0.29637015 -0.0019102452
0.39370978 -0.557111 -0.15886937 -0.11762783
00000000: 6006 413f ad20 80bf 80c8 c5bc ab09 56bf
00000010: c561 d63e 2b79 29bf aae5 043f b963 0ebe
00000020: 0803 06bf 4ec5 9cbe 46d0 613f f613 843e
00000030: 5995 c33c f5f1 e2be b048 b53e f3a2 50bf
00000040: dcdd a7bf 52d2 97bc 311e be3e 02cd 1abe
00000050: eb73 493e d38e 4ebf 0642 8e3d 95ae 843e
00000060: b9ac 39bf a4d2 abbe 72ef 57bd d4c1 38bf
00000070: 9387 04bf 8729 34be eb0f 08bf d074 08bf
00000080: b719 143f c824 1f3e 475a f4be 7693 16bf
00000090: 3b14 01bf 495c f7bd 0330 183f eaa3 5cbe
000000a0: 1861 98be ee55 0e3e b5a2 bfbe 129e 643d
000000b0: 4262 3b3d 9d31 82be b6e4 2bbf f828 82be
000000c0: 2fe0 ff3e a393 06be 18b3 97bf 2677 e73e
000000d0: bb98 e13d ffa9 563d 735c 22bf 7fd9 153e
000000e0: c5a2 573d 2db6 8cbf dced 60bf fa8d 64be
000000f0: 9193 48bf c2ab 423f f307 7a3e dfb8 433f
00000100: f509 7b3f 87ef dabc 8f51 4e3b 23b3 8f3d
00000110: 6b5d e6bd c3ad 6bbf c790 083f 3afe 34be
00000120: 9e31 7b3e f277 953e 2bb6 9a3e 298a ae3d
00000130: 4ee4 aa3e f1b0 82bf fe31 6abf d472 62bd
00000140: 4333 9a3e 9ec6 7e3e cec5 55be a47c 0a3e
00000150: 46f3 7cbe 00e2 fb3d 50fc 0abf a9bc 013e
00000160: 81cd 7f3e d999 16be 6f23 90be cfe3 88be
00000170: 132f 2f3f 2183 a8bf d4bd 973e 3161 faba
00000180: 5494 c93e d49e 0ebf a7ae 22be dce6 f0bd

rnn.bias_hh f4 [100]
0.919491 -0.96892333 -0.005052077 -0.8458556 0.33646163 -0.4905728 0.4977116 -0.1953373
-0.5788616 -0.1797418 0.92745924 0.23572159 0.019452728 -0.4854416 0.17702962 -0.74071497
-1.2086283 0.14303668 0.3395663 -0.15900005 0.29806712 -0.8918908 0.12909658 0.32600722
-0.65510577 -0.35937372 -0.09074647 -0.66452366 -0.48143086 -0.29280725 -0.39698312 -0.59394526
0.7130705 0.15141389 -0.36117917 -0.5506163 -0.42229065 -0.070554666 0.6629927 -0.19802156
-0.1615543 0.08997718 -0.39702818 -0.034845054 0.107039385 -0.25224903 -0.62662274 -0.27334747
0.5418704 -0.20509204 -1.2203168 0.5683434 0.057930034 -0.12166781 -0.61428463 0.33550307
0.013398689 -1.2097363 -0.7766359 -0.36007202 -0.8022394 0.8594076 0.23433171 0.6896672
0.95786583 -0.097067066 0.012514972 0.05614986 -0.1704781 -0.85669404 0.533107 -0.3332738
0.24287248 0.4326928 0.27376056 0.03568948 0.15013044 -1.0050814 -0.92851686 -0.023038674
0.384165 0.06667045 -0.17145944 0.019241907 -0.19224055 0.15450342 -0.52316844 0.26725
0.4124139 -0.07079674 -0.24309364 -0.2556626 0.73900396 -1.4202653 0.32621267 -0.021634424
0.46678215 -0.59031355 -0.16808896 -0.21527763
00000000: c363 6b3f 5c0b 78bf e58b a5bb fe89 58bf
00000010: b344 ac3e 5c2c fbbe 0ed4 fe3e 8006 48be
00000020: 4630 14bf 3c0e 38be f86d 6d3f 0061 713e
00000030: 545b 9f3c cd8b f8be 4147 353e 7f9f 3dbf
00000040: 55b4 9abf 3578 123e a2db ad3e e9d0 22be
00000050: 419c 983e f552 64bf e531 043e 6bea a63e
00000060: 03b5 27bf d5ff b7be 49d9 b9bd 391e 2abf
00000070: 1b7e f6be d5ea 95be 5f41 cbbe cc0c 18bf
00000080: ca8b 363f 3e0c 1b3e 7aec b8be 31f5 0cbf
00000090: 7b36 d8be f77e 90bd e4b9 293f 2ac6 4abe
000000a0: 7e6e 25be f545 b83d 4747 cbbe b0b9 0ebd
000000b0: 7737 db3d c926 81be 596a 20bf 33f4 8bbe
000000c0: 05b8 0a3f a603 52be 5733 9cbf f47e 113f
000000d0: 0b48 6d3d f92c f9bd c241 1dbf 0fc7 ab3e
000000e0: 2d86 5b3c a4d8 9abf 9cd1 46bf 5c5b b8be
000000f0: 905f 4dbf 2302 5c3f a7f4 6f3e 088e 303f
00000100: b236 753f 19cb c6bd 990b 4d3c 65fd 653d
00000110: d091 2ebe 4d50 5bbf b379 083f dda2 aabe
00000120: 90b3 783e e989 dd3e 582a 8c3e 222f 123d
00000130: cbbb 193e 82a6 80bf 48b3 6dbf 9abb bcbc
00000140: 46b1 c43e 848a 883d 1093 2fbe 34a1 9d3c
00000150: b5da 44be 2536 1e3e 5eee 05bf fed4 883e
00000160: ea27 d33e e2fd 90bd 8aed 78be 35e6 82be
00000170: 5d2f 3d3f 41cb b5bf 5905 a73e ad3a b1bc
00000180: 12fe ee3e ca1e 17bf 831f 2cbe bd71 5cbe

linear.weight f4 [100, 100]
-0.5204425 0.7800552 -0.44030112 0.5345665 0.7400342 -0.056503795 -0.33836442 -0.2523662
-0.20554478 0.53866756 -0.6277711 -0.67389387 -0.2895153 0.09370829 -0.2434197 0.10299568
0.1715534 -0.9101091 -0.3591283 -0.2183597 1.0042092 0.30837166 0.25697452 -0.38392055
0.12382047 0.285221 0.07922995 0.19695313 -0.1653661 0.7410767 -0.18247917 0.14023325
-0.25242266 0.3220955 0.29408532 -0.41887236 0.5419575 0.19457936 -0.15036757 0.31073755
0.49637887 0.06536331 0.19588345 0.3382312 0.35265926 0.16075887 0.09616053 0.6055995
0.059812356 0.9075758 0.33641824 0.44778398 0.2283093 -0.04615398 -0.11040939 -0.22036025
-0.481088 -0.070105016 0.39958215 0.17064567 -0.3269155 -0.14331941 -0.43978655 -0.06173059
-0.09696654 0.9784005 0.01968361 -0.5267738 -0.14888306 0.40896162 0.104778014 0.15145601
0.36886892 -0.3402536 0.05610254 -0.61845404 -0.28882962 -0.17440814 0.5849664 -0.3061282
-0.31308243 -0.20365667 0.8478474 -0.16186845 0.28289223 0.39491838 0.9200734 0.5163074
-0.02381733 -0.06323457 0.040623333 0.18754454 -0.258131 0.4058356 -0.62613606 -0.18162107
-0.4100993 0.18733217 -0.21115735 0.29517055 -0.26342055 0.26042557 -0.51987916 0.5046589
0.27963534 -0.12914458 -0.59985286 0.25989902 -0.14689653 0.37511393 -0.16162011 -0.46209267
0.35421818 0.23719455 -0.056988016 0.04438424 0.32045814 -0.5132814 0.19057189 -0.34167907
0.011698749 0.19799727 0.3057556 -0.26368418 0.7283071 -0.42021948 -0.10767962 0.2441864
-0.11470113 0.48287216 -0.080827326 0.09499252 -0.4829796 0.34484798 0.21294464 0.047739204
0.022972483 0.02064827 -0.24980603 0.30975553 0.11170634 -0.45239642 0.1492639 0.22418545
0.53497875 0.085334785 -0.03886694 -0.107420444 -0.35703284 0.18746328 0.52438897 0.36767665
0.25356445 0.018326998 0.2475006 -0.31528097 0.078495465 0.13577268 0.31983194 -0.33752885
0.18421514 -0.26104173 0.29021937 -0.17271677 -0.2815135 0.5905793 0.14050604 -0.058766104
0.18256083 0.5993172 0.0492537 -0.053558283 0.17496255 -0.45431882 -0.45950297 -0.47304344
-0.52379423 0.1229178 0.48639527 -0.1984837 -0.037269033 0.5432635 0.37141886 -0.005637666
0.24173784 0.23580454 0.3841187 0.13091089 -0.41385302 0.29647657 -0.38971674 0.24029109
0.16430286 0.39295882 -0.3843494 0.114805475 0.034255918 0.06217901 -0.10336611 0.09869963
-0.50984025 0.4164568 -0.1687852 0.6274139 -0.098460026 0.31106448 -0.539334 0.28636774
0.059374433 0.45018196 -0.1564657 -0.17988802 -0.048567772 0.43378082 -0.17500137 0.3438787
0.44474405 -0.44740838 0.3957453 -0.27686408 0.36595872 0.23137279 -0.33212075 -0.3018196
0.4891677 -0.5134084 -0.21985549 -0.23990072 0.09751548 0.3847533 0.13883522 0.21497087
-0.17527263 0.047433414 0.028699616 0.37723953 0.09934326 0.1335155 -0.048965953 0.087671526
0.21129517 -0.5363223 0.23381525 0.22106087 0.015459934 0.005924972 0.28781715 -0.033787522
-0.24389961 0.33412978 0.124147974 -0.12282963 -0.0077928673 -0.05108833 -0.0823545 -0.088155515
00000000: b83b 05bf b3b1 473f 266f e1be 5ad9 083f
00000010: e272 3d3f 8670 67bd 1a3e adbe 2436 81be
00000020: 557a 52be 1ee6 093f 9bb5 20bf 4f84 2cbf
00000030: 593b 94be 22ea bf3d 0443 79be 66ef d23d
00000040: b2ab 2f3e e9fc 68bf aadf b7be af99 5fbe
00000050: ed89 803f e4e2 9d3e 2a92 833e 3c91 c4be
00000060: 9695 fd3d 7d08 923e 5043 a23d 15ae 493e
00000070: bb55 29be 34b7 3d3f d2db 3abe 4e99 0f3e
00000080: 8b3d 81be b4e9 a43e 5a92 963e 7076 d6be
00000090: babd 0a3f d03f 473e f5f9 19be fe18 9f3e
000000a0: 5f25 fe3e 33dd 853d ac95 483e a42c ad3e
000000b0: c18f b43e f99d 243e d0ef c43d 9208 1b3f
000000c0: cdfd 743d e356 683f 033f ac3e f143 e53e
000000d0: eac9 693e f50b 3dbd 511e e2bd 1ea6 61be
000000e0: 2b51 f6be 3893 8fbd 0896 cc3e bdbd 2e3e
000000f0: 7861 a7be 53c2 12be b42b e1be 37d9 7cbd
00000100: 6596 c6bd 7578 7a3f 863f a13c a6da 06bf
00000110: cd74 18be 6b63 d13e db95 d63d 4917 1b3e
00000120: 63dc bc3e b835 aebe c7cb 653d 0153 1ebf
00000130: 7ae1 93be 0c98 32be 5cc0 153f d6bc 9cbe
00000140: 574c a0be 608b 50be 870c 593f d8c0 25be
00000150: 40d7 903e be32 ca3e ee89 6b3f b92c 043f
00000160: 901c c3bc 2081 81bd a764 263d ad0b 403e
00000170: bf29 84be afc9 cf3e 744a 20bf e0fa 39be
00000180: 89f8 d1be 01d4 3f3e a239 58be 9820 973e
00000190: 0fdf 86be 8056 853e cd16 05bf 5331 013f
000001a0: 5d2c 8f3e 7a3e 04be f58f 19bf 7c11 853e
000001b0: 0b6c 16be ef0e c03e be7f 25be 6997 ecbe
000001c0: 165c b53e 21e3 723e 446c 69bd 40cc 353d
000001d0: 1713 a43e 6966 03bf 4725 433e 8ff0 aebe
000001e0: 1cac 3f3c ccbf 4a3e ff8b 9c3e 9d01 87be
000001f0: 5672 3a3f 0227 d7be 2287 dcbd 000c 7a3e
00000200: 6de8 eabd 053b f73e cc88 a5bd 708b c23d
00000210: 1a49 f7be ea8f b03e 290e 5a3e 2f8a 433d
00000220: ca30 bc3c 9026 a93c 27cd 7fbe 4798 9e3e
00000230: 4bc6 e43d 81a0 e7be a3d8 183e df90 653e
00000240: 5ef4 083f 01c4 ae3d f132 1fbd 40ff dbbd
00000250: 02cd b6be 60f6 3f3e 5b3e 063f 1d40 bc3e
00000260: 33d3 813e 8022 963c cc70 7d3e 826c a1be
00000270: 3bc2 a03d fe07 0b3e 03c1 a33e 95d0 acbe
00000280: e5a2 3c3e 43a7 85be a297 943e aadc 30be
00000290: 8a22 90be 3430 173f d1e0 0f3e bab4 70bd
000002a0: 3af1 3a3e da6c 193f 3fbe 493d ee5f 5bbd
000002b0: 6229 333e 7a9c e8be f943 ebbe c032 f2be
000002c0: 6117 06bf 54bc fb3d cd08 f93e 503f 4bbe
000002d0: 6aa7 18bd 5113 0b3f 9d2a be3e 2cbc b8bb
000002e0: 208a 773e bf76 713e 35ab c43e 810d 063e
000002f0: 8be4 d3be c7cb 973e f488 c7be de0e 763e
00000300: 023f 283e e631 c93e 72c9 c4be 221f eb3d
00000310: ef4f 0c3d 6baf 7e3d 9cb1 d3bd 0823 ca3d
00000320: e484 02bf d339 d53e 07d6 2cbe 339e 203f
00000330: 69a5 c9bd d843 9f3e cb11 0abf cb9e 923e
00000340: 9b32 733d 407e e63e 8b38 20be 9134 38be
00000350: 00ef 46bd 8518 de3e 8f33 33be de10 b03e
00000360: 7eb5 e33e b612 e5be 219f ca3e 21c1 8dbe
00000370: f15e bb3e fdec 6c3e bb0b aabe 1988 9abe
00000380: 3074 fa3e bc6e 03bf cc21 61be 89a8 75be
00000390: 32b6 c73d 62fe c43e d22a 0e3e 5321 5c3e
000003a0: ab7a 33be 8a49 423d 751b eb3c 8a25 c13e
000003b0: 7b74 cb3d 4ab8 083e 8690 48bd 218d b33d
000003c0: c35d 583e 6b4c 09bf 446d 6f3e c85d 623e
000003d0: aa4b 7d3c 4426 c23b c55c 933e c964 0abd
000003e0: d2c0 79be 0f13 ab3e 4b41 fe3d 1a8e fbbd
000003f0: 4f5b ffbb ff41 51bd 7aa9 a8bd e18a b4bd

linear.bias f4 [100]
-0.12315259 -0.2204058 -0.15998657 0.012844594 -0.2158974 0.031450115 -0.33039397 -0.33818224
-0.119574204 -0.2062028 0.3469576 -0.11206032 0.18587746 -0.1924651 0.28740454 -0.39594975
-0.21707727 0.12624918 0.10859961 -0.37269983 -0.56645876 0.20083375 0.17758654 0.107618466
0.08902594 0.14961165 -0.44881418 0.1058724 0.29702705 0.061838537 0.28111944 -0.21767116
-0.13951747 -0.55746937 -0.02881306 -0.66096544 -0.026184991 -0.3671597 -0.2720668 -0.247032
-0.18685757 -0.28947783 -0.21693608 -0.15793967 -0.14064282 -0.36330405 -0.326992 -0.21486348
-0.20571567 -0.15296008 -0.11516573 -0.26915926 -0.27460456 -0.31889978 -0.30392063 -0.08022526
-0.4237705 -0.26650712 -0.31375843 -0.25965643 -0.36924177 -0.24949831 -0.52118087 -0.2731346
-0.72732776 -0.74835896 -0.7798568 -0.45060825 -0.107171535 -0.30116382 -0.34216532 -0.3117978
-0.64633685 -0.027038451 -0.14068277 -0.055620927 -0.64088255 -0.49947494 -0.42684314 -0.7076542
-0.77043766 -0.64817256 -0.5420083 -0.79461646 -0.23319736 -0.78967786 -0.20420209 -0.8059047
-0.8096606 -0.4843167 -0.7861534 -0.7412861 -0.7660692 -0.7487158 0.65379107 -0.807197
-0.6716167 -0.7006951 -0.61240876 -0.6873728
00000000: 6d37 fcbd 0fb2 61be 85d3 23be 2272 523c
00000010: 3514 5dbe d6d1 003d 6629 a9be 3926 adbe
00000020: 52e3 f4bd d426 53be 6da4 b13e e27f e5bd
00000030: a956 3e3e 9215 45be b026 933e edb9 cabe
00000040: 8149 5ebe 7747 013e 7969 de3d 83d2 bebe
00000050: 7103 11bf 5da7 4d3e 3fd9 353e 1267 dc3d
00000060: 3b53 b63d cc33 193e f9ca e5be a1d3 d83d
00000070: ee13 983e 684a 7d3d e3ee 8f3e 30e5 5ebe
00000080: abdd 0ebe 50b6 0ebf 5e09 ecbc 0835 29bf
00000090: e881 d6bc 5bfc bbbe 574c 8bbe f5f5 7cbe
000000a0: 9757 3fbe 7036 94be 7e24 5ebe f0ba 21be
000000b0: ac04 10be fd02 babe 7f6b a7be 2c05 5cbe
000000c0: 21a7 52be 91a1 1cbe 03dc ebbd 3ecf 89be
000000d0: f898 8cbe d546 a3be 7c9b 9bbe 244d a4bd
000000e0: 72f8 d8be 9f73 88be f2a4 a0be b0f1 84be
000000f0: 420d bdbe 7c7c 7fbe 1c6c 05bf 4cd8 8bbe
00000100: 2732 3abf 7494 3fbf b2a4 47bf 20b6 e6be
00000110: c07c dbbd 2532 9abe 4b30 afbe f6a3 9fbe
00000120: 5576 25bf be7f ddbc 250f 10be c5d2 63bd
00000130: e110 24bf 2ebb ffbe 2f8b dabe d328 35bf
00000140: 673b 45bf a3ee 25bf 0ec1 0abf fc6b 4bbf
00000150: 4acb 6ebe 5428 4abf 5a1a 51be c54f 4ebf
00000160: eb45 4fbf 5cf8 f7be 5941 49bf edc4 3dbf
00000170: 1c1d 44bf d7ab 3fbf da5e 273f 76a4 4ebf
00000180: 12ef 2bbf c160 33bf d2c6 1cbf aaf7 2fbf
