Results/Complete Sherlock Holmes/RNN/ASGD/1/200/model.pt (torch, 324319 bytes, 6 tensors)

rnn.weight_ih f4 [200, 100]
00000000: e177 ab3d 3fa5 113d 2fd5 df3e 305c 413e
00000010: 082c 303e 3d18 623c 7a52 563e b4e3 ca3a
00000020: 6d78 8b3e 0c7e 103d 35d3 b5be 6001 aabe
00000030: db0f 13bf d746 2abe cf48 88bf f26c 61bf
00000040: 9221 363f c0f7 d4bf 787e 883e bd17 79bd
00000050: fba4 81bf 214c 373d 4c2c 27bf 79bd 9d3d
00000060: 1a0a 5b3e 9226 1fbf b4ec 78bd 643c b2be
00000070: 7052 c5be 026e c93d 300d 883e 8c0c 3dbf
00000080: 6fa9 6c3c 6121 11bf 94cc 593f 8f9a 08be
00000090: 5afe 00bf 11bd 203f 8b09 26be 39ed a43e
000000a0: 9369 f1bd c559 00bf 29f6 6ebe 9d47 7c3c
000000b0: 9d7f 4c3f bb4b ae3e 5bd0 06be 390e 1b3e
000000c0: bfdc 75bf f905 613e 1ec0 80be 8b0f 33bc
000000d0: 5e18 573e 84f0 253f a3ca 61be c4b1 db3e
000000e0: 3843 70be 8e80 05be 6d85 eb3e 34ab f6bc
000000f0: 9fde 5f3f 8483 cd3c 4319 dbbe 6df6 02bf
00000100: e084 9cbb 30f3 11bd 5216 383d ed46 15be
00000110: 63b1 283f 786d ac3c f8de c2bc 782d 073d
00000120: 0001 afbb b237 ef3e 3e60 79bf ad9c 60bd
00000130: f28f fdbc 43aa 423e 2d20 abbe 097b 80bd
00000140: 65d8 8c3d 0832 59bc e207 0c3e 4027 9a3b
00000150: 0bcc e1bd ff95 863d 762a 8bbd 5a4c 2abd
00000160: deb8 86bc 06f6 46bd 99a5 893d 1bb6 70bd
00000170: b0a9 0b3d 7005 a9bc 65fd 863e 04f6 70bc
00000180: 912b 533e 7cb6 88bd 6021 23bd 2e6f 393d
00000190: 5e04 12be 4b86 39bc d450 01bf e353 843e
000001a0: 1b0c 4b3d 625b 13bc e3b3 6dbe a22f b53e
000001b0: 2f9c 9ebe a073 2aba a9a6 36bf 04eb 5e3e
000001c0: 797b b03e 8c7f bdbe 77fe 193e bcfa 0a3f
000001d0: 4def a73d a5ea 00bf 9789 923d 67ac f43e
000001e0: 1092 433e f288 973e dc32 973d b73b bf3e
000001f0: 20e1 62be a6a6 fc3e c535 1fbf 2174 81be
00000200: d5cb 23bf 9773 8cbf 31fa f9bd cce8 733e
00000210: ad7c 11bf be6f f63e c3da 6e3e 7b16 8abe
00000220: 7ee4 6abe 185a c53d 1402 b5be 7f8c 7ebe
00000230: f70b c7bb 09d9 f0be a7ad 193f 5585 973e
00000240: 1656 97bd 858d 20bf 87f1 b23e 3091 7fbe
00000250: 085d cfbe 8ede e7be 4c99 1bbe b578 59be
00000260: 1c8c a1bd 11f0 4d3e 0ce4 9f3d 8365 ec3d
00000270: a77d 81be 4a18 efbe ce53 60be a5bc 90bd
00000280: 2328 0abf f29b 5ebd 4c17 cbbd 06aa 773e
00000290: 4cfc cf3c b8e8 23bd 14d0 9b3c 713e 723d
000002a0: 72e4 ea3e 966a 233d 301d c5bb 1c43 893c
000002b0: d134 8e3d 15c9 813e 25a4 073f 351c 903e
000002c0: fce7 403d 095c 8e3d bff6 143f 3a3e 92bc
000002d0: 80eb 64bb 30c4 b2bb 2d38 8cbe ae33 2d3d
000002e0: 17d9 cd3d 04cb 8e3c f011 e93d 8777 873d
000002f0: 85a8 7bbd 608a 2f3b ecc6 8c3c 0048 d2ba
00000300: 92ed 163d 70f9 5a3c 617d 7bbd a1b9 10bd
00000310: 2384 2cbe 86ba 073d c888 b93c 6cba 57bd
00000320: 5c7c 13be defc 0ebf 41ec 9dbe 7940 84be
00000330: 051f e43d dba8 a5bd b294 77be cabe c1bd
00000340: 1871 c2be 0b62 4b3c bb3b 403f 33e3 36be
00000350: 2d95 d2be cfcd dfbe 3456 d43e 7545 09bf
00000360: f1ac 23bf eaa9 443e e9b7 d33e 9631 2dbd
00000370: 1dd0 383f 3531 633f 11ea ac3e 1857 383f
00000380: 5973 2d3f dc93 dd3e b798 8abf 4075 403f
00000390: c401 d8bd ea3f 8bbf 19a3 ebbe d30d 8f3e
000003a0: 9c66 9dbe 2fc8 06bd 0ffb 7cbe 9c4d f2bb
000003b0: 294a 1d3f e12e 75bf feb4 1fbe f33d 7f3e
000003c0: c01a 55bf b991 613d b382 b9be 004f ca3e
000003d0: 2215 793e 2ec1 fbbd 8190 203d 7cb9 cdbd
000003e0: 8606 053f 5461 253f 3a99 ddbe c409 b83d
000003f0: a7b6 45be f063 08be c123 503e 7e74 15bf
0.083724745 0.03555798 0.43717334 0.18882823 0.17204297 0.013799724 0.209299 0.0015479238
0.27240315 0.035276458 -0.355127 -0.33204174 -0.5744607 -0.16628586 -1.064722 -0.8805686
0.71144974 -1.6638107 0.26658988 -0.060813654 -1.0128473 0.044750337 -0.65301967 0.07702155
0.21390572 -0.6216823 -0.060772613 -0.348117 -0.38539457 0.098354355 0.2657256 -0.7384727
0.014444693 -0.5669156 0.85077786 -0.1334021 -0.5038811 0.6278849 -0.16214578 0.32212237
-0.11787715 -0.5013698 -0.2333609 0.015397933 0.7988222 0.34042153 -0.13165419 0.15142144
-0.96039957 0.21974935 -0.25146574 -0.010928999 0.21005389 0.6482012 -0.22049956 0.42909062
-0.23463142 -0.13037321 0.46000233 -0.030110933 0.8744907 0.025087126 -0.4279271 -0.51157266
-0.004776582 -0.035632312 0.04494316 -0.14577837 0.6589567 0.021048293 -0.02378796 0.033002347
-0.0053406954 0.4672218 -0.9741248 -0.054836918 -0.030952428 0.19010262 -0.33422986 -0.06273467
0.068772115 -0.013256557 0.13674882 0.004704386 -0.11025246 0.06571578 -0.06795208 -0.04157672
-0.016445573 -0.04857447 0.06721038 -0.05876742 0.034097373 -0.020632476 0.263652 -0.014707092
0.20622088 -0.06675431 -0.03982675 0.045272045 -0.14259478 -0.011323522 -0.5051396 0.2584525
0.04957209 -0.008993955 -0.23213153 0.35387903 -0.30978534 -0.0006502215 -0.71348053 0.21769339
0.34469202 -0.37011373 0.15038477 0.5428884 0.0819994 -0.5035804 0.071551494 0.47787783
0.19098687 0.29596668 0.073827475 0.37350246 -0.22156191 0.49345893 -0.6219142 -0.25283912
-0.639829 -1.0972775 -0.12205923 0.23819274 -0.56830865 0.48132128 0.23325638 -0.26970276
-0.22938725 0.09636325 -0.35353148 -0.24858283 -0.0060744244 -0.47040585 0.600306 0.29593912
-0.073894665 -0.6271594 0.34949896 -0.24957728 -0.40500665 -0.45286983 -0.15195197 -0.21237452
-0.07888052 0.2011111 0.07807168 0.11542799 -0.25291178 -0.4669822 -0.21906969 -0.07067231
-0.53967494 -0.05434794 -0.09916553 0.24185953 0.02538886 -0.04001686 0.019020118 0.05914158
0.45877415 0.03989657 -0.0060154423 0.016755633 0.06943668 0.25348726 0.5298484 0.2814652
0.047096238 0.06951148 0.58189005 -0.017851938 -0.0034930408 -0.0054555163 -0.2738661 0.042285614
0.10051172 0.01743079 0.113803744 0.06614595 -0.06144001 0.0026785359 0.017184697 -0.0016043186
0.03684766 0.013365135 -0.061398868 -0.03533328 -0.16847281 0.033136867 0.02264823 -0.05266802
-0.14402908 -0.55854595 -0.3084431 -0.2583044 0.11138729 -0.08088847 -0.24177817 -0.09460218
-0.3797691 0.012413512 0.7509114 -0.17860107 -0.41129437 -0.43711707 0.41472018 -0.5362161
-0.6393576 0.19205442 0.4135125 -0.042283617 0.72192556 0.8874696 0.33772328 0.72007895
0.6775413 0.4327687 -1.0827855 0.7517891 -0.10547212 -1.087888 -0.4602287 0.27940235
-0.30742347 -0.032905754 -0.24705146 -0.0073945057 0.61441284 -0.95774657 -0.15596387 0.24925976
-0.8324394 0.055070613 -0.36232528 0.39513397 0.24324468 -0.122927055 0.03920031 -0.10045144
0.5196308 0.64601636 -0.43280965 0.08986238 -0.19307958 -0.13319373 0.20326139 -0.5838088

rnn.weight_hh f4 [200, 200]
00000000: 9438 693e a01e 113e a0c1 e3bd 673f 3b3e
00000010: 913a 48be 219e 103e 0aa4 853e 9f3c 45be
00000020: b28f cebe c2f8 e339 cb50 c1bd bc8f 603e
00000030: a452 aebe a347 a4bd af23 3f3d c3e8 773e
00000040: 62ac 1fbe f857 b43d 6cff f83d 217a 9d3e
00000050: 60d9 513d 24e2 48bd 3395 033f e0df dbbe
00000060: 8108 243b e647 413c 34bf ddbd 63a0 78be
00000070: 226c b63d e4a0 cbbe 6972 e33e 61d1 21be
00000080: f530 da3d 9a34 a4be 35dd dbbd c9b0 a5bd
00000090: a9de c33c afa4 a33e 797d 3bbe e4e3 c33e
000000a0: 89d3 92bc c759 26be 6d03 9dbd 1b02 c03e
000000b0: 9956 9ebe 7969 65be 8b87 ca3e 8016 88be
000000c0: 583d 173c e9c3 3d3e 9289 063f 373c 32be
000000d0: 4844 7f3e a6e5 29be e8ea 84bd 44f1 723d
000000e0: 940f 653e e179 2a3e 2dc5 c5be 2198 9a3d
000000f0: 0b61 c23e 016d eb3d cc6a 81be 1fb4 df3e
00000100: 902a bf3d 6195 0a3e b162 db3e 8aa5 f3bd
00000110: fc96 a93e dddf 843e c4aa 983e 647c 913d
00000120: dcb7 073e 50c2 03bf 3956 df3e fd42 203e
00000130: 47ef 9dba 938b 84bd f5c1 5e3d 1158 1e3e
00000140: 9062 21be ab29 bebd 3c75 1b3f d477 eebc
00000150: 1084 063d 2503 4e3e d89f 123e 8b60 0f3e
00000160: 9eac 583e 2458 e73d 65f4 203d 2e8e c93e
00000170: 8134 e4bd 30d1 5fbd ca21 f03e 2f34 0e3e
00000180: 1062 acbe 7b4a 8e3c 688f dd3d 4fc5 a7be
00000190: 6ad4 98bd 7b47 003f 459f 7dbe 3263 63be
000001a0: 8cf8 97be 5d77 8dbe cc1c c6be e838 b93e
000001b0: c538 98be c022 24be 74bc 5c3e 4135 fbbd
000001c0: bac0 bfbe 51cb a13d 5e07 b6be 6646 d43d
000001d0: 3203 f7bd 97f2 85be a3c9 8bbc d664 893e
000001e0: 0ea6 473d 7b82 b63e de36 7d3e 2e7c 9cbd
000001f0: fa11 63be 635e 0d3e fcba ddbd fb95 c6be
00000200: d771 9ebe cb18 22be bc2f 783e 4268 e0be
00000210: 6b82 11bd fa5b c9be f5ec 49be 96c7 0fbe
00000220: 14e6 903e 5ef5 9dbe 114e a73e e1eb 7ebe
00000230: ef50 8c3e 11ab 083e edf8 8abe 7a8d 9e3d
00000240: da6b 31bf 3c0b 9a3e f9f5 a33e c988 8fbe
00000250: 9495 953e e34f 0b3d 8431 12be 201d 503e
00000260: c713 c93e d3dc 9c3d 67be 85bd 047c ab3e
00000270: 3693 253e 6823 fe3c 2a60 e13e f94a 933e
00000280: e942 843d 0109 fb3e 1919 4f3d 032f a63d
00000290: 805c 3bbb bd3d 44be 9d2a ed3e 6827 1e3e
000002a0: 1b5b 60be 6329 d6bd 91a5 d8bd 266e 053e
000002b0: 997f 503e 8d7e 913e fa28 a6bd 8034 af3d
000002c0: 6487 713e b263 b73e 1073 48be 5fc0 89be
000002d0: ff3b 253e b50d 2cbd b313 94be 2305 a53e
000002e0: e446 af3c 977a 5bbe 766a 0cbe cf6f 583e
000002f0: 4465 553e f381 0bbe e1a1 013e 2520 63be
00000300: 8305 eb3c 083e cd3e 0e1e 26be 8956 b63e
00000310: b15f 4abe a612 5dbe 75b4 debe 4551 89bd
00000320: d20a 613e 0966 3b3d 024a d73d 5516 973e
00000330: 3d13 82bd f884 eb3d b32d 8ebe dc99 ddbd
00000340: b61f 91be a6ed 51be 4f65 3ebe 881f 9d3d
00000350: d3b1 f6bd 99d1 4bbe d649 de3d 213e 2a3e
00000360: 340b 42bd cd99 f83c 319e 4fbe afd4 5a3d
00000370: a597 84be 45af 013e 1a8e be3d f47f 06be
00000380: fbe3 1f3e accf 3d3e 753f 673e cf42 13be
00000390: ef62 6b3e d942 8abe 2874 1f3e e976 83be
000003a0: d2bc 80be 7c54 f0bd 7ff7 2bbe 5c2f 6dbe
000003b0: e9a4 503e d4df f53d 0413 76bd 241c 8d3e
000003c0: 85ed d3bd c472 fb3d 65ba 403e 38b4 783e
000003d0: 89ff 98bd 7d37 893e 21ae 9d3d 2c6e 90bd
000003e0: 32dc 163e a103 b23d cb71 7b3d b11b d2be
000003f0: 8a8e 533e 8d3a debd f4cc e1bd 8a3f 383e
0.22775489 0.14171839 -0.111209154 0.18285905 -0.19553591 0.14122821 0.26101714 -0.19261406
-0.40344006 0.00043482153 -0.09439238 0.2192983 -0.34047425 -0.08021476 0.04666489 0.24209885
-0.15593103 0.08805841 0.12158093 0.3075724 0.051232696 -0.04904379 0.51399535 -0.4294424
0.0025029483 0.011796927 -0.10827485 -0.24279933 0.089073434 -0.39771187 0.44423226 -0.15802528
0.10653869 -0.32071382 -0.10735551 -0.0809036 0.023909884 0.3196158 -0.18309583 0.38259804
-0.017923133 -0.16245185 -0.07666669 0.37501606 -0.30925444 -0.22403516 0.39556536 -0.26579666
0.009230934 0.18531765 0.52553666 -0.17405783 0.24928391 -0.1659151 -0.06490117 0.05931212
0.22369224 0.16648056 -0.38626996 0.075485475 0.37964663 0.114954 -0.25276792 0.4369211
0.0933429 0.13533546 0.42848733 -0.118968084 0.33123004 0.25952044 0.29817784 0.07103804
0.1325373 -0.5146837 0.4362047 0.15650554 -0.001204946 -0.06471934 0.05438419 0.15463282
-0.15760255 -0.09285291 0.6072576 -0.029109873 0.03284079 0.20118387 0.14318788 0.14001672
0.21159598 0.11296108 0.039295573 0.39366287 -0.11142827 -0.054642856 0.4690078 0.13887094
-0.33668566 0.0173695 0.10818368 -0.32767722 -0.0746239 0.5010907 -0.24767788 -0.22205809
-0.29681814 -0.2763013 -0.38693845 0.3617623 -0.29730812 -0.16028881 0.21556264 -0.12266017
-0.37451726 0.07900108 -0.35552496 0.1036499 -0.12061156 -0.26161644 -0.017063921 0.26834744
0.048742346 0.35646424 0.24727961 -0.07640873 -0.22174826 0.13805537 -0.1082668 -0.387863
-0.30946228 -0.1582977 0.24236959 -0.43829542 -0.035524767 -0.39327985 -0.19719298 -0.1404098
0.28300536 -0.30851263 0.32676747 -0.24894668 0.27405497 0.13346507 -0.2714304 0.07741828
-0.69305193 0.30086696 0.320236 -0.28034046 0.29215682 0.034011733 -0.14276701 0.2032361
0.392729 0.076593064 -0.06530457 0.33493054 0.16169438 0.031022742 0.4401868 0.28768137
0.064580746 0.49030307 0.050561044 0.081144355 -0.002858907 -0.19164176 0.46321574 0.1544472
-0.21909754 -0.10457113 -0.10578454 0.130303 0.20361175 0.28416863 -0.081132844 0.085549355
0.23586804 0.3581825 -0.19575143 -0.2690458 0.16136168 -0.04200526 -0.2892128 0.32230482
0.021396108 -0.21433483 -0.13712487 0.21136402 0.20839411 -0.1362379 0.12659408 -0.22180231
0.028689152 0.4008639 -0.16222402 0.35612896 -0.19763066 -0.21589145 -0.43497053 -0.06704954
0.21976784 0.045751605 0.10512163 0.29509225 -0.06351326 0.11499971 -0.2776924 -0.10820362
-0.28344506 -0.20500812 -0.18593334 0.0767203 -0.12045636 -0.19904174 0.10853927 0.16625263
-0.047373965 0.030346775 -0.20275189 0.053425487 -0.25896946 0.12664516 0.093044475 -0.13134748
0.15614311 0.18536252 0.225828 -0.14380954 0.22986959 -0.27004126 0.15571654 -0.2567666
-0.25144058 -0.11734864 -0.16793631 -0.23162597 0.20375408 0.120055825 -0.06007673 0.27560532
-0.10348038 0.12277749 0.18821104 0.24287498 -0.074706145 0.26800147 0.07699228 -0.070522636
0.14732435 0.086920984 0.06138782 -0.41036752 0.20659843 -0.108510114 -0.1102542 0.17992988

rnn.bias_ih f4 [200]
00000000: 815c 3dbe 765d 93be 2526 29bd 313e 25bf
00000010: 8fad bf3e 9213 dfbe 7bc9 5abe d8fe ac3f
00000020: 9f14 7a3f 23cd 153d 4545 17be d490 62be
00000030: 9b8a 873d f5cd 553d 682e 2dbe 0514 35bf
00000040: 4d8b 583d 7029 27be d79d 75be 4085 c8be
00000050: 3190 563e 8c7c 8bbe 40fc d6be b626 7a3e
00000060: 79f8 febe c53f fcbe cae3 263e 79ab 333f
00000070: 6499 c43c 1eec 333d b5cc c3be 10db 2c3f
00000080: 75b6 97bd ca1f 953d ae62 d33e 9269 d03d
00000090: eaa4 88bd d27c 05bf 4d45 cd3e f667 84bf
000000a0: b75f 8f3e 45a8 b1be 9cfa 073e 4283 1cbf
000000b0: 769c eb3c 1f39 5a3e a083 21bf 6528 ce3e
000000c0: 34fa 04bd a74a c7be 9b5c babe 7958 1f3f
000000d0: 696a bfbe efbe 343f 0b60 133c ae75 61be
000000e0: 0978 52bd a48d 8bbe 70e8 813f 70f6 eb3c
000000f0: c0f5 cfbe 9f13 46bf de5c 51bf e10f 06bd
00000100: 9b89 e73d da28 46bf ab96 90bf 5c5e b13e
00000110: cc93 d9bb 67bf ebbd e631 9fbf ebc6 01bf
00000120: 703f c4bd bb7e 353e d94e 8bbf 0f9a 5ebe
00000130: 1c7b 87bf af7d b73e 29b1 eb3c e69a ecbd
00000140: 2702 43be 76f8 e23a 4d4a 9dbe 25fb 443e
00000150: 4406 3fbf ea02 47be eec5 5ebf 28e1 05be
00000160: cb23 5cbf 6fd5 51be f82c 343e aa37 66bf
00000170: 87a3 f0bc 71dd 193e f8d9 fcbe 09ac edbd
00000180: 3622 f13d 7e30 8e3d 708a 9bbf e187 ac3e
00000190: 171f ae3e aa0e 82bf fc0c be3e 2a14 e43d
000001a0: 0b3f e33e b26e 04bc a9c9 cd3e 07c2 8fbf
000001b0: 763c 2d3f 02fb 093e e768 a3be 7fbe b93e
000001c0: f3b7 cf3e f7cb b1be bdb3 353f b69b e6bd
000001d0: 92aa 4b3e f3c9 8c3e d11e e7bd 817c b0bf
000001e0: 7abd 3b3e 3d04 8fbe 65d7 bfbd b13a 8c3d
000001f0: 168d b9bc e7af 543d c234 143e f80c af3f
00000200: 043b 853e 06b1 ae3e b52e d6be 1fdc 9e3e
00000210: 3d81 9f3d 7fde 973e 7b3b 473f 1188 cebd
00000220: b462 84be af83 933f b249 fcbd 8ec6 063e
00000230: 69b8 77be cb71 91bf f078 313f 62f3 03bf
00000240: 92e0 6b3e 2c4e 8f3c 49e0 dbbd 11ed 593e
00000250: 3328 c3be 2934 343e d42d 3b3e e580 3bbf
00000260: 3821 20be 0b2c c4be 40da f63d febf e9be
00000270: 7732 3bbf e3b4 10be 3c51 adbe 9709 0abe
00000280: e2a1 203d 4efd 3ebf eea0 0dbe f4af 1dbf
00000290: 650d e3bc 367f 8a3e e578 95be 3744 8cbe
000002a0: 627e 873e f5c4 4a3e a883 0b3f 21b5 293e
000002b0: 19f0 e0bd 43ae 5abe 9d5f 363e b009 213e
000002c0: 5470 90be 4138 1b3d e03b af3e 91cf 0d3f
000002d0: 51c9 6bbf 81ca f4bd 01f5 6f3e 5fe7 c1bd
000002e0: 47bc 2a3f 937b c43e 9ad7 883e d296 2dbf
000002f0: f306 acbe 0728 ca3e 46f2 fcbd bac6 853f
00000300: 313a 6ebf 2e31 e5be f0cb 653f c7aa 0b3e
00000310: 6190 083e b878 e73e a8bf 233f 42fd 9fbd
-0.18492319 -0.28782243 -0.041296143 -0.6454802 0.37437102 -0.43569618 -0.21365921 1.3515272
0.97687715 0.036572587 -0.14772518 -0.2212556 0.06618234 0.05219837 -0.16912234 -0.7073367
0.052867223 -0.16324401 -0.23985992 -0.39164162 0.20953442 -0.2724346 -0.41989326 0.2442883
-0.49798945 -0.49267402 0.16297832 0.7018352 0.023998924 0.04392635 -0.38242117 0.6752176
-0.07407848 0.07281454 0.41286224 0.10176386 -0.0667208 -0.52143586 0.40091935 -1.0344226
0.28002712 -0.34698692 0.13279194 -0.61137784 0.02876113 0.21310852 -0.6309147 0.40265194
-0.032465175 -0.38924143 -0.36398777 0.62244374 -0.37385872 0.7060384 0.008995066 -0.22017547
-0.051384006 -0.272565 1.0149059 0.028804034 -0.4061718 -0.7737369 -0.8178233 -0.032729987
0.11305543 -0.77406085 -1.129598 0.34642303 -0.006639933 -0.115111165 -1.2437103 -0.5069415
-0.09582412 0.17724125 -1.0883437 -0.21738456 -1.0584445 0.35838076 0.028771 -0.11552982
-0.1904379 0.0017316479 -0.3072075 0.19236429 -0.74618936 -0.19434705 -0.87020767 -0.13074172
-0.85992116 -0.20491575 0.17595279 -0.89928687 -0.02937485 0.1502588 -0.49385047 -0.11605079
0.11774103 0.06942843 -1.2151623 0.33697417 0.34008095 -1.0160725 0.3711928 0.111366585
0.44384035 -0.008083032 0.40192917 -1.1231087 0.6767038 0.13474658 -0.31915972 0.3627815
0.4057003 -0.34725925 0.70977384 -0.11260168 0.19889286 0.27497825 -0.11285175 -1.3787996
0.18333998 -0.2793292 -0.09367255 0.06847132 -0.022650283 0.051925566 0.1447325 1.3675833
0.26021588 0.34119433 -0.4183251 0.31027314 0.07788322 0.2966194 0.77825135 -0.10084546
-0.25856555 1.1524562 -0.12318744 0.1316168 -0.2419144 -1.1362852 0.6932516 -0.5154325
0.23034886 0.01749333 -0.107361384 0.2128184 -0.38116607 0.17598023 0.18279201 -0.7324355
-0.15637672 -0.38314852 0.12053347 -0.4565429 -0.7312388 -0.14131503 -0.3385104 -0.1348022
0.039216883 -0.7460526 -0.13830921 -0.6159661 -0.027716348 0.2705018 -0.29193798 -0.27395794
0.2646361 0.19801696 0.54497766 0.16573001 -0.10983295 -0.21355538 0.17809911 0.15726352
-0.282107 0.037895445 0.34225368 0.55394846 -0.9210406 -0.11952687 0.23433305 -0.09467959
0.6669354 0.3837553 0.2672699 -0.6780826 -0.33599052 0.39483663 -0.123508975 1.0451272
-0.93057543 -0.44764084 0.8976431 0.13639365 0.13336326 0.4520929 0.6396432 -0.07811977

rnn.bias_hh f4 [200]
00000000: 5ee1 45be e3a9 84be b16e 863b b28c 34bf
00000010: 5754 913e 30ad cfbe d9b4 87be c87f ae3f
00000020: 47d1 823f 8d54 bf3d b45a efbd 47fe 92be
00000030: 9f73 7b3d 153f b13d df88 41be 84a8 27bf
00000040: 82fc 2c3d dd23 29be 1303 99be 1760 a8be
00000050: 2cce 383e 8139 9cbe b963 ecbe 34bd 503e
00000060: e728 f3be 5b76 0cbf 36e4 c03d 5bef 253f
00000070: f647 5abd 6bda 87bd f928 cfbe d9e5 2a3f
00000080: 7933 f2bd e68e 8f3d 241a b13e cb17 bd3d
00000090: a3bb 8ebd 63c0 fbbe 829b 9f3e 8a66 81bf
000000a0: ff1d d23e 9cec ccbe 8776 203d d68c 1cbf
000000b0: c3ba c83d 1e31 9d3e c431 06bf b74c ca3e
000000c0: 5224 6cbd e0b0 b2be 89b6 94be 1374 1e3f
000000d0: 9c0c c9be e9be 293f f875 dc3c 64cd 40be
000000e0: 6166 9cbd 72fe 93be e6ea 863f 5e15 213d
000000f0: 96de 0abf ef7a 54bf 8489 4dbf a1dc 19be
00000100: 8069 d93d a175 5cbf b527 8fbf c907 bc3e
00000110: a40a 863d 09dc f8bd 9c9e 9ebf 43b9 e1be
00000120: 146d 2dbe ea1d 3c3e fed7 91bf a7bb 5bbe
00000130: d4c6 90bf 9067 8c3e 6b31 3fbc 3037 2bbe
00000140: 63c9 87bd ca20 c9bd 8a86 71be 5181 fd3d
00000150: cee3 36bf e12d 90be a519 6abf bb22 5fbe
00000160: adda 66bf 8da5 5bbe 8818 383e 8dd3 6abf
00000170: ff6a 113c f87f 1a3e 0494 ebbe 6d28 30be
00000180: 57f6 1e3e fd3e b63d e75b 97bf e639 b63e
00000190: dcb5 933e 8131 6cbf d409 c13e 93c0 a33d
000001a0: 3a19 cf3e 0ed8 933c 2e0e a33e 25d8 9bbf
000001b0: dd14 2e3f 7936 493e dae8 b3be 95a0 bd3e
000001c0: 917e a33e 3c63 b8be 5b84 423f fed7 58bd
000001d0: afe5 713e aedf 9c3e 57e9 c8bc 3cee a9bf
000001e0: e2f5 223e 1553 5bbe 8ad3 25be 5e8e 663d
000001f0: 071c 58bb 5cef fd3c c062 3c3e 2f77 a23f
00000200: bcf1 703e 4dd0 b63e 39a2 c9be 2f7b b43e
00000210: 886c c33d 8ab8 8e3e 3607 573f 6eaa ebbc
00000220: 5161 8bbe 4f57 9f3f 14a0 16be 8df4 033e
00000230: 329c 5fbe b544 92bf cc6e 473f 98d5 f6be
00000240: 29f9 813e 20c6 313c a9f1 22be 50c7 a13e
00000250: a0d3 babe c4a9 2d3d c4ef 5f3e 980b 36bf
00000260: e0b9 88be 4e6d b0be 420b 0d3e 2a8f fbbe
00000270: cd22 46bf 8c11 c5bd 95ad 8bbe 62a6 32be
00000280: f0e9 ac3c f641 3abf 59c9 36be bc25 24bf
00000290: 8802 3b3d 19ea 383e 37be a8be 8921 a5be
000002a0: 0334 9c3e dac0 0d3e 289e ff3e b91c ce3d
000002b0: 5009 a5bd 1157 31be f0b0 1b3e 23a8 0b3e
000002c0: aef8 83be 283a 2a3d 4817 a33e 654c 1a3f
000002d0: 3add 7ebf 3e34 a7bd 4e9b 503e 734a 35be
000002e0: 94ce 183f 74b3 a23e 6749 473e 3522 1abf
000002f0: c1bd 82be 52c2 ae3e f6e4 47be 14b8 8d3f
00000300: b80a 7cbf d5f0 c5be 57da 593f 3f9e 283e
00000310: 3c09 6b3e 22ef bb3e c81a 063f 894d 38be
-0.19324252 -0.25910863 0.004102551 -0.70527184 0.2838466 -0.4056182 -0.26505163 1.3632746
1.0220116 0.09342299 -0.11687222 -0.28709623 0.06138956 0.0865461 -0.18899868 -0.6549151
0.042232998 -0.16517587 -0.29885158 -0.3288581 0.18047398 -0.30512622 -0.46169832 0.20384675
-0.47492144 -0.54868096 0.09418528 0.6481835 -0.053291284 -0.06633457 -0.40460947 0.6675697
-0.11826224 0.070096776 0.34590256 0.09233054 -0.069693826 -0.49170217 0.3117333 -1.0109417
0.4103851 -0.4002427 0.039175536 -0.611524 0.09801247 0.30701536 -0.52419686 0.39511654
-0.057651825 -0.3490057 -0.29045513 0.61895865 -0.39267433 0.6630693 0.02691172 -0.1882835
-0.07636715 -0.28905064 1.0540435 0.039327018 -0.5424589 -0.8300008 -0.8028796 -0.1502557
0.10615826 -0.8611699 -1.1183993 0.3672469 0.06544998 -0.121513434 -1.2392154 -0.44086656
-0.16936141 0.18370786 -1.139404 -0.21458302 -1.1310678 0.27422762 -0.011669497 -0.16720271
-0.06630208 -0.09820707 -0.23586479 0.12378181 -0.7144135 -0.28160003 -0.9144538 -0.21790592
-0.9017742 -0.21449871 0.17978108 -0.9172905 0.0088756075 0.15087879 -0.46011364 -0.17202921
0.15523659 0.08898733 -1.1824921 0.35591048 0.28849685 -0.92263037 0.3770281 0.07995715
0.40448934 0.018047359 0.31846756 -1.2175337 0.68000585 0.19649686 -0.3513859 0.37036577
0.319325 -0.3601321 0.7598321 -0.05294036 0.23622774 0.30639404 -0.024525328 -1.3275828
0.1591411 -0.21418412 -0.16193977 0.056288116 -0.003297569 0.030997925 0.18397045 1.2692622
0.23529714 0.35705796 -0.3938158 0.35250232 0.09542185 0.27875167 0.8399538 -0.02876779
-0.27222684 1.244852 -0.14709502 0.12886257 -0.21836928 -1.1427218 0.7790344 -0.48209834
0.25385407 0.010850459 -0.15912499 0.31597376 -0.36489582 0.04239823 0.21868807 -0.7111144
-0.2670431 -0.34458393 0.13773826 -0.49132663 -0.7739685 -0.096224874 -0.2728087 -0.17446283
0.021107644 -0.727569 -0.17850246 -0.6412008 0.04565671 0.18058051 -0.32957622 -0.32252148
0.30508432 0.13843098 0.4992535 0.10064072 -0.08058417 -0.1731837 0.15204215 0.13638358
-0.25775665 0.04155937 0.318537 0.6027282 -0.99556315 -0.08164261 0.20371744 -0.17704181
0.59690213 0.31777537 0.19461595 -0.60208446 -0.25535396 0.3413263 -0.19520935 1.1071801
-0.98453856 -0.38660303 0.85098785 0.16466616 0.22952741 0.3670588 0.52384615 -0.17998327

linear.weight f4 [100, 200]
00000000: 6c76 673d 3d8d c7bc 8888 9fbd 4e26 a03d
00000010: 2026 06bf 09a2 bc3c 9bf8 063e a919 d3bd
00000020: 4376 4fbe c6f3 663d 4e68 173e c767 9c3b
00000030: 1757 54bc 7f67 3ebd 7d3e 62bc 10f2 103d
00000040: 3685 febc 5f91 e8bc b478 a83d 9044 60bc
00000050: dc5d 213c 7ff2 91be bb20 8b3c a23a 04be
00000060: a405 8dbd 0c32 c9bd 66b2 8ebd 552b 25be
00000070: 78a0 8b3d 39dc 853e 89af 1b3e 8b3b 30bd
00000080: bbac 513d d67e 1fbe 64d0 a3bc 2ae6 cabc
00000090: 6199 0fbe 3c78 263c 8a07 9ebc d4a9 0a3e
000000a0: 8fe6 9d3d f28a e63c 72a9 adbd b10c f73d
000000b0: e4bf 2c3d c68f 863e 00db b3bc d3d2 5cbc
000000c0: 5b47 8bbd 4fe5 21bc 7b7c 4ebd b357 64be
000000d0: 7b96 3e3c e9ab 143d 482d c63e 65d3 ab3d
000000e0: d9c7 cbbd 0ba9 0a3b 3730 acbc e91d 8a3d
000000f0: 5e15 2c3b 0d00 713d 72c1 aabc 0115 44bd
00000100: 9fa0 c93d ad9e 95bd 217f c73d f59b 81bb
00000110: c405 24bd fe53 c43f 306f 3e3e 53af 583c
00000120: b7a5 6bbc 0b78 f2be e2a6 f63d fa09 75bc
00000130: b141 513a 8ae7 dfbd 20cd 5a3b ac25 853c
00000140: ae3d 08be 6550 3ebc b472 85bc 4058 2ebd
00000150: 39ec 773d f719 663d 4581 ac3d 472e c83d
00000160: 3d60 e63d a3f6 3a3e a09b 18bd 875f 1a3e
00000170: c7bb 16bd bd3e cb3c 77f2 f73c 9fec 60bd
00000180: 9f42 1ebe 8348 d03a 87bd 8e3d 8d64 e03d
00000190: 41e3 18bd 01fe 963d d5c0 bcbd 3a47 70bd
000001a0: 7229 d4bd 50e1 7bbd bf59 1fbd 288c 7e3e
000001b0: dd5f c9bd 9b6f 603b 7f77 86bd e2e6 2bbd
000001c0: fb3e 59be f469 fbbb 39a8 abbc c9b4 313d
000001d0: 22f7 24bc 1a26 8abd 568e 9bbc 02ee debb
000001e0: aa6c d3bc 83c8 023e 7755 f23d e4d6 a3bd
000001f0: cd98 55bc bfcf 303e 30d2 0d3d fac5 0bbe
00000200: 6313 b23c a30c 8e3c 62af 0c3e 3084 323d
00000210: bf98 6aba fdc8 5a3c f35e 8cbd 60f0 21bd
00000220: 1fd1 34bf 3a40 02be 9fd7 143e d9e0 00bd
00000230: 60d4 9f3c 2f90 3b3e 7b2e 87bd ec0e b73d
00000240: dfde 773d 9de3 3f3c 0fcc b23c 302b 33bd
00000250: c2e7 d3bd e354 e4bd 7074 cabd 9bd6 e0bc
00000260: 1a3e c9bc 316f 933d bdfb 813e 4598 b13d
00000270: 3747 a13d 5d1d 303d ff58 673d c31c 253e
00000280: ca6f 51bd f76a 963d 172f 943d d5cf 533c
00000290: dce3 5bbd ce3d 003d b05e bf3c f1be 7abd
000002a0: 2c12 6b3f 26de 623c 1259 6b3d 0a8a 133d
000002b0: cd4e 88bc a369 b1bb 92d7 63bc 8765 1a3d
000002c0: 3b56 54bb 0a5b 9e3d dc2f 77bd 8b9b 18bc
000002d0: 257e f33d 7e9a 81bd 57b8 8cbc f5c9 29bd
000002e0: 9cc5 143d 614e 883b c532 d53b 7cdc 6d3d
000002f0: ae38 a03e e17d 71bd 2ee0 ff3c fcbf a1bd
00000300: a25e e83d 7c89 283e 9a72 5cbe 502d cfbd
00000310: 4b9f 1dbd 30f7 89be acce b83c cdfb 063a
00000320: 9690 83bb 9f7b f6bc 2115 98bd 76b9 1b3d
00000330: 5cfb 14bf 9010 9f3d 4f00 023e 871d bfbd
00000340: db51 89bd cdcf 163e 612a 0b3e 349e 4d3d
00000350: 0f6d 753d c273 7abd b7b3 23be 9e0e b9bc
00000360: ee81 4ebc 5905 a0bd ad45 bb3d 1c5a 79bc
00000370: 0960 adbe a9e5 96bc 7245 fc3d 76e4 28be
00000380: f5f7 82bd b12b 6ebe bd86 3d3d 5e4b 23be
00000390: 1e9c f73c 96a2 503e 940f ae3c e4f5 9fbd
000003a0: f985 f0bb fce7 75bd 5089 703c 1b23 17bd
000003b0: 0287 31be 1e3d 6dbd 2b5f 2cbb 6489 013e
000003c0: 7afc 193e 1a32 393d 1f30 cf3c b9ae e53d
000003d0: 4bf6 943d f5e5 31bf a8c6 313e 5931 423c
000003e0: 77e8 893e 97c0 283e 3c85 ad38 84bc 8dbe
000003f0: 3e04 9fbd d476 4e3d 3677 fa3e 053f 963d
0.05650942 -0.02435934 -0.07789713 0.07819806 -0.52401924 0.023026483 0.13180773 -0.10307629
-0.20259957 0.056384824 0.14785883 0.0047731134 -0.012960217 -0.04648542 -0.013808844 0.0353871
-0.03106938 -0.02838963 0.08226147 -0.013688222 0.009849038 -0.28505322 0.01698338 -0.12912992
-0.068858415 -0.09823999 -0.069676206 -0.16129811 0.06817716 0.2614458 0.1520368 -0.043025535
0.05119012 -0.15575728 -0.01999683 -0.024767954 -0.14023353 0.010160502 -0.019290704 0.13541347
0.07709991 0.028142426 -0.08479585 0.120629676 0.04217519 0.26281565 -0.021955013 -0.013477999
-0.06800719 -0.009881332 -0.050411683 -0.2229908 0.011632557 0.03629676 0.38706422 0.0838993
-0.09950227 0.0021157886 -0.021019084 0.06743986 0.0026257853 0.05883794 -0.020844195 -0.047871593
0.09845089 -0.07305656 0.09741045 -0.003955359 -0.04004456 1.5338132 0.18597102 0.013225394
-0.014382771 -0.4735721 0.12043549 -0.014955992 0.0007982506 -0.109328344 0.0033386424 0.016253315
-0.13304779 -0.011615847 -0.016290046 -0.04256463 0.060528014 0.056177106 0.08423094 0.09774452
0.11248825 0.18258147 -0.03725779 0.15075503 -0.036800172 0.02481019 0.030266983 -0.05491316
-0.15455101 0.0015890751 0.06969743 0.109566785 -0.0373261 0.07372666 -0.09216467 -0.058661677
-0.103594676 -0.06149417 -0.038903948 0.24858153 -0.098327376 0.003424621 -0.06565761 -0.041968234
-0.21215431 -0.0076725427 -0.020954238 0.0433853 -0.010068687 -0.067455485 -0.01898877 -0.006803275
-0.025808651 0.12771802 0.118327074 -0.079999715 -0.013036919 0.17266749 0.03462428 -0.13649741
0.02173776 0.01734001 0.13738778 0.043583095 -0.00089491525 0.013353583 -0.068540476 -0.03953588
-0.70631593 -0.12719813 0.14535378 -0.03146443 0.019510448 0.1831672 -0.06600662 0.08938393
0.06051528 0.011711982 0.021825818 -0.04374236 -0.10346939 -0.11149003 -0.0988549 -0.027446082
-0.024565745 0.071989425 0.25387374 0.08671621 0.07874911 0.042996753 0.056481358 0.16124253
-0.051132 0.07344621 0.07235544 0.012927969 -0.0536841 0.03130894 0.02336058 -0.061217252
0.91824603 0.01384691 0.05745799 0.036020316 -0.016639138 -0.005414204 -0.013906376 0.03769448
-0.003240003 0.07732208 -0.060348377 -0.009314428 0.118892945 -0.06328295 -0.017177744 -0.041452367
0.036321267 0.004159734 0.0065062963 0.0580716 0.31293243 -0.058957938 0.031234827 -0.07897946
0.11346175 0.16458696 -0.21528092 -0.101160645 -0.03848199 -0.26946402 0.022559486 0.00051492156
-0.0040150387 -0.030088244 -0.07425905 0.038018666 -0.58196044 0.07766831 0.1269543 -0.09331804
-0.06705066 0.14727707 0.13590385 0.050199702 0.05991846 -0.06114555 -0.15986525 -0.022589978
-0.01260422 -0.0781352 0.09144149 -0.015219238 -0.33862332 -0.018420057 0.12317933 -0.16493401
-0.0639495 -0.23258854 0.046271075 -0.15946719 0.03022581 0.20374522 0.021247663 -0.07810572
-0.0073401895 -0.06003569 0.014681175 -0.036898714 -0.17336658 -0.057919614 -0.0026301842 0.12650067
0.15037718 0.045213796 0.0252915 0.11214966 0.07273539 -0.6949151 0.17360938 0.011852586
0.2693517 0.16479717 8.2741e-05 -0.27682889 -0.07764481 0.050406292 0.48919076 0.07336239

linear.bias f4 [100]
00000000: c0c9 ccbe ab17 bcbe edb4 c9be 2e57 b2be
00000010: 636a f1be a386 d7be 8690 c0be b5d5 cebe
00000020: 43c4 dbbe 7759 d7be 97d6 043e 2080 5abd
00000030: 27fc 8fbb be80 d53d 581a 233e e3d2 ac3d
00000040: 0dde a2bd dc18 67bd da26 863d fa7a 84be
00000050: 7948 773a b28a c23d 99db e23d 4483 463d
00000060: 33e9 473e 06dd 10bd 5cc4 79be 968b 413e
00000070: 9598 d23d 1bbc f63d 14ac 9f3d 2ede 3bbd
00000080: 9bdf c53d 49bf 9bbe 7b77 513d 952a 34be
00000090: 9f74 93be 76aa 54be 69be 97be ed79 94be
000000a0: 7a07 56be cba1 babe ed5a 83be e09e 90be
000000b0: 8ac5 bbbd 90a5 acbe 7d09 c5be bbdc 7dbe
000000c0: c268 57be 071f acbe 9332 a0be eb06 6dbe
000000d0: 8c4e f0be 7568 bebe eed9 a2be ee66 80be
000000e0: 8c36 e4be 39d2 bcbe 9707 96be 06c8 e9be
000000f0: bb37 98be b6f7 efbe 2c77 6cbe ea0e fcbd
00000100: fd6d cabe 71bd 00bf 392a c3be 0df4 f1be
00000110: 7452 0abd 4e18 b2be a29e b1be f728 e4be
00000120: 479e cebe a6cc e53c e62f b1bd b412 2cbd
00000130: f3a5 c5be 62e8 d0be 4501 92be 2537 f3be
00000140: d7fe d9be 6bf3 e1be a6d9 05be ce5e d1be
00000150: 9a64 eebe fb4f c0be 3a5d a5be 20b1 d7be
00000160: eee5 fcbe bff1 f7be ceff e7be 474d 00bf
00000170: 7478 c0be b21b c8be a5ef 5b3e 3f9d e2be
00000180: 50ab 49bc a2d8 d7be ec2e e0be 4517 fcbe
-0.39997673 -0.36736807 -0.39395848 -0.34832138 -0.4715148 -0.42094907 -0.37610263 -0.4039742
-0.42923173 -0.42060444 0.12972485 -0.053344846 -0.0043940726 0.10424946 0.15928018 0.08438661
-0.07952509 -0.056420192 0.06550379 -0.25875074 0.00094331015 0.0949911 0.11077041 0.04846503
0.19522552 -0.035367034 -0.24391311 0.18900904 0.10283009 0.12047597 0.07796493 -0.045866184
0.0966179 -0.30419376 0.051139336 -0.17594369 -0.28799912 -0.2076815 -0.2963746 -0.28999272
-0.2090129 -0.36451563 -0.25655308 -0.28246212 -0.09168537 -0.33720064 -0.384838 -0.24791233
-0.21036056 -0.33617422 -0.31288585 -0.2314717 -0.46934927 -0.3718907 -0.31806892 -0.2507853
-0.44572866 -0.36879137 -0.29302666 -0.45660418 -0.2973002 -0.46868676 -0.23092335 -0.12307532
-0.3953704 -0.50289065 -0.3811815 -0.47256508 -0.03377004 -0.34784168 -0.3469134 -0.44562504
-0.4035513 0.028051686 -0.08651714 -0.042010024 -0.38603172 -0.40802294 -0.28516594 -0.4750301
-0.4257724 -0.44131026 -0.13071308 -0.40892643 -0.46561128 -0.3756102 -0.3229769 -0.42127323
-0.49394172 -0.48426625 -0.4531235 -0.50117916 -0.37591898 -0.3908363 0.21478136 -0.44260594
-0.0123089105 -0.42157465 -0.437858 -0.49236503
