Results/Complete Sherlock Holmes/LSTM/ASGD/2/50/model.pt (torch, 227007 bytes, 10 tensors)

rnn.weight_ih f4 [200, 100]
00000000: 9436 2c3e f73f ae3d 932e cfbd 62e6 d7be
00000010: aa38 8e3e eb47 b6bd 299b 93bd 13d7 183d
00000020: 4ef6 263f 1f1c 453e c8b3 34bf c984 5abf
00000030: 2b88 acbf b144 9fbf 8b61 393f cf4e c6bf
00000040: 53c1 4abf c532 22bf 0837 343f 5c8f 663e
00000050: dcb0 a23e 2c4c b73f 801f dd3f c3f7 513e
00000060: 21f2 9c3e 81e3 ca3e 4288 d2be eb34 f93c
00000070: 4530 3ebf 21b0 9b3d a7b8 113f facd 22bf
00000080: 566b 803e cf46 873e 412b c33e c3da 58bf
00000090: e2c1 28bd f39f 17bf a60c a73e 04ba 18be
000000a0: 0278 103f ca7e ccbe 129c 0a3f 7fa3 c7be
000000b0: 6c9b 413d c687 17be 18e4 1fbd 3f38 013e
000000c0: 3a2e 443d 3796 dabe 3187 14bf ab95 973c
000000d0: c462 e8be dcd1 ffbe f979 bd3d e3fd 26bf
000000e0: 6ce0 0b3f 13e9 abbe 5ccf e73e a962 f9bd
000000f0: fc3c cbbe 3a8f 8e3d a932 ac3d 6a3e 733f
00000100: 9a64 01be 992b f2bd e477 f8bd 7f46 af3d
00000110: 5279 0bbf 6889 783c 3a03 e53c 80c2 1cbd
00000120: b37e f3bd 9035 0d3f de76 633f fc36 d03e
00000130: c8fa dfbd 0960 e3be f4ae d53e d0b6 7f3c
00000140: 947b 263d b454 88bc 3d16 04ba 80cb 753c
00000150: 7023 183e 0cd6 8e3d 79fb 7b3d f010 89bd
00000160: 6078 0dbe 8cba a9bd be6c fe3d 244e b0bd
00000170: c062 163b eb4e 00be 3761 043f a0ef fabb
00000180: 2bdb cebf a379 0d3e 023b 75bd c086 b83b
00000190: 3817 10bf 7dfb d9be 517e 233e 3836 9a3f
000001a0: 3714 233f e088 703c 9f9c e13e 9518 60bf
000001b0: 727b efbd ab4f 083c c5b5 d2bf 4b32 5bbf
000001c0: e14c d43e eb7a 57bc 779f c83f fbe0 d53e
000001d0: 4abf 18bd 9eec bdbf 73aa 803d 1ea9 1ebf
000001e0: 91c1 9cbf 767b a63f eda4 c4be 4801 a13f
000001f0: 7b89 d53f 3df1 253f 4650 9ebf 45ee f23f
00000200: 18ed 043e 2f89 85bf dbc4 903e 6452 3fbf
00000210: d160 d5be ec02 76be c683 f13f 96f6 ce3d
00000220: b544 c0bf 0c13 cb3e d755 633e 91c2 853f
00000230: 6f02 8ebf 063d 79bf 3ab3 823f de10 b03e
00000240: 5270 9ebf 90fb 4fbf e85e 8b3f 2ac8 73be
00000250: 5834 fcbe 6c0f c1be ae59 293f ca00 293f
00000260: 0317 a2bf 0ef1 babf eabf 7bbf 2563 39bf
00000270: 426d 743f 09e8 ac3f 1353 3a3e f910 2ebf
00000280: 8ac4 b4bf 820e 5f3f 8e6c b83e 66a2 a9be
00000290: 1506 0f3e 3ee8 e83d 8082 773c b4e1 c43e
000002a0: 4c99 843e 9844 c53d 8bd5 1e3e d490 3fbd
000002b0: a0f2 93bc 0f75 f93f 119d 3fbf 4686 a03f
000002c0: 9cea 8e3e 9000 a63e 261d 0a3f a0be 2c3c
000002d0: 46fb be3d d85b bcbc 6d61 49be 20b1 f3bd
000002e0: d859 bfbd 3750 b5bd 5101 9dbf 82c7 d93d
000002f0: f731 f1bd 3d14 42bc 12b0 d53d e180 0f3e
00000300: ef47 073e e428 613d 5356 d33e 6076 97bb
00000310: c2b0 8abe 488b d5bc 660b fd3d 426d 22bd
00000320: 882f 0b3f d076 b9be e004 9c3e e943 a93c
00000330: e696 143f 8ef1 ae3d 24e5 833f 5adf 95bd
00000340: b4fb 01bf 77e6 c63e c2c8 69bd 47ab 89bd
00000350: b74b 693f a0f0 ea3e 98f3 d83f 60e9 ea3e
00000360: f804 5e3e 0ddc f6be c146 863f 2123 31bf
00000370: b750 243f 9fc3 50bf 0061 27bf 11fb ba3f
00000380: ea01 ac3e 7c54 5d3f e87b 38c0 9068 b03f
00000390: daa4 823d c347 893f 38d2 9b3f 1ab1 b1be
000003a0: ed26 22bf a5a0 443d 57b4 5d3f 495d 9abd
000003b0: cc16 42bf e64a 14be a41f 7dbe 83a3 7d3e
000003c0: 2ada 98bf feba b4bf 856f a8be 598e 16bf
000003d0: 982a d93e 6c83 d13e 19d1 8c3e 1326 90bd
000003e0: 561d 18bf 59a8 903e 3cb4 023f ac5f 5dbf
000003f0: 36bc 8cbe 4c0d 01bf 76a1 8cbd cbdc d9bf
0.16817695 0.08508294 -0.10116305 -0.42167956 0.27777606 -0.08900436 -0.07207329 0.037314486
0.6521958 0.19249009 -0.70586824 -0.85358864 -1.3479055 -1.2442838 0.72414464 -1.54928
-0.7920124 -0.6335872 0.7039647 0.22515625 0.31775558 1.4320121 1.7275238 0.2050467
0.3065348 0.39626697 -0.4111958 0.030420741 -0.74292403 0.07601953 0.5692238 -0.63595545
0.2508189 0.2642121 0.38118938 -0.84708804 -0.041200526 -0.5922844 0.32626837 -0.1491471
0.5643312 -0.39940482 0.54144394 -0.38991925 0.047267362 -0.14797887 -0.039035887 0.12619112
0.047895648 -0.4269273 -0.58018786 0.018503984 -0.45387852 -0.49964797 0.0925178 -0.6523115
0.54639316 -0.3357626 0.4527539 -0.12177021 -0.39694965 0.06960912 0.084081 0.9501711
-0.12636033 -0.11824722 -0.12132242 0.08558368 -0.54481995 0.015169479 0.02795564 -0.038271427
-0.118894 0.55159855 0.8885325 0.4066695 -0.109365046 -0.44409207 0.4173504 0.015607551
0.040645197 -0.016641952 -0.0005038714 0.015002131 0.14857268 0.0697442 0.06151912 -0.06692684
-0.1381545 -0.08287534 0.12423085 -0.08608654 0.0022947043 -0.12530105 0.5171084 -0.00765796
-1.6160635 0.13815932 -0.059870727 0.005631298 -0.5628543 -0.42574683 0.15966155 1.2047796
0.6370272 0.014681071 0.44064805 -0.8753751 -0.11693467 0.008319776 -1.6461722 -0.85623616
0.41464904 -0.0131518645 1.5673665 0.4177321 -0.037291802 -1.4837835 0.062825106 -0.619768
-1.2246572 1.3006427 -0.38407078 1.2578516 1.6682581 0.64821225 -1.2368248 1.8978964
0.12981069 -1.043249 0.2827519 -0.74735093 -0.41675428 -0.24024552 1.8868339 0.10105626
-1.5020968 0.3966297 0.22200714 1.0450002 -1.1094493 -0.9735874 1.0210946 0.3438787
-1.2378027 -0.8124323 1.0888338 -0.23806825 -0.49258685 -0.37707078 0.66152465 0.6601683
-1.2663273 -1.4604814 -0.9833971 -0.7241691 0.95479214 1.3508312 0.18195753 -0.6799465
-1.4122479 0.8713151 0.3602032 -0.33131713 0.13967164 0.11372422 0.015106797 0.38453448
0.25898206 0.09632224 0.15511148 -0.04676898 -0.018060029 1.9488848 -0.7484904 1.2540977
0.27913368 0.32422304 0.53950727 0.010543495 0.0932527 -0.022993013 -0.19666071 -0.11899018
-0.09343308 -0.088531904 -1.2266027 0.10633756 -0.11777108 -0.0118456455 0.10433973 0.14014007
0.13211034 0.054970637 0.41276798 -0.0046222657 -0.2708798 -0.026067391 0.1235569 -0.039654978
0.543694 -0.3622346 0.3047247 0.020662265 0.5804275 0.08542167 1.0304303 -0.073179916
-0.50774693 0.38847706 -0.057076223 -0.06722122 0.91131157 0.45886707 1.6949339 0.45881176
0.21681583 -0.4821476 1.0490342 -0.6919423 0.6418566 -0.81548494 -0.65382385 1.4607869
0.3359521 0.8645704 -2.8825626 1.378191 0.06379099 1.0725025 1.2173529 -0.3470543
-0.63340646 0.048004765 0.866033 -0.07537324 -0.75816035 -0.14481696 -0.24719101 0.24769406
-1.1941578 -1.4119565 -0.32897583 -0.58810955 0.4241531 0.4092058 0.2750328 -0.07038512
-0.59419763 0.2825344 0.51056266 -0.8647411 -0.27487344 -0.50410914 -0.06866734 -1.7020506

rnn.weight_hh f4 [200, 50]
00000000: 05f0 b63e 10de 16bf 0e48 aabe 6d91 c23e
00000010: f52d 45bf daf7 6e3f 4582 dcbe 1d77 e1be
00000020: 4631 c5be 96db 2a3f 412f 363f 199b a73f
00000030: d221 cfbe adfe 08bf f3e6 5d3e e065 6f3e
00000040: af3e 6b3f 2a90 eebe ed63 353f 5e71 eebe
00000050: 978f 1bbf 22f0 2a3f 32fe 9a3e 6435 f2be
00000060: c452 273f 0f03 ee3e 0657 c4be 4110 35bf
00000070: e750 023f 9476 fd3e 8b3f 0cbf 2e3b 14bf
00000080: f398 9e3e 370f 7fbf fbb5 9f3d 419b 1abf
00000090: 117b 53bf 5360 003f fb88 e23e 1432 183f
000000a0: 5a6f febe 3b8a afbe c3dd 243f f7a9 383f
000000b0: 7ec2 873f 2b5d 383f b515 bcbb 762f ec3e
000000c0: 9698 823d def6 0f3f 65f8 c8be ad10 e93e
000000d0: 960b a7bf 84a0 ef3f 73e7 a6be f78d 40be
000000e0: 58a6 46bf de9b 4fbf 22bc ee3e 507a 403e
000000f0: 4f2d d3be b8ad 36be 2401 debe 222f cf3e
00000100: 87af 71bf 67f9 2a3e a1d6 b6bf 6051 1fbe
00000110: a4b3 74be 7abd 36be b3c0 d13b 8a48 7d3d
00000120: 131a 283e c957 4e3f ade3 5a3f 66e7 433e
00000130: be54 8c3f 56e8 03c0 f5c8 103f a5da e6be
00000140: caf6 18c0 4fd8 273f bd15 ebbf 43e5 14bf
00000150: 2881 a13f 62ef 49be fba1 44be c88e 5f3f
00000160: e24b 8ebe 4df8 3f3e b3fc 143f 7f88 a1bf
00000170: 88d7 943f 1236 f13f 31d1 583f 7a78 e1bd
00000180: e5f6 323f 2b6a 21bf 25a2 c7bd aa37 693e
00000190: 93de 00bf c892 63bf 172e e1bf 797d ea3e
000001a0: 91a1 d23e 48a0 0abf 900c 563f fcde 0b3e
000001b0: c2fe 75bf 7d91 30bf 9405 3fbf 9cdb 373f
000001c0: 3768 5dbf 1d6c c43d 57b3 ba3e dd23 72be
000001d0: ba53 513e 6208 8dbe 45dd c43e 49fd 823f
000001e0: 21e6 04be 4c4a b83e 1325 93bf 4d47 803d
000001f0: fe62 0e3f d788 27bf 31a5 98bf 7990 6b3f
00000200: f6ce 9bbf b384 763e c736 b1bf 4bcb 11c0
00000210: 71d0 ee3e 7ba2 9ebe 3399 49bf 7770 5f3f
00000220: 047f 66be 2483 aa3d 179d ed3d ac8e 3e3f
00000230: da80 24be 3c56 cdbe 826b c33f 2a13 35bf
00000240: 56b2 7cbd bacc 3dbd f7be 5cbe dbd4 87bf
00000250: 2f2a ca3e 3669 703e 42e3 983f 67c0 e63d
00000260: 368b 643f 370a cc3e 4a33 743e ae2d b2bf
00000270: 6473 123e d56d d73e f750 993f a831 1cbf
00000280: 1457 a5be 08e9 f6be c99b 923f e62e f93e
00000290: 7fed 2b3f 2f91 42bf 92c8 a63e be92 a23e
000002a0: 99d6 babf dbe2 32bf d606 b7be 6934 c03e
000002b0: a1cc 86bf 6eee bfbe c213 2ebf ba5b ddbe
000002c0: 4750 44bf 53c3 0c3f d625 793e 793c c33f
000002d0: bcc3 2c3e 2082 38bf 0f3d 6f3f eae7 05bf
000002e0: 2c76 81bd 5d33 583e 0800 7a3d cc0f 8dbf
000002f0: 4787 c7be 1ab2 b23f 1582 90bf 2ae1 933f
00000300: 7a10 c9be 195f 333f 0845 2dbe c291 5fbf
00000310: b065 8c3f c3b6 ebbf 2348 8cbe eb5a c73d
00000320: 12c2 89be d8ad e8bf 8bfb c3bc 4970 27bd
00000330: a923 3fbe 8865 213f 103b e33f 475f ecbe
00000340: 078c 0cbe 0bc5 b9bf 1ced ffbe bf8b 5b3e
00000350: 94ca 083f 9921 523f 9f22 7ebd 231b 11bf
00000360: 36de 073e cca5 3a3f 08f8 91bf 4047 d5be
00000370: 4d78 c5be 899d 9abe b6e8 fc3e d168 9b3e
00000380: 8014 87be 77be fe3e c072 bebf 998b 4c3e
00000390: 7611 e4be c9a5 e4bd 8a9e 23bd 4b25 83be
000003a0: 33b2 dfbe f9d3 3f3f 3ee4 d03f 4caf eebe
000003b0: 5149 103f 98ec ba3e 191e 103f f94d e23e
000003c0: 37a2 5b3d a867 1140 5ee5 f03e 7cfe 1e3f
000003d0: 40ef 4fbe a105 8bbe 44e4 023f 6037 043f
000003e0: 3824 bfbf b61c 1ebf b190 9abc 62cf 14be
000003f0: 8402 abbe 416f 323e 788c 41bf c930 e03e
0.35729995 -0.5893259 -0.33258098 0.38001576 -0.7702325 0.9334694 -0.43068138 -0.4403619
-0.38514155 0.6674131 0.71165854 1.3094207 -0.4045549 -0.53513604 0.21670131 0.23378706
0.9189252 -0.46594363 0.708556 -0.46570867 -0.60765976 0.66772664 0.3027206 -0.4730636
0.65360665 0.4648671 -0.38347644 -0.70727926 0.509047 0.4950453 -0.5478446 -0.579028
0.30976066 -0.9963259 0.07798382 -0.6039315 -0.8260966 0.5014698 0.44245133 0.59451413
-0.4969433 -0.3428515 0.6440088 0.72134346 1.0606229 0.72017163 -0.0057398924 0.4612996
0.0637676 0.56236064 -0.3925201 0.45520535 -1.3050411 1.872086 -0.32598457 -0.18804155
-0.7759757 -0.8109721 0.4662791 0.18796659 -0.41245505 -0.17839706 -0.43360245 0.40465647
-0.9440846 0.16696702 -1.428425 -0.15558386 -0.23896652 -0.17845717 0.0064011454 0.061836757
0.16416197 0.806027 0.85503656 0.1913124 1.0963361 -2.0610557 0.56556636 -0.45088688
-2.3900628 0.65564436 -1.8366009 -0.58162326 1.261754 -0.19720224 -0.19202416 0.8732724
-0.2779227 0.18747063 0.5819809 -1.261978 1.1628275 1.8844626 0.846942 -0.11009307
0.6990798 -0.63052624 -0.097477235 0.2277514 -0.5033962 -0.88895845 -1.759219 0.45798853
0.4113889 -0.5415082 0.8361292 0.1365928 -0.96091855 -0.68972 -0.74617887 0.7181947
-0.86487144 0.095909335 0.3646495 -0.23646493 0.20442095 -0.27545458 0.38450065 1.0233546
-0.12978412 0.35994184 -1.1495689 0.062635995 0.556198 -0.65443176 -1.1925412 0.9201732
-1.2172534 0.24074058 -1.3844842 -2.278033 0.46643403 -0.30983338 -0.7874939 0.8728098
-0.2250939 0.08325794 0.11602228 0.7443645 -0.16064778 -0.40104854 1.5267184 -0.7073237
-0.061693512 -0.04633782 -0.21557222 -1.0611833 0.3948531 0.23477635 1.1944354 0.112671666
0.8927492 0.39851543 0.2384769 -1.392019 0.1430183 0.42075983 1.1977834 -0.6101327
-0.32292998 -0.48224664 1.1453792 0.48668593 0.67159265 -0.7600278 0.32574898 0.3175258
-1.459674 -0.69877404 -0.35747403 0.37539986 -1.0531198 -0.37486595 -0.679989 -0.43234044
-0.76684994 0.5498554 0.2433084 1.525283 0.16871542 -0.72073555 0.93452543 -0.52307
-0.063213676 0.21113344 0.061035186 -1.1020446 -0.38970396 1.3960602 -1.1289698 1.155309
-0.39270383 0.7006698 -0.16920865 -0.87331784 1.0968533 -1.841515 -0.27398786 0.09734138
-0.26905876 -1.8178053 -0.023923656 -0.040878568 -0.18665947 0.6304555 1.77524 -0.4616644
-0.13725291 -1.4513258 -0.49985588 0.21440028 0.5343411 0.82082516 -0.062044736 -0.5668203
0.1326836 0.72909236 -1.1403818 -0.41655922 -0.38568345 -0.30198315 0.49396294 0.30353406
-0.26382828 0.49754688 -1.4878769 0.19975127 -0.44544572 -0.111644335 -0.039946117 -0.2561439
-0.43690643 0.7493282 1.6319654 -0.46618116 0.5636187 0.36508632 0.56295925 0.44200113
0.053621497 2.2719517 0.47049993 0.6210706 -0.2030611 -0.27152732 0.51129556 0.51646996
-1.4932928 -0.6176256 -0.018867822 -0.14532235 -0.33400357 0.17425252 -0.75604963 0.4378722

rnn.bias_ih f4 [200]
00000000: 451d 933e 0666 c7bd 7ecf e53e 6e17 193f
00000010: ee06 02ba 0e91 a23f 0e56 d43e 5646 bcbd
00000020: 7123 093e b3b7 043f a12a 913e 91e6 4fbd
00000030: a462 123f c08c bfbd 14e1 103e 8b6a 9abd
00000040: 529b 5f3f ecb8 323f 8d13 48be 333f 123f
00000050: c639 fe3e 198b 5b3f 38ce 483e da58 023f
00000060: 6bc2 73bd ac8e 273f 9b46 9fbd d008 cc3e
00000070: 08a0 8d3e 81fe ed3e 9beb 52be 4510 e53e
00000080: 8283 0bbe e6ec 443f b186 ed3e d198 d33d
00000090: b82a 063f c55a c63d f550 7a3e b3fb 583e
000000a0: a112 a8bd eabb 0bbf 5090 023d 2f88 babe
000000b0: 463f 5b3f e87f 893f 0dd0 853d 6cae d1bd
000000c0: 055a 583f 3b2c 733f be17 c03e 3feb ab3e
000000d0: fa32 a6be 3d5a 8a3e ff4f ee3d ecfe 2f3e
000000e0: a52c 283f 5c46 8d3e f4f3 873e 7e2a f23e
000000f0: e768 d0bd 30f9 debd 81a6 dc3d e070 84be
00000100: 45cd 683d 5663 0dbe 049c 32be 811f 333e
00000110: 4f79 b33e 7e88 b8bd 5680 4bbd f02d d3bd
00000120: 59a8 97bd 9bc7 39be f106 a33e 1043 b33d
00000130: 222d 083e d02e 11bd ea10 1d3f 77f3 dd3e
00000140: 352a a93e 28f9 74be 9c95 f13d 75a0 d53e
00000150: 147b 95be bd7c a13d 47d2 0e3f e69f 2ebe
00000160: 566d ae3e 8cab ee3e 2167 263e 66dc 2b3e
00000170: 3c43 51be 7da0 e9b9 8bc5 df3d 70fb b33e
00000180: b3ed 0abe 44dd 04be 6161 b9bd 4fdc ee3e
00000190: e197 5d3f 9c27 12bf 94eb abbe 2763 733f
000001a0: f750 f9be fe5f 513f 4b9a 96bf db40 b4bd
000001b0: a3fb 0ebf b595 793f 88d2 403f f24a 583f
000001c0: b5e3 37bf bd3d 27bf ecf3 453f 48f8 0e3f
000001d0: fe70 353f 43d7 4dbf c333 363f 5dce f6be
000001e0: dfb1 39bf c61e f33e 7306 8b3d 3d59 32bf
000001f0: 366c f73e 59ca ec3e 63f3 e3be 6591 e2be
00000200: 544b 2b3f 3731 3b3f 2b99 c4be 79ab 91be
00000210: 0d92 c6be 3c04 5fbf 2d36 283f 5df9 34bf
00000220: 8a5d 33bf 6e1d df3e b6a3 2a3e ba40 143f
00000230: f924 3ebf d2d9 49bf c62c b63e 39b8 043f
00000240: 1981 783f 6975 5d3f 8ff4 c1bd f44e 923e
00000250: 3fbd 5dbe 49cf 773f 9303 3e3d 3094 ef3d
00000260: 85d2 0dbe 9c47 1bbe 2f14 313f 089a 8e3c
00000270: 0919 60be 53b9 2bbc 3f00 6bbe 9970 603d
00000280: 0774 d93d f931 603d 5b91 b5bc 30c4 cc3b
00000290: a295 48be ae23 e13d 5546 9dbe 857e 38bd
000002a0: 9580 2bbe b499 b03e 7cd7 883e ccd5 b6be
000002b0: 75c6 33be 8523 383b d3b3 953e 74dc 5cbe
000002c0: 4b95 833e c143 f73d 9349 86be 9406 6ebd
000002d0: 5b10 adbd 6f07 153f 2b60 d4bd dc29 4d3e
000002e0: 76dd 153d ae57 41bd 0140 83be 4627 953e
000002f0: ec31 6a3c bc26 c13c 38f9 98be 9e7f ab3e
00000300: 43e7 ea3e b382 783e fa39 33be 9bde 80bd
00000310: bc06 b9bd 73d5 113c 0d12 573f 3186 85be
0.28733268 -0.09736256 0.44884866 0.59801376 -0.0004960139 1.2700517 0.41471905 -0.09193103
0.13392426 0.518428 0.28352836 -0.050756995 0.57181764 -0.09353018 0.1414836 -0.07539853
0.87346375 0.6981342 -0.19538708 0.57127684 0.49653453 0.8575912 0.19609916 0.50916827
-0.059511583 0.65452075 -0.07777139 0.39850473 0.27661157 0.46483234 -0.20597689 0.44738975
-0.13624385 0.7692398 0.46391824 0.10331882 0.52408934 0.09685282 0.24444945 0.21189766
-0.08206678 -0.5458361 0.03187591 -0.36432025 0.8564342 1.0742159 0.06533823 -0.102383465
0.8451236 0.94989365 0.37518114 0.33577916 -0.32460767 0.2702197 0.11636352 0.17187089
0.6569312 0.27592742 0.2655331 0.47298044 -0.101762585 -0.108873725 0.107739456 -0.25867367
0.056836385 -0.13807425 -0.17442328 0.17492487 0.3505349 -0.09010409 -0.049682938 -0.10311496
-0.07405157 -0.1814255 0.31841233 0.087530255 0.13298467 -0.035445035 0.61353934 0.4334981
0.33040014 -0.2392317 0.11796114 0.41723981 -0.29195464 0.0788512 0.5578961 -0.17053184
0.34067792 0.46615255 0.16250278 0.16783294 -0.20435804 -0.00044560796 0.1092635 0.3515277
-0.13567238 -0.12975031 -0.09051777 0.46652457 0.86559874 -0.5709169 -0.3357817 0.9507317
-0.48694584 0.817871 -1.1765836 -0.08801433 -0.5585272 0.9749406 0.75321245 0.8448936
-0.7183183 -0.6532858 0.7732532 0.558476 0.7087554 -0.8040659 0.7117273 -0.48204318
-0.72537035 0.47484416 0.067883395 -0.69667417 0.48324746 0.4624813 -0.44521627 -0.44251552
0.66911817 0.7312197 -0.38398108 -0.28451136 -0.38783303 -0.87115836 0.65707666 -0.70693
-0.70064604 0.4357714 0.16664013 0.57911265 -0.74275166 -0.7884799 0.35581034 0.518436
0.9707199 0.8650728 -0.09470474 0.2857586 -0.21654223 0.9680067 0.046390127 0.116981864
-0.13849838 -0.15164036 0.6917142 0.017407432 -0.2188455 -0.010481196 -0.22949313 0.05479488
0.106178336 0.054735158 -0.022164037 0.0062489733 -0.1958833 0.109931335 -0.30717722 -0.045042533
-0.16748269 0.34492266 0.26726902 -0.3570999 -0.17556174 0.0028097343 0.29238757 -0.21568471
0.2569984 0.1207347 -0.26228008 -0.058111742 -0.08450385 0.5821447 -0.10369905 0.200355
0.036588155 -0.04720276 -0.2563477 0.29131526 0.014294129 0.02357804 -0.2987764 0.33495802
0.45879564 0.24268608 -0.17502585 -0.062924586 -0.090344876 0.008900988 0.8401192 -0.26078942

rnn.bias_hh f4 [200]
00000000: 3358 c53e fb64 9c3c bd8c 033f 7ed1 d13e
00000010: b883 84bd 33eb 7f3f adcb 963e 05ba 87be
00000020: 574c 3c3d 6573 ea3e 7499 4e3e 8717 10bd
00000030: e47a 463f dcb7 e0bd c7a7 2a3e c12d bfbd
00000040: 3b34 823f 9379 443f 928e 87be 9efa f43e
00000050: 4b50 cf3e 959b 533f 4a33 243e e13c be3e
00000060: 66c6 3bbc 6d01 513f 83eb 7f3d d7f4 c83e
00000070: 6d4a 113e 16b2 cf3e f292 0abe 00b6 0a3f
00000080: c00d 3abe 7cb1 3b3f 7654 d13e 183f 913e
00000090: 09b9 263f cd14 f83d e80e 143e 2d45 d83e
000000a0: ab2e af3c 74f3 dabe 0479 5f3e 6522 9cbe
000000b0: a1ec 653f 565f 963f 5fba ee3b cf98 a5bc
000000c0: 10b2 503f b874 633f 8c76 af3e cbea a43d
000000d0: 8ff4 bebe 586d bb3c 1513 a83d 7ec2 703d
000000e0: 7001 453f d35a a23e e8b4 c53b b430 1e3f
000000f0: 7d97 8cbe 26e6 0ebe 1051 803d 8771 91be
00000100: bc57 c4bd 41e8 06be b494 c43d 7304 8a3e
00000110: 7149 a73e a6fd 26be fe3e 41be 22db c0bd
00000120: a88e 00be 2476 80bd 6372 af3e 8ef6 01bc
00000130: 51c1 d3bc 3b82 c5bd 800c ee3e 8aca 0e3f
00000140: e8b5 b73e 2392 3ebc 6881 193d c261 da3e
00000150: 6403 9fbe 774b 493e bf7e 153f 1d92 2c3d
00000160: 040e 873e e363 543e ff86 003e 108f f33d
00000170: 51cd 8b3d 9901 bc3d bb29 a1bd 279c bc3e
00000180: 03c9 d03c 4e3a f0bd fe09 b2bd 486c db3e
00000190: f98a 5e3f 3011 18bf 9944 c6be 258d 753f
000001a0: 5392 b3be 0573 513f 874e a5bf 6156 84be
000001b0: fc2e 17bf e647 893f 2330 453f 2128 6f3f
000001c0: 4cc1 46bf edaa 2cbf 331c 363f 5957 f03e
000001d0: 39b5 373f 0971 73bf 7ffe 2c3f 0b45 26bf
000001e0: 1f61 37bf e5af 063f be0c 5b3e b23b 4fbf
000001f0: 771b d33e 6d66 e33e 92e1 06bf a8ab e8be
00000200: e695 283f 21fe 583f 157b efbe dc67 acbe
00000210: ed72 9dbe fca8 24bf 40c0 373f d4b1 00bf
00000220: 77de 29bf ffee cf3e d4a4 cc3e 4c30 073f
00000230: 440c 0cbf 7988 50bf e073 913e 109b ee3e
00000240: 775c 833f 3436 6d3f 982a a4bd d866 b63e
00000250: f1e7 d9bd 52ca 933f fd2d 893d 1b83 0c3e
00000260: 43f5 c83d 6abf 62be 8200 f03e d01f 2d3d
00000270: dbe2 28be ae1a 59be 8833 58bc 845d c1bd
00000280: 23cf 3e3d a8a7 35bd 8c9b 05be 583f c13d
00000290: 1ab2 83bd 50d5 0b3e 8b4c 1bbe ab53 04be
000002a0: c407 51bd 6181 603e eb69 4b3e 15be 98be
000002b0: b4de 96be 89f8 d63b e7fa 863d 4e53 cebe
000002c0: 817a 7c3e 7b50 733e 0969 dabd 66a5 98be
000002d0: 41a9 03be 7e62 2c3f 3117 bcbd d3e1 0e3e
000002e0: 3d01 aabd a115 b6bd 97c3 43be 5b99 ac3e
000002f0: fc2a a43d 4f20 8b3e 774b 79be b0ac 8a3e
00000300: 504b b93e a148 fc3e 84ee 5fbe bf70 b8bd
00000310: adab dd3c a940 c23d 3eea 633f 8416 94be
0.38543853 0.01909112 0.51386625 0.40980142 -0.06470436 0.9996826 0.29452267 -0.2650911
0.04597124 0.45791164 0.20175725 -0.035178687 0.77531266 -0.109725684 0.16665564 -0.09334899
1.017219 0.7674801 -0.2647596 0.47847456 0.40490946 0.82659274 0.1603519 0.37155822
-0.011460876 0.816428 0.06248046 0.39249298 0.14188547 0.40565556 -0.13532618 0.5418396
-0.18169308 0.73317695 0.4088475 0.2836845 0.6512609 0.121133424 0.14458811 0.42240277
0.021384558 -0.42763865 0.21823508 -0.3049499 0.8981419 1.1747844 0.0072854008 -0.020214466
0.815217 0.88849974 0.34270132 0.08052596 -0.37295958 0.022879288 0.082067646 0.058779232
0.7695532 0.31709918 0.0060335286 0.61793065 -0.27459326 -0.13954982 0.062654614 -0.28406927
-0.095870465 -0.13174535 0.09598675 0.2695652 0.3267322 -0.16307697 -0.18871686 -0.09416796
-0.12554419 -0.062725335 0.34266958 -0.007932318 -0.025849016 -0.0964398 0.46493912 0.557778
0.3588097 -0.011631521 0.037476927 0.42652708 -0.31057274 0.19657694 0.58396524 0.042131532
0.2637788 0.20741229 0.12551497 0.118925214 0.0682627 0.09179992 -0.078692876 0.36837885
0.025486475 -0.11729871 -0.08693312 0.4285605 0.86930805 -0.59401226 -0.3872421 0.95918494
-0.35072574 0.8181613 -1.291459 -0.25847152 -0.5905607 1.0725067 0.77026576 0.93420607
-0.776387 -0.6744831 0.7113678 0.4694164 0.717609 -0.9509435 0.6757583 -0.649491
-0.7163257 0.52612144 0.2139158 -0.8095046 0.41231892 0.44414082 -0.52687943 -0.45443463
0.65853727 0.8476277 -0.46773592 -0.33672988 -0.30751744 -0.6432035 0.71777725 -0.50271344
-0.6635508 0.40612027 0.39969504 0.5280807 -0.54706216 -0.8145824 0.28408718 0.46602678
1.0262593 0.9266083 -0.080159366 0.3562534 -0.106399424 1.1546118 0.06698225 0.13721888
0.09812405 -0.22143331 0.46875387 0.042266667 -0.16492788 -0.21201584 -0.01319588 -0.09441665
0.04658426 -0.044349343 -0.13047618 0.0943591 -0.064304546 0.13655591 -0.15165918 -0.12922542
-0.051032797 0.21924354 0.19864623 -0.2983252 -0.29466784 0.0065603894 0.065908246 -0.4029793
0.24656107 0.2376117 -0.10664565 -0.2981369 -0.12857534 0.6733779 -0.09184111 0.13953333
-0.083010174 -0.08890844 -0.1911758 0.3371075 0.08016011 0.27173087 -0.24345194 0.27084875
0.3619027 0.4927416 -0.2186833 -0.090058796 0.0270594 0.09484989 0.890293 -0.28923428

rnn2.weight_ih f4 [200, 50]
00000000: 849c 313e f041 f7bb e672 8bbe 0097 4d3d
00000010: 1810 143e 7d7f b7be 6ab1 99be c414 91be
00000020: 1989 013f 9541 233d 1080 fabd f47c bfbc
00000030: 26d0 44be e748 953e b8a6 6d3f 9d26 ad3e
00000040: 8b37 b73e af46 753e 8c67 80bd 16ae 093f
00000050: 67f6 0f3f b0d1 303e 1efb bbbe 4408 9e3e
00000060: 7a8d 1a3f 9c2d 703e 05f4 9ebd 8256 07bf
00000070: 1731 7c3d 4711 9d3d 26f1 3cbf 15f0 a53d
00000080: f093 41bf da28 0bbe c51b e83f e5e6 debe
00000090: fd9c d73e b05c 1a3f eb57 9ebe 3090 383e
000000a0: 6570 733d 61e9 febe 6e8a d93d 7ba9 c63e
000000b0: c9bc cf3e 6cf2 cfbb 8548 23bf 4146 61bf
000000c0: c47a f13f 6962 693f e854 a6be d6e2 843e
000000d0: 0f95 a6bf 5ad5 b73e c8eb c1bf 3411 433f
000000e0: cf29 b4be 7f20 e4bd 757f 973e 8b70 a23e
000000f0: 5497 8d3f d097 fb3e e21c 04bf 5449 59be
00000100: c22b f53e 3da6 413f 2d9c 9bbd a3e5 43bd
00000110: 256f 883f 714f 19bf 5233 93bc da42 8bbe
00000120: e192 e83e 7997 e9be 0b54 b93e e339 9b3f
00000130: fae4 9cbf f54e f1be e24f 683e d5de 09be
00000140: 4538 98bf d9e0 d1bf 2d55 8c3d eec1 04bf
00000150: 696c aabe 6cb7 12be 0a51 61bf 98a3 7c3d
00000160: 5f9c 5b3e ecb6 cd3e d391 0dbe b20b 37bf
00000170: f664 293f 78b8 ffbe a5c4 87be 3b1c 293f
00000180: e02e a3bf 6f4e b83f 5cf0 0f3f 153b 1c3d
00000190: 9a87 6e3f ba0a ad3e cc7c 9f3e 64cd 173f
000001a0: 69dd d23e 291d 093e 3134 473f cc7f 89be
000001b0: 6f01 5cbe 23dc af3e ac8f 0f3d 4e56 0a3f
000001c0: ad70 f63c bff4 543e abc9 ba3e 2ecc 973e
000001d0: a1ca 803e 89ee 463f 26e7 853c 4c27 08bf
000001e0: 7b6c bcbd 4073 1bbd 635e 103f 7262 ff3b
000001f0: c946 c9be e1fb 003c 220c f3be 304f 33bd
00000200: af33 003e 9287 37bc 2209 263d 3eb7 a4be
00000210: 7a85 69bf b0e3 11bf 2e63 33be 9121 9abe
00000220: 9175 bc3d 1b8c 0c3f 2901 1bbf 207d 61be
00000230: 3834 d2be d74e e9be 6b01 b53e f175 7e3d
00000240: 00ed abbd e50b c83e 2b69 063f 3b41 a13e
00000250: 33cf ab3f 69c5 91be 55b3 a3be 1a8a f53e
00000260: 6b82 963e 6419 a13f 73d8 493d 3740 a4be
00000270: e8cc 88bd aa1a 293f 5a20 28be f572 d83f
00000280: 44a9 8e3d 2fd0 58be 3d33 7a3f 6b03 f9be
00000290: 6e33 f73e 3b1c 8c3e 5f66 8ebe 3c0f a53f
000002a0: cd1a d0bd 6995 32bc abae b23e d144 bf3e
000002b0: 82a1 cfbe 3337 563f 3d69 cbbd aa3b 7abe
000002c0: d6ae 1fbf 53b1 02bd da90 29be f3ca 0dbf
000002d0: 845e 4f3f 5325 e5be f17b a4bb b1f6 8fbe
000002e0: f857 123e 573c 88be 6c95 6fbe 81d7 59bf
000002f0: d303 f7be 896b 07be d697 0ebe 7c92 66be
00000300: f45b 06bf 0fc1 1e3c 486c 093e a81d 93bd
00000310: b0ac ec3e 6813 f9bd 8c08 ca3d f3eb 943e
00000320: 4c82 353f a048 3bbf a7a8 43bf 9828 473e
00000330: 8861 89bf 9837 d83d b5da 21bf fa64 38be
00000340: d5c4 ecbe a556 253f 293c 323f 7dda 873f
00000350: c63f 10bf 4bfc 51bf b5de 0f3f 70a5 313f
00000360: c0cf 9e3e ed1d 75bf 20b5 c53d 8acc 1cbf
00000370: 1e48 89bf 1c11 dd3e ffc1 d3bd ab83 18bf
00000380: 16f5 1b3f a816 a93e d2d2 82bf f6a8 f6be
00000390: 0fd7 943e 9c0b 3b3e 5f0d 02bf 8989 1bc0
000003a0: 1a81 ed3d 3eca 5abf 158c 683f 3915 e4be
000003b0: 49d2 3bbf 42a9 4f3f 586f 553f fe31 9c3f
000003c0: 1ada 8bbf f544 36bf 5bdc c33e 04fd d33e
000003d0: 33dc 353e 0194 233e b57b efbe 8ee3 b83d
000003e0: cd09 3dbf 60ad 193f 96e0 12bf 7435 c63e
000003f0: df83 54bf 7a76 0e3e 46a1 f1bf 479f 683e
0.17344862 -0.007545702 -0.27236098 0.050192833 0.14459264 -0.35839453 -0.3001817 -0.28336155
0.5059982 0.039857466 -0.12231457 -0.023375012 -0.19220027 0.29157183 0.9283252 0.33818522
0.35784563 0.23952745 -0.0626975 0.5378126 0.56235355 0.1726749 -0.36715025 0.3086568
0.60372126 0.23454899 -0.07761387 -0.52866375 0.061570253 0.07669311 -0.73805463 0.08102433
-0.7561636 -0.13589802 1.8133475 -0.43535534 0.4211196 0.6029768 -0.3092645 0.18023753
0.05943336 -0.4978743 0.106221065 0.38801178 0.4057372 -0.0063460376 -0.6378253 -0.87997824
1.886559 0.91165787 -0.32486653 0.25954312 -1.3014239 0.35904962 -1.515008 0.76198125
-0.35188147 -0.11139011 0.2958943 0.31726488 1.1061807 0.4913926 -0.5160657 -0.21219379
0.47884947 0.75644284 -0.075981475 -0.04782642 1.0658919 -0.5988684 -0.017968807 -0.2719944
0.4542456 -0.45623377 0.36196932 1.2127041 -1.2257378 -0.47130552 0.22686723 -0.1346391
-1.1892172 -1.6396743 0.068521835 -0.51858413 -0.33285835 -0.14327782 -0.8801428 0.061679453
0.2144637 0.4017862 -0.13825159 -0.7150222 0.6616968 -0.49945426 -0.26517215 0.660587
-1.274868 1.4398936 0.56226134 0.038142283 0.9317566 0.33797246 0.311499 0.59297776
0.41184548 0.1339003 0.7781401 -0.26855314 -0.21484922 0.34347638 0.035049126 0.5403794
0.030083025 0.20796488 0.36481985 0.29647964 0.25154594 0.77707726 0.016345572 -0.5318496
-0.092003785 -0.037951708 0.5639402 0.007793718 -0.39311817 0.007872553 -0.47470194 -0.04377669
0.12519716 -0.011201756 0.040536053 -0.32171053 -0.91219294 -0.5698805 -0.17518303 -0.30103734
0.092021115 0.54901284 -0.60548645 -0.22020388 -0.41055465 -0.45567963 0.35352644 0.062124196
-0.083948135 0.39071575 0.52504224 0.3149508 1.3422607 -0.28470924 -0.31972757 0.47956926
0.29396376 1.2585874 0.049278688 -0.32080242 -0.06679708 0.6605631 -0.16418591 1.6910082
0.069658786 -0.21173166 0.97734433 -0.4863542 0.48281425 0.27365288 -0.27812478 1.2895274
-0.10161362 -0.01089988 0.34898886 0.3735719 -0.40552908 0.8367798 -0.09932182 -0.24436823
-0.62376153 -0.03190739 -0.16559163 -0.553878 0.81003594 -0.4475504 -0.005019658 -0.28117898
0.1429137 -0.26608536 -0.23396844 -0.8509446 -0.48245105 -0.13224615 -0.13925108 -0.22516817
-0.5248406 0.009689583 0.13420212 -0.07183391 0.462255 -0.121619046 0.098649114 0.29086265
0.7090194 -0.7315769 -0.7642922 0.19449079 -1.0732889 0.10557479 -0.63224345 -0.1800727
-0.4624392 0.64585334 0.6962305 1.0613552 -0.5634731 -0.82025594 0.561992 0.6939306
0.31017876 -0.9574879 0.096536875 -0.612496 -1.0725133 0.43177116 -0.10339736 -0.5957591
0.60920846 0.33025098 -1.0220587 -0.48175782 0.29070327 0.18266147 -0.5080165 -2.4302695
0.1159689 -0.8546485 0.9083875 -0.44547442 -0.73367745 0.8111764 0.8337302 1.2202756
-1.0925934 -0.7119897 0.38254055 0.41403973 0.1775978 0.15974428 -0.46774068 0.090277776
-0.7384308 0.60030174 -0.5737394 0.38712656 -0.8301372 0.13912383 -1.8877342 0.2271701

rnn2.weight_hh f4 [200, 50]
00000000: f82f 9cbd c454 103f 372e 28be ee5f 103e
00000010: ce7d d03d bec1 a63e b107 c4be 3abf 06be
00000020: 55b8 26bd 03b5 573f 7514 5ebd 403b 2bbc
00000030: bef5 4bbe 2395 f53e ac5d 20be fcd0 41bb
00000040: fde6 403e 0229 dbbe c57c 27bd cb7b b93d
00000050: 0ffd 4c3f a1d0 28bf cd73 1dbf 84be b23e
00000060: 3dd9 f73b 6107 dabe 3624 4c3f c81e 15bf
00000070: 6113 c2bd 8bfd 1b3e 1538 b13e d6f8 38bf
00000080: 9de4 243f 9857 09bf 051c 263e 51c7 d43e
00000090: 6b42 83bc 571d 3c3f 6625 953f abb0 3b3f
000000a0: 9010 17be c8ca 95bb 40f6 31be bb0f 16bf
000000b0: 3b82 993f bdb0 743d 0e9b c13e 59d3 a1be
000000c0: 43a1 3ebd d652 bebd 053c 4a3f 723d 313f
000000d0: b727 4d3f 7800 e839 e6f1 283f bf41 b13e
000000e0: ca8b 29bf 1173 16bf 9384 84bf 581c 193f
000000f0: bdf4 59be 402b 803f 960c 9abf 1fbd ba3e
00000100: 1c1b a53e 2853 663d 45be 063f f19e b8be
00000110: 8f56 c33e 31a9 e93e 5f06 aa3f 4e27 56be
00000120: f090 48bf abe1 543f be5d fc3e e17a 4ebf
00000130: aa6e 1a3f c38d 52be 669f da3e 122e f13e
00000140: de2c 273f 8ee4 44bf e34e f03e 5ae5 9dbe
00000150: 8795 fd3e ab57 473f f80a 683e 5ce3 243e
00000160: 7d89 103f 3a7c 3c3f 7c68 01bf a90e 37bf
00000170: 65b4 04bf 7492 cdbe 9105 033f ca61 25bf
00000180: 06d4 913f 2e6f 0dbf 4f69 cdbe 8fb1 e43e
00000190: 7099 283f 7bdb d83e 37b2 aabd 3950 83be
000001a0: e804 433e 387f 8a3e 4939 bcbe 3c66 52be
000001b0: f5f2 83be 3cb3 033f dd12 d1be 04ef 843d
000001c0: 4d34 92be 2a0f 293e 3e51 7c3f 3da8 dfbe
000001d0: e61b 803e 3d13 79be ff83 e43d 403f 0f3f
000001e0: 8470 ab3e 34e5 abbe a569 0dbf d83d 903e
000001f0: 64ba 57bf 3171 103c 3c0c 3b3e b621 ecbe
00000200: 14f0 933e 3035 b63e f6b5 8a3e fe75 e5be
00000210: 5515 8b3e 96bd 08bf de04 983e 44cf 163e
00000220: 9bae 923e 52e4 2e3f fc0d 6e3e 8ea6 4f3d
00000230: 7fd3 dbbe d9df 87be 4f63 ebbe 7462 5c3d
00000240: dacb 7e3e 361e 0f3d 48ea 223d 8e73 1bbf
00000250: fb70 44be f96b 8bbd 3fe1 203e 1b6e f13d
00000260: 7717 77be 62a7 943f 848d ccbd 20d6 a63e
00000270: 9b57 1fbf 6dce 433f 4027 75bf 9373 bf3f
00000280: 7212 d33e 4bdf 843b 0c19 41be 4d0a 633f
00000290: dd4d 87be 9a25 cd3e e6c6 afbe 2de9 54bf
000002a0: 5e2e c2be 5237 15be b042 583f 25cf 42bf
000002b0: 4541 a4bf 2074 ddbe 7fae e5be 5b46 84bf
000002c0: 77c4 eb3e 826f 5cbe dd1c 96be ebdb aebd
000002d0: 3150 1fbe ec1d 2fbe f5ba c93e 5389 9bbe
000002e0: 926e 5cbe 1212 043e d598 1ebf b2e1 8d3f
000002f0: b255 383f 243d 2b3f 7205 25bf e9c1 99bd
00000300: cc0a a1be 772c 4fbf f174 093f e29a 80be
00000310: f1c6 343f 518e aabe 6e08 33bd 2368 5d3f
00000320: 748e 983e 42b1 6a3e 04f0 e13d 7c5a 7bbe
00000330: ac75 6cbd fe46 adbe 2dbc cdbd c030 7c3e
00000340: 0009 11bf 5fe8 aa3e d76f da3e 340b 6a3e
00000350: 353f 2dbe c3b6 99bd af26 8dbe ab8e b73e
00000360: b033 f93d fedd 113e f008 8ebe 6798 583e
00000370: 0fa5 1a3d 5e05 b63d 3c7b b5be cf5f 983d
00000380: be5e 2bbf 2c3b 87be d0b9 54bc 622f 423e
00000390: dbc1 babc ba16 fdbe e15b 77ba 3fd2 5dbd
000003a0: 9fe6 833e f0ed 14be affe 893c 2066 3cbd
000003b0: 5036 393d 4c73 133e e914 763e ee42 8b3e
000003c0: 98cf 19be 9472 21be 8f74 00be 2e14 803e
000003d0: 272d f93e 6740 8f3e 3a11 b13e 83e5 acbe
000003e0: 34ea 233e d20d 93bd 9b13 80be 4a19 a93e
000003f0: 5fa3 e53e 913e 1dbd e847 3b3f 019d 2a3f
-0.07626337 0.5637934 -0.1642388 0.14099094 0.10180245 0.3256969 -0.38287118 -0.13158885
-0.040703136 0.84260577 -0.054218728 -0.010451138 -0.19917962 0.47965345 -0.15660733 -0.0029574027
0.18838115 -0.42804724 -0.040890474 0.09056815 0.80073637 -0.6594334 -0.6150482 0.34910977
0.0075637386 -0.42583755 0.79742754 -0.58250093 -0.094763525 0.15233438 0.346131 -0.72254694
0.64411336 -0.5364928 0.16221626 0.41558316 -0.016022881 0.7348227 1.1652038 0.7331645
-0.14752412 -0.0045712925 -0.17379093 -0.5861775 1.1992868 0.059738863 0.3781361 -0.31606558
-0.04654051 -0.092931435 0.7899783 0.69234383 0.80138725 0.00044250838 0.6599411 0.34620473
-0.66228926 -0.5876933 -1.0352958 0.59808874 -0.21284766 1.0013199 -1.2035091 0.36472413
0.32247245 0.056231648 0.5263408 -0.36058763 0.38151976 0.45636895 1.3283194 -0.20913431
-0.7834616 0.8315684 0.4929027 -0.8065625 0.6032511 -0.2056189 0.42699736 0.4710546
0.65302837 -0.76911247 0.46935186 -0.30839044 0.49528143 0.77868146 0.22660434 0.16102356
0.5645979 0.73627055 -0.50550056 -0.71506745 -0.5183776 -0.40150797 0.5118037 -0.6460234
1.139283 -0.5524777 -0.40119407 0.44666716 0.6585913 0.4235495 -0.08334773 -0.25647143
0.1904484 0.27050185 -0.36762455 -0.20546812 -0.257713 0.51445365 -0.40834704 0.06490901
-0.28555527 0.16509691 0.98561466 -0.43683043 0.25021285 -0.24323745 0.11157989 0.55955887
0.3348428 -0.33573306 -0.55239326 0.28172183 -0.84268785 0.008816049 0.18266386 -0.4611947
0.28894103 0.35587454 0.2709195 -0.44816583 0.27164713 -0.53414285 0.29691213 0.14727503
0.28648838 0.6831714 0.23247522 0.05069595 -0.42934796 -0.2653797 -0.45974204 0.05380483
0.2488245 0.03494092 0.03977421 -0.607232 -0.19183724 -0.068077035 0.15710925 0.11788579
-0.24130045 1.1613581 -0.099879295 0.3258524 -0.6224305 0.76486856 -0.95763016 1.4957145
0.4122501 0.004054939 -0.18857211 0.8868759 -0.26426592 0.4006775 -0.34331435 -0.831683
-0.37926 -0.14571884 0.8447676 -0.7609733 -1.2832419 -0.4325266 -0.44859692 -1.0333971
0.46048328 -0.21526912 -0.29318896 -0.0853804 -0.15557934 -0.17101258 0.3940045 -0.30378208
-0.21526554 0.12897518 -0.61951953 1.1084502 0.7200576 0.6689017 -0.64461434 -0.075076886
-0.3145355 -0.8092722 0.53694063 -0.25118166 0.7061606 -0.33311704 -0.04370921 0.86487025
0.29796183 0.22919181 0.110321075 -0.24546236 -0.05772941 -0.33843225 -0.10045657 0.24627972
-0.5665436 0.3338041 0.42663452 0.22855836 -0.16918643 -0.07505562 -0.27568576 0.35851035
0.12168062 0.1424484 -0.27741194 0.21151887 0.03775507 0.088877425 -0.35445583 0.07440149
-0.6694144 -0.26412332 -0.012983754 0.18963388 -0.022797516 -0.49431401 -0.0009435993 -0.054155584
0.25761887 -0.14543891 0.016845075 -0.04599583 0.045217812 0.14399451 0.24031414 0.271995
-0.15020597 -0.15766364 -0.12544464 0.25015396 0.4866726 0.27978823 0.34583455 -0.33768854
0.1600731 -0.071803704 -0.25014958 0.33027107 0.44851205 -0.038389746 0.73156595 0.6664582

rnn2.bias_ih f4 [200]
00000000: 43db 543e 3932 8c3d c214 f83d cedc 99be
00000010: 9639 a23e e463 ad3d 2fb4 213f 0022 bb3e
00000020: 3ea6 16be e4bd 123e bfe0 42be 7513 9f3e
00000030: c240 083e 8db1 d13e 0f93 b23e 6a6d 0dbe
00000040: 977b 11be 2717 cf3d 0048 0d3f 0145 f7bd
00000050: e9da 35be 2bab 24be f322 123f a63c 643f
00000060: d284 fd3e 38c7 78bd 0992 c23e 17ab 63be
00000070: 5e8a 383c a980 e6be 703c 643d bd40 84bd
00000080: 591b da3e 6207 423e bab1 433e 9397 763d
00000090: 2349 223e 6ea7 60be 846e 123f 5c57 df3e
000000a0: 15c9 1e3d c49c 18be 36f9 843d 83ff 7bbd
000000b0: 9b4e ddbc b7dd 473e ad1c d63d d72c 253c
000000c0: 1685 7cbe 8edf 85bb 4105 0b3f d8c4 a6bd
000000d0: bc35 e93e 672d 133f 5bf2 893d 2a6d 9b3e
000000e0: 4861 483e 60e9 b73d 7941 aa3d 8449 543d
000000f0: 0466 fd3e 27f0 1fbd bbf2 653e f0d2 e5be
00000100: 22a8 a93e d0f9 1a3e 28b6 f83c a632 423d
00000110: 975c 3abd 340d 50bd d0c0 71be 568c 863e
00000120: 5855 e43e e532 e93c 225d 41be d55d 6e3c
00000130: 1007 4dbe 0741 60be 4b20 e7bd d739 3dbe
00000140: 98ec ca3d f6cc 063f 99f4 e83d bbec ce3e
00000150: c57d 8dbe 8664 eabd 8953 a73e 803c 04be
00000160: 5bf0 c13e b495 003f 21f4 4c3e 822e 1b3e
00000170: fdba 7d3e 594c 97bd 2bf1 bcbd 3192 f23d
00000180: bfe6 bfbe 606f b5bb bd18 173d 29f8 853d
00000190: 72f1 1f3f f372 483e aba3 d23e f9bd 0ebe
000001a0: 12a0 563e 2df0 8a3e 6f15 2abb 6130 94be
000001b0: 23e6 4cbe 12eb 263e 9f79 8abe e393 9d3e
000001c0: e971 a7be ac23 033f 7414 1f3f 744b 52be
000001d0: e7fa a03e cce5 2abf 8dd3 1b3f bc41 e43e
000001e0: fbe7 953e 2144 b7be 406a 0cbf 8571 383f
000001f0: 9842 6abe 4b30 e4be bea2 d83e 2cba 8fbe
00000200: be84 063f b0eb 463e a3a9 993e 1353 73be
00000210: 4e2b 003f 3d70 01bf 0e13 563e 95ef 133f
00000220: 6533 ab3e b1c3 8a3e ed38 0d3f 55be e33e
00000230: 2866 a2be 5de3 14bf 289c 00bf 80d7 9bbe
00000240: a336 f03e 0391 c2be f813 cc3e c974 eabe
00000250: 5283 853d 6d9b 023e df5a b33d 2532 58bd
00000260: 3849 553d a576 1ebf d481 3abe 715c b9be
00000270: 83cd 8e3e 1a3f 53be 2589 bbbd 74df 87be
00000280: 6508 a0be 95a5 353e 4638 da3d 238d 823e
00000290: a3d0 ddbd ab54 21bf ac04 91ba 6b0c a8bd
000002a0: dd80 54bd 1342 d0be 6a5e 973d d29b 883e
000002b0: a384 453f ed22 0abf 4823 0a3f 23c2 5fbe
000002c0: 6f77 10be 2664 0b3d daa7 ad3c 2107 11bf
000002d0: 6d40 3f3e 8496 2c3e 974a 8f3e e86a 4d3c
000002e0: f0d3 88be 4936 903e a261 acbe 6441 19bd
000002f0: 009c 31bc fec3 283d 590a 22bd a884 4fbe
00000300: d27c 55bd bb6a 1cbe d0eb cc3d ca76 653e
00000310: 2ed0 9f3d 170f 6fbe 5edf 1dbf 01fe 1ebd
0.20786767 0.06845517 0.12113334 -0.30051273 0.3168456 0.08466318 0.63165563 0.36549377
-0.14711854 0.1433025 -0.19031046 0.31069532 0.13305953 0.40955773 0.34877822 -0.1381127
-0.14207302 0.10111838 0.5518799 -0.12073708 -0.17759289 -0.1608092 0.5708458 0.8915504
0.49515396 -0.060736865 0.3800204 -0.22233234 0.011263458 -0.45020035 0.0557217 -0.0645766
0.4259899 0.18948129 0.19110766 0.060203146 0.15848212 -0.2193887 0.57199883 0.43621337
0.038765986 -0.14903551 0.06492846 -0.06152297 -0.027015021 0.19518171 0.10454688 0.010081491
-0.24660143 -0.0040854877 0.5430489 -0.08143014 0.4554881 0.57491153 0.06735679 0.30356723
0.1956836 0.089800596 0.08313269 0.051827922 0.49491894 -0.039047386 0.22455876 -0.44887495
0.33136088 0.15134358 0.030360296 0.047411583 -0.045498457 -0.05079384 -0.23608708 0.26278943
0.44596362 0.028466651 -0.18883184 0.0145487385 -0.20022225 -0.21899806 -0.11285456 -0.18479095
0.09908408 0.52656496 0.11374778 0.40414986 -0.27635017 -0.114449546 0.3268092 -0.12913704
0.3787869 0.5022843 0.20015003 0.1515446 0.24778362 -0.07387609 -0.09225687 0.1184429
-0.37480733 -0.0055369586 0.036888827 0.065414734 0.6247779 0.195751 0.41140494 -0.13939656
0.209595 0.27136365 -0.0025952717 -0.2894316 -0.20009665 0.1630061 -0.27045915 0.3077689
-0.32704094 0.51226306 0.62140584 -0.20536596 0.31441423 -0.6675689 0.60869676 0.445814
0.2927855 -0.35794166 -0.54849625 0.7204822 -0.22876966 -0.44568095 0.42311662 -0.28071725
0.525463 0.19425845 0.30012235 -0.23762159 0.5006608 -0.5056189 0.20905706 0.5778745
0.33437648 0.27102426 0.55164987 0.4448115 -0.31718564 -0.5815943 -0.50238276 -0.3043785
0.46916685 -0.3800126 0.39858985 -0.45792225 0.06519188 0.12754603 0.08757567 -0.052782197
0.05207178 -0.6189979 -0.18213588 -0.3620334 0.27891168 -0.2062954 -0.091570176 -0.2653767
-0.31256405 0.17738946 0.106552646 0.25498304 -0.1083081 -0.6301982 -0.0011064014 -0.082054935
-0.051880706 -0.4067541 0.07391055 0.2668138 0.7715551 -0.5395954 0.53960085 -0.21851401
-0.1410806 0.034031056 0.021198202 -0.566515 0.1867692 0.16854292 0.27986595 0.0125376955
-0.26724195 0.28166416 -0.33668238 -0.037415877 -0.010840416 0.041202538 -0.03956065 -0.20265448
-0.05212099 -0.1527509 0.10005915 0.22408596 0.07803379 -0.233456 -0.61668956 -0.038816456

rnn2.bias_hh f4 [200]
00000000: 666a 893e 15dd ff3d 3168 763e bffe 9bbe
00000010: b93d 093f 279c 97bc 912d 273f c89e 083f
00000020: 340a d3bd fdf9 d0bd e98d 0bbe c829 833d
00000030: e780 7a3e acf7 403e e7f3 423e b38e b0be
00000040: a2d6 42be 8446 383d 68fa 233f 75c6 4cbd
00000050: 838c be3b 7689 29be a7a7 093f a3dc 783f
00000060: 02f5 d63e f10b 61bd d74a de3e 0fcf bebd
00000070: 7ade 6bbd 2f06 f9be 70d6 913d 2deb f33d
00000080: d9ca 123f b10a a23b ce31 093e d6f9 3d3e
00000090: edf2 00bd 01cf e7be 981c 223f 14f2 ba3e
000000a0: f96e cc3d fb0e 71bd ca0a f33d 0de7 a7bd
000000b0: de8f cd3d f9a6 a93d 8b09 983e 3bf5 413e
000000c0: 5e8a 78be d6a3 8cbd 2b28 da3e 73b0 fc3d
000000d0: b93b a53e 8b3d d53e 9ae6 73bd a3b4 a43e
000000e0: af47 a83e 9afb d73d 9aac a83e 5919 453e
000000f0: 4ca7 113f fc60 d5bc a9bd 6b3e 2647 c3be
00000100: 928c 9e3e 9edb d8ba b38c 56bd 9f1a d43d
00000110: b3db af3d d675 303e 12ef adbe a221 a33e
00000120: 7865 dc3e cc43 853b 79f0 8dbe cbaf d3bd
00000130: 75be 35be 0299 88be 8de8 babd 8559 93be
00000140: 31c8 6b3e 1b88 153f 5fba 693e 0283 cb3e
00000150: e63e 39be 21c5 50be ee77 f73e 18fe 383b
00000160: 238d 073f d7ca 073f 3357 a73e d379 193d
00000170: aca3 ca3e 4d0b 023e 2b63 a0be e0cc 9f3e
00000180: a454 e3bd 701e 343d 0403 30bd be0c f1bd
00000190: 0d22 cf3e 8435 9f3e f6b2 c93e bbcf b8bd
000001a0: f9cb 993e ffab e23e 096a 28bd b4ab cebe
000001b0: 06e5 a1be 1468 e93d e771 0bbf 82c6 ae3e
000001c0: 9f77 c1be 35b7 123f dc2d 0c3f b2c5 1cbe
000001d0: ccce 083f ddd2 2ebf c5f7 c33e 039f fe3e
000001e0: e9cb 843e 09ca e4be 989a d0be 0134 3f3f
000001f0: d303 edbd 2700 09bf 622e 9d3e 8198 98be
00000200: 92d8 a83e b70d 283d ec34 943e a44f 99be
00000210: f23b c63e 6e7a 0bbf b42c b93e bc2a 083f
00000220: 76f0 993e 189f 443e 1541 c83e b912 e83e
00000230: b94a 85be 71c5 d9be fd10 f8be 4359 36be
00000240: b379 f63e c22a fdbe 345c 8c3e 9b06 24bf
00000250: 5362 723d 3b00 ba3d 7b59 673c a1aa c7bd
00000260: 921c fcbd bd66 2abf 149d 38be 69d6 c9be
00000270: 15ed cb3d 808c 23be 48cd 32be d436 d8be
00000280: 576c b8be c623 4e3e ce7e a53e 9220 743e
00000290: f8ef cdbd 67f1 07bf 02bd 383e 1daa c4bd
000002a0: cf34 eebd 76a4 bcbe 2864 cf3d 9bd8 463e
000002b0: 6f67 4d3f 3bfb 01bf 68b3 dc3e 2f66 6cbe
000002c0: 4687 8dbe 77af ff3d 4632 bebd 5dd2 e0be
000002d0: d53c 743e 4693 913e 0f6e 683e 3131 d9bd
000002e0: e61c 9dbe bcd7 253c f43f e0be 7b40 62be
000002f0: 7b21 4dbd 7807 efbd 7e73 a33d 8c32 0bbe
00000300: 1797 80bd d21d 8cbe a51d d23d 31e9 9b3e
00000310: abac 193d f83c 07be 5bd5 f8be e531 0bbe
0.26838988 0.1249334 0.24063183 -0.30467793 0.53609806 -0.018507076 0.65303904 0.5336728
-0.103046805 -0.102039315 -0.13628353 0.064044535 0.24463235 0.1884448 0.19038354 -0.3448387
-0.19027188 0.044989124 0.64053965 -0.04999395 0.00581509 -0.16556343 0.5377144 0.97211665
0.419838 -0.05494303 0.43416473 -0.09316837 -0.057585217 -0.4863753 0.07120979 0.119100906
0.5734077 0.004945122 0.13397905 0.18552336 -0.031481672 -0.4527512 0.6332488 0.36512816
0.09982104 -0.058852177 0.11867292 -0.08198366 0.10037206 0.08283801 0.2969478 0.18941204
-0.24271533 -0.06867187 0.4260877 0.123383425 0.32272127 0.41648516 -0.05954609 0.32169065
0.3286719 0.10546036 0.32944185 0.1924795 0.568959 -0.026047222 0.23021568 -0.3814022
0.30966622 -0.0016544943 -0.052380275 0.1035664 0.08586826 0.17232451 -0.3397146 0.31861597
0.43046165 0.00406692 -0.2772253 -0.10336264 -0.17748435 -0.26679236 -0.09126387 -0.28779235
0.23025586 0.58410805 0.22825001 0.3974839 -0.180904 -0.20387699 0.48333687 0.0028227624
0.5294973 0.53043884 0.32683715 0.037469696 0.39577997 0.12699623 -0.3132566 0.31210995
-0.11100128 0.04397434 -0.042971626 -0.117700085 0.40455666 0.31095517 0.3939435 -0.090239964
0.3003843 0.44271848 -0.041116748 -0.40365374 -0.31620044 0.113968045 -0.54470676 0.34135824
-0.37786576 0.573108 0.54757476 -0.1530979 0.53440547 -0.682905 0.3827497 0.4973069
0.2593682 -0.4468539 -0.40742946 0.74688727 -0.11572995 -0.5351586 0.3069945 -0.2980385
0.3297773 0.041028704 0.28946626 -0.29943573 0.3871761 -0.5448369 0.36166918 0.5319021
0.3006627 0.19201314 0.39112154 0.45326784 -0.2603357 -0.42533448 -0.4845046 -0.17807488
0.48139724 -0.49446684 0.27414095 -0.6407258 0.0591758 0.09082075 0.014120455 -0.09749342
-0.12310137 -0.66563016 -0.1802867 -0.39421394 0.09957329 -0.15971565 -0.17461121 -0.4222933
-0.36020157 0.20130834 0.32323307 0.2384055 -0.10055536 -0.53102726 0.18040851 -0.09602759
-0.11631166 -0.36844224 0.10126525 0.19418566 0.8023595 -0.5077397 0.43105626 -0.23085855
-0.27642268 0.12484639 -0.09286933 -0.43910494 0.2385133 0.28432673 0.22698234 -0.10605086
-0.3068611 0.010122236 -0.43798792 -0.2209491 -0.050080758 -0.116713464 0.07981013 -0.13593501
-0.06278818 -0.273665 0.102595605 0.30451348 0.037518185 -0.13206851 -0.48600277 -0.13593252

fc.weight f4 [100, 50]
00000000: d03f 80bf 7aa0 a0bd b86b 8bbf 7ee0 423f
00000010: b4fa c83d 09d8 a43f 4126 77bd 6a1e 4140
00000020: 7072 2b40 e7a6 043f d486 6d3f 9196 11c0
00000030: 65d3 f63f 0402 48bf 7825 de3e 2cf2 8e3f
00000040: 0fb8 1dc0 2a4e 4240 3b5a 5ec0 f57d f6be
00000050: c672 7fbf 1278 e0be bbd2 a73e 0245 bcbe
00000060: 004e dabf 9040 a13f 6f71 0dc0 d068 b2be
00000070: dac9 8bbe 03e4 1d3f e6d5 97be 1c60 4740
00000080: 55f2 b0bf 7130 68bd 7e66 38be 3bd5 e9be
00000090: c70c 5dbe ed9c 2b3f 9812 babe 0d2c d5be
000000a0: 8688 8dbd ff88 f6be d441 5ebf 6584 d240
000000b0: 7945 263f 4a98 1f40 0508 b2bf 7119 483f
000000c0: 3af3 6240 31a3 48bf 14c4 5ebd e054 8f3d
000000d0: 10e5 3ac0 0220 0f40 fdcd babd 2fe6 a13f
000000e0: 76cd 703e 3791 e53f e47f 6d3f 8574 14bc
000000f0: a866 c3be 7cdd 25be 1b6f 263e dde4 37bf
00000100: 0b45 133f ff30 9f3f 235c 18c0 b791 2b40
00000110: 71c4 86bf 7845 c7bf e046 03be ef4a c13d
00000120: c9df f9bb 3989 54be adbe 27bf c2fc e63f
00000130: c341 9abf 4fca bfbd 553d 45bf c750 8bbf
00000140: 8869 4ec0 e014 723e 3e17 9bbe 46e1 07be
00000150: 6eca a6bf 5c7a 44c0 74d9 3dbe e228 4b3e
00000160: 595d e63d f93f 75bd 2d88 343f ab2f 983f
00000170: 054a 0ebf a1b0 5640 3617 0d3f a485 3840
00000180: dfc0 8dbe 78d5 9f3f 3161 483f f83f 7ac0
00000190: fbf5 8dbe 6ab6 923e 606d 8fbf 765a 623f
000001a0: 543c dabf 7800 933f 5156 7cbc d060 3b3f
000001b0: 93cb bc3e 49b9 473d c9db 183f 765e c8be
000001c0: bffc 1a3f caec 48be 472c ddbe 5229 ae3f
000001d0: 43f0 9bc0 957a 4740 3c16 54bf 591e 0a3e
000001e0: 9915 2bbe 5931 85be 98ef 833e bbfa 23bf
000001f0: ac7b 66bf 4940 343f c570 7abf 5c8b 253f
00000200: d757 cebf 2f42 aebd a19f f8bf 3f8d 023e
00000210: db90 eebe 2cf6 cbbc 521c 2bbe 9d62 37bf
00000220: 060d 10c0 fa00 8c3e 02ea 0abf 76ca f23e
00000230: 436c 54be ba8f 6f3e 2e68 f4be 258e 6a40
00000240: cfdc 71be f480 603f bb63 32bf c49a 933f
00000250: 8958 3a40 321b eabf ac77 18bf 9de5 a43e
00000260: 823f 72bf e9f1 5b3f fb78 d4bf c11c ac3f
00000270: 9294 ee3d a0ac f03f 8dc1 053f 6b07 9abf
00000280: 6f5c d53e 7c23 72bf 3666 4a3f 3627 88bd
00000290: b021 6dbe 3d32 113f eddc 31c0 2cdd 9940
000002a0: deeb 7cc0 f658 f3bd 85d8 1bbf 544c 7bbe
000002b0: 38e4 313f 7c25 583d e8da 90bf 8e5e 153f
000002c0: 1c91 dbbf 350a 56be e041 e1bf 9070 14bf
000002d0: e14d 98bf 0785 603f 5d1a 5abf 983e b63e
000002e0: e4e2 2dbe 129f 7bbf f126 49c0 d701 f73d
000002f0: d4fe 10bf 2ac5 b23e c4ec 68bd a170 443f
00000300: bbb4 41bf 50bd 3640 4d21 02bf a8f2 1d40
00000310: 671d 3fbf 750c 753f 25f6 2a40 9115 8abf
00000320: 6f38 2dbf ac7f 333e f2d2 ecbf 08e7 e83f
00000330: 8142 b3bc 2496 853f ce6e 193d fc25 943f
00000340: 4b7a fd3e 5fb2 a5be bb81 0040 f016 b9be
00000350: 444c 143f c3b0 68bf 22e2 8dbe bfc5 4c40
00000360: 4bfa 85c0 002d 8340 121e 35c0 93f0 8dbf
00000370: 39da ddbe 4da6 91be 8945 7bbd 03b5 c3be
00000380: 2e2a 96bf 2cc3 923f a697 70c0 f773 c9be
00000390: 62df 5abf 9fba 42bf db20 a2bf d06c 5b3f
000003a0: 4a71 b5bf cc43 f5bd 40e0 4fbf b8e9 07c0
000003b0: 6293 90bf c0be 0c3f 97ec 2bbe 800a a23e
000003c0: 0dde d83c d1f5 af3e a43a fdbe 8a44 8a40
000003d0: f0cd 353f 615f bb3f 0d26 e5bd 9810 32be
000003e0: 55b6 f33f 2189 ccbf 4715 c5be b2a7 b53e
000003f0: 5020 a0bf ce90 de3e 63b9 85bf fe4b a43f
-1.0019474 -0.078431085 -1.0892248 0.761238 0.09813443 1.2878429 -0.060339216 3.0174813
2.6788597 0.5181717 0.92783856 -2.2748148 1.9283262 -0.78128076 0.4338796 1.1167655
-2.464359 3.0360208 -3.4742572 -0.48142973 -0.99784505 -0.43841606 0.32777962 -0.367714
-1.7055054 1.2597828 -2.2100484 -0.3484559 -0.27302438 0.61676043 -0.2965538 3.115241
-1.3823954 -0.056686822 -0.18007848 -0.45670494 -0.21586905 0.67036325 -0.3634231 -0.4163517
-0.069108054 -0.48151395 -0.86819196 6.5786614 0.64949757 2.49367 -1.3908697 0.7816382
3.5460954 -0.7837401 -0.054386213 0.069986105 -2.9202309 2.2363286 -0.091213204 1.2648371
0.23515877 1.7934941 0.9277327 -0.009060984 -0.38164258 -0.16197771 0.16253321 -0.7183359
0.57527226 1.2436827 -2.3806236 2.6807687 -1.0528699 -1.5568075 -0.12820005 0.094381206
-0.007625554 -0.20755471 -0.65525323 1.8045886 -1.2051319 -0.09364759 -0.7704671 -1.0884026
-3.225191 0.23640776 -0.3029117 -0.13269529 -1.3030527 -3.0699682 -0.18539983 0.19839814
0.112482734 -0.059875462 0.7052029 1.1889547 -0.55581695 3.3545306 0.5511354 2.8831568
-0.2768621 1.248702 0.782733 -3.9101543 -0.2772673 0.28654796 -1.1205254 0.8841928
-1.7049661 1.1484518 -0.015401439 0.731946 0.36874065 0.048760686 0.59710366 -0.39134568
0.6054191 -0.19621578 -0.43197843 1.360636 -4.873079 3.1168568 -0.82846427 0.13488139
-0.16707458 -0.26014212 0.25768733 -0.6405446 -0.9003246 0.7041059 -0.9782832 0.6466577
-1.6120557 -0.08508717 -1.9423715 0.12749194 -0.4659489 -0.024897657 -0.16710022 -0.71634847
-2.250795 0.27344495 -0.5426332 0.4742009 -0.20744424 0.23394671 -0.47735733 3.6649258
-0.23619388 0.87696767 -0.69683427 1.1531606 2.9116538 -1.8289549 -0.59557605 0.3220643
-0.94628155 0.85916 -1.659942 1.3446275 0.11649431 1.8802681 0.5224846 -1.2033514
0.41672084 -0.94585395 0.7906221 -0.06648104 -0.23157382 0.5671728 -2.7791092 4.8082485
-3.9518962 -0.11882202 -0.6087726 -0.24540836 0.6948886 0.052770123 -1.1316805 0.58347404
-1.7153659 -0.20902331 -1.7598228 -0.57984257 -1.1898767 0.87702984 -0.8519648 0.3559463
-0.16981083 -0.982896 -3.1430018 0.12060898 -0.56638837 0.3491605 -0.056866422 0.7673436
-0.756664 2.8553047 -0.5083206 2.4679356 -0.7465424 0.9572213 2.6712735 -1.0787832
-0.67664236 0.17529172 -1.8501875 1.8195505 -0.021882297 1.0436444 0.037459187 1.1574092
0.49507365 -0.3236265 2.0079181 -0.36150312 0.5792887 -0.90894717 -0.27711588 3.1995695
-4.1868033 4.099243 -2.8299603 -1.1089042 -0.43330553 -0.2844719 -0.06134561 -0.38224038
-1.1731622 1.1465812 -3.759256 -0.39346287 -0.85497105 -0.7606601 -1.2666277 0.8571291
-1.4175198 -0.11975822 -0.81201553 -2.12364 -1.1294978 0.5497856 -0.1678947 0.31648636
0.02647307 0.3436723 -0.49458802 4.3208666 0.7101736 1.4638482 -0.11188898 -0.17389143
1.9040018 -1.5979348 -0.38492796 0.35479504 -1.2509861 0.43469852 -1.04472 1.2835691
