Results/Complete Sherlock Holmes/LSTM/Adam/1/150/model.pt (torch, 667423 bytes, 6 tensors)

rnn.weight_ih f4 [600, 100]
-0.9436767 -0.5225248 0.120907575 -1.2921903 -0.08261456 -0.17129816 -0.23897843 -0.24846329
0.29412 -0.40616634 0.9700588 1.5531144 -1.3235155 -0.17684616 0.49684417 0.5625471
2.4554791 1.0781084 0.20948748 0.78855246 -0.4041954 -0.044096634 -1.6600103 -0.51813483
0.49877873 -1.2710735 -1.5808326 0.68867314 -0.12114595 -0.019357046 -0.4071874 -0.0037532563
1.2751087 1.4387369 -0.78296226 0.3022228 -0.026017506 1.1806792 -0.650324 -1.4031856
-0.27536398 -1.0984492 -1.2158467 0.25687143 0.7584372 -0.9515251 0.22543742 -1.1280692
-0.89032423 -0.93843436 2.323457 -0.86099994 0.6688965 -0.6109974 0.4647159 -0.43817127
0.18450086 0.8021908 -0.31548694 -0.19048466 -1.0267738 -0.6689516 0.23574032 -0.56654197
0.05062881 -0.027951553 -0.08107489 -0.6391205 0.04352942 -0.3661092 0.8839499 -0.3611026
0.025479555 0.58383477 0.40541184 -1.023532 0.09591278 0.7463623 -0.6806149 -0.012081198
0.029945776 0.0072557703 0.11307039 0.067301065 -0.41781002 -0.07675771 -0.72907877 -0.039216913
0.049577385 -0.036317937 -0.05795784 -0.07440062 -0.077137314 -0.012948282 -0.86195385 -0.07737245
1.0663701 0.02735947 0.00046049803 -0.031987052 -1.4163688 -1.7412187 0.44287488 0.047384728
0.5416965 0.34899765 0.008400269 0.71957576 0.30368277 -0.5150505 0.6778216 -1.2761545
-0.48862028 0.7857389 0.3495348 1.3736287 0.44808075 -0.9175838 -1.9350793 0.4651337
2.258344 -1.9556235 2.075571 0.6760572 0.3262148 1.4814689 1.5783027 0.2859375
-1.5472883 -1.0706458 0.031592775 -0.118476026 0.7976073 -1.2812518 -0.9208797 -0.15344194
-0.9078884 0.26199567 -2.229387 -0.085805 -0.079999544 -0.6674603 0.065773375 1.1258949
-0.79088926 0.5808689 -0.57039714 1.6851884 3.716661 -0.7203379 -0.48977768 -0.041994877
0.970438 -0.655136 -0.62720144 -2.1326568 0.026811434 0.35719308 -1.0125817 -0.15844502
-0.2013427 -0.769847 -0.49164408 -0.36315075 0.048966274 0.0035682842 0.0013949051 1.2549777
-0.5621521 -0.08781059 -0.13012663 -0.28205633 -0.04165615 -1.6477323 1.3194928 -1.9974056
0.09506233 -0.28147405 0.20701198 -0.07122944 0.05728069 -0.008563466 -0.50945735 -0.048279084
1.0946728 0.06729154 -0.46295333 0.06783523 -0.037189797 -0.0572541 -0.065722816 -0.074317336
-0.0017768517 0.075204104 -0.7273553 0.0137859285 0.30203497 0.037062295 0.04745099 0.07137586
-0.8129877 -1.2782865 -0.77746487 -0.76446146 -0.0005355779 -0.29663557 -0.29830045 -0.96278954
-1.1136496 -0.5646619 -0.03543053 -1.032049 -1.2427175 -0.7087187 -0.5571168 0.33748102
0.88227147 0.9903119 -0.70419383 0.2521517 0.7308456 -1.0737898 -0.19042028 0.74250597
2.397172 1.0285143 0.061931383 -1.1131892 -0.8561129 0.6854475 -1.409921 1.9953481
-0.18832324 1.2382053 -0.13737857 1.7125823 0.6608445 -0.6161155 -0.7207859 1.1171504
1.0810922 -0.13831575 -1.3615572 -1.0056183 -0.23000236 -0.9629792 -0.6680026 -2.2689207
2.7533536 -1.5330615 0.6779451 -0.8985791 0.4577868 0.16025566 -0.9158745 -2.9644358
00000000: cc94 71bf 2fc4 05bf 649e f73d 7e66 a5bf
00000010: d331 a9bd c968 2fbe c3b6 74be 296d 7ebe
00000020: e696 963e 09f5 cfbe c655 783f 74cc c63f
00000030: f568 a9bf 2917 35be 5c62 fe3e 1603 103f
00000040: 9226 1d40 75ff 893f e383 563e 93de 493f
00000050: b3f2 cebe ac9e 34bd 387b d4bf 7ca4 04bf
00000060: ed5f ff3e 89b2 a2bf b958 cabf e24c 303f
00000070: 5e1b f8bd ab92 9ebc de7a d0be 31f9 75bb
00000080: c336 a33f 8828 b83f 3770 48bf f2bc 9a3e
00000090: aa22 d5bc 7f20 973f a27b 26bf 969b b3bf
000000a0: 82fc 8cbe fc99 8cbf dda0 9bbf a784 833e
000000b0: f128 423f 2697 73bf 11d9 663e 9264 90bf
000000c0: 4aec 63bf 3c3d 70bf 85b3 1440 7e6a 5cbf
000000d0: cd3c 2b3f 536a 1cbf 3eef ed3e fc57 e0be
000000e0: cbed 3c3e 605c 4d3f 8187 a1be 690e 43be
000000f0: 536d 83bf 6940 2bbf e965 713e e508 11bf
00000100: 2860 4f3d a8fa e4bc 980a a6bd 679d 23bf
00000110: e84b 323d aa72 bbbe 8a4a 623f 71e2 b8be
00000120: 80ba d03c 3276 153f 2492 cf3e 1903 83bf
00000130: eb6d c43d 9a11 3f3f c73c 2ebf 38f0 45bc
00000140: d850 f53c d0c1 ed3b 7391 e73d 24d5 893d
00000150: 32eb d5be 2533 9dbd e8a4 3abf eaa1 20bd
00000160: a811 4b3d 1ec2 14bd 3365 6dbd 5a5f 98bd
00000170: 2bfa 9dbd 0825 54bc 02a9 5cbf 7275 9ebd
00000180: d17e 883f f820 e03c 006f f139 db04 03bd
00000190: 934b b5bf 41e0 debf 7fc0 e23e 7d16 423d
000001a0: 9fac 0a3f d2af b23e 48a1 093c 1e36 383f
000001b0: 4f7c 9b3e 59da 03bf b785 2d3f 0859 a3bf
000001c0: 702c fabe 2f26 493f 3af6 b23e 11d3 af3f
000001d0: d76a e53e c6e6 6abf aeb0 f7bf 0126 ee3e
000001e0: b588 1040 df51 fabf 28d6 0440 1612 2d3f
000001f0: a005 a73e c6a0 bd3f d305 ca3f 6666 923e
00000200: 8b0d c6bf ec0a 89bf 6d67 013d 8fa3 f2bd
00000210: fe2f 4c3f 0f00 a4bf c6be 6bbf e21f 1dbe
00000220: 606b 68bf 4c24 863e 47ae 0ec0 88ba afbd
00000230: cdd6 a3bd aede 2abf 31b4 863d 531d 903f
00000240: b877 4abf d3b3 143f 8c05 12bf 41b4 d73f
00000250: c6dd 6d40 1168 38bf 24c4 fabe d202 2cbd
00000260: a06e 783f feb6 27bf 4690 20bf 737d 08c0
00000270: a7a3 db3c 03e2 b63e 479c 81bf 693f 22be
00000280: c82c 4ebe b114 45bf c6b8 fbbe e5ee b9be
00000290: dc90 483d e0d9 693b 40d5 b63a 1ca3 a03f
000002a0: 33e9 0fbf 0ad6 b3bd ea3f 05be b069 90be
000002b0: a49f 2abd e4e8 d2bf 24e5 a83f fdaa ffbf
000002c0: 0ab0 c23d 5e1d 90be f3fa 533e bee0 91bd
000002d0: 289f 6a3d c84d 0cbc cc6b 02bf 4ac0 45bd
000002e0: 3d1e 8c3f 26d0 893d 3808 edbe 32ed 8a3d
000002f0: 5454 18bd 4683 6abd af99 86bd b033 98bd
00000300: 40e5 e8ba 9c04 9a3d f533 3abf 60de 613c
00000310: 54a4 9a3e a2ce 173d f85b 423d 822d 923d
00000320: f61f 50bf e49e a3bf f007 47bf bfb3 43bf
00000330: 0666 0cba 9ee0 97be d6ba 98be 6079 76bf
00000340: 128c 8ebf af8d 10bf 9a1f 11bd 2e1a 84bf
00000350: 5e11 9fbf 976e 35bf 359f 0ebf 50ca ac3e
00000360: 8bdc 613f 1585 7d3f 0c46 34bf 071a 813e
00000370: b218 3b3f f271 89bf 89fd 42be df14 3e3f
00000380: 446b 1940 5ba6 833f c3ab 7d3d fc7c 8ebf
00000390: 372a 5bbf 7d79 2f3f 4b78 b4bf 9167 ff3f
000003a0: cfd7 40be 837d 9e3f f8ac 0cbe e635 db3f
000003b0: 1b2d 293f bfb9 1dbf 6d85 38bf c9fe 8e3f
000003c0: 3b61 8a3f a5a2 0dbe 8247 aebf 1ab8 80bf
000003d0: bd85 6bbe ce85 76bf 3802 2bbf ff35 11c0
000003e0: f236 3040 5c3b c4bf cf8d 2d3f 4809 66bf
000003f0: 0863 ea3e 0f1a 243e c076 6abf 51b9 3dc0

rnn.weight_hh f4 [600, 150]
-0.04850159 -0.8149379 -1.3520309 -0.056073956 -0.5207642 -2.0499249 -0.35028258 -0.8714703
0.25656596 -1.037026 1.2554283 0.12153201 0.31014967 0.3965776 -0.69007665 0.24364065
-0.7872109 0.34606102 -0.07950599 0.1928587 -0.9388492 0.20102426 0.763862 -0.7581467
0.7288393 0.14149201 -0.96541864 -1.4379405 -0.9902887 0.7884293 -0.5293949 0.37330693
0.5426486 -0.46369615 0.5491598 0.11444134 0.28338435 -0.18854624 0.38196728 0.18737565
-1.20363 -0.9729258 0.97271186 1.662884 0.13202754 0.42011496 -0.004397753 0.75766605
-0.6430831 -0.8184582 0.5418414 0.03142431 1.030184 0.68853915 -0.4657068 1.0855951
0.29569018 -0.53273875 0.4046768 0.16518968 0.46021518 0.5317096 0.9739122 0.7040273
0.037393004 -0.74195623 -0.1790205 0.16113114 0.9268346 0.20196484 -0.1663352 1.9800339
0.25855678 0.992622 0.32758784 0.7625653 0.48088157 -1.1520295 0.46689203 0.7931273
0.6599214 -0.17956887 1.0152657 -0.47691908 0.40679964 0.3004963 -1.1879413 -0.17480876
0.12474206 -0.86010754 -0.17989929 0.12348269 -0.37149024 -0.37550738 -0.8041761 -0.0502252
-1.359249 -1.127657 0.13727623 0.022652261 0.019621072 0.46450308 -0.7925176 -0.20864323
1.0554692 0.41188875 -0.17549816 -0.25807822 -0.5935067 -0.23974988 -0.452218 0.19739039
0.9375262 0.13492982 0.22318053 -0.07822776 -0.088279426 -0.22517796 -0.06866464 0.09238265
-0.005983961 0.36427116 0.5933511 0.101475276 -0.0073423972 -0.06491126 -0.6766217 0.19763196
-0.16557048 -0.47351688 0.27568555 -0.46910638 0.8540287 0.3473308 -0.1324104 0.19250184
-1.3276991 -0.7653805 0.119366445 -0.7482637 -0.30807394 0.028453553 0.4282262 1.2191856
0.25609523 0.9139721 0.45285505 -0.7423657 1.4799157 -0.15442112 0.9961633 0.2718877
-0.021342885 1.2701463 -0.6982844 0.76324934 0.30125389 1.0688628 -0.38303202 -1.2327672
-0.7291868 0.26405036 0.38973644 0.52856386 -0.79057086 -0.41106215 -0.06029631 1.6423353
-0.90796083 0.45219967 0.029248467 0.38516518 0.9219733 -1.6485515 0.545995 0.50266427
-1.1308897 -1.5007676 -0.35012206 0.63324255 0.5560404 0.4994379 0.48681682 -0.2058336
-0.315095 0.9206419 -0.36355397 -0.48311064 -0.14196645 -0.5073307 0.31339717 -0.7784964
1.1756537 -0.01998074 -0.17505816 0.3143299 -0.53951997 -0.23928225 0.7953618 -2.4406018
0.83185357 0.3569123 0.07219901 0.31297252 0.5299941 -0.068965025 0.39516354 -0.13905318
-0.5821061 0.18049039 -0.3202274 -0.6299342 0.7438004 -0.14873536 0.81782013 -1.2507529
0.8139225 0.49029645 -1.3386077 0.24897015 -0.50184786 -1.0536511 -0.36134392 -0.58693814
0.7870986 -0.98315793 0.24061406 0.42811146 0.051488582 -0.9935936 -0.60717666 -0.34457454
0.31799105 0.85578364 -0.025633257 -1.2062647 -0.4460021 1.0786486 -0.30889437 0.52870405
-0.01981066 0.2737226 -0.7873093 1.1508826 0.39463952 -0.7211317 0.21140873 0.5915681
-0.18516888 -0.59784424 -0.14463915 0.37368748 -1.1637383 1.0489162 0.07756735 -0.53105414
00000000: 9aa9 46bd c59f 50bf 590f adbf cead 65bd
00000010: cd50 05bf f831 03c0 3d58 b3be ad18 5fbf
00000020: 9d5c 833e 45bd 84bf e0b1 a03f c6e5 f83d
00000030: f0cb 9e3e 380c cb3e dda8 30bf ef7c 793e
00000040: a786 49bf e92e b13e 09d4 a2bd c07c 453e
00000050: 6c58 70bf 4ed9 4d3e 768c 433f e715 42bf
00000060: 3695 3a3f 48e3 103e ad25 77bf 6f0e b8bf
00000070: 8f83 7dbf 81d6 493f 6d86 07bf 1622 bf3e
00000080: 05eb 0a3f 9569 edbe bd95 0c3f 3960 ea3d
00000090: c117 913e 4412 41be 3791 c33e 67df 3f3e
000000a0: 8c10 9abf aa11 79bf a503 793f 62d9 d43f
000000b0: 3a32 073e 4f19 d73e 071b 90bb 67f6 413f
000000c0: 18a1 24bf 7a86 51bf 1eb6 0a3f c7b6 003d
000000d0: 12dd 833f 1a44 303f 1f71 eebe c8f4 8a3f
000000e0: b464 973e 9161 08bf cc31 cf3e 7c27 293e
000000f0: 53a1 eb3e 1f1e 083f 4f52 793f 223b 343f
00000100: 6829 193d d8f0 3dbf 2651 37be 90ff 243e
00000110: 0845 6d3f dfcf 4e3e c653 2abe c071 fd3f
00000120: 8e61 843e 7a1c 7e3f 98b9 a73e 7b37 433f
00000130: 1c36 f63e b475 93bf 790c ef3e 640a 4b3f
00000140: 9cf0 283f e7e0 37be 3af4 813f bd2e f4be
00000150: 0b48 d03e a7da 993e 760e 98bf 1101 33be
00000160: c478 ff3d 0230 5cbf 8537 38be 7ee4 fc3d
00000170: f833 bebe 8142 c0be 7cde 4dbf f0b8 4dbd
00000180: dffb adbf 1157 90bf 2492 0c3e 3c91 b93c
00000190: 5fbc a03c 59d3 ed3e 6fe2 4abf 92a6 55be
000001a0: 9d19 873f 15e3 d23e cab5 33be d422 84be
000001b0: 0ef0 17bf fe80 75be 1e89 e7be b520 4a3e
000001c0: b801 703f 0b2b 0a3e 7089 643e e035 a0bd
000001d0: d8cb b4bd 0d95 66be 0ca0 8cbd 1d33 bd3d
000001e0: 1a15 c4bb c081 ba3e dce5 173f 45d2 cf3d
000001f0: 7e98 f0bb 32f0 84bd 1437 2dbf 0860 4a3e
00000200: 4f8b 29be ce70 f2be a826 8d3e b62e f0be
00000210: a0a1 5a3f 58d5 b13e 9896 07be 341f 453e
00000220: 0bf2 a9bf faef 43bf 6576 f43d 368e 3fbf
00000230: debb 9dbe 6d17 e93c 7740 db3e 460e 9c3f
00000240: ea1e 833e 13fa 693f 9edc e73e ae0b 3ebf
00000250: e16d bd3f 9220 1ebe 8f04 7f3f dd34 8b3e
00000260: 46d7 aebc 2794 a23f c4c2 32bf 4f64 433f
00000270: f33d 9a3e 7fd0 883f c61c c4be 51cb 9dbf
00000280: fcab 3abf 9c31 873e 898b c73e f64f 073f
00000290: da62 4abf bd76 d2be 43f9 76bd 0b38 d23f
000002a0: 1f70 68bf b786 e73e 7b9a ef3c 5f34 c53e
000002b0: 7106 6c3f bc03 d3bf 54c6 0b3f 9bae 003f
000002c0: fec0 90bf 2719 c0bf 3343 b3be 2f1c 223f
000002d0: aa58 0e3f 53b6 ff3e 0e40 f93e 0bc6 52be
000002e0: 2254 a1be 30af 6b3f bf23 babe 475a f7be
000002f0: a75f 11be 6de0 01bf 9875 a03e 8a4b 47bf
00000300: d27b 963f a6ae a3bc 7242 33be d9ef a03e
00000310: fb1d 0abf 6806 75be d59c 4b3f d232 1cc0
00000320: 5bf4 543f 36bd b63e 13dd 933d ef3d a03e
00000330: b1ad 073f 893d 8dbd e052 ca3e f563 0ebe
00000340: e804 15bf 79d2 383e d9f4 a3be 5e43 21bf
00000350: b469 3e3f 154e 18be a95c 513f ac18 a0bf
00000360: 3a5d 503f 2308 fb3e 7f57 abbf 08f2 7e3e
00000370: 1a79 00bf 0ade 86bf 1202 b9be 9441 16bf
00000380: 4b7f 493f 3db0 7bbf 8863 763e 6d31 db3e
00000390: b1e5 523d 265c 7ebf ee6f 1bbf 136c b0be
000003a0: b9cf a23e a314 5b3f d6fc d1bc e266 9abf
000003b0: 635a e4be 2811 8a3f 6727 9ebe 2659 073f
000003c0: f749 a2bc 5e25 8c3e 1a8d 49bf 1f50 933f
000003d0: 310e ca3e 169c 38bf 887b 583e 0271 173f
000003e0: e99c 3dbe 520c 19bf 491c 14be f753 bf3e
000003f0: 60f5 94bf e342 863f a1db 9e3d 2af3 07bf

rnn.bias_ih f4 [600]
-0.11495912 -0.33057764 -0.62789863 0.6260182 -0.5557193 -0.056334645 0.14947589 0.08340031
-0.17854731 0.0050616795 0.5257165 -0.5403198 -0.21993683 0.01843512 -0.08136299 -0.13479236
-0.072099395 -0.09296694 0.113587916 0.050339237 -0.1885232 0.46424556 0.09053861 -0.10322982
-0.28960457 -0.07092329 -0.12009457 -0.81239194 -0.21562278 -0.42017713 -0.35021147 -0.07781031
-0.6536971 -0.17788106 -0.5223338 0.6458416 -0.2809174 0.3343134 -0.24465841 0.15896119
-0.20309399 0.08328638 0.0219455 -0.5290213 0.35845238 -0.11950091 0.20974208 -0.101221435
0.15819871 -0.13740978 -0.22704515 -0.09960134 0.3469144 -0.33041722 -0.0011965405 -0.31853384
-0.4737088 0.021862445 0.23438886 -0.1366814 0.081710234 -0.1412284 -0.061312363 0.28956556
-0.5435963 -0.63446665 -0.13141397 -0.28911716 -0.5470895 0.10808957 0.091317795 -0.31278718
-0.4546144 -0.32863352 0.043031137 1.0553515 -0.5413991 -0.11232312 0.3028116 -0.4849844
-0.15960358 -0.035560444 0.060343694 0.18574429 -0.35189578 0.18344133 -0.0664889 -0.4248271
-0.0022824593 -0.42375356 0.011057777 0.15364736 0.6997345 -0.09282227 -0.44082278 -0.2380919
-0.20160429 -0.53114897 -0.048990056 -0.33525568 -0.062406693 -0.0052987807 -0.36304414 0.64071906
-0.2288665 0.863409 -0.4876925 0.48948488 0.013798917 0.21577357 -0.7868469 -0.3791659
0.31126475 -0.11612077 -0.14703263 -0.24278255 -0.17139037 -0.12792553 -0.12777117 0.50695306
-0.10863727 0.110343516 -0.20396857 -0.32678446 -0.17983691 -0.013580486 -0.21418144 0.017894063
0.078353725 0.0249173 -0.009381835 0.40051025 -0.2525495 -0.0758361 -0.6154206 -0.21678111
-0.07858946 -0.28890586 0.04126882 -0.096917175 -0.28563964 0.1786939 -0.101020284 -0.17009555
-0.6011568 0.22182319 0.11114203 0.2591087 -0.040156104 -0.098971255 -0.41478541 -0.5114478
0.13773347 -0.04770171 -0.5620869 -0.0935406 -0.37099236 -0.038775876 -0.2830905 -0.5027463
-0.3291575 0.86414605 -0.27242672 -0.7622362 -0.37195843 -0.4735434 0.96142644 -0.30073553
-0.10572057 -0.22633387 -0.14738032 0.68861324 -0.812418 -0.25103486 -0.47877142 -0.40762585
-0.50960034 -0.58093584 -0.6223209 0.009376818 -0.30256227 -0.6943734 0.39324674 -0.49601814
-0.4271915 0.32842672 -0.4362604 -0.5894425 -0.35201597 -0.32600483 -0.71557933 -0.10151476
-0.038952515 -0.048085704 -0.36305562 -0.21601279 -0.005014212 0.56407905 -0.38462904 -0.28968197
-0.10934584 -0.40703762 -0.090814255 -0.4649644 -0.306668 -0.52657753 -0.48317882 -0.113393374
-0.15160085 0.08199642 -0.35161886 -0.21551454 -0.035908278 -0.15891922 -0.3832862 -0.5951848
-0.37807903 -0.6513127 -0.5339684 -0.4109728 0.039239917 -0.6050538 -0.56181204 -0.3376115
-1.097597 0.23963593 -0.36918473 -0.22133219 -0.41629198 -0.6463081 -0.50348073 -0.4338944
-0.5156176 -0.26075968 -0.31684205 -0.7400295 -0.23452164 -0.7491744 -0.615191 -0.47030145
0.3500073 -0.49756914 -0.35287154 -0.48005047 -0.6708943 -0.51297003 -0.20881753 -0.6834652
-0.47945413 -0.18127105 -0.8948042 -0.10972654 -0.29567468 0.6961273 -0.3783933 0.12856598
00000000: b06f ebbd 7941 a9be f7bd 20bf bb42 203f
00000010: 9f43 0ebf 28bf 66bd 3510 193e c8cd aa3d
00000020: 1bd5 36be 72dc a53b 5b95 063f 6652 0abf
00000030: 1f37 61be 4005 973c a4a1 a6bd 0207 0abe
00000040: d9a8 93bd 7365 bebd c8a0 e83d 8430 4e3d
00000050: 3a0c 41be 98b1 ed3e 4f6c b93d 286a d3bd
00000060: 0d47 94be 3b40 91bd 24f4 f5bd ebf8 4fbf
00000070: 38cc 5cbe 7521 d7be eb4e b3be 035b 9fbd
00000080: b158 27bf 7426 36be abb7 05bf e055 253f
00000090: 68d4 8fbe 202b ab3e bc87 7abe b9c6 223e
000000a0: dff7 4fbe 0d92 aa3d 0dc7 b33c f16d 07bf
000000b0: 1287 b73e e5bc f4bd a1c6 563e 2f4d cfbd
000000c0: d8fe 213e 26b5 0cbe 867e 68be cafb cbbd
000000d0: c49e b13e 722c a9be 3dd5 9cba de16 a3be
000000e0: f689 f2be df18 b33c a203 703e 35f6 0bbe
000000f0: b257 a73d 2d9e 10be ac22 7bbd f041 943e
00000100: 2129 0bbf 686c 22bf 6291 06be 2a07 94be
00000110: 0f0e 0cbf 115e dd3d d304 bb3d a425 a0be
00000120: 38c3 e8be a742 a8be 6b41 303d c215 873f
00000130: 2299 0abf aa09 e6bd 1f0a 9b3e e04f f8be
00000140: 1f6f 23be d4a7 11bd f32a 773d c033 3e3e
00000150: af2b b4be 0bd8 3b3e 552b 88bd f082 d9be
00000160: 5095 15bb 3af6 d8be ae2b 353c bc55 1d3e
00000170: cd21 333f 9a19 bebd 86b3 e1be 5dce 73be
00000180: 5b71 4ebe 61f9 07bf cca9 48bd a2a6 abbe
00000190: 299e 7fbd 65a1 adbb ece0 b9be 2a06 243f
000001a0: fb5b 6abe 5f08 5d3f d5b2 f9be c39d fa3e
000001b0: da14 623c bff3 5c3e cc6e 49bf 0822 c2be
000001c0: 185e 9f3e bad0 edbd b98f 16be fd9b 78be
000001d0: f580 2fbe e9fe 02be 72d6 02be adc7 013f
000001e0: 387d debd c8fb e13d 23dd 50be 4b50 a7be
000001f0: 2b27 38be b080 5ebc 6152 5bbe 9296 923c
00000200: eb77 a03d 5e1f cc3c 45b6 19bc ae0f cd3e
00000210: 2b4e 81be f54f 9bbd 348c 1dbf defb 5dbe
00000220: 83f3 a0bd 78eb 93be 7f09 293d 837c c6bd
00000230: 5c3f 92be 89fb 363e b9e3 cebd 872d 2ebe
00000240: 69e5 19bf 9e25 633e 6f9e e33d e5a9 843e
00000250: ba7a 24bd 71b1 cabd c15e d4be 3eee 02bf
00000260: 010a 0d3e de62 43bd ede4 0fbf 3792 bfbd
00000270: b6f2 bdbe 74d3 1ebd 3df1 90be fbb3 00bf
00000280: 5587 a8be ad38 5d3f 847b 8bbe e921 43bf
00000290: 5671 bebe 4874 f2be 0b20 763f 02fa 99be
000002a0: 0784 d8bd 11c4 67be deea 16be f548 303f
000002b0: a0fa 4fbf a487 80be 8721 f5be 56b4 d0be
000002c0: 2b75 02bf 36b8 14bf 6c50 1fbf 3aa1 193c
000002d0: 71e9 9abe 75c2 31bf a357 c93e 17f6 fdbe
000002e0: d8b8 dabe 8c27 a83e 865d dfbe b4e5 16bf
000002f0: 703b b4be 1bea a6be 3530 37bf f8e6 cfbd
00000300: ac8c 1fbd 84f5 44bd 6de2 b9be 7532 5dbe
00000310: 424e a4bb 7c67 103f 19ee c4be 3251 94be
00000320: b6f0 dfbd 3c67 d0be d3fc b9bd d00f eebe
00000330: 9703 9dbe c9cd 06bf 3763 f7be c93a e8bd
00000340: 413d 1bbe bded a73d 6307 b4be d8af 5cbe
00000350: 8f14 13bd b8bb 22be 173e c4be 085e 18bf
00000360: 9393 c1be 6ebc 26bf 27b2 08bf 076b d2be
00000370: 09ba 203d cee4 1abf ead2 0fbf 6adb acbe
00000380: 0f7e 8cbf 1f63 753e c805 bdbe e8a4 62be
00000390: 3924 d5be 7374 25bf 1de4 00bf 6827 debe
000003a0: 84ff 03bf 4b82 85be 1f39 a2be 9372 3dbf
000003b0: 7126 70be e5c9 3fbf 287d 1dbf 5acb f0be
000003c0: 2834 b33e 62c1 febe 94ab b4be 2dc9 f5be
000003d0: bbbf 2bbf 0152 03bf 43d4 55be 93f7 2ebf
000003e0: 037b f5be 1e9f 39be e311 65bf 4fb8 e0bd
000003f0: ac62 97be 6635 323f c4bc c1be cda6 033e

rnn.bias_hh f4 [600]
-0.12128339 -0.3327195 -0.6162379 0.71992856 -0.63437766 -0.080350526 0.1586891 -0.056801032
-0.16162455 0.061923284 0.50022864 -0.52536577 -0.0927337 -0.10477123 -0.023336561 -0.16717958
-0.020464484 -0.037001703 0.079720564 0.04037309 -0.19105715 0.42317313 0.0053355517 -0.09997375
-0.31467435 -0.099477544 -0.1638889 -0.7668008 -0.20705447 -0.30671546 -0.44129583 -0.06593776
-0.6235503 -0.2942617 -0.511889 0.6439082 -0.34106353 0.43617314 -0.1599413 0.10993727
-0.24110502 0.0031658642 0.07542036 -0.59580195 0.4339173 -0.17527846 0.21924883 -0.03527962
0.09576879 -0.2924398 -0.31232518 -0.19108921 0.3014472 -0.3472689 0.13791625 -0.30416143
-0.5198719 0.002730787 0.35813412 -0.20232034 0.2134007 -0.040155787 0.018634483 0.21365856
-0.43353015 -0.5396617 -0.19398548 -0.29643008 -0.650893 0.05401605 0.17191595 -0.43546188
-0.535226 -0.39581862 0.08324347 1.0160905 -0.4763484 -0.18532296 0.3290572 -0.5463314
-0.16840838 0.082666144 0.07091355 0.24225457 -0.40512416 0.25126246 -0.19099784 -0.330048
0.018248927 -0.53182465 -0.05417191 0.060204335 0.7198252 -0.077019304 -0.54481447 -0.36148894
-0.20509477 -0.5538359 -0.03997811 -0.21634595 -0.15700406 0.07399321 -0.4136644 0.5938119
-0.1679778 0.85946697 -0.4214194 0.43002853 -0.014352753 0.12064645 -0.70357776 -0.30774
0.27746457 -0.07925877 -0.19000496 -0.11119839 -0.2695885 -0.24121237 -0.18510078 0.43830344
-0.090055734 0.117461085 -0.16197076 -0.24493551 -0.055919014 -0.036400035 -0.23418024 -0.08792845
-0.01387306 0.008166401 -0.04951211 0.3770322 -0.14440946 0.013032976 -0.68754464 -0.21150845
-0.104813956 -0.31993878 -0.05221904 -0.11817039 -0.3005887 0.1814168 -0.13980386 -0.16990937
-0.6263138 0.16706304 0.056066997 0.2962525 -0.019380515 -0.116644524 -0.40281937 -0.51411647
0.16608006 0.026339214 -0.54924136 -0.12484751 -0.36019576 0.018502878 -0.32420892 -0.63676465
-0.23485677 0.7539677 -0.24959058 -0.7505363 -0.30417973 -0.32855147 0.82566607 -0.38188365
-0.17896216 -0.23427494 -0.2633425 0.72604954 -0.73964787 -0.23716004 -0.3490547 -0.45256707
-0.6629093 -0.71612823 -0.59145206 -0.07101578 -0.19931139 -0.66659755 0.40235958 -0.56113786
-0.4981795 0.30533206 -0.39217788 -0.5587637 -0.33905762 -0.332522 -0.68592536 -0.051592987
-0.034453116 -0.090626895 -0.27833813 -0.08110343 -0.04335075 0.68129385 -0.39100003 -0.27614692
-0.11764118 -0.4142866 -0.18232417 -0.401219 -0.25332952 -0.57908994 -0.45481977 -0.11571722
-0.20488155 -0.050516076 -0.33340907 -0.26190403 -0.0526637 -0.12925407 -0.33157665 -0.6945199
-0.35716394 -0.59422547 -0.5267446 -0.42401922 0.03701504 -0.61840236 -0.44619146 -0.37596333
-1.028113 0.14071329 -0.2556475 -0.24370709 -0.37058362 -0.49331382 -0.4179813 -0.42349753
-0.484595 -0.23430674 -0.2928897 -0.7376337 -0.26102698 -0.6716397 -0.5733609 -0.5741676
0.33421177 -0.43336406 -0.40255967 -0.4938512 -0.78822553 -0.504757 -0.25304195 -0.7379052
-0.49029034 -0.29121247 -0.772028 -0.10827724 -0.35707554 0.82678723 -0.46220517 0.22936516
00000000: 6d63 f8bd 365a aabe c4c1 1dbf 3d4d 383f
00000010: 9366 22bf d18e a4bd 657f 223e 33a8 68bd
00000020: e880 25be 45a3 7d3d fc0e 003f 5f7e 06bf
00000030: 2beb bdbd 4c92 d6bd 512c bfbc 2031 2bbe
00000040: 22a5 a7bc 198f 17bd 8944 a33d 415e 253d
00000050: 7ca4 43be 26aa d83e dad5 ae3b 0abf ccbd
00000060: ff1c a1be e2ba cbbd 7ed2 27be 0f4d 44bf
00000070: 1606 54be cf09 9dbe 87f1 e1be 600a 87bd
00000080: fea0 1fbf 78a9 96be 280b 03bf 2bd7 243f
00000090: e19f aebe 1652 df3e a7c7 23be cb26 e13d
000000a0: 3ce4 76be 637a 4f3b fd75 9a3d 7a86 18bf
000000b0: 692a de3e 327c 33be c482 603e 5d81 10bd
000000c0: 6d22 c43d abba 95be 16e9 9fbe e4ac 43be
000000d0: 4a57 9a3e 3bcd b1be eb39 0d3e 0cbb 9bbe
000000e0: 5316 05bf 01f7 323b 5b5d b73e 102d 4fbe
000000f0: b785 5a3e 657a 24bd 58a7 983c 4fc9 5a3e
00000100: aaf7 ddbe 4527 0abf 21a4 46be afc5 97be
00000110: eca0 26bf ef3f 5d3d bc0a 303e dcf4 debe
00000120: 9204 09bf bda8 cabe 8d7b aa3d 410f 823f
00000130: f0e3 f3be 4dc5 3dbe 2f7a a83e 60dc 0bbf
00000140: 3f73 2cbe de4c a93d 203b 913d 9511 783e
00000150: 6f6c cfbe 79a5 803e f094 43be 0dfc a8be
00000160: c67e 953c a925 08bf 5de3 5dbd d298 763d
00000170: 7746 383f 4cbc 9dbd f678 0bbf 1415 b9be
00000180: 5d04 52be 31c8 0dbf 16c0 23bd cb89 5dbe
00000190: acc5 20be c189 973d d2cb d3be 0f04 183f
000001a0: 5f02 2cbe 0706 5c3f 49c4 d7be b32c dc3e
000001b0: cf27 6bbc 7c15 f73d ac1d 34bf 1990 9dbe
000001c0: d60f 8e3e 6c52 a2bd a990 42be fbbb e3bd
000001d0: 8107 8abe 6000 77be 0f8b 3dbe 4f69 e03e
000001e0: 246f b8bd 708f f03d aadb 25be 60d0 7abe
000001f0: 560b 65bd 3418 15bd f2cc 6fbe d513 b4bd
00000200: d54b 63bc 5ecc 053c 36cd 4abd 5d0a c13e
00000210: 13e0 13be 4388 553c ed02 30bf ac95 58be
00000220: b3a8 d6bd 04cf a3be a2e3 55bd 5103 f2bd
00000230: c3e6 99be 53c5 393e be28 0fbe b9fc 2dbe
00000240: 1a56 20bf 9312 2b3e 82a6 653d 68ae 973e
00000250: e3c3 9ebc 53e3 eebd 573e cebe 239d 03bf
00000260: e410 2a3e 56c5 d73c 159b 0cbf 0db0 ffbd
00000270: 946b b8be 5993 973c b6fe a5be 0203 23bf
00000280: 4b7e 70be 0704 413f ac94 7fbe 2623 40bf
00000290: 72bd 9bbe e637 a8be da5e 533f 4186 c3be
000002a0: db41 37be c5e5 6fbe d4d4 86be 62de 393f
000002b0: 9059 3dbf 15da 72be 4cb7 b2be dfb6 e7be
000002c0: 6db4 29bf 2e54 37bf 6769 17bf b970 91bd
000002d0: 4918 4cbe 23a6 2abf 1302 ce3e bba6 0fbf
000002e0: 6211 ffbe 7c54 9c3e 8acb c8be 230b 0fbf
000002f0: f698 adbe 5340 aabe ce98 2fbf 2b53 53bd
00000300: b61e 0dbd 989a b9bd 5682 8ebe 8e19 a6bd
00000310: 8e90 31bd 4669 2e3f 2831 c8be 2163 8dbe
00000320: dced f0bd 601d d4be 30b3 3abe 946c cdbe
00000330: 68b4 81be 3d3f 14bf 23de e8be 26fd ecbd
00000340: 78cc 51be f2e9 4ebd 98b4 aabe 4918 86be
00000350: e4b5 57bd 2e5b 04be 6ac4 a9be 0ecc 31bf
00000360: 31de b6be 291f 18bf bcd8 06bf 0c19 d9be
00000370: 159d 173d 9e4f 1ebf 3573 e4be 447e c0be
00000380: 3599 83bf 2517 103e 3be4 82be 5a8e 79be
00000390: 23bd bdbe a193 fcbe a501 d6be abd4 d8be
000003a0: d61c f8be 1bee 6fbe a4f5 95be 90d5 3cbf
000003b0: 54a5 85be 94f0 2bbf c8c7 12bf a6fc 12bf
000003c0: ce1d ab3e e5e1 ddbe 4d1c cebe 11da fcbe
000003d0: 26c9 49bf c137 01bf b78e 81be 5be7 3cbf
000003e0: 5607 fbbe cd19 95be a1a3 45bf 75c0 ddbd
000003f0: 9bd2 b6be 54a8 533f 28a6 ecbe b3de 6a3e

fc.weight f4 [100, 150]
-0.7308161 -0.11503549 1.3082316 0.13198097 1.5246569 1.8577148 -1.4963396 -1.7756584
0.33722988 0.46829018 0.0798495 -0.19355753 -0.591695 -1.0783783 2.2198598 -0.7725815
-0.35032362 1.8430707 -1.7738155 1.1537548 1.4913205 1.2083209 1.5386842 0.019328702
1.5865585 0.7594882 0.37249655 0.12937342 1.1621695 0.15365939 0.34846213 0.8206121
-0.6223934 0.08093063 -0.49026814 -2.1991925 0.5570841 -2.3378074 -0.86973685 -0.8183792
-0.7532311 0.16314507 -0.65538347 -0.97185063 0.4896874 -0.64936626 0.7811096 0.9438269
1.0628891 0.53754115 -1.2710629 -0.65698594 -1.3014491 -1.9619079 -0.5913081 -0.63677263
-1.9990941 1.5008144 0.33541626 -1.0272075 0.16318291 -1.1711 2.386572 -0.6039216
0.36552808 0.73952234 -0.96963894 1.2673054 -1.229967 0.34517047 -0.31199935 -0.89609087
-2.9317281 -0.33734137 -0.6049674 0.7668756 -1.1588124 1.9091717 -0.033927206 0.6226836
0.87635887 0.52253914 0.29733488 1.5940739 0.14190666 -1.1714807 0.7128931 -1.3176833
0.35473567 2.2601705 1.2587465 0.70836765 1.0390599 0.74518496 2.5716887 0.12505358
-0.028018594 0.42855817 0.37954572 -1.8514302 -1.5991374 -0.25924072 -0.091548614 1.6043102
1.6395938 -1.5364062 0.19775689 0.26644725 1.2411802 1.2787488 0.26939753 -0.5982847
-0.00967567 0.87116665 -0.10087662 0.2102861 0.039728608 0.021269575 -1.8093493 0.8288644
-0.4149936 -0.07387876 -0.28077766 -0.4128396 0.42465052 -0.22464152 -1.1057583 -0.98024946
1.4295187 0.688273 0.64858633 -1.8015194 -0.7719476 1.2709242 0.5563558 -0.3054706
1.8291669 0.5949882 -0.084875576 0.2823081 0.8558708 0.5163423 1.1653866 -1.0770261
-0.83394855 0.13441935 -0.037877433 0.83988684 -0.4380879 -0.2243638 -1.1661551 1.6538802
0.4870305 -0.030258192 2.0325782 2.2713306 -1.6781191 -0.9810651 -0.5172089 0.56795037
-0.433109 -0.25338838 -1.4987102 -1.3518757 1.5847473 0.32486832 0.13685042 1.1463614
-2.3744063 -0.24359371 1.8870525 0.6886969 0.8939866 -0.7132825 0.54275405 0.7257676
-0.7631478 -0.019184675 -0.563745 0.2922813 0.6983532 1.9931599 -1.5127871 -0.39285743
-0.46876526 -1.5965126 0.7653554 -0.4007502 -0.927201 -0.48534852 -0.021510696 -0.16301516
-0.30718526 -0.44803187 1.2918892 -0.5952733 1.7578605 0.7825935 1.3547989 0.54815716
-1.9333528 -1.1916237 -1.9728142 -0.30242884 -0.6290928 -0.022499627 -0.071654096 2.6437254
0.4957603 0.3424365 -0.38541272 -0.43921486 0.51555645 -1.7283982 1.0095557 0.8148583
-0.40279743 0.8639641 -1.5134356 0.8808303 0.096525945 -1.4640552 -3.812957 0.4629767
-0.016516186 1.5487716 -1.3291528 1.6110698 -0.17976047 0.6390705 1.3500507 -0.07663255
0.37608677 0.31063053 0.21169823 -1.092606 1.0195543 -1.3363675 0.35022235 1.0644335
1.5093601 1.2797359 0.79822373 0.045225017 2.4486547 0.45857075 0.15482137 0.73206717
0.0046480685 -1.8037277 -0.9001906 -0.33921856 1.2706094 0.8532896 1.6018901 -2.2498176
00000000: c416 3bbf ba97 ebbd 2274 a73f 0526 073e
00000010: f527 c33f 99c9 ed3f 0e88 bfbf c648 e3bf
00000020: 65a9 ac3e bbc3 ef3e 2288 a33d f233 46be
00000030: 5379 17bf 4d08 8abf 2f12 0e40 e7c7 45bf
00000040: 9e5d b3be bee9 eb3f 630c e3bf 3dae 933f
00000050: 97e3 be3f 42aa 9a3f 9bf3 c43f 3a57 9e3c
00000060: 5914 cb3f d26d 423f deb7 be3e 777a 043e
00000070: f8c1 943f e358 1d3e a169 b23e a213 523f
00000080: 2d55 1fbf f5be a53d 6d04 fbbe 92bf 0cc0
00000090: 109d 0e3f a39e 15c0 13a7 5ebf 4d81 51bf
000000a0: c1d3 40bf 800f 273e 36c7 27bf 34cb 78bf
000000b0: 4fb8 fa3e de3c 26bf ccf6 473f a49e 713f
000000c0: c00c 883f 4c9c 093f 30b2 a2bf 3b30 28bf
000000d0: e295 a6bf cc1f fbbf f85f 17bf 8803 23bf
000000e0: 51e2 ffbf b01a c03f aebb ab3e 897b 83bf
000000f0: 6c19 273e 9be6 95bf 98bd 1840 9b9a 1abf
00000100: 7f26 bb3e 5651 3d3f 423a 78bf 1037 a23f
00000110: 8f6f 9dbf 2fba b03e 61be 9fbe 3666 65bf
00000120: 6fa1 3bc0 02b8 acbe 25df 1abf f651 443f
00000130: f753 94bf bd5f f43f 41f7 0abd 3168 1f3f
00000140: 0e59 603f 20c5 053f 473c 983e 9d0a cc3f
00000150: fb4f 113e 14f3 95bf 2a80 363f d9a9 a8bf
00000160: ea9f b53e a2a6 1040 9b1e a13f 9557 353f
00000170: eaff 843f 71c4 3e3f 8c96 2440 0c0e 003e
00000180: 4087 e5bc fa6b db3e d153 c23e aafb ecbf
00000190: 89b0 ccbf 33bb 84be d77d bbbd 095a cd3f
000001a0: 36de d13f f5a8 c4bf c880 4a3e c66b 883e
000001b0: fede 9e3f 0aae a33f 79ee 893e 3029 19bf
000001c0: b486 1ebc c704 5f3f 6798 cebd 3d55 573e
000001d0: 77ba 223d 883d ae3c c298 e7bf 7530 543f
000001e0: 0b7a d4be bf4d 97bd 17c2 8fbe b65f d3be
000001f0: cb6b d93e 6d08 66be 7d89 8dbf a1f1 7abf
00000200: 78fa b63f a932 303f c109 263f 3098 e6bf
00000210: 5c9e 45bf a5ad a23f 556d 0e3f a466 9cbe
00000220: 2422 ea3f 2651 183f 3fd3 adbd b08a 903e
00000230: 591a 5b3f 022f 043f 632b 953f fedb 89bf
00000240: a77d 55bf 3aa5 093e 5e25 1bbd d302 573f
00000250: 0f4d e0be a0bf 65be 9244 95bf 59b2 d33f
00000260: 105c f93e 07e0 f7bc c315 0240 7b5d 1140
00000270: 9bcc d6bf 1527 7bbf cd67 04bf 3265 113f
00000280: 76c0 ddbe 1fbc 81be bcd5 bfbf 430a adbf
00000290: 00d9 ca3f 2455 a63e 8422 0c3e f8bb 923f
000002a0: 46f6 17c0 a170 79be f08a f13f 714e 303f
000002b0: 4edc 643f af99 36bf eef1 0a3f e8cb 393f
000002c0: a75d 43bf 2e29 9dbc 9851 10bf e5a5 953e
000002d0: 46c7 323f dd1f ff3f 02a3 c1bf 9c24 c9be
000002e0: 0002 f0be 865a ccbf 55ee 433f 212f cdbe
000002f0: 0b5d 6dbf 9a7f f8be 3337 b0bc 72ed 26be
00000300: 6347 9dbe 6f64 e5be a05c a53f d563 18bf
00000310: 9301 e13f 0c58 483f 0d6a ad3f 0754 0c3f
00000320: 1b78 f7bf 2087 98bf 2d85 fcbf f4d7 9abe
00000330: 3a0c 21bf 2351 b8bc 62bf 92bd cc32 2940
00000340: 4bd4 fd3e d653 af3e d154 c5be c5e0 e0be
00000350: 82fb 033f 273c ddbf 1f39 813f 8e9a 503f
00000360: 773b cebe c02c 5d3f 42b8 c1bf 187e 613f
00000370: 65af c53d 2966 bbbf 7d07 74c0 480b ed3e
00000380: f44c 87bc 263e c63f ae21 aabf 8937 ce3f
00000390: 2113 38be 209a 233f 76ce ac3f 87f1 9cbd
000003a0: 728e c03e f70a 9f3e 6cc7 583e 83da 8bbf
000003b0: c180 823f 170e abbf 5850 b33e 5b3f 883f
000003c0: b632 c13f 63ce a33f 6458 4c3f de3d 393d
000003d0: c2b6 1c40 c9c9 ea3e 7e89 1e3e c168 3b3f
000003e0: d34e 983b 8de0 e6bf e472 66bf 0eae adbe
000003f0: 54a3 a23f 3071 5a3f bc0a cd3f 03fd 0fc0

fc.bias f4 [100]
-0.7894316 -0.4712264 -0.38919303 -0.36101565 -0.54555935 -0.28731856 -0.8117744 -1.0070047
-0.9250865 -0.8872823 0.49536848 -0.018060219 0.16981134 0.04141927 0.44917256 0.0073629804
0.23632415 -0.44663975 0.053560656 -0.6433355 0.050454766 0.5026684 0.034837462 0.12535794
-0.10155216 -0.13504997 -1.0966831 0.31201267 0.9361269 0.32660067 -0.22412884 -0.09969657
-0.12992747 -1.174269 0.10165558 -1.1327035 -0.17546847 -0.3992483 -0.43180743 -0.62011635
-0.34544033 -0.35423255 -0.31726944 -0.42419222 0.06991301 -0.5962758 -0.8029326 -0.48864764
-0.32053444 -0.36013797 -0.48986548 -0.5333256 -0.56849325 -0.7059644 -0.3102235 -0.2461786
-0.56723756 -0.5321398 -0.365212 -1.509098 -0.48030514 -0.90473783 -1.0604799 -0.7837076
-4.479575 -4.686863 -4.0515547 -0.86949533 -0.32470343 -1.0281426 -1.2158823 -5.0682025
-4.3078966 -0.20356658 -0.49862936 -0.1798904 -2.4937124 -1.1146215 -1.3357925 -4.090008
-4.213195 -4.259144 -1.1388779 -4.460677 -0.9296194 -4.7073965 -0.9884196 -4.3032756
-4.112164 -4.510672 -4.615201 -4.4155216 -4.0915513 -4.2852426 1.0888845 -4.148684
-1.4291533 -4.659745 -3.895373 -4.6447606
00000000: 3018 4abf 9644 f1be 4f44 c7be 0bd7 b8be
00000010: c7a9 0bbf 6b1b 93be 72d0 4fbf 88e5 80bf
00000020: 78d2 6cbf ef24 63bf f0a0 fd3e 06f3 93bc
00000030: 06e3 2d3e 41a7 293d f2f9 e53e 2845 f13b
00000040: f5fe 713e f7ad e4be 6b62 5b3d a3b1 24bf
00000050: a8a9 4e3d e0ae 003f bab1 0e3d d55d 003e
00000060: 94fa cfbd 8a4a 0abe 1d60 8cbf 20c0 9f3e
00000070: 03a6 6f3f 3438 a73e 0882 65be b72d ccbd
00000080: b50b 05be 724e 96bf cd30 d03d 6efc 90bf
00000090: 02ae 33be 466a ccbe dd15 ddbe f2bf 1ebf
000000a0: 8edd b0be f85d b5be 2471 a2be b92f d9be
000000b0: 8d2e 8f3d 88a5 18bf fe8c 4dbf 0630 fabe
000000c0: 171d a4be 0164 b8be a6cf fabe 0788 08bf
000000d0: c688 11bf 15ba 34bf 9dd5 9ebe 3e16 7cbe
000000e0: 7b36 11bf 503a 08bf 11fd babe 202a c1bf
000000f0: 8eea f5be e69c 67bf cebd 87bf 10a1 48bf
00000100: ae58 8fc0 c8fa 95c0 56a6 81c0 3f97 5ebf
00000110: 873f a6be 2d9a 83bf 08a2 9bbf b72e a2c0
00000120: 4ada 89c0 c273 50be 594c ffbe 3035 38be
00000130: fc98 1fc0 ebab 8ebf 40fb aabf 58e1 82c0
00000140: 7ed2 86c0 e84a 88c0 c0c6 91bf debd 8ec0
00000150: 89fb 6dbf fea2 96c0 1109 7dbf 6fb4 89c0
00000160: d996 83c0 6d57 90c0 baaf 93c0 f44b 8dc0
00000170: fded 82c0 b520 89c0 9160 8b3f 05c2 84c0
00000180: 7fee b6bf a21c 95c0 cb4d 79c0 e1a1 94c0
