Results/Complete Sherlock Holmes/LSTM/Adam/2/100/model.pt (torch, 690367 bytes, 10 tensors)

rnn.weight_ih f4 [400, 100]
0	0x3ccd7fdc	0.025085382
1	0xbe55e817	-0.20889316
2	0x3f563141	0.83668905
3	0x3e1ae95e	0.15128085
4	0x3ef2d9b5	0.47431722
5	0x3ea7e2af	0.32790133
6	0xbf0c4ffe	-0.5480956
7	0xbe4935b5	-0.19649394
8	0xbf54bbdd	-0.83099157
9	0xbec3ad3e	-0.3821811
10	0xbfb4faf7	-1.4139088
11	0xc024eb77	-2.5768716
12	0x3f04554c	0.5169265
13	0x3e8118a1	0.25214103
14	0x3ed97b5f	0.42476937
15	0xb9d08dcd	-0.000397785
16	0x3f440f4f	0.7658586
17	0x3ef760af	0.4831595
18	0xc005e58a	-2.092135
19	0x3f32b997	0.6981444
20	0x3f8993ed	1.0748268
21	0xbfd9ec55	-1.7025248
22	0xbe3a1bde	-0.18174693
23	0xbe254d01	-0.16142656
24	0xbf086b44	-0.53288674
25	0x3fdb59ed	1.7136818
26	0xbfc89ac4	-1.5672231
27	0x4083b169	4.1154065
28	0x3eba12c0	0.3634243
29	0xbdfc6d72	-0.123255625
30	0x3f2a33ca	0.66485274
31	0x3be7808c	0.0070648845
32	0x3f69c076	0.913093
33	0xbf6acbae	-0.9171704
34	0xbfe59333	-1.7935547
35	0x3f9bc372	1.216902
36	0xbf8c44f7	-1.0958546
37	0xbeb5fea0	-0.35545826
38	0x3dc4446e	0.095833644
39	0xbeb0da40	-0.34541512
40	0x3e90409e	0.281743
41	0x3cff1b86	0.031141054
42	0x3e9cc819	0.30621412
43	0xbfa49361	-1.2857476
44	0xbf005da7	-0.501429
45	0x3e52708e	0.20550749
46	0x3f8c6571	1.0968457
47	0xbf40a008	-0.7524419
48	0x3f85a4d6	1.0440929
49	0xbd8e4359	-0.06946439
50	0x3e70c934	0.23514253
51	0x3e72778e	0.23678419
52	0x3fbdab5b	1.4817919
53	0x3d7b11c0	0.061296225
54	0xbf5b19fb	-0.8558652
55	0x3eec4ae7	0.46150896
56	0x3e413067	0.1886612
57	0x3f9fc654	1.24824
58	0x3f28854b	0.6582839
59	0xbf10ded7	-0.56590027
60	0xbf151029	-0.58227783
61	0xbdd3ee65	-0.103482045
62	0xbebb1967	-0.36542818
63	0xbf9c1e33	-1.2196716
64	0x3d67adf6	0.056562386
65	0xbd27fcfa	-0.04101274
66	0x3d1ad1be	0.037797682
67	0xbf64d440	-0.8938637
68	0xbf89b85b	-1.0759386
69	0x3f16906d	0.58814126
70	0x3f5d13c7	0.863583
71	0xbe0b5f19	-0.13610496
72	0xbd4a2827	-0.0493547
73	0xbf7d14fc	-0.98860145
74	0xbfcbf2d0	-1.5933475
75	0x3f550ff8	0.8322749
76	0x3eab4977	0.33454487
77	0xbb811f7a	-0.00394052
78	0xbf161f14	-0.5864117
79	0xbd93253e	-0.07184838
80	0xbc1c7d30	-0.009551331
81	0xbdab58e5	-0.08366565
82	0xbf8d597a	-1.1042931
83	0xbd2c3437	-0.042041983
84	0x3f0ce917	0.55043167
85	0x3d13e4b2	0.036106773
86	0xbf5f6ab8	-0.87272215
87	0xbc036210	-0.008018985
88	0xbdc1aa53	-0.09456315
89	0x3eac19b5	0.33613363
90	0x3d425846	0.047447465
91	0xbd6d11d3	-0.057878327
92	0xbc2585d0	-0.010102704
93	0x3d4cc1c2	0.04998947
94	0xbfaf3233	-1.3687195
95	0x3d9ae459	0.07563085
96	0xbdf034dd	-0.11728833
97	0xbdafec85	-0.085900344
98	0x3d3b53a2	0.045734055
99	0x3dc0e749	0.09419114
100	0xbf12fcd5	-0.5741704
101	0x3fc45f06	1.5341499
102	0x3ef93c9d	0.48679057
103	0xbf8b0540	-1.0860977
104	0x3dde8316	0.108648464
105	0xbf4ac510	-0.79206944
106	0xbf73d6b2	-0.95249474
107	0xbee23f75	-0.4418904
108	0x3f034099	0.51270443
109	0x3e729794	0.23690635
110	0xc00f6d15	-2.2410328
111	0xbf0b900d	-0.5451668
112	0xc000a851	-2.0102732
113	0x3f577730	0.8416624
114	0x3fdebe29	1.7401782
115	0x3e459d18	0.19298208
116	0x405a7100	3.413147
117	0xbf32ff4c	-0.699208
118	0xbf891b8e	-1.0711534
119	0xbec92c9a	-0.3929184
120	0x4018cf8f	2.3876684
121	0xbf77b5b6	-0.96761644
122	0x3f831e27	1.0243577
123	0xbe64cee3	-0.22344546
124	0x3b690668	0.0035556797
125	0xc00e2d4e	-2.2215152
126	0x3ec77bd2	0.38961655
127	0xc020f04f	-2.5146673
128	0x3f35f233	0.7107269
129	0x3f1dc46f	0.6162786
130	0x3eac2ba9	0.3362706
131	0xbfae1841	-1.3601152
132	0xbf6aa9b3	-0.9166519
133	0xc011c6b9	-2.277754
134	0xbd81295f	-0.06306719
135	0x3f01d683	0.50717944
136	0xc022feb6	-2.5467963
137	0xbf832b8b	-1.0247663
138	0x3f38e2d7	0.7222113
139	0xc0024735	-2.0355961
140	0xbc9352a1	-0.017983736
141	0xbef2cfb3	-0.47424087
142	0xbf36c9b9	-0.71401554
143	0xbfd373f6	-1.6519763
144	0x3fb2158f	1.3912829
145	0xbe9ff676	-0.31242722
146	0xbe015c94	-0.12632972
147	0x3fb70e0a	1.4301159
148	0xbf84d656	-1.037791
149	0xbf23b108	-0.63942003
150	0xbe010a10	-0.12601495
151	0xbf775d98	-0.9662719
152	0x3f1c33d2	0.6101657
153	0xbf830590	-1.0236073
154	0xbe0fbaab	-0.14036052
155	0x3f50e3cf	0.8159761
156	0x3f98fe07	1.1952523
157	0x3f60bd68	0.8778901
158	0xbfebdc19	-1.8426543
159	0xbeca1d0b	-0.39475283
160	0x3eb147a4	0.3462497
161	0xbea75735	-0.3268372
162	0xbf399d1e	-0.72505367
163	0xbee9b352	-0.45644623
164	0xbd868115	-0.06567589
165	0x3cee6884	0.029102571
166	0x3d333986	0.04375603
167	0x3f88bc04	1.0682378
168	0x3e505b7d	0.203474
169	0xbe34a693	-0.17641668
170	0xbeacdd50	-0.33762598
171	0xbe13c1be	-0.14429376
172	0xbcdc5ff4	-0.026901223
173	0xbfa9320b	-1.3218397
174	0x3f7e6c36	0.99383867
175	0xbf98fd4c	-1.19523
176	0x3ea6d9f8	0.32588172
177	0xbec18eaf	-0.3780417
178	0xbfb058c7	-1.3777093
179	0xbc55e1f0	-0.013054356
180	0x3d8193f7	0.0632705
181	0x3d122e2a	0.035688557
182	0xbf69bcdf	-0.9130382
183	0xbd73081d	-0.05933391
184	0xbfd2bc03	-1.6463627
185	0x3da0be43	0.078487895
186	0xbe780c51	-0.24223448
187	0x3d1f2122	0.038849957
188	0x3da4e62f	0.080517165
189	0x3e102115	0.1407512
190	0xbdc259f5	-0.09489814
191	0x3dbccbc7	0.09218555
192	0x3d30ba12	0.0431462
193	0x3dc56d8b	0.09640034
194	0x402c9351	2.6964915
195	0xbd8afa1d	-0.067859866
196	0xbf526e18	-0.8219924
197	0x3dc1c363	0.09461095
198	0xbd2a00fa	-0.041504838
199	0xbd96a918	-0.07356471
200	0xbfa042a1	-1.2520334
201	0xbd41d1f7	-0.04731938
202	0xbe56609b	-0.2093529
203	0xbf7d401b	-0.9892594
204	0xbea2da99	-0.31807402
205	0x3e8f2155	0.27955118
206	0xbf547f8f	-0.8300714
207	0xbe0b81c6	-0.13623723
208	0xbfb7351d	-1.4313084
209	0xbf045e7a	-0.5170666
210	0xbf772ebb	-0.9655568
211	0xbfa91473	-1.3209366
212	0xbfec091a	-1.8440278
213	0xbfa1972b	-1.2624258
214	0x3eabca69	0.33552864
215	0x3fa15936	1.260535
216	0x3f7906dd	0.972761
217	0x3f671696	0.9026884
218	0x3ffef967	1.9919862
219	0xbd8bcaf0	-0.06825817
220	0x3f8e9d70	1.1141796
221	0xbfdae2b9	-1.710044
222	0xc020f451	-2.514912
223	0xc00fb431	-2.245373
224	0x3c881b0f	0.016614465
225	0xc031e88b	-2.7798183
226	0xbf876c24	-1.0579877
227	0x40073e87	2.1131914
228	0xc076dd93	-3.8572738
229	0x3ed923ba	0.4241007
230	0x3edfaff1	0.4368892
231	0x3dd2bf18	0.102903545
232	0xbe958805	-0.29205337
233	0xbff0dfb8	-1.8818274
234	0xbfd105f9	-1.6329948
235	0xbffafd9c	-1.9608645
236	0xbeb472a1	-0.35243705
237	0xbcf428f4	-0.029804684
238	0xbf92debf	-1.1474227
239	0x3f4152fa	0.7551724
240	0x3fc9dcfd	1.5770565
241	0xc013586f	-2.3022726
242	0x3f7da799	0.9908386
243	0xbf84ad5b	-1.0365404
244	0xbf7a0b4c	-0.9767349
245	0xbfd39aab	-1.6531576
246	0xbec585eb	-0.38578734
247	0x3f3e34f0	0.74299526
248	0x400ad6de	2.1693645
249	0x400b0c2e	2.1726184
250	0x3e8c2e24	0.27378953
251	0x3f496fbc	0.7868612
252	0xbd2596f6	-0.04042717
253	0x3e0a9265	0.13532408
254	0x3e9d84f5	0.307655
255	0xbf491796	-0.78551614

rnn.weight_hh f4 [400, 100]
0	0x3ef85ce5	0.48508373
1	0x3e500679	0.20314969
2	0x3fbcbfb9	1.4746009
3	0xbf836595	-1.0265375
4	0xbfa90fc7	-1.320794
5	0xbf414189	-0.75490624
6	0x3f2019f1	0.62539583
7	0x3f4dd739	0.8040653
8	0x3fdd6b95	1.7298456
9	0xbe1493de	-0.14509532
10	0x3ec8cfe7	0.39221117
11	0xbe2f3c61	-0.17112876
12	0x3f74f265	0.95682365
13	0x3f725403	0.9465944
14	0xbf3f0cdd	-0.74629
15	0xbfabee17	-1.3432034
16	0x3f868797	1.0510129
17	0x3e3a9c89	0.18223776
18	0x3efc13c6	0.49233836
19	0xbf0371a3	-0.5134527
20	0x3f9e94f0	1.2389202
21	0xbe5400ef	-0.20703481
22	0xbf0dfadd	-0.5546091
23	0xbece0e35	-0.40245214
24	0xbce8f74e	-0.028438237
25	0x3fc24afe	1.5179136
26	0x3e7ebeb2	0.24877432
27	0xbea046c4	-0.3130399
28	0x3f1a5161	0.60280424
29	0xbeaf7b2f	-0.3427367
30	0xbce31e28	-0.02772434
31	0x3f2657df	0.6497783
32	0x3d157094	0.036484316
33	0xbf2743e7	-0.65337986
34	0x3f364c93	0.71210593
35	0xbecff31d	-0.40615168
36	0x3ccfd7ad	0.025371397
37	0x3fb10475	1.3829485
38	0x3fb3d9fd	1.40509
39	0x3f61fb7d	0.88274366
40	0x3ee62ce6	0.4495613
41	0xbe8c4c76	-0.27402085
42	0xbf75ddab	-0.96041363
43	0xbf4c690e	-0.798478
44	0xbcf33d45	-0.029692302
45	0xbf584eb1	-0.84495074
46	0x3f0ab8db	0.5418832
47	0xbf2f1c39	-0.6840244
48	0x3dce9e3e	0.10088776
49	0x3f01321d	0.5046709
50	0xbead7130	-0.33875418
51	0x3f61e11c	0.88234115
52	0xbf9ee213	-1.2412742
53	0xbe823c0d	-0.2543644
54	0xbf95bf06	-1.1698921
55	0xbf98524c	-1.1900115
56	0xbf2b052d	-0.6680477
57	0xbf1c5206	-0.6106266
58	0xbee57c1b	-0.44821247
59	0xbd19c1ea	-0.037538446
60	0xbe9fb83f	-0.31195256
61	0xbf72844d	-0.94733125
62	0xbfa55618	-1.2916899
63	0xbe24d65b	-0.16097395
64	0xbf5e756a	-0.8689791
65	0x3db8dbf2	0.09026326
66	0xbe8f6907	-0.28009817
67	0x3f552050	0.8325243
68	0xbea25c22	-0.31710917
69	0x3ef7be57	0.48387405
70	0x3dc705f8	0.09717935
71	0xbeafbc4b	-0.34323344
72	0xbf0bd966	-0.546286
73	0x3e4c9ea4	0.19982392
74	0xbea2b6cc	-0.31780088
75	0xbea4feec	-0.3222574
76	0xbff44f92	-1.9086783
77	0x3f8c3989	1.0955058
78	0xbfbe9277	-1.4888448
79	0xbf6fbe3b	-0.93649644
80	0x3ee173c2	0.4403363
81	0x3f87448e	1.0567796
82	0x3eb5493d	0.3540744
83	0xbf07b17d	-0.530052
84	0xbd375291	-0.044756476
85	0xbf07bea7	-0.5302529
86	0x3ff56a75	1.9173113
87	0xbf08f839	-0.5350376
88	0x3e51694e	0.20450327
89	0x3e3e6ffa	0.18597403
90	0xbfa34bfa	-1.2757561
91	0xbfa4e64a	-1.2882779
92	0x3d57d182	0.052690037
93	0x3f343333	0.70390624
94	0x3d932a7a	0.07185836
95	0xbe6c2cd9	-0.23063983
96	0xbfccf96a	-1.6013615
97	0xbe453399	-0.19257964
98	0xbe310d03	-0.1729012
99	0xbeb0ed47	-0.34556028
100	0xbeb92708	-0.3616259
101	0xbf8bb017	-1.0913113
102	0x3cc31d6e	0.023817744
103	0xbf2fab63	-0.6862089
104	0xbe3c537e	-0.18391225
105	0xbf34d3ac	-0.70635486
106	0x3ce2c0da	0.02767985
107	0xbf006d02	-0.5016633
108	0xbdb4ea22	-0.0883372
109	0xbedeaec1	-0.43492702
110	0x3fb1f161	1.3901788
111	0x3f1e04fb	0.6172635
112	0xbef98819	-0.48736647
113	0xbe966b11	-0.2937856
114	0xbea06734	-0.31328738
115	0xbf56b20c	-0.8386543
116	0xbef04a26	-0.4693157
117	0x3f11a88e	0.5689782
118	0x3dcb8166	0.0993679
119	0xbfb3231b	-1.3995088
120	0xbe0eb02e	-0.13934395
121	0xbe6e9783	-0.23299985
122	0xbec54bd6	-0.3853442
123	0xbf045043	-0.5168497
124	0xbeffd2ad	-0.4996542
125	0x3fcb89bc	1.5901408
126	0xbe82ee5d	-0.25572482
127	0xbdf45d77	-0.119318895
128	0xbf8e37f1	-1.1110822
129	0x3f3f869e	0.74814785
130	0xbe7c4929	-0.24637283
131	0x3dfb9066	0.12283401
132	0x3ebc9ee3	0.3683997
133	0x3f88f045	1.0698324
134	0xbf83473d	-1.0256115
135	0x3f10b6da	0.5652901
136	0xbf38ee1a	-0.72238314
137	0x3e3f049c	0.18654102
138	0xbd540999	-0.051766966
139	0x3f18b41a	0.59649813
140	0x3fad1b3b	1.3523935
141	0xbf36a8d2	-0.7135135
142	0xbe9de5d5	-0.3083941
143	0xbf1515fe	-0.5823668
144	0x3f73b1df	0.95193285
145	0xbf528182	-0.82228863
146	0xbf13bc7e	-0.5770949
147	0x3e99c585	0.30033508
148	0x3f3a7a53	0.728429
149	0x3ec06b8d	0.37582055
150	0xbe564eb5	-0.20928462
151	0xbe37d34b	-0.17951696
152	0xbf2cf965	-0.67568046
153	0xbf0671e8	-0.5251756
154	0xbeb0f178	-0.34559226
155	0x3f2fe83a	0.68713725
156	0x3f3f15dc	0.7464273
157	0xbed2d78e	-0.4118008
158	0x3f909343	1.1294941
159	0x3fbee720	1.4914284
160	0xbed645fc	-0.4185027
161	0x3e995f9f	0.29955766
162	0x3f205063	0.6262266
163	0x3ebc5988	0.36787057
164	0xbd566dbd	-0.05235075
165	0x3decda84	0.11565116
166	0x3ea32bed	0.3186945
167	0x3f73e866	0.95276487
168	0x3ee80bed	0.453216
169	0x3dd34c42	0.103172794
170	0xbfc4fa3b	-1.5388864
171	0xbece2d70	-0.4026904
172	0xbf0ddcf3	-0.55415267
173	0x3f314ee3	0.69260997
174	0x3fb5338d	1.4156357
175	0x3e1c68cf	0.15274356
176	0x3ecfdcca	0.40598136
177	0xbf3ccc9e	-0.7374972
178	0x3e447ee3	0.19189028
179	0xbf84683d	-1.0344311
180	0xbfaeb822	-1.3649943
181	0xbef74229	-0.48292664
182	0xbdfd45e6	-0.12366848
183	0xbe27bb57	-0.16380058
184	0x3f9ec811	1.2404805
185	0xbe586cfd	-0.21135326
186	0xbe39e303	-0.18153004
187	0x3ed001f7	0.406265
188	0x3faa4813	1.3303245
189	0xbe684b45	-0.22684963
190	0x3d9f7343	0.07785656
191	0xbf245cca	-0.64204085
192	0x3d896f27	0.06710654
193	0xbfbf8fec	-1.4965796
194	0xbe60bf2f	-0.21947931
195	0x3f7f67c3	0.997677
196	0xbf40fd11	-0.7538615
197	0xbf552755	-0.8326314
198	0x3eba3fbd	0.36376753
199	0xbfb28937	-1.3948125
200	0xbeb10771	-0.3457599
201	0x3f4e7095	0.80640537
202	0x3f169b31	0.58830553
203	0x3f7f428a	0.99710906
204	0x3f00d343	0.5032236
205	0x3fb18e16	1.3871486
206	0x3f437544	0.7635081
207	0xbe0ce508	-0.13759243
208	0xbf0f818e	-0.5605706
209	0xbe1bd659	-0.15218486
210	0xbe6ce94d	-0.23135872
211	0xbd76b9ba	-0.060235716
212	0xbf0a7616	-0.54086435
213	0x3f062840	0.52405167
214	0x3f4d9f53	0.80321234
215	0xbdc3b633	-0.09556236
216	0xbb83244d	-0.00400213
217	0xbfca6bab	-1.5814108
218	0xbf3e0aa6	-0.74235
219	0xbe918760	-0.28423595
220	0xbe87c87f	-0.26520154
221	0x3f32d32c	0.6985347
222	0xbf2d6989	-0.6773916
223	0xbdad46ee	-0.084607944
224	0x3e47824a	0.19483295
225	0x3c3a9a62	0.011389347
226	0xbf3dc58b	-0.7412955
227	0x3dbf600b	0.093444906
228	0xbe9e9112	-0.30970055
229	0x3edb2465	0.42801204
230	0x3e76fc71	0.24119736
231	0x3e6977a6	0.22799549
232	0xbdf0c7ae	-0.11756836
233	0x3dc3a1f1	0.09552372
234	0x3ea77f97	0.3271453
235	0xbcc71a20	-0.02430445
236	0xbe916739	-0.28399065
237	0xbedc4961	-0.43024734
238	0x3f2da10d	0.6782387
239	0xbf4a1630	-0.78940105
240	0xbf0fc83c	-0.5616491
241	0xbf353f7b	-0.7079999
242	0x3e2527bc	0.16128439
243	0xbf63882c	-0.88879657
244	0xbf6c6cdd	-0.9235361
245	0x3f7b623b	0.9819676
246	0xbf503921	-0.8133717
247	0xbf2021e0	-0.6255169
248	0xbf00ddaf	-0.5033826
249	0x3f38a475	0.7212594
250	0xbf775cd2	-0.9662601
251	0xbfa3e048	-1.280282
252	0x3f0687ac	0.5255077
253	0xbe54bb8c	-0.20774668
254	0xbf0ce968	-0.5504365
255	0x3f29e845	0.6637004

rnn.bias_ih f4 [400]
0	0xbf2ef5ba	-0.683437
1	0x3ee60fad	0.44933835
2	0xbdaf1f85	-0.08550934
3	0xbec951e8	-0.39320302
4	0x3d96844d	0.07349453
5	0x3f039f4a	0.5141493
6	0xbde750d0	-0.11294711
7	0xbdb8cec6	-0.09023814
8	0x3f56d393	0.83916587
9	0x3e9d3eb3	0.30711898
10	0xbefb8cc0	-0.4913082
11	0x3e93ff02	0.28905493
12	0xbe950e6e	-0.2911257
13	0x3de517b0	0.11186159
14	0xbe25c259	-0.16187419
15	0xbee48a41	-0.4463673
16	0x3f1f9ea4	0.6235144
17	0x3e02928f	0.1275122
18	0xbd377f0b	-0.044798892
19	0xbdf71b23	-0.12065723
20	0x3e80cd02	0.2515641
21	0xbe2c776b	-0.1684243
22	0xbec20e04	-0.37901318
23	0x3c402e2d	0.011729759
24	0x3c2e4a76	0.01063787
25	0xbf1285bf	-0.5723533
26	0x3f819ebd	1.0126568
27	0xbf378910	-0.71693516
28	0x3f52c863	0.82337016
29	0x3ee41537	0.44547436
30	0x3d44bcef	0.048031744
31	0xbcffeb21	-0.031240048
32	0xbed18664	-0.40922844
33	0xbecddb55	-0.402064
34	0xbedf24a6	-0.43582648
35	0x3e07dc37	0.13267599
36	0xbb8e7daa	-0.0043484764
37	0xbf220ddd	-0.63302404
38	0x3ec0947d	0.37613288
39	0xbd8ae4b7	-0.06781905
40	0x3ebf2e65	0.37340084
41	0xbec1a1f0	-0.3781886
42	0xbe9aa41d	-0.30203333
43	0xbdabcf5c	-0.0838916
44	0x3cfc7990	0.030819684
45	0x3d86d6ee	0.06583963
46	0xbbc30e16	-0.005952607
47	0xbe9276db	-0.28606305
48	0x3edc40e0	0.43018246
49	0xbdb8db79	-0.09026236
50	0x3eebb660	0.4603758
51	0xbef38c4d	-0.47567979
52	0x3f92261d	1.1417881
53	0xbeba8c4f	-0.36435172
54	0xbe0d5287	-0.13801013
55	0xbe4a374c	-0.19747657
56	0xbe83922d	-0.2569746
57	0x3f317494	0.6931851
58	0xbec52f24	-0.38512528
59	0x3d7b687e	0.06137895
60	0xbe143157	-0.14471947
61	0xbec074ce	-0.37589115
62	0xbf3cc1b8	-0.7373309
63	0x3e859336	0.26088876
64	0xbc09397d	-0.008375523
65	0xbe9d939e	-0.30776685
66	0x3f70fd28	0.94136286
67	0xbd264955	-0.04059728
68	0x3f304cf2	0.6886741
69	0xbec68b22	-0.38778025
70	0x3d86aca3	0.065758966
71	0x3f0fa1d6	0.5610632
72	0x3e2f74c0	0.1713438
73	0x3e1c9525	0.15291269
74	0xbe7c44ce	-0.24635622
75	0x3f33bbcf	0.7020845
76	0xbe586e0d	-0.21135731
77	0xbe97bec5	-0.29637733
78	0xbf1a423c	-0.60257316
79	0x3e83dc0e	0.25753826
80	0xbe240d0d	-0.16020603
81	0x3e7cbb4c	0.24680823
82	0xbb7fa135	-0.0039006
83	0xbeccf9e2	-0.40034395
84	0xbeb86b2e	-0.36019272
85	0xbe802370	-0.25027037
86	0x3d980a15	0.07423798
87	0xbe181764	-0.14852673
88	0x3f766082	0.9624101
89	0x3c383e2f	0.0112452945
90	0x3e60ed90	0.21965623
91	0x3dda2664	0.10651854
92	0x3e861999	0.26191404
93	0xbf1f30f8	-0.62184095
94	0x3ee4cb6b	0.44686446
95	0xbeb00a4e	-0.34382862
96	0xbe8257f0	-0.25457716
97	0xbe4d0e08	-0.20024884
98	0xbcc563e0	-0.024095476
99	0xbf047bf1	-0.5175162
100	0xbe9c7895	-0.30560747
101	0xbec3b507	-0.3822405
102	0xbeb3d6c8	-0.35124803
103	0x3cb64ada	0.022252489
104	0x3caeb51e	0.021326598
105	0x3f634bbe	0.8878745
106	0xbed120a7	-0.40845224
107	0xbe8ec6c1	-0.27886012
108	0x3f307213	0.68924063
109	0xbe8dc430	-0.27688742
110	0x3da27787	0.07932954
111	0xbe9d0b59	-0.3067272
112	0xbe00b872	-0.1257036
113	0x3ed442ac	0.41457117
114	0xbe2e0a4d	-0.16996117
115	0xbe089812	-0.1333926
116	0xbebaba0b	-0.36470065
117	0xbe9acd07	-0.30234548
118	0xbd1ff435	-0.039051253
119	0xbeb91234	-0.361467
120	0xbf4acdd4	-0.7922032
121	0x3e415f7e	0.18884084
122	0x3d92f2df	0.0717523
123	0x3f292439	0.66070896
124	0xbeffff7f	-0.49999616
125	0x3f0412f5	0.51591426
126	0x3f132322	0.57475483
127	0x3f040a20	0.5157795
128	0x3ee49bb6	0.44650048
129	0xbdc5f9f0	-0.096668124
130	0xbe2e48c2	-0.17019942
131	0xbe8519be	-0.25996202
132	0xbed32c83	-0.41244897
133	0xbe40c2ed	-0.18824358
134	0x3f3e1b4e	0.74260414
135	0x3f8d7f82	1.1054537
136	0xbec6a3a9	-0.38796738
137	0xbea36253	-0.31910953
138	0xbb2dbc1d	-0.002650983
139	0x3d108712	0.035285063
140	0x3ecd2ac6	0.40071696
141	0xbe6e7794	-0.23287803
142	0x3ef96370	0.48708677
143	0xbe8580b0	-0.26074743
144	0xbe9881f6	-0.29786652
145	0x3ef6e01c	0.48217857
146	0xbdc00ab4	-0.093770415
147	0x3f619730	0.8812132
148	0xbdf2129f	-0.11819958
149	0x3df065e1	0.11738182
150	0xbed6e431	-0.4197097
151	0x3d89923e	0.067173466
152	0xbe84bead	-0.25926724
153	0x3d90de53	0.07073655
154	0x3bf534d1	0.007483103
155	0xbeb72803	-0.35772714
156	0x3f757b57	0.95891327
157	0xbf39b592	-0.7254268
158	0xbddcf853	-0.107895516
159	0x3e1ccf8e	0.15313551
160	0xbe6b62a0	-0.22986841
161	0x3f3596a5	0.7093299
162	0xbea7b54f	-0.32755515
163	0xbe7891e6	-0.24274406
164	0xbe27b354	-0.16377002
165	0xbd08ce8f	-0.033400115
166	0xbee07fb1	-0.4384742
167	0x3ebdb0fd	0.37049094
168	0x3f1a2199	0.60207516
169	0xbddd35db	-0.10801288
170	0xbecd44bb	-0.400915
171	0x3e9175b5	0.28410116
172	0x3f0fb682	0.5613786
173	0x3d6421df	0.055696364
174	0x3c3c1909	0.011480578
175	0xbe902759	-0.2815502
176	0x3ec30956	0.3809306
177	0xbf304732	-0.68858635
178	0x3df9ed4c	0.12203464
179	0xbe873225	-0.26405445
180	0xbead3031	-0.3382583
181	0x3f8659b6	1.0496128
182	0x3ee60f38	0.44933486
183	0x3e2f69b2	0.17130163
184	0xbe9b9ca7	-0.30392954
185	0x3ca3f801	0.020015718
186	0x3e1f089f	0.15530632
187	0xbe8a7c10	-0.27047777
188	0x3f82490d	1.0178543
189	0xbf28162a	-0.6565882
190	0xbca0e104	-0.019638546
191	0xbea7e4e0	-0.32791805
192	0xbeb0f111	-0.3455892
193	0xbe8fc1e7	-0.28077623
194	0x3e19cac5	0.15018757
195	0xbf366817	-0.7125258
196	0xbe1c8a0c	-0.15287036
197	0xbe88789b	-0.26654515
198	0xbf1c38ac	-0.61023974
199	0x3d303855	0.043022472
200	0x3cdf6131	0.027268024
201	0xbd022fa3	-0.03178371
202	0xbcbd7769	-0.023128228
203	0xbedeabbe	-0.43490404
204	0x3f376fa0	0.716547
205	0xbf768848	-0.963017
206	0x3c3ad74b	0.011403869
207	0x3e069209	0.13141645
208	0x3effa9c5	0.4993421
209	0xbd418047	-0.047241475
210	0x3dc2f0bc	0.09518573
211	0x3e88726e	0.26649803
212	0x3dc677c1	0.0969081
213	0x3f2448af	0.64173406
214	0x3debc395	0.11511914
215	0xbebabce2	-0.3647223
216	0x399484bb	0.00028327652
217	0xbe94356b	-0.28947005
218	0xbe428f04	-0.18999869
219	0x3e2df3e2	0.16987565
220	0xbc96d2ef	-0.018411128
221	0xbd9734cf	-0.07383119
222	0x3e696618	0.22792852
223	0xbebd51dc	-0.36976516
224	0x3ee58420	0.44827366
225	0x3ea8d1ee	0.32972664
226	0xbf648f35	-0.89281017
227	0x3f286326	0.6577629
228	0xbf01ee71	-0.5075446
229	0xbd960029	-0.07324249
230	0xbe6a2dcf	-0.22869037
231	0x3d678e41	0.05653215
232	0x3d1b05c9	0.037847314
233	0xbc5b89c3	-0.013399544
234	0x3eed6a1c	0.46370018
235	0xbf0a381a	-0.53991854
236	0xbea01b51	-0.3127084
237	0xbeda3035	-0.42614904
238	0xbee45e8d	-0.44603387
239	0xbe72a88d	-0.2369711
240	0x3dc52ec3	0.0962806
241	0xbd49300f	-0.049118098
242	0x3e09ec0b	0.1346895
243	0xbebaedd2	-0.36509567
244	0xbd9e8e53	-0.0774199
245	0x3e454ec9	0.19268335
246	0xbe1490c1	-0.14508344
247	0x3e3e01df	0.18555401
248	0xbdfa3f17	-0.12219065
249	0xbd468cd2	-0.04847414
250	0x3c83d459	0.016092466
251	0xbea70305	-0.3261949
252	0x3c6c05ce	0.014405681
253	0x3ef46226	0.4773113
254	0xbe0444d8	-0.12916887
255	0x3d198c66	0.03748741

rnn.bias_hh f4 [400]
0	0xbf225b71	-0.6342078
1	0x3ed949a0	0.42438984
2	0xbd05d150	-0.03267032
3	0xbedfe3ec	-0.43728578
4	0x3e683eea	0.2268025
5	0x3ed8a24e	0.4231133
6	0xbb08db46	-0.002088265
7	0xbd93d0e0	-0.07217574
8	0x3f73a094	0.951669
9	0x3e887ac2	0.26656157
10	0xbe9d541c	-0.30728233
11	0x3e81af0e	0.2532887
12	0xbe8b8c59	-0.27255514
13	0x3e509d2e	0.2037246
14	0xbe5db831	-0.21652295
15	0xbecb1868	-0.39667058
16	0x3f138da4	0.57638
17	0x3e5c9e64	0.21544796
18	0xbd9cf3b0	-0.07663667
19	0xbdbab8ab	-0.09117254
20	0x3ea351ee	0.31898445
21	0xbe33cb6d	-0.1755807
22	0xbe8ff2d0	-0.2811494
23	0xbcbdcd0c	-0.023169063
24	0x3e0ef84c	0.13961905
25	0xbf02f175	-0.51149684
26	0x3f76ad63	0.9635832
27	0xbf2aa01f	-0.66650575
28	0x3f345819	0.70446926
29	0x3f023ed5	0.50877124
30	0x3e20ae86	0.15691575
31	0x3d0658cc	0.032799527
32	0xbecb0bba	-0.39657384
33	0xbeafede9	-0.343612
34	0xbed86355	-0.42263284
35	0x3e3b6c20	0.18302965
36	0xbca6d070	-0.020363063
37	0xbf166e62	-0.5876218
38	0x3eeaa256	0.45826977
39	0x3b699160	0.0035639629
40	0x3e7ce71c	0.24697536
41	0xbf0b3c83	-0.5438921
42	0xbed0cad8	-0.40779757
43	0xbe26272c	-0.1622588
44	0x3d10bb56	0.035334907
45	0x3cf1d050	0.029518276
46	0xbce670cf	-0.028129963
47	0xbe84fb06	-0.25972766
48	0x3ec2c2e0	0.38039303
49	0xbdc6cfa0	-0.0970757
50	0x3ebeba2d	0.37251416
51	0xbedd1511	-0.43180135
52	0x3f98d010	1.1938496
53	0xbec6f29b	-0.38856968
54	0xbe4399af	-0.19101594
55	0xbe8c2342	-0.2737065
56	0xbe882ffc	-0.2659911
57	0x3f3ada8a	0.72989714
58	0xbee7615c	-0.45191467
59	0x3d9c5cb4	0.07634869
60	0xbdbe19e2	-0.092822805
61	0xbe9ea892	-0.30987984
62	0xbf26311b	-0.6491868
63	0x3eb16886	0.34650058
64	0x3d2305cb	0.039800446
65	0xbe41fdb7	-0.18944441
66	0x3f7c7c39	0.9862705
67	0xbd56cf29	-0.052443657
68	0x3f57f55c	0.84358764
69	0xbefcf5a6	-0.49406165
70	0x3d94af3e	0.07259987
71	0x3f09fecc	0.53904414
72	0x3e8582e2	0.26076418
73	0x3e48458f	0.19557784
74	0xbe95aae9	-0.29231957
75	0x3f4dbd6b	0.80367154
76	0xbe635192	-0.22199085
77	0xbec02561	-0.37528518
78	0xbf3131dd	-0.6921671
79	0x3e7553dc	0.23957771
80	0xbe3ab6e6	-0.18233833
81	0x3e60fc5f	0.21971272
82	0xbd842ca2	-0.064538255
83	0xbebfe37a	-0.37478238
84	0xbeb11279	-0.34584406
85	0xbe3981a5	-0.18115862
86	0x3dc25703	0.094892524
87	0xbe16f325	-0.1474119
88	0x3f88553c	1.0651011
89	0x3dbd814d	0.09253178
90	0x3ea329d8	0.31867862
91	0x3dea870f	0.11451542
92	0x3eaf5762	0.34246355
93	0xbf0b5dfb	-0.5444028
94	0x3ed6c06f	0.4194369
95	0xbe292fa2	-0.16522077
96	0xbe752bf4	-0.23942548
97	0xbe171ec7	-0.14757834
98	0xbd8c29c3	-0.06843903
99	0xbf0ba716	-0.5455183
100	0xbe9eae91	-0.3099256
101	0xbe7fa926	-0.24966869
102	0xbe89af73	-0.2689167
103	0x3d351588	0.044209987
104	0x3d691278	0.05690238
105	0x3f804ea6	1.0024002
106	0xbec8425f	-0.39113137
107	0xbe65fb8b	-0.22459237
108	0x3f244ff4	0.641845
109	0xbec74869	-0.38922432
110	0xbc48fd5b	-0.012267436
111	0xbe96d3b2	-0.29458386
112	0xbd773b38	-0.06035921
113	0x3ea98bce	0.33114475
114	0xbe494b7c	-0.19657701
115	0xbe669152	-0.22516373
116	0xbed3b67b	-0.4135016
117	0xbea8a733	-0.32940063
118	0xbd88a572	-0.06672181
119	0xbec0360c	-0.37541234
120	0xbf2f1bf3	-0.6840202
121	0x3d4bf210	0.049791396
122	0x3d952320	0.0728209
123	0x3f0c2481	0.547432
124	0xbeddac3d	-0.4329547
125	0x3ef089da	0.46980172
126	0x3eeb8062	0.45996386
127	0x3f0cd034	0.5500519
128	0x3ef006b0	0.46880102
129	0xbe450f53	-0.19244127
130	0xbea6ea23	-0.32600507
131	0xbe48e15f	-0.19617222
132	0xbf068173	-0.52541274
133	0xbe473d3c	-0.19456953
134	0x3f42fc1a	0.76165926
135	0x3f6d8b19	0.9279037
136	0xbe95ab27	-0.2923214
137	0xbea7ac23	-0.32748517
138	0xbd9f8f57	-0.07791012
139	0xbd2b6169	-0.041840944
140	0x3f012cf6	0.5045923
141	0xbec241da	-0.37940866
142	0x3f0ee387	0.5581593
143	0xbedc478e	-0.43023342
144	0xbedcce96	-0.43126363
145	0x3ec9f24c	0.3944267
146	0xbda97499	-0.08274192
147	0x3f813625	1.0094649
148	0xbd9f2aae	-0.077718124
149	0x3c8d30aa	0.017235119
150	0xbebff15c	-0.3748883
151	0x3db96f59	0.09054441
152	0xbec4318a	-0.38319045
153	0x3e45a3fb	0.19300835
154	0x3d3c8998	0.046029657
155	0xbe9246a1	-0.2856951
156	0x3f8108ec	1.0080848
157	0xbf2b20bc	-0.66846824
158	0x3d0cdc30	0.034389675
159	0xbbbed92d	-0.005824229
160	0xbe5a9c30	-0.21348643
161	0x3f17661b	0.59140176
162	0xbeda40fa	-0.42627698
163	0xbe71dcba	-0.23619357
164	0xbd9b2235	-0.07574884
165	0xbd930f78	-0.07180685
166	0xbedd8606	-0.43266314
167	0x3ecd7b1e	0.40132993
168	0x3f1490fc	0.5803373
169	0x3daa6cc9	0.0832153
170	0xbee1e27c	-0.44118106
171	0x3ea3e134	0.32007754
172	0x3f25e829	0.64807373
173	0xbb23a810	-0.0024972
174	0x3e3d1305	0.18464287
175	0xbe58b531	-0.21162869
176	0x3ef7fb5b	0.48433957
177	0xbf2cd857	-0.6751761
178	0x3e4c2279	0.19935025
179	0xbdfcf26b	-0.12350925
180	0xbeace464	-0.33767998
181	0x3f8e1727	1.1100816
182	0x3ecf8621	0.4053202
183	0x3e3972e0	0.18110228
184	0xbedb9838	-0.4288957
185	0x3c412c19	0.011790299
186	0x3e2d444c	0.16920584
187	0xbe84a3c6	-0.259062
188	0x3f83302f	1.024908
189	0xbf34fe00	-0.70700073
190	0xbd543c04	-0.051815048
191	0xbec09eda	-0.37621194
192	0xbe83e89a	-0.25763398
193	0xbe51f228	-0.20502532
194	0xbcf942a9	-0.030427294
195	0xbf32bf66	-0.698233
196	0xbe835bbf	-0.25655934
197	0xbeb2489c	-0.34821022
198	0xbf12028e	-0.5703515
199	0x3ca69739	0.02033578
200	0xbd14f824	-0.036369458
201	0xbdd1760b	-0.10227593
202	0xbcebf3f9	-0.028802859
203	0xbec03f8a	-0.37548476
204	0x3f1e196d	0.61757547
205	0xbf70b9bb	-0.940334
206	0x3e4f9b86	0.20274171
207	0x3cf50928	0.029911593
208	0x3f07bbe0	0.5302105
209	0xbd2d0fbd	-0.042251337
210	0x3d6a4ff8	0.05720517
211	0x3e7e4f46	0.24834928
212	0x3dc7389f	0.097275965
213	0x3eec28be	0.46124834
214	0x3d4f39a2	0.050592072
215	0xbeb66ad7	-0.35628387
216	0x3cc55cf5	0.024092177
217	0xbe3f7915	-0.18698533
218	0xbe85bac8	-0.26119065
219	0x3e771c33	0.24131851
220	0xbde5b007	-0.11215215
221	0x3db8086e	0.08985983
222	0x3dfedf92	0.124449864
223	0xbeda00ab	-0.42578635
224	0x3ee1cff3	0.44103965
225	0x3e9fcb12	0.31209618
226	0xbf6ae407	-0.9175419
227	0x3f1a08dd	0.60169774
228	0xbf12dcfb	-0.5736844
229	0xbdd6d01c	-0.104889125
230	0xbe0e478b	-0.13894479
231	0xbd3aa6c1	-0.045569185
232	0x3d573c4f	0.05254775
233	0x3d70fa2e	0.05883234
234	0x3ebb21ca	0.36549217
235	0xbecdd89a	-0.40204316
236	0xbeb238de	-0.3480901
237	0xbed4065d	-0.41411105
238	0xbf0890a1	-0.53345686
239	0xbea480b4	-0.32129443
240	0x3dd92638	0.10602993
241	0xbccac41a	-0.024751712
242	0x3d66e5d1	0.056371514
243	0xbeb06cc7	-0.3445799
244	0xb93835b6	-0.00017567616
245	0x3e7f2803	0.24917607
246	0xbde4056d	-0.111338474
247	0x3ea37e52	0.31932312
248	0x3cc9b9bd	0.0246247
249	0xbc141466	-0.0090380665
250	0xbc40a19c	-0.011757281
251	0xbea19a4b	-0.3156303
252	0xbda5c564	-0.0809429
253	0x3f060863	0.5235655
254	0xbe17d195	-0.14826043
255	0x3e0ce96a	0.13760915

rnn2.weight_ih f4 [400, 100]
0	0x3d8c7636	0.068584844
1	0xbdbd77ad	-0.09251342
2	0x3eefa172	0.4680286
3	0x3dc9411f	0.09826874
4	0xbfd417cf	-1.6569766
5	0x3e678484	0.22609144
6	0x40055037	2.083021
7	0xbf167f42	-0.5878793
8	0x3ee170ea	0.4403146
9	0x3eb5b858	0.35492206
10	0xbd8acd02	-0.067773834
11	0xbdbd0971	-0.092303164
12	0xbf2bd7a8	-0.6712594
13	0x3f21a434	0.6314118
14	0xbf1c4735	-0.61046153
15	0x3f88b3b9	1.0679847
16	0xbfa26213	-1.268618
17	0x3e44098e	0.1914427
18	0x3f7e27e7	0.99279636
19	0xbf676ad1	-0.90397364
20	0xbeed4ffe	-0.46350092
21	0xbface0fa	-1.3506157
22	0xbfe20416	-1.7657497
23	0xbf29a44b	-0.66266316
24	0x400f9722	2.2435994
25	0x3fa1c2ab	1.2637533
26	0x3fd1ac65	1.6380736
27	0xbfaa9395	-1.3326288
28	0xbd5fead0	-0.054667294
29	0x3e321ece	0.17394564
30	0x3f654b38	0.895679
31	0x3f829978	1.0203085
32	0x3e947a77	0.28999683
33	0x3fd21f93	1.6415886
34	0x3f4c6801	0.798462
35	0x3f85a594	1.0441155
36	0x3f203a47	0.62588924
37	0x3fdf8df4	1.7465196
38	0x3f301eb8	0.68796873
39	0xbdd25424	-0.10269955
40	0x3f1bcb31	0.6085692
41	0x3eaf9d81	0.34299853
42	0xbe23409f	-0.1594262
43	0x3eee04dd	0.46488085
44	0x3f9eef3e	1.2416761
45	0x3e61f1d3	0.22064905
46	0x3de1477f	0.10999965
47	0x3d8f0539	0.06983418
48	0xc008aeff	-2.135681
49	0x3fd604e6	1.6720245
50	0x3e852eaa	0.26012164
51	0xc0116cc3	-2.2722633
52	0x3eae9e64	0.34105217
53	0xbf371a4b	-0.71524495
54	0xbd67ea3f	-0.05661988
55	0x3f588a29	0.84585816
56	0xbf79c3dd	-0.9756449
57	0xbfbab60b	-1.4586805
58	0x3fbc297d	1.4700161
59	0x3f1f5ef7	0.6225428
60	0xbfc0e252	-1.5069067
61	0xbdec4706	-0.11536984
62	0x3f1e20cb	0.6176879
63	0xbf95a737	-1.1691655
64	0xbf2d8be1	-0.67791563
65	0xbe22f1b6	-0.15912518
66	0x3e444f28	0.1917082
67	0x3db62ccb	0.08895262
68	0xbd7ca871	-0.061684076
69	0x3dd19130	0.102327704
70	0xc0004333	-2.0041015
71	0x3f21c490	0.63190556
72	0x3fe2e38e	1.7725694
73	0x3f663a67	0.89932865
74	0x3fab721b	1.3394197
75	0xc00270b8	-2.0381298
76	0x3f17f6b5	0.5936082
77	0x3fec9d10	1.8485432
78	0x402edb47	2.7321336
79	0x400e8bde	2.2272868
80	0xbebd8d77	-0.37021992
81	0xbde2d928	-0.110765755
82	0x3f3d6980	0.73989105
83	0xbe8baee3	-0.27281865
84	0x3d46edc5	0.0485666
85	0x3f5f6b5d	0.872732
86	0x3e5b9215	0.21442445
87	0xbf841aa3	-1.0320629
88	0x3f69d657	0.9134268
89	0xbf3289ac	-0.6974132
90	0x3ef433d8	0.47695804
91	0x3f8f17b9	1.1179115
92	0xbf7a2834	-0.97717595
93	0xbfcfcb8a	-1.623399
94	0xbe99416f	-0.29932734
95	0xbf0110d2	-0.5041629
96	0xbfaf6f7c	-1.3705897
97	0x3f1f4852	0.6221973
98	0xbc14dc29	-0.009085693
99	0xbe541048	-0.20709336
100	0xbec20848	-0.37896943
101	0xbf26ed13	-0.65205497
102	0x3f1109bc	0.5665548
103	0x3ec382fb	0.38185868
104	0x3f422ea4	0.7585242
105	0x3ebe15a2	0.3712588
106	0xbf805f32	-1.0029051
107	0xbff19529	-1.8873645
108	0xbfcebd18	-1.6151457
109	0xbf898f6e	-1.0746896
110	0x3ddd40d7	0.10803383
111	0x3fae7a5e	1.3631094
112	0xbfbedaf2	-1.4910567
113	0xbf76d0ee	-0.9641255
114	0xbe34989c	-0.17636341
115	0xbfa744da	-1.3067887
116	0xbf88409e	-1.064472
117	0x3fb1f5a6	1.3903091
118	0xbf528452	-0.82233155
119	0x3e001e00	0.12511444
120	0xbfaef4c3	-1.3668445
121	0xbf58b00d	-0.8464363
122	0x3d185172	0.037187047
123	0x3ed9a335	0.4250733
124	0xbf0de578	-0.55428267
125	0x3f936cbc	1.1517558
126	0x3dc1328f	0.094334714
127	0x3f584754	0.8448384
128	0x3e443fb1	0.19164921
129	0x3e0d38eb	0.13791244
130	0xbd7e46f0	-0.06207937
131	0xbed4f9b0	-0.41596746
132	0xbe5944df	-0.21217678
133	0xbe39216a	-0.18079153
134	0xbf586b5e	-0.8453883
135	0xbfb6a9b0	-1.4270535
136	0x3d7e3eb3	0.062071513
137	0xbf075094	-0.5285733
138	0xbebdb8ad	-0.3705496
139	0x3f028df6	0.50997865
140	0x3e3c209e	0.18371817
141	0xbf9fd3d9	-1.2486526
142	0xbf972863	-1.18092
143	0x3ed56471	0.41678193
144	0x3fa7fe63	1.3124508
145	0xbf1b4c4d	-0.606633
146	0x3f1aa2d8	0.6040473
147	0x3f15624e	0.58353126
148	0x3eeb0ec3	0.459097
149	0xbebb4b43	-0.36580858
150	0xbf8b2546	-1.087075
151	0x3db05a92	0.08611025
152	0xbf052711	-0.52012736
153	0x3f962c36	1.1732242
154	0x3f72a194	0.947778
155	0x3f1b1bfd	0.6058958
156	0xbf71281d	-0.94201833
157	0x3f517666	0.81821287
158	0x3f54d69f	0.83139986
159	0x3f8decac	1.1087852
160	0x3fc79dd4	1.559504
161	0xbfceced9	-1.6156875
162	0x3fbec668	1.4904299
163	0xbef9bb60	-0.48775768
164	0x3fc51ca1	1.5399362
165	0x3da94ade	0.08266233
166	0xbf8427ae	-1.0324609
167	0xbedbd2e0	-0.42934322
168	0xbf65bd14	-0.89741635
169	0xbfd9628b	-1.6983198
170	0xc0069034	-2.1025515
171	0x3f129e71	0.5727301
172	0x3cb21dbc	0.021742694
173	0x3e6dc80b	0.23220842
174	0xbf1014d7	-0.562818
175	0xbeabc328	-0.3354733
176	0x3e516309	0.20447935
177	0x3d9c0e4e	0.07619916
178	0xbfb4eb1e	-1.4134252
179	0xbfad57cf	-1.3542422
180	0x3fcf611c	1.620151
181	0xbf937ea7	-1.1523026
182	0x3f80168d	1.0006882
183	0xbed4a1cd	-0.41529694
184	0x3f02b8b5	0.5106309
185	0xbf463b4b	-0.77434224
186	0xbddea1f6	-0.10870735
187	0xbf8ed088	-1.1157389
188	0x3ed0a5f1	0.40751603
189	0x3eea64f5	0.4578015
190	0xbe211c8d	-0.15733548
191	0x3f32788f	0.6971521
192	0xbf165058	-0.58716345
193	0x3f618f72	0.88109505
194	0x3f171da2	0.5902959
195	0xbf25d359	-0.64775616
196	0xbdb7ea1d	-0.089802004
197	0xbf905ad2	-1.1277716
198	0x3f8bf8dd	1.0935322
199	0xc00b0895	-2.1723988
200	0x3f96a9d1	1.1770574
201	0x3e04fd74	0.1298731
202	0x3e7039f3	0.23459606
203	0x3deb664f	0.11494123
204	0x3e98614a	0.29761726
205	0x3ea66a6b	0.32503065
206	0x3eedcfea	0.46447688
207	0xbda93665	-0.08262328
208	0xbf4c3f67	-0.79784244
209	0xbef93419	-0.4867256
210	0x3fa0e38d	1.2569443
211	0x3eade7da	0.3396595
212	0xbeb0a18c	-0.3449825
213	0xbdb36ecc	-0.08761367
214	0x3eae6c69	0.34067085
215	0xbf7f4c8f	-0.99726194
216	0x3ea290e2	0.31751162
217	0xbfa2b7de	-1.2712362
218	0xbf7c4c20	-0.9855366
219	0x3e8446e3	0.25835332
220	0xbf2471d7	-0.64236206
221	0xbfd36446	-1.6514976
222	0x3f4a2713	0.7896587
223	0x3e9d0023	0.30664167
224	0x3e0439e7	0.12912713
225	0x3fc457ec	1.5339332
226	0xbeb6228e	-0.35573238
227	0x3e34c19b	0.1765198
228	0xbfeb2fcb	-1.837396
229	0xbf24f6c9	-0.64439064
230	0x3f06506e	0.52466476
231	0xbfc8b533	-1.5680298
232	0x3f273466	0.6531433
233	0x3f2dd65b	0.67905205
234	0xbd5f3721	-0.054495934
235	0xbd852044	-0.06500295
236	0xbf180109	-0.5937658
237	0xbd1be053	-0.03805573
238	0x3ea8c6e1	0.32964233
239	0xbdcb8c85	-0.09938911
240	0xbf8f0bb2	-1.1175444
241	0xbe661563	-0.22469096
242	0xbf6d1bee	-0.9262074
243	0xbe2dd5b6	-0.16976056
244	0x3df06d44	0.11739591
245	0xbf8b639a	-1.0889771
246	0xbe82b593	-0.25529155
247	0x3ca372d7	0.01995222
248	0xb9540ff7	-0.00020223843
249	0xbf3e5021	-0.74341017
250	0xbe8721f3	-0.2639309
251	0xbfce3d55	-1.6112467
252	0x3ea37b37	0.31929943
253	0x3e8b9ef4	0.2726971
254	0xbf14f820	-0.5819111
255	0x3f33884f	0.70129865

rnn2.weight_hh f4 [400, 100]
0	0x3ee304ce	0.44339603
1	0xbd910802	-0.070816055
2	0xbf3b1b44	-0.7308848
3	0x3d78f375	0.060779054
4	0xbd58c199	-0.052919004
5	0xbf36fbd2	-0.71478
6	0xbe3dc1bc	-0.18530935
7	0x3dfc0fe6	0.1230772
8	0xbb9beb35	-0.0047582635
9	0xbed0ecbc	-0.40805614
10	0xbf432ae3	-0.76237315
11	0xbf0f4190	-0.55959415
12	0x3e87db15	0.26534334
13	0xbf27cb35	-0.65544444
14	0xbeee1256	-0.46498364
15	0xbfdba8eb	-1.7160925
16	0xbbffaf78	-0.0078029
17	0x3f216531	0.6304503
18	0xbf16005b	-0.5859429
19	0x3d4e69fd	0.050394047
20	0xbf4b1967	-0.79335636
21	0x3f0e5fc9	0.55614907
22	0x3f205775	0.6263345
23	0xbfa27dec	-1.2694678
24	0x3e526399	0.20545806
25	0xbd400c14	-0.04688652
26	0xbf047bbe	-0.51751316
27	0xbeb21f32	-0.34789425
28	0x3ea5cb6f	0.3238177
29	0x3d9bcbd1	0.07607234
30	0x3e15d351	0.14631392
31	0x3eb4b53b	0.35294518
32	0x3de8b7d5	0.11363188
33	0x3e720fe7	0.23638879
34	0xbf090fd6	-0.5353979
35	0xbf82140e	-1.016237
36	0x3e08dfd2	0.1336663
37	0xbdf55130	-0.11978376
38	0x3e47d0dd	0.19513269
39	0xbed5a90b	-0.41730532
40	0xbe109adc	-0.14121574
41	0x3e502c42	0.20329383
42	0x3f18e7a7	0.59728473
43	0x3e618730	0.22024226
44	0x3de13900	0.109972
45	0xbdfa9315	-0.12235085
46	0xbf0682d3	-0.5254337
47	0xbee713b2	-0.45132214
48	0xbebbc4c8	-0.3667357
49	0xbe99dd0e	-0.30051464
50	0xbe6c925e	-0.2310271
51	0xbf82b37c	-1.0211024
52	0x3ce3f060	0.02782458
53	0x3d815e5d	0.063168265
54	0xbf89f84e	-1.0778902
55	0x3df55230	0.11978567
56	0x3e8bfcb3	0.27341232
57	0x3dd19e68	0.10235292
58	0xbe884930	-0.26618338
59	0x3c8dfb4b	0.01733174
60	0x3edcc796	0.43121022
61	0x3f24d859	0.6439262
62	0xbf516518	-0.8179488
63	0xbf94ed67	-1.163495
64	0x3e80a4c9	0.2512572
65	0xbe6f0bab	-0.23344295
66	0x3e737adf	0.2377734
67	0x3e57c21e	0.21070144
68	0xbe798611	-0.24367549
69	0x3e8aa13b	0.27076134
70	0xbf32795a	-0.6971642
71	0xbe930350	-0.28713465
72	0x3e6eed3c	0.23332685
73	0xbf06d0f8	-0.5266261
74	0xbf2c5092	-0.6731044
75	0xbc932a57	-0.017964525
76	0x3d155d30	0.036465824
77	0xbe464adf	-0.19364499
78	0x3e90340f	0.28164718
79	0x3e687193	0.22699575
80	0x3f71d258	0.94461584
81	0x3d86b810	0.06578076
82	0x3f179d7f	0.59224695
83	0x3f941707	1.1569527
84	0xbe47964d	-0.19490929
85	0xbf03f0a9	-0.51539093
86	0x3d7f44c1	0.06232143
87	0x3f515691	0.81772715
88	0xbfa35282	-1.2759554
89	0x3ea1f692	0.3163343
90	0xbd429e2d	-0.04751413
91	0x3f8ee337	1.116309
92	0xbfa1ec07	-1.2650155
93	0x3fbb2066	1.4619262
94	0x3fac8a97	1.3479794
95	0xbeae8fa9	-0.3409398
96	0xbf0f0924	-0.5587332
97	0xbeba7db4	-0.3642403
98	0x3ed895a2	0.4230166
99	0x3f09ac86	0.53778875
100	0xbe90dc77	-0.282932
101	0x3e9e022d	0.30861035
102	0x3edd8b2f	0.4327025
103	0xbe8b81be	-0.27247423
104	0xbd0cc10b	-0.034363788
105	0x3f275df9	0.65377766
106	0x3f479c6f	0.77973074
107	0x3e4ffe01	0.20311739
108	0x3e833e65	0.2563354
109	0xbe80ca4f	-0.2515435
110	0xbea5f509	-0.3241351
111	0xbf77503b	-0.96606797
112	0x3d036368	0.032077223
113	0x3c02cb06	0.007982975
114	0x3e3ff7cb	0.1874687
115	0xbdcb1076	-0.09915249
116	0x3fa5b6c6	1.2946403
117	0x3f398ea5	0.72483283
118	0xbddbf0ad	-0.10739265
119	0xbef198ef	-0.47186992
120	0x3e9696d3	0.29411945
121	0xbb145d50	-0.0022638626
122	0x3e1eb6db	0.15499441
123	0x3ed8f991	0.42377904
124	0xbf6dddb5	-0.92916423
125	0x3df28ea5	0.118436135
126	0xbf4a2883	-0.78968066
127	0x3e3254e7	0.174152
128	0xbe9d9b43	-0.30782518
129	0xbe5787a8	-0.21047843
130	0x3f10e16c	0.56593966
131	0xbea3aca8	-0.31967664
132	0xbe4b92fe	-0.19880292
133	0x3e491491	0.19636752
134	0xbe15df42	-0.14635947
135	0x3f1f29c6	0.62173116
136	0x3f8fbf31	1.1230222
137	0x3e1c2e11	0.15251948
138	0xbed54f12	-0.41661888
139	0xbf666daf	-0.90011114
140	0xbfd0f55f	-1.6324881
141	0x3f207713	0.6268169
142	0xbf3488b5	-0.705211
143	0x3f159bb5	0.58440715
144	0xbf7516c3	-0.95737857
145	0x3f8de216	1.1084621
146	0xbe93aded	-0.28843632
147	0xbfaf4050	-1.3691502
148	0x3ec23515	0.37931123
149	0x40024e15	2.0360157
150	0x3dca579d	0.09879992
151	0x400cab23	2.1979454
152	0xbe2bd5b8	-0.16780746
153	0xbd9b1592	-0.075724736
154	0xbe292a53	-0.16520052
155	0xbf20ed44	-0.6286204
156	0xbf82dd69	-1.0223819
157	0xbe0dcf90	-0.1384871
158	0x3f602ad2	0.8756534
159	0xbe2dc186	-0.16968355
160	0xbf21b352	-0.63164246
161	0x3f019f21	0.50633436
162	0x4016ee40	2.3582916
163	0x3f21db85	0.63225585
164	0xbebac4b8	-0.3647821
165	0xbef60411	-0.48049977
166	0xbe86de1f	-0.2634134
167	0xbee4a545	-0.4465734
168	0xbd4d502a	-0.05012528
169	0x3e4e7f45	0.20165737
170	0xbeaa9902	-0.3331986
171	0xbecf96c8	-0.40544724
172	0x3ea9527f	0.33070752
173	0x3e3ce859	0.18448009
174	0xbf7e4fd4	-0.9934056
175	0xbec5dcec	-0.38645113
176	0xbf00f0c4	-0.5036738
177	0xbe65fef4	-0.22460538
178	0xbf49101d	-0.7854021
179	0x3f5f6c3d	0.87274534
180	0x3f071d30	0.5277891
181	0x3ea5804c	0.32324445
182	0x3f2dbd28	0.67866755
183	0xbf2e66df	-0.6812572
184	0xbf26f992	-0.65224564
185	0xbf583344	-0.84453225
186	0x3e885785	0.26629272
187	0xbec221da	-0.37916452
188	0xbf8590b3	-1.0434784
189	0xbf6b6465	-0.91950065
190	0x3f665f7c	0.8998945
191	0x3f0f07e7	0.55871433
192	0xbf23ac41	-0.63934714
193	0x3ee5baec	0.44869173
194	0x3f845f42	1.034157
195	0xbfaac0bf	-1.3340071
196	0x3f04a687	0.518166
197	0x3de5e0c9	0.11224515
198	0xbed123ca	-0.40847617
199	0xbf100b4f	-0.56267256
200	0x3e238042	0.15966895
201	0xbf169f97	-0.58837265
202	0xbf8d136a	-1.102155
203	0x3dba1f79	0.09088034
204	0xbde97e86	-0.114010856
205	0x3fda30c8	1.7046137
206	0xbf789d43	-0.9711496
207	0x3e8e50dc	0.27796066
208	0x3df235ce	0.11826669
209	0xbf3c60d9	-0.7358528
210	0xbf0c1c45	-0.54730636
211	0xbf2d28e3	-0.67640513
212	0xbde7c489	-0.11316783
213	0xbfa3ba9d	-1.2791325
214	0x3e827ff8	0.25488257
215	0xbf6da55d	-0.9283045
216	0xbf0b317c	-0.5437238
217	0xbe9be664	-0.30449212
218	0x3f0ba4d1	0.54548365
219	0x3f1864ee	0.59529006
220	0xbe4609a8	-0.19339621
221	0xbfb72a11	-1.4309713
222	0x3f0c7a46	0.54874074
223	0xbdcbb099	-0.09945793
224	0xbee606b0	-0.44926977
225	0x3f949fcd	1.1611267
226	0xbe889c3e	-0.26681703
227	0xbf07f934	-0.5311463
228	0x3fae0205	1.3594366
229	0x3e0d2903	0.13785176
230	0xbe7400aa	-0.23828378
231	0x3e827045	0.2547628
232	0x3eddbaf7	0.43306705
233	0x3ea900c2	0.3300839
234	0xbe1fa59b	-0.15590517
235	0x3e32478e	0.17410108
236	0x3f72240d	0.9458626
237	0x3f2ca464	0.6743834
238	0xbe4f7080	-0.20257759
239	0xbd5b3b53	-0.053523373
240	0xbeca8d2f	-0.3956084
241	0xbe9e8c82	-0.30966574
242	0x3f3b24ad	0.7310284
243	0xbf441bff	-0.7660522
244	0xbede68b6	-0.43439263
245	0x3e9f9e70	0.31175566
246	0x3ff7d27d	1.9361111
247	0xbe0efcfc	-0.13963693
248	0xbfc954b6	-1.5728977
249	0x3f11d8b9	0.5697132
250	0x3fae880f	1.3635272
251	0x3f1caaf2	0.6119834
252	0x3f6a0317	0.91410965
253	0x3f3ffcd4	0.7499516
254	0xbeb34882	-0.35016257
255	0x3f286edb	0.6579415

rnn2.bias_ih f4 [400]
0	0x3ed7e652	0.42167908
1	0xbed42509	-0.41434506
2	0x3e9712a8	0.2950642
3	0xbe1fe183	-0.1561337
4	0x3de8d4d5	0.113687195
5	0xbda4f466	-0.08054428
6	0x3ead5e87	0.3386118
7	0x3f524125	0.8213065
8	0xbdacf5da	-0.0844533
9	0x3f2b04b2	0.6680404
10	0xbf1d6665	-0.61484367
11	0x3d2a4653	0.041570973
12	0xbd557cc8	-0.052120954
13	0xbf2d2be5	-0.676451
14	0x3f2459d9	0.64199597
15	0x3eaf5455	0.34244028
16	0xbdbf4ae5	-0.09340457
17	0xbdcc00bf	-0.0996108
18	0xbe3ce8fd	-0.18448253
19	0xbe2814f1	-0.16414239
20	0x3e241295	0.16022713
21	0xbd52c101	-0.051453594
22	0xbdfc58a5	-0.12321595
23	0x3e9fb593	0.31193218
24	0x3f350afa	0.70719874
25	0xbf28d36c	-0.65947604
26	0x3c163d38	0.009169869
27	0x3e1a7809	0.15084852
28	0xbec7e869	-0.39044502
29	0xbde6ae80	-0.11263752
30	0x3d88c351	0.06677879
31	0xbe6d0ca3	-0.23149352
32	0x3e39df68	0.18151629
33	0xbf23ae01	-0.63937384
34	0x3ea19376	0.31557816
35	0xbdca02e7	-0.09863835
36	0xbea54916	-0.32282323
37	0x3d8f76f7	0.070051126
38	0xbf3fbeb8	-0.7490039
39	0xbea38009	-0.3193362
40	0x3e36e74c	0.1786167
41	0xbe19c7d3	-0.15017633
42	0x3db613a6	0.088904664
43	0x3d839045	0.064240016
44	0x3d4bba83	0.04973842
45	0xbea70050	-0.32617426
46	0x3d9ce3ff	0.07660674
47	0xbef6aa76	-0.48176926
48	0x3ead8ea2	0.33897883
49	0xbdd7ea63	-0.105427526
50	0xbe97a08d	-0.29614678
51	0xbcbcb86f	-0.023037164
52	0xbf038bba	-0.5138508
53	0x3e01addc	0.12663978
54	0xbe04b41e	-0.12959334
55	0x3e7dd211	0.24787165
56	0x3d387ee8	0.045042902
57	0x3e1a8010	0.15087914
58	0xbf0b9771	-0.54527956
59	0xbde63bc5	-0.11241869
60	0xbf226822	-0.63440144
61	0xbe406251	-0.18787505
62	0xbeb21320	-0.34780216
63	0x3ed2d802	0.41180426
64	0xbeac000c	-0.33593786
65	0x3e996740	0.29961586
66	0xbec57164	-0.38563073
67	0x3e481837	0.19540487
68	0x3f0b6654	0.54453015
69	0xbe9100fd	-0.28321066
70	0xbec5a92e	-0.38605636
71	0xbeb5192b	-0.35370764
72	0xbf03f4fa	-0.5154568
73	0xbeb6c6bc	-0.35698497
74	0xbea05c2d	-0.31320325
75	0x3eee23a2	0.4651156
76	0x3e986aae	0.2976889
77	0x3e06c32f	0.13160394
78	0xbf3b9777	-0.7327799
79	0xbe4b410e	-0.19849035
80	0xbde9896a	-0.11403163
81	0x3eb66a76	0.35628098
82	0x3ddcca1a	0.10780735
83	0xbe3bd90c	-0.18344516
84	0xbf3cf1e7	-0.73806614
85	0xbdc7c36e	-0.09754072
86	0x3f248d96	0.64278543
87	0xbef7b560	-0.48380566
88	0xbc247d45	-0.010039632
89	0x3f0b8168	0.54494333
90	0x3b73206a	0.0037098178
91	0x3db5b716	0.088728115
92	0xbe9907d2	-0.2988878
93	0xbe713ba1	-0.23557903
94	0x3f041786	0.51598394
95	0x3e866195	0.26246324
96	0x3ebc3826	0.36761588
97	0x3f13e083	0.5776445
98	0xbece7c66	-0.40329283
99	0x3e63382e	0.221894
100	0xbed2cea7	-0.41173288
101	0xbeabbe40	-0.33543587
102	0xbe442bc2	-0.19157317
103	0x3ddb3fef	0.10705554
104	0xbe8400bf	-0.2578182
105	0x3efbb108	0.49158502
106	0x3f00d2f1	0.5032187
107	0xbefc81d9	-0.49317816
108	0xbe55cddb	-0.20879309
109	0x3e097123	0.13422064
110	0x3e8b7392	0.2723661
111	0xbeb93e97	-0.36180565
112	0x3e41fdcb	0.1894447
113	0x3e8a1795	0.26971117
114	0xbf04fa26	-0.51944196
115	0x3e9223e3	0.28543004
116	0xbef96a2a	-0.4871381
117	0x3d634ee9	0.055495176
118	0x3ec47365	0.3836929
119	0x3e9b6f70	0.30358458
120	0xbe61441d	-0.2199864
121	0x3ebe57d4	0.37176383
122	0x3d49d529	0.04927555
123	0x3f22bd29	0.63569885
124	0x3ddd029c	0.10791513
125	0xbeda917a	-0.42689115
126	0xbe913a46	-0.28364772
127	0x3e68410c	0.22681063
128	0xbee05867	-0.43817446
129	0x3db629b4	0.08894673
130	0xbea37502	-0.31925207
131	0xbea0a654	-0.31376898
132	0x3e9b4db2	0.30332714
133	0xbd2c404b	-0.042053502
134	0x3e38bf0a	0.18041626
135	0xbebbb182	-0.36658865
136	0xbec04cd2	-0.3755861
137	0x3e347df1	0.17626168
138	0xbf0cd3b0	-0.5501051
139	0x3e3d218c	0.18469828
140	0xbe0ee609	-0.13954939
141	0x3e599557	0.21248375
142	0x3e1fe6bc	0.15615362
143	0xbc705854	-0.014669497
144	0x3d0db726	0.034598492
145	0xbdfbb31c	-0.12290022
146	0x3f17a21e	0.59231746
147	0x3f150a56	0.58218896
148	0x3f0ccf70	0.55004025
149	0xbe4f1c14	-0.20225555
150	0x3e8b274e	0.27178425
151	0xbe111c9d	-0.14171071
152	0xbed85164	-0.42249596
153	0x3ea43f62	0.32079607
154	0xbed77181	-0.42078784
155	0xbe613027	-0.21991025
156	0x3ef419d2	0.4767595
157	0xbf10f05b	-0.56616753
158	0x3e119cb1	0.1421993
159	0x3ed0d5a2	0.4078799
160	0x3eedd7ca	0.46453696
161	0xbc90a7cf	-0.017658142
162	0x3f2d08d7	0.67591614
163	0x3f024589	0.5088735
164	0xbe8ef717	-0.2792289
165	0xbeab55b4	-0.33463824
166	0x3f2212e0	0.6331005
167	0x3f1fcc17	0.6242079
168	0xbedee397	-0.43533012
169	0x3f5650ca	0.83717024
170	0x3e833763	0.25628194
171	0xbda4d969	-0.0804928
172	0x3ed8733e	0.42275423
173	0xbd47ccd4	-0.048779324
174	0xbf1fecf6	-0.6247095
175	0xbf4f0904	-0.8087313
176	0x3d931a2f	0.071827285
177	0xbcb91d0f	-0.022596864
178	0xbe31f97a	-0.17380324
179	0x3f0302a2	0.5117589
180	0xbf1d3671	-0.61411196
181	0x3edc9e26	0.43089408
182	0xbec42492	-0.3830915
183	0xbf260583	-0.6485216
184	0x3efdbe4d	0.4955925
185	0xbe57430a	-0.21021667
186	0xbe917bbf	-0.28414723
187	0xbe690f29	-0.2275969
188	0x3ba3890e	0.0049907034
189	0xbed85d18	-0.42258525
190	0xbe94f3e5	-0.29092327
191	0xbe4b7b50	-0.19871259
192	0x3dceb8f6	0.10093872
193	0xbe03ace4	-0.12858921
194	0xbdcc9bc4	-0.099906474
195	0x3e823b61	0.25435928
196	0x3d849ae7	0.06474858
197	0x3e9abd42	0.30222517
198	0x3eaf1df1	0.3420253
199	0xbdcbbab6	-0.09947722
200	0x3e1d3b64	0.15354687
201	0xbed7f3d9	-0.42178228
202	0xbee715e2	-0.45133883
203	0x3f1828a6	0.59437025
204	0xbe9a4c22	-0.3013621
205	0x3f3ac124	0.7295096
206	0xbf808a31	-1.0042173
207	0x3f6203c3	0.8828699
208	0x3f210004	0.6289065
209	0xbee0aedb	-0.43883404
210	0x3f24524a	0.64188063
211	0x3de9bec1	0.114133365
212	0xbef55fe1	-0.47924712
213	0xbea00729	-0.31255463
214	0xbcd447b6	-0.0259131
215	0xbf2d61e0	-0.6772747
216	0x3f31be18	0.69430685
217	0x3f1ce81c	0.6129167
218	0x3eb03a35	0.34419408
219	0x3ecdef14	0.40221465
220	0xbf4b23f2	-0.79351723
221	0x3ebdd08b	0.37073168
222	0x3f041581	0.5159531
223	0x3f18c811	0.5968028
224	0x3f57c2c5	0.8428157
225	0x3eb2886c	0.34869707
226	0xbe97557f	-0.29557416
227	0xbda78991	-0.081805356
228	0x3edab62f	0.4271712
229	0xbf0de0ab	-0.5542094
230	0x3e95762b	0.29191718
231	0xbea32078	-0.3186071
232	0xbf5179ea	-0.8182665
233	0xbebd013d	-0.36915007
234	0xbe96a26a	-0.29420787
235	0x3eea177b	0.4572104
236	0x3f1820fc	0.5942533
237	0xbf42bc24	-0.7606833
238	0x3de6a2af	0.11261498
239	0xbe62dcb8	-0.2215451
240	0x3e0334ac	0.12813061
241	0xbf5492d2	-0.8303653
242	0xbf7726a2	-0.96543324
243	0xbe84563c	-0.25847042
244	0xbea5d7a6	-0.3239109
245	0x3db2b573	0.08726015
246	0xbf51c446	-0.81940114
247	0xbf51ecf5	-0.8200219
248	0xbf5bb605	-0.85824615
249	0xbec39796	-0.38201588
250	0x3ec0cf38	0.37658095
251	0xbf695505	-0.91145355
252	0x3ecabd91	0.39597753
253	0x3f176cc7	0.59150356
254	0xbedcd385	-0.43130127
255	0x3f5be811	0.8590098
